1-init-experiments/logs/line8-2024-09-20@23-59-23/final-10000.pt (torch, 11061 bytes, 13 tensors)

target_coords f4 [8, 3]
00000000: 0000 00bf 0000 00bf 0000 00bf 6edb b6be
00000010: 6edb b6be 6edb b6be b66d 5bbe b66d 5bbe
00000020: b66d 5bbe 2049 92bd 2049 92bd 2049 92bd
00000030: 2049 923d 2049 923d 2049 923d b66d 5b3e
00000040: b66d 5b3e b66d 5b3e 6edb b63e 6edb b63e
00000050: 6edb b63e 0000 003f 0000 003f 0000 003f
-0.5 -0.5 -0.5 -0.35714287 -0.35714287 -0.35714287 -0.2142857 -0.2142857
-0.2142857 -0.07142854 -0.07142854 -0.07142854 0.07142854 0.07142854 0.07142854 0.2142857
0.2142857 0.2142857 0.35714287 0.35714287 0.35714287 0.5 0.5 0.5

egnn.layers.0.message_mlp.0.weight f4 [16, 17]
00000000: b9f1 4abe c75e 85be f837 4c3d 7624 83be
00000010: b245 dabd 3c46 a9bd ac63 623e 4235 8fbd
00000020: bc4d 59bc 0ff9 68be 0be3 03be ccb2 2cbd
00000030: 5dc3 89be ae1b 93bd b0f1 69be 160d 70be
00000040: 59f6 063e 2f9b bf3d a2d4 42be ad00 453e
00000050: d1da 44be fdc8 47be 3e3e b3bd 4dad 15be
00000060: 04fb 40be 4958 c83b 6aab 64bc f6e9 eb3c
00000070: 91e3 20bc 8e88 2a3b 89a2 2cbe 91ab 3b3e
00000080: e665 db3d 7571 823c e928 01bd f61b bf3e
00000090: 1298 cbbe 542b 26be 0dc4 d3bd e4a7 20be
000000a0: 311c f13e 2c69 a7be e8f2 08bb 8098 fd3c
000000b0: 3edc 04be 5bc0 b23d 9001 1abe e145 223e
000000c0: d41a 09be 17dd 9b3d c5c3 9b3e 264a 563e
000000d0: 69a5 433e 9850 553e cd95 073f 6e5f 873e
000000e0: f450 94be 2b79 9d3d 3310 6b3e 6cb6 a03e
000000f0: 64b1 523e fdb8 5f3e 1347 f33d 8e9a 893e
00000100: 8cfa 37be 87de f3bd 49a7 463e 822d 553d
00000110: 9b5d 493e 842b 65be 770d ffba 64e8 44be
00000120: b7e9 95bd b4d1 2d3e f7d1 413d 4882 ccbd
00000130: 51d7 963d 4e61 83be 7f66 c7bd 96b6 75be
00000140: fb34 57be 3ac0 a4bd 2d84 5bbe 0fd0 1c3e
00000150: 21c7 ab3d 0f9c 343e bfff 4c3d 7d06 2fbe
00000160: 7264 82be 6fe4 e1be 9354 223d 776f 433e
00000170: a6b0 85be a670 cdbe 7eb8 48be b017 563e
00000180: dfc7 a9bd 7105 b63c b848 393e 6107 db3b
00000190: 9c47 363e fc90 c93d 46f3 03bd d623 bfbc
000001a0: 9253 aa3d b913 683e 072f a9bd 537b a5bc
000001b0: 7da2 20be 8308 b03e 029f debe 07c6 29bd
000001c0: 445c 0f3e 69d5 443e 9424 ae3e 64c2 81be
000001d0: c7e6 de3d a4d0 67be 4a66 adbd 5b6c 5dbe
000001e0: 1b4d 2a3e 02dc 8a3d fad8 c1be 6cb6 46be
000001f0: 6630 04be 09bf c6bc a827 bcbe ccd1 323d
00000200: 8092 4bbe b15f 55be c3d0 3cbe 2c06 14be
00000210: e61d dc3c f569 5fbc c1b5 64be 8f04 333c
00000220: 77e7 973d 845f 9d3e e192 0abe 8525 9dbe
00000230: 4c55 0abe b329 aabe 67fe aa3e a302 a2be
00000240: c3c7 9d3e eaf8 5fbe c5ff 933d f2ac 80be
00000250: 82ea 8c3d 1192 0e3e 73e9 5e3e d7ba 2c3e
00000260: 0a1a 923e 3d57 15be ea54 383d 6671 5b3e
00000270: ebd8 d23c 6852 453d 38d1 033c bfd6 7dbd
00000280: addc 843e 50a5 e33b bbc1 323e b1f5 d53a
00000290: 7353 36be 2bca 9b3d 9553 103d d4ec 3bbd
000002a0: 9306 243e 7b90 49be dbb2 3f3e 649b e9bc
000002b0: 422d e73d 1788 00be 24b6 663c edd9 8a3d
000002c0: 8137 1fbe 4a78 88be 997f 663e bf37 75be
000002d0: e5ff ab3d 069c 11be 470e bebd 538c 41be
000002e0: be86 fb3d 94b8 58be dd1b 353e d4ca 99bc
000002f0: 2e0a dc3d 5766 17be d24d a53c ade8 3a3e
00000300: 2236 163e 0aca 4b3d 4595 3fbe a14d 1c3d
00000310: c980 913c 54dc c3bc 3d51 4dbe 85cd 36be
00000320: f12c a03d f888 213e e9f8 553d c2ca 893e
00000330: 7fb0 893e fad5 38be 5b86 8abe d304 78be
00000340: 729f c2be 850a 463e df61 e3bd 7b79 96be
00000350: f45b 043e ba56 74be 9dcf b3bd 570a 28be
00000360: 5aa0 05be 0986 c3bd 6651 93bc 4b88 7fbd
00000370: bfef 0e3e d500 2b3e 388b 0ebe 925f e83d
00000380: 10e5 a73d 8b60 4f3c 3292 01be fb3b edbd
00000390: 0c06 4d3e 0cee 343e e8dd c43c 6ad9 133c
000003a0: b026 653e f3fa 5f3e 8ba1 82be bf66 113e
000003b0: f3f2 1e3d a351 983c ed0f c1bb d593 0d3e
000003c0: e2b2 b83d e399 bbbe 4cef d2be 2602 e43d
000003d0: 0c31 fb3d 0f95 d2be ae28 3c3e 5782 723d
000003e0: 1a17 77bc b039 653e 24ff 373e 95ea b83d
000003f0: 5fc4 283e b4e1 9abd 0563 163e 371d 5abe
-0.19818772 -0.26048872 0.049858063 -0.25613755 -0.106578246 -0.08265349 0.22108334 -0.0699258
-0.013263162 -0.22751258 -0.12879579 -0.0421627 -0.26906863 -0.07183014 -0.22846103 -0.23442492
0.13179912 0.09355771 -0.19026425 0.19238539 -0.19224097 -0.19510265 -0.08752106 -0.1461689
-0.18845755 0.00611404 -0.013956884 0.028798085 -0.009819881 0.0026021334 -0.16858877 0.18327166
0.10712795 0.015923241 -0.031533156 0.3732602 -0.39764458 -0.16227466 -0.10340128 -0.15689045
0.4709182 -0.32697427 -0.0020896737 0.030956507 -0.1297464 0.08728095 -0.15039659 0.15846969
-0.1338914 0.07610529 0.30422798 0.20926723 0.19106068 0.20831525 0.5296295 0.26439995
-0.28968012 0.076891266 0.22955398 0.31389177 0.20575482 0.21847911 0.11878791 0.26875728
-0.1796667 -0.11907678 0.19399752 0.052045353 0.19664614 -0.22379881 -0.0019458969 -0.19229275
-0.07319968 0.16974527 0.04731938 -0.09985787 0.07365287 -0.25660175 -0.097363465 -0.23995432
-0.21016304 -0.08044477 -0.2143714 0.15313743 0.0838759 0.17637657 0.050048586 -0.17092319
-0.2546726 -0.44119594 0.039631438 0.19085489 -0.26111335 -0.40125006 -0.19601628 0.20907474
-0.082900755 0.022219392 0.18094146 0.0066842292 0.17800754 0.09842107 -0.032214426 -0.023332518
0.08316721 0.22663774 -0.08260923 -0.020200407 -0.15686984 0.34381494 -0.43480688 -0.04144862
0.1400004 0.19222035 0.34012282 -0.2534362 0.10883861 -0.22638184 -0.08466776 -0.21623366
0.16630976 0.067802444 -0.37860852 -0.19405526 -0.12909088 -0.024261015 -0.36749005 0.04365711
-0.19880104 -0.20837285 -0.18439011 -0.1445548 0.026869725 -0.013636102 -0.22334959 0.01092638
0.07417195 0.30736935 -0.13532592 -0.30692688 -0.135091 -0.3323494 0.3339722 -0.31642637
0.3081647 -0.21872297 0.072265185 -0.25131947 0.06880666 0.13922907 0.21768741 0.16868149
0.2853549 -0.1458406 0.045002855 0.21429977 0.0257382 0.04817429 0.008045487 -0.061972376
0.25949612 0.006947197 0.17456715 0.0016323832 -0.17805271 0.0760692 0.03523596 -0.045880154
0.16018133 -0.19684021 0.18720572 -0.028516479 0.11287929 -0.12551914 0.014081512 0.06779847
-0.15548517 -0.26654273 0.22509612 -0.23947047 0.083984174 -0.14219674 -0.09280067 -0.18901186
0.122815594 -0.21164161 0.1768641 -0.018773474 0.10744129 -0.14785133 0.02017871 0.18252821
0.14669088 0.049753226 -0.18709286 0.03815997 0.017761605 -0.023908772 -0.20050521 -0.17851837
0.07821072 0.15774906 0.052239332 0.26912504 0.26892468 -0.18050376 -0.2705563 -0.2422059
-0.38012272 0.1933995 -0.11102652 -0.29389557 0.12925702 -0.23861209 -0.087798335 -0.16410194
-0.1304945 -0.095470496 -0.01798315 -0.06238584 0.13958643 0.16699536 -0.13920295 0.113463536
0.08197987 0.012657295 -0.12653425 -0.11583706 0.20021838 0.17668933 0.024031594 0.0090240035
0.2237804 0.21873073 -0.25513873 0.14199351 0.038805913 0.018593615 -0.005891791 0.13825925
0.09018494 -0.36640844 -0.41198194 0.11133222 0.12265214 -0.41129348 0.18374893 0.059206333
-0.015081191 0.22385287 0.17968422 0.09029118 0.1648116 -0.07562581 0.1468621 -0.21300207

egnn.layers.0.message_mlp.0.bias f4 [16]
00000000: 49b8 793d 136f 483e 240a 17bd f183 dc3b
00000010: f866 cebc 8e38 aa3e b1cf 9f3e f480 8b3d
00000020: 4d18 313d 24b7 18bd 972c 45bd fee9 dc3c
00000030: 13ce 11be 784c 243d 4ac1 20bd e022 32bd
0.060966764 0.19573621 -0.036874905 0.006729596 -0.025195584 0.33246273 0.31213143 0.06811705
0.043236066 -0.03728403 -0.048138227 0.026967045 -0.14238767 0.04011199 -0.039246835 -0.04349029

egnn.layers.0.message_mlp.2.weight f4 [16, 16]
00000000: 5f61 2fbe 73e0 073e 903e 813d db15 8e3e
00000010: 024c 3ebe 10d9 3a3e b0fe 8fbe f7a3 4d3e
00000020: 94a2 ca3d 0a59 253b de9d abbc b281 5abd
00000030: 6040 8b3e f9b9 613e 06f9 c33e b909 ad3d
00000040: 1e07 8c3e 1f24 e33a 5a99 1fbe ffe6 a7be
00000050: cf04 8dbd fe63 e23c c382 51be 8ab2 673e
00000060: b20c 54be ec68 f63b 5d17 6d3e 5754 cc3b
00000070: 6a58 1abe e0a4 9abd 40d0 a0bc 9309 1ebe
00000080: 50e4 2cbe 9827 8ebe 3cdf 8f3e 0332 923e
00000090: e533 75be 0d10 05be 20e8 a4be 4d93 9bbd
000000a0: a070 e13d 33a1 4bbe 214d 263e 1dcd 073d
000000b0: 1d4d 1bbe 4fdb 29be 779c 4f3d 3ea4 cb3c
000000c0: d413 9b3e eb9b bdbd 1b23 863d 731c 5dbd
000000d0: 4f70 1cbe 3890 f93c fb11 c0be 8b4b 403d
000000e0: 15b2 bb3d 05d7 77be 1247 073c c3a3 7f3e
000000f0: 6cf5 a83d b783 7ebe 525b 8f3e f40a f7bd
00000100: 27b5 623e a2fc 56bd 9df5 883c e0ac 52be
00000110: 3558 6e3e a4f2 4f3e 91ac 1abe 6804 483e
00000120: 6dc9 853e d29f 49be 11fb d73d fe0c 463d
00000130: 29da f3bd 4b7b 883c 96a4 e2bc 5051 663e
00000140: 9fda 5e3e e6e5 673e 4fc0 823e 2e37 3bbe
00000150: 60e7 aabd fa14 123f cf1c bdbe 1101 203e
00000160: 0a34 4d3e f5f6 b9be 544c 423d 19a6 19be
00000170: 5800 24bd c3e8 4abe 2899 0ebc ddee 31be
00000180: 5a9f 623e bb4f 983d 94ae 7ebd b4d4 9b3a
00000190: 6137 003e 878e 9fbe 26a6 5dbd 6168 223e
000001a0: 8645 b23d 9517 96bd 263b e83d a4bc db3d
000001b0: 93ce 123e 8af7 b0bc 39de 6bbe 6106 623d
000001c0: b8f6 533d 45d9 8e3e 2987 433e eea8 2ebd
000001d0: f230 523e 2d7c 473e 34e3 93be 6bbb 373e
000001e0: ea1d ba3e fe0b 2bbe ab3b 183e c4d9 8c3c
000001f0: d2a6 8d3e d385 69bd 9473 553e 531b c43d
00000200: 4af5 a5bd e485 713e 66d9 e4bd e2ae 8d3d
00000210: 54e2 ef3d cecc c6bd 632f 183e c047 c73b
00000220: b3d8 073e c14b 5a3e 134b 1cbc 3d96 21be
00000230: 34af 0bbe ba32 04bd 1bb8 9a3e 4d79 80be
00000240: a471 443e d300 193e cbdb 953e 6f1e 90bd
00000250: 2abe 7e3e 8854 073e b2fc b6be 3f1f 913d
00000260: 559b bb3d f6d9 48bd b1b7 a33d 6f08 ad3d
00000270: f952 483e 58ee 243e c26d 813e c217 343e
00000280: dcdc f6be 4ffa 933d 313a bfbd 29a6 9b3e
00000290: f1a6 3abe 33f7 b9be aa0a 6e3e c269 e0bc
000002a0: 0a02 47be df62 ba3c 76e0 95be 31be 59be
000002b0: 2eb0 80be 5980 df3e c3d4 2dbe 4786 b2bc
000002c0: 31e1 eb3d 2805 343e 0fc6 39be 1dbd 433d
000002d0: 5206 023e e12b d2bd 10f9 423e f27f a0be
000002e0: 962c 6d3d 7f3d 163e 4565 02be 298f e8bd
000002f0: 9856 2c3c 1aad 273e ceee 12be f805 9abe
00000300: 596c 783e 7e68 293e 6403 95bd 5638 ecbd
00000310: 53be 3dbe 299a 88bd 8b08 09be 7774 593d
00000320: 7d67 6f3d 498b 263e 16c7 53be f64e d6bd
00000330: 02d2 9e3d 24f2 4bbc 81a7 a33b 4f33 e43c
00000340: 01b5 94bd deed 613c fe0b 503c d639 adbe
00000350: 541d ec3d 2c3f 9a3d 0443 1ebe 2da5 803d
00000360: dfa2 d2bd f4e6 19be 2b9f 223e b8b3 72be
00000370: 893e 373e 5285 b23d 482e 30be 349d 623e
00000380: 7573 f43d fc47 f33d 5bae cf3e 62c3 853e
00000390: f518 47be 86c4 7d3e b1f0 7bbe 6c74 82bc
000003a0: 0a30 a23e d922 373c c563 4f39 92c8 c73a
000003b0: 36c6 1abc adb4 f43d a5ef 033e e054 b1bd
000003c0: 37e3 063d 1903 21bc 7f84 69be 1908 9fbe
000003d0: c1cb aa3c 19c5 a33c 26e3 d1bd 6225 42bd
000003e0: 3cf8 85bc f997 2dbe 1158 513e 9cbd df3c
000003f0: 29b1 66be 72c4 76be be91 9dbe 550f a2be
-0.17126988 0.13269214 0.06310761 0.2775105 -0.18583682 0.18246865 -0.28124 0.20082079
0.098942906 0.0025230073 -0.0209493 -0.053346343 0.27197552 0.22043599 0.38275927 0.0844912
0.2734918 0.001732949 -0.15585843 -0.32793424 -0.06885683 0.02763557 -0.20460038 0.22626701
-0.20707968 0.007519832 0.23153444 0.00623564 -0.1507279 -0.07550979 -0.019630551 -0.1543334
-0.1688397 -0.27764583 0.28100002 0.2855378 -0.23945577 -0.12994404 -0.32208347 -0.07596455
0.1100781 -0.19885711 0.1624036 0.033154596 -0.15166135 -0.16587566 0.050686326 0.02485859
0.30288565 -0.092582546 0.065496646 -0.05398221 -0.15277217 0.030464277 -0.37513718 0.046947043
0.09164826 -0.24203117 0.008256691 0.24964814 0.082499355 -0.24854933 0.2799936 -0.12062636
0.22139417 -0.052487023 0.01671868 -0.20573759 0.23275836 0.20307404 -0.15104891 0.19532931
0.26130238 -0.19689873 0.10545934 0.048352234 -0.11906845 0.016660353 -0.027666371 0.22491956
0.21763085 0.22646293 0.25537345 -0.18282768 -0.083449125 0.5706326 -0.36936042 0.15625407
0.20039383 -0.36321226 0.047436073 -0.15004767 -0.04003939 -0.19815354 -0.0087035075 -0.17376275
0.221311 0.074370824 -0.06217821 0.0011888952 0.12521125 -0.31163427 -0.05411353 0.1586013
0.08704667 -0.07328717 0.11339407 0.1072934 0.14336614 -0.02160241 -0.2303399 0.055181865
0.05174896 0.27900138 0.19094528 -0.042641573 0.20526484 0.19480963 -0.2888428 0.17942588
0.36350948 -0.16703793 0.14866512 0.017193682 0.27666336 -0.05701239 0.20844871 0.09575524
-0.08103426 0.23586231 -0.11174278 0.06918122 0.117130905 -0.09707032 0.14861827 0.0060815513
0.13266258 0.2131796 -0.009539383 -0.15779968 -0.13641053 -0.03227494 0.30218586 -0.25092545
0.19183975 0.1494172 0.2926925 -0.07037055 0.2487723 0.1321584 -0.35739666 0.07086038
0.091604866 -0.04903599 0.07994021 0.08448874 0.19562902 0.16106546 0.2527905 0.17587188
-0.48215377 0.07225477 -0.09337271 0.30400208 -0.18227746 -0.3632141 0.23246256 -0.02739418
-0.19434372 0.022752224 -0.29272813 -0.21263959 -0.25134414 0.4365261 -0.16975693 -0.021792544
0.11517561 0.17580092 -0.1814196 0.047787774 0.12697724 -0.102622755 0.19040322 -0.31347615
0.05790385 0.14671896 -0.12733944 -0.11355431 0.010518692 0.16374627 -0.1434891 -0.3008268
0.24260081 0.16543767 -0.07276037 -0.11534183 -0.18529634 -0.06670029 -0.13382165 0.053089585
0.058448303 0.1626407 -0.20681414 -0.10464279 0.077548996 -0.012447868 0.0049943333 0.027856497
-0.07261086 0.013789622 0.012698172 -0.33833188 0.115290314 0.0753158 -0.15455252 0.06281505
-0.102849714 -0.15029508 0.1588103 -0.2370137 0.17894949 0.08716835 -0.17205155 0.2213028
0.11936084 0.11878964 0.4056271 0.26125628 -0.19443114 0.24781999 -0.24603535 -0.015924655
0.31677276 0.011177742 0.00019778225 0.001524227 -0.009446671 0.11948524 0.12884386 -0.08658767
0.032931533 -0.009827399 -0.2280445 -0.31060866 0.02084911 0.019991444 -0.10248403 -0.047398932
-0.016353719 -0.16952504 0.20443751 0.027312092 -0.22528519 -0.24098375 -0.30775255 -0.31652322

egnn.layers.0.message_mlp.2.bias f4 [16]
00000000: efe8 283e 6797 b7bd fca3 2abe 6023 6ebd
00000010: 2434 29be 1d6e f5bd 99ae a4bd 0989 1e3e
00000020: e7cc 6c3e 0f08 763e 9784 733e 6bd3 293e
00000030: 3841 6fbe 0c8b 37be 2efb c1bd 780c babd
0.16495107 -0.089644246 -0.16664118 -0.058139205 -0.16523796 -0.11983893 -0.08041114 0.15481962
0.23125039 0.24026512 0.23781048 0.16584556 -0.23364723 -0.17924136 -0.09471737 -0.090844095

egnn.layers.0.coords_mlp.0.weight f4 [3, 16]
00000000: af0d 1bbe cbcf e03d 2971 adbe d05b 88be
00000010: c0f2 493d 69ff 7bbe f67b aabd abcf 6bbe
00000020: 4548 0f3e 74fb 1bbd 960e fa3e 9273 09be
00000030: 7704 e23d 2d69 d53d 549b 89be 7fba 8d3c
00000040: 948c 76be cfe9 28bd 391f 81be 5e85 8cbe
00000050: b921 9fbe 5ab6 3a3a 6764 8dbe 8eb8 c6be
00000060: 3fa0 6e3e 05c3 d5be 0335 a23e 804a 4a3e
00000070: 1182 efbd 8c46 a6bd ea9e b3be 1934 b1bd
00000080: f9e8 603e ece2 53be a3bb d33d 6276 0e3e
00000090: 7df7 823e 78d6 c43e 2500 1cbe 696a 3e3e
000000a0: b5ae 823e 089e 573e c394 43be c4bf 0bbe
000000b0: a3ac 47be dc7e 8a3d 6dad a03e a884 a4be
-0.15141939 0.10977133 -0.33875397 -0.26632547 0.04930377 -0.2460915 -0.08324425 -0.23028438
0.13992412 -0.0380816 0.48839253 -0.13422993 0.11036008 0.10420451 -0.26876318 0.017300842
-0.24077064 -0.041238602 -0.25219133 -0.274455 -0.31080416 0.00071225094 -0.27615663 -0.3881268
0.23303317 -0.4175035 0.3168107 0.19754982 -0.1169473 -0.081189245 -0.3508218 -0.08652515
0.21963872 -0.20692033 0.10338523 0.13912347 0.25579444 0.38444877 -0.1523443 0.1859528
0.25523916 0.21056378 -0.19099717 -0.13647372 -0.1949945 0.06762478 0.31382313 -0.3213246

egnn.layers.0.coords_mlp.0.bias f4 [3]
00000000: a2cf 31bd 7963 a0bc e987 c73d
-0.043410905 -0.019578682 0.0974272

egnn.layers.0.coords_mlp.2.weight f4 [1, 3]
00000000: 7d26 bc3d da6d 923d 89de f5bd
0.091870286 0.07149859 -0.12005336

egnn.layers.0.hidden_mlp.0.weight f4 [16, 24]
00000000: 6c15 68bd 6840 513e 4b8a 7b3d 213a 22bd
00000010: 6b65 31bb e94a 3f3e 7cc0 df3c 277d 6fbe
00000020: c7d9 0bbe 3879 443e bf90 443d 4c27 77bb
00000030: 36b2 3c3e 28d1 dfbd d57d 883e 916b eebd
00000040: 5783 01be 7186 f93d 70df 7ebe 64d1 96be
00000050: 25b7 043e 5741 26be 80cb af3d 4516 82be
00000060: 70b7 eebd 4fdc 283d 389e edbd 4caa 363e
00000070: d414 9e3d bf0c eabd 5509 67bd 6aa6 08bd
00000080: bc0a 0fbe 4403 12be dd59 373e f534 efbd
00000090: b3fc 52bc 73f6 06be 2513 523e 380d 4a3d
000000a0: 5727 b7bd 1283 d83d 88ef 46bd 8bd9 6ebc
000000b0: f011 553e b780 a7bd 1eba d23d 13e2 d03d
000000c0: 8fb9 eb3d 2fa3 763c c35d 86bc 28d4 713d
000000d0: ca14 12be 545e 1ebe d36e 9fbd 919a 83bd
000000e0: ba81 483d 1788 f43d 5818 3ebe 3e43 6b3e
000000f0: e33d 203e 2696 4abd 80ca f1bc 3de0 e2bd
00000100: 25d5 85be 44ec db3d c2ec 79be 0c08 7bbe
00000110: b302 853e 6125 673e 8b19 f3bd 50c5 3bbe
00000120: 5aaf 94bd 5e21 0f3e db3a 593d 0f55 13be
00000130: 040e b8bb aa4a 513d 3a6e ccbd 886b e1bc
00000140: 207b ae3d e64f 50bd 5b52 e3bd b6c4 1b3d
00000150: abd9 813d cad2 d7b9 5efc 0fbe 931b 3cbd
00000160: b5b9 333e 8bea 90bd fc16 84bd 0642 48bc
00000170: 5a12 1ebe 91c4 febd c22f 5fbe fc00 283d
00000180: c706 293e c8a5 3bbd 5cc3 7a3d b8b7 c93a
00000190: 641d 7bbc ae97 d93d ecf0 febd ebc5 833e
000001a0: 669f 1bbe 74c9 763d c804 cf3b aa5a 1bbe
000001b0: 38f3 0bbe e006 93bd f4fd 7abe 2356 00bc
000001c0: f843 aebd 93c2 f33d e126 c0bd 9d80 213e
000001d0: ef23 b93d a55d 9ebc 1989 84be 91a7 a2bd
000001e0: ac9f 4dbe 4e8f 063e a06e 32bd a854 0abe
000001f0: fce9 92bd 84ef 8cbd 78d5 cebd 1c36 e23c
00000200: f1b9 313c 8b9b 5e3d 58d4 42be 5196 dbbd
00000210: b1a3 1cbe 1e74 4d3e 3bda 5e3e bd41 363e
00000220: 8eab 053d 3f90 0d3e fd15 9ebd 16c7 84be
00000230: a5f3 103e 1f3e adbd da35 04be 30b9 8a3d
00000240: c196 40be fe63 3b3e 95d5 a6bd 388e 163e
00000250: e1e2 fabd 246c 52bc bc0c 213e 01e1 5abd
00000260: c4c7 a4bd 1a36 babd ea74 783d 6784 b23e
00000270: 72aa a93e c531 923e 587e 293e cd28 123e
00000280: 1ebb 713c ebe9 0eba 116e 98bd 2da6 14be
00000290: b449 ad3d b67e 8b3e 7a45 c8bd acf5 1c3d
000002a0: f6a4 51be 1873 22bb dba4 2c3e 6950 8f3b
000002b0: b796 b83d 1853 1ebb b1ef 1f3d c4aa 393b
000002c0: 8455 c1bc 03d7 653d b1d7 013e 73d8 3e3e
000002d0: 7b6e f83d b8ea 7a3d 1624 273e 974e 163e
000002e0: 959f e3bd 163b 84bc df1d f23b e534 33be
000002f0: a2b0 1a3e 6286 f53d 5d78 f5bd 5fbe 1bbe
00000300: 7a39 d3bc 0873 563e d4e9 2fbe e22c cebc
00000310: 2688 e1bc b109 3dbe 6c86 84bd 34d2 2e3e
00000320: 07f7 413e ab1b c9bd 4145 ac3d 7cda b33d
00000330: 0f1b f6bd 9663 cfbd 4ace 6ebb 29c5 013d
00000340: f9ee ccbd f190 fbbd 1360 46be 5f47 173d
00000350: 532c 6cbe b886 ecbd 53c5 01bd d98f 73be
00000360: 7374 333e 269b 18be e14d b93d 15c4 423d
00000370: 6eba 1d3e 79dd 36be a7f7 283e 28ac 233e
00000380: f66f 5cbe 7673 f8bd 2ac8 d5bc 7040 063e
00000390: f52f d5bd 5366 5ebe 21fb 2bbe 7545 b63d
000003a0: ddf2 c23c 84ef 3c3e a3ab e03d 0ebb 94bb
000003b0: 6170 ab3d 2222 2a3d a89e 4f3e 25e7 abbd
000003c0: 15bc 1fbd 8f5a 12bd 2eba 5f3d 5050 e33d
000003d0: 44d8 bebd 7b9f e3bd 2200 d0bd 33a7 c7bd
000003e0: 21ab 79be 27b7 663d 7ada 2ebe ecfb e3bd
000003f0: 9b81 a1bc 8416 e1bd 4281 433e 7c4f f23d
-0.056661054 0.20434725 0.061411183 -0.039606217 -0.0027068506 0.1868092 0.027313463 -0.23387586
-0.13657294 0.19186866 0.047989603 -0.0037712632 0.18427357 -0.10928565 0.26658502 -0.116416104
-0.12647758 0.12183846 -0.24889922 -0.29456627 0.12960489 -0.16235863 0.085837364 -0.25407615
-0.11656082 0.041225728 -0.116024435 0.178384 0.077188164 -0.114282124 -0.056405384 -0.03336183
-0.13968939 -0.14259058 0.17905374 -0.116800226 -0.012877631 -0.1317995 0.20515116 0.049329013
-0.0894305 0.10571875 -0.04856828 -0.0145782335 0.20807624 -0.08178847 0.10289405 0.1019937
0.11510002 0.015053554 -0.016402131 0.05904022 -0.14265743 -0.15465671 -0.0778481 -0.064259656
0.048951842 0.119400196 -0.18563974 0.2297487 0.15648608 -0.0494596 -0.029515505 -0.11077926
-0.2613918 0.107384235 -0.24406722 -0.24514788 0.25978622 0.22572853 -0.11870106 -0.18336987
-0.07260008 0.13977572 0.053034645 -0.14387916 -0.005616905 0.051096596 -0.099819615 -0.027517095
0.08519578 -0.050857447 -0.110996924 0.038029395 0.06340345 -0.00041165046 -0.14061114 -0.045924734
0.1755131 -0.070759855 -0.064496964 -0.012222772 -0.15436688 -0.12439836 -0.21795562 0.041016564
0.16506492 -0.0458124 0.061221465 0.0015389835 -0.0153268315 0.10624634 -0.12448296 0.25736937
-0.15197524 0.060250714 0.0063177086 -0.15171304 -0.13667 -0.07179046 -0.24510938 -0.007833037
-0.08509058 0.119023465 -0.093824156 0.15771718 0.09040057 -0.019331763 -0.25885847 -0.07942117
-0.20080441 0.13140604 -0.04356253 -0.13508856 -0.07173535 -0.068816215 -0.1009931 0.027613692
0.010847555 0.054347556 -0.19026315 -0.1072203 -0.15296818 0.20063826 0.21762936 0.17798515
0.03263431 0.13824557 -0.07719038 -0.2593314 0.14155443 -0.08459114 -0.12911168 0.06773603
-0.18807508 0.18299863 -0.08146206 0.1470269 -0.12250305 -0.012843166 0.15727514 -0.053437237
-0.08045915 -0.0909235 0.060658373 0.3486664 0.33137852 0.28553596 0.16552103 0.14273377
0.014754085 -0.00054517266 -0.074428685 -0.14516516 0.084613234 0.2724511 -0.097788766 0.03832023
-0.20473084 -0.002478784 0.16859762 0.0043735993 0.090131216 -0.0024158414 0.039046947 0.0028330544
-0.023600347 0.056113254 0.12679936 0.18637256 0.121304475 0.061259 0.1632236 0.14678417
-0.11114422 -0.016141456 0.007388815 -0.17500646 0.15106443 0.11988522 -0.11985848 -0.1520934
-0.025784243 0.20942318 -0.17179042 -0.025167886 -0.027530741 -0.18460728 -0.064709514 0.17072374
0.1894189 -0.0981973 0.08411647 0.08781907 -0.1201688 -0.101264164 -0.0036438876 0.031682167
-0.10006518 -0.12283505 -0.19372587 0.0369333 -0.23063783 -0.11549133 -0.031682324 -0.23785342
0.1752489 -0.14902934 0.09048057 0.04755028 0.15403149 -0.17857923 0.16500722 0.15983641
-0.21527085 -0.121313974 -0.026096422 0.13110518 -0.10409538 -0.21718721 -0.16795017 0.088999666
0.023797447 0.18450743 0.10970237 -0.0045389 0.08371044 0.041536458 0.20275366 -0.08393697
-0.03899773 -0.035730895 0.054620914 0.11099303 -0.09318593 -0.11114403 -0.10156275 -0.097486876
-0.24381687 0.05632701 -0.1707553 -0.11132035 -0.019715121 -0.10990623 0.19092277 0.11831567

egnn.layers.0.hidden_mlp.0.bias f4 [16]
00000000: 24e6 b63d 8759 33be 9c90 b4bd c40f 90bd
00000010: 7c01 2f3c fb93 4cbe 3ad6 853e a121 c83d
00000020: d3a7 553d 3cd7 5abe d51f c6bd 23a9 65be
00000030: 07da 9dbd 6609 183c 7837 523d 39ea 29bc
0.089306146 -0.1751462 -0.088166445 -0.07034257 0.010681506 -0.19978325 0.26140004 0.09772039
0.052162003 -0.21371168 -0.0967404 -0.22427802 -0.07707601 0.0092795845 0.05132243 -0.010370784

egnn.layers.0.hidden_mlp.2.weight f4 [8, 16]
00000000: 5c36 7dbe dbdc 0abe e111 75be 1b11 cb3d
00000010: 8d5b 973e 1c54 ea3c 264a 433e d41d 67be
00000020: 8364 c3bd f678 d03d 238e 7d3e 17bb 91bd
00000030: 23fa 5fbe a360 873d e435 58be 18c9 a13d
00000040: c302 02be 8899 363e 8d16 113d 8933 bfbd
00000050: 299d f4bd a5bc aa3d ccae 3b3e b883 ad3d
00000060: 35f3 813e 81df f83d 836d 95bc 62c6 123e
00000070: 23c8 c4bd 1e0e f93d dcb9 5a3e d79a 2d3e
00000080: 3fdb 1cbe 52dd c4bd 7ddf 133e 5422 51bc
00000090: 34c6 2ebc 9cb0 95bd 9a25 d4bb d43e d8bd
000000a0: a027 033e a86e 443e 0b71 243e a742 af3d
000000b0: 6522 a73d c96e 15bc 1620 c1bd dc15 aa3b
000000c0: 9fa7 23be 1e94 063d 2b59 3cbe a621 893d
000000d0: a18d 973e 1d84 4b3b e383 4cbe 6107 203e
000000e0: 14a6 a43c c51a 68bc dcc4 8abd 0981 c139
000000f0: 7ded 43bd fa85 583e 5f5b 853d 1898 163e
00000100: 43cb 2dbe 8a22 e23d d98d eabd 1e3d 0b3e
00000110: abe0 b3bd 0d94 50be 25f3 79be 943b 8bbe
00000120: 71ff 0e3c c51e 2b3e f729 4bbe 3a61 f3bb
00000130: c81b c73d 13d7 14be 86ea 603d 834d 963d
00000140: 57c9 a8bd 0d5b fbbd 28b7 4d3e 14cb f03d
00000150: 8b96 cabd cdc5 11bd 462e 383d 2eab 783e
00000160: c3cc 78be e5d6 44be c94e 06be 0b87 683d
00000170: 80c1 d83d 168e 7d3d 03cb 25be f195 8f3c
00000180: 7927 1a3c 2d3a 9cbc 3cff 7fbc 6b2b 2a3d
00000190: 5434 53be 09c8 4f3d fa38 a7bc b880 943e
000001a0: 85b9 bd3d ca96 93bc c954 e73d a81f cdbd
000001b0: ac25 603c d682 0dbd 5d82 803e c3bf 37be
000001c0: 49d9 60be 3a07 f2bd 3b7d 52be 02d7 3bbd
000001d0: d700 1b3e f24f 6ebe ba4b 80be 8797 8ebd
000001e0: f514 f33d 1898 41be fce2 6f3d ff62 873c
000001f0: ad89 9abd a418 8c3e 5630 4cbd 1068 1a3d
-0.24727768 -0.13560812 -0.23932602 0.09915372 0.29562035 0.02860456 0.19071254 -0.22569972
-0.095406555 0.101793215 0.24761252 -0.07115763 -0.21872763 0.06610229 -0.21114308 0.07899684
-0.12696366 0.17832005 0.035421897 -0.093360014 -0.119440384 0.08336762 0.18328398 0.08472389
0.25380865 0.12152005 -0.018240696 0.1433349 -0.096084855 0.12160896 0.21359962 0.16953598
-0.15318011 -0.09612526 0.14440723 -0.012764532 -0.0106673725 -0.07309076 -0.006474209 -0.105588585
0.12808084 0.19182837 0.16058747 0.08557635 0.08160857 -0.0091206515 -0.09429948 0.005190594
-0.15981911 0.0328561 -0.1839339 0.06695871 0.29600242 0.0031054087 -0.19972186 0.15627815
0.020098723 -0.014166539 -0.06775829 0.00036907967 -0.04783391 0.21144858 0.06511568 0.14706457
-0.1697207 0.11041744 -0.114528365 0.13597533 -0.087830864 -0.20368977 -0.24409159 -0.27193892
0.008727894 0.16710956 -0.19840227 -0.007427362 0.09722096 -0.1453517 0.05491116 0.07339003
-0.082415275 -0.12273226 0.200894 0.11757484 -0.09891995 -0.03558903 0.044966005 0.2428405
-0.2429686 -0.19222601 -0.13115992 0.056769412 0.10583782 0.06190308 -0.16190724 0.017527552
0.009408825 -0.01907071 -0.015624817 0.041545313 -0.2062543 0.050727878 -0.02041291 0.29004455
0.09263901 -0.018016238 0.11295468 -0.100158036 0.013680857 -0.034548603 0.2509946 -0.17944245
-0.21957888 -0.118177846 -0.20555584 -0.045859344 0.15137039 -0.23272684 -0.25057775 -0.06962495
0.118692316 -0.18905675 0.05856608 0.016526697 -0.07545791 0.2736255 -0.049850784 0.037696898

egnn.layers.0.hidden_mlp.2.bias f4 [8]
00000000: 27da 0034 c427 b0b8 a075 e1b7 dada 5d38
00000010: e494 3639 d1a0 32b9 e510 4eb9 ea3c b738
1.2000292e-07 -8.399741e-05 -2.6876864e-05 5.2894327e-05 0.00017412339 -0.00017035312 -0.00019651985 8.737466e-05

egnn.layers.0.attention_mlp.0.weight f4 [1, 16]
00000000: 7455 d93e 147f 6ebe 840d 49bd 96c9 823e
00000010: 8ee6 843e 8088 4dbe 99fa 42bd e5a7 983e
00000020: 0c58 9a3e fac8 653e 045a 7f3e 10b4 1ebe
00000030: 9d97 06be 0a46 a5be 5ec4 aa3e 8b9a 07be
0.42448008 -0.23290664 -0.049085155 0.25544423 0.2595715 -0.20071602 -0.04760227 0.29815593
0.301453 0.22439948 0.24936682 -0.15498376 -0.13143773 -0.32279998 0.3335294 -0.13242547
