2-egnca-rework/logs/line4-2024-10-05@23-20-03/best@25.pt (torch, 25525 bytes, 11 tensors)

egnn.layers.0.message_mlp.0.weight f4 [32, 33]
000000 0e a7 5c 3d f1 ec bb 3d 8f 79 8e bb 1e 02 d0 3d
       0.053870253 0.09176052 -0.004347987 0.10156654
000010 0f 69 4b bd 98 3f 04 3d 66 ff 50 bd ca a5 4d bc
       -0.04966074 0.03228721 -0.051024817 -0.012551734
000020 43 4c 29 bd 88 6f f7 3c 80 cb 0a 3e 43 a2 0f 3e
       -0.041332494 0.03020455 0.13554192 0.14026742
000030 9e ba d7 bc bf e6 73 bd 93 a4 ca bc 59 85 19 3e
       -0.026334103 -0.05954623 -0.024736678 0.14992274
000040 a7 29 15 3e 0f 4e 47 bd 03 9f 61 bd 10 9d 23 bd
       0.1456667 -0.048658427 -0.055083286 -0.03994471
000050 b2 30 ef 3d 93 bb 13 3e 23 93 f6 bd 29 e8 69 bd
       0.1167921 0.14427023 -0.12039783 -0.05710617
000060 33 44 1e be f2 ef 2b 3e 15 d9 05 3d 83 bb 47 3d
       -0.15455703 0.1679075 0.03267773 0.04876281
000070 05 a3 bb 3d 23 6b 3b 3d f6 cf 1b bd 72 60 29 be
       0.09161953 0.04575647 -0.038040124 -0.16540697
000080 4b 73 4d 3d 4b 19 d4 bc c7 a1 29 be 3f 86 b6 bc
       0.05015878 -0.025890967 -0.1656562 -0.02228081
000090 72 47 bf bd 1f 8d ca bd e9 e3 00 be 51 9b 0c be
       -0.09339799 -0.09890198 -0.12586941 -0.13731124
0000a0 40 81 22 bc 92 3b cc 3c 12 ae 21 be e0 62 22 be
       -0.009918511 0.02493075 -0.15789059 -0.1585803
0000b0 9e b9 6c b9 ae b9 28 be d9 bf b1 3d 56 6a 3c bd
       -0.00022575862 -0.16477081 0.0867917 -0.045999847
0000c0 ea 5e c0 bc f2 3a 21 be a2 d6 02 be 06 86 74 3d
       -0.023482759 -0.15745142 -0.12777188 0.059698127
0000d0 ed 41 cb bd b4 12 89 bd 05 fa 22 be 3c 04 20 b9
       -0.09924684 -0.066930205 -0.15915687 -0.00015260366
0000e0 62 92 e3 bd fe 1f 30 3d 4f 04 69 3d 5e ac 09 3d
       -0.11111905 0.04299926 0.056888875 0.033611648
0000f0 c4 fb 84 3d c2 cf f0 bd 6c 4e 53 3c 39 44 18 be
       0.06493333 -0.11758377 0.012897115 -0.14869775
000100 f2 87 fc bd 10 9c 0d 3e 91 c6 f4 3d 77 65 04 be
       -0.12330617 0.13829064 0.11951936 -0.12929331
000110 3b 38 c6 3d 7c fb 0f be ce 65 dd 3c 71 c5 21 3e
       0.09678694 -0.14060777 0.027026083 0.15797974
000120 d8 8d 9b 3b c4 f3 88 3d 1e 6f 1d 3e 79 ea 86 bd
       0.0047471337 0.066871196 0.15374419 -0.06587691
000130 81 ea 02 3e b2 1e df 3c 21 2b 17 bd 0b 7e 21 be
       0.12784769 0.027236316 -0.036906365 -0.15770738
000140 14 40 2d 3e 1a 4d 30 3e 95 74 9d bd aa b2 28 3d
       0.16918975 0.17216912 -0.07688252 0.041186012
000150 21 5d 34 be 37 73 0c 3d 10 e4 bf 3d 9e b4 b0 3c
       -0.17613651 0.034289565 0.09369671 0.0215705
000160 6d a6 bf bd 83 f3 25 3e bb 13 c3 bd 5d 1c 95 3c
       -0.09357915 0.16206174 -0.09525248 0.018202001
000170 ee c0 21 be cb cc 8e 3d 2c 90 ee 3d d4 d2 1e 3d
       -0.15796253 0.06972655 0.11648592 0.03877528
000180 77 b5 05 3e d7 aa 30 be 65 92 c5 bd 28 96 28 3d
       0.13057505 -0.1725267 -0.09647063 0.041158825
000190 1d 29 a9 3d 61 25 30 bd b2 29 4e 3d 0a 5c 2b be
       0.08259795 -0.043004397 0.050332732 -0.16734329
0001a0 43 cb 2e 3e 23 92 10 be 53 ec 24 be 19 fd 07 be
       0.17069726 -0.14118247 -0.16105776 -0.13280143
0001b0 be 78 33 3e b4 06 32 3d 8d c8 3e bc d0 b4 29 3d
       0.17526528 0.043463424 -0.011644495 0.0414322
0001c0 0b 0e 1b bb 62 d1 f3 bd 70 0b e4 3d d1 32 15 be
       -0.0023659493 -0.11905171 0.11134994 -0.14570166
0001d0 a0 a9 15 bd 44 ad d2 3c e2 e4 cc bd 1d 8a 25 3d
       -0.03653872 0.025717385 -0.100045934 0.04041492
0001e0 5d df 1b be da 52 a8 bd 0a 8b 1d 3e da 6c 70 3d
       -0.15221925 -0.08218928 0.1538507 0.05869756
0001f0 f0 f5 11 be 9c fb 2d 3e 49 47 49 bd bf 45 e0 3c
       -0.14253974 0.16990513 -0.04914025 0.027377008
000200 4b de 05 bd ed 41 d8 bd bb a8 09 3d a9 ed 02 bd
       -0.0326827 -0.10559449 0.03360818 -0.03196493
000210 f8 f9 b5 bd d8 b4 c7 3d 2c 17 b7 3d 9f 5b f6 3d
       -0.088855684 0.0975129 0.089399666 0.12029194
000220 c8 1c fb bc ca d5 bd bc c1 88 c6 3c 90 6d 23 3e
       -0.030653372 -0.023173232 0.024235131 0.15959764
000230 25 49 1b be 07 62 26 bc 03 f9 bb 3c 9e 11 a5 3d
       -0.15164621 -0.0101552075 0.022945886 0.08060001
000240 d6 62 2b be f7 e7 39 be bc 6e 0c bc 68 dc 76 3d
       -0.16736922 -0.18154894 -0.008571323 0.06026879
000250 c0 c7 86 bd fc ce 0b 3e 5b 1a 04 3d 5e c4 7e bd
       -0.06581068 0.13653177 0.032251697 -0.06219899
000260 60 2c 6a bd ad 00 14 be ef 75 c5 3d 39 db 18 bd
       -0.057171226 -0.14453383 0.09641635 -0.037318442
000270 16 37 ba 3d 2c 0a 37 be 90 74 fb 3d d9 6b 78 3d
       0.09092538 -0.17874974 0.12278092 0.060649727
000280 dc 2e e1 bd 4b f1 ca bd 8a ed 03 3e 05 73 9d 3d
       -0.10995266 -0.09909304 0.12883583 0.07687954
000290 a1 41 a2 3d 9b 8b 06 3d 2a fb c0 bd da 1b ec bd
       0.07922674 0.032847982 -0.09422906 -0.1152875
0002a0 6f 3f 4b bd 03 a2 42 bd 18 9b e1 bc 43 19 59 bd
       -0.049621042 -0.047517788 -0.027539775 -0.053002607
0002b0 31 b2 12 be 17 da 27 be e6 bd fa bd fb 1a b3 3d
       -0.14325787 -0.16391788 -0.122432515 0.087453805
0002c0 93 a7 df bd cb 3e 06 be f4 f7 9d bd 3a 95 6a 3d
       -0.10920634 -0.13109891 -0.07713309 0.05727122
0002d0 ff e9 5e bd bd e6 a5 ba 49 3d b1 3c f9 36 f1 bd
       -0.054422375 -0.0012657266 0.021635668 -0.11778063
0002e0 d2 ba 3e bd 51 e9 65 bd 28 e1 ab bb e4 08 e4 bd
       -0.046564884 -0.05613071 -0.0052453466 -0.11134508
0002f0 55 31 f8 bc ae 96 96 3c 3a b7 57 3d 38 79 db bd
       -0.03029696 0.018382397 0.052664973 -0.1071648
000300 98 6c 19 3e 70 9b 27 3d 35 7d 08 be 1f 27 21 3e
       0.14982831 0.04091972 -0.13329013 0.1573758
000310 6f 46 dc bd 5e 48 a3 3b 8a fb 01 3e ac 0a 43 bd
       -0.10755622 0.004982992 0.12693611 -0.0476176
000320 6d e3 2d 3d a5 4f 9e 3d 00 38 7b bd 55 22 8c 3c
       0.04245322 0.07730035 -0.061332703 0.017106215
000330 93 43 f3 3d 0c 4b 50 bb e0 30 52 bd 75 6d fa 3d
       0.11878123 -0.0031783013 -0.051316142 0.122279085
000340 90 b8 02 3d 87 63 ec bd 83 ed a3 3d 1f 3f 0d 3e
       0.031914294 -0.11542421 0.08004286 0.1379361
000350 eb 89 33 3c 93 59 13 3e 12 5f e8 bd 39 23 29 3e
       0.010958175 0.14389639 -0.11346258 0.16517343
000360 5e 42 cc 3d f5 fb 85 bc eb 55 27 be 3b 96 2b 3e
       0.09973596 -0.016355494 -0.16341369 0.16756527
000370 ab c1 91 bc 78 56 ad 3d 8f 7f c6 bd da 69 5b 3d
       -0.017792543 0.08463758 -0.096922986 0.053567745
000380 58 69 d6 bc 58 4a 21 3d 38 62 6f 3d 59 34 eb bd
       -0.026173279 0.03937754 0.058443278 -0.11484594
000390 87 48 08 be 58 c9 0e bc dd 0d 33 bd 78 1e e0 3d
       -0.13308917 -0.008714996 -0.043714393 0.109433115
0003a0 94 f9 a4 bd 79 8b 32 3d dd 72 24 be 10 d3 a5 3d
       -0.08055416 0.043590043 -0.16059442 0.080968976
0003b0 0c f6 e2 3d 77 d5 be 3c 9d 6b d0 3c 4b c5 bb 3c
       0.11082086 0.023295147 0.025441939 0.022921225
0003c0 7f ea 2d bc a6 b3 0e bd 56 c8 02 3e c7 51 57 bd
       -0.01061499 -0.034839295 0.12771735 -0.052568223
0003d0 7c d5 a0 bc 49 14 91 bc 81 a0 cb bd 09 20 09 be
       -0.019633047 -0.017709868 -0.09942723 -0.13391127
0003e0 e2 3f d1 bd 05 d0 bb bc f6 e5 06 be ca 34 64 3d
       -0.10217263 -0.02292634 -0.1317366 0.055714406
0003f0 e8 6e fd bd a4 25 4a bd d4 b4 97 bd 8d 81 a4 bd
       -0.12374669 -0.049352303 -0.07407537 -0.08032522

egnn.layers.0.message_mlp.0.bias f4 [32]
000000 66 1a 16 bd b4 6c 81 bc ee 3c 48 3d 24 b4 1f be
       -0.03664627 -0.015798904 0.048886232 -0.15596062
000010 90 a3 83 3d 1c fd 1b be fa 29 2c bd 84 7b 14 be
       0.064276814 -0.15233272 -0.04203222 -0.14500242
000020 09 7b 16 be a5 b6 b7 bd 02 e0 00 3e b2 82 22 be
       -0.14695372 -0.089703836 0.12585452 -0.15870169
000030 da 55 9c 3d f9 25 5c bb 50 12 0f be 6b df 39 3d
       0.076335624 -0.003359197 -0.1397183 0.045379084
000040 7d fb bd bd 18 ba d5 bd 7b a2 15 3d 9e f0 04 be
       -0.09276483 -0.10435885 0.036531907 -0.12982413
000050 b0 8a 1d 3c b0 38 69 3d ec 21 53 3d 6a 1e be 3d
       0.009615585 0.056938827 0.051546022 0.09283145
000060 d4 38 15 be e5 71 64 3d 68 e2 e7 3d 2b bd 21 be
       -0.1457246 0.05577268 0.113224804 -0.15794818
000070 86 53 92 3d ca 8d 5d 3c 19 f0 71 3d 14 01 29 be
       0.07144837 0.013522575 0.059066866 -0.16504318

egnn.layers.0.message_mlp.2.weight f4 [32, 32]
000000 cc e2 e0 3d fb d5 1a be c0 d0 97 3d d3 df 29 3e
       0.10980758 -0.1512069 0.07412863 0.16589288
000010 31 58 06 bd 30 ca a4 3d 43 53 be bc 49 c5 c1 3d
       -0.03279895 0.08046377 -0.023233062 0.09461457
000020 1d 99 1f be a5 d9 45 3b 39 54 39 3e 33 5e 18 bd
       -0.15585752 0.003018954 0.18098535 -0.03719921
000030 2e f1 0c be ed b5 0c be 9e ab 34 3d 20 66 20 3e
       -0.13763878 -0.13741274 0.04410898 0.15663958
000040 1a 8c 2f be 6e f1 e1 3d 2c bb 05 be dc c5 97 3d
       -0.17143288 0.11032377 -0.13059682 0.074107856
000050 e9 42 fb 3c 80 cd 48 3d dd 7e 21 be b1 35 2a 3e
       0.030671554 0.049024105 -0.15771051 0.16622044
000060 b7 3b 2d 3d 20 ec 84 bc 48 be 01 be 0b 76 e0 3d
       0.042293277 -0.016225874 -0.12670243 0.10960015
000070 76 8a 26 3e db d5 a4 3d f2 ac a7 bc 2b ec 30 bd
       0.16263756 0.08048602 -0.020468209 -0.043193977
000080 48 8f 38 be 4b 6d eb 3d 54 1a b4 bc 91 7f 25 be
       -0.18023407 0.11495455 -0.02198521 -0.16161944
000090 12 8d d5 ba aa a2 0f 3d 91 8f e9 3d 36 08 77 3d
       -0.0016292653 0.035067238 0.11404336 0.060310565
0000a0 2c e2 f6 bd 29 84 49 bd d7 e6 2a be 8e cc 9d 3d
       -0.120548576 -0.049198303 -0.16689621 0.07705031
0000b0 57 84 a3 3d 06 8e d4 bd 91 f9 24 3d 09 28 f4 3d
       0.07984226 -0.10378651 0.040277068 0.119216986
0000c0 c6 6a 24 3e 44 bf f9 3d 84 97 84 3d 3e 85 24 3d
       0.16056356 0.12194684 0.06474212 0.040166132
0000d0 c4 87 8a 3d c8 60 28 3e e7 93 f8 3d a3 fc db 3c
       0.067641765 0.16443169 0.12137585 0.026853865
0000e0 fb 96 aa 3c f3 5f f7 3d f3 4d 2f 3e 2f 9f ea bd
       0.020823946 0.12078848 0.17119579 -0.11456143
0000f0 b3 3f a5 bd 8d e5 3d 3e 5c 29 a2 bd 1d 86 2b bd
       -0.0806879 0.18544598 -0.07918045 -0.041875947
000100 4e 58 10 3e 44 c2 7e bd ea bc 2f 3e fb 16 c8 bd
       0.14096186 -0.062196985 0.17161909 -0.09770008
000110 75 e5 94 bd c6 82 00 3c ca 01 59 3c bd 85 21 3e
       -0.07270328 0.007843679 0.013245055 0.15773673
000120 37 9e 91 bd 30 96 8e 3d 20 dd e8 bc 29 99 bd bc
       -0.07110255 0.0696224 -0.028425753 -0.023144322
000130 d8 2c 17 be 32 23 26 3e 0f fe b9 bd b5 6e 1e bd
       -0.147632 0.16224363 -0.09081661 -0.038679797
000140 0a 58 a7 bd 1a 97 25 3e 59 4d 8d bd 49 d4 24 bd
       -0.08171089 0.16170922 -0.068995185 -0.040241513
000150 db b7 c4 3d e0 4b 25 3e 3f e2 23 3e 33 0c c8 bd
       0.0960538 0.16142225 0.16004275 -0.09767952
000160 28 8e 7b bd 4a 9d 11 3e 25 df 9f 3d 21 44 0b 3e
       -0.061414868 0.14220157 0.07806233 0.13600208
000170 ed 53 6a 3d 3a a1 d2 bd 95 70 bb bc b9 46 a8 bd
       0.057208944 -0.10284658 -0.022880832 -0.08216614
000180 40 dc 16 be ad db 48 3d 0b 1c bd 3d bc 86 88 3d
       -0.14732456 0.049037624 0.092338644 0.066663235
000190 a6 17 10 3e ef 9f 90 bd 06 1e 78 3d 1e 94 65 bd
       0.14071521 -0.07061755 0.060575508 -0.05604946
0001a0 e6 12 1e 3e bd 74 4a bc 06 b9 fe 3d 48 7a 10 3e
       0.15436897 -0.012356934 0.12437634 0.14109147
0001b0 5c a4 fb bd 19 b0 24 bd 51 ad 1c 3e 08 0f ab bd
       -0.122872084 -0.040207002 0.1530049 -0.08352476
0001c0 ac 5c 26 bd 17 30 13 3e 4b 8d 16 3e fe 3f e7 3d
       -0.040615723 0.14373814 0.14702336 0.112915024
0001d0 71 ef 85 3c 53 28 ea 3d 9a 01 20 be 37 f9 a7 3d
       0.016349526 0.114334725 -0.15625611 0.08201831
0001e0 98 69 ea bc f7 08 08 be 9a 45 2b 3d 2f 82 47 3b
       -0.028614804 -0.1328467 0.041814424 0.0030442586
0001f0 fe 55 8c 3d d7 6c 71 bd e3 5f 2e 3e f8 d7 35 be
       0.06852339 -0.05894169 0.17028765 -0.17758167
000200 bd a3 2e 3e a2 fb 93 bd fe 6f c7 3d ce 25 9d bc
       0.17054649 -0.072257295 0.09738158 -0.019183066
000210 a2 55 3e bd 9f de 09 be 62 80 0e be b7 24 9f 3c
       -0.046468385 -0.1346383 -0.13916162 0.019426687
000220 4d ad c9 bd 4a bc f9 bd cb 5c 1f be 14 bd 22 3e
       -0.098475076 -0.121941164 -0.15562741 0.1589244
000230 7a 9a 2c 3d f6 95 94 3c a0 3d 3e bd de 14 1c be
       0.042139508 0.018137913 -0.04644549 -0.15242335
000240 b3 01 d1 3d 44 ff 0e 3e ee 8e 17 3d 68 d6 45 3d
       0.10205402 0.13964564 0.037001543 0.048300177
000250 a2 03 87 bb 2c ed 7b 3d 3c c2 65 3b b3 a3 e9 bd
       -0.004120306 0.06150548 0.00350584 -0.11408176
000260 4d d6 a4 bc 5c 39 1f 3e 43 55 d1 bd 26 82 21 3e
       -0.020121718 0.15549225 -0.102213405 0.15772304
000270 f0 b0 d0 bd c9 e9 d3 bc 76 be e9 3d fd bc e2 bd
       -0.10189998 -0.025868313 0.11413281 -0.11071203
000280 d8 f9 fc bc a5 1e 0b be 77 6e 39 bc 51 94 cd 3d
       -0.030880854 -0.13585909 -0.011317841 0.10038055
000290 16 3d ab bd 25 ea 0f bd 15 02 a2 3b c8 92 e2 3d
       -0.083612606 -0.035135407 0.004944096 0.110631526
0002a0 cf 04 ad 3c 44 cb cb bc 08 09 cd bd 58 58 07 be
       0.021120457 -0.024877198 -0.10011488 -0.13217294
0002b0 fb 5c 2d 3e de 64 5f bd 12 23 d8 3d 4d 6c a4 bc
       0.1693 -0.054539554 0.10553564 -0.020071173
0002c0 8a c8 ab bd 78 de 80 bd 65 c2 13 be f4 05 16 bd
       -0.08387859 -0.062924325 -0.14429624 -0.03662677
0002d0 0d c1 a0 3c 0a 20 a1 bd 67 84 52 3d 9d 2d b2 3d
       0.019623304 -0.07867439 0.0513958 0.08700106
0002e0 87 b3 e9 bd 7b f0 62 bc 2b 5c f2 3d 8c 6f 2d be
       -0.11411195 -0.01385128 0.11833986 -0.16937083
0002f0 df ea d1 3d 9f 2f 46 bd f0 73 84 bd c8 26 d4 bd
       0.10249876 -0.04838526 -0.06467426 -0.103589594
000300 6e ad 15 bc 0e bb 4c 3d a9 c9 96 bd 2f 49 83 bd
       -0.009135587 0.049983077 -0.07362682 -0.06410443
000310 38 ac b9 3d f6 d8 a7 bd 24 7c 57 3c 6f 7f d5 3d
       0.09066051 -0.08195679 0.013152156 0.10424697
000320 72 8d 18 bc 5b d1 57 bd 00 15 db bd 6c 59 39 bd
       -0.009311067 -0.05268989 -0.10697365 -0.045251295
000330 f4 6a 29 bd 00 2f e7 3d d4 50 22 3c b9 43 12 be
       -0.041361764 0.112882614 0.009906966 -0.14283647
000340 69 a7 52 bc 1f aa d4 bd 8d 9d 3b 3e e6 ae 20 bd
       -0.0128572965 -0.103840105 0.1832182 -0.039229296
000350 3c 5c 24 be 04 cf ad bd 35 d6 d9 3d 95 99 2b 3e
       -0.1605081 -0.08486751 0.1063656 0.16757806
000360 5d b9 eb bd 39 d3 2c be 66 73 44 bd ee 8e 50 bd
       -0.115099646 -0.1687745 -0.047961615 -0.05091756
000370 cf 81 ad bd aa 11 c2 3d 7f d8 68 3c f7 01 0a 3e
       -0.08472025 0.094760254 0.014211773 0.13477312
000380 2d b1 fd 3d 3b 2c e7 3c 02 24 0c 3e 66 49 05 bd
       0.12387309 0.028219333 0.13685611 -0.0325407
000390 4a 70 79 3d 2c f4 e4 bd d4 24 10 3d c5 97 8f 3d
       0.060898103 -0.111793846 0.035191372 0.070113696
0003a0 ac 05 32 be 08 7c 1d 3e 6f b9 f3 3d a1 5e cc bd
       -0.17384976 0.15379345 0.11900603 -0.099789865
0003b0 20 00 73 3d 44 c1 2e 3e 50 e9 68 bd 5c 60 ca 3b
       0.05932629 0.17065912 -0.05686313 0.0061760377
0003c0 66 20 b2 bc bc fd d5 bd 71 bb b8 3d 75 1c 9a bd
       -0.021743964 -0.104487866 0.090201266 -0.07524959
0003d0 ff 77 48 3d 9c f2 03 3d 5a de a9 3d f6 62 29 3e
       0.048942562 0.032213792 0.08294363 0.16541657
0003e0 7b 33 79 3d 8e 24 fa bc 78 35 54 bd 47 c5 16 3e
       0.06084011 -0.030535009 -0.051808804 0.14723693
0003f0 89 04 de 3d c3 5c 21 3e 6d bc 91 bd 81 28 d4 3d
       0.10840709 0.15758042 -0.071160175 0.10359288

egnn.layers.0.message_mlp.2.bias f4 [32]
000000 a8 a7 e0 3a 8d 76 e5 3d 5b bd 8f 3c 70 e3 28 3e
       0.0017139809 0.112042524 0.017546346 0.1649301
000010 94 34 cd bc 55 6a 23 be 42 b2 1e be 92 55 a9 bd
       -0.025049485 -0.15958531 -0.15497687 -0.08268274
000020 b0 18 7a 3d 47 f8 ca 3d 7a 10 9d 3d f3 57 1b 3e
       0.0610587 0.099106364 0.07669158 0.15170269
000030 78 b6 30 be c3 03 9c 3d 2b d4 90 bc b7 25 09 be
       -0.17257106 0.07617905 -0.017679295 -0.13393293
000040 f0 ff 2c 3d c5 89 28 3e 3a 3c 4d 3d a0 56 e2 3d
       0.04223627 0.16458805 0.050106265 0.11051679
000050 fa cd c8 3d ac e8 de bd 95 9a 30 be f3 4b 28 be
       0.09804912 -0.108842224 -0.17246468 -0.16435222
000060 3b a6 15 3e 83 4f 02 be 35 19 66 bd 82 d0 13 3e
       0.14614193 -0.12725644 -0.056176383 0.14435008
000070 d7 5b 1c 3e a9 97 f2 bd 48 c1 9c 3d 90 18 c2 bb
       0.15269409 -0.11845333 0.07654053 -0.0059233382

egnn.layers.0.coord_mlp.0.weight f4 [32, 32]
000000 c6 b2 05 bd 1c 5d 9c bb ce f8 87 3c 14 7d 30 be
       -0.032641195 -0.0047718417 0.016598132 -0.17235214
000010 eb 9b ef bd 00 1e a9 3d a8 38 cb 3d df fb 79 3d
       -0.11699661 0.08257675 0.09922916 0.06103122
000020 4d 94 df bd 67 4d ab bc 1a db f5 3d f6 2f e6 bd
       -0.10916958 -0.020910932 0.12004681 -0.112396166
000030 ac 2f 00 3e fc 44 80 3d 06 d5 d4 bd bb 90 28 be
       0.12518185 0.06263158 -0.103921935 -0.1646146
000040 fc de 96 3d 32 d6 2d 3d 6b 90 cc bd 22 f3 06 be
       0.0736675 0.0424406 -0.09988483 -0.13178685
000050 8d af 22 3d 01 8d 8c 3d 00 da 8c bd b0 9c 19 3e
       0.0397182 0.06862832 -0.06877518 0.15001178
000060 da ec fe 3d ae b7 d2 3d 55 6a 0e 3e 2e aa d9 bd
       0.124475196 0.1028894 0.1390775 -0.10628162
000070 8c c3 18 3e cc e8 22 be 95 46 45 bd 39 94 07 be
       0.14918345 -0.15909117 -0.048163015 -0.13240136
000080 52 cf 17 bd 58 71 20 be 60 bc 12 be b6 18 ef bd
       -0.03706295 -0.15668237 -0.14329672 -0.11674635
000090 ed 77 04 3d 6a c3 e5 bd 95 e4 09 3c 01 68 1c 3d
       0.032340933 -0.11218913 0.008416315 0.038185123
0000a0 52 52 1c be 5c 8f 09 3e 9d 7c 25 bd 54 5d ef 3d
       -0.15265778 0.13433594 -0.040402044 0.11687723
0000b0 2b 09 9d bb 02 ba da 3d 28 a7 8a 3c 05 28 e5 bd
       -0.0047923527 0.106800094 0.01692541 -0.11189274
0000c0 4b eb 28 be 4c 98 06 be ca fe d8 bd aa 5e f1 bd
       -0.16496007 -0.13144034 -0.10595472 -0.11785634
0000d0 7b 89 31 3e 0f 94 03 be b8 63 66 3c 79 4e ed bd
       0.17337601 -0.12849449 0.014061861 -0.11587233
0000e0 9f e2 05 3e a1 2f 84 bc 58 ac ae bd 74 7d ce 3c
       0.1307473 -0.016135992 -0.08528966 0.025206305
0000f0 e5 1c b2 bd 41 a8 a5 3d e4 71 34 bc ff f6 00 be
       -0.086969174 0.080887325 -0.011013482 -0.12594222
000100 36 a2 20 bd a9 75 aa bb bf 7e d5 bb 92 a1 9a bd
       -0.039217196 -0.0052020145 -0.0065153535 -0.07550348
000110 e5 6b 19 3d 47 09 35 3e 33 25 d8 bd 56 0e 88 bd
       0.037456412 0.1767932 -0.1055397 -0.06643359
000120 06 78 d2 3b 94 4c f0 3d 64 5e 9a bd 85 41 0c be
       0.0064229993 0.11733356 -0.07537535 -0.13696869
000130 d2 51 2b 3e da 61 80 3d 38 0d 9e 3d b5 55 39 bd
       0.1673043 0.06268664 0.07717365 -0.045247752
000140 84 a6 16 3e 37 12 a3 ba c5 f2 5f 3d 7f eb 28 3e
       0.14711958 -0.0012441342 0.054674882 0.16496085
000150 49 45 ea bd ef 31 01 be 1c 5a ea 3d 1b e1 d3 3d
       -0.11438996 -0.12616704 0.11442968 0.1034567
000160 e7 e2 0f b9 59 26 a9 bd 99 5f 19 3e 18 3b 0d be
       -0.0001372207 -0.08259267 0.14977874 -0.13792074
000170 54 dd 9f bc bc a3 20 be dc eb 03 3e e5 bc fb 3c
       -0.019514717 -0.1568746 0.12882942 0.03072972
000180 8a 90 68 bd 1b 97 ed bd 2d 93 1c bd 23 0a 0f be
       -0.05677847 -0.11601087 -0.038226295 -0.1396871
000190 38 2f 1c 3e c9 f2 c6 bd 0d df e4 bb 0e 2b d1 3c
       0.15252388 -0.09714276 -0.0069845975 0.025533225
0001a0 7e 27 e1 3d f9 38 89 bc 70 d7 fa 3c ba 96 0b bc
       0.10993861 -0.0167508 0.030620307 -0.008519823
0001b0 c9 90 82 3a 2f 2a d1 3d 42 f1 e3 3d 3c 29 96 bc
       0.0009961362 0.10213124 0.11130001 -0.018330209
0001c0 26 af 5a 3d 9c 74 17 bd 1e 3e 9b 3d 28 a3 3e 3c
       0.05338969 -0.03697644 0.07580207 0.011635579
0001d0 74 d2 b8 bb 5c 98 96 3b d5 9e 09 3e 33 9e e9 3d
       -0.0056403223 0.0045957994 0.13439496 0.11407127
0001e0 92 91 01 bd c4 5f f9 3d 1c 9b 2a 3c 53 57 8a bd
       -0.031632967 0.12176469 0.0104129575 -0.06754937
0001f0 9c 70 b1 bd 92 60 c8 3d 5d 56 75 bd 65 02 70 bc
       -0.08664057 0.09784044 -0.059896816 -0.014649008
000200 99 56 9d bd e6 96 e3 bd 06 bc 05 3e dd f3 12 3e
       -0.07682533 -0.11112766 0.13060006 0.14350839
000210 9c c0 1b be b8 3a 05 3c 11 cc 06 3e 5d 43 06 3e
       -0.15210193 0.008131675 0.13163783 0.13111635
000220 98 f1 4b 3d 15 32 5d 3d 5c 24 0d bd 6c c8 e1 3c
       0.04979095 0.05400284 -0.034458503 0.027561389
000230 ab b2 cd 3d 06 fe c2 bd d0 f1 01 bc 98 70 34 3e
       0.10043844 -0.095211074 -0.007931188 0.17621076
000240 5c 15 ef 3d 41 d2 a9 3d 59 a8 e7 3c 2a a6 17 3e
       0.11673996 0.08292056 0.028278517 0.1480948
000250 ed 0c e2 bc 87 4b 45 bd 6e 36 9f bd c7 21 bd 3d
       -0.027594054 -0.04816773 -0.077740535 0.09234958
000260 f5 8e 0a be ea ba c6 3c f1 06 df 3c c2 98 c8 bd
       -0.13531096 0.02425905 0.02722499 -0.09794761
000270 05 85 bf 3d e9 28 91 bc 37 09 94 3d d2 b1 94 bd
       0.09351543 -0.017719703 0.0722832 -0.07260479
000280 fb 63 17 3d da 70 0b 3e db 84 60 3c 50 88 dc bd
       0.036960583 0.13617268 0.01370355 -0.10768187
000290 32 60 37 bd 2d a0 41 bd fc 85 d9 39 57 2a 7a bd
       -0.044769473 -0.047271896 0.00041489291 -0.061075535
0002a0 f4 d5 0d 3d 34 a9 89 bd 3e ed a4 3c 07 bc 17 be
       0.03462787 -0.06721726 0.020132657 -0.1481782
0002b0 79 67 21 bd e8 bb ab 3d ac 53 c5 3d a5 24 00 be
       -0.03940532 0.0838545 0.096351 -0.12513979
0002c0 d3 cf d9 bd a6 7d 91 3c e2 2f e5 3c b5 08 4b bd
       -0.106353424 0.01776011 0.027976934 -0.04956885
0002d0 fe 2e e2 3d a8 d4 ac bd bc eb d4 bd f5 92 0d 3e
       0.11044119 -0.084389985 -0.10396525 0.13825591
0002e0 6e 17 bf bd b6 55 fc bc 56 a2 06 be 28 fd 9e 3d
       -0.09330641 -0.030802589 -0.13147864 0.077631295
0002f0 53 08 56 bd 96 10 c5 3d 09 92 b3 3d 43 f4 11 be
       -0.052254032 0.09622304 0.08768088 -0.14253335
000300 67 66 f2 bd b0 bc 24 3e 2a 7b 1c be 4c f5 f9 bd
       -0.11835938 0.16087604 -0.15281358 -0.1220499
000310 d5 92 14 be c4 d4 07 3e 35 d5 b1 bc 4e 50 1b be
       -0.14509137 0.13264757 -0.02170811 -0.15167353
000320 77 f6 06 be 1d be 13 3e 6d 27 a0 bd 2f 54 04 3e
       -0.13179956 0.14427991 -0.0782002 0.12922738
000330 b2 ec 21 3e 21 90 56 3d e7 27 a8 bd 9d 5e 32 3e
       0.15812948 0.052383546 -0.08210736 0.17418905
000340 69 fa 26 3e da 9d 0a 3e 52 75 77 bd 5e 59 09 3e
       0.16306461 0.13536778 -0.06041462 0.13412997
000350 fe a7 cb bd a9 64 a5 3d 08 0f 1b 39 b6 03 19 3e
       -0.09944151 0.0807584 0.00014787551 0.14942822
000360 a9 ff 24 3d d0 2e 97 3d da ea fb bd da 69 05 3e
       0.04028288 0.07381976 -0.12300654 0.1302866
000370 36 5b 24 bb bf 8e aa bc b8 5d be 3c de 43 6e bd
       -0.002507878 -0.02082002 0.023238048 -0.058170192
000380 1a e7 22 be bb fe 26 be 11 71 61 3d eb 13 99 bd
       -0.15908471 -0.1630811 0.05503947 -0.07474502
000390 83 fb f4 bd 72 72 0e 3e 1f 5f 31 3e 9e 3a 30 be
       -0.119620346 0.13910845 0.17321442 -0.1720986
0003a0 ce e9 ef bd ca 93 e6 bd e7 a7 8a 3d a3 92 b3 3d
       -0.117145166 -0.11258657 0.06770306 0.08768203
0003b0 7d 38 bd bd f1 74 d8 bd a8 99 ee 3d 00 02 db bd
       -0.0923929 -0.1056918 0.11650401 -0.10693741
0003c0 cc 09 b0 bd b4 78 2c 3e fc fb de ba 67 83 8c bd
       -0.085956186 0.1684292 -0.0017012353 -0.068610005
0003d0 e4 1f c7 3d ad bb 27 be e4 f8 2a 3e 50 27 c1 bd
       0.097228795 -0.16380186 0.16696507 -0.094313264
0003e0 5e 7c c8 3c 7f 66 e2 bd b2 15 f7 3d 38 b4 cb 3c
       0.024473365 -0.11054706 0.12064685 0.024866208
0003f0 c3 38 19 be 8f 08 e5 bd b3 29 db 3d 86 93 80 bd
       -0.14963059 -0.11183273 0.10701313 -0.06278138

egnn.layers.0.coord_mlp.0.bias f4 [32]
000000 19 3e 36 bd 25 25 a6 bd 9f bb 26 be 5a 4a 0d 3e
       -0.044492815 -0.081125535 -0.1628251 0.13797894
000010 22 ab e4 bd 72 82 0e 3e 29 b8 ab 3c dd 17 9b bd
       -0.111654535 0.13916948 0.020961838 -0.07572911
000020 01 2d d2 bd 9d f6 0a be ee 56 26 3e 8f 8f 67 bd
       -0.1026249 -0.13570638 0.16244099 -0.056533393
000030 0c 32 d4 3c e2 27 0a bd 1d e7 2e 3e 47 55 30 3e
       0.02590277 -0.03372944 0.1708035 0.1722003
000040 f5 47 f0 3c a5 d2 c4 bd fe 03 3e 3d 20 99 2a be
       0.029331187 -0.0961049 0.046390526 -0.16659975
000050 83 c7 24 be 17 f8 51 3c ce 5a 92 3b 78 65 fa 3d
       -0.16091733 0.012815497 0.004466391 0.12226385
000060 97 7d a6 bd ba 58 ef 3c 86 27 c2 3d 0f de 28 be
       -0.08129423 0.029217113 0.09480195 -0.16490959
000070 3a 85 84 3d eb 4d f3 bd 88 c5 ae 3d a7 60 d3 3d
       0.064707235 -0.11880096 0.0853377 0.10321169

egnn.layers.0.coord_mlp.2.weight f4 [1, 32]
000000 dd c9 8c bb 25 b0 74 bb e6 a3 c9 bb 40 82 dc b9
       -0.004296525 -0.0037336436 -0.0061535714 -0.00042058714
000010 a3 4b ca bb 95 21 db 3b 06 6d 17 bc 9b 70 f0 bb
       -0.0061735674 0.006687353 -0.009242302 -0.0073376424
000020 21 71 f2 bb 46 be 15 bc 7c 7b bf 3b f4 b6 80 3b
       -0.00739874 -0.009139603 0.005843578 0.0039280597
000030 5b 99 06 3c 75 e4 5c 3b b4 07 65 3b f3 be d6 3b
       0.008215274 0.0033705507 0.0034947218 0.0065535246
000040 21 1e f5 bb 05 9e 3e bc 0f 7a a8 3b 33 3f b4 bb
       -0.0074803983 -0.0116343545 0.0051415036 -0.005500698
000050 1a df 39 bc 32 62 fd 3b 1e 9c 12 3c c8 4a 04 3c
       -0.011344695 0.007732653 0.008948354 0.00807447
000060 7c 4d d1 3b 8d d5 2f 3c 09 57 37 3b 85 38 c6 bb
       0.0063874107 0.010732067 0.002797546 -0.006049218
000070 0b 67 33 bc 4f f7 d2 bb dd de 82 3b ce 6d 60 3b
       -0.01094986 -0.006438173 0.0039938525 0.0034245136

egnn.layers.0.hidden_mlp.0.weight f4 [32, 48]
000000 e5 59 44 3d 5d 1c 02 3d f2 f2 dc bd a5 19 0d bd
       0.047937293 0.03176533 -0.10788526 -0.034448285
000010 1d 76 fd 3d 6a b2 85 3c 44 4c 05 be f5 5e 9c bd
       0.12376044 0.016320426 -0.13017374 -0.07635299
000020 5e 04 92 bd 3c f6 9a 3c 3d 3f f0 bd 39 eb f9 3d
       -0.07129739 0.018916242 -0.11730812 0.12203068
000030 dd d2 ba 3d 49 b6 b6 3c f6 49 03 be b3 68 8c 3b
       0.0912225 0.022303717 -0.12821183 0.004284942
000040 cb f7 b5 39 6a 3d 8c bd 5d 56 eb bd 61 3f 19 be
       0.0003470763 -0.06847651 -0.11491082 -0.14965583
000050 04 74 77 3d f3 f0 58 3c 47 2f 22 3d fe 74 fb 3d
       0.060413375 0.0132410405 0.03959587 0.12278174
000060 c0 1c 4b bd cf ee eb bd 9d 26 fc bd 66 f9 07 be
       -0.049587965 -0.115201585 -0.123120524 -0.13278732
000070 1b 1f 8d 3d 7a 28 9d bd 07 f0 c3 3d fd 6d 8e bd
       0.068906985 -0.07673736 0.09567266 -0.06954572
000080 df 4f c6 3b 10 85 86 3d 76 91 51 3d 81 4b 0a 3e
       0.006052002 0.065683484 0.051164113 0.13505365
000090 30 4b 37 3c 6a bd 7c bd df a1 6c 3c fc cd 54 bd
       0.01118736 -0.061704077 0.01444289 -0.051954255
0000a0 4b 86 e6 3d 95 fa 35 bd 6c 42 c0 bd bc 67 26 bd
       0.11256083 -0.044428427 -0.09387669 -0.040626273
0000b0 9c bc 8b bd a5 04 f4 3d 81 a9 83 bd 65 e0 3a bd
       -0.06823084 0.119149484 -0.06428815 -0.045624156
0000c0 e6 f0 94 bd 31 b0 0a 3e b4 f5 e3 bd dc 31 e6 3d
       -0.0727251 0.13543774 -0.111308485 0.11239979
0000d0 a3 8c 74 bd 47 f5 ab 3d 1e ad 4a 3d ef b5 cb bd
       -0.059704434 0.08396392 0.049481504 -0.099468105
0000e0 86 8d 09 be 45 09 98 3d 8b 69 a6 bd 42 60 b7 bd
       -0.13432893 0.07423643 -0.081255995 -0.089539066
0000f0 7a 78 a5 bd 5f 17 cf bc 3e 7a 82 bd 23 ef b3 3d
       -0.0807962 -0.025279699 -0.06370972 0.08785846
000100 b7 66 5f 3c 90 ab a5 bd 18 25 d1 bd 0c 77 6c 3d
       0.013635329 -0.080893636 -0.10212153 0.05773072
000110 ee 61 01 bd e0 da 63 bd ea 6b 13 3e bc 92 da bd
       -0.031587534 -0.055628657 0.14396635 -0.106725186
000120 c6 52 a3 3d 60 e1 7b bd 04 6c 29 3c ba ec 47 3d
       0.07974772 -0.06149423 0.010340694 0.048809744
000130 f0 56 23 bd 7b 5b 9f 3c 11 a7 79 bd 4f 26 31 bd
       -0.039877832 0.019452801 -0.060950343 -0.043249425
000140 c1 51 a3 bb 61 c6 ce 3d 1f 48 b2 3c 3b 14 43 bd
       -0.004984111 0.100964315 0.021762906 -0.047626715
000150 55 39 3e bd 9c 37 60 bc 89 06 82 bd 72 dd 02 bd
       -0.046441395 -0.013685133 -0.06348903 -0.031949468
000160 77 5a c3 3d 1f a6 77 3d a5 82 b2 3d 94 e5 be bd
       0.09538739 0.06046116 0.08716325 -0.09321132
000170 b9 16 bd 3d 94 01 60 3c ca bf ed 3d b2 13 6c 3b
       0.0923285 0.013672251 0.116088465 0.0036022482
000180 34 50 ef bd e8 4f 85 3d ef a8 c9 3c ae 37 ac 3d
       -0.116852194 0.065093815 0.024616687 0.084090576
000190 ad 45 3e bd 98 70 8f bd 0a 8a f1 bd 37 c2 d4 3d
       -0.046453167 -0.070038974 -0.11793907 0.10388606
0001a0 cd af eb bd ba 42 1e bd fd 1b 03 3e 06 42 d7 bd
       -0.11508141 -0.038637854 0.12803645 -0.1051064
0001b0 b0 7b d6 3d 59 86 06 3d 66 88 ec bd 1f d3 c8 3d
       0.1047281 0.032842968 -0.115494534 0.09805893
0001c0 05 24 a7 bd 41 66 83 3d ac 32 d9 bd 3f 94 0c be
       -0.08161167 0.06415988 -0.10605368 -0.13728426
0001d0 45 12 7f bd ea 6d 81 bd e5 b0 ec 3d 8e 01 f8 bc
       -0.062273283 -0.063197926 0.115571775 -0.030274179
0001e0 f1 08 0c 3e be a3 30 3c e9 d9 3a 3d 8d f2 ee 3d
       0.13675286 0.010781227 0.04561797 0.11667357
0001f0 72 d8 aa 3d c5 e5 51 3d 66 e1 1a 3d 8b e6 60 3c
       0.08342065 0.051244516 0.037812613 0.013726841
000200 87 1c 7b 3c bf bb 09 3e 9f be a2 bd 1e 58 c0 3d
       0.015326626 0.13450526 -0.07946514 0.09391807
000210 dc 4c 58 3d 90 bd 68 bd d2 69 b2 bd 40 ff 80 bd
       0.052807674 -0.056821406 -0.0871159 -0.06298685
000220 a7 88 da 3d 0d 4e 03 be ce 70 13 3d a9 d4 f6 3d
       0.106705956 -0.12822743 0.03599625 0.120522805
000230 3c 5f eb bd a0 e8 10 be 29 b2 08 be 96 91 a6 bd
       -0.11492774 -0.1415124 -0.13349213 -0.08133237
000240 6d 28 bd 3d 55 25 d0 3d 10 d3 54 bd 39 1a eb bd
       0.09236226 0.101633705 -0.051959097 -0.11479611
000250 49 e3 89 3d ae 76 96 bd 1c f0 05 3e 30 22 98 3b
       0.06732804 -0.07346855 0.13079876 0.0046427473
000260 44 c0 87 3d 81 0d 8b 3c 3e 54 da bd 37 57 d5 bd
       0.06628469 0.016974213 -0.10660599 -0.104170255
000270 9e f3 88 3d a9 23 ab bd c8 bf b6 bd 8e 92 92 3d
       0.06687091 -0.08356411 -0.08923298 0.07156859
000280 24 63 07 3e 09 62 a1 bd b5 be a1 3d a1 e7 ca bc
       0.13221413 -0.07880027 0.078977026 -0.024768652
000290 47 a2 93 bd 58 25 0b 3e d1 e8 b6 3d 44 4a 1d 3d
       -0.07208686 0.13588464 0.08931125 0.038400903
0002a0 43 6f b2 bd f8 4b 96 bd e7 7f b1 3d ae 94 4f 3c
       -0.08712628 -0.07338709 0.086669736 0.012669725
0002b0 08 68 0a be 73 2a 37 bd b1 e9 29 3c 97 6e 52 3d
       -0.13516247 -0.044718217 0.010370658 0.051374998
0002c0 0c 5e 83 bd b6 57 d2 3d 54 7a ed bd a2 7f bf 3d
       -0.064144224 0.10270636 -0.11595598 0.09350516
0002d0 89 db ae bd 3e e3 f2 bd bb 3f dc 3d 5d 0a e7 bc
       -0.08537967 -0.11859749 0.10754343 -0.028203184
0002e0 1e 18 d9 3d 02 53 0b be 2f 2d 6a 3d 7e d3 83 3d
       0.10600303 -0.13605884 0.057171997 0.06436823
0002f0 46 42 90 3d 4b ef 5b bd 37 4a 8e 3b 10 97 87 bc
       0.07043891 -0.053695004 0.004342343 -0.016551524
000300 60 d5 db bd a1 3b 7d bd 4a 58 d1 bd a5 10 9b 3d
       -0.107340574 -0.061824445 -0.10221918 0.07571534
000310 9a be fc 3c e5 2c 53 3d 81 ef 0f be b8 11 70 3d
       0.030852605 0.051556487 -0.14056207 0.058610648
000320 69 1b 9a bd 21 2c cf bd 0e bb e0 bd c9 82 03 3e
       -0.07524759 -0.10115839 -0.10973178 0.1284286
000330 08 e4 aa bd 5f 88 c5 3d 74 f2 a8 bd de ed 7e 3d
       -0.08344275 0.09645151 -0.08249369 0.062238567
000340 57 22 1d 3d 6b 69 ec bd b3 44 bc bd 9c 7d 9e 3b
       0.038362827 -0.115435444 -0.09192791 0.004836751
000350 fa 65 e0 bc 89 a4 eb 3d 56 22 01 be 2d fa 36 3d
       -0.027392376 0.11505992 -0.12610754 0.04467218
000360 b6 cb 85 bc 29 86 a6 bd 18 97 fd bd 24 b3 49 bc
       -0.016332489 -0.08131058 -0.123823345 -0.012310777
000370 56 1a c7 3c 2a 51 96 bd 23 aa e8 3d 69 fc ea 3d
       0.02430455 -0.073396996 0.11360576 0.11473925
000380 a9 21 03 be 7b eb b9 bd b4 24 6d 3d 57 56 c2 3d
       -0.12805809 -0.090781175 0.05789633 0.09489124
000390 ea 27 b8 bd dc f1 bf 3d 50 71 e6 bd 86 41 91 bd
       -0.08991988 0.09372303 -0.112520814 -0.07092576
0003a0 c9 b1 07 3d 70 c1 85 3d b3 32 9d 3c 8d 6c 8b bc
       0.033128534 0.06531036 0.019189214 -0.017019534
0003b0 7f f2 5e 3d db 0b ca bd 01 e4 62 3d 68 03 10 3e
       0.05443048 -0.098655425 0.055393223 0.140638
0003c0 e4 93 e8 bc 52 ab 44 bc b7 ab c5 3d 15 5e 94 3c
       -0.028390832 -0.012003737 0.09651893 0.018111268
0003d0 87 93 0e bd 64 74 e9 3d 04 85 a6 bd 97 70 ab 3d
       -0.03480866 0.11399153 -0.081308395 0.08371084
0003e0 ae 85 ab 3d 3d da ea bd d9 7c ee bc 2d 99 68 3d
       0.08375107 -0.11467407 -0.029112266 0.056786705
0003f0 19 e0 2f 3c a1 8e c6 3c 22 59 e5 3d 79 7a cc 3d
       0.010734581 0.024237933 0.11198641 0.09984297

egnn.layers.0.hidden_mlp.0.bias f4 [32]
000000 91 f4 74 3d 3e 94 8d 3a 0a 7f 14 3d 36 f9 c0 bd
       0.05980355 0.0010801626 0.036253966 -0.09422533
000010 a8 14 43 3d 3d df 04 bc a5 91 95 bd d1 f3 e3 bd
       0.04762712 -0.008109865 -0.0730317 -0.11130489
000020 66 ac 5e 3d 00 97 a8 bd a4 d3 ce 3c c8 d8 0d be
       0.05436363 -0.08231926 0.025247402 -0.13852227
000030 ed 87 77 3d 24 a4 47 3d 2e 85 b0 bb 52 c4 b5 bb
       0.060432363 0.04874052 -0.00538697 -0.005547085
000040 c7 dd 06 3e 91 c5 4b 3d 78 e1 bb bd a4 ef 60 bd
       0.13170539 0.04974896 -0.09173864 -0.05491604
000050 8c c1 54 bd 8d fd be bd e6 53 d4 bd 26 b1 e5 bb
       -0.051942393 -0.09325705 -0.10367565 -0.007009643
000060 1b f4 a0 bd 5f 32 d9 bb 2f 46 04 3d 8a 19 98 bd
       -0.078590594 -0.006628319 0.032293495 -0.07426746
000070 38 ba 71 bd d8 8d 0c be 48 ce 15 3d ff 4e 12 3d
       -0.059015483 -0.13725984 0.03657368 0.035719868

egnn.layers.0.hidden_mlp.2.weight f4 [16, 32]
000000 73 1a 06 be 48 25 d9 bd af 32 08 bd 2e 79 99 3b
       -0.13096027 -0.10602814 -0.03325146 0.004683635
000010 ca c8 b2 3b 65 95 18 3e ae 35 22 be 7e 91 90 3d
       0.005456065 0.1490074 -0.1584079 0.070590004
000020 af 5e 0f 3e c5 ea 21 3e 36 ef a3 3c b4 bf 20 3e
       0.14000963 0.15812214 0.020011526 0.15698129
000030 2f 45 c6 bd 34 bd 03 be 65 c5 38 bd 6c b3 b8 bd
       -0.096811645 -0.12865144 -0.045110125 -0.09018597
000040 53 22 ad 3d 4a be 37 bd 82 bc bb 3d c8 8f 89 bd
       0.084538125 -0.04485921 0.091668144 -0.06716877
000050 c7 03 a1 bd fe 7d 76 bd f1 39 80 bc 5c a4 ae bd
       -0.078620486 -0.06017875 -0.015652629 -0.08527443
000060 17 9b d3 3d 43 f9 f4 3d b0 9b dd 3c eb fc 2c be
       0.103323154 0.119616054 0.027051777 -0.16893356
000070 c5 16 0b 3e 41 ef fe bd 20 7a 01 be 56 e0 bf 3d
       0.13582905 -0.12447978 -0.12644243 0.093689606
000080 2d b1 dc bd f3 d3 0d be 2d bd 04 be f2 b6 17 3e
       -0.10775981 -0.13850383 -0.1296279 0.14815882
000090 ce 48 39 3d 44 4d ae 3d 7e b2 10 3d 92 85 ad 3d
       0.045235448 0.08510831 0.035326473 0.08472742
0000a0 52 6f 32 3e bc 1c cb bc 39 f3 e3 bd 85 33 0a bd
       0.17425278 -0.024793975 -0.111303754 -0.03374054
0000b0 92 43 86 bd 47 7a 29 be b5 21 02 be c7 d2 88 bd
       -0.06555857 -0.16550551 -0.1270817 -0.066808276
0000c0 1c 13 14 3d cc 3c b1 3d 9a af e3 3d f7 23 32 be
       0.036151037 0.08654174 0.11117478 -0.17396532
0000d0 d5 1f 82 bc a6 82 07 bd 58 2a 15 3e e5 98 37 bd
       -0.01588432 -0.03308358 0.14566934 -0.044823546
0000e0 6f 79 39 3e c9 51 22 3d d0 ab a1 3c 0c a7 96 3d
       0.1811273 0.039628778 0.019735247 0.073560804
0000f0 06 53 02 3e 9c 28 c9 bd 5c 7c a2 3d 9f 65 93 bd
       0.12726983 -0.09822199 0.07933876 -0.07197117
000100 8c 1b 4a 3d 11 0e db 3d 58 b1 ab bd 09 cf 4c bd
       0.049342677 0.10696042 -0.08383435 -0.05000213
000110 b2 60 25 3e 7c 2f 2b be b6 98 04 bd 0b 29 11 3e
       0.16150168 -0.16717333 -0.0323722 0.14175813
000120 12 9c 2c 3d 23 48 19 be 77 24 e6 3b 99 1a 18 be
       0.042141028 -0.14968924 0.00702339 -0.14853896
000130 66 ac 82 bd 1e 79 03 3d 26 2b bc 3d 81 74 bf bd
       -0.06380539 0.03209793 0.091879174 -0.09348393
000140 3d 7a 1b 3e e5 07 f8 bd 0c 12 03 bd 3e fb 1e be
       0.15183349 -0.12110881 -0.031999633 -0.15525529
000150 3a 75 01 bb 9d 74 24 bc 5f 30 a2 3d 09 f6 f1 bd
       -0.001975371 -0.010037568 0.07919382 -0.118145056
000160 f4 fb 35 3c e6 f0 76 3d 42 c5 e3 bd 35 e1 22 3e
       0.011107434 0.060288332 -0.11121608 0.15906222
000170 52 95 0a bd db a5 34 be 38 22 14 bd b5 3f 3c 3d
       -0.03383381 -0.17641394 -0.036165446 0.045959193
000180 13 4e ac bd 36 8a 7d bd bf a5 94 3d 43 6d ec bc
       -0.08413329 -0.061899386 0.07258176 -0.028860694
000190 9e bc 6c 3d de 0a fe 3b d5 5b 1f bc ac 24 11 3e
       0.057797067 0.0077527603 -0.009726484 0.14174145
0001a0 78 02 b2 bc 12 2a 0b 3e cd 2a 88 bd a9 fc de 3d
       -0.021729693 0.13590267 -0.066487886 0.10888035
0001b0 6d 37 b6 3d a8 23 f7 bd e1 4b 40 bd 4e f0 e7 bd
       0.088972904 -0.12067348 -0.046947364 -0.11325131
0001c0 05 37 e3 3c bd 4a 43 3c 99 37 57 bd 1e 35 19 3e
       0.027736196 0.011919674 -0.052543256 0.14961669
0001d0 d5 d2 28 3e 4f f1 02 be b1 56 ba bd 4d 98 98 3c
       0.16486676 -0.12787364 -0.09098566 0.01862731
0001e0 45 0c f4 3d e5 28 cf bd 28 f9 b7 bc 62 f7 d6 bc
       0.11916403 -0.10115222 -0.022457674 -0.026241008
0001f0 d5 9c 14 be c9 d8 aa bb 98 ed 36 bc 68 be 4e 3d
       -0.14512952 -0.005213831 -0.011165045 0.050474554
000200 6f 38 f9 3d aa bb 41 bc 33 7e 07 3e de 73 7d bd
       0.12168967 -0.011824528 0.13231735 -0.061878078
000210 50 f5 eb bd 0e f8 8a 3d 87 40 01 3e ed cf 3c bb
       -0.11521399 0.06785594 0.12622271 -0.0028810457
000220 fb fc fd bd 25 b3 a7 bd 37 37 cc bd 45 99 3b 3d
       -0.12401768 -0.08188466 -0.09971469 0.045800466
000230 35 e9 3c 3d f7 0a 20 be cf 01 dd bc f7 e7 14 3d
       0.04612084 -0.15629183 -0.026978401 0.03635403
000240 39 dd 8d bd 2d 3b 2d 3e 1f 5f 0e 3e df 4f b2 bd
       -0.069269605 0.16917105 0.13903473 -0.087066405
000250 19 5e 94 3c 91 d9 0f bd f8 8e 1f be e0 21 1d 3c
       0.018111276 -0.035119597 -0.15581882 0.009590596
000260 02 be ff 3d 26 c8 cd 3d c2 9d b3 3d bd 72 7d bd
       0.12487413 0.10047941 0.08770324 -0.061877
000270 29 43 d4 bd 72 10 1c be 95 00 1e be f0 15 51 3b
       -0.10364372 -0.15240648 -0.1542991 0.0031903945
000280 bc 6f 0c 3e 57 95 52 3d 77 6c 29 bd 81 0b 97 3c
       0.13714498 0.051411953 -0.041363206 0.018438103
000290 3c 74 15 3d 03 ac a2 bd 1c fd d9 3d 4b 57 8a 3d
       0.036487803 -0.07942965 0.1064398 0.06754931
0002a0 b2 0b 2f bd fb b5 c9 bc f6 22 29 be 1e 61 9d 3d
       -0.042735763 -0.024622908 -0.16517243 0.07684539
0002b0 43 ab d9 3c 02 e9 f6 3d d7 6f 57 3d 22 ca 0f be
       0.026570922 0.120561615 0.052596893 -0.14041951
0002c0 eb 91 58 bd d8 cd d8 3d a7 5e 21 3e dd 6e 43 3d
       -0.052873533 0.105861366 0.15758763 0.04771315
0002d0 e4 22 14 3e 36 f3 2d 3e 70 2a 4e bd 5f 53 13 3d
       0.14466435 0.16987309 -0.05033344 0.03596818
0002e0 04 78 28 3e 55 99 4e bc 97 4d d0 bd 79 d6 f3 bd
       0.16452032 -0.012609799 -0.10171049 -0.11906142
0002f0 bb 56 95 bd 7c a3 34 be 6a 5e b2 bd 4d 06 c1 3d
       -0.07291933 -0.1764049 -0.08709414 0.0942503
000300 45 64 0d 3e bf e1 cc 3c 3f 92 90 bd 55 15 e2 bd
       0.13807781 0.025009988 -0.07059144 -0.11039225
000310 8e 05 10 be d1 2b 03 3d 04 8a 25 3e 60 c9 ea bd
       -0.14064619 0.03202421 0.1616593 -0.114641905
000320 b4 a4 30 3e bd 51 9d bd 96 f6 f0 bd a0 e4 ce 3d
       0.1725033 -0.07681606 -0.117657825 0.101022005
000330 2e 12 dc bd e9 3d 25 3e 97 7d 21 be 33 03 d1 3d
       -0.10745655 0.16136898 -0.15770565 0.10205688
000340 f6 02 26 3e 53 33 6a bd 83 4b d2 bd 98 d2 72 bd
       0.16212067 -0.057177853 -0.10268309 -0.05928287
000350 58 71 1f 3e dc 4d 02 be af 64 1a 3e b7 2d 29 3e
       0.15570581 -0.12725013 0.1507747 0.16521345
000360 a2 a6 99 bd fd ae 0f 3e 26 b5 5f 3b b2 10 03 3d
       -0.07502486 0.14031596 0.0034135072 0.031998344
000370 eb af 63 bb 58 ab 19 3d 7b ba 25 3e e1 b9 00 3d
       -0.0034742306 0.03751692 0.16184418 0.031427268
000380 39 94 a3 3c 2d 80 d1 bd 90 f4 f3 3d 7b f0 74 bd
       0.019968139 -0.10229526 0.11911881 -0.059799653
000390 be 06 15 be b3 c2 2f be a4 a8 29 3e 61 cf 89 3d
       -0.14553353 -0.17164116 0.16568238 0.067290075
0003a0 c6 16 93 bd 25 10 e3 bd 4b 2e cf bb 54 9d fd bc
       -0.07182078 -0.11087064 -0.006322657 -0.030958809
0003b0 9f ec 1a bb 43 89 0a 3e 18 f1 bd bd dd 05 ff 3c
       -0.0023639572 0.13528924 -0.092745006 0.031130726
0003c0 21 80 c5 3d e0 98 0c 3e 7e aa 12 3d dc 6a ef bd
       0.09643579 0.13730192 0.035807125 -0.11690304
0003d0 82 5a 27 bd 18 87 ef bc f3 bb 3e bd a7 2d 2b be
       -0.0408578 -0.029239222 -0.04656596 -0.16716634
0003e0 51 3e 85 bb 79 c5 22 3e a6 90 b1 bd 0e 12 91 bd
       -0.0040662666 0.15895642 -0.086701676 -0.07083522
0003f0 c5 08 fd bd de f0 2c 3d 2e 10 e3 bd 37 7b b6 3c
       -0.12355188 0.042221896 -0.110870704 0.02227555

egnn.layers.0.hidden_mlp.2.bias f4 [16]
000000 38 72 fe 3c b3 fe 19 be cd 61 1f 3e 02 a0 18 bc
       0.031060323 -0.15038566 0.15564652 -0.009315493
000010 29 79 02 be 01 13 c1 3d dc ba 0e be 42 52 c6 bb
       -0.12741531 0.09427453 -0.13938469 -0.0060522864
000020 17 01 fc bd 30 28 bb 3c f0 4b fa 3c 0e b7 14 3e
       -0.12304895 0.022846311 0.030553788 0.14522955
000030 0b ee 91 bd 21 06 d8 3d cc 10 80 39 90 ea e4 3d
       -0.07125481 0.10548044 0.00024426577 0.11177552
