2-egnca-rework/logs/line4-2024-10-05@23-20-03/best@128.pt (torch, 26116 bytes, 11 tensors)

egnn.layers.0.message_mlp.0.weight f4 [32, 33]
00000000: adc1 773d 5c71 c63d 4b7e 01bc 1516 c63d
00000010: 2c06 52bd ed3a e93c 04fd 2fbd d3d7 5bbc
00000020: 6345 1dbd 854a eb3c 8f8d 083e 2638 0e3e
00000030: 3a6b f0bc 6ec6 77bd 8ee4 d2bc bf58 183e
00000040: 0837 143e dded 44bd debd 71bd 5c7c 31bd
00000050: 7da9 f83d 0e25 103e 7de3 fcbd 0b1b 79bd
00000060: 8b8d 1ebe fdb7 2f3e 3d61 e43c 0a18 593d
00000070: 882f c03d 4bf2 273d 4236 12bd c6e7 2cbe
00000080: 4c87 363d 801b 01bd 0dfc 2fbe 0394 bdbc
00000090: 0880 c2bd c721 c7bd 67aa 01be 6f9c 16be
000000a0: f725 43bc 22ff a73c e116 20be b37d 24be
000000b0: 18e8 ca3a b22d 26be ec4e ad3d 2cc8 34bd
000000c0: 3bd8 c8bc 6635 24be 9b08 00be 8a4d 833d
000000d0: 0a96 c3bd 01af 8ebd c9ba 1fbe f41f 1bbb
000000e0: 9458 debd add2 3e3d a630 633d c58b 1b3d
000000f0: cdac 7b3d f7ad fabd 0f07 8f3c 60ed 1cbe
00000100: d649 f8bd a20c 133e b221 ff3d 0e03 fdbd
00000110: 9908 c53d 6889 11be c98a d13c 5f1a 213e
00000120: dd99 5d3c f56c 8b3d 3c24 213e ab05 87bd
00000130: ded8 033e 0498 d33c 354a 20bd 6659 20be
00000140: aed5 2b3e c9a8 303e 0245 99bd 55b7 253d
00000150: 12c0 37be b193 003d dfb3 c73d f6ec 993c
00000160: c9fd c2bd 45ea 223e 4830 c6bd ea4e b43c
00000170: 76f8 25be 3498 963d 2b9c f43d 619f 0d3d
00000180: eb11 093e 8136 33be 81f9 cfbd b428 403d
00000190: 1e21 b43d 987b 2fbd 57f4 4b3d 62a4 2dbe
000001a0: 9a0b 2e3e 4836 0cbe 584f 25be 6f6f 04be
000001b0: 0511 313e 1dc8 323d 110d 6abc fa31 113d
000001c0: 29ff a2ba 449d fabd 346f e13d 0bae 14be
000001d0: aad1 31bd be14 9a3c 0a44 dabd 948f 283d
000001e0: 5a23 21be 4423 abbd 7e08 1b3e 9f08 523d
000001f0: d833 11be cf54 283e d3f2 40bd eaa6 013d
00000200: e5ac 1bbd acd5 cfbd 4b9c 013d c1a1 1abd
00000210: 8807 bebd f463 c33d 9464 ac3d 74c0 e83d
00000220: 9742 debc 6be2 ecbc f2cf 213c 838b 1c3e
00000230: cb37 1ebe c226 29bc cd49 7f3c 54d1 aa3d
00000240: d21c 2fbe eab0 3fbe 1d94 ecbb 57fa 5e3d
00000250: fa7a 96bd dc42 093e bad3 033d c9f7 77bd
00000260: 3d92 7dbd 79ef 11be 9ce0 be3d f05e 0abd
00000270: 1bc1 b53d 970d 3cbe 4c2e 013e 4ef5 623d
00000280: 6ee4 e1bd ac51 c3bd ed58 fe3d 0fcb a33d
00000290: b6dd aa3d dafc 1c3d 6af1 b4bd a9a0 e9bd
000002a0: 9d49 49bd 3d1b 4bbd 7885 dabc 6350 30bd
000002b0: 447c 10be d744 23be 8883 fdbd eb8b b73d
000002c0: 2ff7 e3bd f0c5 09be 418f 99bd 5c3a 613d
000002d0: e3ec 59bd 6e11 d53a 6d20 9e3c 62ab fbbd
000002e0: c12a 4bbd 7f57 54bd 2507 21bc de06 e8bd
000002f0: 963e 0cbd 31d8 733c 9cd7 5f3d 7f93 e6bd
00000300: 580c 1e3e 852d 3a3d 3812 0ebe 2adb 253e
00000310: cc68 e4bd 11ab b1ba 72aa 083e ccca 21bd
00000320: f4b4 353d 6fd8 a83d a310 70bd e1b1 9c3c
00000330: e9c4 053e e4b2 28b9 759a 34bd dc81 053e
00000340: cf16 113d dbd9 e6bd 997a b23d 1f9a 0f3e
00000350: 10d1 623c 4a13 153e 21aa dfbd c45d 2b3e
00000360: 444c ce3d 3459 71bb 680c 23be a960 2d3e
00000370: 767c f9bb 03c0 ac3d 895d c0bd 6d2c 713d
00000380: 6f60 d8bc ab06 353d 9784 863d 8904 eebd
00000390: 0cb9 03be 0003 eebb edc1 36bd 4544 ef3d
000003a0: 182f 98bd 36cc 273d 0269 23be 832c af3d
000003b0: c51a de3d 16d0 d53c 3e61 bb3c a534 d43c
000003c0: 0af7 e6bb a913 16bd 5f83 053e 1a52 5cbd
000003d0: 1d77 bbbc 2594 88bc b5ff d3bd 7e09 0bbe
000003e0: 925e d5bd ff88 11bd 77d5 08be 4d2c 683d
000003f0: 1b2f 05be 2d80 39bd 8b6a 96bd 0904 afbd
0.060487438 0.0968959 -0.007903646 0.096721806 -0.051275417 0.02847048 -0.042965904 -0.013418156
-0.03839625 0.028722057 0.1333525 0.13888606 -0.029348005 -0.06049197 -0.025743749 0.14877604
0.14474118 -0.048078407 -0.059018962 -0.04333149 0.12141702 0.14076635 -0.123480774 -0.060816806
-0.15483682 0.1716003 0.027878398 0.05300144 0.09384066 0.041002553 -0.035696276 -0.1688529
0.044562623 -0.031520367 -0.17185993 -0.023141867 -0.09497076 -0.097232394 -0.1266266 -0.14708112
-0.011910907 0.020507399 -0.15633728 -0.16063575 0.0015480546 -0.16228369 0.08462319 -0.04413621
-0.02451717 -0.16035995 -0.12503283 0.06411274 -0.09550102 -0.06966973 -0.15598597 -0.0023670169
-0.10856739 0.046587635 0.055466317 0.03797509 0.061444093 -0.122402124 0.01745942 -0.15324926
-0.12123458 0.14360288 0.12457599 -0.12354098 0.096207805 -0.14212573 0.025578873 0.15732716
0.013525453 0.06807891 0.15736479 -0.06592878 0.12875697 0.025829323 -0.03913327 -0.15659103
0.16780731 0.17251886 -0.07483865 0.040458042 -0.17944363 0.03139085 0.097511046 0.01878975
-0.09521062 0.15909679 -0.09677178 0.022010285 -0.16208062 0.07353249 0.11943849 0.034575824
0.13385741 -0.1750126 -0.10155011 0.046913818 0.08795379 -0.042842478 0.049793568 -0.16957238
0.16996613 -0.13692582 -0.16143548 -0.12933134 0.17291649 0.043647874 -0.014285342 0.035448052
-0.0012435663 -0.12237027 0.110075384 -0.14519517 -0.04341284 0.018808719 -0.10657509 0.04115255
-0.15736142 -0.08356336 0.15139958 0.051277753 -0.14179933 0.16438602 -0.047106575 0.031653322
-0.038006682 -0.101481766 0.031643193 -0.037751917 -0.0927878 0.09540549 0.08417621 0.113648325
-0.027131362 -0.028916558 0.009876238 0.15287594 -0.15450971 -0.010324182 0.01558156 0.083407074
-0.17100838 -0.18719831 -0.007219805 0.05443796 -0.07347675 0.13404411 0.03218434 -0.06053904
-0.06190704 -0.14251508 0.093201846 -0.033781946 0.088747226 -0.18364559 0.12615317 0.055409722
-0.11029898 -0.09537062 0.12419305 0.07997715 0.08343069 0.038327076 -0.088351086 -0.114075966
-0.04914247 -0.049586523 -0.026674971 -0.043045413 -0.14109904 -0.15944229 -0.12378603 0.08962234
-0.11131131 -0.13454413 -0.07498027 0.054987296 -0.05320443 0.0016255805 0.019302571 -0.12288548
-0.04960132 -0.051841255 -0.009828364 -0.11329435 -0.034239374 0.014883087 0.05464898 -0.112586014
0.15434396 0.045453567 -0.13874137 0.16196886 -0.11152801 -0.001355501 0.1334627 -0.039500043
0.044362023 0.082444064 -0.058609616 0.019127788 0.13063397 -0.0001608837 -0.044092614 0.13037819
0.035422143 -0.112720214 0.0871479 0.14023636 0.01384379 0.1455814 -0.109211214 0.16734987
0.1007314 -0.003682685 -0.15922701 0.16931404 -0.007613714 0.08435061 -0.093928404 0.05888026
-0.02641317 0.044195812 0.06568258 -0.11621959 -0.12863559 -0.007263541 -0.044618536 0.11682943
-0.074308574 0.040966235 -0.15958026 0.08553412 0.1084495 0.0261002 0.022873517 0.02590401
-0.0070484923 -0.036639843 0.13038395 -0.053789236 -0.022883946 -0.016672203 -0.103515066 -0.1357784
-0.104184285 -0.03553104 -0.1336268 0.056682874 -0.1300625 -0.045288254 -0.0734454 -0.085456915

egnn.layers.0.message_mlp.0.bias f4 [32]
00000000: 7b38 08bd 2c1d 91bc f7ce 513d b492 1ebe
00000010: 94e7 703d 7f90 19be 5557 13bd 7a11 12be
00000020: 80b6 19be 16c8 bebd 0c9d 013e 992e 24be
00000030: 55fe 9c3d 1112 67bc 8cbb 12be 10c2 433d
00000040: 1a95 c2bd 3090 d0bd bec6 103d 6165 00be
00000050: 26d1 243c 7ef9 773d ef1c 513d 84a6 c03d
00000060: bf88 12be 6279 6d3d 209d d83d b439 25be
00000070: 6d83 8b3d e068 403c 77f6 7c3d 64c6 2bbe
-0.03325699 -0.017714106 0.051222768 -0.1548565 0.0588146 -0.14996527 -0.03597196 -0.1426448
-0.15011024 -0.09315507 0.12657565 -0.160334 0.076656975 -0.014103428 -0.14329356 0.047792494
-0.09501095 -0.101837516 0.035345785 -0.12538673 0.0100596305 0.06054067 0.051052984 0.0940676
-0.14309977 0.057977088 0.10576844 -0.16135293 0.06812177 0.011743754 0.061758485 -0.16774899

egnn.layers.0.message_mlp.2.weight f4 [32, 32]
00000000: 2ee2 e63d cee7 20be 7223 a83d 1f5b 233e
00000010: db51 10bd c2df a83d fd80 aebc b020 ca3d
00000020: da1c 25be 9214 cab9 28d8 3f3e 48c9 32bd
00000030: 973d 0fbe a8d6 0ebe a15b 1e3d e753 203e
00000040: fd29 30be d8fa e73d e074 09be 7c9e 983d
00000050: 0bf0 163d 6f66 673d 2cfa 1bbe 34af 2b3e
00000060: a157 1f3d b040 3dbc 4afc 06be 88e4 db3d
00000070: fcb0 283e ff73 8f3d 76bc acbc a616 2abd
00000080: 4b97 39be 5492 ef3d 2fd8 d5bc d223 20be
00000090: ead2 f438 c17c 0b3d 7f5d e33d 6d05 6b3d
000000a0: ede4 eebd 2209 3ebd 14d5 2ebe 6390 a83d
000000b0: d3c2 a83d 845a d7bd a629 323d c050 f13d
000000c0: 8f72 223e 6124 f53d 549f 8a3d 4f0e 2a3d
000000d0: 7c2b 7c3d 61b8 253e 2719 df3d 033d f23c
000000e0: de30 ab3c dc9f f03d 97bc 333e 8c3b ecbd
000000f0: c9d6 b0bd e6a4 463e 6f8c 9abd 3a94 43bd
00000100: 60c2 0e3e a1de 88bd f706 353e ecc8 d0bd
00000110: 22df a8bd ff90 0b3c c79e 603c a66a 253e
00000120: ed81 96bd b5aa 893d 21ca cabc c628 f0bc
00000130: 2314 1bbe ee41 273e 410c c3bd fa7c 17bd
00000140: bf20 a6bd 86cd 263e 95be 91bd 203f 29bd
00000150: 2833 d23d 7e62 2b3e 904f 293e 92c1 d5bd
00000160: 7261 82bd ab7a 133e 946e 993d 0349 0c3e
00000170: bbca 753d 378a eebd 2040 d0bc b878 9fbd
00000180: 81af 14be b3b4 4a3d 6f5f bf3d 3dd2 873d
00000190: ef18 0e3e 447e 92bd 236d 763d a1b2 64bd
000001a0: a9e6 193e 6e95 53bc 7870 013e 0b3e 093e
000001b0: 34da f9bd 081c 2cbd 3311 1b3e 9b87 afbd
000001c0: 27a2 2dbd d529 153e d213 143e 1c3e f23d
000001d0: d97c 923c 14b1 e23d 73a9 24be 940d a93d
000001e0: d967 f2bc bf1d 06be 4166 1f3d 8474 e73a
000001f0: 5615 853d 0e9f 74bd 8e14 343e 4c10 3cbe
00000200: 914e 303e bcde 9cbd 622d d53d 21a0 cdbc
00000210: 2dbc 49bd 1b92 07be ec48 0fbe 6174 be3c
00000220: a117 d3bd 4048 fdbd 39e0 18be aefd 1a3e
00000230: 6b5a 2a3d 4935 793c 763e 55bd f9df 1cbe
00000240: e5c2 cd3d e02d 123e 9e62 083d 161a 423d
00000250: e29f a93a fc87 8b3d 73c0 083c 19cb e4bd
00000260: d327 c9bc a42b 243e 9870 dabd a928 1f3e
00000270: 22a1 cdbd d943 0dbd de32 e83d a6f5 e0bd
00000280: 2f45 38bd 2e21 08be aa50 c3bc f276 e83d
00000290: bf25 b8bd 3b50 19bd f857 893b 2c61 da3d
000002a0: cef5 f33c 3d7b a9bc 7aa8 ddbd f481 06be
000002b0: 0d8f 2f3e f13e 3abd 0674 de3d 970f 87bc
000002c0: e47b afbd ad65 8bbd 7aa8 10be fac9 10bd
000002d0: 86b3 833c 02a5 b0bd 6c47 4b3d 1d30 9e3d
000002e0: a70d e8bd fe06 94bc e446 013e 0c2c 25be
000002f0: c715 c53d e923 34bd 561f 63bd 6f6f d5bd
00000300: 9072 52bc 85e4 6e3d b3fd a7bd b38e 68bd
00000310: fe23 be3d ed7f abbd 18cb 1b3c 521d cc3d
00000320: 2453 5fbb 8b58 3fbd dc02 e8bd 5aeb 22bd
00000330: c069 0ebd 3b4e e83d 2669 783c 5b01 13be
00000340: 9ec6 51bc 36bf dabd c986 3f3e 71b3 29bd
00000350: da81 2bbe db51 c2bd 6d0b cf3d 0c19 2b3e
00000360: bacd e7bd cb36 31be a07a 2cbd 5c22 47bd
00000370: 1258 b3bd 5ca2 da3d a38f 6b3c 024e 093e
00000380: e403 023e 844e 683c 20d0 103e 3534 3cbd
00000390: 5fa8 763d 8421 e5bd 757c 303d 1ea8 8f3d
000003a0: 5d7d 36be e126 163e 19f3 fb3d e4d7 e3bd
000003b0: 879b 563d 2c98 2a3e 845a 74bd 673f aa3b
000003c0: 0b26 94bc fbad d1bd 7cdb b43d 7ebe a2bd
000003d0: fce6 503d 98d4 0c3d 7426 b03d 896b 2d3e
000003e0: fbca 743d 3ff3 debc a857 61bd c2bf 143e
000003f0: 1323 e73d 4f3c 1d3e 8d14 9bbd 8fdc db3d
0.11273609 -0.15713426 0.08209886 0.15952729 -0.035234313 0.082458034 -0.02130174 0.09869516
-0.16124287 -0.00038543768 0.18734801 -0.043648988 -0.13988338 -0.13949072 0.038661603 0.15657006
-0.17203517 0.113271415 -0.1342349 0.074521035 0.036850017 0.056494173 -0.15232152 0.16766053
0.03890193 -0.011551067 -0.13182178 0.10736948 0.16473764 0.070045464 -0.021085959 -0.041525505
-0.1812412 0.11697832 -0.026104061 -0.15638664 0.000116741125 0.03405452 0.11101817 0.05737822
-0.11664758 -0.04639543 -0.1707347 0.082306646 0.08240285 -0.10515311 0.04349675 0.1178298
0.15864013 0.11969829 0.06768671 0.041517552 0.061564907 0.16183616 0.10893469 0.029570108
0.020897325 0.11749241 0.1755241 -0.11534795 -0.08634717 0.19398841 -0.07546317 -0.04774878
0.13941336 -0.06683088 0.17678438 -0.10194573 -0.08245684 0.0085184565 0.0137097305 0.16153964
-0.07349 0.06722013 -0.024754586 -0.029316317 -0.151444 0.16333744 -0.095238216 -0.03698442
-0.081117146 0.16289338 -0.07116429 -0.041319966 0.102636635 0.1673679 0.16534257 -0.10437311
-0.063662425 0.14402263 0.07491794 0.13699727 0.060007792 -0.11647456 -0.025421202 -0.07786697
-0.14520074 0.049488734 0.093443744 0.06631897 0.13876699 -0.071529895 0.060162675 -0.055834416
0.15029396 -0.012914045 0.1264056 0.13402574 -0.12199822 -0.04201892 0.1514328 -0.085707866
-0.04239097 0.14566739 0.14460686 0.11828253 0.017881798 0.11068931 -0.16080265 0.08254543
-0.029590534 -0.13097285 0.038915876 0.0017658626 0.0649821 -0.059722 0.17585966 -0.18365592
0.1721747 -0.07659671 0.10409047 -0.02510077 -0.049251724 -0.13239329 -0.13992661 0.023248853
-0.10307241 -0.12367296 -0.14929284 0.15135834 0.041590136 0.015210458 -0.05206152 -0.15319814
0.10046939 0.14275312 0.033297174 0.04738816 0.0012941326 0.06813046 0.008346665 -0.1117155
-0.024555122 0.16032273 -0.10666007 0.15542854 -0.10040499 -0.034488533 0.11337827 -0.10984354
-0.044987854 -0.13293907 -0.023842175 0.11350812 -0.089915745 -0.03743003 0.004191395 0.10663065
0.029780295 -0.020688647 -0.1082315 -0.1313551 0.17144413 -0.04547018 0.108619735 -0.016486926
-0.08568552 -0.068065025 -0.14126769 -0.03534887 0.016076814 -0.08625223 0.04962866 0.07724021
-0.11330729 -0.01806974 0.12624699 -0.16130084 0.09623294 -0.04397956 -0.055449806 -0.10421645
-0.012844697 0.058323402 -0.08202686 -0.056776714 0.09284209 -0.08374009 0.009508871 0.0996653
-0.0034076655 -0.0467153 -0.113286704 -0.03977523 -0.03476882 0.11343046 0.015161788 -0.14355986
-0.012803702 -0.10681002 0.1870376 -0.041430894 -0.16748753 -0.09488269 0.10109601 0.16708773
-0.11318536 -0.17306058 -0.04210913 -0.048616752 -0.087570325 0.10675499 0.014377507 0.13408664
0.12696797 0.014178876 0.14141893 -0.045948226 0.060219165 -0.11188033 0.04308744 0.07014488
-0.1782126 0.14663269 0.123022266 -0.11125162 0.052394416 0.16659611 -0.059656635 0.0051955464
-0.018084547 -0.10238262 0.08830926 -0.0794649 0.051001534 0.034382433 0.08601084 0.16935553
0.05976389 -0.027215598 -0.055015236 0.14526275 0.11285987 0.15355037 -0.07572279 0.107354276

egnn.layers.0.message_mlp.2.bias f4 [32]
00000000: 59fe 833b cbd9 db3d c1ad a03c 919a 273e
00000010: a856 b8bc 8348 28be 090e 21be 9ba8 98bd
00000020: a47f 743d 89d6 c83d e01e a43d 628f 1b3e
00000030: 5fb4 30be bbc6 923d 5127 82bc 9866 09be
00000040: a2ce 2c3d 4355 2b3e ea86 443d 2bd8 da3d
00000050: 585c c93d cb8f f1bd 0817 31be 1219 26be
00000060: bff8 1a3e 6b0c 06be a8c2 6dbd 303d 183e
00000070: 3314 203e e51f 03be 5ed2 953d d904 a3bb
0.0040281233 0.107349 0.019614102 0.16367556 -0.022502258 -0.16433911 -0.1572801 -0.07454034
0.05969204 0.09806544 0.080137014 0.15191415 -0.17256306 0.07166811 -0.015887888 -0.13418043
0.042189248 0.16731744 0.047980227 0.10685762 0.09832066 -0.117950045 -0.17293942 -0.16220501
0.15133952 -0.13090675 -0.058046967 0.14867091 0.15632705 -0.12805136 0.07315515 -0.004974943

egnn.layers.0.coord_mlp.0.weight f4 [32, 32]
00000000: cd7e 20bd 08a5 4fbb e503 f23b 71e9 2cbe
00000010: 6480 f6bd acef ac3d 4eeb dd3d 0e04 4b3d
00000020: f06a dfbd 9467 80bc d6d8 e23d a850 e1bd
00000030: da84 023e 47c4 863d bdaa dabd 9392 25be
00000040: 28ca 9b3d f1a7 383d 1c83 c4bd 9f8d 0abe
00000050: 5e10 143d 0980 a03d d7b8 89bd 771e 163e
00000060: edb1 fc3d 5fd4 e43d 352f 153e bf79 efbd
00000070: 4d20 113e dc98 1abe 3440 33bd 10f2 03be
00000080: b109 34bd 4d1b 1ebe 8caf 1bbe 3851 e7bd
00000090: 0061 e73c 34c1 e3bd 97af 863c 0471 ea3c
000000a0: 8f77 1bbe d06d 0f3e c076 49bd 7281 f53d
000000b0: 9bce 5fbb 5991 e23d a394 5a3c eef2 e0bd
000000c0: 5cc9 25be c92b 03be 74df cfbd a050 f7bd
000000d0: 0ff3 2e3e 40f7 f5bd 6a45 743c f27b f5bd
000000e0: 0a55 053e a361 01bc 777b a0bd cdad 803c
000000f0: 4187 c0bd 9e9b b33d 58ae cabb 9106 f9bd
00000100: 9d31 39bd b84b 86bb 01f7 7cbc de3a 94bd
00000110: 8a16 0e3d 6d67 373e 4fac c5bd 615f 9fbd
00000120: 9dbe c43b 99bc f93d 8221 acbd a568 0abe
00000130: e00d 2e3e 04ae 853d a87a 993d 7374 2cbd
00000140: e69b 183e 557e 663a 7bc2 6d3d fc05 253e
00000150: dd39 f2bd b958 eebd 2cd4 ed3d fd2c ce3d
00000160: 10a8 b5ba 0ec1 97bd f09f 1f3e 6802 18be
00000170: 4b84 d9bc af82 18be bde2 073e a95d 093d
00000180: 7d7c 56bd 2a8a fbbd 4da5 1cbd 970a 14be
00000190: 6e36 233e abaa b5bd c7b8 14bb 8202 8d3c
000001a0: 297c d23d c592 a4bc 8971 e83c dda0 68bc
000001b0: acea 1c3c 65b6 c33d 4f66 f23d 0a04 31bc
000001c0: 379a 413d c276 32bd 1320 8f3d d192 c83b
000001d0: 1a1c 67bc 5ce8 373c 75db 0f3e ce35 f63d
000001e0: 27ed 14bd eda9 fc3d 5748 db3b bf4b 94bd
000001f0: 1b51 b0bd 254a d63d 68e8 85bd 1c4a a8bc
00000200: 228a a9bd 189a e1bd 16bf f83d 9b02 163e
00000210: 6a70 1ebe 791c 303c b87d 103e e7a5 f33d
00000220: 5e96 493d 87de 6f3d 64c7 31bd 6d80 ef3c
00000230: efb6 d33d 0be3 bdbd 9b91 24bc c5da 373e
00000240: 14c1 f23d 23e2 ad3d 954a 013d 2d81 133e
00000250: 5269 02bd 51ec 1abd 812b 9bbd e7a1 b73d
00000260: 6efe 0bbe b599 073d d394 083d b429 dfbd
00000270: 9d8b b03d 93fc 16bc 72d7 9b3d 1518 8fbd
00000280: 8152 2e3d 15a1 0a3e e3f1 b73c 2955 e2bd
00000290: 63cf 2dbd ac5f 4cbd 895d 0dbc 6644 4abd
000002a0: b9c4 103d 1c53 92bd 7025 ea3c b729 19be
000002b0: 2e9b 2dbd 153c a73d 8cf7 c83d f288 03be
000002c0: f60c ddbd 1f27 833c 139b cc3c 5d92 3abd
000002d0: 68a9 ea3d c203 c1bd bfce d8bd 03fb 0f3e
000002e0: 941e bcbd 8252 20bd 7281 0cbe d4be b43d
000002f0: b0cb 39bd 8094 b43d 8e50 ac3d 7256 14be
00000300: dca8 fcbd 0e5b 243e 4b6b 25be 4206 f6bd
00000310: 4711 16be 8b01 0c3e d72b 3fbc df79 28be
00000320: aab9 08be 873d 173e 31ba b1bd 2bc4 043e
00000330: bf4f 263e 9806 5c3d d813 aabd 5314 373e
00000340: 4c93 273e 0575 0b3e b888 6ebd 8b23 043e
00000350: db69 d7bd 9212 bc3d 67e6 5e3b fc7d 173e
00000360: 9959 1a3d e83b a93d c61a f1bd 31ad f33d
00000370: a616 20bc f2f3 35bc fe5e d53c 12e3 67bd
00000380: bcc9 28be de5e 26be 0c53 3c3d 1c83 93bd
00000390: 00cc f9bd 5c7b 113e 372c 3b3e ff27 3cbe
000003a0: ed96 f1bd 40c9 ddbd ffc3 703d fa55 b63d
000003b0: 9180 b6bd dfe5 d3bd 55cd ea3d 0291 d3bd
000003c0: 71ef acbd cf37 2e3e d8f0 ac3a 513c 95bd
000003d0: 41b6 bd3d fef0 1cbe a245 2d3e 23fe c5bd
000003e0: 45c4 ba3c e70f d0bd 6ba0 013e 4b1b 613c
000003f0: 24b5 20be 85d9 d2bd bd7b e23d b405 77bd
-0.039183427 -0.003168406 0.007385718 -0.16885926 -0.12036207 0.08444151 0.108358964 0.049564414
-0.109090686 -0.01567439 0.110765144 -0.11001712 0.12745991 0.06580406 -0.10677097 -0.16169195
0.076069176 0.045082036 -0.0959532 -0.13530587 0.03614842 0.07836921 -0.067247085 0.14660059
0.12338624 0.11173319 0.1456879 -0.11693143 0.14172478 -0.15097374 -0.0437624 -0.12885308
-0.043954555 -0.15440102 -0.15203685 -0.11294788 0.028244495 -0.11120835 0.01644115 0.028618343
-0.15182327 0.14006734 -0.049185514 0.1198758 -0.0034150246 0.11062879 0.013341102 -0.10983835
-0.16190094 -0.12809671 -0.10150042 -0.12075925 0.17084907 -0.1201005 0.014909128 -0.11986531
0.13020721 -0.007896814 -0.07836049 0.015707875 -0.09400798 0.08769916 -0.006185334 -0.121594556
-0.04521333 -0.004098382 -0.01543975 -0.072377905 0.034689464 0.17910548 -0.09652006 -0.07781864
0.006004168 0.12194175 -0.084048286 -0.13516481 0.1699748 0.065273315 0.07494098 -0.042103242
0.1490322 0.00087926287 0.0580468 0.16115564 -0.11827443 -0.11638016 0.11612734 0.100671746
-0.0013859291 -0.07409869 0.15588355 -0.14844668 -0.02655234 -0.14893602 0.13270088 0.033536587
-0.052364815 -0.12282212 -0.03824358 -0.14457165 0.15938732 -0.08870443 -0.0022693144 0.01721311
0.10277588 -0.020089516 0.02837445 -0.014198509 0.0095774345 0.09556273 0.1183592 -0.010804186
0.04726621 -0.043570288 0.069885395 0.0061210175 -0.014105821 0.011224832 0.1404856 0.12021981
-0.03635898 0.12337098 0.006691973 -0.0724101 -0.0860922 0.10463361 -0.065384686 -0.02054315
-0.082783 -0.11015719 0.12145822 0.14649431 -0.1547257 0.010748976 0.14110458 0.11896878
0.049215667 0.058561828 -0.043403044 0.029236043 0.10337626 -0.09271821 -0.010044481 0.17954548
0.11853233 0.08490398 0.031565268 0.14404745 -0.031838723 -0.037823025 -0.07576657 0.08966427
-0.13671276 0.03310557 0.033345055 -0.10896626 0.08620379 -0.009215492 0.07609452 -0.06987015
0.04255915 0.1353801 0.022454208 -0.11051399 -0.042434108 -0.049895927 -0.008628258 -0.049381636
0.03534386 -0.07144758 0.028582305 -0.14957319 -0.04238432 0.081657566 0.09812841 -0.12845209
-0.10793488 0.016009865 0.024976289 -0.04554974 0.11458093 -0.09424545 -0.10586309 0.14060597
-0.0918552 -0.039141186 -0.13721254 0.0882546 -0.045360267 0.088173866 0.08413802 -0.14486101
-0.12336895 0.1605036 -0.1615421 -0.12012912 -0.14655028 0.13672464 -0.011668167 -0.1645274
-0.13352075 0.14769565 -0.08678091 0.12965457 0.16241358 0.053717226 -0.08304566 0.17878847
0.16364783 0.13618858 -0.058235854 0.12904184 -0.10518237 0.091832295 0.0034011842 0.14794153
0.037683103 0.08263379 -0.11772685 0.11898268 -0.009771025 -0.011105524 0.026046272 -0.056613036
-0.16483206 -0.16247126 0.045977637 -0.072027415 -0.12197113 0.14207214 0.18278585 -0.18374632
-0.11796365 -0.10829401 0.058780666 0.089031175 -0.08911241 -0.10346579 0.11464945 -0.103303924
-0.08444107 0.17013477 0.0013194336 -0.07286895 0.09263278 -0.15326306 0.16921094 -0.09667613
0.022798667 -0.10159283 0.12658851 0.013739417 -0.156941 -0.10295395 0.110587575 -0.060308173

egnn.layers.0.coord_mlp.0.bias f4 [32]
00000000: 613a 39bd e62e a6bd f2df 27be a616 063e
00000010: d059 e7bd edee 0f3e 4d1e 963c a478 9ebd
00000020: 221d d5bd 30c1 0cbe b282 273e 05d8 58bd
00000030: f535 e63c 5bbb f9bc b241 2f3e f385 313e
00000040: 6f54 dc3c eada c7bd 9ceb 493d e6c7 2bbe
00000050: 5ac6 26be 0973 7d3c fcb8 da3b 86fb fd3d
00000060: 0360 a2bd 2cc3 003d b4e4 c03d 28d9 29be
00000070: 52ee 7e3d e7e1 f6bd cb63 af3d 933e d43d
-0.04522169 -0.08114414 -0.16394022 0.13094577 -0.11296427 0.14055987 0.018324995 -0.07737854
-0.10405947 -0.1374557 0.1635845 -0.052940387 0.0281019 -0.030484846 0.17114905 0.17336254
0.02689573 -0.097585514 0.04929696 -0.16775474 -0.16286603 0.015469321 0.006674884 0.1240149
-0.07928469 0.03143613 0.09418622 -0.16586745 0.062239 -0.12054806 0.08563956 0.103634976

egnn.layers.0.coord_mlp.2.weight f4 [1, 32]
00000000: cfa6 b8bb 666e 86bb 061f 14bc df9f ebba
00000010: 4ec5 19bc 037e 2b3c d591 7dbc ecd5 2dbc
00000020: 4aaf 37bc b303 63bc 8bf0 f93b ee7d e73b
00000030: f86c 6a3c 7b44 2c3c 9e89 8e3b e801 013c
00000040: ba4d 55bc a86f 8bbc 1b55 063c db45 04bc
00000050: 7afb 89bc 18a9 433c ef05 6b3c fc44 4b3c
00000060: 604f 103c 9e36 803c bee4 293b f529 15bc
00000070: da43 88bc cffc 28bc a032 993b 84c8 8c3b
-0.0056351195 -0.004102516 -0.0090406 -0.0017976722 -0.00938542 0.010467055 -0.015476664 -0.010610085
-0.011211226 -0.013855862 0.007627552 0.0070645725 0.014308207 0.010514374 0.0043499013 0.00787399
-0.01301902 -0.017021015 0.008199002 -0.0080732955 -0.016843546 0.011942171 0.014344676 0.012406584
0.008807987 0.015651044 0.0025923694 -0.009104242 -0.016633917 -0.0103141805 0.0046752244 0.0042963643

egnn.layers.0.hidden_mlp.0.weight f4 [32, 48]
00000000: df43 5d3d a37e 043d 5f46 dfbd e05e 10bd
00000010: fb02 013e 0c81 f23c d881 02be de36 98bd
00000020: 3f3f 89bd 9437 a73c 0f50 f2bd 5c46 f43d
00000030: dde0 bb3d 008f b83c 3325 00be 90f9 ae3b
00000040: 3bcc 47b9 439a 90bd 7cdf e8bd 9b11 1dbe
00000050: 1831 733d 7651 553c 3f42 243d 390d fd3d
00000060: 006c 52bd 6eac f9bd ea42 fbbd 10eb 0bbe
00000070: 9062 8f3d 640e 95bd b88f be3d 2d01 90bd
00000080: 0bd6 463b 9fbe 7c3d 618d 593d 0352 093e
00000090: 706c 363c ff25 7cbd 3c33 873c 3176 33bd
000000a0: 63c1 e03d 90bb 2abd bcd0 c5bd ae54 26bd
000000b0: 03cb 89bd db13 f83d 5263 95bd 8bbb 46bd
000000c0: 50cb 88bd 8bcd 0e3e 17c0 e5bd 1aab e03d
000000d0: 2433 61bd e798 c13d faff 583d b21c babd
000000e0: 8fab 07be a8fb 9e3d 232a aebd aa4a cfbd
000000f0: 7eb3 9fbd 6979 eabc dd39 78bd 2569 b93d
00000100: 23e0 213c f745 a7bd 9ba1 d7bd 08a1 603d
00000110: 6e89 10bd c2e1 59bd 30b5 173e 73a0 dfbd
00000120: 098e 973d 87d6 74bd 3096 dd3b ab21 423d
00000130: 1acb 13bd 6c1d c73c 339f 84bd cfca 26bd
00000140: 2234 f9bb 2469 c93d b5ff d33c 85b5 3fbd
00000150: f204 4bbd c274 29bc 883e 77bd bf7f f7bc
00000160: 25a3 ba3d e448 843d 884a b33d 7ac2 c5bd
00000170: 41ff ba3d 8c9e 943c 7409 e63d 2951 593a
00000180: aa4c e0bd 09c1 6f3d 17ba ba3c a3c0 c23d
00000190: 0f9b 5ebd 90ab 8ebd 42c4 fdbd 0496 d33d
000001a0: 1beb d9bd 66b1 38bd 460c 0c3e 6a4a c3bd
000001b0: d4ea c63d bc57 223d fd9f febd 9d82 ba3d
000001c0: 9481 9bbd ef17 873d 3433 cabd bcd0 09be
000001d0: b097 6ebd 7fee 8abd dcd5 dd3d ec96 cdbc
000001e0: d942 113e 68ad 583b f608 5b3d da5c ec3d
000001f0: 36ef 983d f8e6 3b3d 4165 2a3d c2e3 253c
00000200: 4a63 753c 5369 093e 147f afbd ceb2 bd3d
00000210: d41a 713d 4405 80bd b779 babd b95c 74bd
00000220: 2ada e13d e76f 09be c05c ef3c 8950 023e
00000230: 32ba ddbd 9341 17be d5d6 0abe a39b abbd
00000240: 4e70 b23d 824d cc3d fabb 52bd 6b27 e7bd
00000250: db67 843d e2cb abbd ee00 043e f7b2 66ba
00000260: 055e 863d 4086 7d3c d672 d7bd f980 c6bd
00000270: 7aab 853d f9ce a8bd 194d bcbd 1e30 903d
00000280: 96cc 083e c16b a2bd 7860 a43d 9e79 c7bc
00000290: 44dd 8fbd 07d4 0a3e 6868 b33d 2844 203d
000002a0: 7426 aebd bde3 95bd cf53 b43d f48e 243c
000002b0: f643 0cbe 3081 40bd 04c5 453c 01a8 503d
000002c0: e378 8ebd 6096 c83d e7c0 f1bd 3918 d23d
000002d0: 5d45 acbd 1c49 f5bd ad71 d93d 9da9 f1bc
000002e0: 5b90 dc3d 175a 0dbe 53f1 633d 5646 863d
000002f0: 4f90 953d a55c 63bd 5e5a c23b 377a 8cbc
00000300: 40bf d9bd 7c17 77bd d20e d7bd 57eb 9b3d
00000310: 3136 023d e026 4a3d a6dc 0fbe 6a07 793d
00000320: fde5 97bd a34d cfbd c8a4 e1bd ad7b f83d
00000330: d1b6 abbd 36ae c33d 723b a8bd ba06 7b3d
00000340: fac9 1b3d 39c3 eabd 98b0 bcbd 0a13 8a3b
00000350: 28a8 e6bc 226f ec3d 2083 00be b0e4 363d
00000360: a1ef 9abc 01aa a6bd ff15 fdbd fd9d f7bb
00000370: 1b04 c83c 21b6 95bd 0bbc e83d c7b9 ea3d
00000380: fbaa 00be 4d69 b1bd 9d1f 6f3d c367 bf3d
00000390: e837 b8bd 4528 c03d fa18 e7bd 396a 96bd
000003a0: b127 053d 52a6 853d ddd8 9e3c 103b 89bc
000003b0: 6d3d 573d b335 cabd 442a 633d d103 133e
000003c0: c014 c5bc 0655 8dbb aa67 c93d 4ef5 813c
000003d0: 4e47 ecbc f36d ec3d 4871 a0bd 4810 b83d
000003e0: 4ea4 aa3d e0a2 e2bd 71d1 04bd 57e3 463d
000003f0: 2396 713c 595d 983c 99a5 ed3d a909 d13d
0.054019805 0.032347333 -0.10902094 -0.03524673 0.12598793 0.02960255 -0.12744844 -0.0743234
-0.06701516 0.020412244 -0.11831676 0.119274825 0.09173749 0.022529125 -0.1251419 0.0053398088
-0.000190542 -0.07060673 -0.11370751 -0.15338747 0.05937299 0.01301991 0.04010224 0.12356038
-0.051372528 -0.121910915 -0.12268622 -0.13663888 0.07001221 -0.072781354 0.09304756 -0.07031474
0.0030339982 0.061705228 0.053113345 0.13410191 0.011134252 -0.061559673 0.016503923 -0.043813888
0.109743856 -0.04168278 -0.096589535 -0.0406081 -0.067281745 0.12113162 -0.072943345 -0.0485187
-0.06679404 0.13945596 -0.11218279 0.10970135 -0.054980412 0.09452992 0.052978493 -0.090875044
-0.13249038 0.07762843 -0.08504131 -0.10121663 -0.07797907 -0.028622346 -0.060602058 0.09053258
0.0098800985 -0.081676416 -0.10528871 0.05484107 -0.035287313 -0.053193815 0.14815211 -0.10919275
0.07400138 -0.0597749 0.0067622885 0.04739539 -0.036082365 0.024306022 -0.06475677 -0.040720757
-0.0076050917 0.09834507 0.025878767 -0.04680397 -0.049565263 -0.010342779 -0.06036237 -0.030212281
0.091131486 0.06459215 0.0875445 -0.09656234 0.09130717 0.018142007 0.11232272 0.0008289987
-0.109521225 0.058533702 0.022793813 0.09509399 -0.054347094 -0.06966317 -0.12390949 0.103313476
-0.10640546 -0.045091055 0.13676557 -0.09535678 0.09712759 0.03963445 -0.12432859 0.09106944
-0.075930744 0.06596362 -0.098730475 -0.13458532 -0.05825013 -0.06783771 0.10831806 -0.02509638
0.14185657 0.0033062343 0.053475343 0.115411475 0.07467501 0.045874566 0.04160047 0.0101251025
0.014977286 0.13419084 -0.0856916 0.0926262 0.058863476 -0.06251004 -0.091052465 -0.05965874
0.110279396 -0.13421594 0.029219031 0.12726034 -0.108265296 -0.14771108 -0.13558514 -0.08379295
0.08712827 0.09975721 -0.0514488 -0.11286815 0.06465121 -0.08388497 0.1289098 -0.00088004716
0.065609016 0.015473902 -0.1051995 -0.09692568 0.06526847 -0.08242602 -0.09194393 0.070404276
0.13359293 -0.07930709 0.080262125 -0.024349984 -0.07024625 0.13557445 0.08760148 0.0391275
-0.08503428 -0.07318828 0.08805048 0.010043848 -0.136978 -0.046998203 0.012070898 0.05094147
-0.06956651 0.09794307 -0.11804371 0.10258526 -0.084116675 -0.11976835 0.10617385 -0.029499823
0.10769721 -0.13803898 0.055650067 0.06556384 0.07302915 -0.055508275 0.0059311828 -0.01714812
-0.10632181 -0.06032513 -0.105008736 0.07613247 0.031789962 0.04935348 -0.14049014 0.060798086
-0.07416914 -0.1012223 -0.11017758 0.12132964 -0.08384479 0.095547125 -0.08214463 0.06128571
0.038034417 -0.11463017 -0.0921337 0.0042136954 -0.028156355 0.115446344 -0.1255002 0.044651687
-0.018913092 -0.081378944 -0.12357711 -0.0075566755 0.02441602 -0.07310129 0.11363991 0.114612155
-0.12565224 -0.08662663 0.05837976 0.09345963 -0.08995038 0.09382681 -0.11284061 -0.07344479
0.032508556 0.06525864 0.019390518 -0.016751796 0.052548815 -0.098735236 0.05546023 0.14356925
-0.024057746 -0.004313114 0.098342255 0.01586404 -0.028842594 0.11544409 -0.07834107 0.089874804
0.0833212 -0.11066222 -0.0324263 0.048556652 0.014745268 0.0185992 0.11603851 0.10206921

egnn.layers.0.hidden_mlp.0.bias f4 [32]
00000000: 2d8b 783d 6a9f e2bb 64ee f73c ffef bcbd
00000010: 2084 343d 8efd a3bb 975c 8bbd 240f debd
00000020: d37f 1d3d 2d5d aabd 80db df3c 3bd6 0dbe
00000030: ec55 8c3d f99a a43d bb90 db3b a0c2 afbb
00000040: 7d85 093e 8173 323d b1dd c0bd 2047 74bd
00000050: 86d3 4fbd 60c7 b3bd 7cf0 ccbd cfcf b3bb
00000060: 2031 d8bd 6eaf 70bc 82f3 103d 07d7 92bd
00000070: ed62 68bd 7ba5 08be 2f46 3c3d a3f7 043d
0.060679603 -0.0069159763 0.03026504 -0.09225463 0.044071317 -0.0050045913 -0.068047695 -0.108427316
0.03845198 -0.08318553 0.027326345 -0.13851254 0.06852326 0.08037371 0.006700603 -0.0053637773
0.13429828 0.043567184 -0.09417284 -0.059638143 -0.050738834 -0.08778262 -0.10006806 -0.005487419
-0.10556245 -0.014690263 0.035388477 -0.071699195 -0.056734968 -0.13344376 0.04596537 0.032462727

egnn.layers.0.hidden_mlp.2.weight f4 [16, 32]
00000000: 866e 0abe 478b dabd cfcf f3bc b54c e73a
00000010: 58a9 373c e7a3 1e3e 7d33 24be b775 953d
00000020: 2264 0b3e bf4d 243e e1a6 053d 1520 213e
00000030: ebd7 bdbd 1759 fdbd e2e7 24bd 2995 babd
00000040: 0c16 aa3d 267a 43bd a2b3 b23d 461a 81bd
00000050: 9f24 9abd e6c5 58bd b84f 9cbc 2901 abbd
00000060: 872b ca3d 7cbe e53d 02cc 073d 9647 2ebe
00000070: 29c3 123e 0144 04be 7ade f7bd 0671 b83d
00000080: 2ae1 d1bd 2ae5 0bbe ab0e 09be 87d9 183e
00000090: 1334 4d3d 5f83 b03d 975a 0f3d e894 a53d
000000a0: 077b 353e fd2d dcbc 47c9 e5bd 81e5 17bd
000000b0: f290 84bd e07c 2cbe bf74 0abe b25b 7abd
000000c0: a65b 093d bd59 b83d 8aa6 ee3d ca74 33be
000000d0: 338b 5fbc 89ca 09bd a49a 193e 50a8 3cbd
000000e0: 1421 3b3e a0b6 2c3d 8951 c33c 708c 9e3d
000000f0: 1b47 093e b945 c0bd 8087 983d 93e9 8abd
00000100: 14d4 3b3d 9a19 d73d 510a a3bd 9aa0 3abd
00000110: 4984 253e ad90 2abe cf60 f0bc 78a7 153e
00000120: fb75 1b3d b05e 13be f479 e13b d54e 12be
00000130: 05b7 86bd ac48 163d ef5a c43d 4637 cabd
00000140: 0f6a 1c3e ddeb febd 1de7 0fbd ec55 1cbe
00000150: 673f 94bb 87fe a1bb 8362 993d 6776 f2bd
00000160: 50f4 fa3b a59a 683d 3719 e6bd 7c63 1e3e
00000170: 13fb 13bd d249 38be 3959 ffbc 4ac4 2a3d
00000180: ce9b babd 60b1 8cbd 66ae a03d db82 09bd
00000190: 7ad5 853d 7a3b 433c fe30 2abb df83 173e
000001a0: f733 f9bc 4754 123e e808 77bd 1e9c ea3d
000001b0: c960 bb3d 945d e5bd df93 2bbd a6fa f3bd
000001c0: f2a0 173d 1b67 b03b 306c 72bd 3ea8 1b3e
000001d0: cb1c 2c3e b147 01be 1c7d c6bd fb35 833c
000001e0: 2014 e03d cea3 dcbd edbc 7dbc 9110 03bd
000001f0: bad7 12be 9e1a 49bc bceb b7bb fae1 2f3d
00000200: 8633 013e 0544 0fbc 90ba 023e e338 81bd
00000210: 725d ecbd d231 8d3d 2001 f63d 575d e2bb
00000220: 9f2d f7bd ec15 adbd 8a01 bfbd 738a 2b3d
00000230: 5041 453d 1ed0 20be ee8f eebc 94cf 243d
00000240: 7b52 98bd 06ed 313e 1211 133e a1c9 afbd
00000250: b8f3 9a3c 5fd7 f3bc a348 1cbe 1943 6d3c
00000260: 9120 003e 482c cf3d c407 b33d bde2 6ebd
00000270: 9815 c9bd 8b5f 1abe bec8 20be 4d1b 073c
00000280: af9f 033e 3a87 273d a3cc 0dbd b060 a73c
00000290: 8717 253d d25b 9ebd 9a3a e63d 9deb 9b3d
000002a0: 1c07 58bd 7307 51bc d906 20be 14ec b13d
000002b0: cf4f c73c d0ab 083e 5abc 733d dbf5 1abe
000002c0: c656 2dbd de9d c93d b6ce 193e 4d1e 4a3d
000002d0: de2b 1a3e 5ff2 333e 9bf6 73bd bbb8 f23c
000002e0: 3848 1c3e a268 aabc 63ed c9bd 6332 04be
000002f0: 5e0a 8fbd 786e 3fbe e9d3 a0bd 9598 b13d
00000300: 1681 0d3e 40de c23c ee7d 8abd a2d1 ddbd
00000310: e40d 0cbe 3a59 003d 80fa 263e bcaa e6bd
00000320: f180 2f3e e295 9dbd 05bf ecbd 968f ca3d
00000330: 086c e0bd 8485 253e 4337 1fbe b5eb d73d
00000340: 102c 233e d5c6 77bd 998d d6bd 0ac3 6ebd
00000350: 7fbf 153e e2ab 03be afa5 183e 9dea 203e
00000360: 8f1e 9ebd 5d3d 0c3e fc6c b7b9 9495 073d
00000370: 44f3 32bb a8fa 0e3d c84d 283e 75d1 013d
00000380: 1220 8b3c 4335 d2bd 0e64 f93d b9a6 78bd
00000390: 11d7 0ebe e219 2cbe 715b 283e 7e68 8d3d
000003a0: 210d 98bd d7a3 dfbd a309 b43b fbd4 f8bc
000003b0: 3d4f 42ba 97ac 0e3e b438 b5bd 53a4 f63c
000003c0: 7d94 c23d 21e7 0a3e c578 063d 98f4 ebbd
000003d0: a6e0 12bd 21fc cabc 5e38 49bd 240d 2abe
000003e0: e64a 04bc 5b52 1d3e 06eb a4bd 0de9 92bd
000003f0: ae14 f0bd 356e 1f3d 33d4 d9bd 103f a33c
-0.13518724 -0.10671096 -0.029762177 0.0017646762 0.011209808 0.15492211 -0.16035266 0.07297843
0.13612416 0.16045283 0.03262985 0.15734895 -0.09269699 -0.12370508 -0.040260203 -0.09110481
0.08304986 -0.04772391 0.087256685 -0.063038394 -0.07526516 -0.052923106 -0.019080982 -0.08349831
0.098715834 0.11217973 0.03315354 -0.17019495 0.1433226 -0.12916566 -0.12102981 0.090059325
-0.10248025 -0.13661638 -0.13384502 0.1492673 0.05009849 0.08618807 0.034998503 0.08085042
0.17722712 -0.026877398 -0.11220031 -0.037084106 -0.064729586 -0.16844511 -0.13521098 -0.061122604
0.03353467 0.09001491 0.116528586 -0.1752502 -0.0136440275 -0.03364042 0.15000397 -0.046058953
0.18274337 0.042166352 0.02384259 0.0774163 0.13406031 -0.093882985 0.074477196 -0.06782832
0.04585655 0.1050293 -0.07960952 -0.045563318 0.16163744 -0.16656752 -0.029343037 0.14614666
0.03795431 -0.14391589 0.006880993 -0.14287885 -0.06577877 0.0366904 0.09587657 -0.09873824
0.15274833 -0.12447331 -0.035132516 -0.15267152 -0.0045241597 -0.004943672 0.07489493 -0.1183899
0.007658519 0.056788106 -0.11235278 0.15467638 -0.036128115 -0.1799691 -0.031170474 0.041691102
-0.09111749 -0.06869769 0.07845764 -0.03357206 0.06534858 0.011916036 -0.0025969143 0.14796399
-0.030420287 0.14289962 -0.060311228 0.11455558 0.0914932 -0.11199489 -0.041889068 -0.11913042
0.037018724 0.005383385 -0.059185207 0.15200898 0.16807859 -0.12625004 -0.096918315 0.01601695
0.109413385 -0.10773431 -0.015486938 -0.03199822 -0.14340106 -0.012274412 -0.0056128185 0.042940117
0.12617311 -0.008744244 0.1276648 -0.063096784 -0.11541261 0.06894268 0.12011933 -0.0069080996
-0.120692484 -0.08451447 -0.093264654 0.041880082 0.04815799 -0.1570439 -0.029121365 0.040237024
-0.07437607 0.17375574 0.1436198 -0.085833795 0.018915042 -0.029765783 -0.15262084 0.014481329
0.12512423 0.10115868 0.087417156 -0.058321703 -0.09818572 -0.15075509 -0.15701577 0.008246255
0.12853883 0.040900446 -0.034618985 0.020431846 0.04030564 -0.07732357 0.11241646 0.07613299
-0.052741155 -0.012758124 -0.15627612 0.086876065 0.024330048 0.13346791 0.059505798 -0.15132849
-0.04231908 0.09844564 0.1502026 0.049345303 0.15055797 0.17572926 -0.059561353 0.029629102
0.15261924 -0.020801846 -0.09859731 -0.12909846 -0.06984399 -0.18694484 -0.07852919 0.08671681
0.13818774 0.023787618 -0.067623004 -0.10831 -0.13677174 0.031335093 0.16306496 -0.11263034
0.17139031 -0.076946035 -0.115598716 0.09890668 -0.10958105 0.16164213 -0.15548424 0.105430044
0.15934777 -0.060492355 -0.10476226 -0.058291472 0.14623831 -0.12858537 0.14906953 0.15714498
-0.07720672 0.13695283 -0.0003498568 0.033101633 -0.0027305642 0.034907013 0.16435921 0.031693894
0.016983066 -0.10264065 0.12177287 -0.060705874 -0.13949229 -0.16806749 0.16441132 0.06904696
-0.07424379 -0.10919922 0.005494313 -0.030374995 -0.000741232 0.13933025 -0.08848706 0.030107653
0.09500978 0.13564731 0.03283002 -0.11521262 -0.035858773 -0.024778428 -0.04912602 -0.16606575
-0.008074498 0.15363447 -0.0805264 -0.07173357 -0.11722694 0.03892346 -0.10636177 0.019927531

egnn.layers.0.hidden_mlp.2.bias f4 [16]
00000000: d273 5c3b a79d d5bd 3d02 e03d 665f 9eb6
00000010: f993 a8bd 7da0 523d 27f7 bfbd 5542 79b7
00000020: 4b1c a0bd bb8e 453a e148 4e3b d672 cb3d
00000030: e815 ffbc 78c7 7c3d c440 9236 7063 8a3d
0.003363837 -0.104304604 0.10937927 -4.719873e-06 -0.082313485 0.051422585 -0.093733124 -1.4857001e-05
-0.078178965 0.0007536222 0.0031476545 0.099340126 -0.031138375 0.061713666 4.358679e-06 0.067572474
