2-egnca-rework/logs/line4-2024-10-05@23-20-03/best@130.pt (torch, 26116 bytes, 11 tensors)

egnn.layers.0.message_mlp.0.weight f4 [32, 33]
00000000: f24b 773d db51 c63d 49c7 00bc 1f52 c53d
00000010: 906f 52bd d451 e93c c18b 30bd 844e 5bbc
00000020: 9b84 1dbd 9876 ea3c 6292 083e 6a18 0e3e
00000030: 1976 f2bc 95a8 77bd 21f2 d3bc 8d62 183e
00000040: 7936 143e 3cce 44bd 55d8 72bd 5e08 32bd
00000050: 2407 f93d 6bf1 0f3e 91f0 fcbd 48c9 79bd
00000060: 8592 1ebe 9b8b 2f3e 7690 e23c 31de 593d
00000070: 8808 c03d 131f 273d 7c99 11bd d616 2dbe
00000080: 188b 353d 1db3 00bd 0eff 2fbe 9a94 bebc
00000090: 9677 c2bd 54f3 c6bd e9c2 01be 189e 16be
000000a0: c4b6 44bc 34a9 a73c a20c 20be 3b9a 24be
000000b0: daad d83a 4c0e 26be 6621 ad3d 1062 34bd
000000c0: cd89 c9bc 6451 24be d94e 00be 56cd 833d
000000d0: f877 c3bd b038 8fbd 2188 1fbe b992 31bb
000000e0: 0604 debd 3080 3e3d 3e98 623d 0a6b 1c3d
000000f0: eeb8 7a3d 3203 fbbd 99c1 903c e81f 1dbe
00000100: 96e3 f7bd 6052 133e 97dc fe3d 6514 fdbd
00000110: f249 c53d bcc4 11be 93a2 d03c 9631 213e
00000120: f219 5c3c dd9e 8b3d 5221 213e 182e 87bd
00000130: f8f4 033e fd87 d23c 5835 21bd 4742 20be
00000140: 3ab3 2b3e 15c0 303e 290d 99bd d53f 263d
00000150: 5f09 38be 2b2c 003d 2d35 c83d 812e 983c
00000160: 51c0 c2bd 6fba 223e 8522 c6bd 67df b43c
00000170: d636 26be 2816 973d 52b6 f43d 57b4 0c3d
00000180: 5048 093e e56b 33be 1e87 d0bd aaf5 3f3d
00000190: 5a10 b43d d47a 2fbd 6a91 4b3d 1fb2 2dbe
000001a0: 0d09 2e3e e64a 0cbe 094f 25be ec74 04be
000001b0: 9000 313e 74bc 323d 1a19 6bbc 92c2 103d
000001c0: 06a9 a2ba 8dbb fabd c16c e13d 1ab4 14be
000001d0: 58cf 31bd 912a 993c 518f dabd 01ac 283d
000001e0: 253d 21be 1d0f abbd 78f4 1a3e 9df0 513d
000001f0: 483f 11be f639 283e 96dc 40bd 1668 013d
00000200: 1413 1cbd 51ca cfbd 2146 013d da27 1bbd
00000210: 9102 bebd 9b70 c33d 0c30 ac3d d1d5 e83d
00000220: 8ac4 ddbc da5a edbc 0b5f 223c ce7d 1c3e
00000230: 7432 1ebe 0484 28bc d52f 7e3c e9fa aa3d
00000240: 900c 2fbe 5dbd 3fbe 60cf e9bb e5c1 5e3d
00000250: 5797 96bd 1a3d 093e e8ae 043d 4cf2 77bd
00000260: 88d8 7dbd bece 11be 10d2 be3d 9bfd 09bd
00000270: d1b6 b53d 4113 3cbe ab53 013e c095 623d
00000280: 6af7 e1bd 3c1a c3bd d81b fe3d 85fd a33d
00000290: 3d23 ab3d 6594 1c3d 81e4 b4bd 386f e9bd
000002a0: 0b7f 49bd 5963 4bbd 90e9 d9bc d22f 30bd
000002b0: 6766 10be 0739 23be 0f94 fdbd 98b9 b73d
000002c0: 1726 e4bd c2e6 09be c96e 99bd 81e4 603d
000002d0: 6fa6 59bd db0f df3a 4dbd 9f3c eb1c fcbd
000002e0: 5166 4bbd 2549 53bd 7f38 24bc 569f e7bd
000002f0: c5f0 0cbd bf5e 743c fe78 603d 70ff e6bd
00000300: 8348 1e3e 2194 3a3d 7945 0ebe 2103 263e
00000310: 42d6 e4bd eec4 d1ba 7c8c 083e 3c3e 21bd
00000320: 8e4b 363d cc06 a93d 943e 70bd 5691 9d3c
00000330: 3feb 053e 7088 6eb8 4bc8 33bd 3c96 053e
00000340: 359b 113d 45fa e6bd 407a b23d f7b1 0f3e
00000350: 0c9f 613c 4729 153e 146a dfbd f87a 2b3e
00000360: 5bdc cd3d 675a 64bb abdb 22be 3739 2d3e
00000370: d30e efbb 437e ac3d 7035 c0bd bdaa 713d
00000380: e3cc d9bc 2bca 353d f10f 873d c859 eebd
00000390: 4f87 03be 98b4 f2bb 2498 37bd 400f ef3d
000003a0: 3a4e 98bd e0e3 273d c67d 23be 8ee5 ae3d
000003b0: 141e de3d e62b d53c 6988 bb3c 31dc d33c
000003c0: 2174 eabb 850e 16bd 515c 053e aed3 5cbd
000003d0: 323f bbbc afce 89bc 6bf5 d3bd 8b0b 0bbe
000003e0: fd5b d5bd d437 13bd d622 09be 4847 683d
000003f0: 0982 05be 1a56 39bd 42b6 96bd 700c afbd
0.06037516 0.096835814 -0.007860013 0.09634804 -0.051375926 0.028481402 -0.04310203 -0.013385419
-0.03845654 0.028621003 0.1333709 0.138765 -0.029597329 -0.060463507 -0.025872292 0.14881344
0.14473905 -0.048048243 -0.05928834 -0.04346501 0.12159565 0.14056937 -0.12350572 -0.060982972
-0.1548558 0.17143099 0.027656775 0.053190414 0.09376627 0.04080112 -0.035546765 -0.16903242
0.044322103 -0.031420816 -0.1718714 -0.023264218 -0.094954655 -0.0971438 -0.12672009 -0.14708745
-0.012006465 0.020466425 -0.15629819 -0.16074459 0.0016531304 -0.16216391 0.08453636 -0.044038832
-0.024601841 -0.16046673 -0.12530078 0.06435649 -0.095443666 -0.06993234 -0.15579273 -0.002709551
-0.10840611 0.046508968 0.05532097 0.038188018 0.06121152 -0.12256469 0.01767044 -0.15344203
-0.121039554 0.14386892 0.12444418 -0.123574056 0.096332446 -0.14235204 0.025468146 0.15741572
0.01343392 0.0681741 0.15735367 -0.066005886 0.12886417 0.02569961 -0.039357513 -0.15650283
0.16767588 0.17260773 -0.07473213 0.04058822 -0.17972325 0.03129212 0.097757675 0.018576862
-0.09509338 0.15891431 -0.09674553 0.022079183 -0.16231856 0.07377273 0.11948837 0.034351673
0.13406491 -0.17521627 -0.101820216 0.046865143 0.08792181 -0.042841747 0.049699225 -0.16962479
0.1699564 -0.13700446 -0.16143431 -0.12935227 0.17285371 0.043636754 -0.014349246 0.035341807
-0.0012409992 -0.12242804 0.11007071 -0.14521828 -0.04341063 0.018697055 -0.10671867 0.04117966
-0.15745981 -0.08352492 0.1513232 0.051254857 -0.14184296 0.1642836 -0.047085367 0.031593405
-0.03810413 -0.10146011 0.03156102 -0.037879802 -0.09277833 0.09542962 0.08407602 0.11368907
-0.027071256 -0.028973985 0.009910355 0.15282366 -0.15448934 -0.010285381 0.015514334 0.083486386
-0.17094636 -0.1872458 -0.0071353167 0.05438413 -0.073530845 0.13402215 0.032393366 -0.060533807
-0.06197408 -0.14239022 0.0931741 -0.033689123 0.0887276 -0.1836672 0.12629573 0.055318594
-0.110335186 -0.09526488 0.124076545 0.080073394 0.083563305 0.038227458 -0.08832646 -0.113981664
-0.049193423 -0.049655292 -0.02660063 -0.043014355 -0.14101563 -0.15939723 -0.123817556 0.08970946
-0.111400776 -0.13466933 -0.07491834 0.05490542 -0.05313724 0.0017018275 0.019499445 -0.12310203
-0.049658123 -0.051583428 -0.010023235 -0.11309688 -0.034409303 0.014915167 0.054802887 -0.112791896
0.15457349 0.045551423 -0.13893689 0.16212131 -0.11173679 -0.0016004124 0.1333484 -0.039365992
0.04450565 0.082532495 -0.05865343 0.01923434 0.1307802 -5.687069e-05 -0.043892186 0.13045591
0.035548408 -0.11278204 0.087147236 0.14032732 0.01377083 0.14566527 -0.10908905 0.16746128
0.10051795 -0.0034843923 -0.15904109 0.16916357 -0.0072954684 0.0842252 -0.093851924 0.05900072
-0.026586955 0.044382256 0.065948375 -0.11638218 -0.12844585 -0.0074067824 -0.044822827 0.116728306
-0.074367955 0.040988803 -0.15965948 0.08539878 0.10845581 0.026021909 0.022892194 0.025861831
-0.007154957 -0.03663494 0.13023497 -0.05391281 -0.022857282 -0.016822187 -0.10349544 -0.13578622
-0.10417936 -0.035941914 -0.13392195 0.056708604 -0.13037886 -0.04524813 -0.07358982 -0.08547294

egnn.layers.0.message_mlp.0.bias f4 [32]
00000000: 160a 09bd 5cc3 8fbc bfff 503d f3af 1ebe
00000010: d6c0 703d 08b9 19be 32dd 13bd 9d40 12be
00000020: 588b 19be 2998 bebd 2c6d 013e a13c 24be
00000030: 3318 9d3d e529 69bc cf88 12be 7683 433d
00000040: 8d4f c2bd 70e1 d0bd 126a 113d 1364 00be
00000050: 813c 223c 393d 773d 2529 503d 2692 c03d
00000060: 4f9e 12be 71ce 6c3d 9c00 d93d 9e4a 25be
00000070: 0791 8a3d 4999 433c 9a8f 7d3d efa3 2bbe
-0.033456884 -0.01754921 0.05102515 -0.15496807 0.058777653 -0.1501199 -0.03609962 -0.1428246
-0.14994562 -0.09306366 0.12639302 -0.16038753 0.07670631 -0.01423118 -0.14310001 0.047732793
-0.09487829 -0.10199249 0.035501547 -0.12538175 0.009902121 0.06036112 0.05082049 0.094028756
-0.14318202 0.057814065 0.10595819 -0.16141745 0.06765943 0.0119384015 0.061904527 -0.16761754

egnn.layers.0.message_mlp.2.weight f4 [32, 32]
00000000: af12 e73d 1dd9 20be a589 a83d c27a 233e
00000010: 83ad 0fbd c640 a93d a828 b1bc e493 ca3d
00000020: 6e2f 25be 9202 68b9 be00 403e 22cf 31bd
00000030: 372d 0fbe 79e0 0ebe e2dc 1d3d 4c36 203e
00000040: 3a4b 30be c745 e83d d096 09be 61c3 983d
00000050: dd96 173d 726a 683d 9e03 1cbe 5ec5 2b3e
00000060: 74b1 1e3d b7fa 3abc 3227 07be 09a9 db3d
00000070: cb9a 283e a413 8f3d bf80 acbc a8b5 29bd
00000080: ad86 39be 3e38 ef3d ea79 d5bc df59 20be
00000090: 06b5 1839 51cd 0a3d 3cad e33d ac52 6a3d
000000a0: bd08 efbd 7eca 3ebd 9bd5 2ebe 4df5 a73d
000000b0: b370 a83d 1779 d7bd 9850 323d bb7f f13d
000000c0: b48c 223e bdfa f43d dfc9 8a3d 9f14 2a3d
000000d0: e095 7b3d 27bc 253e 7c02 df3d d4e8 f23c
000000e0: 1914 ac3c 1890 f03d 71c7 333e 8a7d ecbd
000000f0: 3ea8 b0bd eab5 463e 2774 9abd cae3 44bd
00000100: 25ea 0e3e 09cd 88bd 864b 353e 758f d0bd
00000110: b451 a8bd 948b 0f3c 3df5 593c 58c2 253e
00000120: 2fbf 96bd 3ceb 893d b79e c8bc cee3 edbc
00000130: 9e08 1bbe 132e 273e dc74 c3bd b81c 18bd
00000140: ed76 a6bd 8b05 273e 0b26 92bd becf 28bd
00000150: 32bc d23d 24e1 2b3e 1846 293e a26d d5bd
00000160: f9d9 82bd fbb5 133e 20db 983d d925 0c3e
00000170: b363 753d 4b56 efbd fce2 cfbc 7c3e 9fbd
00000180: 8691 14be 5352 4a3d 67b0 bf3d b997 873d
00000190: 0c42 0e3e 5d43 92bd 852b 763d ab4f 64bd
000001a0: 20c2 193e 9281 55bc e597 013e 663b 093e
000001b0: d8f2 f9bd d68f 2cbd 69f0 1a3e 52c1 afbd
000001c0: c30e 2ebd 624c 153e 39f6 133e ad61 f23d
000001d0: 1232 933c a609 e33d bbaf 24be da5e a93d
000001e0: 0064 f3bc 03f9 05be b2d8 1e3d 9d82 cc3a
000001f0: 48fb 843d f110 75bd c938 343e 733d 3cbe
00000200: 2d65 303e 87c5 9cbd ae93 d53d 53d2 ccbc
00000210: 7413 49bd 7167 07be d0a4 0fbe b116 c03c
00000220: 893e d3bd cb0e fdbd a2b7 18be 613c 1b3e
00000230: cd93 2a3d 8a97 783c 9abd 55bd 90fa 1cbe
00000240: c781 cd3d c750 123e 11e2 073d b44b 423d
00000250: 968c be3a 7bfc 8b3d 7f98 083c c99b e4bd
00000260: 4a4d cabc 8c4e 243e c6c2 dabd 7b0a 1f3e
00000270: bfc8 cdbd 81fc 0dbd 6d39 e83d eaca e0bd
00000280: d960 37bd 9a55 08be 11ca c2bc 88e3 e73d
00000290: d2e9 b7bd b6f2 19bd 2e70 903b 0cf1 d93d
000002a0: 9574 f23c 2b4c acbc e4a0 ddbd b5cc 06be
000002b0: 706c 2f3e 4d66 3abd 9c7d de3d 5d94 86bc
000002c0: 6459 afbd c575 8bbd aa9e 10be 4f9e 10bd
000002d0: 19ab 823c d78b b0bd f837 4b3d 8964 9e3d
000002e0: 36f5 e7bd da06 94bc 7a38 013e 9965 25be
000002f0: 8051 c53d a80e 34bd 3dc8 61bd 85f7 d5bd
00000300: e0e0 53bc bfae 6e3d 0a58 a8bd a71f 69bd
00000310: 37cd bd3d b4e8 abbd 07a9 1f3c 8aa6 cb3d
00000320: 6d40 5bbb 871b 40bd 3551 e8bd 7be8 23bd
00000330: 5ea2 0ebd 1961 e83d 9c2e 7a3c 5be1 12be
00000340: 5be1 4fbc 3b0f dbbd dfa9 3f3e 1107 2abd
00000350: e5aa 2bbe fef4 c2bd dd1c cf3d 5d05 2b3e
00000360: fb80 e7bd ed5a 31be 6bc6 2bbd bcd1 46bd
00000370: ab2a b3bd c706 db3d 3e0c 6b3c 0233 093e
00000380: 0c1b 023e b38a 693c a0f7 103e 48a7 3bbd
00000390: 3ae5 763d 33b3 e4bd 1127 2f3d 922a 903d
000003a0: 7594 36be fe3b 163e 5e36 fc3d 2705 e3bd
000003b0: 1ced 563d 998c 2a3e 60e1 74bd 6d38 a63b
000003c0: f491 95bc 9963 d1bd 7192 b43d ec94 a2bd
000003d0: 5eb5 513d 4b47 0d3d 8422 b03d 997c 2d3e
000003e0: 9319 743d 2002 debc aff1 61bd 17a9 143e
000003f0: 5fd8 e63d e519 1d3e b006 9bbd d900 dc3d
0.112828605 -0.15707822 0.082293786 0.15964797 -0.035077583 0.08264308 -0.021625832 0.09891489
-0.16131374 -0.00022126202 0.18750283 -0.043410428 -0.13982092 -0.13952817 0.03854073 0.15645713
-0.17216197 0.11341434 -0.13436437 0.074591406 0.03700911 0.05674214 -0.15235755 0.16774508
0.03874345 -0.011412314 -0.13198546 0.107256 0.16465299 0.06986168 -0.021057485 -0.041433007
-0.18117781 0.11680649 -0.02605911 -0.15659283 0.00014563286 0.03388721 0.11117026 0.05720775
-0.116715886 -0.04657983 -0.17073672 0.08201084 0.08224621 -0.10521143 0.04353389 0.11791941
0.15873986 0.11961887 0.06776785 0.041523572 0.06142223 0.16185056 0.10889146 0.029652037
0.021005677 0.11746234 0.1755655 -0.11547382 -0.0862584 0.19405332 -0.075416856 -0.0480688
0.13956507 -0.06679732 0.17704591 -0.10183612 -0.08218709 0.008761305 0.013303098 0.16187418
-0.07360684 0.067343205 -0.024489744 -0.02903929 -0.15140006 0.1632617 -0.095437735 -0.037136763
-0.08128152 0.16310708 -0.07136162 -0.041213743 0.10289802 0.16785103 0.16530645 -0.104213014
-0.06389231 0.14424889 0.0746367 0.13686313 0.059909534 -0.11686381 -0.02537679 -0.0777559
-0.14508638 0.049394917 0.09359818 0.06620736 0.13892382 -0.07141755 0.060100097 -0.05574004
0.15015459 -0.01303138 0.126556 0.13401565 -0.12204522 -0.04212936 0.15130772 -0.08581795
-0.042494547 0.14579919 0.14449395 0.118350364 0.017968211 0.11085825 -0.16082661 0.082700446
-0.02971077 -0.13083272 0.038780876 0.0015602891 0.064932406 -0.05983061 0.17599787 -0.18382816
0.17226095 -0.07654863 0.10428558 -0.025002634 -0.049090818 -0.13223054 -0.14027715 0.02344832
-0.10314662 -0.12356337 -0.149138 0.15159751 0.04164486 0.0151728485 -0.05218277 -0.15329957
0.10034519 0.14288627 0.033174578 0.047435477 0.0014537747 0.06835266 0.008337139 -0.11162526
-0.024695057 0.16045588 -0.10681681 0.15531342 -0.10048055 -0.034664635 0.11339078 -0.10976203
-0.044770095 -0.13313904 -0.023777993 0.11322695 -0.089801446 -0.037584983 0.004407904 0.10641679
0.029596606 -0.021032413 -0.10821703 -0.13164027 0.1713121 -0.045507718 0.10863802 -0.016428167
-0.08561972 -0.06809572 -0.14123026 -0.035307225 0.015950726 -0.08620422 0.049613923 0.07734019
-0.11326067 -0.018069673 0.126192 -0.16152038 0.096346855 -0.04395929 -0.055122603 -0.10447601
-0.012932032 0.05827212 -0.08219917 -0.05691495 0.09267657 -0.08393994 0.009744889 0.09943874
-0.0033455149 -0.046901252 -0.11343614 -0.040016633 -0.034822814 0.11346645 0.015269902 -0.14343779
-0.012688006 -0.10696264 0.18717144 -0.041510645 -0.1676441 -0.09519385 0.10112927 0.16701265
-0.11303898 -0.17319842 -0.041937273 -0.048539862 -0.08748373 0.10694652 0.0143461805 0.13398364
0.1270563 0.01425426 0.14156961 -0.04581383 0.0602772 -0.11166992 0.042761866 0.0703937
-0.1783007 0.14671323 0.12315057 -0.11084967 0.05247222 0.16655196 -0.059785247 0.0050726444
-0.018258072 -0.10224075 0.08816994 -0.07938561 0.051198356 0.03449182 0.08600333 0.16942061
0.059594702 -0.027100623 -0.055162128 0.14517628 0.11271738 0.15341909 -0.07569635 0.10742349

egnn.layers.0.message_mlp.2.bias f4 [32]
00000000: 2568 7d3b cb44 dc3d 3d2d 9f3c f59b 273e
00000010: 2d90 b9bc c11d 28be 95e0 20be 7730 99bd
00000020: d8ea 743d f22f c93d 51b5 a33d 68b8 1b3e
00000030: dc84 30be 7f04 933d 3f54 83bc 3c34 09be
00000040: d109 2d3d ab3e 2b3e a023 453d 16c7 da3d
00000050: 3804 c93d a209 f1bd 00f7 30be 7142 26be
00000060: 8ed2 1a3e f4db 05be 7e11 6dbd 4a04 183e
00000070: c1e8 1f3e 15f8 02be 071f 963d 1b91 a0bb
0.0038666811 0.10755309 0.019430751 0.16368087 -0.022651756 -0.164176 -0.15710671 -0.07479947
0.059794277 0.09823598 0.07993568 0.15207064 -0.17238182 0.07178592 -0.016031383 -0.13398832
0.04224569 0.16723125 0.048129678 0.10682504 0.09815258 -0.117694154 -0.17281723 -0.16236283
0.15119383 -0.13072187 -0.05787801 0.14845386 0.15616132 -0.12789948 0.07330137 -0.0049001104

egnn.layers.0.coord_mlp.0.weight f4 [32, 32]
00000000: a217 21bd 2e22 46bb ac99 ec3b 05bd 2cbe
00000010: 75c2 f6bd 5bb6 ac3d 16f5 dd3d 9797 4a3d
00000020: af2f dfbd 68e7 7cbc 1b75 e23d e1f5 e0bd
00000030: 4d70 023e 15fd 863d 50ec dabd 9fa4 25be
00000040: 7021 9c3d 5834 393d 6338 c4bd d15e 0abe
00000050: e85d 143d 487a a03d c914 8abd d4f5 153e
00000060: 1815 fd3d bfdf e43d d252 153e 4dc0 efbd
00000070: 8a29 113e f7af 1abe 96aa 32bd c1c8 03be
00000080: 3691 34bd 6cf9 1dbe 34d3 1bbe d305 e7bd
00000090: 846e e63c 29f1 e3bd adcd 863c 35cd e93c
000000a0: e15b 1bbe a4a8 0f3e bd25 4abd 18d7 f53d
000000b0: a97a 64bb 05c5 e23d c6b5 583c e213 e1bd
000000c0: bca1 25be 830b 03be 379d cfbd 2efc f6bd
000000d0: 9f03 2f3e 73fb f5bd 85b1 713c 1ac6 f5bd
000000e0: bb82 053e 6c14 01bc 8f3b a0bd c497 7f3c
000000f0: b478 c0bd a775 b33d 1a93 c6bb e4b5 f8bd
00000100: 27d5 39bd c43a 81bb 49e7 7fbc e2da 93bd
00000110: 6888 0d3d c447 373e 9fa3 c5bd 6690 9fbd
00000120: f2aa c83b 013c fa3d 278a acbd e539 0abe
00000130: 11f7 2d3e cdea 853d 4634 993d d0c5 2cbd
00000140: 17ca 183e e90d 863a cc61 6e3d 9c35 253e
00000150: cd0d f2bd ee60 eebd d572 ed3d aed7 cd3d
00000160: 0db9 9bba 8eb6 97bd 2cc6 1f3e a928 18be
00000170: b425 d9bc 6b9e 18be 180b 083e cc08 0a3d
00000180: 27fd 56bd d84b fbbd d054 1dbd 22e2 13be
00000190: d11c 233e 12d7 b5bd 348c 13bb 0a20 8c3c
000001a0: eba2 d23d a31e a3bc 3f3b e73c 6996 66bc
000001b0: 9725 1c3c 9bdf c33d 4a34 f23d 4ac0 31bc
000001c0: 9a23 423d 610d 32bd b35c 8f3d 79d0 cc3b
000001d0: fe44 66bc f8b2 373c 16b7 0f3e aff7 f53d
000001e0: 4c5c 14bd a1b0 fc3d dcfb de3b e491 94bd
000001f0: 4634 b0bd 2b14 d63d baa9 85bd ae67 a7bc
00000200: 81dc a9bd 8747 e1bd a35d f83d 9d33 163e
00000210: 9d93 1ebe 8e1b 2e3c 2e82 103e ca6b f33d
00000220: 3912 4a3d 1de0 703d 7d9a 32bd f2f6 f03c
00000230: f28a d33d 4ca6 bdbd 0bc3 26bc 65c6 373e
00000240: a01e f33d fd2c ae3d ffeb 013d 89b1 133e
00000250: c011 02bd 39fd 1abd f38d 9bbd 4d4c b73d
00000260: 05ca 0bbe c1b0 073d 492f 093d b879 dfbd
00000270: 31a4 b03d 52ce 18bc d628 9c3d 61c3 8ebd
00000280: e8f9 2e3d ae77 0a3e c17e b93c ccb7 e2bd
00000290: fd3f 2dbd c0dd 4bbd 469f 0dbc 03dc 49bd
000002a0: 1347 103d 0cd4 92bd a2d9 eb3c 8258 19be
000002b0: d241 2dbd 88fe a63d 8f3e c93d 2d74 03be
000002c0: 206b ddbd 27f7 813c 8954 cb3c fd52 3bbd
000002d0: 9b7c ea3d 2df8 c0bd 126c d8bd f825 103e
000002e0: 0587 bcbd 0a68 20bd d6a8 0cbe 3a11 b53d
000002f0: 5cfe 39bd f1d0 b43d 6bfd ab3d 5781 14be
00000300: 49fb fcbd 8984 243e 219e 25be 939e f5bd
00000310: b533 16be 98e0 0b3e f5e1 3ebc a699 28be
00000320: f99b 08be 667c 173e fc20 b2bd a2f1 043e
00000330: 2d3b 263e a37c 5c3d 5a58 aabd 0701 373e
00000340: 13c2 273e 9e99 0b3e 1ce6 6dbd 1553 043e
00000350: 883e d7bd 9008 bc3d 0198 523b eb53 173e
00000360: 4d25 1b3d 0c47 a93d aacd f0bd 6f59 f33d
00000370: 2b2b 1fbc 49ed 37bc 85a7 d63c 8b42 67bd
00000380: 35f0 28be cc38 26be 6098 3b3d db26 93bd
00000390: 930c fabd e45d 113e 6431 3b3e 9842 3cbe
000003a0: 815f f1bd 4d52 ddbd a9fd 6f3d 52ab b63d
000003b0: 1aa6 b6bd 81ae d3bd bc8c ea3d ccb3 d3bd
000003c0: d898 acbd df59 2e3e 76b4 bf3a 06e4 94bd
000003d0: 99dc bd3d 2ef4 1cbe 8e18 2d3e 9e4c c6bd
000003e0: fb3d bc3c 1a02 d0bd 80c4 013e 41b1 5e3c
000003f0: 17aa 20be b90d d3bd 7cc7 e23d 616b 76bd
-0.03932918 -0.0030232775 0.0072204676 -0.1686898 -0.120488085 0.08433219 0.10837762 0.049460974
-0.10897767 -0.015436031 0.11057492 -0.10984398 0.12738152 0.0659124 -0.10689604 -0.16176079
0.07623565 0.045215935 -0.095810674 -0.13512732 0.03622237 0.07835823 -0.06742246 0.14644557
0.12357539 0.11175489 0.14582375 -0.117066 0.14176002 -0.15106188 -0.043619715 -0.1286955
-0.044083796 -0.15427178 -0.15217286 -0.11280408 0.02812887 -0.11129982 0.016455496 0.028540233
-0.15171768 0.14029175 -0.049352396 0.120039165 -0.003486315 0.11072735 0.013226932 -0.109901205
-0.16174978 -0.1279736 -0.10137408 -0.12059818 0.17091225 -0.12010851 0.014751797 -0.120006755
0.13038151 -0.007878404 -0.0782386 0.015600149 -0.09398022 0.08762675 -0.0060600163 -0.12144068
-0.045369294 -0.003943773 -0.0156191075 -0.07219483 0.034553915 0.1789847 -0.09650349 -0.07791214
0.006123894 0.12218476 -0.08424788 -0.13498648 0.1698878 0.06538925 0.074806735 -0.042180836
0.14920841 0.0010227534 0.058198735 0.16133732 -0.118190385 -0.116395816 0.11594168 0.10050903
-0.0011880711 -0.074078664 0.1560294 -0.1485926 -0.026507236 -0.14904182 0.13285482 0.033699796
-0.05248752 -0.122703254 -0.03841096 -0.14441732 0.15928961 -0.08878912 -0.0022513987 0.017105121
0.102849804 -0.01991207 0.028226493 -0.0140739465 0.0095304465 0.09564134 0.118263796 -0.010849068
0.047397234 -0.04346979 0.07000103 0.006250438 -0.014054535 0.011212103 0.14034685 0.120101325
-0.036220834 0.12338377 0.0068049263 -0.07254389 -0.0860372 0.104530655 -0.065265134 -0.02043518
-0.08294011 -0.10999971 0.12127235 0.14668126 -0.15485997 0.010626687 0.1411216 0.118857935
0.049333785 0.05880748 -0.043604363 0.029414628 0.10329236 -0.09260234 -0.010178338 0.17946775
0.11871076 0.085046746 0.031719204 0.14423193 -0.03175521 -0.03783915 -0.07595434 0.089501
-0.13651283 0.03312755 0.03349236 -0.10911888 0.08625067 -0.009326534 0.07624976 -0.06970859
0.042718798 0.13522217 0.022643449 -0.11070213 -0.042297352 -0.049772024 -0.008643931 -0.049282085
0.03522403 -0.07169351 0.028790299 -0.1497517 -0.0422991 0.08154017 0.09826385 -0.12837286
-0.10811448 0.015864922 0.024820583 -0.04573344 0.11449548 -0.09422336 -0.10567488 0.14076984
-0.092054404 -0.03916172 -0.13736281 0.08841176 -0.04540859 0.08828915 0.08397945 -0.14502464
-0.12352616 0.16066183 -0.16173603 -0.11993136 -0.14668162 0.13659894 -0.011650552 -0.16464862
-0.13340749 0.14793548 -0.086976975 0.129828 0.16233511 0.0538298 -0.08317633 0.17871486
0.16382627 0.13632819 -0.058080778 0.12922318 -0.10509974 0.09181321 0.0032134058 0.14778106
0.03787737 0.08265504 -0.11757977 0.118822925 -0.009714882 -0.011226007 0.026202926 -0.056459945
-0.16497882 -0.16232604 0.045799613 -0.071851455 -0.122094296 0.14195973 0.1828056 -0.18384778
-0.11785794 -0.10806713 0.05859152 0.089193955 -0.089184 -0.10336018 0.11452624 -0.10337028
-0.0842759 0.1702647 0.0014625925 -0.072700545 0.09270591 -0.15327522 0.16903898 -0.09682582
0.022978773 -0.10156651 0.12672615 0.013592065 -0.15689884 -0.10305352 0.11073205 -0.060161

egnn.layers.0.coord_mlp.0.bias f4 [32]
00000000: 4b93 38bd f6e2 a5bd f1b3 27be 7e35 063e
00000010: 2a01 e7bd 92c2 0f3e 6c7b 973c 3028 9ebd
00000020: e9c6 d4bd 6998 0cbe 705b 273e fc76 59bd
00000030: 6dca e43c 26d8 fbbc 6518 2f3e f061 313e
00000040: 61ae dd3c 648c c7bd 724e 493d 499d 2bbe
00000050: 7a9f 26be 1304 7b3c 6d85 d53b 4da6 fd3d
00000060: 0da8 a2bd df29 003d 399f c03d 26ad 29be
00000070: 9e8a 7f3d 278b f6bd d013 af3d 91ed d33d
-0.045062345 -0.0809993 -0.16377236 0.13106343 -0.11279519 0.14039066 0.01849147 -0.07722509
-0.103895016 -0.13730015 0.16343474 -0.053091988 0.027928555 -0.030742716 0.1709915 0.17322516
0.02706069 -0.09743574 0.049147077 -0.16759218 -0.16271773 0.015320796 0.0065161497 0.12385235
-0.079422094 0.03128993 0.09405369 -0.16569957 0.062388055 -0.1203826 0.08548701 0.103480466

egnn.layers.0.coord_mlp.2.weight f4 [1, 32]
00000000: 474d b6bb 834c 83bb f27f 13bc 2eef f1ba
00000010: 7f52 19bc 9794 2b3c 932f 80bc ded9 2cbc
00000020: b822 37bc 113d 63bc a4fc f63b 137a ea3b
00000030: 65db 6b3c 2cf3 2f3c 7831 8c3b b077 fd3b
00000040: 38c7 56bc 34d3 8bbc 6433 073c 737b 03bc
00000050: b8b5 8abc 11ff 443c ece0 6b3c a550 4b3c
00000060: 4ec4 0f3c c3bf 803c 734b 233b 12a9 14bc
00000070: a1b7 88bc 8ab7 28bc da3f 963b 8fbe 893b
-0.0055634114 -0.0040069236 -0.0090026725 -0.0018458122 -0.0093580475 0.010472438 -0.015647685 -0.01054999
-0.011177711 -0.01386954 0.0075374413 0.0071556657 0.014395569 0.010739129 0.004278358 0.007735215
-0.013109021 -0.017068483 0.008251999 -0.008025038 -0.016932353 0.012023703 0.014396887 0.012409364
0.00877483 0.01571644 0.0024916797 -0.009073513 -0.016689124 -0.010297665 0.0045852484 0.0042036246

egnn.layers.0.hidden_mlp.0.weight f4 [32, 48]
00000000: 2fd4 5d3d 4fcc 043d f341 dfbd bb94 10bd
00000010: 3916 013e 2888 f43c e36e 02be 861b 98bd
00000020: d728 89bd 07d6 a73c 716f f2bd 343c f43d
00000030: d501 bc3d ce46 b83c 7d0c 00be e5c2 b13b
00000040: 56ec 7cb9 dae6 90bd 2fe7 e8bd b32f 1dbe
00000050: 8cef 723d 1980 563c 8b74 243d 6cff fc3d
00000060: 98b6 52bd 44d7 f9bd 3058 fbbd e507 0cbe
00000070: 4b80 8f3d 4eda 94bd ae5f be3d 01f4 8fbd
00000080: 8250 3f3b 2372 7c3d 33d1 593d c25d 093e
00000090: 53ae 353c 43f5 7bbd 6bd8 873c 4784 33bd
000000a0: 0499 e03d 2067 2abd 21bc c5bd fa7f 26bd
000000b0: 28f7 89bd 7840 f83d 1a77 95bd 84e8 46bd
000000c0: 9cad 88bd adb5 0e3e 6dc0 e5bd a1cb e03d
000000d0: b16c 61bd 8729 c23d 63da 583d 91d6 b9bd
000000e0: 90a3 07be 05dd 9e3d 580a aebd 652d cfbd
000000f0: b9d4 9fbd 70fe e9bc 8c71 78bd 8340 b93d
00000100: c773 223c 3350 a7bd b280 d7bd 6579 603d
00000110: 806d 10bd a3ed 59bd 89a8 173e d799 dfbd
00000120: d39c 973d 9a28 75bd 6f89 df3b 2ab2 413d
00000130: 6c05 14bd 81db c63c 7495 84bd 55ed 26bd
00000140: 3ad7 fdbb b517 c93d c48f d33c a02d 3fbd
00000150: dedd 4abd c7d1 29bc 8f49 77bd 55bf f6bc
00000160: e096 ba3d b038 843d 0221 b33d bfa7 c5bd
00000170: ba2e bb3d 214c 943c 44c4 e53d 9b00 303a
00000180: 914b e0bd a059 703d 77fd ba3c 286f c23d
00000190: a616 5ebd 5bc5 8ebd a18d fdbd ae9f d33d
000001a0: 2312 dabd e72c 38bd 97e4 0b3e e2b1 c3bd
000001b0: 2136 c73d d5d4 213d 935e febd f2d1 ba3d
000001c0: 65bb 9bbd 9aee 863d dd76 cabd 6be3 09be
000001d0: b013 6fbd c8bc 8abd 8618 de3d 7402 cebc
000001e0: 222b 113e 4749 633b 8868 5a3d e656 ec3d
000001f0: 8529 993d df74 3c3d fbe3 293d b287 273c
00000200: ed4c 753c 2a89 093e b230 afbd 4bb6 bd3d
00000210: b5b4 703d ceac 7fbd 8c4a babd 191b 75bd
00000220: 37bd e13d 3953 09be 10bc f03c b82b 023e
00000230: fb1f debd 8d19 17be 7999 0abe 7e5d abbd
00000240: 4145 b23d 71b2 cc3d f7a4 52bd 746c e7bd
00000250: 61af 843d c172 acbd cb19 043e 54ab 78ba
00000260: 193e 863d 9ddc 7f3c 81b9 d7bd e200 c7bd
00000270: 8ef6 853d 1e16 a9bd c30b bcbd ca8c 903d
00000280: 87a9 083e e59a a2bd 3517 a43d b44e c8bc
00000290: 5e21 90bd 64fb 0a3e 4cb4 b33d dacb 1f3d
000002a0: 8e69 aebd 5f92 95bd a904 b43d 0e5d 243c
000002b0: ef1f 0cbe 550a 40bd 34db 433c a93b 513d
000002c0: cda3 8ebd a6e9 c83d ac7f f1bd f543 d23d
000002d0: 9b8c acbd 8409 f5bd 63ac d93d da2a f3bc
000002e0: 1660 dc3d 133d 0dbe ba8a 643d 81ff 853d
000002f0: 233d 953d f4c9 62bd 6ea5 c83b 82dc 8abc
00000300: 93c1 d9bd f461 77bd 1914 d7bd 9dff 9b3d
00000310: 8205 023d 3f38 4a3d 11e6 0fbe 1ede 783d
00000320: aadf 97bd 4c67 cfbd 288b e1bd 1d93 f83d
00000330: 6ace abbd 50ca c33d 844f a8bd 45d2 7a3d
00000340: 2cf9 1b3d 00b2 eabd bc99 bcbd 5b94 8b3b
00000350: cd3c e6bc 6756 ec3d be8f 00be a401 373d
00000360: 8b64 9abc 85bc a6bd 48fe fcbd 1545 f6bb
00000370: d4ab c73c f9cc 95bd a4d6 e83d ba9f ea3d
00000380: 4f9d 00be eb86 b1bd eee9 6e3d 3a6f bf3d
00000390: 7822 b8bd dc14 c03d 752e e7bd 8948 96bd
000003a0: b557 053d 4891 853d c371 9e3c 73e0 88bc
000003b0: 3788 573d cc4f cabd 64e1 623d 94f1 123e
000003c0: 4edb c4bc faa8 92bb 2c7c c93d 9683 823c
000003d0: 1101 edbc bfa1 ec3d f299 a0bd 911a b83d
000003e0: adb1 aa3d 75df e2bd e374 04bd e90f 473d
000003f0: be41 703c 8d49 993c 957d ed3d cfcf d03d
0.054157432 0.032421406 -0.10901251 -0.03529809 0.12606134 0.02985008 -0.12737612 -0.07427125
-0.06697243 0.020487798 -0.11837662 0.11925545 0.09180037 0.0224947 -0.12504764 0.0054248446
-0.00024120635 -0.070752814 -0.1137222 -0.15350227 0.05931048 0.013092064 0.040150207 0.12353405
-0.051443666 -0.12199262 -0.1227268 -0.13674887 0.07006892 -0.07268201 0.09295593 -0.07028962
0.0029192274 0.061632287 0.053178024 0.13414672 0.011088925 -0.061513197 0.016582688 -0.04382732
0.109666854 -0.041602254 -0.09655023 -0.04064939 -0.067365944 0.121216714 -0.072981074 -0.048561588
-0.06673738 0.13936491 -0.11218343 0.10976339 -0.055035297 0.09480577 0.052942645 -0.090741284
-0.13245988 0.07757 -0.08498067 -0.1011608 -0.078042455 -0.028563708 -0.06065516 0.09045508
0.009915299 -0.08169594 -0.105225936 0.05480327 -0.035260677 -0.053205144 0.14810385 -0.109180145
0.07402959 -0.059853174 0.0068218033 0.04728905 -0.036137983 0.02427459 -0.064738184 -0.04075368
-0.0077466043 0.09818975 0.025825389 -0.04667437 -0.049527995 -0.010364956 -0.060372885 -0.030120531
0.09110808 0.06456125 0.0874653 -0.09651136 0.09139772 0.018102707 0.11219075 0.00067139574
-0.10951913 0.058679223 0.02282594 0.094938576 -0.054220818 -0.06971236 -0.12380529 0.10333191
-0.106479906 -0.044964697 0.13661419 -0.09555413 0.09727121 0.039509613 -0.12420382 0.09122075
-0.07604102 0.065884784 -0.098859526 -0.1346566 -0.058368385 -0.067742884 0.10844521 -0.025147654
0.1417661 0.0034681128 0.053322345 0.11540012 0.07478622 0.046009894 0.041477185 0.010225223
0.014971954 0.1343123 -0.0855421 0.09263285 0.058766086 -0.06242066 -0.0909625 -0.059840295
0.11022418 -0.13410653 0.02938655 0.1271199 -0.108459435 -0.1475584 -0.13535108 -0.083674416
0.087046154 0.099949725 -0.051426854 -0.11299983 0.06478763 -0.08420325 0.12900464 -0.0009485979
0.06554813 0.015616563 -0.10533429 -0.09716965 0.06541167 -0.08256172 -0.09181931 0.070581034
0.1334592 -0.079397 0.08012239 -0.024451591 -0.07037614 0.1357246 0.08774623 0.039012767
-0.08516227 -0.07303309 0.08789951 0.010031952 -0.13684057 -0.046884853 0.011954118 0.051082287
-0.06964836 0.0981019 -0.117919296 0.10266868 -0.08425256 -0.119647056 0.10628583 -0.02968352
0.107605144 -0.13792829 0.055796362 0.06542874 0.072870515 -0.05536838 0.0061232364 -0.01695085
-0.106326245 -0.06039615 -0.1050188 0.07617114 0.031743534 0.049370047 -0.14052607 0.060758702
-0.074157074 -0.10127124 -0.1101287 0.12137435 -0.0838898 0.095600724 -0.082182914 0.061235685
0.038079426 -0.11459732 -0.0920901 0.0042596287 -0.028105164 0.115399174 -0.12554833 0.0446793
-0.01884677 -0.08141426 -0.12353188 -0.0075155594 0.024373926 -0.07314486 0.113690645 0.11456247
-0.12560008 -0.08668312 0.05832856 0.09347387 -0.089909494 0.093789786 -0.11288158 -0.07338054
0.032554347 0.06521851 0.019341355 -0.016708588 0.05262014 -0.09878501 0.05539073 0.14349967
-0.024030354 -0.00447571 0.09838137 0.015931886 -0.028931173 0.11554288 -0.07841863 0.08989442
0.0833467 -0.11077777 -0.032338034 0.048599157 0.014664112 0.01871183 0.115962185 0.10195886

egnn.layers.0.hidden_mlp.0.bias f4 [32]
00000000: 88ec 783d c2a1 e5bb 3ceb f83c ddb0 bcbd
00000010: 0882 343d dee7 a3bb e39d 8bbd 4b4c debd
00000020: db95 1c3d bf95 aabd b982 df3c c3d9 0dbe
00000030: b1c6 8c3d 1281 a53d 2f2b dd3b b3cc b2bb
00000040: e9a1 093e 383f 323d 45bc c0bd 4456 74bd
00000050: 61a5 4fbd 72d8 b3bd 8415 cdbd dfd2 b3bb
00000060: c8a8 d8bd 7251 6fbc bf7b 113d 3efa 92bd
00000070: 0d5c 68bd c9d6 08be b23e 3c3d 1670 053d
0.06077245 -0.0070078084 0.030385606 -0.092134215 0.04406932 -0.005002006 -0.06817224 -0.108543955
0.03822885 -0.08329343 0.027284013 -0.13852601 0.06873835 0.08081259 0.0067495327 -0.005456531
0.1344067 0.04351732 -0.094109096 -0.05965258 -0.050694827 -0.08781518 -0.100138694 -0.0054877843
-0.105790675 -0.01460682 0.035518404 -0.07176636 -0.05672841 -0.13363184 0.04595823 0.032577597

egnn.layers.0.hidden_mlp.2.weight f4 [16, 32]
00000000: a560 0abe 2b6e dabd ae4e f4bc 83eb e73a
00000010: 70e1 353c 48a8 1e3e d747 24be 8c57 953d
00000020: c776 0b3e a740 243e 5747 053d 0b13 213e
00000030: 54c7 bdbd 5676 fdbd f52d 25bd 207d babd
00000040: b3f2 a93d d837 43bd 5dd1 b23d 750c 81bd
00000050: a218 9abd e76f 58bd b3d8 9bbc 6ddc aabd
00000060: f952 ca3d 84eb e53d a456 083d 753b 2ebe
00000070: 6aec 123e fb30 04be 41fd f7bd 4c8d b83d
00000080: d6ba d1bd 84cf 0bbe f020 09be acd9 183e
00000090: 87ce 4c3d 1a97 b03d 1e13 0f3d 036b a53d
000000a0: 9f94 353e 52da dcbc b0f4 e5bd 2e38 18bd
000000b0: 0b76 84bd 529d 2cbe d6a3 0abe 6d0d 7abd
000000c0: 86fd 083d 0184 b83d bdcd ee3d 3767 33be
000000d0: 403a 60bc 3387 09bd 52b4 193e e862 3cbd
000000e0: 8342 3b3e eb58 2d3d bc20 c43c bdb6 9e3d
000000f0: a871 093e 4df9 bfbd e451 983d 5bc6 8abd
00000100: d1d6 3b3d 9d35 d73d 5411 a3bd 79a3 3abd
00000110: b27b 253e ab8a 2abe 0d2c f1bc 919d 153e
00000120: d3ac 1b3d ab6d 13be bd72 e33b 195a 12be
00000130: b175 86bd 9e15 163d 246e c43d 7622 cabd
00000140: 6b3e 1c3e 4ee6 febd 7bf8 0fbd b03c 1cbe
00000150: caad 97bb 64cf 9dbb 0e6b 993d 934f f2bd
00000160: 166b fd3b 1485 683d f116 e6bd 406c 1e3e
00000170: 4aea 13bd f141 38be 0d36 ffbc 36e3 2a3d
00000180: 5161 babd 3f53 8cbd 936a a03d 0ca5 09bd
00000190: d89e 853d c7d5 433c d41f 39bb 355e 173e
000001a0: d1ae f7bc 4525 123e 0e37 77bd bf43 ea3d
000001b0: 62ac bb3d 79ae e5bd 579e 2bbd 93ae f3bd
000001c0: 8292 163d 02c6 b33b fd2c 72bd babf 1b3e
000001d0: f1ff 2b3e 4e2c 01be 4f49 c6bd d0b4 843c
000001e0: 9f7b e03d 237c dcbd b650 7abc b092 02bd
000001f0: 87b0 12be 764b 47bc e130 babb fc48 303d
00000200: 622f 013e c37d 0fbc 5fbb 023e 6f37 81bd
00000210: 3c6f ecbd 282f 8d3d 2ff1 f53d 8d08 e2bb
00000220: cb35 f7bd 3b0b adbd bfdb bebd 5299 2b3d
00000230: c84d 453d afc1 20be 21d3 edbc 45b9 243d
00000240: 6e58 98bd f4ea 313e 230b 133e 0abc afbd
00000250: 8523 9b3c 8b39 f3bc ce50 1cbe d69f 6d3c
00000260: e617 003e bc08 cf3d 44ed b23d 81f7 6ebd
00000270: b712 c9bd e56b 1abe fcbb 20be cf2a 073c
00000280: fdd1 033e 2639 283d 68a3 0ebd fa94 a73c
00000290: 873a 243d cd58 9ebd 8f99 e53d 2d8d 9b3d
000002a0: 9a2e 57bd 7b2c 53bc 3e3e 20be 8598 b13d
000002b0: 3643 c83c ad89 083e bd31 733d b0d0 1abe
000002c0: f04a 2ebd 0c02 ca3d 96fc 193e ccca 493d
000002d0: 0258 1a3e 4bf8 333e ba60 73bd ddd4 f43c
000002e0: 776f 1c3e edf6 a8bc b193 c9bd f411 04be
000002f0: b864 8ebd 6f45 3fbe 5b21 a1bd ecf0 b13d
00000300: 8ca0 0d3e c98c c43c 98cc 8abd e7de ddbd
00000310: 7f0f 0cbe 09ab 003d 05d1 263e 8208 e7bd
00000320: 54ae 2f3e 6a0c 9ebd f7d4 ecbd 8323 ca3d
00000330: da30 e0bd b34e 253e 3041 1fbe 5952 d83d
00000340: 12fe 223e 5762 77bd f673 d6bd 4b5b 6ebd
00000350: ac98 153e e095 03be c5c9 183e 9311 213e
00000360: d6c1 9dbd e74e 0c3e 41e0 53b9 f776 083d
00000370: c276 2abb 1d9c 0f3d b930 283e 1e25 023d
00000380: facf 8b3c 7c03 d2bd 1e34 f93d 2ca7 78bd
00000390: eaf4 0ebe 810a 2cbe 133e 283e fa36 8d3d
000003a0: f8d1 97bd 80d4 dfbd db34 ae3b 7294 f9bc
000003b0: 5f63 33ba ce90 0e3e f56b b5bd 8164 f73c
000003c0: 9e5a c23d c9fe 0a3e 8acb 063d fbb8 ebbd
000003d0: f911 13bd b7b6 c9bc 40d5 48bd fef2 29be
000003e0: 624e 02bc b170 1d3e 5863 a4bd a9bc 92bd
000003f0: f49f efbd 76e9 1f3d ee05 dabd bfe3 a33c
-0.1351343 -0.10665544 -0.029822674 0.0017694089 0.011101112 0.15493882 -0.1604303 0.07292089
0.13619529 0.16040288 0.032538738 0.1572992 -0.092665344 -0.123760864 -0.04032703 -0.09105897
0.08298244 -0.04766068 0.08731339 -0.06301204 -0.075242296 -0.052841093 -0.019024229 -0.08342824
0.09879107 0.11226562 0.033285752 -0.17014869 0.14347997 -0.1290931 -0.12108851 0.09011325
-0.10240714 -0.1365338 -0.13391471 0.14926785 0.050001647 0.0862257 0.03493034 0.080770515
0.17732476 -0.026959572 -0.11228311 -0.037162952 -0.064678274 -0.16856888 -0.13539061 -0.06104796
0.033444904 0.09009553 0.11660335 -0.17519842 -0.013685763 -0.0335762 0.15010193 -0.04599276
0.18287091 0.042321127 0.02394139 0.07749698 0.13422263 -0.09373722 0.074374944 -0.067761146
0.04585916 0.10508273 -0.079622895 -0.045566056 0.16160467 -0.1665446 -0.02943995 0.14610888
0.038006615 -0.14397304 0.006941168 -0.14292182 -0.065654166 0.03664171 0.0959132 -0.09869854
0.15258186 -0.12446271 -0.03514908 -0.15257525 -0.0046288716 -0.0048159827 0.07491122 -0.11831584
0.007733713 0.05676754 -0.112348445 0.15470982 -0.036112107 -0.17993905 -0.031153703 0.04172059
-0.09100593 -0.068518154 0.078328274 -0.033604667 0.06524438 0.011952824 -0.002824773 0.14782031
-0.030234726 0.1427203 -0.06035524 0.11438703 0.09163739 -0.11214919 -0.04189905 -0.11898532
0.036760814 0.005486251 -0.059124935 0.15209857 0.16796853 -0.12614557 -0.09681951 0.0161995
0.10961079 -0.10765865 -0.015278032 -0.031878173 -0.14325152 -0.012163987 -0.0056820964 0.043038353
0.12615731 -0.008758011 0.12766789 -0.06309401 -0.11544654 0.0689376 0.12008893 -0.006897992
-0.12070807 -0.08449408 -0.09319257 0.041894265 0.04816988 -0.15698884 -0.029031338 0.04021575
-0.074387416 0.17374784 0.14359717 -0.085807875 0.018937835 -0.029690525 -0.152652 0.01450344
0.12509117 0.10109088 0.08736661 -0.058341507 -0.09818023 -0.15080221 -0.1569671 0.008249952
0.12873073 0.041070126 -0.034823805 0.02045678 0.04009488 -0.07731781 0.112109296 0.075952865
-0.052534677 -0.012889023 -0.15648744 0.08671669 0.024446111 0.13333769 0.059373606 -0.1511867
-0.042551935 0.09863672 0.1503776 0.049265668 0.15072635 0.17575185 -0.059418418 0.029886657
0.15276895 -0.020625556 -0.09842623 -0.12897474 -0.06952804 -0.1867883 -0.0786769 0.0868853
0.13830775 0.023992913 -0.067773044 -0.10833531 -0.13677786 0.03141311 0.16290672 -0.112809196
0.17156345 -0.077172115 -0.11564057 0.098700546 -0.10946818 0.16143303 -0.15552211 0.105625816
0.15917233 -0.06039652 -0.104713365 -0.058192533 0.14609021 -0.12850142 0.14920719 0.1572936
-0.07702987 0.13701974 -0.00020206069 0.03331658 -0.0026010727 0.03506099 0.16424836 0.03177368
0.017066944 -0.10254571 0.12168144 -0.060706303 -0.13960615 -0.16800882 0.1642993 0.068952516
-0.07413095 -0.10929203 0.0053163595 -0.030466292 -0.00068431156 0.13922426 -0.08858482 0.030199291
0.0948994 0.13573755 0.032908954 -0.115098916 -0.035905812 -0.024623258 -0.049031496 -0.165966
-0.007953258 0.1537502 -0.08026761 -0.0716489 -0.117004305 0.039041005 -0.10645662 0.020006059

egnn.layers.0.hidden_mlp.2.bias f4 [16]
00000000: 6fbe 4f3b 1ef8 d3bd 0c59 de3d 683a 10b7
00000010: 5401 a7bd 19d2 4f3d e259 bebd c386 36b7
00000020: 158e 9ebd cfb2 313a 0def 413b 0ed1 c93d
00000030: b249 fabc ccd5 793d 5803 2236 1fe2 883d
0.00316992 -0.10350059 0.10856828 -8.596668e-06 -0.0815455 0.050737474 -0.092944875 -1.0879422e-05
-0.07741944 0.0006778659 0.0029591948 0.09854327 -0.030552719 0.06099491 2.4141827e-06 0.06683754
