2-egnca-rework/logs/line4-2024-10-05@23-20-03/best@166.pt (torch, 26116 bytes, 11 tensors)

egnn.layers.0.message_mlp.0.weight f4 [32, 33]
0.061237577 0.0973692 -0.009611356 0.09246588 -0.051102504 0.026828611 -0.042158477 -0.014209956
-0.03792345 0.02812651 0.13155118 0.13868214 -0.031224513 -0.062110856 -0.026020456 0.14761184
0.14163674 -0.04713947 -0.061746906 -0.044936433 0.12304717 0.13906628 -0.122119054 -0.062172543
-0.15495388 0.16829172 0.025833406 0.054257654 0.092982195 0.039182 -0.034353558 -0.17021884
0.04216706 -0.031937443 -0.17379984 -0.023082115 -0.09477024 -0.09773153 -0.12652713 -0.14995827
-0.012197473 0.018567467 -0.1568931 -0.16064496 0.0014228553 -0.16189118 0.08495141 -0.04415152
-0.024256764 -0.15984528 -0.12847623 0.06637156 -0.09462864 -0.0720198 -0.15458141 -0.009061964
-0.10750587 0.04565526 0.05492073 0.03968063 0.059622765 -0.124225974 0.0191537 -0.1550432
-0.12006017 0.1459368 0.12486261 -0.12244086 0.09577874 -0.14487553 0.025872467 0.15681882
0.01531724 0.068112515 0.15864037 -0.06596381 0.12836583 0.025747368 -0.04046967 -0.15728638
0.16760413 0.17200649 -0.07593612 0.0418587 -0.18173319 0.030220767 0.09929587 0.01735417
-0.09203539 0.15789118 -0.0967415 0.02101628 -0.16387314 0.07503038 0.119894266 0.03300092
0.13546108 -0.17616254 -0.103681035 0.047372326 0.08836538 -0.043590482 0.048948683 -0.16934554
0.16924125 -0.13695532 -0.16183656 -0.12898181 0.17257336 0.042861506 -0.0143132135 0.034717876
-0.0019139244 -0.122457996 0.10925865 -0.14649089 -0.042928495 0.017400274 -0.10824264 0.041701123
-0.158435 -0.082063824 0.15067197 0.051282067 -0.14220203 0.16329175 -0.046736237 0.031193687
-0.03920569 -0.1010205 0.030857071 -0.039240643 -0.092977725 0.09525186 0.08370414 0.11403298
-0.02698561 -0.029066967 0.009180108 0.15256602 -0.15477988 -0.010322447 0.015252233 0.083667345
-0.17060922 -0.18718164 -0.006876878 0.054246303 -0.0735893 0.13397677 0.03343176 -0.060620755
-0.062304452 -0.14188074 0.09306712 -0.03321892 0.088755846 -0.18366791 0.12700036 0.054891285
-0.11060738 -0.09484404 0.12347075 0.0804657 0.08420522 0.038719147 -0.08638071 -0.11434837
-0.04976087 -0.04887648 -0.026952907 -0.03983002 -0.14090595 -0.15765738 -0.123213656 0.08944267
-0.111044586 -0.13498883 -0.07555983 0.05509408 -0.053637985 0.00078029884 0.022273617 -0.12504
-0.050282363 -0.04932771 -0.011397715 -0.10860944 -0.03551665 0.015376011 0.055278473 -0.114383005
0.15631124 0.04665902 -0.14043672 0.16351156 -0.11302541 -0.003683296 0.13322061 -0.03599166
0.044944797 0.083758585 -0.057642978 0.019582884 0.1340469 0.0004873254 -0.039880138 0.13265423
0.03607181 -0.11215505 0.08842682 0.14029832 0.014273432 0.14568509 -0.10891705 0.16829298
0.0995967 -0.00019935626 -0.1578795 0.1687437 -0.0042956397 0.08386627 -0.093166605 0.059912678
-0.027216595 0.045517907 0.06853038 -0.116861895 -0.12715769 -0.0077423197 -0.04547442 0.11788249
-0.07312376 0.03986404 -0.1603243 0.085974194 0.10751612 0.026524823 0.022504326 0.026814122
-0.007511135 -0.03757556 0.130248 -0.054574437 -0.02400923 -0.016877979 -0.10454848 -0.13734119
-0.10342194 -0.042795774 -0.13691598 0.057641122 -0.13468792 -0.04254215 -0.07532017 -0.0849324
00000000: 41d4 7a3d 8169 c73d f378 1dbc c05e bd3d
00000010: dc50 51bd adc7 db3c 5eae 2cbd e0d0 68bc
00000020: 9f55 1bbd 9169 e63c 5ab5 063e b102 0e3e
00000030: 8dca ffbc f467 7ebd da28 d5bc 8f27 173e
00000040: 3909 113e 5115 41bd 53ea 7cbd 440f 38bd
00000050: 2800 fc3d 6467 0e3e 8e19 fabd a3a8 7ebd
00000060: 3bac 1ebe aa54 2c3e 94a0 d33c 463d 5e3d
00000070: 736d be3d 4e7d 203d 51b6 0cbd d94d 2ebe
00000080: 5eb7 2c3d d6d0 02bd 96f8 31be b416 bdbc
00000090: e616 c2bd 7827 c8bd 5490 01be a98e 19be
000000a0: e9d7 47bc cd1a 983c 96a8 20be 1d80 24be
000000b0: 1a7f ba3a cdc6 25be 01fb ad3d 39d8 34bd
000000c0: 1fb6 c6bc 7bae 23be 468f 03be d0ed 873d
000000d0: a9cc c1bd 1e7f 93bd 974a 1ebe a278 14bc
000000e0: 0a2c dcbd 0301 3b3d 8ff4 603d 2888 223d
000000f0: 0037 743d 306a febd 38e8 9c3c a5c3 1ebe
00000100: 1be2 f5bd 7570 153e f8b7 ff3d 46c2 fabd
00000110: a527 c43d 405a 14be 7ff2 d33c 1d95 203e
00000120: 29f5 7a3c 937e 8b3d 9f72 223e 0918 87bd
00000130: 5572 033e 25ec d23c 86c3 25bd ae0f 21be
00000140: 6ba0 2b3e 7822 303e 6584 9bbd 0774 2b3d
00000150: 4418 3abe 8b91 f73c a25b cb3d 552a 8e3c
00000160: 0d7d bcbd 3aae 213e 6820 c6bd 552a ac3c
00000170: 5cce 27be 87a9 993d 208b f53d f92b 073d
00000180: 4fb6 0a3e f463 34be b956 d4bd 7c09 423d
00000190: e9f8 b43d ef8b 32bd 6a7e 483d eb68 2dbe
000001a0: 944d 2d3e 043e 0cbe 7cb8 25be cf13 04be
000001b0: 12b7 303e 8c8f 2f3d f881 6abc 5534 0e3d
000001c0: a5dc faba 42cb fabd 00c3 df3d b501 16be
000001d0: cad5 2fbd 058b 8e3c 51ae ddbd ccce 2a3d
000001e0: c93c 22be 1411 a8bd c149 1a3e 250d 523d
000001f0: 699d 11be f435 273e 7f6e 3fbd e789 ff3c
00000200: 2596 20bd d6e3 cebd f8c7 fc3c ccba 20bd
00000210: 1b6b bebd 6813 c33d 136d ab3d 1f8a e93d
00000220: ed10 ddbc d91d eebc 2a68 163c 443a 1c3e
00000230: 9e7e 1ebe 7b1f 29bc 80e4 793c c959 ab3d
00000240: 2fb4 2ebe 8bac 3fbe 6f57 e1bb 5f31 5e3d
00000250: fdb5 96bd 3531 093e beef 083d 784d 78bd
00000260: f432 7fbd 2f49 11be f999 be3d 9010 08bd
00000270: a0c5 b53d 7113 3cbe 620c 023e afd5 603d
00000280: 1f86 e2bd 983d c2bd 3cde fc3d 33cb a43d
00000290: c973 ac3d f897 1e3d 5fe8 b0bd 7a2f eabd
000002a0: 0ed2 4bbd b432 48bd 58cc dcbc ce24 23bd
000002b0: a649 10be f070 21be 7157 fcbd b82d b73d
000002c0: 586b e3bd 833a 0abe 1dbf 9abd 54aa 613d
000002d0: 81b3 5bbd f88c 4c3a 2977 b63c 7c0a 00be
000002e0: e1f4 4dbd da0b 4abd 7bbd 3abc a06e debd
000002f0: e879 11bd aaeb 7b3c ae6b 623d a341 eabd
00000300: 0e10 203e 871d 3f3d a5ce 0fbe 936f 273e
00000310: de79 e7bd 7463 71bb fc6a 083e fe6b 13bd
00000320: 0918 383d 9f89 ab3d 0b1b 6cbd 496c a03c
00000330: 9743 093e b57f ff39 5b59 23bd 83d6 073e
00000340: 09c0 133d 8cb1 e5bd 1f19 b53d 5daa 0f3e
00000350: 1ddb 693c 792e 153e e70f dfbd ff54 2c3e
00000360: 5bf9 cb3d 4a0a 51b9 2aab 21be 26cb 2c3e
00000370: 70c2 8cbb 14c2 ab3d 22ce bebd ff66 753d
00000380: 56f5 debc fc70 3a3d a859 8c3d 4a55 efbd
00000390: a035 02be 49b3 fdbb 6343 3abd 606c f13d
000003a0: e9c1 95bd 7a48 233d 0e2c 24be 3d13 b03d
000003b0: 6931 dc3d 964a d93c fe5a b83c 4aa9 db3c
000003c0: f81f f6bb d5e8 19bd bb5f 053e 7289 5fbd
000003d0: 01af c4bc b043 8abc 831d d6bd 2ba3 0cbe
000003e0: e2ce d3bd 9f4a 2fbd b433 0cbe 1919 6c3d
000003f0: a1eb 09be ad40 2ebd 7641 9abd 0af1 adbd

egnn.layers.0.message_mlp.0.bias f4 [32]
-0.034089666 -0.017075071 0.05037532 -0.15533903 0.058368184 -0.15047699 -0.036168788 -0.14330605
-0.14952816 -0.092996 0.12584366 -0.16014712 0.07674598 -0.014821233 -0.14249128 0.047126975
-0.09449566 -0.10236389 0.03584838 -0.12532443 0.009475137 0.059920635 0.050127495 0.09384223
-0.14381966 0.05736525 0.10651216 -0.1611188 0.06518002 0.012618512 0.06230586 -0.1672686
00000000: 9ba1 0bbd 05e1 8bbc 5a56 4e3d 3211 1fbe
00000010: 7a13 6f3d a416 1abe b925 14bd d2be 12be
00000020: e91d 19be b074 bebd 29dd 003e 9bfd 23be
00000030: ff2c 9d3d c2d4 72bc 3ce9 11be 3708 413d
00000040: f186 c1bd 29a4 d1bd c0d5 123d 0c55 00be
00000050: 9b3d 1b3c 576f 753d 7d52 4d3d 5b30 c03d
00000060: 7645 13be d3f7 6a3d 0c23 da3d 54fc 24be
00000070: 1a7d 853d e0bd 4e3c 6e34 7f3d 7648 2bbe

egnn.layers.0.message_mlp.2.weight f4 [32, 32]
0.11278085 -0.15788902 0.08430017 0.15931663 -0.03349152 0.083574064 -0.025111843 0.10090895
-0.16137525 0.0021631308 0.18853506 -0.042032506 -0.13968758 -0.13894324 0.037859663 0.15645789
-0.1728131 0.11392373 -0.13488388 0.07443867 0.03862522 0.058827493 -0.15168363 0.16689754
0.038111866 -0.0105006695 -0.13312268 0.107616834 0.1652973 0.06685456 -0.022189898 -0.039409727
-0.18000512 0.115634896 -0.02566574 -0.15775648 0.00037993235 0.032755982 0.11268451 0.05541385
-0.11774749 -0.048614077 -0.17055044 0.07967955 0.08096317 -0.10640706 0.043632876 0.117874004
0.1593012 0.11936718 0.068129145 0.042649657 0.059564773 0.16185276 0.10691578 0.03127709
0.021499354 0.1173443 0.1758665 -0.11735015 -0.08696966 0.19568375 -0.073475346 -0.052723624
0.13982545 -0.0677834 0.18032773 -0.102241114 -0.078895845 0.010105325 0.008824561 0.16515408
-0.074146695 0.06895751 -0.022314772 -0.027348362 -0.15150502 0.16394247 -0.096851066 -0.037125077
-0.082141966 0.16406195 -0.072346814 -0.04139763 0.10595807 0.17291951 0.16682369 -0.10525925
-0.06488571 0.1460734 0.07229486 0.13681602 0.06081686 -0.124351166 -0.027009526 -0.07512412
-0.14458068 0.048432387 0.09361572 0.065003395 0.14022113 -0.07205966 0.059289593 -0.05632362
0.14988747 -0.013358109 0.12643383 0.13184267 -0.12224257 -0.042311516 0.15157142 -0.08618381
-0.043079674 0.14557913 0.14476578 0.118920706 0.016909653 0.110629156 -0.16440476 0.08360421
-0.030024547 -0.13097736 0.0388612 0.00021942292 0.06382618 -0.058619574 0.17822142 -0.18605906
0.17204708 -0.07675273 0.10612488 -0.025190223 -0.047964953 -0.13135895 -0.14374791 0.025294334
-0.103139564 -0.121654086 -0.14813925 0.15313232 0.04191345 0.015743194 -0.05286607 -0.15329088
0.09966942 0.14335944 0.03266239 0.047163874 0.0030780637 0.06993678 0.009105742 -0.11268012
-0.025303112 0.16128959 -0.10785389 0.15597625 -0.09981842 -0.037300684 0.11198603 -0.10794335
-0.04315056 -0.13446689 -0.025007337 0.111546874 -0.087983094 -0.040144056 0.0052329004 0.10163088
0.028945997 -0.023356473 -0.10917248 -0.13674794 0.17073081 -0.045925055 0.10970296 -0.016675357
-0.085938565 -0.06895748 -0.14003499 -0.03463901 0.011384006 -0.086578414 0.047963947 0.07904351
-0.11305159 -0.018788511 0.1270921 -0.1645161 0.09358395 -0.041371994 -0.04624596 -0.108835205
-0.012904085 0.059748895 -0.08412486 -0.05663561 0.09061745 -0.08499232 0.012383811 0.0973086
-0.0032567747 -0.04930309 -0.11450942 -0.04144755 -0.034637634 0.11280305 0.015918631 -0.14343917
-0.012148036 -0.10758222 0.18776485 -0.04140558 -0.16937545 -0.09844015 0.1001322 0.16792189
-0.11252234 -0.1741904 -0.04060231 -0.04892222 -0.088219635 0.11040569 0.015437659 0.13176788
0.12699363 0.012246512 0.14280039 -0.046387166 0.060545627 -0.11064305 0.039407168 0.07261903
-0.17833814 0.14934422 0.12389845 -0.10808837 0.052483376 0.16687837 -0.06037281 0.0051314053
-0.018941132 -0.101780765 0.087665126 -0.0795645 0.053024385 0.035141587 0.08650527 0.16892177
0.05906642 -0.026472885 -0.056047313 0.14559779 0.11397915 0.15164019 -0.07793155 0.11019162
00000000: a5f9 e63d a9ad 21be 91a5 ac3d e623 233e
00000010: 672e 09bd e128 ab3d 5ab7 cdbc 5aa9 ce3d
00000020: 8e3f 25be 50c3 0d3b 560f 413e 472a 2cbd
00000030: 430a 0fbe 2347 0ebe bc12 1b3d 7f36 203e
00000040: ebf5 30be d850 e93d 001f 0abe 4d73 983d
00000050: 7b35 1e3d 19f5 703d f452 1bbe 30e7 2a3e
00000060: 301b 1c3d 000b 2cbc 5051 08be 3766 dc3d
00000070: b243 293e 0beb 883d 97c7 b5bc 186c 21bd
00000080: 4353 38be fdd1 ec3d f540 d2bc ea8a 21be
00000090: a831 c739 232b 063d 23c7 e63d a2f9 623d
000000a0: 9925 f1bd 8e1f 47bd c6a4 2ebe 082f a33d
000000b0: 05d0 a53d f2eb d9bd 63b8 323d ed67 f13d
000000c0: db1f 233e c876 f43d 4b87 8b3d 68b1 2e3d
000000d0: 31fa 733d bbbc 253e a9f6 da3d 681c 003d
000000e0: 6a1f b03c 3552 f03d 5916 343e 4755 f0bd
000000f0: 261d b2bd 5261 483e 3e7a 96bd baf4 57bd
00000100: 672e 0f3e 06d2 8abd d5a7 383e ca63 d1bd
00000110: 2594 a1bd ce90 253c e494 103c 271e 293e
00000120: 39da 97bd 9839 8d3d 78cd b6bc ac09 e0bc
00000130: 2224 1bbe 89e0 273e da59 c6bd 7710 18bd
00000140: 0c3a a8bd dbff 273e 912a 94bd 9090 29bd
00000150: 8b00 d93d d011 313e d4d3 2a3e 2992 d7bd
00000160: cde2 84bd 4494 153e 540f 943d 8019 0c3e
00000170: 1a1b 793d d3ab febd 1543 ddbc adda 99bd
00000180: f50c 14be 0a61 463d 99b9 bf3d 8020 853d
00000190: 2196 0f3e 0494 93bd a5d9 723d 99b3 66bd
000001a0: 1a7c 193e f8db 5abc df77 013e c401 073e
000001b0: 505a fabd d74e 2dbd 8a35 1b3e 2381 b0bd
000001c0: 5074 30bd b212 153e 7b3d 143e b38c f33d
000001d0: 1d86 8a3c 8a91 e23d b959 28be af38 ab3d
000001e0: 0af6 f5bc ee1e 06be ec2c 1f3d e414 6639
000001f0: 4db7 823d 141b 70bd ad7f 363e 4486 3ebe
00000200: 1c2d 303e 8930 9dbd 0058 d93d ba5b cebc
00000210: e676 44bd f682 06be a732 13be 1036 cf3c
00000220: d63a d3bd c725 f9bd d1b1 17be b8ce 1c3e
00000230: 70ad 2b3d dff7 803c 188a 58bd 49f8 1cbe
00000240: 7b1f cc3d d1cc 123e 00c9 053d e82e 413d
00000250: 57b9 493b 043b 8f3d 4030 153c d6c4 e6bd
00000260: 7948 cfbc 1929 253e 80e2 dcbd 3db8 1f3e
00000270: 9a6d ccbd 9ac8 18bd ef58 e53d 6711 ddbd
00000280: a4be 30bd b0b1 09be 30dc ccbc b072 e43d
00000290: 7b30 b4bd 186e 24bd c078 ab3b da23 d03d
000002a0: 2820 ed3c 1356 bfbc d295 dfbd a707 0cbe
000002b0: 0fd4 2e3e e91b 3cbd f2ab e03d c29a 88bc
000002c0: 8f00 b0bd 9439 8dbd 5565 0fbe a2e1 0dbd
000002d0: fb83 3a3c 0650 b1bd d875 443d 90e1 a13d
000002e0: 9887 e7bd 5dea 99bc 6e24 023e e976 28be
000002f0: f1a8 bf3d ae75 29bd 676c 3dbd fee4 debd
00000300: a86b 53bc 42bb 743d a849 acbd befa 67bd
00000310: a495 b93d 7410 aebd 78e5 4a3c bb49 c73d
00000320: 9d6f 55bb 09f2 49bd ea83 eabd e8c4 29bd
00000330: 31e0 0dbd 4905 e73d ca67 823c b8e1 12be
00000340: 8e08 47bc 1154 dcbd 6e45 403e e698 29bd
00000350: c270 2dbe fd9a c9bd 1c12 cd3d b7f3 2b3e
00000360: 1d72 e6bd f85e 32be 9c4e 26bd aa62 48bd
00000370: 7fac b4bd 611c e23d 3cee 7c3c 29ee 063e
00000380: 9e0a 023e 98a5 483c 443a 123e 7800 3ebd
00000390: b1fe 773d d398 e2bd 6969 213d 49b9 943d
000003a0: 469e 36be b1ed 183e 78be fd3d 6f5d ddbd
000003b0: cff8 563d 2ae2 2a3e 7b49 77bd 5925 a83b
000003c0: 6f2a 9bbc 6f72 d0bd c689 b33d b6f2 a2bd
000003d0: 1930 593d a0f0 0f3d ad29 b13d d4f9 2c3e
000003e0: a1ef 713d aadd d8bc de91 65bd 9617 153e
000003f0: e76d e93d 9147 1b3e 949a 9fbd 25ac e13d

egnn.layers.0.message_mlp.2.bias f4 [32]
0.0033624058 0.108519986 0.01893638 0.16373882 -0.023153093 -0.16326596 -0.1565581 -0.07574342
0.059804637 0.09876328 0.07932859 0.15244152 -0.17161618 0.07205244 -0.016422784 -0.1333618
0.04242536 0.16656505 0.04860277 0.10667924 0.09773947 -0.11685872 -0.17241015 -0.16275693
0.15051916 -0.12981664 -0.057398207 0.14771217 0.15565985 -0.1269531 0.07380646 -0.004835732
00000000: cf5b 5c3b ba3f de3d 7820 9b3c 26ab 273e
00000010: 8eab bdbc 312f 27be c450 20be 5e1f 9bbd
00000020: b5f5 743d 6744 ca3d 0777 a23d a119 1c3e
00000030: 27bc 2fbe 3b90 933d 1389 86bc ff8f 08be
00000040: 37c6 2d3d 0790 2a3e b313 473d a57a da3d
00000050: a22b c83d a053 efbd 498c 30be c1a9 26be
00000060: b221 1a3e a7ee 04be 621a 6bbd dc41 173e
00000070: 4c65 1f3e feff 01be d727 973d 0f75 9ebb

egnn.layers.0.coord_mlp.0.weight f4 [32, 32]
-0.040403754 -0.0021949494 0.0053550936 -0.16760315 -0.120983675 0.08426095 0.10956131 0.04571077
-0.10881054 -0.01346051 0.10870572 -0.10890918 0.12796652 0.06620128 -0.1072827 -0.16109681
0.07714847 0.04559639 -0.09506297 -0.13421862 0.0356108 0.0791711 -0.06809155 0.1456074
0.124255724 0.112441346 0.14668545 -0.118890375 0.14195628 -0.1511733 -0.042870853 -0.1282307
-0.04504843 -0.1535015 -0.15369284 -0.11186419 0.027630948 -0.11138058 0.017357456 0.02559666
-0.15150532 0.1421492 -0.050995402 0.1209346 -0.0030123156 0.11101871 0.012829803 -0.10938339
-0.16087267 -0.12756833 -0.10068525 -0.1197536 0.17044146 -0.11947151 0.014104866 -0.12078286
0.13105072 -0.0073168175 -0.07743187 0.014144746 -0.0938079 0.08747206 -0.0053739036 -0.120925054
-0.046478644 -0.0030691642 -0.017594358 -0.07104705 0.03402777 0.17887151 -0.095236994 -0.08166711
0.0063066315 0.124150954 -0.08611286 -0.13404287 0.17043534 0.06568792 0.07440372 -0.04156849
0.15015765 0.0014321882 0.05896155 0.16221696 -0.118770026 -0.11552897 0.11520035 0.09965844
-0.00045351585 -0.073396906 0.15691362 -0.15052827 -0.026181318 -0.14930086 0.13362493 0.034151603
-0.053283885 -0.12212413 -0.040295254 -0.14352958 0.15906963 -0.08855785 -0.0008845111 0.013426713
0.10266945 -0.01851466 0.026834046 -0.013549712 0.0103551075 0.095635116 0.1181743 -0.010052523
0.047949627 -0.04341529 0.07043552 0.006739811 -0.014862345 0.012192086 0.13995162 0.11960928
-0.035924774 0.12405137 0.007389379 -0.07439655 -0.08563706 0.104348294 -0.06481789 -0.020385807
-0.084061526 -0.109112464 0.11918763 0.1478359 -0.15534747 0.010569433 0.14247313 0.11470008
0.049463056 0.060812764 -0.045513563 0.030343616 0.103944264 -0.09232345 -0.010552184 0.18013804
0.11966229 0.08541523 0.03248645 0.14511111 -0.032431416 -0.03689859 -0.076661326 0.088658854
-0.13579357 0.033885244 0.034392174 -0.111183405 0.08657003 -0.009577361 0.077014714 -0.06929136
0.043834835 0.13434523 0.024730204 -0.11185052 -0.041805454 -0.049698714 -0.01001398 -0.045300614
0.035084005 -0.073671006 0.03072621 -0.15066071 -0.042934313 0.08126728 0.098623954 -0.12901784
-0.10905992 0.015490845 0.02405991 -0.046601143 0.115139514 -0.09512018 -0.104956396 0.14158955
-0.092753574 -0.039902374 -0.13825591 0.09051455 -0.04575311 0.08856445 0.08320487 -0.14543398
-0.1246222 0.1615055 -0.16394459 -0.11872597 -0.14708069 0.13663483 -0.0101139955 -0.16919926
-0.13337962 0.14988963 -0.088834 0.13067958 0.16315562 0.054012768 -0.08344525 0.17953905
0.16472618 0.13659042 -0.057359852 0.13004227 -0.105944715 0.09286338 0.002568604 0.1470089
0.038477745 0.08348076 -0.11672013 0.1165977 -0.009305993 -0.011483317 0.026909217 -0.056179494
-0.16602121 -0.16152953 0.043813657 -0.07077641 -0.12252564 0.1419351 0.18413122 -0.18759978
-0.117770806 -0.10621864 0.056775857 0.09002231 -0.088505976 -0.10312333 0.114192 -0.10268788
-0.08340667 0.17057146 0.0021664957 -0.07190865 0.09202003 -0.15232687 0.16841157 -0.0975782
0.023585293 -0.100745 0.12756489 0.011603048 -0.15663126 -0.103185035 0.1114303 -0.0597937
00000000: 687e 25bd 24d9 0fbb c879 af3b 29a0 2bbe
00000010: 4ac6 f7bd 0191 ac3d ae61 e03d 373b 3b3d
00000020: 0fd8 debd 7989 5cbc 1ba1 de3d c70b dfbd
00000030: a809 033e 8994 873d 08b7 dbbd 90f6 24be
00000040: 0400 9e3d 48c3 3a3d 60b0 c2bd 9b70 09be
00000050: a1dc 113d 7524 a23d 9573 8bbd 1b1a 153e
00000060: c979 fe3d a647 e63d b634 163e cc7c f3bd
00000070: fd5c 113e 2ccd 1abe 5999 2fbd e94e 03be
00000080: b484 38bd 7f2f 1dbe a861 1dbe 0d19 e5bd
00000090: 4c5a e23c 801b e4bd 3931 8e3c 16b0 d13c
000000a0: 3624 1bbe 8f8f 113e 8ee0 50bd 8fac f73d
000000b0: 456a 45bb c75d e33d 1834 523c 6604 e0bd
000000c0: cebb 24be 46a1 02be 1134 cebd 6041 f5bd
000000d0: 3588 2e3e 7bad f4bd 1918 673c 015d f7bd
000000e0: 2932 063e eac1 efbb 9a94 9ebd 5dbf 673c
000000f0: 5b1e c0bd 8d24 b33d 9217 b0bb 8ea7 f7bd
00000100: 6460 3ebd 0824 49bb 0b22 90bc 1e81 91bd
00000110: b460 0b3d 182a 373e 9d0b c3bd 1641 a7bd
00000120: dca7 ce3b db42 fe3d f05b b0bd 8942 09be
00000130: 9a86 2e3e 6387 863d fa60 983d b943 2abd
00000140: edc2 193e 43b8 bb3a ab81 713d 341c 263e
00000150: b33d f3bd 749a ecbd 29ee eb3d b919 cc3d
00000160: dec5 edb9 1e51 96bd f7ad 203e 1524 1abe
00000170: 347a d6bc 53e2 18be f9d4 083e 8de2 0b3d
00000180: 3440 5abd 371c fabd a30c 25bd 6bf9 12be
00000190: 26e3 223e d15d b5bd 89de 67ba b7fb 5b3c
000001a0: 5c44 d23d 0eac 97bc 13d3 db3c 9cff 5dbc
000001b0: 78a8 293c 58dc c33d 5e05 f23d 56b3 24bc
000001c0: d466 443d 3bd4 31bd 7f40 903d a2d9 dc3b
000001d0: 3181 73bc 51c1 473c 7a4f 0f3e b6f5 f43d
000001e0: db25 13bd a50e fe3d 9b22 f23b 385d 98bd
000001f0: 7c62 afbd 8fb4 d53d 3ebf 84bd 2300 a7bc
00000200: 7328 acbd 5b76 dfbd a518 f43d 4b62 173e
00000210: 6813 1fbe 6a2b 2d3c 7ae4 113e e0e7 ea3d
00000220: c699 4a3d ce16 793d 6e6c 3abd 2d93 f83c
00000230: bbe0 d43d 1414 bdbd 11e3 2cbc 1b76 383e
00000240: 8111 f53d 2eee ae3d 8310 053d 0298 143e
00000250: ced6 04bd fa22 17bd 9d00 9dbd c692 b53d
00000260: 780d 0bbe 41cb 0a3d cfde 0c3d 20b4 e3bd
00000270: a14b b13d 5dea 1cbc e4b9 9d3d a1e8 8dbd
00000280: 288c 333d cc91 093e ff96 ca3c e311 e5bd
00000290: 323c 2bbd e190 4bbd ad11 24bc 238d 39bd
000002a0: 3fb4 0f3d d3e0 96bd 88b5 fb3c cd46 1abe
000002b0: e4db 2fbd 766f a63d 5bfb c93d 411d 04be
000002c0: cf5a dfbd 50cd 7d3c 4a19 c53c d7e0 3ebd
000002d0: 44ce eb3d 5ece c2bd 61f3 d6bd dafc 103e
000002e0: 96f5 bdbd ac70 23bd f592 0dbe b15f b93d
000002f0: 9d67 3bbd 4761 b53d 5167 aa3d a5ec 14be
00000300: ed39 ffbd b361 253e 17e1 27be 9a26 f3bd
00000310: 529c 16be 00ea 0b3e 2cb5 25bc 9242 2dbe
00000320: ab94 08be ab7c 193e 9aee b5bd ded0 053e
00000330: 4412 273e 7e3c 5d3d 58e5 aabd 16d9 373e
00000340: fbad 283e 5cde 0b3e 2af2 6abd cd29 053e
00000350: 8bf9 d8bd 282f be3d 0656 283b 8089 163e
00000360: d79a 1d3d f6f7 aa3d f70a efbd c6ca ee3d
00000370: 2a78 18bc 8624 3cbc b870 dc3c 781c 66bd
00000380: 7701 2abe ff67 25be f375 333d 39f3 90bd
00000390: b9ee fabd 6f57 113e e58c 3c3e 281a 40be
000003a0: d231 f1bd 2989 d9bd cd8d 683d 9e5d b83d
000003b0: 9f42 b5bd 5332 d3bd 7fdd e93d 064e d2bd
000003c0: 1ed1 aabd 49aa 2e3e c4fb 0d3b d844 93bd
000003d0: ff74 bc3d 93fb 1bbe 1574 2c3e 14d7 c7bd
000003e0: f235 c13c 6553 cebd 5fa0 023e b61a 3e3c
000003f0: f263 20be ad52 d3bd 9235 e43d 3dea 74bd

egnn.layers.0.coord_mlp.0.bias f4 [32]
-0.044516865 -0.08046187 -0.163188 0.13124506 -0.112239935 0.13983996 0.018952563 -0.076756105
-0.10335313 -0.13683362 0.16294314 -0.05343994 0.027416037 -0.03141444 0.17045343 0.1727854
0.027505334 -0.096962474 0.04874321 -0.16705532 -0.16229115 0.014928257 0.0060657384 0.12335196
-0.079775855 0.030879524 0.09353283 -0.16511898 0.06279306 -0.11986887 0.084942766 0.1029292
00000000: 5157 36bd 31c9 a4bd c11a 27be 1b65 063e
00000010: 0dde e5bd 3532 0f3e 6842 9b3c 4e32 9dbd
00000020: ceaa d3bd 1d1e 0cbe 91da 263e d7e3 5abd
00000030: 9997 e03c 6eac 00bd 588b 2e3e a8ee 303e
00000040: de52 e13c 4394 c6bd f6a6 473d 8d10 2bbe
00000050: a72f 26be a695 743c 1ac3 c63b f49f fc3d
00000060: 8661 a3bd 0ef7 fc3c 248e bf3d f314 29be
00000070: a699 803d cf7d f5bd 79f6 ad3d 8bcc d23d

egnn.layers.0.coord_mlp.2.weight f4 [1, 32]
-0.005428392 -0.0036864006 -0.00920425 -0.0019706977 -0.00970363 0.010965717 -0.017460452 -0.010317088
-0.011412386 -0.014227474 0.007225947 0.007652089 0.015675835 0.013661683 0.0040048338 0.0069055553
-0.014143256 -0.017668724 0.0086908415 -0.008039486 -0.017721348 0.012492534 0.014992676 0.012990973
0.008188813 0.016204745 0.001985837 -0.009260302 -0.01706076 -0.010615389 0.0042971666 0.003819416
00000000: a7e0 b1bb 8a97 71bb 6ccd 16bc d226 01bb
00000010: f9fb 1ebc 8da9 333c 3909 8fbc 0109 29bc
00000020: 04fb 3abc 5a1a 69bc a3c7 ec3b 60be fa3b
00000030: 9c6a 803c 40d5 5f3c fb3a 833b ff47 e23b
00000040: 1db9 67bc 00be 90bc 0864 0e3c 0cb8 03bc
00000050: 5c2c 91bc 7cad 4c3c d7a3 753c 17d8 543c
00000060: 5f2a 063c d0bf 843c d124 023b 86b8 17bc
00000070: 02c3 8bbc 2bec 2dbc 3fcf 8c3b 2b4f 7a3b

egnn.layers.0.hidden_mlp.0.weight f4 [32, 48]
0.058428988 0.03207892 -0.10894515 -0.03336418 0.12576075 0.034744762 -0.12716247 -0.072672606
-0.06444209 0.0204028 -0.11746344 0.12020123 0.09099292 0.023046607 -0.1255197 0.0045980667
0.00026085303 -0.07122439 -0.11246497 -0.15436725 0.05954323 0.012716101 0.039373975 0.12416133
-0.051994976 -0.12530918 -0.121161744 -0.13833745 0.0692497 -0.07260944 0.09269549 -0.07091655
0.0016123672 0.05993384 0.05292776 0.13410673 0.011853936 -0.062025383 0.016661176 -0.04214102
0.108924136 -0.041648347 -0.09795805 -0.039585285 -0.06691695 0.12068792 -0.075297266 -0.05046386
-0.06635855 0.13905504 -0.11214601 0.11001556 -0.0550833 0.09793683 0.0529407 -0.089728795
-0.13248771 0.07740698 -0.08482283 -0.10068824 -0.078195475 -0.028392678 -0.060656812 0.09013299
0.009945946 -0.081906475 -0.105050035 0.05451 -0.03526305 -0.05312337 0.14801797 -0.10921597
0.073829085 -0.06021788 0.0070037507 0.046752825 -0.03625285 0.024324268 -0.06480029 -0.04083321
-0.008623746 0.09734318 0.025748607 -0.046012685 -0.04943974 -0.010329177 -0.060286395 -0.029857205
0.09079215 0.064578615 0.08723916 -0.09637392 0.09158572 0.018088056 0.111624606 4.818866e-06
-0.1071232 0.058843423 0.023171157 0.095044196 -0.053947452 -0.06748097 -0.12341844 0.10416915
-0.10603456 -0.044620607 0.13646469 -0.09606017 0.09748407 0.039497536 -0.12413156 0.09131415
-0.07619827 0.06486952 -0.09879352 -0.13544732 -0.058884364 -0.067638546 0.10850168 -0.024799597
0.14134753 0.0033222563 0.053218104 0.11444336 0.0745646 0.046428777 0.040683724 0.01053046
0.014319631 0.13447624 -0.084983006 0.09271128 0.058824237 -0.06243567 -0.09055467 -0.059881564
0.10982065 -0.13380472 0.029493824 0.1268595 -0.109029494 -0.14696102 -0.13488142 -0.08367259
0.085762255 0.10157141 -0.051198274 -0.11424238 0.065783635 -0.09003155 0.12957996 -0.0026756728
0.06510239 0.016734099 -0.106398895 -0.09945845 0.06658854 -0.083683915 -0.09095319 0.07224913
0.13227391 -0.08026033 0.07886258 -0.025307434 -0.07152679 0.1371903 0.08903148 0.037811473
-0.085852355 -0.07129424 0.08645806 0.010000188 -0.13566822 -0.046106387 0.011055667 0.05246432
-0.07042143 0.09966503 -0.11705164 0.10433776 -0.08556574 -0.11853553 0.107270226 -0.031288184
0.1069741 -0.13708682 0.056986235 0.06420657 0.07181936 -0.054194327 0.007803216 -0.015488406
-0.10765941 -0.05960064 -0.10503798 0.0753755 0.032316945 0.047430664 -0.14024436 0.058311697
-0.074894786 -0.10081105 -0.11082794 0.120978616 -0.0832204 0.09487205 -0.081518896 0.06193226
0.037504226 -0.11464315 -0.09290878 0.0044623753 -0.028496724 0.115908004 -0.124847874 0.044040397
-0.019070502 -0.08028227 -0.12432608 -0.005883976 0.025131682 -0.07270739 0.113480926 0.11505724
-0.12384835 -0.084401414 0.058828924 0.092858784 -0.09054548 0.09432611 -0.112560846 -0.07454489
0.032632608 0.06564105 0.02023111 -0.017359903 0.05184903 -0.098249264 0.056715608 0.14542826
-0.024340283 -0.004226281 0.09879804 0.015620448 -0.028430548 0.11454864 -0.07829822 0.08928589
0.08291353 -0.11050262 -0.032661878 0.048545115 0.015202479 0.018505016 0.11637481 0.1024343
00000000: 3c53 6f3d 3065 033d a31e dfbd e1a8 08bd
00000010: 6dc7 003e 8650 0e3d e136 02be 60d5 94bd
00000020: 37fa 83bd c623 a73c ac90 f0bd 102c f63d
00000030: 7f5a ba3d 3dcc bc3c 3c88 00be 61ab 963b
00000040: 1ac3 8839 18de 91bd 0954 e6bd 7312 1ebe
00000050: 9ae3 733d 3157 503c 9b46 213d 4c48 fe3d
00000060: aff8 54bd 0d51 00be a623 f8bd 55a8 0dbe
00000070: c9d2 8d3d 42b4 94bd 22d7 bd3d b23c 91bd
00000080: 1156 d33a 307d 753d c7ca 583d 4653 093e
00000090: 0337 423c 540e 7ebd 057d 883c 109c 2cbd
000000a0: 9e13 df3d 7597 2abd 3b9e c8bd 2e24 22bd
000000b0: c10b 89bd 3a2b f73d 7435 9abd 31b3 4ebd
000000c0: fee6 87bd 7264 0e3e cfac e5bd d74f e13d
000000d0: 079f 61bd 1b93 c83d 59d8 583d bbc3 b7bd
000000e0: dcaa 07be 8d87 9e3d 98b7 adbd a335 cebd
000000f0: f324 a0bd c397 e8bc 4773 78bd a597 b83d
00000100: 52f4 223c 95be a7bd 7924 d7bd e145 5f3d
00000110: fd6f 10bd e497 59bd 0692 173e 9fac dfbd
00000120: b433 973d 06a7 76bd b87f e53b e47f 3f3d
00000130: de7d 14bd b043 c73c 04b6 84bd b940 27bd
00000140: 9d4a 0dbc dc5b c73d beee d23c cc77 3cbd
00000150: 5381 4abd b53b 29bc deee 76bd 1997 f4bc
00000160: 3cf1 b93d cb41 843d 72aa b23d b15f c5bd
00000170: 4b91 bb3d 672d 943c 719b e43d beb1 a136
00000180: 6963 dbbd cd05 713d 70d1 bd3c 88a6 c23d
00000190: 01f8 5cbd 7633 8abd cfc2 fcbd a356 d53d
000001a0: a628 d9bd 19c4 36bd 66bd 0b3e 32bb c4bd
000001b0: baa5 c73d 2bc8 213d b038 febd ea02 bb3d
000001c0: d70d 9cbd 50da 843d 4254 cabd b4b2 0abe
000001d0: bb30 71bd 1486 8abd 2136 de3d 8628 cbbc
000001e0: 68bd 103e 36ba 593b 3afb 593d 4861 ea3d
000001f0: 53b5 983d 1a2c 3e3d faa3 263d f387 2c3c
00000200: e39c 6a3c 24b4 093e 920b aebd 69df bd3d
00000210: aff1 703d 8cbc 7fbd ba74 b9bd 5f46 75bd
00000220: a6e9 e03d 1b04 09be 089d f13c 75e7 013e
00000230: db4a dfbd f37c 16be 5b1e 0abe 895c abbd
00000240: 1fa4 af3d ac04 d03d 48b5 51bd e9f7 e9bd
00000250: 92b9 863d 7662 b8bd 9cb0 043e 575a 2fbb
00000260: 6754 853d f315 893c aae7 d9bd dfb0 cbbd
00000270: 935f 883d 7962 abbd ab45 babd 5af7 933d
00000280: d072 073e 875f a4bd b482 a13d 8951 cfbc
00000290: a37c 92bd 9d7b 0c3e 2356 b63d 34e0 1a3d
000002a0: 5cd3 afbd b702 92bd ec10 b13d d4d7 233c
000002b0: 9cec 0abe 0dda 3cbd d422 353c d4e4 563d
000002c0: 1c39 90bd 2e1d cc3d c5b8 efbd 09af d53d
000002d0: 173d afbd c2c2 f2bd 7eb0 db3d 0a28 00bd
000002e0: 3d15 db3d 7d60 0cbe 666a 693d bc7e 833d
000002f0: 0716 933d dffa 5dbd 1fb2 ff3b 15c3 7dbc
00000300: 897c dcbd cd1f 74bd 271e d7bd 785e 9a3d
00000310: c65e 043d a846 423d 389c 0fbe 3fd8 6e3d
00000320: 7062 99bd 0676 cebd c2f9 e2bd a3c3 f73d
00000330: 756f aabd 474c c23d 61f3 a6bd aeac 7d3d
00000340: 089e 193d 07ca eabd f546 bebd 1e39 923b
00000350: f671 e9bc 2d61 ed3d 3eb0 ffbd b463 343d
00000360: be39 9cbc 086b a4bd ac9e febd 5ece c0bb
00000370: f5e0 cd3c 9de7 94bd b068 e83d 21a3 eb3d
00000380: 34a4 fdbd a6da acbd 99f6 703d bf2c be3d
00000390: e96f b9bd 0c2e c13d 4d86 e6bd feaa 98bd
000003a0: c5a9 053d d16e 863d b6bb a53c 5b36 8ebc
000003b0: a65f 543d e936 c9bd a04e 683d 25eb 143e
000003c0: 4665 c7bc 9d7c 8abb a056 ca3d e8ec 7f3c
000003d0: 2ee7 e8bc 7a98 ea3d d15a a0bd 85db b63d
000003e0: 92ce a93d 334f e2bd 76c8 05bd 3ed7 463d
000003f0: d213 793c d597 973c eb55 ee3d 13c9 d13d

egnn.layers.0.hidden_mlp.0.bias f4 [32]
0.06081857 -0.007535818 0.030438608 -0.09100949 0.04401514 -0.0055317623 -0.06804581 -0.1093563
0.0341078 -0.08431648 0.02742318 -0.13685113 0.07140175 0.090386294 0.009835291 -0.004476094
0.13422173 0.044182293 -0.094146736 -0.058033794 -0.052307453 -0.08738253 -0.10012222 -0.00569064
-0.11131775 -0.015962612 0.035758123 -0.071278796 -0.05711185 -0.13297625 0.047892846 0.034865096
00000000: e51c 793d 06ef f6bb 635a f93c 2f63 babd
00000010: 3849 343d c943 b5bb 9a5b 8bbd 32f6 dfbd
00000020: 9fb4 0b3d 1eae acbd 94a6 e03c b422 0cbe
00000030: 153b 923d 731c b93d 3324 213c 33ac 92bb
00000040: 6c71 093e 7ef8 343d 01d0 c0bd d8b4 6dbd
00000050: 5740 56bd 9df5 b2bd e10c cdbd 8c78 babb
00000060: 8ffa e3bd 06c4 82bc 1c77 123d 9efa 91bd
00000070: 1dee 69bd ed2a 08be 4a2b 443d b4ce 0e3d

egnn.layers.0.hidden_mlp.2.weight f4 [16, 32]
-0.13538289 -0.1071351 -0.029755047 0.0021849074 0.010572163 0.15409715 -0.16063446 0.07316653
0.13573372 0.16107747 0.032815754 0.15774766 -0.09296638 -0.12278646 -0.040175553 -0.091504075
0.08328603 -0.047750928 0.08723575 -0.06462983 -0.0732729 -0.052843977 -0.019399697 -0.0833552
0.09785907 0.11194911 0.032994248 -0.1705779 0.14326194 -0.12964663 -0.12069432 0.089957595
-0.10208434 -0.13599877 -0.13411085 0.14954051 0.050089866 0.08641318 0.03473583 0.08021611
0.17788309 -0.02755408 -0.11312425 -0.037898265 -0.06422287 -0.16978994 -0.1369583 -0.060336236
0.032632507 0.090414986 0.11674495 -0.17463632 -0.014589753 -0.032896906 0.15099406 -0.045880374
0.183601 0.042915132 0.024695879 0.07824215 0.13524905 -0.092368394 0.07379325 -0.067517236
0.045646586 0.10573422 -0.07954504 -0.04562108 0.16113698 -0.16646011 -0.029984867 0.145697
0.03856058 -0.14478888 0.0071534733 -0.14346614 -0.064297765 0.035578575 0.09622396 -0.0982518
0.15063886 -0.12440832 -0.035411704 -0.15150252 -0.006206717 -0.0035779283 0.07530733 -0.11763351
0.008842061 0.056579478 -0.11270727 0.1552837 -0.036892615 -0.1792682 -0.03099737 0.041824475
-0.090018965 -0.067589976 0.07718309 -0.03326778 0.0643362 0.012046335 -0.0047444548 0.14676812
-0.029101074 0.14194974 -0.06090021 0.11342181 0.092201486 -0.11261823 -0.04213157 -0.11806809
0.035507385 0.0063389777 -0.058516137 0.15233116 0.16817404 -0.12542526 -0.096221305 0.017449975
0.110324375 -0.10702802 -0.012833746 -0.03130317 -0.14057264 -0.011692326 -0.0062240246 0.04391207
0.12541333 -0.009569572 0.12817971 -0.06292908 -0.11532565 0.068493515 0.120128796 -0.0062395553
-0.12165475 -0.083567105 -0.09173405 0.042615123 0.048017047 -0.1553562 -0.027252857 0.03949497
-0.07399307 0.17308725 0.14274906 -0.08604836 0.019741636 -0.02912145 -0.15362912 0.014371975
0.12357765 0.099108346 0.0860345 -0.059075758 -0.09921067 -0.15217324 -0.15565245 0.0077837803
0.12900382 0.040283643 -0.035765935 0.022145087 0.03778027 -0.078792915 0.11030234 0.07602105
-0.05296147 -0.011355022 -0.15738086 0.087787956 0.022621963 0.13525666 0.05847098 -0.15253519
-0.04162827 0.09958497 0.15153913 0.046218123 0.15512648 0.17499943 -0.059595473 0.03137667
0.15136835 -0.019778868 -0.098890156 -0.12964876 -0.069516934 -0.18719694 -0.07892962 0.087270856
0.13651194 0.02235665 -0.06611629 -0.106890544 -0.13592717 0.031013254 0.16426612 -0.111323155
0.16996129 -0.0757294 -0.11522864 0.09994364 -0.11038288 0.16286696 -0.15493546 0.10502827
0.16035192 -0.062104642 -0.10629136 -0.058489464 0.14504911 -0.12880543 0.14810054 0.15576051
-0.07854779 0.13580471 -0.00020216843 0.03242328 -0.003986397 0.0342406 0.16540831 0.02998595
0.016848423 -0.10289034 0.12166303 -0.060252197 -0.14015274 -0.16882186 0.16399004 0.06908004
-0.07442485 -0.10879366 0.005474354 -0.030113304 -0.0009940101 0.1399622 -0.088504024 0.029919818
0.09511923 0.13568851 0.032855973 -0.11671203 -0.034338832 -0.024581915 -0.04927678 -0.16576391
-0.008563712 0.15357614 -0.07998416 -0.07192942 -0.11716458 0.038707133 -0.10619546 0.019848315
00000000: d0a1 0abe a669 dbbd dbc0 f3bc aa30 0f3b
00000010: de36 2d3c a5cb 1d3e 5c7d 24be 55d8 953d
00000020: c8fd 0a3e 7ef1 243e d069 063d 9a88 213e
00000030: 2865 bebd 7877 fbbd 1f8f 24bd 7d66 bbbd
00000040: de91 aa3d 7a96 43bd a8a8 b23d a55c 84bd
00000050: 1a10 96bd ed72 58bd 1dec 9ebc 22b6 aabd
00000060: 566a c83d 9345 e53d fa24 073d f9ab 2ebe
00000070: 42b3 123e 16c2 04be 952e f7bd b03b b83d
00000080: 9811 d1bd 4343 0bbe 5b54 09be 2621 193e
00000090: 082b 4d3d 65f9 b03d 2847 0e3d 5848 a43d
000000a0: fc26 363e 18b9 e1bc b0ad e7bd 363b 1bbd
000000b0: 4887 83bd 6add 2dbe cc3e 0cbe 2123 77bd
000000c0: aaa9 053d 7e2b b93d fa17 ef3d ddd3 32be
000000d0: dc09 6fbc e8be 06bd 309e 1a3e 0fed 3bbd
000000e0: e701 3c3e c7c7 2f3d 034f ca3c 6c3d a03d
000000f0: ba7e 0a3e a42b bdbd ea20 973d 7a46 8abd
00000100: eaf7 3a3d 2f8b d83d 83e8 a2bd 2bdd 3abd
00000110: 1801 253e 8574 2abe d3a2 f5bc 9831 153e
00000120: b3f1 1d3d 8943 14be af67 ea3b cae8 12be
00000130: 8cae 83bd d7ba 113d 1111 c53d 3d38 c9bd
00000140: 1341 1a3e cac9 febd dd0b 11bd 7a23 1bbe
00000150: b761 cbbb ad7b 6abb bb3a 9a3d d6e9 f0bd
00000160: 4bde 103c e2bf 673d 12d3 e6bd b102 1f3e
00000170: b61c 17bd 1592 37be 32ee fdbc 2450 2b3d
00000180: dd5b b8bd 9d6c 8abd 2b12 9e3d cc43 08bd
00000190: b3c2 833d fe5d 453c 5f77 9bbb 624a 163e
000001a0: 6065 eebc 465b 113e 8072 79bd b249 e83d
000001b0: 22d4 bc3d 63a4 e6bd 2792 2cbd afcd f1bd
000001c0: 3170 113d 33b7 cf3b 9eae 6fbd b3fc 1b3e
000001d0: d135 2c3e 7b6f 00be ad0f c5bd 40f3 8e3c
000001e0: bff1 e13d 8231 dbbd a244 52bc c137 00bd
000001f0: 46f2 0fbe 2b91 3fbc e7f2 cbbb 25dd 333d
00000200: 5a6c 003e b2c9 1cbc 8b41 033e f6e0 80bd
00000210: db2f ecbd 5446 8c3d 1606 f63d 2f75 ccbb
00000220: 2026 f9bd 3b25 abbd 10df bbbd 328d 2e3d
00000230: 86ad 443d b215 1fbe 6241 dfbc 7ac5 213d
00000240: ae89 97bd c93d 313e cf2c 123e 1f3a b0bd
00000250: 36b9 a13c 1b90 eebc f450 1dbe 6f78 6b3c
00000260: 4716 fd3d 51f9 ca3d db32 b03d 6cf9 71bd
00000270: f72e cbbd 4dd3 1bbe 5b63 1fbe 150f ff3b
00000280: 9419 043e 7600 253d 4d7f 12bd 9d69 b53c
00000290: 7cbf 1a3d 2e5e a1bd 31e6 e13d edb0 9b3d
000002a0: 20ee 58bd 6a0a 3abc 7328 21be 2cca b33d
000002b0: b251 b93c b980 0a3e 447f 6f3d 2f32 1cbe
000002c0: 6882 2abd 34f3 cb3d 132d 1b3e 374f 3d3d
000002d0: 7ad9 1e3e 0d33 333e 621a 74bd d384 003d
000002e0: 4e00 1b3e 4b07 a2bc ec86 cabd a5c2 04be
000002f0: e55e 8ebd 8eb0 3fbe daa5 a1bd 10bb b23d
00000300: c9c9 0b3e 4b25 b73c fa67 87bd 6ee9 dabd
00000310: 7e30 0bbe 820f fe3c 6135 283e 65fd e3bd
00000320: 550a 2e3e 0418 9bbd fefc ebbd 40af cc3d
00000330: 6b10 e2bd 99c6 263e 67a7 1ebe 1019 d73d
00000340: 4b33 243e 7061 7ebd 49af d9bd a692 6fbd
00000350: c187 143e 92e5 03be aba7 173e af7f 1f3e
00000360: aadd a0bd 6410 0b3e 2dfd 53b9 46ce 043d
00000370: 52a0 82bb df3f 0c3d cc60 293e 18a5 f53c
00000380: b405 8a3c 2cb8 d2bd 772a f93d 02cb 76bd
00000390: 3384 0fbe a3df 2cbe 01ed 273e d679 8d3d
000003a0: 0e6c 98bd 36cf debd 3662 b33b 2db0 f6bc
000003b0: 7249 82ba 4052 0f3e 9941 b5bd 681a f53c
000003c0: dfcd c23d eef1 0a3e fc93 063d b706 efbd
000003d0: e0a6 0cbd 0360 c9bc 73d6 49bd 04be 29be
000003e0: d04e 0cbc 1043 1d3e bcce a3bd bb4f 93bd
000003f0: fcf3 efbd 5f8b 1e3d 017d d9bd ef98 a23c

egnn.layers.0.hidden_mlp.2.bias f4 [16]
0.0009607638 -0.08964172 0.094565764 -3.5430605e-06 -0.06845378 0.039389256 -0.07942324 -1.9500987e-05
-0.064507045 6.278086e-05 0.0008538709 0.08483675 -0.021262994 0.04894337 1.1669403e-05 0.054449145
00000000: c4db 7b3a 1496 b7bd b2ab c13d 51c5 6db6
00000010: 7f31 8cbd a156 213d a7a8 a2bd 0d96 a3b7
00000020: 451c 84bd 38a9 8338 4ed6 5f3a e4be ad3d
00000030: bb2f aebc d878 483d b4c7 4337 1106 5f3d
