2-egnca-rework/logs/line4-2024-10-05@23-20-03/best@28.pt (torch, 25525 bytes, 11 tensors)

egnn.layers.0.message_mlp.0.weight f4 [32, 33]
00000000: f47c 593d bd0b bf3d fc81 2cbb 59cd d23d
00000010: 5351 52bd fa58 0b3d 4cf6 49bd 4399 30bc
00000020: 3e4e 22bd 74ce eb3c 2b90 0c3e e4e5 0d3e
00000030: 40c4 e4bc d4e1 6cbd ff45 d8bc 9c4d 1b3e
00000040: b6ed 163e aa5b 4dbd 3669 68bd e684 29bd
00000050: 05af f23d b308 123e c59b f9bd efb2 70bd
00000060: 00f4 1fbe 431c 2d3e 580b fe3c 05bf 4e3d
00000070: 8dcd be3d a59b 343d c2f9 14bd 400e 2bbe
00000080: 5bae 463d 7332 cfbc 5540 2bbe bbc6 c3bc
00000090: 2c05 c2bd 7724 c7bd a7a6 02be 8d62 0ebe
000000a0: a79e 3ebc 0823 bf3c 8115 20be 251d 24be
000000b0: a49b c13a 2e19 27be 1356 ae3d 1edc 35bd
000000c0: e295 cebc 3fee 22be c357 01be b4ec 7a3d
000000d0: 0195 c8bd cb60 8cbd 0743 21be d7f8 b03a
000000e0: 3a31 e0bd cf76 363d f119 633d 276c 103d
000000f0: b589 813d 070a f4bd c8dd 6d3c d3dc 19be
00000100: 001c f9bd 1542 0f3e 0cfc f23d 62ba 02be
00000110: 9a97 c93d 0b70 0ebe eeed cf3c 698c 233e
00000120: 5dbe d43b 8083 8c3d 201a 1f3e 4f5b 89bd
00000130: 9ca9 043e 767d d13c 3c92 1dbd 85c6 1fbe
00000140: 8a9b 2b3e 8b16 323e 2404 9abd 9926 233d
00000150: 81f7 35be 61ed 063d 6647 c33d 7f5c a33c
00000160: fe6b c2bd 254b 243e 913b c6bd 22c1 a23c
00000170: ea67 23be 614b 923d c302 f23d eb3c 183d
00000180: f358 073e ae51 32be 58ce c8bd 7750 263d
00000190: 886a ac3d 2c7b 29bd 48d9 533d 1807 2dbe
000001a0: 8492 303e 15d2 0ebe ca25 23be b257 06be
000001b0: ec0e 323e 8afd 383d c2f1 59bc d18c 233d
000001c0: 568c 36ba e40f f7bd 909e e73d bc7d 13be
000001d0: 5c41 1bbd 7ce5 c53c a9b6 cfbd 9a4f 2c3d
000001e0: 2f87 1dbe 3a12 abbd 91e5 1b3e 2b2b 6a3d
000001f0: 358a 10be db57 2c3e a055 42bd 18c6 ed3c
00000200: df6c 0cbd faff d4bd 5c11 033d 9f5a 09bd
00000210: 2fbd b5bd 1913 c63d a193 b43d 93e2 f43d
00000220: b901 efbc 07a1 c9bc bff6 bd3c 7514 223e
00000230: c47a 1cbe 80a2 1cbc 700a b13c c343 a83d
00000240: dc13 2abe ee52 3bbe 93c0 ebbb f996 703d
00000250: 5260 89bd 6d6a 0c3e 8a25 093d 9348 7bbd
00000260: 166b 6ebd 3d6d 12be 23b9 c63d ce36 13bd
00000270: 17d9 bc3d b19e 37be b792 fe3d 4984 733d
00000280: 27e7 e2bd 6539 c8bd f6da 023e b766 a03d
00000290: 9a2a a53d 9d83 043d 9ee9 bdbd 64eb e8bd
000002a0: cdfb 45bd c850 49bd e29b d3bc a217 52bd
000002b0: 1ffa 10be 8049 26be 6eb7 fdbd 7c7e b63d
000002c0: 7218 e3bd 54d8 07be 83a0 9abd 4f39 643d
000002d0: 2fca 57bd 4e7f b739 de7d a63c 7733 f4bd
000002e0: a1b3 43bd 87b6 5fbd 7faf e1bb 92ed e6bd
000002f0: 169a 02bd facf 8a3c 9987 5d3d e8b8 debd
00000300: 5714 1b3e e3e7 2d3d ca13 0abe 1ba2 223e
00000310: 04ac dfbd 00de 613b 6111 013e 69ba 3dbd
00000320: ce52 343d a9cc a03d 118c 7fbd 576a 993c
00000330: 7b17 f63d 1ee8 d2ba c8fe 4bbd 25cb fb3d
00000340: 2734 093d cf96 eebd 4484 a33d b8f2 0e3e
00000350: fe18 193c 5c08 153e 4332 e5bd 0dd5 283e
00000360: 395c c93d 11b6 83bc 190c 26be 9067 2a3e
00000370: f9a5 8dbc 2a63 aa3d ac5d c9bd d7c2 5f3d
00000380: d5bc e2bc 6dc2 263d aee9 743d e74a eebd
00000390: 710c 07be a9ab 1cbc 0a2d 39bd 7884 de3d
000003a0: 45df a1bd 3495 383d 70f7 22be cc89 a43d
000003b0: 0142 e63d 721b cb3c 80de dc3c 320e c83c
000003c0: 5b8d 20bc eb30 08bd c6e9 013e cb2a 58bd
000003d0: 8c70 94bc 67b2 98bc b356 c8bd db84 07be
000003e0: a244 d2bd f7e2 c1bc 7a86 06be c9e9 683d
000003f0: 5bb8 ffbd 650c 49bd 124e 99bd 2631 a6bd
0.05309768 0.09328411 -0.0026322594 0.10293073 -0.051347088 0.0340204 -0.049307153 -0.010778728
-0.0396254 0.028784968 0.1372687 0.13857228 -0.02792561 -0.057832554 -0.026400564 0.15166324
0.14739117 -0.050136246 -0.056740962 -0.041386507 0.118497886 0.14261131 -0.12187914 -0.058764394
-0.15620422 0.16905312 0.031011268 0.05047514 0.093165495 0.044093747 -0.036371 -0.16704655
0.048506122 -0.02529261 -0.1672376 -0.023898473 -0.09473643 -0.09723752 -0.12758885 -0.13904782
-0.011634505 0.023332134 -0.15633203 -0.16026743 0.0014771116 -0.16318199 0.08512511 -0.044399373
-0.025217954 -0.15911196 -0.12631135 0.061260894 -0.09794045 -0.06854399 -0.15748225 0.0013501894
-0.10946889 0.0445469 0.05544466 0.035259392 0.06325094 -0.11915975 0.014518209 -0.15025644
-0.12163544 0.13990052 0.118644804 -0.12766412 0.09843369 -0.13909929 0.025382008 0.15971531
0.0064924196 0.06861019 0.1553731 -0.06706869 0.12955326 0.02557252 -0.038469538 -0.15603073
0.16758552 0.17391412 -0.07520321 0.03983173 -0.17770196 0.032941226 0.095351025 0.019941567
-0.09493254 0.1604429 -0.0967933 0.019867484 -0.15957609 0.07143284 0.11816933 0.03716747
0.13217525 -0.17413971 -0.09804982 0.04060408 0.08418757 -0.04137723 0.051720887 -0.16897237
0.17243391 -0.13947327 -0.15932384 -0.1311939 0.17388505 0.04516367 -0.013302268 0.039929215
-0.00069636607 -0.12063578 0.1130954 -0.14403433 -0.03790413 0.024157278 -0.101422615 0.0420681
-0.153836 -0.08353086 0.15224291 0.057170074 -0.14115222 0.16830389 -0.04744494 0.029025123
-0.034283515 -0.10400386 0.031998977 -0.03353369 -0.088739745 0.09671611 0.088172205 0.11957278
-0.029175626 -0.024612917 0.023188947 0.15828116 -0.15281206 -0.009560227 0.021611422 0.082160495
-0.16609138 -0.18293354 -0.0071945875 0.05873773 -0.06707825 0.13712473 0.033483066 -0.06134851
-0.058207594 -0.14299484 0.09703281 -0.035940938 0.09221094 -0.1793163 0.124303274 0.05945233
-0.11079245 -0.09776572 0.1277884 0.07832091 0.08064766 0.03235208 -0.092730746 -0.11373022
-0.04833584 -0.049149305 -0.025831167 -0.05129207 -0.14157914 -0.16238976 -0.12388502 0.08910844
-0.11088647 -0.13266116 -0.075501464 0.055718716 -0.05268305 0.0003499933 0.02032369 -0.11923879
-0.04777873 -0.05461743 -0.006887376 -0.11275782 -0.03188523 0.016944874 0.054084394 -0.10875112
0.15144478 0.042457473 -0.13484111 0.15882151 -0.10921481 0.0034464598 0.12604286 -0.046320353
0.04402428 0.07851536 -0.062389437 0.018727465 0.12016197 -0.0016090905 -0.049803525 0.12294606
0.033497002 -0.11649858 0.07984212 0.13959777 0.0093443375 0.1455397 -0.11191227 0.16487522
0.09832043 -0.016078027 -0.16215552 0.16641068 -0.017291056 0.08319695 -0.098323196 0.054629173
-0.027677933 0.040712763 0.059793167 -0.1163538 -0.1318834 -0.009562411 -0.04520897 0.1086511
-0.079039134 0.045064166 -0.15914702 0.08034095 0.11243058 0.02479336 0.026961565 0.024420831
-0.009799327 -0.033249777 0.12686834 -0.052775186 -0.018120073 -0.018639756 -0.097821616 -0.13234274
-0.10266997 -0.023667796 -0.13137236 0.05686358 -0.12486335 -0.049084086 -0.07485594 -0.08114843

egnn.layers.0.message_mlp.0.bias f4 [32]
00000000: b241 1abd 4664 75bc a314 443d c772 20be
00000010: 6679 843d d8bc 1cbe f6fd 2ebd af2b 15be
00000020: ec5d 15be 7524 b9bd 367a ff3d a43c 23be
00000030: 4355 9e3d 037e 8ebb f30d 0ebe afff 363d
00000040: 233a bcbd 3f6d d7bd b05c 193d 5cd5 05be
00000050: c5f0 0b3c 587f 653d 6b26 543d ef9e bf3d
00000060: 25f7 15be 38e0 603d 56c7 e93d b71f 21be
00000070: 3b14 903d c98b 6c3c 16c6 743d 6c14 28be
-0.03766031 -0.01497752 0.047871243 -0.15668784 0.064684674 -0.15306413 -0.042722665 -0.14567445
-0.1458661 -0.09040157 0.12474482 -0.15941101 0.07731106 -0.004348518 -0.13872509 0.044677433
-0.09190776 -0.10518884 0.03744191 -0.13069671 0.008541291 0.056029648 0.05179445 0.09356486
-0.1464506 0.05490133 0.114149734 -0.15734755 0.07035109 0.014437624 0.059759222 -0.1641404

egnn.layers.0.message_mlp.2.weight f4 [32, 32]
00000000: 2776 e43d 57ea 1bbe 2348 9b3d 8829 2a3e
00000010: 34d5 07bd c47a a73d 79f2 bdbc fdde c43d
00000020: 7c5a 21be 41d9 423b 0121 3b3e a43d 1dbd
00000030: 6e54 0cbe 2b79 0ebe 5078 2d3d ca29 1f3e
00000040: 24ed 30be 143f e53d ef6c 07be 6dfc 9a3d
00000050: 4999 043d c992 4b3d 2f3c 22be afbc 2b3e
00000060: 8f6a 273d 0966 6cbc a970 03be 0e44 dd3d
00000070: 8a80 253e 36ce a13d 8d14 9cbc 7fe5 37bd
00000080: 81a5 39be 7e78 e93d 4e1d bdbc 250e 26be
00000090: 3e43 80ba aed5 093d cf7a eb3d eb98 703d
000000a0: 085a f4bd 30d5 4cbd 9f6f 2cbe 56f9 9f3d
000000b0: 512f a13d 0abb d3bd 3705 2c3d 0663 f63d
000000c0: a8e2 253e 9082 f63d 3ded 873d 62e6 1e3d
000000d0: 6f34 873d 015b 283e 9036 f93d 54aa dc3c
000000e0: 2115 b73c 74d9 f33d 54c7 303e 73f6 e8bd
000000f0: 699b a3bd a736 3f3e 24c2 a4bd f94b 26bd
00000100: fb1a 123e 0c33 82bd db65 313e c98d c7bd
00000110: 2b67 94bd be8a 133c d77a 683c 7e1c 233e
00000120: 2c48 95bd e287 8d3d 134b dabc 4da4 c7bc
00000130: 8993 17be c16b 243e feba bdbd 3b7a 23bd
00000140: 14e3 a9bd 2948 273e d5d6 90bd f83a 1ebd
00000150: 645c c83d 2700 263e 63f6 223e dee9 c4bd
00000160: 4499 80bd 187f 133e 514e 9c3d 32b2 093e
00000170: a7e6 653d e295 d5bd 2c82 afbc cdc0 abbd
00000180: ed75 15be e402 4e3d 677b bf3d f49e 8a3d
00000190: 27e2 0e3e e2b5 8dbd ffc1 733d 3b9c 5fbd
000001a0: 4e9e 1c3e 0957 3bbc 86fe 003e a668 0f3e
000001b0: fd05 f9bd b3ff 2abd baff 1a3e 51c0 adbd
000001c0: 0b2f 2cbd b2c4 143e b3f5 143e 0c47 ea3d
000001d0: 49f1 923c 2905 e93d 84e9 20be 03e9 a83d
000001e0: 7531 f6bc 604c 06be c22e 253d 295f 113b
000001f0: c1cf 893d c4e5 76bd f7d2 2f3e 3c65 37be
00000200: 5064 303e 8356 96bd a0f7 ca3d 3ebe 9cbc
00000210: a53e 40bd 9085 08be 3051 0ebe e5b5 ab3c
00000220: fd46 cdbd 342e fabd 448a 1dbe ad5e 213e
00000230: 445c 2e3d 2a16 873c 697e 45bd bc48 1dbe
00000240: 4942 ce3d 65a6 103e d3bb 103d 7230 4c3d
00000250: ac42 1dbb 6df6 7f3d 05b0 3c3b e7b4 e6bd
00000260: 29ac b0bc cf12 213e 8dc8 d4bd dfd8 1f3e
00000270: ea9f d2bd c0c0 e0bc 769d ec3d b52f e6bd
00000280: 084a 01bd f93e 0abe 1762 3cbc 4b15 ce3d
00000290: 54d2 abbd 928b 0cbd a51f 823b 1e2d e43d
000002a0: c3a0 ad3c ec3a c7bc c2ca ccbd 590b 08be
000002b0: d739 2e3e 5a7a 5dbd 104f d63d acd3 a6bc
000002c0: 83b1 adbd 8d5f 80bd 985e 14be ad62 18bd
000002d0: 7701 a53c 881d a2bd 8939 523d 7a13 b13d
000002e0: dbc6 ebbd bd05 59bc 92d5 f23d b3c0 2dbe
000002f0: 1258 d13d 2646 47bd fba9 83bd cd00 d4bd
00000300: 988a 31bc f977 503d c63d 9abd 9e3b 83bd
00000310: a0d1 b93d 5783 aabd 5588 583c c35f d23d
00000320: eeaf fabb 9821 57bd 67aa debd b356 34bd
00000330: 1d94 2bbd e359 ea3d e509 3f3c 3e02 11be
00000340: 3ce8 3bbc e4fb d7bd 5a50 3d3e 6f1f 27bd
00000350: cc1e 26be 27ae afbd 1569 db3d 110b 2a3e
00000360: afbc e8bd dba9 2ebe e4c0 3dbd 1e7d 4abd
00000370: 6c7a abbd f034 c53d 3731 513c b4b6 0b3e
00000380: 2198 003e 9148 dc3c 96a6 0d3e 0b6c 01bd
00000390: 0687 773d 6a1e e2bd 1b6b 143d 17cb 923d
000003a0: 21cf 33be 2cb5 1d3e 171f f73d 8e52 cebd
000003b0: 88b4 733d c1fd 2c3e 8fc9 6fbd 64b5 9b3b
000003c0: 498e bcbc a291 d2bd 8f47 b53d 99be 96bd
000003d0: 8d9a 4f3d 4cef 053d c196 a73d 33ec 2a3e
000003e0: 34da 733d 28df ebbc f344 5bbd c99f 153e
000003f0: f853 db3d 74fa 1f3e b1ae 8ebd 93c0 d03d
0.11155348 -0.15226112 0.07582118 0.16617405 -0.03316231 0.081777126 -0.023186909 0.09612844
-0.15757173 0.0029731544 0.18274309 -0.038388863 -0.13704082 -0.1391341 0.042351067 0.15543285
-0.17277962 0.11193672 -0.13225149 0.07567678 0.032372747 0.049700532 -0.1584327 0.16771196
0.040873107 -0.014428624 -0.12835945 0.10803996 0.16162315 0.0790066 -0.019052768 -0.0448966
-0.18129541 0.11399935 -0.023085263 -0.16216333 -0.0009785665 0.033651046 0.11498033 0.058739584
-0.119312346 -0.050008 -0.16839455 0.07811229 0.07870353 -0.10338409 0.04199716 0.12030606
0.16199744 0.120366216 0.066370465 0.03879393 0.06601798 0.16440965 0.1216861 0.026936688
0.022348942 0.1190671 0.17263538 -0.113751315 -0.079886265 0.18673192 -0.08044842 -0.040599797
0.14268105 -0.06357393 0.17324011 -0.0974384 -0.0724624 0.009005247 0.014189444 0.15928838
-0.07289156 0.06910683 -0.026647126 -0.024370337 -0.14802374 0.1605673 -0.092641816 -0.03991149
-0.08295265 0.1633612 -0.07072226 -0.038630456 0.09783247 0.16210996 0.15914302 -0.09614919
-0.06279233 0.14403951 0.07632125 0.13446882 0.05612817 -0.104289785 -0.021424375 -0.08386383
-0.14595766 0.050295725 0.09349709 0.06768599 0.13953458 -0.06919457 0.05951118 -0.054592352
0.15294763 -0.011434325 0.12597093 0.14004764 -0.12159345 -0.04174776 0.15136614 -0.08483947
-0.04203705 0.14528158 0.14546852 0.11439332 0.01793732 0.11377937 -0.15714079 0.082475685
-0.03005288 -0.13115072 0.040327795 0.0022181964 0.06729079 -0.060277715 0.1717032 -0.17909712
0.17225766 -0.073407196 0.09910512 -0.019133683 -0.046934742 -0.133322 -0.13898158 0.020960758
-0.100233056 -0.12215844 -0.15384775 0.15758772 0.04256846 0.01649006 -0.048216257 -0.15359777
0.10071237 0.14125974 0.035335373 0.04985089 -0.0023996038 0.06249087 0.002879144 -0.11264973
-0.021566467 0.15729831 -0.103898145 0.15610074 -0.102844074 -0.02743566 0.11553471 -0.11239568
-0.031564742 -0.13500585 -0.011497996 0.10062655 -0.08389726 -0.034312792 0.0039710575 0.11141418
0.021194821 -0.024320088 -0.099996105 -0.13285579 0.17014252 -0.05407176 0.10464299 -0.020364605
-0.08481123 -0.06268225 -0.1448921 -0.03720348 0.0201423 -0.07915789 0.0513244 0.08646293
-0.11512538 -0.013245997 0.118571416 -0.1696804 0.10221876 -0.048650883 -0.064289056 -0.10351715
-0.010836266 0.050895665 -0.075313136 -0.064078555 0.09073186 -0.08325832 0.013216098 0.10272171
-0.007650367 -0.052522272 -0.108723454 -0.044027995 -0.0418893 0.11442926 0.011660074 -0.14161012
-0.011468943 -0.10546091 0.18487683 -0.04080146 -0.16222686 -0.08578139 0.10713402 0.16605784
-0.113641135 -0.17056982 -0.046326533 -0.049435727 -0.083729595 0.09629238 0.012768081 0.13643914
0.12558033 0.026890071 0.13833079 -0.03159718 0.060431503 -0.11040957 0.036234956 0.071676426
-0.17559482 0.15401143 0.12066477 -0.1007434 0.05949834 0.16893674 -0.05854183 0.004751848
-0.023017066 -0.102816835 0.08851539 -0.07360572 0.0506845 0.032698914 0.08183051 0.16691665
0.059534267 -0.028792933 -0.053532552 0.14611734 0.10709375 0.15622884 -0.069669135 0.101929806

egnn.layers.0.message_mlp.2.bias f4 [32]
00000000: 702f 683a aecd e63d ccfd 873c 80e1 273e
00000010: bc58 d3bc fe46 23be c0eb 1dbe 5b05 acbd
00000020: 427f 793d 1ee0 cc3d 9a65 9b3d 063b 1c3e
00000030: 67f3 2fbe c458 9d3d 2a48 97bc 00da 07be
00000040: a716 293d 36bb 273e 1e64 503d d9a5 e23d
00000050: 5ab3 c63d 03e3 dcbd 33d2 2fbe 051f 29be
00000060: c57a 143e 568b 02be 9f98 62bd 811d 133e
00000070: cd80 1b3e b3d7 f1bd f1c9 9d3d 2d7b a4bb
0.00088571664 0.11269699 0.016600512 0.16394615 -0.025799148 -0.1594505 -0.15421963 -0.08399459
0.060912378 0.100036845 0.07587738 0.1525689 -0.17182694 0.07682946 -0.018467028 -0.13266754
0.04128137 0.16380009 0.05087673 0.11066789 0.09702177 -0.107854865 -0.17170028 -0.1651574
0.14499958 -0.12748465 -0.055321332 0.14366724 0.15185852 -0.118087195 0.07704533 -0.0050195665

egnn.layers.0.coord_mlp.0.weight f4 [32, 32]
00000000: d78f 0cbd 064a 6ebb b378 753c 8d4f 2fbe
00000010: 79b6 f2bd 579d a73d 3c9f cd3d c49b 753d
00000020: 8173 ddbd 68a4 9fbc 6f1c f33d 59ac e3bd
00000030: b4c0 fe3d 733b 833d c1d0 d7bd 1b0d 29be
00000040: 9c50 993d 935e 333d cfab c9bd 9927 07be
00000050: b09d 243d bda8 8e3d 82b2 8dbd 6b2a 183e
00000060: e383 ff3d d7c1 d53d d015 103e 7a71 dcbd
00000070: c530 173e e2fb 21be d560 3fbd 90fb 05be
00000080: 7482 1ebd f25a 1fbe 6a54 14be f2e0 ecbd
00000090: bae8 fc3c e719 e7bd 2a1b 1c3c b256 183d
000000a0: df56 1bbe baf5 0a3e 5aab 2abd d5b9 f13d
000000b0: de30 b4bb d794 dd3d 224c 7e3c 95f6 e5bd
000000c0: dcc3 27be 4b45 05be c837 d6bd 7aed f1bd
000000d0: 1ff2 313e c595 02be 60df 603c dd13 f0bd
000000e0: dd1b 063e 853e 71bc 7a6d abbd f8f5 c33c
000000f0: 5b22 b5bd cb6f a73d efc2 1dbc 9cd1 febd
00000100: b992 27bd 08bf 84bb 1d57 05bc 173d 98bd
00000110: 9527 133d 5f46 343e 21cf d5bd d332 8abd
00000120: 025b f43b 2c3f f33d e411 9dbd d2fd 0abe
00000130: 0282 2a3e a35f 833d 2909 9b3d a052 3bbd
00000140: 81e4 173e 4e96 fd38 03d3 653d 3ec0 283e
00000150: 7c47 e9bd 712c 00be 2d75 e93d fef6 d03d
00000160: 097a 3339 5425 a6bd e30f 1b3e e598 0ebe
00000170: 6967 acbc 57c2 1fbe 306a 053e 4742 043d
00000180: 7a71 67bd 9bd5 edbd 19a5 1bbd a23a 0fbe
00000190: 6371 1c3e 12b8 c6bd 047d e7bb 636f d13c
000001a0: a0d5 e03d cbf7 89bc f058 fb3c 6617 0cbc
000001b0: 2fa9 913a 1fb8 d03d 7c63 e43d 080b 96bc
000001c0: 6215 5a3d 0657 18bd 4bd3 9a3d 72d0 423c
000001d0: a4d9 babb 72d2 943b 409f 093e e0fc e93d
000001e0: 5392 01bd f728 f93d 4e55 263c 9cff 89bd
000001f0: 59e9 b0bd 090c c83d 4464 76bd b44d 72bc
00000200: 3ad4 a0bd 1a2e e1bd bb0c 043e e72b 143e
00000210: b055 1dbe f524 f13b 1b01 083e 0d29 053e
00000220: 3a52 503d 652b 633d 01b3 12bd 2a1b ec3c
00000230: 8600 cc3d d7f6 bfbd 0859 1abc a3e8 333e
00000240: bc9c f13d 2ba8 ac3d 058b f33c b17e 173e
00000250: 74de ddbc f60f 41bd ed26 a0bd 4b2d ba3d
00000260: bb37 0abe c507 d33c aaa5 ec3c 2b68 cbbd
00000270: 5d52 bc3d 85de 89bc 100f 973d bc78 91bd
00000280: 6f5e 1e3d a93d 0a3e 6549 7b3c 8ef5 debd
00000290: fa0e 31bd 057b 3ebd 936a 3dba 61f2 75bd
000002a0: 8b81 093d f1a2 8cbd dcc4 af3c d303 19be
000002b0: d808 1ebd 90b7 a83d 345e c83d 6439 ffbd
000002c0: ce54 dcbd 2f32 863c e953 d93c bd7c 4abd
000002d0: 2a21 e13d cbda aebd 80f5 d3bd 2a0b 0f3e
000002e0: d0ca bfbd 4630 04bd 3455 08be 49bb a13d
000002f0: ebb6 4fbd 2e56 c33d bb8e b03d 1c8e 13be
00000300: 9cf7 f5bd bcfb 253e 5433 1ebe f86a f7bd
00000310: 9c32 16be 4004 073e 37d5 a7bc e071 1cbe
00000320: 45d9 05be e046 153e 1404 a3bd 7da7 053e
00000330: d410 213e 79cb 5c3d 094c abbd d1d5 313e
00000340: 1d4b 283e 7714 0c3e 5f4c 71bd e836 093e
00000350: e69b cabd dc97 a73d 34cf a3b9 9f7e 173e
00000360: 0e51 263d 3450 9a3d 1b6d f8bd e1fa 033e
00000370: 6b5e 86bb 29f2 a2bc 5de3 ca3c cdb4 67bd
00000380: eda8 24be e6c8 25be 13b1 5a3d 539e 96bd
00000390: b82b f8bd e2a7 0d3e 6f91 323e 1c4b 31be
000003a0: 92ba edbd a590 e3bd 3ce6 873d 9f28 b63d
000003b0: d9e7 bebd 2d68 d5bd 7686 eb3d 8a0f dcbd
000003c0: 977c adbd 31e6 2d3e 5506 78b9 19d3 8cbd
000003d0: 8429 c83d 29b1 26be d480 2a3e ba1f c4bd
000003e0: 942e cb3c bc59 dfbd 4783 fa3d 2d92 c03c
000003f0: 6cd2 1abe 253b e3bd 6636 de3d ebb1 7abd
-0.034316864 -0.003636004 0.01498239 -0.1712019 -0.1185121 0.08184307 0.10040137 0.059963003
-0.10813046 -0.019487575 0.11870658 -0.11116857 0.12439099 0.064078234 -0.105378635 -0.16508906
0.07486078 0.043791365 -0.09847223 -0.13198699 0.040189445 0.06965778 -0.06918813 0.14859931
0.12476327 0.10437363 0.14070821 -0.107638314 0.14764698 -0.15818742 -0.046723206 -0.13084245
-0.03869863 -0.15562037 -0.14485326 -0.115663424 0.030872691 -0.11284237 0.009527961 0.037192054
-0.15169857 0.135703 -0.04166732 0.11803023 -0.0054989895 0.108194046 0.015521081 -0.112286724
-0.16383308 -0.13014714 -0.10459858 -0.11812873 0.17377518 -0.12752445 0.013725132 -0.117225386
0.13096566 -0.0147243785 -0.0837049 0.023920998 -0.088444434 0.0817562 -0.009628995 -0.124423236
-0.04091141 -0.004051093 -0.008138445 -0.07433527 0.03592642 0.1760497 -0.10439897 -0.06747975
0.007457138 0.118772835 -0.07669428 -0.13573387 0.16651157 0.06414726 0.075701065 -0.045733094
0.14833261 0.000120919765 0.05610944 0.16479585 -0.11390588 -0.12516953 0.11399303 0.1020336
0.00017116232 -0.081125885 0.15142779 -0.13925512 -0.021045404 -0.15601479 0.13028789 0.03228977
-0.056504704 -0.11613008 -0.037999246 -0.1398721 0.15277629 -0.097030774 -0.0070644636 0.025565809
0.10978246 -0.01684179 0.030682057 -0.0085505005 0.0011113043 0.10191368 0.11151788 -0.018315807
0.05324305 -0.037192367 0.07559832 0.011890518 -0.0057022143 0.0045416886 0.13439655 0.11425185
-0.031633686 0.121660165 0.010152174 -0.06738207 -0.086382575 0.097679205 -0.060154215 -0.014789034
-0.07852979 -0.10995121 0.12895481 0.14469872 -0.15364718 0.007359142 0.13281672 0.13003941
0.050859667 0.055461306 -0.035815243 0.028821547 0.09961037 -0.09373253 -0.009420641 0.17569213
0.11797473 0.08430513 0.029729376 0.14794423 -0.027083613 -0.047134362 -0.078199245 0.0909067
-0.13497822 0.02576054 0.028887589 -0.09931978 0.09195397 -0.016829738 0.0737592 -0.071031064
0.038664278 0.13500084 0.015337323 -0.108866796 -0.043227173 -0.04650404 -0.00072256586 -0.060045604
0.033570807 -0.06867016 0.021456175 -0.14942865 -0.038582653 0.08238137 0.09783593 -0.12462118
-0.10758363 0.016381351 0.02652927 -0.049435366 0.10992654 -0.08537825 -0.1034956 0.13969103
-0.09364855 -0.0322726 -0.13313752 0.0789705 -0.050711554 0.09537922 0.08620974 -0.14409679
-0.12010118 0.1620931 -0.15449268 -0.120809495 -0.14667743 0.13185215 -0.020487411 -0.15277815
-0.13071163 0.14577818 -0.07959762 0.13052173 0.15729076 0.053904984 -0.08364112 0.1736672
0.16434903 0.13679682 -0.058910724 0.13399851 -0.098930165 0.08183262 -0.0003124416 0.14794396
0.040604644 0.07534829 -0.12130185 0.12888671 -0.004100611 -0.019890862 0.024766618 -0.05656891
-0.16080065 -0.16189918 0.053391527 -0.07354417 -0.12117714 0.13833573 0.17438291 -0.17313808
-0.11607851 -0.11111573 0.066357106 0.088944666 -0.09321565 -0.104202606 0.11500256 -0.10745151
-0.08471029 0.16982342 -0.00023653482 -0.06876201 0.097735435 -0.16278519 0.16650707 -0.09576364
0.024802484 -0.10905787 0.122320704 0.023507202 -0.15119332 -0.11095265 0.108502194 -0.061204832

egnn.layers.0.coord_mlp.0.bias f4 [32]
00000000: 062c 33bd 7dca a4bd d0f4 25be 7c3d 0d3e
00000010: 3c0c e3bd eeb3 0d3e 7456 b23c ed7a 99bd
00000020: 5c8d d0bd 242c 0abe d195 253e ae72 6abd
00000030: 114e cd3c caaf 0dbd fb18 2e3e 28a3 2f3e
00000040: 69a6 f73c 5b60 c3bd 6430 3b3d 88b7 29be
00000050: 261c 24be f3c3 453c 33b8 6f3b 48d5 f83d
00000060: 9d51 a8bd 3ef2 e93c 9aba c03d 4605 28be
00000070: a418 863d 996e f1bd 816f ad3d 0279 d13d
-0.043743156 -0.08046434 -0.1620667 0.13792986 -0.11086318 0.13838169 0.02176974 -0.07494149
-0.10183212 -0.13493401 0.16170432 -0.057238273 0.025061639 -0.034591474 0.17001717 0.17152083
0.030230718 -0.09539863 0.045700446 -0.16573918 -0.16026363 0.012070644 0.0036578297 0.12150055
-0.082186915 0.028557893 0.094105914 -0.16408262 0.065476686 -0.11788673 0.08468533 0.102281585

egnn.layers.0.coord_mlp.2.weight f4 [1, 32]
00000000: 3e0e 86bb 21b5 53bb 9d8a ccbb 422a aaba
00000010: 4e4a d0bb e864 e53b a4c8 30bc eb53 00bc
00000020: 3841 00bc 4ddf 23bc 9386 bf3b 8d6f a63b
00000030: 2ce8 173c 926d 803b 8b55 523b ea17 d53b
00000040: 9988 0dbc 413b 51bc 111a ca3b edf4 babb
00000050: b6e7 4ebc 84c3 153c 9c23 253c 76d8 0d3c
00000060: ddc2 e73b d964 463c 2a84 153b 95c3 cbbb
00000070: 3f30 4dbc b034 e9bb f67c 683b 353b 5a3b
-0.0040910533 -0.0032304006 -0.00624211 -0.0012982565 -0.006356514 0.0070005544 -0.010790024 -0.007832508
-0.007828049 -0.0100019695 0.0058449 0.005079216 0.009271663 0.003919312 0.0032094445 0.006503095
-0.008638524 -0.012770475 0.006167658 -0.005705467 -0.012628486 0.009140853 0.010079291 0.008657565
0.00707279 0.012109005 0.0022814372 -0.0062183836 -0.01252371 -0.0071168765 0.0035474873 0.003329945

egnn.layers.0.hidden_mlp.0.weight f4 [32, 48]
00000000: 80ad 493d b22d 063d d41a dbbd 243c 0ebd
00000010: 0bf6 ff3d 35c5 913c 4812 04be f52b 9abd
00000020: 0e2b 8fbd 9664 a43c c519 f2bd df82 f83d
00000030: e6bb bc3d 08a8 b03c 3a10 02be 61b0 b23b
00000040: b5bc 7fba 5e78 8fbd 2c25 edbd 0bbf 1abe
00000050: f57d 713d df28 703c f431 273d 88b6 f83d
00000060: 9b1e 50bd 8d90 eabd 64a5 febd 1175 09be
00000070: 5151 8f3d 0471 9abd fef9 c03d b3b6 8bbd
00000080: 9dd1 943b 989d 833d ad61 553d 7dda 0b3e
00000090: f21c 213c b72e 77bd bdc2 813c 33b0 4fbd
000000a0: 04c2 e33d b56a 30bd 5689 c1bd ed2c 2bbd
000000b0: 2f7b 89bd c0e4 f63d 9da5 86bd eecc 40bd
000000c0: 1da5 92bd 4670 0b3e 3822 e3bd 36ea e43d
000000d0: f7a5 70bd 7fd2 ad3d a659 4e3d dfe7 c9bd
000000e0: 989f 08be 89e6 993d fda8 a8bd 5b95 b9bd
000000f0: df4a a4bd 6eaf d5bc cad8 81bd bdc5 b53d
00000100: cfa9 493c 6bf5 a8bd 3be4 d2bd 5d64 663d
00000110: 9368 07bd a7fa 5dbd 74ae 143e 6a56 ddbd
00000120: abd8 a03d 3cf7 78bd e475 153c 96f7 413d
00000130: 2c2a 1fbd 34f3 a93c 3b91 7fbd 85ac 2bbd
00000140: 43d1 d5bb 3ccc cb3d 6b4b b93c cd93 3cbd
00000150: 70cb 43bd 54df 49bc 3859 7ebd 5c2c fbbc
00000160: a798 c03d 991d 7d3d 32d1 b03d 0f3b c1bd
00000170: 76c1 bf3d 2224 773c aba5 ea3d 28cc 0b3b
00000180: 9ffa f0bd ae57 833d 6161 c13c cbab ad3d
00000190: 8549 43bd 3d11 90bd 4071 f3bd e6c9 d23d
000001a0: 498d edbd 50f0 22bd 3a2f 043e b0d5 d4bd
000001b0: 095f d43d f548 0a3d 0b7b eebd f1a0 c63d
000001c0: 0454 a4bd b2a8 863d 3fa7 d6bd 4e24 0bbe
000001d0: 015d 79bd da6c 84bd a2d9 e93d de39 ecbc
000001e0: a546 0d3e 23c9 183c 4bf2 403d 3ba6 f13d
000001f0: f950 a83d f2a5 4e3d 8936 203d 5f9f 4a3c
00000200: 97ff 893c 742f 0b3e 7685 a4bd a6f6 bc3d
00000210: 2821 5e3d f09c 6ebd c11d b5bd 8205 83bd
00000220: 0a2d dd3d 0296 04be d651 143d a492 f93d
00000230: 46f7 edbd 7b51 12be cc31 07be 269f a3bd
00000240: 5a53 bb3d dbdf ce3d aaf9 55bd c9d5 e9bd
00000250: f75c 883d c2a2 98bd b43a 053e 4d49 833b
00000260: deb0 863d b053 853c aafb d8bd 86ca d3bd
00000270: 4ca0 873d a7fe a9bd 4d4d b8bd f010 913d
00000280: 8551 083e 8330 9ebd 95dc a23d 4aa6 bfbc
00000290: a42a 91bd 21eb 093e f054 b53d 853c 213d
000002a0: 57bd b0bd caa8 96bd 3505 b33d 473a 653c
000002b0: 5925 0bbe e8d8 3abd ecb6 3c3c 1b47 4e3d
000002c0: 5042 80bd fe3f d53d 28d4 eebd 5e84 bd3d
000002d0: 31cd acbd fcd3 f4bd 0aff d93d 1e99 f0bc
000002e0: a544 db3d cc4a 0cbe cef3 683d 3b46 853d
000002f0: 7565 903d f4c4 5fbd c46c b63b f430 79bc
00000300: eecd dcbd 615a 80bd 3038 d2bd ae79 9d3d
00000310: b95c f33c 1098 4f3d 55db 10be b3cf 6c3d
00000320: 1051 98bd 7630 d1bd fa6d debd fc45 043e
00000330: 7c20 adbd 3e75 c73d a554 abbd a035 7b3d
00000340: deb6 203d d221 edbd 7f1e babd e259 9a3b
00000350: 9b0e dcbc 8524 eb3d 2330 02be 8332 393d
00000360: db91 7fbc 3da3 a8bd f334 fbbd d58f 49bc
00000370: cceb bd3c 35b5 98bd 2b39 ea3d cc0c ea3d
00000380: 0bfa 03be 711e bbbd 6aa4 683d 9ef6 c43d
00000390: ae9a b6bd e46a be3d 8c8d e7bd 32d9 8fbd
000003a0: eded 093d 4bbf 833d 4208 933c 7631 83bc
000003b0: 6131 643d d459 ccbd dbd2 5d3d ff89 0f3e
000003c0: 7027 e2bc 473b 37bc 9e00 c73d 49fe 8c3c
000003d0: 70f9 09bd cb03 eb3d 06a3 a4bd 8915 ad3d
000003e0: 44fc aa3d 1ed9 e8bd 37d9 f6bc d488 643d
000003f0: 13f8 3e3c f2dc bf3c f7ac e73d b250 ce3d
0.049237728 0.032758422 -0.106984764 -0.034725323 0.12498101 0.017794231 -0.12897599 -0.075279154
-0.06990634 0.020067494 -0.118213214 0.12134337 0.09215526 0.021564499 -0.12701502 0.005453155
-0.00097555976 -0.0700538 -0.115793556 -0.1511194 0.058958013 0.014658182 0.040819123 0.1214419
-0.050810438 -0.11453352 -0.124338895 -0.13423564 0.06997932 -0.07541087 0.09422682 -0.068219565
0.0045415894 0.06426543 0.052095104 0.13657565 0.009833561 -0.060347285 0.015839929 -0.050705146
0.1112099 -0.043070514 -0.09450023 -0.04179089 -0.067129485 0.12055349 -0.06574557 -0.047070436
-0.07160399 0.13617048 -0.11090511 0.11177485 -0.058752026 0.084874146 0.050378464 -0.09858679
-0.1334213 0.07514674 -0.08235357 -0.090616904 -0.08022093 -0.026084628 -0.06340177 0.08875606
0.012308552 -0.08249935 -0.10297438 0.056248058 -0.033058714 -0.05419412 0.14519674 -0.10807498
0.07853826 -0.060782656 0.009122346 0.047355257 -0.038858578 0.020745851 -0.062394362 -0.041912574
-0.00652519 0.09951064 0.02261897 -0.04603939 -0.047801435 -0.012321312 -0.062096804 -0.0306608
0.09404116 0.061795805 0.08633651 -0.09435093 0.093630716 0.015084298 0.1145738 0.0021331403
-0.11766552 0.06413208 0.023606004 0.084800325 -0.047677536 -0.07034538 -0.11886835 0.10292415
-0.11599214 -0.03977996 0.1290864 -0.1039232 0.10369689 0.033760983 -0.11644562 0.09698666
-0.08023837 0.06575145 -0.104811184 -0.13588068 -0.06087971 -0.06466074 0.11418463 -0.028836187
0.1379648 0.0093252985 0.04710607 0.11799284 0.08218569 0.050451227 0.03911451 0.012367099
0.016845508 0.1359232 -0.08033268 0.09226732 0.05423084 -0.058255136 -0.08843566 -0.06397535
0.10799606 -0.12947848 0.036210857 0.121861726 -0.11619429 -0.14288895 -0.1320259 -0.079893395
0.091467574 0.10101291 -0.05224005 -0.114177294 0.06658357 -0.074529186 0.13010675 0.004006541
0.065767035 0.016275257 -0.10594876 -0.10341363 0.06622371 -0.08300524 -0.08999119 0.07083309
0.13312347 -0.077240966 0.07952229 -0.023394722 -0.07088211 0.13468601 0.08854091 0.039364357
-0.08629864 -0.07356413 0.087412275 0.013990945 -0.13588466 -0.045617014 0.011518221 0.05036078
-0.06262648 0.10412596 -0.11661559 0.09253763 -0.08437575 -0.11954495 0.10644348 -0.029369887
0.10706452 -0.13700408 0.056873135 0.06507536 0.070506014 -0.05463119 0.005567165 -0.015209425
-0.107814655 -0.062672384 -0.10264623 0.07689224 0.0297073 0.050682127 -0.14146169 0.057815265
-0.074373364 -0.10214321 -0.1086082 0.12917322 -0.084534615 0.09739159 -0.08365754 0.061330438
0.039236896 -0.11578716 -0.09087848 0.004710422 -0.026862433 0.11481575 -0.12713675 0.045214187
-0.0155987395 -0.0823426 -0.12265959 -0.012302359 0.023183726 -0.074564375 0.11436685 0.11428222
-0.12888353 -0.091366656 0.056797422 0.09617351 -0.089162216 0.092977315 -0.11306295 -0.070238486
0.03367417 0.064329706 0.017948274 -0.016014796 0.055711154 -0.09978071 0.054156166 0.14017485
-0.027606696 -0.011183566 0.097169146 0.017211096 -0.033685148 0.11475333 -0.08038907 0.08451373
0.08348897 -0.11369537 -0.030132873 0.055794552 0.011655825 0.023420785 0.11312287 0.10073985

egnn.layers.0.hidden_mlp.0.bias f4 [32]
00000000: 9cc3 7b3d c999 82b9 4927 103d 36d3 c2bd
00000010: 8d47 443d fbe9 f4bb 3410 93bd f924 e1bd
00000020: 83ef 5f3d 9280 a9bd 9ff2 c53c 755e 0ebe
00000030: b882 7b3d 8a5a 4d3d a999 9cbb 8b6d bdbb
00000040: 583e 083e b6cd 463d d8f3 bdbd b9ce 66bd
00000050: a7d3 53bd 8482 bdbd 6ed7 d1bd ad53 b6bb
00000060: 06e5 a3bd 1c34 bdbb 07bc 043d edbc 96bd
00000070: 7d2f 74bd 9d06 0ebe f03f 1a3d b1cd 0c3d
0.061465845 -0.0002491011 0.035193715 -0.095129415 0.0479198 -0.0074741817 -0.07180825 -0.1099338
0.054671776 -0.08276476 0.024163542 -0.1390322 0.06140396 0.050135173 -0.00477906 -0.005780881
0.13305032 0.048536025 -0.09275025 -0.05634949 -0.05171552 -0.092534095 -0.10246168 -0.005564174
-0.08002667 -0.005774034 0.03240588 -0.073602535 -0.0596156 -0.1386971 0.03765863 0.03437585

egnn.layers.0.hidden_mlp.2.weight f4 [16, 32]
00000000: 1cb1 07be 1bf0 d7bd e08a 02bd 03c2 6a3b
00000010: f087 a83b a191 193e 5346 23be 03c6 913d
00000020: 72df 0e3e e9c4 213e 5686 af3c d6b2 203e
00000030: 84cc c3bd a872 03be 0dc7 32bd 92ce b9bd
00000040: 6095 ab3d 550f 3abd 5d26 b93d c6bc 86bd
00000050: 132c a3bd a0db 70bd 65ba 85bc c06f acbd
00000060: 0307 d43d 9475 f23d d987 db3c 0e04 2dbe
00000070: f238 0a3e a70f 00be 6203 00be 77d8 bd3d
00000080: c5a1 d9bd ac0b 0dbe 41f1 05be 6d80 183e
00000090: 0606 373d 4572 ac3d 0594 113d 0765 ab3d
000000a0: 4092 333e 6549 d3bc 8ab8 e6bd 09fb 0cbd
000000b0: b108 88bd 3b96 2abe 1173 03be 6bdd 86bd
000000c0: 5ccc 123d 9e79 b33d 6e57 e63d 8147 33be
000000d0: eeed 7ebc 0670 0dbd b938 163e 662f 3bbd
000000e0: 903f 3a3e fe89 273d a6a3 9d3c 5554 983d
000000f0: 2b3d 023e 91d9 c6bd 50ca 9f3d c92b 91bd
00000100: 0dce 473d cea1 dc3d 85a7 aabd f64f 4fbd
00000110: 8c7c 253e 9cae 2abe 778a 05bd bb7f 113e
00000120: 45d5 2b3d 9c3a 19be 70a7 003c c7d2 17be
00000130: a971 81bd 7336 043d e8b1 bd3d a36b c0bd
00000140: e6ef 1a3e 078d f8bd 13f8 04bd b038 1ebe
00000150: e242 48bb 438c 12bc ac6a a13d 67df efbd
00000160: 6a7f 333c e53b 753d 0f53 e3bd fca0 223e
00000170: 6c7f 0abd 77f7 34be 2f9b 11bd a3ac 3a3d
00000180: 1cbb afbd 50d1 81bd 710c 983d f1b5 f6bc
00000190: 2bf0 723d 9d78 173c 69a9 09bc ebd2 123e
000001a0: f136 bfbc c9d3 0c3e 92c2 84bd f32f e23d
000001b0: b10e b93d c9bf f3bd 71a4 39bd a83d ebbd
000001c0: 7174 ee3c 0ca9 283c d8f3 5dbd 0aca 1a3e
000001d0: a86c 273e ec39 01be 85a5 bdbd 2497 9a3c
000001e0: 71de f03d f182 d2bd 9e50 acbc d93f e4bc
000001f0: 687e 15be 1202 e0bb e217 1cbc 0735 483d
00000200: 824e fb3d 9384 34bc 73c4 063e af36 7bbd
00000210: 9e5a edbd 04c1 893d b177 003e f55f 68bb
00000220: 4d6c fcbd 2f2d a9bd 0768 cdbd 414a 393d
00000230: 3371 3a3d 6ac2 20be bb90 e2bc 9926 173d
00000240: e175 8fbd ce04 2e3e e031 0f3e d963 b3bd
00000250: 51d5 913c 05e3 11bd f7e3 1ebe f964 283c
00000260: 0d86 003e a157 cf3d 4667 b23d 5ef7 7abd
00000270: 49ae d4bd 0057 1bbe 40bf 1ebe 45d0 803b
00000280: b1c9 0a3e 703b 4c3d 65de 23bd a66b 903c
00000290: 1673 1b3d 2a47 a0bd a1f1 dc3d 9751 8d3d
000002a0: 724e 35bd f5ff bcbc 1a83 27be 1dfd 9f3d
000002b0: fb1d e33c b31a fa3d 9089 5c3d ee10 11be
000002c0: b86d 52bd abb0 d53d 42cb 1f3e 658d 463d
000002d0: a94a 153e 3b14 2f3e 6702 54bd 8e1b 0d3d
000002e0: 24f9 263e 4936 67bc fbbf cdbd a7b4 f6bd
000002f0: 5d6f 93bd 912b 36be 0072 afbd 7a14 be3d
00000300: 5bda 0e3e 31e5 d63c 0b30 93bd 8bf4 dfbd
00000310: fd1c 11be c8b8 fc3c 6089 243e 8563 edbd
00000320: 27f1 313e 47d4 9fbd 9102 f4bd e5d8 cc3d
00000330: 7f8c debd 5edb 233e e4ee 22be 7a4f d33d
00000340: 6be1 243e 2311 65bd b27f cfbd 58e9 77bd
00000350: b2f7 1e3e 9fe2 03be 74b3 1b3e ff94 293e
00000360: 866e 97bd 4206 113e 2a5f 223b cdf2 073d
00000370: c297 4ebb 22d9 1e3d 0651 243e 3af9 053d
00000380: 7600 a03c cdb1 cebd f7e5 f43d 33e7 77bd
00000390: 231a 16be ce6f 2fbe 9536 283e d42d 893d
000003a0: 119b 91bd ed17 e5bd d205 acbb 8e14 01bd
000003b0: 6114 ecba 19e4 093e 0cc7 bbbd 4508 fd3c
000003c0: 2798 c23d a83b 0d3e 553c 123d 3508 edbd
000003d0: ec64 2dbd fadf e3bc a512 3ebd 9e85 29be
000003e0: e1ff 4fbb 7dcc 223e 342a b3bd 62c8 8fbd
000003f0: 0710 ffbd 588f 2e3d 819c e1bd a10f b83c
-0.13251156 -0.10543843 -0.031870723 0.0035821206 0.005143158 0.1499696 -0.15944795 0.07117846
0.13952425 0.15797772 0.021426361 0.1569322 -0.09560493 -0.12836707 -0.04364686 -0.09072603
0.083781004 -0.045424778 0.0904052 -0.065789744 -0.07967391 -0.0588032 -0.016324231 -0.08419752
0.103529 0.118388325 0.026798176 -0.16896078 0.13498285 -0.12505971 -0.1250129 0.09269803
-0.10626558 -0.13773984 -0.13080312 0.1489274 0.04468348 0.08420233 0.035541553 0.08368879
0.17536259 -0.025791833 -0.11265667 -0.034419093 -0.06642283 -0.16658871 -0.12836863 -0.06585201
0.035839424 0.08763431 0.11247145 -0.17507745 -0.015559657 -0.034530662 0.14670075 -0.0456995
0.1818831 0.040903084 0.019243073 0.0743796 0.12718646 -0.09709466 0.0780226 -0.070884295
0.04878049 0.10773049 -0.08332733 -0.050613366 0.16160792 -0.1666817 -0.032602753 0.14208882
0.041951437 -0.14963764 0.00785242 -0.14826499 -0.06320507 0.03227849 0.092624485 -0.0939553
0.15130576 -0.12136274 -0.032463145 -0.15451312 -0.0030557443 -0.008944574 0.07881674 -0.117125325
0.010955671 0.059871573 -0.110998265 0.15881723 -0.033812925 -0.17672525 -0.035548385 0.045574795
-0.0858061 -0.06338751 0.07424248 -0.030116053 0.059311073 0.009245065 -0.008402207 0.14338271
-0.023341628 0.13752665 -0.06482424 0.11044302 0.09036005 -0.119018145 -0.04532284 -0.11486369
0.029108258 0.01029421 -0.054187626 0.15116134 0.16350043 -0.12619752 -0.09260086 0.018870898
0.11761177 -0.10278881 -0.021034535 -0.027862476 -0.14599001 -0.0068361843 -0.0095271785 0.048878696
0.122708336 -0.011017936 0.13160877 -0.061331447 -0.115895495 0.06726268 0.12545659 -0.0035457585
-0.12325344 -0.08260571 -0.10029607 0.04523683 0.04551811 -0.15699163 -0.027656903 0.036902044
-0.070049055 0.1699402 0.1398387 -0.08759279 0.017801913 -0.035616893 -0.15516649 0.01027798
0.12551136 0.10124136 0.08711104 -0.061271064 -0.10384805 -0.15169907 -0.15502644 0.0039310777
0.13553502 0.04986137 -0.040007014 0.017629456 0.03795155 -0.078260735 0.107882746 0.06900328
-0.044264264 -0.023071269 -0.16358605 0.078119494 0.027724257 0.12212124 0.053842127 -0.14166614
-0.051374167 0.10434087 0.1560488 0.048474688 0.14579262 0.17097561 -0.051760104 0.034450106
0.16305977 -0.014112064 -0.10046383 -0.120461755 -0.07198975 -0.17790057 -0.08566666 0.09281249
0.13950484 0.026232334 -0.07186898 -0.10935315 -0.14171214 0.03084983 0.1606803 -0.115912475
0.17377149 -0.078041606 -0.11914552 0.10002307 -0.10866641 0.1600165 -0.15911442 0.10317893
0.16101615 -0.055924546 -0.10131778 -0.06052527 0.15524176 -0.12879418 0.15205175 0.16560744
-0.073941275 0.14162543 0.002477596 0.033190537 -0.003152356 0.038781293 0.16046533 0.032708384
0.01953147 -0.100925066 0.11957925 -0.060523223 -0.14658408 -0.17132494 0.16427071 0.06698194
-0.07109655 -0.11186204 -0.0052497173 -0.031513743 -0.0018011444 0.13465919 -0.091688246 0.030887732
0.09501677 0.13792288 0.03570207 -0.11573831 -0.042332575 -0.027816761 -0.0464045 -0.16554877
-0.003173821 0.15898319 -0.08748284 -0.07020642 -0.12454229 0.042617172 -0.11016179 0.02246839

egnn.layers.0.hidden_mlp.2.bias f4 [16]
00000000: 1775 f33c 6f7f 18be 3fe2 1d3e 0249 06bc
00000010: acfb 00be b21f be3d 613c 0dbe 79ef a4bb
00000020: d406 f9bd 8989 b03c e951 ef3c 3138 133e
00000030: ea03 8fbd a40f d53d 8376 2f3a 88f2 e13d
0.029718919 -0.14892362 0.15418337 -0.008196117 -0.12596005 0.09283389 -0.13792564 -0.00503343
-0.121595055 0.021549957 0.029213862 0.14376904 -0.069831684 0.10403374 0.000669338 0.11032587
