2-egnca-rework/logs/line4-2024-10-05@23-20-03/best@42.pt (torch, 25525 bytes, 11 tensors)

egnn.layers.0.message_mlp.0.weight f4 [32, 33]
0	0x3d6216d6	0.05519756
1	0x3dc7053a	0.09717794
2	0xbad9080a	-0.0016558182
3	0x3dd642f6	0.104619905
4	0xbd55c7fe	-0.05219268
5	0x3d0e8bab	0.034801167
6	0xbd381297	-0.044939604
7	0xbc1c1f46	-0.009528941
8	0xbd18a860	-0.03726995
9	0x3cece9e8	0.028920129
10	0x3e0e14b2	0.13875082
11	0x3e0cec52	0.13762024
12	0xbcef060c	-0.029177688
13	0xbd652c1d	-0.055950273
14	0xbce4b9a0	-0.027920544
15	0x3e1c9ac9	0.15293421
16	0x3e194f6f	0.14971708
17	0xbd519778	-0.051169842
18	0xbd6deaa8	-0.058085114
19	0xbd2d5017	-0.042312708
20	0x3df56639	0.11982388
21	0x3e110bda	0.14164677
22	0xbdfb9ee4	-0.12286165
23	0xbd73ec0f	-0.059551295
24	0xbe21042c	-0.15724248
25	0x3e2f4c11	0.17118861
26	0x3cf1afca	0.029502768
27	0x3d557613	0.052114557
28	0x3dc44398	0.09583205
29	0x3d2dea22	0.042459615
30	0xbd0ebe29	-0.03484932
31	0xbe2ba709	-0.16762938
32	0x3d401f99	0.046905134
33	0xbcdc0a0b	-0.026860258
34	0xbe2e6e35	-0.17034228
35	0xbcd36507	-0.02580501
36	0xbdc6549e	-0.09684108
37	0xbdc379ef	-0.09544741
38	0xbe0478d5	-0.12936719
39	0xbe120526	-0.14259776
40	0xbc5c7ccd	-0.013457489
41	0x3cade982	0.02122951
42	0xbe1ec6ce	-0.15505525
43	0xbe2666e3	-0.16250186
44	0x3b5e19d6	0.003388991
45	0xbe252821	-0.16128589
46	0x3da959ed	0.08269105
47	0xbd2cdb4c	-0.042201325
48	0xbcdcd33b	-0.026956191
49	0xbe259988	-0.16171849
50	0xbdfcf4fe	-0.12351416
51	0x3d81730a	0.0632077
52	0xbdc3fdb7	-0.09569877
53	0xbd8eec02	-0.06978609
54	0xbe1fa7b2	-0.15591314
55	0x3b487b2c	0.0030590994
56	0xbdddad64	-0.10824087
57	0x3d400e29	0.046888504
58	0x3d60a353	0.054843258
59	0x3d18dbc1	0.03731895
60	0x3d7cce19	0.061719988
61	0xbdf8bc6c	-0.121453136
62	0x3c88903f	0.016670344
63	0xbe1c0d84	-0.15239531
64	0xbdf6f373	-0.12058153
65	0x3e119dc2	0.14220336
66	0x3df5da4e	0.12004529
67	0xbdfe2228	-0.124088585
68	0x3dccf1bb	0.10007044
69	0xbe0c2c45	-0.13688762
70	0x3cc63ed0	0.024199873
71	0x3e252a41	0.161294
72	0x3c23cc6b	0.0099974675
73	0x3d9020df	0.0703752
74	0x3e213cda	0.1574587
75	0xbd88260c	-0.06647882
76	0x3e06d2b0	0.13166308
77	0x3cc6b11d	0.024254376
78	0xbd238e9c	-0.039930925
79	0xbe1d6d24	-0.15373665
80	0x3e29ab5d	0.16569276
81	0x3e33d40e	0.17561361
82	0xbd949893	-0.07255664
83	0x3d1c6674	0.038183644
84	0xbe378765	-0.17922743
85	0x3d01f039	0.031723235
86	0x3dc66f8b	0.09689244
87	0x3c99d61e	0.018778857
88	0xbdc4ebfd	-0.09615324
89	0x3e23512f	0.15948938
90	0xbdc94392	-0.09827341
91	0x3cb3a3b0	0.021928638
92	0xbe252c3f	-0.1613016
93	0x3d95f965	0.07322959
94	0x3df69f35	0.12042085
95	0x3d108528	0.035283238
96	0x3e094c56	0.13408026
97	0xbe330d4e	-0.17485544
98	0xbdccbb79	-0.09996695
99	0x3d2d7f8b	0.042357963
100	0x3db3e056	0.08783023
101	0xbd219305	-0.03944685
102	0x3d5b9434	0.053608134
103	0xbe2ed702	-0.17074206
104	0x3e3254ab	0.17415111
105	0xbe0b4f66	-0.13604507
106	0xbe218219	-0.15772285
107	0xbe03c91c	-0.12869686
108	0x3e31aee8	0.17351878
109	0x3d4162d5	0.047213394
110	0xbc795e95	-0.015220304
111	0x3d195fdb	0.03744493
112	0x3ad54ef4	0.001627414
113	0xbdfc0025	-0.12304715
114	0x3dead8df	0.11467146
115	0xbe111fd6	-0.141723
116	0xbd279734	-0.040915683
117	0x3cb03ef6	0.021514397
118	0xbdd46c07	-0.10372167
119	0x3d31d001	0.04341126
120	0xbe1fb0e4	-0.15594822
121	0xbdae0cd8	-0.084985435
122	0x3e1a972b	0.15096729
123	0x3d5c400c	0.053772017
124	0xbe0e44a5	-0.13893373
125	0x3e29eafe	0.16593549
126	0xbd3b560d	-0.04573636
127	0x3d03cbd3	0.032176804
128	0xbd15e08c	-0.036591098
129	0xbdd027eb	-0.10163864
130	0x3cfd938b	0.030954143
131	0xbd130d6c	-0.035901472
132	0xbdb8d56b	-0.09025081
133	0x3dc1521a	0.09439488
134	0x3dae9117	0.085237674
135	0x3dee53a9	0.11637051
136	0xbce5e30e	-0.02806237
137	0xbce1eb4f	-0.027578024
138	0x3c9279b3	0.017880296
139	0x3e1f18b5	0.15536769
140	0xbe1eb59f	-0.1549897
141	0xbc28e538	-0.010308556
142	0x3c9435fc	0.018092148
143	0x3daa8181	0.08325482
144	0xbe2b1a63	-0.16709284
145	0xbe3e5793	-0.18588094
146	0xbbbbd4db	-0.0057321615
147	0x3d65e39c	0.05612527
148	0xbd90cc0a	-0.07070167
149	0x3e0c8ecd	0.13726349
150	0x3d0a2249	0.033724103
151	0xbd79b435	-0.060962874
152	0xbd728bfc	-0.05921553
153	0xbe125613	-0.14290647
154	0x3dc2d10d	0.095125295
155	0xbd11c740	-0.03559041
156	0x3dbcc11f	0.092165224
157	0xbe38edf9	-0.1805953
158	0x3e000fdf	0.12506054
159	0x3d6da98c	0.05802302
160	0xbde5b978	-0.11217016
161	0xbdc64b97	-0.09682386
162	0x3e00dc84	0.1258412
163	0x3da06011	0.07830823
164	0x3da707bc	0.08155772
165	0x3d0add6a	0.033902563
166	0xbdb7ee25	-0.08980969
167	0xbde4894a	-0.11158998
168	0xbd3d4625	-0.046209473
169	0xbd51fcd9	-0.051266525
170	0xbcc22e05	-0.023703584
171	0xbd4391e8	-0.04774657
172	0xbe0ebaf6	-0.13938507
173	0xbe23ffb0	-0.16015506
174	0xbdffe217	-0.12494295
175	0x3dbb9332	0.09158935
176	0xbde7a779	-0.1131124
177	0xbe0a14fa	-0.13484564
178	0xbd952ba6	-0.07283716
179	0x3d5a5e76	0.05331274
180	0xbd4ec9b9	-0.050485346
181	0x3b50b578	0.0031846445
182	0x3c9351e4	0.017983384
183	0xbdf8b5ff	-0.12144088
184	0xbd4ca2b9	-0.049959872
185	0xbd57fa9b	-0.05272923
186	0xbc12c081	-0.008957029
187	0xbdeb4f8a	-0.1148978
188	0xbd09a792	-0.033607073
189	0x3c6f81f5	0.0146183865
190	0x3d62e170	0.055390775
191	0xbde39c46	-0.11113791
192	0x3e1d20f0	0.15344596
193	0x3d37fe79	0.04492042
194	0xbe0c9de3	-0.13732104
195	0x3e24f39f	0.16108559
196	0xbde31e2b	-0.110897385
197	0x3a58bffb	0.00082683534
198	0x3e03a22b	0.12854831
199	0xbd358b02	-0.04432202
200	0x3d3b9b1f	0.045802232
201	0x3da5a42e	0.080879554
202	0xbd7e3905	-0.062066097
203	0x3ca7a580	0.020464659
204	0x3dfc7b18	0.12328166
205	0x385677d6	5.1133182e-05
206	0xbd45433f	-0.048159834
207	0x3dff8834	0.124771506
208	0x3d11efb4	0.03562899
209	0xbdee20e7	-0.116273694
210	0x3da72700	0.081617355
211	0x3e111864	0.1416946
212	0x3c0fabc3	0.0087689785
213	0x3e1697c3	0.1470633
214	0xbde04d36	-0.10952227
215	0x3e28401f	0.1643071
216	0x3dc9a132	0.09845199
217	0xbc5c6e78	-0.013454072
218	0xbe24c4b7	-0.16090666
219	0x3e2b4466	0.1672531
220	0xbc697aac	-0.014250439
221	0x3dab8d9a	0.08376618
222	0xbdc90f5a	-0.09817381
223	0x3d66aac4	0.0563152
224	0xbce2b4b6	-0.02767406
225	0x3d2d5baa	0.042323746
226	0x3d7d30f6	0.06181427
227	0xbdef9e7b	-0.117001496
228	0xbe0540a2	-0.13012937
229	0xbc079fee	-0.008277876
230	0xbd39d639	-0.045370314
231	0x3de466a4	0.1115239
232	0xbd9a4387	-0.07532411
233	0x3d3c8871	0.04602856
234	0xbe2019e7	-0.15634881
235	0x3da75ef1	0.081724055
236	0x3de8a8b3	0.11360302
237	0x3ce48233	0.027894115
238	0x3ce30825	0.027713845
239	0x3cdb165b	0.026744058
240	0xbbe04a8d	-0.0068448246
241	0xbd028ccf	-0.031872567
242	0x3e02cfca	0.12774578
243	0xbd529b19	-0.051417444
244	0xbc8d1ea2	-0.01722652
245	0xbc98cddd	-0.01865285
246	0xbdc72cb7	-0.097253256
247	0xbe05e6d9	-0.13076343
248	0xbdd080a2	-0.10180785
249	0xbcd43f36	-0.025909048
250	0xbe058611	-0.13039424
251	0x3d7075c8	0.058706075
252	0xbe011e36	-0.12609181
253	0xbd3d8eaf	-0.04627865
254	0xbd988859	-0.07447881
255	0xbda9176a	-0.08256419

egnn.layers.0.message_mlp.0.bias f4 [32]
0	0xbd142d5c	-0.03617607
1	0xbc81c36b	-0.015840253
2	0x3d47e392	0.048801012
3	0xbe1f6487	-0.15565692
4	0x3d810f00	0.06301689
5	0xbe1bcc69	-0.15214695
6	0xbd255bc7	-0.04037073
7	0xbe12c0c9	-0.14331354
8	0xbe1665ed	-0.14687319
9	0xbdbe1942	-0.09282161
10	0x3dffa938	0.12483448
11	0xbe236b18	-0.15958822
12	0x3da2b774	0.07945147
13	0xbc04800e	-0.008087171
14	0xbe0ef852	-0.13961914
15	0x3d388e0e	0.04505735
16	0xbdbe097f	-0.09279155
17	0xbdd5cdde	-0.10439657
18	0x3d1700be	0.036865942
19	0xbe047b26	-0.12937602
20	0x3c17143b	0.009221132
21	0x3d695dc1	0.056974176
22	0x3d51ef12	0.051253386
23	0x3dc3ee6b	0.09566959
24	0xbe159887	-0.14608966
25	0x3d6419c0	0.05568862
26	0x3de60c7b	0.11232849
27	0xbe22ea1f	-0.15909623
28	0x3d8d2086	0.06890969
29	0x3c5ffc92	0.013671057
30	0x3d7525b6	0.059850417
31	0xbe29237b	-0.16517441

egnn.layers.0.message_mlp.2.weight f4 [32, 32]
0	0x3de8db7e	0.1136999
1	0xbe1fd893	-0.1560996
2	0x3da1f07f	0.07907199
3	0x3e280a03	0.16410069
4	0xbd0f93f3	-0.035053205
5	0x3da87f19	0.08227367
6	0xbca53602	-0.020167354
7	0x3dc7af9f	0.09750294
8	0xbe24f89d	-0.16110463
9	0x37c59883	2.3555249e-05
10	0x3e3e461a	0.18581429
11	0xbd2c7ace	-0.042109303
12	0xbe0d4c0f	-0.13798545
13	0xbe0fc984	-0.14041716
14	0x3d2137fc	0.03936003
15	0x3e1ecbbf	0.1550741
16	0xbe31c58a	-0.17360511
17	0x3de89f2e	0.11358486
18	0xbe09bc86	-0.13450822
19	0x3d9e755b	0.077372275
20	0x3d10c3a7	0.03534284
21	0x3d5585e2	0.052129634
22	0xbe20b583	-0.15694241
23	0x3e2d6abc	0.16935247
24	0x3d2002b4	0.039065078
25	0xbc43a7a2	-0.011941822
26	0xbe06085d	-0.13089128
27	0x3dd995ae	0.10624252
28	0x3e257578	0.16158092
29	0x3d99f0ed	0.07516656
30	0xbc910d78	-0.017706618
31	0xbd401729	-0.046897087
32	0xbe39b227	-0.18134366
33	0x3de9ef79	0.11422629
34	0xbcc8e688	-0.024523988
35	0xbe249502	-0.16072467
36	0x3a17710c	0.0005777038
37	0x3d07bf73	0.033141565
38	0x3de997d5	0.11405913
39	0x3d6cb7d0	0.057792485
40	0xbdf00017	-0.11718767
41	0xbd477846	-0.048698686
42	0xbe2e04c9	-0.16994013
43	0x3da6fe31	0.08153952
44	0x3da177e2	0.07884194
45	0xbdd58143	-0.10425045
46	0x3d3433bb	0.043994647
47	0x3df61862	0.120163694
48	0x3e264c58	0.1624006
49	0x3df4ae8b	0.11947354
50	0x3d8b1c43	0.067925
51	0x3d1b4248	0.037905008
52	0x3d82d2ce	0.06387864
53	0x3e2872e8	0.16450083
54	0x3df3f367	0.1191166
55	0x3ceb2c65	0.028707692
56	0x3cbffb7b	0.023435345
57	0x3df1091e	0.11769317
58	0x3e32390d	0.17404576
59	0xbde92487	-0.1138392
60	0xbda4a967	-0.080401234
61	0x3e41c071	0.18921067
62	0xbda5c021	-0.08093286
63	0xbd2397dc	-0.039939746
64	0x3e12f326	0.14350566
65	0xbd89fd97	-0.067378215
66	0x3e33eb35	0.17570193
67	0xbdcc790d	-0.09984026
68	0xbd9c235a	-0.0762393
69	0x3c0691cf	0.008213474
70	0x3c954eb1	0.018226
71	0x3e239c50	0.15977597
72	0xbd9b12f7	-0.07571977
73	0x3d8653e7	0.06558972
74	0xbcc7a373	-0.02436993
75	0xbcebd217	-0.028786702
76	0xbe1a9d9a	-0.15099183
77	0x3e2399e7	0.15976678
78	0xbdc2f8f7	-0.095201425
79	0xbd219bc7	-0.0394552
80	0xbda9048a	-0.08252819
81	0x3e283102	0.16424945
82	0xbd9418e0	-0.07231307
83	0xbd1963ef	-0.03744882
84	0x3dce08e2	0.10060288
85	0x3e284d87	0.16435824
86	0x3e248425	0.16066034
87	0xbdc4d2b9	-0.09610505
88	0xbd81c58c	-0.06336507
89	0x3e1504dc	0.14552635
90	0x3d9895c3	0.0745044
91	0x3e08bf61	0.13354255
92	0x3d685e78	0.056730717
93	0xbdde0157	-0.10840099
94	0xbca9f269	-0.020745473
95	0xbdae52d7	-0.08511894
96	0xbe14f8ed	-0.14548083
97	0x3d54c050	0.051941216
98	0x3dc12873	0.09431543
99	0x3d8c6960	0.06856036
100	0x3e0c3615	0.13692506
101	0xbd8b9b9e	-0.06816791
102	0x3d71740c	0.05894856
103	0xbd5a19e5	-0.05324735
104	0x3e1a2e8c	0.15056819
105	0xbc39a3af	-0.011330529
106	0x3e02b92c	0.1276595
107	0x3e0c3aaa	0.13694254
108	0xbdf64401	-0.120246895
109	0xbd2f6110	-0.042817175
110	0x3e18a039	0.1490487
111	0xbdb0ef7a	-0.086394265
112	0xbd32e3b6	-0.043674193
113	0x3e169f9d	0.14709325
114	0x3e12acb1	0.14323689
115	0x3def9743	0.11698773
116	0x3ca5e5eb	0.020251235
117	0x3de56cb6	0.112023756
118	0xbe21465d	-0.15749498
119	0x3da75656	0.08170764
120	0xbd01f2c8	-0.031725675
121	0xbe044338	-0.12916267
122	0x3d1da993	0.038491797
123	0x3b05add9	0.002039781
124	0x3d8632d9	0.06552667
125	0xbd7ea0d8	-0.06216511
126	0x3e324f39	0.17413034
127	0xbe3a0017	-0.18164097
128	0x3e3256b8	0.17415893
129	0xbd9dffcc	-0.07714805
130	0x3dd12ba2	0.102134004
131	0xbcb1688d	-0.021656299
132	0xbd49fcde	-0.04931342
133	0xbe081e53	-0.13292818
134	0xbe0b9f6d	-0.13635035
135	0x3cb6bc44	0.022306569
136	0xbdd43f19	-0.103635974
137	0xbdffb7a7	-0.12486201
138	0xbe1a636b	-0.15076987
139	0x3e1d2bbe	0.15348718
140	0x3d29bbf8	0.041439027
141	0x3c7665e7	0.015038944
142	0xbd51a1ca	-0.051179685
143	0xbe1daf2e	-0.15398857
144	0x3dcc8307	0.09985929
145	0x3e1256c9	0.14290918
146	0x3d079336	0.033099376
147	0x3d51c698	0.051214784
148	0x39f1f0a4	0.00046146393
149	0x3d854ac5	0.06508402
150	0x3b92c576	0.0044791056
151	0xbde28bbe	-0.1106181
152	0xbcbf6da8	-0.023367718
153	0x3e2398ca	0.15976253
154	0xbdd9dd73	-0.10637941
155	0x3e1df74e	0.1542637
156	0xbdd2ab7e	-0.10286616
157	0xbcfeb93a	-0.031094182
158	0x3def5288	0.116856635
159	0xbdea2a69	-0.1143387
160	0xbd1299bd	-0.035791148
161	0xbe07eadf	-0.1327319
162	0xbc6c87b0	-0.014436647
163	0x3dd36dd0	0.103236794
164	0xbdb1b432	-0.08676948
165	0xbd08170d	-0.033225108
166	0x3af83655	0.0018937091
167	0x3de5f572	0.112284556
168	0x3cbfefc7	0.023429764
169	0xbcbb0673	-0.022830224
170	0xbdd09d66	-0.10186271
171	0xbe08d52a	-0.13362566
172	0x3e300c38	0.17192161
173	0xbd4defe0	-0.05027759
174	0x3dd3c0c2	0.103395
175	0xbc9f37f6	-0.019435864
176	0xbdb101a7	-0.08642893
177	0xbd82c1ea	-0.063846424
178	0xbe148c42	-0.14506629
179	0xbd1e3feb	-0.038635176
180	0x3ca95219	0.02066903
181	0xbda6d220	-0.08145547
182	0x3d54641c	0.051853284
183	0x3da8cf0d	0.08242617
184	0xbdef448a	-0.11682995
185	0xbc57be68	-0.013167955
186	0x3df813d4	0.12113157
187	0xbe2bd761	-0.1678138
188	0x3dd00644	0.10157445
189	0xbd471995	-0.04860838
190	0xbd812444	-0.06305745
191	0xbdd22a34	-0.10261956
192	0xbc56c83d	-0.013109264
193	0x3d5e14c2	0.054219015
194	0xbda0d2ba	-0.07852693
195	0xbd7d40ec	-0.061829492
196	0x3dbc71a0	0.0920136
197	0xbdab9f95	-0.08380047
198	0x3c2a4b94	0.010393996
199	0x3dcf7134	0.10129014
200	0xbb8916e1	-0.0041836356
201	0xbd48bff0	-0.04901117
202	0xbde4dbf4	-0.11174765
203	0xbd261684	-0.040548816
204	0xbd25d002	-0.040481575
205	0x3dec3ddd	0.11535237
206	0x3c6e70e2	0.014553281
207	0xbe10b29e	-0.14130637
208	0xbc2de21d	-0.010612992
209	0xbddb770d	-0.107160665
210	0x3e3fad14	0.18718368
211	0xbd2fd792	-0.042930193
212	0xbe2932d2	-0.16523293
213	0xbdb554db	-0.088540755
214	0x3dd91416	0.10599534
215	0x3e286f1f	0.1644864
216	0xbde566be	-0.11201237
217	0xbe311511	-0.17293192
218	0xbd33382c	-0.04375474
219	0xbd42fb53	-0.047602963
220	0xbdab9c83	-0.083794616
221	0x3dccfe7d	0.10009477
222	0x3c37b728	0.011213101
223	0x3e0e3d70	0.13890624
224	0x3e013f4b	0.126218
225	0x3cb05f1c	0.021529727
226	0x3e0e6131	0.13904263
227	0xbd0dcc24	-0.03461851
228	0x3d6daf8f	0.058028754
229	0xbde4920a	-0.11160667
230	0x3d2e1fb8	0.042510718
231	0x3d90d6e4	0.07072237
232	0xbe359964	-0.17734295
233	0x3e18f09d	0.14935537
234	0x3df8666b	0.1212891
235	0xbdd881fe	-0.10571669
236	0x3d65bdf8	0.05608937
237	0x3e2c1cd8	0.16807878
238	0xbd722606	-0.059118293
239	0x3ba406a7	0.005005676
240	0xbcae626f	-0.021287171
241	0xbdd23fd7	-0.10266083
242	0x3db460b0	0.08807504
243	0xbd973a81	-0.073842056
244	0x3d52e481	0.05148745
245	0x3d03c85c	0.0321735
246	0x3da9e194	0.08294979
247	0x3e2ba164	0.16760784
248	0x3d76d5f2	0.060262628
249	0xbce87969	-0.028378205
250	0xbd5dfe3e	-0.054197542
251	0x3e1636b8	0.14669311
252	0x3ddba663	0.10725095
253	0x3e1f3697	0.15548168
254	0xbd8f5d28	-0.0700019
255	0x3dd0a855	0.10188357

egnn.layers.0.message_mlp.2.bias f4 [32]
0	0x3ad45569	0.0016199771
1	0x3de41999	0.11137695
2	0x3c90f3ce	0.01769438
3	0x3e275054	0.16339236
4	0xbccc5048	-0.024940625
5	0xbe2374e2	-0.15962556
6	0xbe1ec58f	-0.1550505
7	0xbda7b824	-0.08189419
8	0x3d71a25b	0.058992725
9	0x3dcc866e	0.09986578
10	0x3d9df459	0.07712621
11	0x3e1c4ff7	0.15264879
12	0xbe3052fc	-0.17219156
13	0x3d9a45dd	0.075328566
14	0xbc8f42c1	-0.017487885
15	0xbe0833f1	-0.13301064
16	0x3d227cbb	0.039669733
17	0x3e286aae	0.16446945
18	0x3d4d6ff2	0.050155587
19	0x3de1590d	0.11003313
20	0x3dc805e3	0.09766748
21	0xbde43b85	-0.11144165
22	0xbe3027e3	-0.17202716
23	0xbe286dd0	-0.1644814
24	0x3e15b375	0.14619239
25	0xbe05de7c	-0.13073152
26	0xbd65ba06	-0.05608561
27	0x3e147e50	0.1450131
28	0x3e1c67be	0.1527395
29	0xbdf95367	-0.12174111
30	0x3d9aae07	0.07552724
31	0xbbbe5155	-0.0058080354

egnn.layers.0.coord_mlp.0.weight f4 [32, 32]
0	0xbd196d6f	-0.03745788
1	0xbb314553	-0.0027049377
2	0x3c3a3e84	0.011367444
3	0xbe2dda58	-0.16977823
4	0xbdf73d60	-0.12072253
5	0x3da7d3ad	0.08194671
6	0x3dd51256	0.10403888
7	0x3d6a4c91	0.057201926
8	0xbddc36c4	-0.10752633
9	0xbc91ffa9	-0.017822104
10	0x3deba716	0.115064785
11	0xbde1c7f0	-0.11024463
12	0x3dfec55c	0.12439987
13	0x3d876953	0.06611886
14	0xbddbfd50	-0.10741675
15	0xbe285c82	-0.16441539
16	0x3d9bc7ee	0.07606493
17	0x3d3a9cff	0.04555988
18	0xbdc5755d	-0.09641526
19	0xbe097286	-0.13422593
20	0x3d21c96d	0.039498735
21	0x3d960add	0.07326291
22	0xbd8bb079	-0.06820769
23	0x3e16534b	0.14680211
24	0x3dfd9d42	0.1238351
25	0x3ddd9c1b	0.108207904
26	0x3e135b36	0.14390263
27	0xbde489d4	-0.11159101
28	0x3e131c69	0.14366306
29	0xbe1e388b	-0.15451257
30	0xbd3589a0	-0.044320703
31	0xbe03f47d	-0.12886234
32	0xbd2bde9f	-0.041960355
33	0xbe1e2d3d	-0.15446945
34	0xbe17f929	-0.14841141
35	0xbde9aed9	-0.11410303
36	0x3ce91858	0.02845399
37	0xbde75cb2	-0.11296977
38	0x3c52d596	0.012868306
39	0x3d0df085	0.034653205
40	0xbe1a77e9	-0.15084805
41	0x3e0cf310	0.13764596
42	0xbd38ecbc	-0.045147642
43	0x3df42631	0.11921347
44	0xbbbba5bb	-0.0057265437
45	0x3de229e3	0.110431455
46	0x3c598f6d	0.013278824
47	0xbde51270	-0.11185157
48	0xbe264e8c	-0.16240901
49	0xbe034128	-0.12817824
50	0xbdd1a910	-0.10237324
51	0xbdf5f25d	-0.12009118
52	0x3e317e47	0.17333327
53	0xbdfe8b94	-0.12428966
54	0x3c6c7c4f	0.014433934
55	0xbdf42fdf	-0.11923193
56	0x3e056ab4	0.13028985
57	0xbc3571a2	-0.011074455
58	0xbda4b8af	-0.08043038
59	0x3ca5fb0c	0.02026131
60	0xbdbce1c4	-0.09222749
61	0x3dae1d01	0.08501626
62	0xbbe92a54	-0.0071156416
63	0xbdfa2c21	-0.12215448
64	0xbd33b889	-0.04387716
65	0xbb5a8ec9	-0.0033349267
66	0xbc3ed1ca	-0.011646697
67	0xbd95a6ac	-0.07307181
68	0x3d0b1079	0.033951256
69	0x3e349339	0.17634286
70	0xbdce807c	-0.100831
71	0xbd8fb763	-0.070174
72	0x3bffd4a9	0.0078073335
73	0x3df618e7	0.120164685
74	0xbda43178	-0.08017248
75	0xbe0a50a1	-0.1350732
76	0x3e2ab9c4	0.16672426
77	0x3d871441	0.0659566
78	0x3d975620	0.07389474
79	0xbd37fa3a	-0.04491637
80	0x3e18e863	0.14932398
81	0x3ada9aff	0.0016678273
82	0x3d6d6f3b	0.057967406
83	0x3e266255	0.16248448
84	0xbdeafc6b	-0.11473926
85	0xbdf90aa5	-0.121602334
86	0x3debb65c	0.11509392
87	0x3dcdccd7	0.10048836
88	0xba63ea2c	-0.0008694257
89	0xbd9e84f9	-0.07740206
90	0x3e1e2bfe	0.15446469
91	0xbe1295fa	-0.14315024
92	0xbccc8cbd	-0.024969453
93	0xbe1c039a	-0.15235749
94	0x3e07b275	0.1325167
95	0x3d0b0c77	0.033947434
96	0xbd5edbf9	-0.054409
97	0xbdf3ed3a	-0.11910482
98	0xbd18052a	-0.0371143
99	0xbe11c3cb	-0.14234845
100	0x3e1f51a2	0.15558484
101	0xbdc0d185	-0.09414963
102	0xbbc0f2c9	-0.0058883172
103	0x3ccd9131	0.025093647
104	0x3ddac65f	0.106823675
105	0xbc9e4236	-0.019318681
106	0x3cf78d38	0.030218706
107	0xbc3bb4b5	-0.011456658
108	0x3b830756	0.0039986772
109	0x3dcb286c	0.09919819
110	0x3dea1371	0.114294894
111	0xbc7fe754	-0.015619118
112	0x3d4e75ec	0.050405428
113	0xbd23bd3c	-0.03997539
114	0x3d957661	0.072979696
115	0x3c19a963	0.009378764
116	0xbc088124	-0.008331571
117	0x3bcc6ea4	0.0062387753
118	0x3e0c933f	0.13728045
119	0x3defcca2	0.117089525
120	0xbd0b438b	-0.03399996
121	0x3df9d7d1	0.12199367
122	0x3c08d155	0.00835069
123	0xbd8be963	-0.06831624
124	0xbdb148e5	-0.08656482
125	0x3dcccf9e	0.10000537
126	0xbd7feab1	-0.06247968
127	0xbc900623	-0.017581051
128	0xbda6e1fb	-0.08148571
129	0xbddfcdf1	-0.10927952
130	0x3e0068b5	0.12539943
131	0x3e156d58	0.14592493
132	0xbe1f5483	-0.15559582
133	0x3bfd0ffa	0.007722852
134	0x3e0bd1b8	0.1365422
135	0x3e024937	0.12723242
136	0x3d519c6d	0.05117457
137	0x3d68ae8e	0.056807093
138	0xbd215acd	-0.039393235
139	0x3cf12535	0.029436687
140	0x3dcc8ad2	0.099874154
141	0xbdbc4e64	-0.09194639
142	0xbc377e0c	-0.0111994855
143	0x3e34cec3	0.17656998
144	0x3df38d8d	0.11892233
145	0x3dafc2fa	0.08582111
146	0x3d0142f9	0.03155801
147	0x3e15026d	0.14551707
148	0xbce563eb	-0.028001746
149	0xbd31b1fb	-0.043382626
150	0xbd9db078	-0.07699674
151	0x3db71229	0.08939011
152	0xbe0b5e56	-0.13610205
153	0x3cf26c3d	0.029592628
154	0x3d02c72b	0.031928223
155	0xbdd3aeaf	-0.103360526
156	0x3db4116e	0.08792387
157	0xbc549107	-0.01297403
158	0x3d9b9a6b	0.07597812
159	0xbd8e2073	-0.06939783
160	0x3d2a16d9	0.041525695
161	0x3e099b41	0.13438131
162	0x3c99e6f8	0.018786892
163	0xbde16136	-0.1100487
164	0xbd29743e	-0.041370623
165	0xbd400422	-0.04687894
166	0xbb8cb0db	-0.0042935438
167	0xbd6af449	-0.057361875
168	0x3d087014	0.03331001
169	0xbd8f31ac	-0.06991896
170	0x3ccbc880	0.02487588
171	0xbe198fd7	-0.14996277
172	0xbd1f2c1c	-0.038860425
173	0x3da53fa5	0.0806878
174	0x3dcbcf90	0.09951699
175	0xbe007ef2	-0.12548426
176	0xbdde23e1	-0.10846687
177	0x3c74d883	0.014944199
178	0x3ccb07ba	0.024783958
179	0xbd40c6e4	-0.047064677
180	0x3de2f162	0.11081196
181	0xbdb63461	-0.08896709
182	0xbdd653f6	-0.10465233
183	0x3e107edc	0.14110893
184	0xbdbd8e91	-0.09255708
185	0xbd134315	-0.035952646
186	0xbe0b56cc	-0.13607329
187	0x3da9bc16	0.08287828
188	0xbd3faac5	-0.046793718
189	0x3dbbc3e9	0.09168226
190	0x3dac2e74	0.08407298
191	0xbe151645	-0.14559276
192	0xbdfb7ab3	-0.122792624
193	0x3e262537	0.16225134
194	0xbe21c574	-0.15797979
195	0xbdf5c08d	-0.11999617
196	0xbe17c579	-0.14821424
197	0x3e07f878	0.13278377
198	0xbc871988	-0.016491666
199	0xbe1f817b	-0.15576737
200	0xbe061346	-0.1309329
201	0x3e162702	0.14663318
202	0xbdaa5c9b	-0.08318444
203	0x3e05c1a2	0.13062146
204	0x3e21e94c	0.15811652
205	0x3d625e9e	0.055266015
206	0xbdae15d6	-0.085002586
207	0x3e3349b4	0.17508584
208	0x3e28c446	0.16481122
209	0x3e0d2cc1	0.13786604
210	0xbd6b648a	-0.05746893
211	0x3e065556	0.1311849
212	0xbdcdac57	-0.10042637
213	0x3daff5ed	0.085918285
214	0x3abe0991	0.0014498701
215	0x3e1667c9	0.14688028
216	0x3d1f7fa8	0.0389401
217	0x3da24fd6	0.07925384
218	0xbdf2a985	-0.118487395
219	0x3dff5211	0.12466825
220	0xbc073c23	-0.008254084
221	0xbc7f5090	-0.015583172
222	0x3cda7a6b	0.026669702
223	0xbd62f4d5	-0.05540927
224	0xbe27a00a	-0.16369644
225	0xbe253f09	-0.16137327
226	0x3d4c33bf	0.049854036
227	0xbd945620	-0.072429895
228	0xbdfbf0a5	-0.12301759
229	0x3e0e2f31	0.1388519
230	0x3e366bc8	0.17814553
231	0xbe341d58	-0.17589319
232	0xbded6132	-0.11590804
233	0xbde1137e	-0.10990046
234	0x3d80968f	0.06278717
235	0x3db71d04	0.08941081
236	0xbdbe0d60	-0.09279895
237	0xbdd1fc21	-0.10253168
238	0x3de81bcc	0.11333427
239	0xbdd9fb5d	-0.10643647
240	0xbdabd006	-0.08389287
241	0x3e2f5349	0.17121615
242	0x3ac2e76e	0.0014869997
243	0xbd91f76d	-0.07127271
244	0x3dc5fb28	0.09667045
245	0xbe22cc02	-0.15898135
246	0x3e2bdec3	0.16784196
247	0xbdc6f64d	-0.09714947
248	0x3cc0f760	0.023555458
249	0xbdd77e90	-0.10522187
250	0x3e004fbb	0.12530415
251	0x3c9f4001	0.0194397
252	0xbe1ef759	-0.15524043
253	0xbddb285d	-0.10701058
254	0x3de294f1	0.110635646
255	0xbd749845	-0.059715528

egnn.layers.0.coord_mlp.0.bias f4 [32]
0	0xbd33d42a	-0.043903507
1	0xbda4a2ea	-0.08038886
2	0xbe265020	-0.16241503
3	0x3e0a3c56	0.13499579
4	0xbde3e264	-0.11127165
5	0x3e0e222b	0.13880222
6	0x3caa814f	0.020813612
7	0xbd9a9ec0	-0.075498104
8	0xbdd183f7	-0.102302484
9	0xbe0abf38	-0.13549507
10	0x3e25ef96	0.16204676
11	0xbd647eef	-0.055785116
12	0x3cd3893a	0.02582227
13	0xbd0a1f64	-0.033721343
14	0x3e2e1b95	0.17002709
15	0x3e300222	0.17188314
16	0x3cf07fb8	0.029357776
17	0xbdc44268	-0.095829785
18	0x3d3fda83	0.04683925
19	0xbe2a1074	-0.16607839
20	0xbe24bee9	-0.16088451
21	0x3c5634b1	0.013074086
22	0x3b908427	0.004410285
23	0x3dfa0816	0.122085735
24	0xbda6e3c0	-0.081489086
25	0x3cf03a53	0.029324686
26	0x3dc02ed5	0.093839325
27	0xbe284cd0	-0.16435552
28	0x3d844a7a	0.06459518
29	0xbdf2afc0	-0.11849928
30	0x3dad907a	0.08474822
31	0x3dd196ed	0.10233865

egnn.layers.0.coord_mlp.2.weight f4 [1, 32]
0	0xbb92a9e2	-0.004475818
1	0xbb52a72a	-0.0032143095
2	0xbbed8593	-0.0072485893
3	0xbb1bc281	-0.0023767056
4	0xbbf676ea	-0.0075215
5	0x3c095c6f	0.008383854
6	0xbc5a9206	-0.013340479
7	0xbc1d90b2	-0.009617018
8	0xbc1a3d0e	-0.009413971
9	0xbc493919	-0.01228168
10	0x3bdb1f37	0.0066870707
11	0x3be226af	0.006901584
12	0x3c403b38	0.011732869
13	0x3ba6e718	0.0050934665
14	0x3b608e1f	0.0034264398
15	0x3bf24747	0.007393751
16	0xbc3aa57e	-0.0113919955
17	0xbc7c1dfc	-0.015388008
18	0x3c0376e7	0.008023954
19	0xbbdeae0a	-0.0067956494
20	0xbc7acb66	-0.015307283
21	0x3c3e1ad7	0.011603079
22	0x3c50d1a9	0.012745299
23	0x3c2c6aef	0.010523542
24	0x3c17a451	0.009255485
25	0x3c72ffb9	0.014831477
26	0x3b098dc5	0.0020989042
27	0xbbf180f6	-0.0073701097
28	0xbc8277ca	-0.01592626
29	0xbc12ebb2	-0.008967327
30	0x3b6b7d27	0.003593275
31	0x3b792f43	0.0038022555

egnn.layers.0.hidden_mlp.0.weight f4 [32, 48]
0	0x3d4f5ca9	0.050625477
1	0x3d1049b4	0.03522654
2	0xbdd844e9	-0.105600186
3	0xbd1b8b60	-0.037974715
4	0x3e038b03	0.12845998
5	0x3caedcf0	0.021345586
6	0xbe009573	-0.1255701
7	0xbd9685c5	-0.07349733
8	0xbd8e983f	-0.069626324
9	0x3cbb7976	0.022885066
10	0xbdf8abd8	-0.121421516
11	0x3df38db6	0.118922636
12	0x3dc29e46	0.095028445
13	0x3c9f2588	0.019427076
14	0xbdfbe80c	-0.12300119
15	0x3c073303	0.008251908
16	0xbb725bf9	-0.003698109
17	0xbd931432	-0.07181586
18	0xbdf2a906	-0.11848645
19	0xbe1cf97c	-0.15329546
20	0x3d666eec	0.056258127
21	0x3c889a75	0.016675213
22	0x3d33bb35	0.043879706
23	0x3df4830a	0.11939056
24	0xbd59c2f3	-0.053164434
25	0xbde6266f	-0.112377994
26	0xbe02d5de	-0.12776896
27	0xbe0b1013	-0.1358035
28	0x3d95a148	0.073061526
29	0xbd925399	-0.07144851
30	0x3dbb3ba3	0.09142234
31	0xbd877e31	-0.06615866
32	0x3b3d5b5e	0.002889357
33	0x3d809650	0.0627867
34	0x3d620b00	0.05518627
35	0x3e0cfd22	0.13768438
36	0x3bef6c9c	0.0073066484
37	0xbd6c94f4	-0.05775924
38	0x3c95f437	0.018304927
39	0xbd4aa4c0	-0.049473524
40	0x3ddf0050	0.108887315
41	0xbd22dc8a	-0.039761104
42	0xbdbe5999	-0.09294433
43	0xbd37bdce	-0.044858746
44	0xbd8b1f7b	-0.06793114
45	0x3dfe286c	0.124100536
46	0xbd8aad4b	-0.06771334
47	0xbd4555fa	-0.048177697
48	0xbd8ebd89	-0.06969745
49	0x3e0e6b45	0.13908108
50	0xbde09791	-0.10966409
51	0x3dded566	0.10880546
52	0xbd62071c	-0.05518256
53	0x3db4ea5c	0.08833763
54	0x3d5b8d64	0.053601637
55	0xbdc27f59	-0.09496946
56	0xbe0920da	-0.13391438
57	0x3da02678	0.07819837
58	0xbdaf7b23	-0.08568408
59	0xbdc3c914	-0.09559837
60	0xbd9e97df	-0.07743811
61	0xbcec23b0	-0.02882561
62	0xbd778588	-0.06043008
63	0x3dbba190	0.09161675
64	0x3c1430ed	0.009044868
65	0xbdac483a	-0.084122136
66	0xbdd94758	-0.10609311
67	0x3d5d8e7c	0.05409096
68	0xbd14a0be	-0.03628611
69	0xbd542055	-0.051788647
70	0x3e1841db	0.14868872
71	0xbde2e568	-0.11078912
72	0x3d9a69ad	0.07539687
73	0xbd6cfee3	-0.057860266
74	0x3bb71952	0.005587735
75	0x3d3c8071	0.04602093
76	0xbd11be78	-0.035582036
77	0x3cc8ff3a	0.024535764
78	0xbd8636af	-0.06553399
79	0xbd20fec3	-0.03930546
80	0xbc05d011	-0.008167283
81	0x3dc89f96	0.097960636
82	0x3cd3e3c8	0.02586545
83	0xbd371e57	-0.04470667
84	0xbd50418d	-0.050843764
85	0xbc168a27	-0.0091882115
86	0xbd7314c3	-0.05934597
87	0xbcf9060a	-0.030398387
88	0x3dbaf056	0.09127872
89	0x3d85a909	0.065263815
90	0x3db3f898	0.0878765
91	0xbdc8029d	-0.097661234
92	0x3dbdda6c	0.09270176
93	0x3c9a02b2	0.018800113
94	0x3de79056	0.11306827
95	0x39c0c967	0.0003677115
96	0xbdeef2f8	-0.11667436
97	0x3d7800f2	0.060547777
98	0x3caa95a6	0.020823311
99	0x3db681e3	0.08911493
100	0xbd54381f	-0.051811334
101	0xbd918e9a	-0.07107277
102	0xbdfa9406	-0.122352645
103	0x3dcd9260	0.100376844
104	0xbde855bf	-0.1134448
105	0xbd3238ff	-0.043511387
106	0x3e084b09	0.13309874
107	0xbdca99c1	-0.098926075
108	0x3dcc7863	0.099838994
109	0x3d1913d1	0.037372414
110	0xbdf68749	-0.12037522
111	0x3dbf3ba4	0.093375474
112	0xbd9c9c46	-0.07646994
113	0x3d8b915b	0.06814834
114	0xbdce3294	-0.10068241
115	0xbe0872a8	-0.13324988
116	0xbd6b6a4c	-0.05747442
117	0xbd8b25b6	-0.06794302
118	0x3de154ec	0.11002526
119	0xbccead0b	-0.025228998
120	0x3e10ccd7	0.1414064
121	0x3b9f4aec	0.0048612263
122	0x3d5280fe	0.051392548
123	0x3df413d4	0.119178444
124	0x3d9fbc48	0.07799584
125	0x3d41f7f0	0.047355592
126	0x3d2d4afc	0.04230784
127	0x3c15b1f1	0.009136663
128	0x3c95bfa1	0.018279852
129	0x3e0c2d14	0.13689071
130	0xbdabc110	-0.08386433
131	0x3db8ae3f	0.0901761
132	0x3d6d9b3b	0.058009367
133	0xbd7e254e	-0.062047295
134	0xbdbb8e6a	-0.09158023
135	0xbd809132	-0.06277694
136	0x3de373c0	0.11106062
137	0xbe0850c6	-0.13312063
138	0x3d07b86c	0.033134863
139	0x3e00e687	0.12587939
140	0xbde94009	-0.11389167
141	0xbe164a31	-0.1467674
142	0xbe07323e	-0.1320276
143	0xbda22cba	-0.07918687
144	0x3db8651e	0.090036616
145	0x3dc9265b	0.09821769
146	0xbd5ae0d5	-0.053437073
147	0xbde3569f	-0.11100506
148	0x3d817fbe	0.06323193
149	0xbda0c7c4	-0.07850602
150	0x3e020e31	0.12700726
151	0x3a9d58ef	0.0012004654
152	0x3d8a6a86	0.06758599
153	0x3c5bd55b	0.013417567
154	0xbdd2d01c	-0.102936
155	0xbdcadb86	-0.09905152
156	0x3d81b939	0.063341565
157	0xbda4f6b7	-0.080548696
158	0xbdbf6116	-0.093446895
159	0x3d8b68f7	0.0680713
160	0x3e0b68d9	0.13614215
161	0xbd9a5405	-0.07535557
162	0x3da89eb3	0.082333945
163	0xbcabad66	-0.020956706
164	0xbd8a4f70	-0.06753433
165	0x3e071cf9	0.13194646
166	0x3daefade	0.08543943
167	0x3d2c55c7	0.04207399
168	0xbdab03c0	-0.08350325
169	0xbd9b9fce	-0.0759884
170	0x3db96f5c	0.09054443
171	0x3c6bf459	0.014401519
172	0xbe0e4522	-0.1389356
173	0xbd48b5d9	-0.04900155
174	0x3c70a557	0.014687858
175	0x3d438e15	0.04774292
176	0xbd80afce	-0.06283532
177	0x3dd37723	0.10325458
178	0xbdf4fbc3	-0.11962082
179	0x3dc15fe6	0.09442119
180	0xbda68ec4	-0.08132699
181	0xbdfaf843	-0.122543834
182	0x3dd40c34	0.1035389
183	0xbce34fcb	-0.02774801
184	0x3de0f1c2	0.10983612
185	0xbe0f9cf1	-0.14024712
186	0x3d5d5081	0.054031853
187	0x3d8b51cb	0.0680271
188	0x3d9643a6	0.07337122
189	0xbd6d47ce	-0.057929806
190	0x3b9bbe3d	0.004752903
191	0xbc7f58c7	-0.015585131
192	0xbddd9888	-0.10820109
193	0xbd7ed540	-0.06221509
194	0xbdd2573e	-0.102705464
195	0x3d9c6279	0.0763597
196	0x3cfa4487	0.030550255
197	0x3d4d9f3c	0.050200686
198	0xbe1013d8	-0.1407007
199	0x3d705a85	0.058680076
200	0xbd98d452	-0.07462372
201	0xbdd053b8	-0.10172218
202	0xbddfd721	-0.109297045
203	0x3e025360	0.12727118
204	0xbdacc12f	-0.08435284
205	0x3dc708ca	0.09718473
206	0xbda9cdca	-0.08291204
207	0x3d7bd9e5	0.061487097
208	0x3d1d1578	0.038350552
209	0xbdef92d4	-0.11697927
210	0xbdbb68b1	-0.09150828
211	0x3b507d9f	0.0031813157
212	0xbce84397	-0.028352542
213	0x3ded488b	0.11586102
214	0xbe014260	-0.12622976
215	0x3d3552fc	0.044268593
216	0xbc853740	-0.016261697
217	0xbda619da	-0.081103995
218	0xbdfcfe2c	-0.12353167
219	0xbc3b8df9	-0.011447423
220	0x3cc1efd6	0.023673933
221	0xbd96ed20	-0.07369447
222	0x3de8271e	0.11335586
223	0x3debacd7	0.11507576
224	0xbe03e434	-0.12880021
225	0xbdb9b437	-0.090675764
226	0x3d6ad73e	0.057334177
227	0x3dc65c2a	0.09685548
228	0xbdb87d2f	-0.09008252
229	0x3dc05d23	0.093927644
230	0xbde5e83e	-0.11225937
231	0xbd92296b	-0.07136806
232	0x3d06952b	0.0328571
233	0x3d856982	0.06514265
234	0x3c965a2c	0.018353544
235	0xbc88f536	-0.016718488
236	0x3d625300	0.055254936
237	0xbdca9eca	-0.09893568
238	0x3d5dabd0	0.05411893
239	0x3e0fec01	0.14054872
240	0xbcd78347	-0.026307715
241	0xbc07bfcd	-0.008285475
242	0x3dc92096	0.098206684
243	0x3c748d02	0.014926197
244	0xbcfa1deb	-0.030531844
245	0x3df0d0fe	0.11758612
246	0xbd9fe6f3	-0.07807722
247	0x3db2f2d8	0.08737725
248	0x3da7bb35	0.08190004
249	0xbde41393	-0.11136546
250	0xbd059c5c	-0.03261982
251	0x3d556ac7	0.052103784
252	0x3c6639ff	0.014051913
253	0x3cacc0d3	0.02108804
254	0x3ded9c0c	0.11602029
255	0x3dd21f01	0.1025982

egnn.layers.0.hidden_mlp.0.bias f4 [32]
0	0x3d831445	0.064003505
1	0xbb2a2fad	-0.0025968358
2	0x3d0261da	0.0318316
3	0xbdc4c66e	-0.0960816
4	0x3d445955	0.047936756
5	0xbbb4cbe6	-0.0055174707
6	0xbd8c8a5c	-0.068623275
7	0xbdda9f2a	-0.106748894
8	0x3d53b502	0.051686294
9	0xbda7ee33	-0.0819973
10	0x3cbce8c7	0.023060216
11	0xbe0eb302	-0.13935474
12	0x3d81ff07	0.06347471
13	0x3d61c215	0.05511673
14	0xbae722a0	-0.001763422
15	0xbbbb61a8	-0.0057184286
16	0x3e08df08	0.1336633
17	0x3d3e08c5	0.046395082
18	0xbdc3ed77	-0.09566777
19	0xbd6e0f05	-0.058119792
20	0xbd656917	-0.056008425
21	0xbdb919b2	-0.09038104
22	0xbdcb8970	-0.099383235
23	0xbb63566f	-0.003468897
24	0xbdae2ba6	-0.08504419
25	0xbc005f9b	-0.007835294
26	0x3d0d2611	0.03446013
27	0xbd921b58	-0.07134122
28	0xbd76e989	-0.06028131
29	0xbe0f72a0	-0.1400857
30	0x3d2a3b43	0.041560423
31	0x3d02131e	0.031756513

egnn.layers.0.hidden_mlp.2.weight f4 [16, 32]
0	0xbe0b5b7d	-0.13609119
1	0xbddab1e4	-0.10678461
2	0xbceaab2e	-0.028646078
3	0x3b4a7794	0.0030894028
4	0x3bfc8b19	0.0077070114
5	0x3e1ce707	0.15322505
6	0xbe22e2f9	-0.15906896
7	0x3d96f4b9	0.07370896
8	0x3e0bfd1d	0.13670774
9	0x3e23e52a	0.16005388
10	0x3cd8c891	0.026462825
11	0x3e221d96	0.15831599
12	0xbdc23709	-0.094831534
13	0xbe0094e0	-0.12556791
14	0xbd2582e6	-0.040408038
15	0xbdbd6038	-0.09246868
16	0x3dac6064	0.084168226
17	0xbd44cb02	-0.048045166
18	0x3db21200	0.086948395
19	0xbd81a1db	-0.063296996
20	0xbda1c14c	-0.078981966
21	0xbd659fe4	-0.056060687
22	0xbc9c1993	-0.019055163
23	0xbdac7fab	-0.08422788
24	0x3dd017d4	0.10160795
25	0x3dea5b0e	0.114431486
26	0x3cf3a30a	0.029740829
27	0xbe2ecac4	-0.17069536
28	0x3e0c99e1	0.13730575
29	0xbe02fefd	-0.12792583
30	0xbdf88dac	-0.12136397
31	0x3db776de	0.08958219
32	0xbdd875d7	-0.10569351
33	0xbe0e6925	-0.13907297
34	0xbe05eb9a	-0.13078156
35	0x3e1add57	0.15123497
36	0x3d42b0dd	0.04753195
37	0x3dab0e80	0.08352375
38	0x3d1b0ca4	0.037853852
39	0x3dab7e2d	0.083736755
40	0x3e33179d	0.17489477
41	0xbccc98ae	-0.024975147
42	0xbdea33b1	-0.114356406
43	0xbd0c596f	-0.034264978
44	0xbd8bdc7f	-0.06829166
45	0xbe2a8e65	-0.16655882
46	0xbe061cc8	-0.13096917
47	0xbd841582	-0.06449415
48	0x3d176b55	0.036967594
49	0x3db2fb6f	0.087393634
50	0x3de840e2	0.113405004
51	0xbe35676d	-0.17715235
52	0xbc5849a2	-0.013201149
53	0xbd18121b	-0.03712664
54	0x3e16f15d	0.1474051
55	0xbd479acc	-0.04873161
56	0x3e39df58	0.18151605
57	0x3d291344	0.04127814
58	0x3cab499b	0.020909121
59	0x3d98e0b5	0.074647345
60	0x3e0461d2	0.1292794
61	0xbdc590fe	-0.09646796
62	0x3d9d2ca4	0.0767453
63	0xbd907521	-0.070535906
64	0x3d46aff8	0.04850766
65	0x3dde1edd	0.108457305
66	0xbda88486	-0.08228402
67	0xbd4eed18	-0.05051908
68	0x3e25ee6c	0.16204232
69	0xbe29c19d	-0.16577764
70	0xbd02211f	-0.031769868
71	0x3e12aba4	0.14323288
72	0x3d276bcb	0.040874284
73	0xbe18003d	-0.14843841
74	0x3c055ba2	0.008139523
75	0xbe165e8c	-0.14684504
76	0xbd8126f7	-0.0630626
77	0x3d07edbb	0.0331857
78	0x3dc0b6ce	0.09409867
79	0xbdc3ab3c	-0.09554145
80	0x3e1ac53c	0.15114301
81	0xbdfa3182	-0.12216474
82	0xbd08aa9e	-0.03336584
83	0xbe1cc47e	-0.15309331
84	0xbb8d2e5d	-0.0043085054
85	0xbbf75d31	-0.007548951
86	0x3d9ed17b	0.07754799
87	0xbdee7865	-0.11644057
88	0x3c23c4fd	0.009995696
89	0x3d710768	0.058844954
90	0xbde31ac9	-0.11089093
91	0x3e2183fb	0.15773003
92	0xbd0c2cb0	-0.034222305
93	0xbe361879	-0.17782773
94	0xbd0b9027	-0.03407302
95	0x3d3511e5	0.04420652
96	0xbdb6a6cd	-0.089185335
97	0xbd899bbc	-0.06719157
98	0x3d9e8852	0.07740845
99	0xbd0578d5	-0.032585938
100	0x3d81d259	0.06338949
101	0x3c48486c	0.012224298
102	0xbb933af3	-0.0044931113
103	0x3e1683a9	0.14698662
104	0xbce113b8	-0.027475223
105	0x3e11031c	0.14161342
106	0xbd7e7f05	-0.062132854
107	0x3de96a89	0.11397273
108	0x3dbd531f	0.0924437
109	0xbdeae5f6	-0.11469643
110	0xbd2e6287	-0.04257443
111	0xbdf1db13	-0.11809363
112	0x3d08fb25	0.033442635
113	0x3bdd5cfe	0.0067554703
114	0xbd6bd72e	-0.05757826
115	0x3e1c98e5	0.152927
116	0x3e29649b	0.16542284
117	0xbdff16df	-0.12455534
118	0xbdc4aebd	-0.09603641
119	0x3c8f8b64	0.017522521
120	0x3de7bc33	0.11315193
121	0xbdd9815e	-0.10620378
122	0xbc8cd649	-0.017192023
123	0xbd00ba7a	-0.031427838
124	0xbe147017	-0.14495884
125	0xbc2b8c3a	-0.010470444
126	0xbbd2ab0b	-0.0064290813
127	0x3d389ba0	0.04507029
128	0x3dfe03e6	0.12403087
129	0xbc25cc1d	-0.010119465
130	0x3e054b28	0.13016951
131	0xbd793601	-0.060842518
132	0xbdeec42a	-0.11658509
133	0x3d896fc7	0.06710773
134	0x3dfcd9e9	0.123462506
135	0xbba088f0	-0.0048991367
136	0xbdf9743d	-0.12180374
137	0xbdab541d	-0.08365653
138	0xbdcb1ee6	-0.09918003
139	0x3d33db05	0.043910045
140	0x3d3871c6	0.045030378
141	0xbe21afe0	-0.15789747
142	0xbcf0300f	-0.029319791
143	0x3d1d0c6c	0.038341925
144	0xbd92bca7	-0.07164889
145	0x3e2fcfa1	0.17169048
146	0x3e110f96	0.14166102
147	0xbdb3a707	-0.08772092
148	0x3c915346	0.017739903
149	0xbd0e72d4	-0.034777477
150	0xbe1d4d56	-0.15361533
151	0x3c41c9e4	0.01182792
152	0x3e01eb67	0.12687455
153	0x3dd25418	0.10269946
154	0x3db24450	0.08704436
155	0xbd753f37	-0.05987474
156	0xbdd26780	-0.10273647
157	0xbe19d081	-0.15020944
158	0xbe204f95	-0.15655358
159	0x3bbdfabd	0.0057977126
160	0x3e085cca	0.13316646
161	0x3d42503f	0.04743981
162	0xbd1d19cb	-0.038354676
163	0x3c829e80	0.01594472
164	0x3d259501	0.040425304
165	0xbd9ac23a	-0.07556577
166	0x3de18526	0.11011724
167	0x3d92097d	0.07130716
168	0xbd406376	-0.046969853
169	0xbca60700	-0.02026701
170	0xbe24385d	-0.16037126
171	0x3da4d44f	0.08048307
172	0x3cf983ef	0.030458419
173	0x3e000612	0.12502316
174	0x3d66cbe7	0.0563468
175	0xbe13cf3f	-0.14434527
176	0xbd47a47f	-0.04874086
177	0x3dd04570	0.10169494
178	0x3e1cf2a6	0.15326938
179	0x3d4df73e	0.050284617
180	0x3e16dc73	0.14732532
181	0x3e317179	0.17328443
182	0xbd5fbd2f	-0.05462378
183	0x3d06e065	0.032928843
184	0x3e2404c4	0.16017443
185	0xbc8bc27b	-0.017060509
186	0xbdc8ac41	-0.0979848
187	0xbdfc573e	-0.123213276
188	0xbd90b486	-0.07065682
189	0xbe396733	-0.18105774
190	0xbda9f261	-0.08298183
191	0x3db87209	0.090061255
192	0x3e11cbd5	0.14237912
193	0x3cea33b7	0.028589113
194	0xbd976a61	-0.07393337
195	0xbddc9523	-0.10770633
196	0xbe120748	-0.1426059
197	0x3cf0e11f	0.029404221
198	0x3e22c431	0.15895154
199	0xbdf1e438	-0.118111074
200	0x3e34a3d8	0.17640626
201	0xbda51294	-0.08060184
202	0xbdf8695f	-0.12129473
203	0x3dc837eb	0.097762905
204	0xbde247f7	-0.110488825
205	0x3e20f74e	0.15719339
206	0xbe24dacf	-0.16099094
207	0x3dd979be	0.106189236
208	0x3e225c72	0.15855578
209	0xbd5d5626	-0.054037236
210	0xbdcae40c	-0.09906778
211	0xbd7da6f5	-0.0619268
212	0x3e1cd783	0.15316586
213	0xbe066cfb	-0.1312751
214	0x3e1dea06	0.15421304
215	0x3e2981ab	0.1655337
216	0xbd92ae77	-0.07162183
217	0x3e12b847	0.14328109
218	0x3ab42f97	0.0013747093
219	0x3d124aaf	0.035715755
220	0xbb22b9d7	-0.0024830007
221	0x3d2732f8	0.040820092
222	0x3e22297b	0.15836136
223	0x3d10a3cb	0.035312455
224	0x3c8a1fba	0.016860832
225	0xbdd0cd80	-0.10195446
226	0x3dfa0ab2	0.12209071
227	0xbd762905	-0.060097713
228	0xbe13b7e1	-0.14425613
229	0xbe2d5b17	-0.1692928
230	0x3e2873c2	0.16450408
231	0x3d8d2b30	0.06893003
232	0xbd9523d4	-0.07282224
233	0xbde1f2cb	-0.11032637
234	0xba286b2f	-0.0006424663
235	0xbcf735e2	-0.03017706
236	0xbb0c2bbf	-0.002138838
237	0x3e0c2773	0.13686924
238	0xbdb59f3c	-0.08868262
239	0x3cee6bc3	0.02910412
240	0x3dc2f2f1	0.09518994
241	0x3e0b90e9	0.13629498
242	0x3d0887a6	0.03333249
243	0xbde98f71	-0.114043124
244	0xbd28283e	-0.041054003
245	0xbcd3bc00	-0.025846481
246	0xbd467546	-0.048451684
247	0xbe29bbce	-0.16575548
248	0xbb9addff	-0.004726171
249	0x3e201269	0.15632023
250	0xbdadbb91	-0.08483041
251	0xbd92bd6a	-0.07165034
252	0xbdf9679f	-0.12177967
253	0x3d265d75	0.04061647
254	0xbddb7677	-0.10715955
255	0x3ca81dbd	0.020521993

egnn.layers.0.hidden_mlp.2.bias f4 [16]
0	0x3cc33552	0.023829136
1	0xbe119892	-0.14218357
2	0x3e16f8d5	0.1474336
3	0xbb80720d	-0.003919846
4	0xbdf440b8	-0.119264066
5	0x3db09dcd	0.08623848
6	0xbe065a4d	-0.13120385
7	0xbabeb0c5	-0.0014548531
8	0xbdeb5527	-0.11490851
9	0x3c82e23c	0.015977018
10	0x3cbf242b	0.023332676
11	0x3e0c530a	0.13703552
12	0xbd81c2e0	-0.063359976
13	0x3dc7787f	0.0973978
14	0x3a6a11b2	0.00089290284
15	0x3dd45093	0.10366931
