2-egnca-rework/logs/line4-2024-10-05@23-20-03/best@22.pt (torch, 25525 bytes, 11 tensors)

egnn.layers.0.message_mlp.0.weight f4 [32, 33]
00000000: 48f9 5d3d 32f4 b83d 5dd1 c1bb ac55 cd3d
00000010: 5b68 45bd 43ce fb3c a4a0 57bd 1209 68bc
00000020: c8be 2fbd 9a03 003d de32 093e 2d23 113e
00000030: f5e7 ccbc 7146 7abd 348a bebc 24ee 173e
00000040: 2a89 133e a583 42bd ebaf 5bbd 57c6 1ebd
00000050: 0611 ec3d 4e2d 153e 2241 f4bd 052d 64bd
00000060: e3c9 1cbe 51df 2a3e 5cc0 0b3d f779 413d
00000070: 9be7 b83d fe65 413d effc 21bd 14fa 27be
00000080: 6d56 533d 91e2 d5bc ec18 28be 9649 aabc
00000090: b9b5 bcbd 39a4 cdbd 3898 febd 92ed 0abe
000000a0: 4b18 09bc 2e64 d83c 1c0d 23be 46cf 20be
000000b0: 6cad e6ba eb2b 2abe f7e7 b43d 1b7a 42bd
000000c0: ed7c b3bc eca5 1fbe 072f 04be b7b9 6e3d
000000d0: a5b9 cdbd d220 86bd 5d7f 24be 8bc6 bdba
000000e0: dc89 e6bd f558 2a3d 0ddb 6d3d d09a 033d
000000f0: a811 883d c4f6 edbd 7d2c 3b3c 45ce 16be
00000100: 0e88 ffbd 111c 0c3e 0bbc f53d ab06 06be
00000110: 8d15 c33d 777b 11be 1547 e93c 0324 203e
00000120: d7db 483b c3b0 853d 3adf 1b3e c384 85bd
00000130: 224d 013e ac04 eb3c 6caf 11bd dd15 23be
00000140: 2dbe 2e3e 6faa 2e3e 1fb0 a0bd 244d 2d3d
00000150: 36f2 32be d11b 113d a6d0 bc3d d123 bc3c
00000160: 3f8f bdbd f55a 273e 5c47 c0bd c858 883c
00000170: f04f 20be 7c9e 8b3d 8857 eb3d 90b1 243d
00000180: 9c33 043e 2748 2fbe 22b9 c2bd 554d 293d
00000190: 55da a53d b477 36bd 615f 483d f3e0 29be
000001a0: 9023 2d3e a44d 12be ec92 26be 8990 09be
000001b0: 956d 343e 8a79 2b3d 0bea 26bc 70e4 2e3d
000001c0: 7921 81bb abd6 f0bd 72ba e03d 79d6 16be
000001d0: 6fe4 10bd cd37 de3c 9275 cabd 463b 1f3d
000001e0: b46f 1abe cc2e a6bd 71f5 1e3e 4b13 763d
000001f0: 7851 13be b66f 2f3e f4bb 4fbd 1a5c d33c
00000200: 28d7 ffbc d655 dbbd 7f49 0f3d eb56 fabc
00000210: 6e91 b5bd 54da c93d 20b8 b93d 7b63 f83d
00000220: 07c7 02bd 9403 b2bc 241d d13c 40cc 243e
00000230: 2101 1abe 5216 28bc b62a c73c b85c a23d
00000240: 1648 2cbe 4a78 38be e541 21bc 2927 7d3d
00000250: fcfe 83bd 3fae 0b3e 7449 ff3c 95c4 80bd
00000260: a0b8 65bd 9e47 15be 4888 c53d 883e 1dbd
00000270: 99e9 b73d a519 36be d3d2 f83d e279 7d3d
00000280: 3c37 dfbd 245e cdbd c90d 053e a93b 9b3d
00000290: 81cb 9f3d 2a16 073d d8f0 c3bd 9e18 efbd
000002a0: 1e59 50bd f587 3cbd aa6d eebc 01d3 5fbd
000002b0: 5043 14be 6c53 29be 0656 f8bd f1f9 af3d
000002c0: 388a dcbd f2d0 04be 0019 a1bd e187 703d
000002d0: 0278 65bd 2bd3 36bb b9ca ba3c ca7d eebd
000002e0: ab0d 3abd af7a 6bbd b95d 78bb fea1 e1bd
000002f0: b0d3 ecbc 3a64 a13c 49d3 523d be8d d8bd
00000300: 6cef 173e 6aeb 213d 430a 07be cbc7 1f3e
00000310: e94a d9bd 5435 d13b 857d 023e 04a7 47bd
00000320: f861 283d 1929 9c3d a55a 79bd 0ce6 803c
00000330: 71dd f03d 53cf 92bb 4f7d 57bd 48fc f83d
00000340: ae6d fa3c 9c80 ebbd 209a a33d 85c4 0b3e
00000350: 1f3c 493c cdec 113e fd18 ebbd 1534 293e
00000360: 4b6d ce3d 4602 89bc e357 28be adf5 2b3e
00000370: 7707 97bc b522 af3d 5e44 c4bd 95f7 573d
00000380: 23a7 cdbc a5f2 1c3d ccdd 6a3d bae7 e8bd
00000390: 9748 09be c045 10bc 0eab 2ebd 111b e13d
000003a0: 348e a7bd e870 2e3d b89a 25be de37 a53d
000003b0: 6957 e03d 3333 b53c 6796 c73c 3be8 b23c
000003c0: a8ed 3cbc 99ca 13bd 27a6 023e 8d6a 59bd
000003d0: 1183 a9bc 9454 90bc 2c34 cebd 9e5d 0abe
000003e0: 1aef d0bd 8085 bbbc 6b98 07be f4b3 613d
000003f0: 200a fdbd 4d72 4cbd a4e4 97bd 2847 a4bd
0.05419281 0.090309516 -0.0059148506 0.10026106 -0.048195224 0.030738002 -0.052643433 -0.014162319
-0.042906553 0.031253435 0.1339831 0.14173575 -0.02501295 -0.061102334 -0.02325926 0.14836937
0.14407793 -0.047488827 -0.053634565 -0.03876337 0.115266845 0.14568064 -0.119264856 -0.055706996
-0.15311389 0.16686751 0.034118995 0.047235455 0.0902855 0.047216408 -0.039547857 -0.16403991
0.051596094 -0.026109012 -0.16415757 -0.020787042 -0.09214348 -0.100410886 -0.12431377 -0.13567188
-0.008367608 0.026414957 -0.1592297 -0.15704069 -0.0017599291 -0.16618316 0.08833306 -0.04747973
-0.021910155 -0.15590638 -0.12908565 0.05828258 -0.100451745 -0.06549229 -0.1606421 -0.0014478726
-0.11256763 0.041588742 0.05807023 0.032130063 0.06643993 -0.116193324 0.011424181 -0.14727123
-0.12477122 0.13682581 0.11998757 -0.13088481 0.09525595 -0.14207254 0.028476277 0.15638737
0.0030648613 0.06527855 0.15221873 -0.06519463 0.1262708 0.028688751 -0.035567686 -0.15926309
0.17064734 0.17057203 -0.078460924 0.042309895 -0.17475209 0.03542692 0.09219484 0.022966297
-0.09255838 0.16343291 -0.09388611 0.016643897 -0.15655494 0.06817338 0.11491305 0.0402084
0.12910312 -0.17117368 -0.095079675 0.041333515 0.08098284 -0.04454775 0.048919085 -0.16589718
0.16908097 -0.1428743 -0.16266984 -0.13434042 0.17619927 0.041863956 -0.010187636 0.042698324
-0.003940758 -0.11759695 0.109730616 -0.14730252 -0.0353741 0.027126217 -0.09885706 0.038874887
-0.15081674 -0.081143945 0.15523316 0.060076993 -0.14386547 0.17132458 -0.050716355 0.025800753
-0.031230524 -0.10709731 0.0349822 -0.030559024 -0.08865629 0.09856096 0.09068322 0.121283494
-0.03192809 -0.021730222 0.02552659 0.1609354 -0.15039493 -0.010259228 0.024312358 0.07927841
-0.16824374 -0.18014637 -0.009842371 0.061804924 -0.06445119 0.13640688 0.031162955 -0.06287495
-0.056084275 -0.14578101 0.09645134 -0.038389713 0.08980102 -0.1778322 0.121495865 0.061883815
-0.10899207 -0.100277215 0.1299354 0.07579739 0.07802487 0.03298012 -0.09567422 -0.11674617
-0.05086624 -0.046028096 -0.029105026 -0.05464459 -0.14478803 -0.16535729 -0.12125783 0.085925944
-0.10768551 -0.12970331 -0.078660965 0.058723334 -0.05602265 -0.0027896862 0.022801744 -0.11645086
-0.04542319 -0.057490047 -0.003789766 -0.11017226 -0.028909534 0.019701112 0.05147103 -0.1057391
0.14837426 0.03953115 -0.13187508 0.15603559 -0.10609991 0.006384531 0.12743194 -0.048743263
0.041109055 0.07625026 -0.06087746 0.015734695 0.117609866 -0.0044802814 -0.052609738 0.12157494
0.030569877 -0.1149914 0.079883814 0.13649185 0.0122824 0.14250489 -0.114793755 0.16523774
0.1007944 -0.016724717 -0.16439776 0.16792937 -0.018436177 0.08551542 -0.095833525 0.052726347
-0.025104111 0.03831734 0.05734043 -0.11372323 -0.13406597 -0.008805692 -0.0426436 0.10991491
-0.0818142 0.042588145 -0.16172302 0.080672964 0.10954172 0.02211914 0.02436371 0.021839252
-0.011531271 -0.036081884 0.12758695 -0.05308013 -0.02069238 -0.017618455 -0.10068545 -0.13512275
-0.10201855 -0.022890806 -0.13241737 0.055103257 -0.12355447 -0.049913693 -0.074166566 -0.080213845

egnn.layers.0.message_mlp.0.bias f4 [32]
00000000: 49bb 13bd 0c0d 85bc a6cb 4a3d f95f 1fbe
00000010: 337e 833d eb9c 1bbe 04e6 2abd a538 14be
00000020: bb37 17be 8ec5 b6bd 82ac 013e e009 22be
00000030: af3b 9a3d c183 17bb 08b1 0fbe 921c 3b3d
00000040: 26f3 bebd 34ca d4bd 6d6a 133d 5873 04be
00000050: 7f7d 2a3c d057 6b3d e4fc 523d b1ff bc3d
00000060: d6c7 14be 0581 663d f0df e63d 2cc6 21be
00000070: 2d65 943d a746 553c e826 6f3d 5483 29be
-0.03606728 -0.016241573 0.04951062 -0.15563954 0.06420555 -0.15196578 -0.041723266 -0.14474733
-0.14767353 -0.08924399 0.12663463 -0.1582408 0.07530915 -0.0023119303 -0.14032376 0.045681544
-0.09323721 -0.1039013 0.035990167 -0.12934625 0.010405897 0.05745679 0.051510707 0.09228457
-0.14529356 0.056275386 0.112731814 -0.15798253 0.0724586 0.013017333 0.058386713 -0.16554004

egnn.layers.0.message_mlp.2.weight f4 [32, 32]
00000000: 108f dd3d 6294 19be 4590 943d bb06 2a3e
00000010: e181 05bd 0ad0 a23d 1c39 c0bc e715 bf3d
00000020: fae6 1dbe 3c84 613b 02a1 373e fd04 13bd
00000030: f43f 0dbe 5024 0bbe 837f 3b3d 495c 213e
00000040: cd74 2ebe 4c04 df3d 762d 04be abe1 943d
00000050: cffc ed3c c138 463d 1432 21be 9cd6 283e
00000060: 9c5b 323d 5fc1 92bc 7029 00be 425d e33d
00000070: f242 273e ebc6 a73d a38a b1bc 1d65 2abd
00000080: 217e 37be 176f ec3d 2ef5 aabc 9e6f 25be
00000090: ac23 02bb e62b 143d 9c64 e83d 33b0 7c3d
000000a0: 6e70 f9bd ab3c 48bd 8472 29be cb61 9b3d
000000b0: 1a20 a53d 83c7 d4bd 3c57 1e3d bd9d f23d
000000c0: 383c 233e 2593 fc3d 748f 813d 495a 293d
000000d0: 0aa3 8d3d 4baf 283e 53d9 f83d 066d dd3c
000000e0: 9aa3 9f3c 54a4 fa3d 7aee 2d3e 8d7d ecbd
000000f0: 0613 a6bd 9b99 3c3e 3c18 a0bd dda4 30bd
00000100: b6c5 0e3e 5d82 79bd 414b 2e3e a0dc c7bd
00000110: e04e 95bd 4910 ee3b cba1 483c 8e41 203e
00000120: af2d 8ebd db35 903d 7b40 f6bc d2c7 b2bc
00000130: eb9a 16be 019d 273e a67d b6bd f9ca 1abd
00000140: 38d8 a5bd 5925 243e 1c24 8abd 6194 2abd
00000150: ec55 c13d 2bb9 243e 1a57 243e 39c0 cabd
00000160: b555 77bd 42d9 0f3e 1c1f a33d 218f 0c3e
00000170: 9b45 6d3d d1ec cfbd a503 c5bc 1529 a5bd
00000180: 033b 18be 68cd 443d 8fc4 ba3d 0621 873d
00000190: 971f 113e 9324 93bd 31b5 7b3d cdff 6abd
000001a0: d58c 1f3e e1ee 53bc 6395 fb3d a6af 113e
000001b0: dde5 fdbd 0120 1fbd f548 1e3e ffb7 a8bd
000001c0: d42c 21bd a8bd 113e 9f0b 183e 5168 e43d
000001d0: f5f1 723c 90ee ea3d 7a78 1fbe ff82 a63d
000001e0: 8c79 dfbc 87ad 09be 241b 313d ff96 823b
000001f0: 1b73 8e3d 77fe 6bbd a20c 2d3e 5343 34be
00000200: 7c07 2d3e d597 91bd bf23 c43d 98b1 9abc
00000210: c6be 3cbd e4dc 0abe 0de2 0ebe cc3a 943c
00000220: d431 c6bd d3a9 f8bd 5416 21be fb32 243e
00000230: dec3 2b3d 8d5b a03c 0f5a 37bd be25 1bbe
00000240: 5726 d33d 4187 0d3e 26d6 1d3d 4a24 403d
00000250: 10d8 bcbb e168 783d 13ac 723b d837 ecbd
00000260: 1b72 9abc 7d7b 1d3e c51a cebd 6c02 233e
00000270: a85e cfbd c47f c7bc fc51 e73d 6c8b dfbd
00000280: 0913 f9bc 71d3 0bbe 84ac 3bbc 7fdb cd3d
00000290: 1809 abbd 3bc8 12bd 6a9d c03b ea04 e13d
000002a0: 16c0 ae3c 2485 cebc 1adf cdbd d470 06be
000002b0: 3d9d 2c3e 3fa4 61bd 0431 da3d 7b6b a3bc
000002c0: 3df4 a9bd ca34 81bd 8625 13be 3791 13bd
000002d0: 8248 9c3c 279c a0bd 304b 523d cbf4 b23d
000002e0: 449a e7bd fadc 6ebc a52a f23d 37a2 2cbe
000002f0: a10e d23d 524c 44bd 3036 85bd e0bb d3bd
00000300: 6ace f6bb 8ce6 473d 9178 93bd 8b4b 84bd
00000310: 40ee b93d 10f0 a5bd df3e 5a3c 0f37 d83d
00000320: 3d1b 33bc 5356 5abd 53a9 d7bd 87d7 3ebd
00000330: a008 29bd 5dad e43d 4e00 073c ae3c 13be
00000340: 33cf 64bc 58b5 d1bd de0c 3a3e 8dcc 1abd
00000350: 19ae 22be 6eea abbd bd22 d93d c713 2d3e
00000360: 0d60 eebd 9117 2bbe f4be 4abd 6555 56bd
00000370: 90d2 aebd cafe be3d f571 7d3c 2161 083e
00000380: c2a6 fa3d 9330 f13c 3907 0b3e 592a 08bd
00000390: 4d46 7b3d 83c3 e6bd bc17 0b3d 9f1c 8d3d
000003a0: d56e 30be 5ec6 1d3e 9fe3 f03d 5ed6 cabd
000003b0: a839 743d 554e 303e 4023 63bd f891 ef3b
000003c0: 4e6e adbc 81e8 d8bd 2bb1 bb3d f709 9dbd
000003d0: c626 423d a81c 033d 0a2c ab3d a61b 283e
000003e0: 4042 7c3d 965f 03bd 3af9 4dbd ed2e 173e
000003f0: e716 e03d fe68 223e 241a 94bd 0906 d73d
0.10818303 -0.1499801 0.0725408 0.1660413 -0.032594565 0.079498366 -0.023464732 0.093303494
-0.15420142 0.0034411093 0.17932513 -0.03589343 -0.13793927 -0.13588071 0.0457759 0.1575786
-0.17036743 0.108894914 -0.12907967 0.07269605 0.029051213 0.04839397 -0.1574176 0.16488117
0.043544397 -0.017914472 -0.12515807 0.11101772 0.16334131 0.081922375 -0.021672552 -0.041600335
-0.17919208 0.11544626 -0.020868864 -0.1615586 -0.0019857688 0.036174677 0.11347315 0.061691474
-0.121796474 -0.048885982 -0.1654759 0.07587012 0.080627635 -0.10389616 0.038657412 0.118464924
0.1594094 0.12332753 0.0632619 0.04134587 0.06915863 0.16473119 0.12150826 0.027029525
0.019487191 0.12238374 0.16985503 -0.115473844 -0.08109097 0.18417971 -0.07817122 -0.043125976
0.13942608 -0.06091534 0.17020895 -0.09758878 -0.07290435 0.007265125 0.012245606 0.15650007
-0.06942307 0.07041522 -0.030060044 -0.021823797 -0.14707534 0.16368486 -0.08910684 -0.037791226
-0.08097881 0.16029872 -0.067451686 -0.04164541 0.094402164 0.16086261 0.16048852 -0.09899945
-0.06038447 0.14047721 0.07964918 0.13726474 0.05792771 -0.10152591 -0.02404959 -0.080644764
-0.14866261 0.048047453 0.09119522 0.065980956 0.14172207 -0.0718471 0.061452094 -0.057372857
0.15581067 -0.012935371 0.12284353 0.14227161 -0.123973586 -0.03884888 0.15457518 -0.082382195
-0.039349392 0.14232504 0.14848183 0.11152709 0.014828195 0.114712834 -0.15573302 0.08130454
-0.027279638 -0.13445102 0.043238774 0.0039852853 0.069555484 -0.057615723 0.1689935 -0.17603807
0.16897386 -0.07109038 0.095771305 -0.018883511 -0.046080373 -0.13560826 -0.13953419 0.018094443
-0.09677473 -0.121417664 -0.15731174 0.16035073 0.04193484 0.019574905 -0.04476362 -0.15151116
0.10310047 0.13821127 0.038534306 0.046909608 -0.0057630613 0.060646895 0.0037028834 -0.11534089
-0.018853238 0.15379138 -0.100637 0.15918893 -0.10125476 -0.024352916 0.11294934 -0.109152645
-0.030404584 -0.13654877 -0.011454705 0.10051631 -0.08351344 -0.035835486 0.00587814 0.109872654
0.021331828 -0.02520997 -0.10052319 -0.13128978 0.16856857 -0.055088278 0.1065388 -0.019948712
-0.08298538 -0.06308897 -0.14369783 -0.03602716 0.019077543 -0.07842284 0.051341236 0.08738097
-0.11308721 -0.014579052 0.1182454 -0.16858755 0.102566965 -0.047924347 -0.06504476 -0.10338569
-0.0075319307 0.04880385 -0.072007306 -0.06459721 0.09078646 -0.08102429 0.013320654 0.105573766
-0.010931787 -0.05330498 -0.10530343 -0.04659226 -0.04126799 0.11165879 0.008239819 -0.14378616
-0.013965416 -0.10239667 0.18168971 -0.03779273 -0.15886725 -0.08394323 0.10602329 0.16902076
-0.11639414 -0.16708209 -0.049498513 -0.052327532 -0.08536255 0.09325941 0.015469064 0.13318302
0.12238838 0.029442107 0.13576974 -0.03324351 0.06134634 -0.1126776 0.03395818 0.06890225
-0.17229779 0.15407702 0.11762165 -0.099041685 0.059625298 0.17217381 -0.05545354 0.007311102
-0.021170761 -0.105912216 0.091646515 -0.07667916 0.04740026 0.03200975 0.08358009 0.16416797
0.06158662 -0.03207358 -0.05028651 0.14763995 0.10941868 0.15860364 -0.072315484 0.10499198

egnn.layers.0.message_mlp.2.bias f4 [32]
00000000: cc98 0f3b 44fe e43d 6751 943c a49e 293e
00000010: 08c4 c9bc 44d1 23be df10 1fbe 3836 a7bd
00000020: 5ec5 793d cec1 c93d 9ee6 9d3d f4c5 1a3e
00000030: 2e13 31be b298 9b3d 5d9f 8dbc 8419 0abe
00000040: 1ab9 2f3d f701 293e 5bcc 4b3d c8b7 e23d
00000050: 7665 ca3d bbbe dfbd 3a15 31be f7db 27be
00000060: f97c 163e 40a5 01be 2b2b 68bd 812c 143e
00000070: d0da 1c3e f413 f2bd 3774 9c3d 6130 d6bb
0.0021911142 0.1118131 0.018105222 0.16564423 -0.024629608 -0.15997797 -0.1553378 -0.08164638
0.06097924 0.098514184 0.07710002 0.15114576 -0.17292473 0.07597484 -0.017287904 -0.13486296
0.042901136 0.16504656 0.049755435 0.1107021 0.098826334 -0.10925051 -0.17293254 -0.16392504
0.14696111 -0.12660694 -0.056681793 0.14470102 0.15317845 -0.11820212 0.07639354 -0.006536529

egnn.layers.0.coord_mlp.0.weight f4 [32, 32]
00000000: af5c febc 2b88 b9bb 3fc8 943c c480 31be
00000010: f7ce ecbd f520 aa3d f0e0 c83d 0083 7e3d
00000020: ad35 e1bd 2f38 b5bc 3f73 f83d 6a0f e8bd
00000030: 3bbf 003e af48 7b3d 0531 d2bd 8962 28be
00000040: 87db 943d a800 293d 1122 cfbd 5752 06be
00000050: d5af 213d 546f 8a3d e798 8cbd fed9 1a3e
00000060: b6dd fe3d 15cc cf3d 67d3 0c3e fee7 d6bd
00000070: 0652 1a3e 6eec 23be 33a9 4abd a1f8 08be
00000080: f55a 11bd 434d 21be 6c2a 11be 0a08 f1bd
00000090: b6f7 093d bddf e4bd b819 ef3b a9c2 203d
000000a0: 9212 1dbe 705a 083e a975 20bd c99a ed3d
000000b0: 833c 8dbb 9d29 d83d e5f8 943c feeb e4bd
000000c0: c5e1 29be 25c4 07be a07f dbbd 7b09 f0bd
000000d0: 5858 313e 6c9c 04be 1a7a 673c 59e8 eabd
000000e0: d4e9 053e 728c 8fbc 9ecf b1bd 1538 d93c
000000f0: ed0f afbd 92a6 a33d f376 49bc f354 02be
00000100: 8415 1abd 435c c7bb 3e64 a2bb 3ca7 9cbd
00000110: 2b02 1f3d 1487 353e fe69 dabd 64d7 85bd
00000120: bb66 b93b a1d2 ed3d 4cd6 97bd 272d 0dbe
00000130: 82db 2b3e b687 7b3d e9af a03d 94a5 38bd
00000140: 1aa5 153e 457d 1ebb 40ca 5a3d 5385 293e
00000150: 1fc1 eabd 3538 02be 299d ea3d 4d56 d63d
00000160: 5704 31b9 9203 acbd ecc6 173e fde1 0bbe
00000170: c38c 93bc b29c 21be 0293 023e 74c1 f03c
00000180: f48b 6cbd f2aa ecbd dcb6 1fbd 688e 0ebe
00000190: 9353 1b3e 6887 c7bd 5a43 d8bb 6880 cf3c
000001a0: e313 e23d 74ce 84bc f96d f73c 7922 04bc
000001b0: 86d8 343a d9a1 d23d b46a e23d 5e35 97bc
000001c0: 62b6 5c3d 1cbf 14bd 5899 9c3d 4695 3a3c
000001d0: b6d1 b3bb c8da a03b 0885 093e 4830 e83d
000001e0: 7b58 01bd 8f73 fa3d a4d9 383c ac75 8bbd
000001f0: 56f6 b2bd 5040 c93d 9b69 72bd 666b 60bc
00000200: 5f0d 9abd 8571 e5bd 0759 073e ffeb 113e
00000210: 9757 1abe c584 0d3c 0da3 053e 2464 073e
00000220: 14aa 483d 3e2d 583d 19f7 07bd 0838 da3c
00000230: 1fd8 ce3d 86a4 c5bd 033e d9bb 84a4 343e
00000240: b708 ed3d 5661 a73d 423d dd3c b13f 183e
00000250: 9a2f e4bc 4b7c 49bd 7ee9 9ebd c3a0 bf3d
00000260: 319d 0abe 940f bb3c ad2f d23c 4ad8 c5bd
00000270: 07a5 c23d 5a1a 99bc 0f50 913d 5e78 97bd
00000280: 08d3 103d 3a5b 0c3e 2fe6 463c 117f dabd
00000290: e2fc 3cbd 7ea5 43bd 7491 c63a 8a86 7ebd
000002a0: aa07 113d f72b 87bd 8acf 9a3c 59ce 16be
000002b0: 71a3 23bd ca5c ae3d 26ae c23d ae56 00be
000002c0: c1c8 d7bd 4c28 9b3c 148c ef3c 4f5f 4dbd
000002d0: 3cb5 e23d 01ce aabd 0f3a d5bd 2e57 0c3e
000002e0: b3fa bebd 09e7 f0bc d008 05be 594b 9c3d
000002f0: fa35 5cbd a6fb c63d 4e46 b63d cb95 10be
00000300: 8515 efbd e7cf 233e 2bdd 1abe 9b0b fcbd
00000310: 4427 13be 1555 083e e128 bbbc 9b30 1abe
00000320: ebc2 07be 8e7b 123e d28c 9dbd 2b64 033e
00000330: aa78 223e 9438 513d 6c77 a5bd 268c 323e
00000340: 3df1 253e ed62 093e 9ec0 7cbd 3df0 093e
00000350: 4123 ccbd 7249 a33d 90e0 8d39 e844 1a3e
00000360: d1e3 243d 5a47 943d 2929 ffbd a5c7 063e
00000370: cb31 81ba 0f8d b2bc ba4f b33c a5d1 73bd
00000380: 2841 21be cbe9 27be 7ede 673d 7722 9bbd
00000390: 7928 f2bd c5f3 0e3e da3a 303e d523 2fbe
000003a0: b385 f1bd bc17 e9bd a034 8d3d b5b4 b13d
000003b0: aa1b bcbd 781b dbbd f944 f13d cda0 dabd
000003c0: c515 b2bd c340 2b3e aa13 43bb 4552 8bbd
000003d0: cb9d c63d 54c2 28be 2f1d 2b3e daaa bebd
000003e0: 991d c83c 0046 e5bd 10de f33d 2e88 d63c
000003f0: 4cab 17be b2fc e6bd 596f d83d a855 83bd
-0.031050054 -0.0056619844 0.018161891 -0.17334276 -0.11562913 0.08307067 0.098085284 0.06213665
-0.10996566 -0.022121517 0.121313564 -0.11331065 0.12572949 0.061348613 -0.10263256 -0.16443838
0.07268434 0.04126039 -0.101139195 -0.13117348 0.039474327 0.067595154 -0.06865101 0.1512222
0.12444632 0.101463474 0.13752519 -0.10493468 0.15070352 -0.1600816 -0.049477767 -0.13376094
-0.035487134 -0.1575213 -0.14176339 -0.117691115 0.0336835 -0.11175487 0.007296767 0.039248142
-0.15339115 0.13315749 -0.03917471 0.116017886 -0.004310192 0.10554812 0.018185088 -0.111778244
-0.1659003 -0.13258417 -0.10717702 -0.11720558 0.17318857 -0.12950295 0.014128232 -0.11470098
0.1307748 -0.017523024 -0.08682178 0.026516 -0.085479595 0.07990755 -0.012296426 -0.12727718
-0.037618175 -0.0060839965 -0.0049557975 -0.07649085 0.038820427 0.1772731 -0.10664748 -0.06535223
0.0056579984 0.1161244 -0.07413921 -0.13786756 0.16782954 0.06140872 0.07846052 -0.045079783
0.14613762 -0.0024183553 0.053415537 0.16554765 -0.11462616 -0.12716754 0.11455757 0.10465679
-0.00016881652 -0.083991185 0.14821976 -0.13660426 -0.018011456 -0.15782431 0.12751392 0.02938912
-0.057750657 -0.11556043 -0.038992748 -0.13921511 0.151686 -0.097426236 -0.006599826 0.025329784
0.11038949 -0.016211726 0.030203806 -0.00806486 0.00068987196 0.10284776 0.11055508 -0.018458065
0.05388487 -0.03631507 0.076464355 0.011388129 -0.005487646 0.0049088933 0.13429654 0.11337334
-0.031578522 0.12229072 0.011282358 -0.068095535 -0.08738391 0.0982672 -0.059182744 -0.013697481
-0.075220816 -0.11203293 0.13217555 0.14250182 -0.15072475 0.008637612 0.1305048 0.13221794
0.048990324 0.05277752 -0.033194635 0.026638046 0.100998156 -0.09650521 -0.006629707 0.17640883
0.11573928 0.08172862 0.027006749 0.14868046 -0.02785473 -0.0491908 -0.07759379 0.09356835
-0.13536526 0.022834577 0.0256575 -0.096603945 0.09504133 -0.018689323 0.07095348 -0.07396005
0.035357505 0.13706675 0.012139841 -0.10668767 -0.046139605 -0.047765248 0.001514955 -0.062140025
0.0354077 -0.066001825 0.01889779 -0.14727153 -0.03995079 0.08513792 0.095058724 -0.12533066
-0.10536338 0.018940113 0.0292416 -0.05013972 0.11069724 -0.083400734 -0.104114644 0.13705131
-0.09325161 -0.029407041 -0.12991643 0.07631559 -0.053762414 0.09715967 0.08900128 -0.14119641
-0.116740264 0.15997277 -0.15123431 -0.12306901 -0.14370447 0.13313706 -0.022846641 -0.15057604
-0.13257949 0.14304945 -0.07692875 0.1283118 0.15866342 0.051079348 -0.080794185 0.17436275
0.16205306 0.13416643 -0.06170713 0.1347055 -0.09967662 0.07972993 0.00027060928 0.15065348
0.040256325 0.07240172 -0.124590226 0.13162096 -0.0009856758 -0.021795778 0.021888603 -0.059526104
-0.15747511 -0.16397779 0.05660867 -0.07574933 -0.11824126 0.13960178 0.1720995 -0.17103513
-0.11793079 -0.1138148 0.06894803 0.08677045 -0.09184964 -0.106985986 0.117807336 -0.106752016
-0.086955585 0.16723923 -0.002976636 -0.06802801 0.09698065 -0.1648038 0.16710351 -0.09309931
0.024428176 -0.11194992 0.119075894 0.026187982 -0.14811438 -0.112786666 0.10568113 -0.06412822

egnn.layers.0.coord_mlp.0.bias f4 [32]
00000000: 2b12 38bd 56ec a6bd f42c 27be 788b 0d3e
00000010: 6f9d e5bd cbf8 0e3e bd1e a83c 1602 9cbd
00000020: d71a d3bd ac65 0bbe 7fc3 263e d15f 66bd
00000030: a72b d83c 46fd 07bd 9a68 2f3e c8b3 303e
00000040: 9adf eb3c 9a91 c5bd 7346 3f3d 4c24 2bbe
00000050: 4518 25be 3cf7 573c a11f a13b 0c42 fb3d
00000060: 5e5f a5bd d0d9 f13c 0908 c33d 955f 29be
00000070: 63b1 833d 3079 f4bd 7783 af3d ffb2 d43d
-0.0449392 -0.08150546 -0.16325742 0.13822734 -0.11211669 0.13962094 0.02052247 -0.07617585
-0.10307854 -0.13613003 0.16285513 -0.05624372 0.026388003 -0.033200525 0.17129746 0.17256081
0.028793145 -0.09646912 0.046698045 -0.16713065 -0.1612254 0.013181504 0.0049171005 0.12268457
-0.080748305 0.029522806 0.09523017 -0.16540368 0.06430318 -0.11937177 0.08569997 0.10385703

egnn.layers.0.coord_mlp.2.weight f4 [1, 32]
00000000: 7035 8dbb eee0 83bb d8b2 c0bb e837 8b39
00000010: 84f4 bebb 08a5 cc3b 40e4 ffbb ffe9 dbbb
00000020: 4440 e0bb c9c1 06bc 355a b93b 2562 3f3b
00000030: cdd7 eb3b c043 423b 9657 6b3b fc24 d13b
00000040: 6ba3 d0bb c197 2bbc 6ce5 893b 4902 a9bb
00000050: 2e2b 25bc b90c d23b da1a 003c 3cf3 f13b
00000060: c34f b93b f5e1 193c 92f2 4a3b ff72 bbbb
00000070: a089 1abc ae59 bbbb 85a8 893b 4d3d 5d3b
-0.0043093488 -0.0040246164 -0.005880695 0.000265538 -0.0058274884 0.006245259 -0.007809192 -0.006711244
-0.0068435986 -0.008224913 0.0056565055 0.0029202786 0.0071973563 0.0029642433 0.003591036 0.0063825827
-0.006367137 -0.010473193 0.0042082574 -0.005157743 -0.010081096 0.006410208 0.007818902 0.007383732
0.0056552603 0.009392251 0.0030967337 -0.0057204957 -0.009432226 -0.0057174778 0.0042009973 0.0033758462

egnn.layers.0.hidden_mlp.0.weight f4 [32, 48]
00000000: 51d9 3e3d 542c fb3c 13be debd c324 0abd
00000010: a4b5 fa3d 4199 723c 369a 06be 7ebd 9ebd
00000020: 9ea2 94bd 8ccb 903c f0e9 edbd c8fe fb3d
00000030: 0592 b83d 2061 be3c 00b3 04be 5b4d 473b
00000040: 3ff4 da3a d14a 89bd 7f34 e9bd 78d1 17be
00000050: ba3c 7d3d 7fce 423c a0fe 1c3d 1e1b fe3d
00000060: 60ee 45bd 6472 edbd 51a1 f9bd 5691 06be
00000070: f0af 8a3d 5009 a0bd 69d7 c63d f11a 91bd
00000080: 23aa f43b 453c 893d 5aea 4c3d 3de5 083e
00000090: f710 4d3c 4615 81bd 5851 563c f481 59bd
000000a0: fd41 e93d b093 3bbd 891c c0bd 7274 21bd
000000b0: 5013 8dbd 5e23 f13d c6f1 80bd e05b 35bd
000000c0: 395f 97bd dbe1 093e bfc6 e4bd 379a e73d
000000d0: e2b1 78bd a2c0 a93d bfea 463d 9198 cdbd
000000e0: d982 0abe 0719 963d ee2b a4bd 822e b5bd
000000f0: b4cd a6bd 4752 c8bc 2570 83bd e008 b23d
00000100: dc93 733c 81b5 a2bd 1372 cfbd 3e20 723d
00000110: b694 f7bc 5c3e 69bd be3f 123e 540f d8bd
00000120: 1eb6 a53d 2ff4 7dbd 434c 3a3c 9c72 4d3d
00000130: df58 27bd ff3a 953c 2b1e 74bd 6e47 36bd
00000140: a554 69bb 0d8a d13d b6c5 aa3c d2f5 48bd
00000150: 4d16 39bd 0697 74bc 74ae 84bd 0edd 07bd
00000160: a1f4 c53d 678e 723d 608d b33d d7c6 bcbd
00000170: 201a bb3d 19df 4a3c 7f9d f03d 1225 a23b
00000180: 1124 eebd 38c2 863d 1d61 d03c 5661 ab3d
00000190: 4674 3abd 769b 8fbd 2c6b f0bd d93a d63d
000001a0: 5e0b eabd deb2 1abd a453 023e 473c d9bd
000001b0: 6106 d83d e3aa 033d cf9c ebbd 946f ca3d
000001c0: c480 a9bd ee87 803d 3d47 dbbd fccf 0dbe
000001d0: 37e9 81bd 4098 7dbd fa18 ef3d ea2e 01bd
000001e0: 0505 0b3e e2bf 463c 6292 353d 23b2 ec3d
000001f0: 61d5 ac3d 5b26 533d 609e 163d 663b 743c
00000200: 770e 653c 4b70 083e 1198 a1bd d473 c33d
00000210: b140 533d bab0 63bd 3e30 b0bd 71f3 7dbd
00000220: d450 d83d b854 02be 0c12 113d 3795 f43d
00000230: 88b5 e8bd dcca 0fbe 6110 0abe c327 a9bd
00000240: 1087 bf3d 841b d23d 4700 53bd da44 edbd
00000250: 616a 8c3d 3295 93bd 080e 073e 6eea b63b
00000260: b652 883d 53fe 933c 518a dcbd 59c7 d7bd
00000270: e617 8b3d caf1 acbd 1416 b4bd 40cd 943d
00000280: ce2e 063e 765b a4bd c2d6 9f3d 907d d6bc
00000290: 2f73 96bd 0272 0c3e 092e b93d 13c0 183d
000002a0: f6ab b4bd 195a 95bd 8b2f af3d b89e 393c
000002b0: 7345 09be f0ca 31bd abbe 133c 5038 573d
000002c0: 3d50 86bd dec2 cf3d 8149 ebbd a982 c03d
000002d0: ec57 b1bd 5883 f0bd 94d6 de3d 8ee9 e0bc
000002e0: 6891 d63d 770b 0abe b3bc 6d3d 55b2 813d
000002f0: cfcb 8e3d beb0 56bd 2e6f 663b 18bd 91bc
00000300: dc92 dabd 0a2b 79bd 6436 d0bd 3a71 983d
00000310: 3fa7 033d c451 573d 21e4 0ebe 1af0 733d
00000320: 7ac9 9bbd d8d7 ccbd fc43 e3bd 18b6 023e
00000330: 0256 a8bd cf51 c33d 2a50 a6bd afa9 813d
00000340: b4d6 183d cb1b ecbd afb7 bebd 78b9 9c3b
00000350: 2d3a e6bc 1e81 ec3d 72d4 ffbd 5604 343d
00000360: 7b05 8dbc 0710 a4bd c126 00be 54d0 4cbc
00000370: 208f d13c fcb0 93bd 39b9 e63d c643 ec3d
00000380: a36e 02be 89e4 b8bd b433 723d fa97 bf3d
00000390: 2b15 babd 16d6 c13d 44fc e4bd e18e 92bd
000003a0: d2c9 043d 6613 883d 4550 a83c 55ef 94bc
000003b0: 5950 593d 0364 c7bd ac0d 683d f14e 103e
000003c0: de1c eebc f098 50bc b962 c43d c0ac 9a3c
000003d0: aa31 12bd d877 e83d 3c03 a8bd 22f7 a93d
000003e0: 92b5 ab3d da87 ecbd 37aa e7bc 7cf2 6b3d
000003f0: f7e7 223c e19e cc3c e3a6 e33d 60e7 ca3d
0.046593968 0.030660786 -0.108760975 -0.033726465 0.122416764 0.014807046 -0.13144764 -0.077509865
-0.07257579 0.017675184 -0.11616886 0.12304455 0.09012226 0.023239672 -0.12958908 0.0030411098
0.0016704871 -0.06703723 -0.11386966 -0.14826 0.06182549 0.011890053 0.038328767 0.12407516
-0.048323035 -0.11594084 -0.12188972 -0.13141379 0.06771839 -0.07814276 0.09709055 -0.07085217
0.007466571 0.067009486 0.050028183 0.13368697 0.012516252 -0.06302886 0.013080917 -0.05310245
0.113895394 -0.045795143 -0.09380443 -0.03941769 -0.06888449 0.11774324 -0.062961146 -0.044277072
-0.07391209 0.13465063 -0.1117072 0.11308711 -0.060716517 0.08288695 0.048563715 -0.10038865
-0.13526477 0.07328992 -0.080161914 -0.08846761 -0.081447035 -0.024453295 -0.06417874 0.08693099
0.014866795 -0.079447754 -0.1012918 0.05911278 -0.030222278 -0.056944236 0.14282128 -0.105497986
0.08091377 -0.06200045 0.011370721 0.05015813 -0.04085624 0.018216608 -0.059599083 -0.044501714
-0.003560343 0.10231409 0.020846229 -0.049062558 -0.045187283 -0.014928585 -0.06478587 -0.0331698
0.096658 0.059217837 0.087671995 -0.09217613 0.09135842 0.012382292 0.1174879 0.004948267
-0.11627973 0.06580013 0.025436932 0.08368175 -0.045521043 -0.07012074 -0.117391914 0.10460443
-0.11427949 -0.037768237 0.12727219 -0.106072 0.10548092 0.032145392 -0.11504518 0.09884563
-0.08276513 0.062759265 -0.10706947 -0.13848871 -0.0634331 -0.061912775 0.11674686 -0.03153888
0.13576134 0.012130709 0.044329055 0.115574144 0.08439136 0.05155025 0.036772132 0.01490674
0.0139804995 0.13324086 -0.078903325 0.09543577 0.051575366 -0.05558846 -0.086029515 -0.061999742
0.10562292 -0.1272763 0.0354176 0.11942523 -0.11362749 -0.14042228 -0.1348281 -0.08259537
0.09351933 0.102591544 -0.051513936 -0.11585398 0.06856228 -0.07206191 0.13188946 0.0055821454
0.06656401 0.018065607 -0.10768569 -0.105360694 0.06791668 -0.08444555 -0.087932736 0.07265711
0.13103792 -0.08025257 0.07804634 -0.02618292 -0.07346188 0.13715366 0.09041984 0.03729255
-0.088218614 -0.072925754 0.0855399 0.011329345 -0.13405399 -0.043406427 0.009017627 0.05254394
-0.06558273 0.1014459 -0.11488629 0.093999214 -0.08659348 -0.11743802 0.10880771 -0.027455118
0.10476953 -0.13480936 0.058041286 0.06332842 0.06972467 -0.05241465 0.0035161483 -0.017790362
-0.106725425 -0.06083206 -0.10166624 0.07443471 0.03214192 0.052568212 -0.13954212 0.05955515
-0.07606788 -0.100021064 -0.11096951 0.12764776 -0.0821953 0.09537088 -0.08120759 0.06331193
0.03731413 -0.115287386 -0.093123786 0.004782852 -0.028103912 0.11548065 -0.124916926 0.043949448
-0.017214527 -0.080108695 -0.12514783 -0.012500841 0.025580943 -0.072114915 0.11265797 0.11536364
-0.12737517 -0.090279646 0.05913134 0.09355159 -0.09086069 0.09464662 -0.11180928 -0.07156158
0.032419033 0.06644325 0.020546088 -0.018180529 0.05305514 -0.097358726 0.056653664 0.14092614
-0.0290665 -0.012731776 0.09589142 0.018881202 -0.035691895 0.113509834 -0.08203742 0.0829909
0.08384241 -0.11549349 -0.028279407 0.057604298 0.009943 0.024978103 0.111158155 0.099074125

egnn.layers.0.hidden_mlp.0.bias f4 [32]
00000000: eaaf 6e3d 6380 1b3b 6dbd 163d 1bcd bebd
00000010: 5661 423d 8823 0dbc 8db5 97bd 8697 e6bd
00000020: b5cc 5b3d 6aa9 a7bd 9e77 d63c 201a 0dbe
00000030: 4c81 733d 06de 423d c5d2 b1bb 7f65 abbb
00000040: 228d 053e 65c3 503d 1a93 babd 1ce8 5bbd
00000050: 5865 56bd e3ce c0bd ea60 d6bd 8281 08bc
00000060: 355e 9ebd b438 fcbb a685 023d a1a5 98bd
00000070: 460b 6fbd 0c5a 0bbe 6c12 123d ea94 173d
0.058273233 0.0023727647 0.036801744 -0.093164645 0.047456108 -0.008614428 -0.07407675 -0.112593696
0.05366202 -0.0818661 0.026180085 -0.13779497 0.05944948 0.04757502 -0.005426737 -0.005230605
0.13042119 0.050967593 -0.09110089 -0.053688154 -0.052342743 -0.094144605 -0.10467704 -0.008331658
-0.07732812 -0.007697189 0.03186574 -0.07453466 -0.05836036 -0.13608569 0.0356621 0.03700725

egnn.layers.0.hidden_mlp.2.weight f4 [16, 32]
00000000: 8894 04be 2a77 dabd 5787 0dbd b77f bf3b
00000010: 68d7 ba3b e0a3 173e 125c 21be aea6 8f3d
00000020: 30dd 0f3e 9c1a 223e 5e40 993c 6ae5 203e
00000030: 7ab9 c8bd f1e3 03be b369 3ebd 95fe b7bd
00000040: 8f95 ae3d d0e1 35bd d122 be3d 4541 8cbd
00000050: 4d07 9fbd 52b0 7bbd 1b80 77bc f6ab b0bd
00000060: 8830 d33d 9c56 f73d d1bf df3c 4013 2dbe
00000070: f2d3 0b3e 5afd fdbd 2fe0 02be c8d3 c13d
00000080: 2631 dfbd 5826 0ebe 2fe8 03be dfe9 163e
00000090: 162e 3a3d 2dff af3d ddd0 0e3d ea37 af3d
000000a0: 5e92 313e 85bc c4bc d0a1 e1bd 37c5 07bd
000000b0: 21b2 84bd b883 28be 96f6 00be 6395 8abd
000000c0: 0763 143d 24b5 af3d c484 e13d cd1e 31be
000000d0: 33a4 83bc f81a 02bd af3e 143e 6a07 33bd
000000e0: 12d3 383e 9e10 1e3d c506 a53c 2e31 953d
000000f0: 6095 023e 961d cbbd 3cd8 a43d 5b34 95bd
00000100: 388e 4d3d 0a9f da3d e31b adbd f2be 49bd
00000110: 0bec 243e 1fde 2bbe ac55 05bd fa93 103e
00000120: c3c6 2e3d d6b5 19be 164f c83b 3697 18be
00000130: c631 84bd 2d68 013d 886c ba3d 712f bebd
00000140: 807d 1b3e 00e3 f6bd 9c25 00bd 6fd1 1fbe
00000150: bc01 a4ba 5a37 36bc 076e a33d 2b0b f3bd
00000160: 2f61 3d3c eab0 793d 94ac e4bd 1e5f 233e
00000170: d4a5 0bbd eb0b 34be 7c60 17bd 44d5 3e3d
00000180: a33a a9bd 05af 78bd 8899 913d f2c3 e1bc
00000190: 3102 673d fd80 cf3b b4b3 34bc 839e 0f3e
000001a0: c8c2 a5bc f7a1 093e 3642 8bbd 6b0a dc3d
000001b0: a669 b33d f543 fabd 5d67 46bd 61e4 e4bd
000001c0: db18 d93c 748a 5b3c ea09 51bd 67c3 173e
000001d0: 18e4 293e 2385 04be f543 b7bd 6251 943c
000001e0: ab19 f73d e310 ccbd fe3e c3bc 70b4 cabc
000001f0: e74e 14be d1a9 72bb 65b3 4fbc 16da 543d
00000200: 05a5 f63d 80ec 53bc b161 083e b635 80bd
00000210: 241c eabd 068e 8c3d 913d 023e 2e39 05bb
00000220: 9606 00be 7fae a5bd 7e8e cabd cfa5 3e3d
00000230: 9b2b 403d dd12 1fbe ca0a d6bc 3ceb 113d
00000240: d0c2 8bbd 8337 2c3e c154 0d3e 9af0 b0bd
00000250: abdd 983c f2ec 0cbd 7570 20be 4035 0e3c
00000260: c0f2 fd3d 18bc cb3d 9e32 b53d 0660 80bd
00000270: 9274 d3bd 8e08 1dbe 9e09 1dbe ef50 133b
00000280: 10f1 0d3e 3458 583d 0356 2ebd c7c1 9e3c
00000290: 8eb9 0f3d 6310 a5bd 4c21 d73d ba91 873d
000002a0: bf17 29bd f3c4 d5bc 72a6 2abe 8dd4 9a3d
000002b0: 389e cf3c 16e6 f33d fcab 523d 348c 0ebe
000002c0: be70 5ebd 11bf db3d 16da 223e 9a64 403d
000002d0: 6d14 133e 68f9 2c3e e992 48bd 70dc 183d
000002e0: cbec 293e 7332 37bc d8de d2bd 5213 f1bd
000002f0: 802d 97bd 732b 33be eb1c b5bd e0dc c33d
00000300: e4e6 0b3e 166d c23c 7f06 8ebd fc78 e4bd
00000310: 28dd 0ebe 5340 083d 5aa4 263e ac1c e8bd
00000320: 7243 2f3e 28a7 9abd 71d2 edbd 5d04 d13d
00000330: b757 d9bd 86b8 263e dc04 20be dab0 ce3d
00000340: 3941 273e fd88 6fbd de33 d5bd c6df 6dbd
00000350: 4b57 203e 27b9 00be f504 193e 78d1 283e
00000360: 600b 9cbd b949 0e3e 74c9 903b 68de fb3c
00000370: c788 75bb 4b37 143d 592f 273e 8e5a f63c
00000380: be02 a53c 8040 d4bd d942 f33d 590b 72bd
00000390: b81a 14be 8d0f 30be 12f5 2a3e 1979 8a3d
000003a0: ac5e 94bd 332f e1bd 8873 ecbb a8f8 f8bc
000003b0: 2905 3cbb 4d2e 0b3e 88be bfbd 8e9c ff3c
000003c0: dc3c c83d 84fb 0b3e 94b2 123d 528b f1bd
000003d0: d5d7 21bd 5feb f9bc 6e7e 3fbd 61b8 2cbe
000003e0: 9aad 9fbb 91b2 223e 1f14 b0bd 635c 92bd
000003f0: 3a82 fbbd 5c59 2b3d 843e e4bd 31f8 b43c
-0.12947285 -0.1066726 -0.0345529 0.005844082 0.005701948 0.14808607 -0.15757778 0.070142135
0.1404922 0.15830463 0.01870745 0.15712515 -0.09801002 -0.12879921 -0.04648752 -0.089841045
0.0852462 -0.044404805 0.092839845 -0.06848387 -0.077650644 -0.06144745 -0.015106226 -0.08626549
0.10311991 0.12077066 0.027313145 -0.16901875 0.1365507 -0.124018386 -0.12780832 0.09464222
-0.10898046 -0.13881814 -0.1288154 0.14737652 0.045454107 0.08593593 0.034867156 0.08555587
0.17340991 -0.024015674 -0.110171914 -0.033147063 -0.06479288 -0.16456497 -0.12594065 -0.067667745
0.036227252 0.08579472 0.11011651 -0.17296906 -0.016069507 -0.031764 0.14477037 -0.043708242
0.18049267 0.038590066 0.02014483 0.07284771 0.12752295 -0.099177524 0.08049056 -0.07285377
0.05018446 0.106748655 -0.084525846 -0.049254365 0.16105668 -0.16783951 -0.032552406 0.14118949
0.042670023 -0.15010771 0.0061129434 -0.14901432 -0.06454806 0.03159349 0.09102732 -0.092863925
0.15184593 -0.120550156 -0.031285867 -0.15607236 -0.0012512724 -0.011121595 0.079799704 -0.118673645
0.011558815 0.060959734 -0.11165729 0.15954253 -0.034093693 -0.17582671 -0.03695725 0.046590105
-0.08263137 -0.060713787 0.07109362 -0.027559254 0.056398574 0.0063325153 -0.011029173 0.14025311
-0.02023448 0.13440691 -0.06799738 0.107441746 0.08760385 -0.12219993 -0.04843842 -0.11176372
0.02650111 0.013399709 -0.051034845 0.14820634 0.16590917 -0.12941413 -0.08948509 0.018105213
0.12065443 -0.099641584 -0.023833748 -0.024744242 -0.14483224 -0.0037027488 -0.012677048 0.051965795
0.12043194 -0.012934804 0.13318516 -0.062602445 -0.11431149 0.06863026 0.12718798 -0.0020328271
-0.12502512 -0.08089923 -0.098904595 0.046544846 0.046916585 -0.1553454 -0.026128192 0.035624728
-0.06824267 0.16818051 0.13801862 -0.08639641 0.018660387 -0.034405656 -0.15667899 0.008679688
0.123998165 0.099479854 0.08847545 -0.06268315 -0.103249684 -0.15335295 -0.153357 0.002247866
0.1386149 0.052818492 -0.042562496 0.01937951 0.035089068 -0.08059766 0.10504398 0.06619592
-0.04128241 -0.02609489 -0.16665056 0.07560072 0.025344 0.1190912 0.05143355 -0.13920671
-0.054306738 0.107298024 0.15903506 0.04697094 0.1436326 0.16892016 -0.04896823 0.0373196
0.16594236 -0.011181462 -0.1029641 -0.11771263 -0.07381725 -0.17497043 -0.08843406 0.09563613
0.13662297 0.023733657 -0.06934833 -0.111558884 -0.13951552 0.03326447 0.16273633 -0.11333594
0.17115572 -0.07551414 -0.11612404 0.1020591 -0.106124334 0.16281328 -0.15626854 0.100923255
0.16333474 -0.05848025 -0.104102835 -0.058074735 0.156583 -0.1257063 0.14943297 0.16486156
-0.07619357 0.1389531 0.0044185463 0.0307457 -0.003746556 0.036185544 0.16326655 0.030072477
0.02014291 -0.10363865 0.118779846 -0.059092853 -0.14463317 -0.17193432 0.1669505 0.06761379
-0.0724462 -0.10995331 -0.007215921 -0.030392006 -0.00286896 0.13591881 -0.09362513 0.03120258
0.09777233 0.13670164 0.035814837 -0.11794151 -0.039512474 -0.030507741 -0.046751432 -0.1686721
-0.00487299 0.1588843 -0.08597588 -0.071465276 -0.12280698 0.041833267 -0.111447364 0.022091003

egnn.layers.0.hidden_mlp.2.bias f4 [16]
00000000: 80d0 043d 5d7f 1bbe b6e2 203e 3508 2cbc
00000010: 51f8 03be c90a c43d d93a 10be f249 eabb
00000020: c0fe febd 4409 c63c 03bc 023d 5b37 163e
00000030: f6dd 94bd a100 db3d 1650 b3b9 59e6 e73d
0.032425404 -0.15185304 0.15711483 -0.010500004 -0.12887694 0.095723696 -0.14084949 -0.0071499282
-0.124509335 0.02417434 0.031917583 0.14669554 -0.07268898 0.10693479 -0.0003420121 0.11323232
