2-egnca-rework/logs/line4-2024-10-05@23-20-03/best@125.pt (torch, 26116 bytes, 11 tensors)

egnn.layers.0.message_mlp.0.weight f4 [32, 33]
000000 66 08 77 3d 26 39 c6 3d 17 bc fb bb 2a 78 c6 3d
       0.060310744 0.09678869 -0.007682334 0.09690888
000010 33 86 52 bd 7e eb ea 3c 13 bb 30 bd 2c be 59 bc
       -0.051397514 0.028676745 -0.043147158 -0.013289969
000020 76 b6 1d bd f1 ce ea 3c 4f c5 08 3e 19 1c 0e 3e
       -0.038504086 0.02866313 0.13356517 0.13877906
000030 1d 61 f0 bc 84 dc 76 bd 01 b9 d3 bc e1 8b 18 3e
       -0.029343182 -0.060268894 -0.025845053 0.1489711
000040 0c 8f 14 3e cb 1a 45 bd 73 78 71 bd 4e 6a 31 bd
       0.14507693 -0.048121255 -0.05895276 -0.04331427
000050 89 9a f8 3d 1d 2c 10 3e c8 16 fd bd 13 03 79 bd
       0.1213885 0.14079328 -0.12357861 -0.060793947
000060 02 8b 1e be 4a da 2f 3e 06 bb e4 3c b2 fe 58 3d
       -0.15482715 0.17173114 0.027921211 0.05297727
000070 fc 30 c0 3d 3b 11 28 3d b9 64 12 bd fe e4 2c be
       0.09384343 0.041032057 -0.035740588 -0.16884229
000080 b6 b8 36 3d 7b 88 00 bd 1c c8 2f be 3f 90 be bc
       0.044609748 -0.031380158 -0.1716618 -0.023262141
000090 79 9f c2 bd 3c d4 c6 bd 1b c8 01 be 66 5a 16 be
       -0.09503073 -0.09708449 -0.1267399 -0.14682922
0000a0 1d 47 44 bc 61 63 a9 3c a3 f4 1f be a8 99 24 be
       -0.011979845 0.02067727 -0.15620665 -0.1607424
0000b0 91 00 db 3a 56 25 26 be b4 0a ad 3d 81 61 34 bd
       0.0016708543 -0.1622518 0.08449307 -0.0440383
0000c0 7f ef c9 bc 32 5e 24 be 73 d6 ff bd a8 32 83 3d
       -0.024650333 -0.16051558 -0.12492075 0.06406146
0000d0 b3 9d c3 bd 8b 9b 8e bd 25 be 1f be 67 6a 03 bb
       -0.09551563 -0.06963261 -0.15599878 -0.0020052434
0000e0 95 5c de bd c0 dc 3e 3d 1a 01 63 3d ed 6e 1b 3d
       -0.10857502 0.046597242 0.055420972 0.037947584
0000f0 56 cb 7b 3d f1 90 fa bd 83 d2 8e 3c e2 e1 1c be
       0.061473213 -0.12234677 0.017434364 -0.15320542
000100 0d 43 f8 bd 5f 02 13 3e 54 d5 fe 3d 2f 53 fd bd
       -0.12122164 0.14356373 0.12443033 -0.12369382
000110 23 5b c5 3d ad 63 11 be a0 57 d0 3c f8 41 21 3e
       0.096365236 -0.1419818 0.025432408 0.15747821
000120 b5 85 59 3c b6 9d 8b 3d 98 fc 20 3e d5 3a 87 bd
       0.013276507 0.0681719 0.15721357 -0.06603018
000130 4a fe 03 3e cf 90 d2 3c 86 67 20 bd 64 2c 20 be
       0.12889972 0.025703816 -0.039161228 -0.15641934
000140 08 b9 2b 3e 25 d4 30 3e 4c d5 98 bd 04 a8 25 3d
       0.16769803 0.17268427 -0.07462558 0.040443435
000150 c4 ba 37 be 36 8b 00 3d 6a b9 c7 3d be d4 99 3c
       -0.17942339 0.031382762 0.09752162 0.018778201
000160 c8 52 c3 bd b7 e8 22 3e 0b 21 c6 bd 66 3d b5 3c
       -0.09537274 0.15909086 -0.09674271 0.022124004
000170 fe f6 25 be 71 9d 96 3d 40 8f f4 3d bb 95 0d 3d
       -0.16207501 0.07354248 0.11941385 0.034566622
000180 93 0e 09 3e 1f 3f 33 be 49 f6 cf bd 3a a9 3f 3d
       0.13384466 -0.17504548 -0.10154397 0.046792246
000190 2c fb b3 3d 6e 17 2f bd fb 19 4c 3d c7 b9 2d be
       0.087881416 -0.042746954 0.049829464 -0.169654
0001a0 5f 25 2e 3e 8d 3f 0c be aa 3d 25 be 1b 7e 04 be
       0.17006443 -0.13696118 -0.16136804 -0.1293873
0001b0 d6 08 31 3e 0e 2d 33 3d c0 1f 6b bc 0b 37 11 3d
       0.17288527 0.04374414 -0.0143508315 0.035452884
0001c0 30 1c 96 ba 0c b6 fa bd 07 b0 e1 3d f0 89 14 be
       -0.0011452492 -0.12241754 0.11019903 -0.14505744
0001d0 1f 11 32 bd 69 cb 9a 3c 33 19 da bd 00 56 28 3d
       -0.04347336 0.018895822 -0.106493376 0.04109764
0001e0 ac 13 21 be ce 78 ab bd a6 12 1b 3e b7 f4 51 3d
       -0.1573016 -0.08372651 0.15143833 0.05125877
0001f0 22 33 11 be 8b 64 28 3e 66 24 41 bd 2e aa 01 3d
       -0.14179662 0.16444604 -0.047153853 0.031656437
000200 e1 5a 1b bd ef f0 cf bd 28 c8 01 3d e4 4b 1a bd
       -0.037928466 -0.10153376 0.031685024 -0.03767003
000210 02 04 be bd ee 83 c3 3d 90 46 ac 3d 04 b5 e8 3d
       -0.09278108 0.09546648 0.08411896 0.11362651
000220 e3 ca dd bc 38 55 ed bc cb 45 24 3c 69 86 1c 3e
       -0.027074283 -0.0289713 0.010026406 0.15285648
000230 79 24 1e be 6a 4b 28 bc 5f ad 7e 3c 9e f0 aa 3d
       -0.154436 -0.010271886 0.015544265 0.08346675
000240 74 1c 2f be 6a c2 3f be 4e cc ea bb 26 c6 5e 3d
       -0.17100698 -0.18726507 -0.0071654683 0.054388188
000250 a1 97 96 bd f4 3d 09 3e ef f8 03 3d 1c d5 77 bd
       -0.0735314 0.1340254 0.032219823 -0.06050597
000260 90 a7 7d bd 51 e7 11 be 51 be be 3d cf 52 0a bd
       -0.06192738 -0.14248396 0.09313644 -0.03377038
000270 49 b3 b5 3d 9f 12 3c be 3e 34 01 3e 8e df 62 3d
       0.088720866 -0.18366478 0.12617585 0.05538898
000280 ae dd e1 bd fb 3f c3 bd eb 4c fe 3d c1 d9 a3 3d
       -0.1102861 -0.09533688 0.12417015 0.08000518
000290 cb ed aa 3d ad 6f 1c 3d 90 58 b5 bd 67 60 e9 bd
       0.08346137 0.03819244 -0.088547826 -0.113953404
0002a0 2c fc 48 bd b2 c3 4b bd 09 82 d9 bc 0b 7b 31 bd
       -0.049068615 -0.049747176 -0.026551263 -0.043330234
0002b0 cd 68 10 be 6a 6d 23 be b5 c9 fd bd 24 c7 b7 3d
       -0.14102478 -0.15959707 -0.12391988 0.0897353
0002c0 2c 3d e4 bd a6 ce 09 be f1 43 99 bd d1 d1 60 3d
       -0.1114448 -0.13457736 -0.07483662 0.054887597
0002d0 1b 52 59 bd bb 51 eb 3a 95 4c 9d 3c 71 8c fb bd
       -0.053056818 0.0017953435 0.019201556 -0.122826464
0002e0 31 39 4b bd 0b 96 54 bd a3 8a 20 bc ec 80 e8 bd
       -0.04961509 -0.051900905 -0.009798679 -0.11352715
0002f0 98 20 0c bd e0 c5 73 3c 2d ff 5f 3d 61 7c e6 bd
       -0.03421077 0.01487872 0.054686714 -0.11254192
000300 cb fe 1d 3e f6 f7 39 3d 23 09 0e be cb ce 25 3e
       0.15429227 0.04540249 -0.13870673 0.16192167
000310 97 61 e4 bd f9 ad aa ba 81 91 08 3e 6c 16 23 bd
       -0.11151426 -0.0013021819 0.13336755 -0.039816305
000320 02 0c 36 3d 37 ca a8 3d ad d7 70 bd ff 4d 9d 3c
       0.044445045 0.082416944 -0.058799434 0.01920223
000330 a2 7f 05 3e f7 12 00 b9 bf ef 35 bd f1 41 05 3e
       0.1303697 -0.00012214096 -0.044418093 0.13013436
000340 c7 56 11 3d 42 2a e7 bd 3e 3b b2 3d e4 b6 0f 3e
       0.035483148 -0.11287357 0.08702706 0.14034611
000350 fc 69 60 3c 1e 2e 15 3e fd 76 df bd bc 5a 2b 3e
       0.013697144 0.14568374 -0.10911367 0.16733831
000360 c0 38 ce 3d ea 3d 82 bb 8c 0b 23 be 75 52 2d 3e
       0.10069418 -0.003974666 -0.15922374 0.16925986
000370 60 38 ff bb 82 ad ac 3d b8 65 c0 bd 44 2c 71 3d
       -0.007788703 0.084315315 -0.09394401 0.058880106
000380 f8 b9 d8 bc a8 03 35 3d d3 49 86 3d 1c 22 ee bd
       -0.026455864 0.04419294 0.065570496 -0.116275996
000390 ea bc 03 be ab 15 f0 bb 1d 05 37 bd 86 d6 ee 3d
       -0.12865034 -0.007326802 -0.04468261 0.11662011
0003a0 ee 81 98 bd bb 56 28 3d 48 66 23 be 12 ce ae 3d
       -0.07446657 0.041098338 -0.15956986 0.085353985
0003b0 75 57 de 3d a3 3a d5 3c 9d f6 bb 3c 0e 3a d3 3c
       0.10856525 0.026028937 0.022944743 0.025784519
0003c0 40 5e e9 bb b1 a5 15 bd ae 5f 05 3e 9e 64 5c bd
       -0.007121831 -0.03653497 0.1302478 -0.053806894
0003d0 0a 36 ba bc 30 90 89 bc 5e ac d3 bd 62 e3 0a be
       -0.022730846 -0.016792387 -0.10335611 -0.13563302
0003e0 8f 80 d5 bd 83 e3 0f bd 51 bb 08 be 6e dc 67 3d
       -0.10424911 -0.03512908 -0.13352706 0.056606703
0003f0 58 ea 04 be 96 61 3a bd 14 32 96 bd 0b 21 af bd
       -0.1298002 -0.04550322 -0.073337704 -0.08551224

egnn.layers.0.message_mlp.0.bias f4 [32]
000000 73 8d 08 bd bb 93 90 bc a0 81 51 3d 70 9d 1e be
       -0.03333802 -0.017648568 0.05114901 -0.15489745
000010 44 f0 70 3d 1c a4 19 be 7d b7 13 bd 33 25 12 be
       0.058822885 -0.15004009 -0.03606366 -0.14272003
000020 7b a0 19 be a7 9f be bd af 88 01 3e 8f 42 24 be
       -0.15002625 -0.09307795 0.12649797 -0.16041015
000030 f4 16 9d 3d 43 fa 66 bc 50 a6 12 be 3e e1 43 3d
       0.076703936 -0.014097753 -0.14321256 0.04782223
000040 e6 7b c2 bd b9 b4 d0 bd 3f 18 11 3d 30 61 00 be
       -0.09496288 -0.1019072 0.035423514 -0.12537074
000050 06 a1 23 3c 15 a0 77 3d cd b7 50 3d 3d a0 c0 3d
       0.009987121 0.0604554 0.050956536 0.09405563
000060 99 85 12 be f2 2e 6d 3d 87 cf d8 3d 99 57 25 be
       -0.14308776 0.0579061 0.10586458 -0.16146697
000070 72 8e 8b 3d 2c 70 41 3c 54 3b 7d 3d 82 b8 2b be
       0.06814279 0.011806529 0.061824158 -0.16769603

egnn.layers.0.message_mlp.2.weight f4 [32, 32]
000000 be 05 e7 3d ee ca 20 be ef f7 a7 3d 14 85 23 3e
       0.11280392 -0.15702412 0.082015865 0.15968734
000010 6b 80 10 bd 48 ec a8 3d 90 7c ac bc 4f f5 c9 3d
       -0.03527872 0.08248192 -0.02105549 0.09861242
000020 a2 2f 25 be e7 f1 15 ba 5c da 3f 3e cb ac 32 bd
       -0.16131452 -0.0005719945 0.18735641 -0.04362182
000030 b4 31 0f be 05 f6 0e be 6d 46 1e 3d dd 3b 20 3e
       -0.13983804 -0.13961037 0.038641382 0.15647836
000040 5d 30 30 be 9d 19 e8 3d d9 81 09 be a7 ca 98 3d
       -0.17205949 0.1133301 -0.13428439 0.07460528
000050 10 c3 16 3d 32 2d 67 3d e3 0a 1c be 01 db 2b 3e
       0.03680712 0.056439586 -0.15238528 0.16782762
000060 40 35 1f 3d c0 15 3d bc db fb 06 be 5d be db 3d
       0.038869143 -0.01154083 -0.13182013 0.10729668
000070 0e 8a 28 3e 39 c8 8f 3d 19 83 ab bc 3f db 2a bd
       0.16458914 0.07020611 -0.020936536 -0.041712996
000080 7e ac 39 be 7b a1 ef 3d b4 dc d5 bc ff 26 20 be
       -0.18132207 0.11700722 -0.026106216 -0.15639876
000090 73 49 b8 38 1e 92 0b 3d 5b 3c e3 3d e9 70 6b 3d
       8.787485e-05 0.034074895 0.11095496 0.057480726
0000a0 7a c0 ee bd a8 9d 3d bd 5d da 2e be b3 b6 a8 3d
       -0.11657806 -0.04629293 -0.17075486 0.08237972
0000b0 d3 d2 a8 3d 6f 22 d7 bd eb 33 32 3d 0e 7d f1 3d
       0.082433365 -0.105046146 0.043506544 0.117914304
0000c0 10 78 22 3e d2 14 f5 3d 99 a7 8a 3d f7 74 29 3d
       0.15866113 0.11966862 0.06770248 0.041371312
0000d0 33 ae 7c 3d f3 be 25 3e 3c 96 df 3d c5 24 f1 3c
       0.061689567 0.16186123 0.10917327 0.029436478
0000e0 55 56 ab 3c ed 9c f0 3d 74 b9 33 3e 80 fb eb bd
       0.02091519 0.11748681 0.17551214 -0.11522579
0000f0 24 7d b0 bd 95 7b 46 3e a4 f9 9a bd 3b 21 42 bd
       -0.08617619 0.1938308 -0.075671464 -0.047394972
000100 ad d5 0e 3e f4 ab 88 bd 8d e0 34 3e c9 7b d0 bd
       0.13948698 -0.066734225 0.17663784 -0.1017986
000110 5b 13 a9 bd 5e e2 0b 3c d9 d3 65 3c 16 45 25 3e
       -0.08255645 0.008537857 0.014027559 0.16139635
000120 95 a7 96 bd fa 69 89 3d 3b f8 ca bc 27 f2 ef bc
       -0.073561825 0.067096666 -0.024776569 -0.029290272
000130 89 06 1b be 97 14 27 3e 25 0f c3 bd a7 fb 17 bd
       -0.15139212 0.16316448 -0.09524373 -0.03710523
000140 e4 30 a6 bd 01 df 26 3e 14 db 91 bd a0 cc 28 bd
       -0.08114794 0.16296007 -0.07121864 -0.04121077
000150 86 fd d1 3d f2 2b 2b 3e 69 30 29 3e 1b 3c d5 bd
       0.10253434 0.16715983 0.16522373 -0.10411855
000160 66 73 82 bd 1f 77 13 3e 31 83 99 3d 92 3e 0c 3e
       -0.06369667 0.1440091 0.07495726 0.13695744
000170 16 0f 75 3d 5f b1 ed bd 0c 94 ce bc 08 f3 9f bd
       0.05982884 -0.116060965 -0.025217079 -0.078100264
000180 46 9d 14 be 6b bb 4a 3d 10 a5 bf 3d 45 d6 87 3d
       -0.1451312 0.049495142 0.09357655 0.066326655
000190 0b 12 0e 3e 88 3a 92 bd ff c0 76 3d 54 46 64 bd
       0.1387407 -0.0714007 0.06024265 -0.055731133
0001a0 ad cb 19 3e b3 27 55 bc 0b 95 01 3e db 61 09 3e
       0.15019102 -0.013009953 0.12654512 0.13416235
0001b0 1e ef f9 bd c2 8d 2c bd df ed 1a 3e f4 9c af bd
       -0.12203811 -0.04212738 0.15129803 -0.08574858
0001c0 29 a3 2d bd db 4a 15 3e a5 f5 13 3e 13 46 f2 3d
       -0.04239193 0.14579336 0.14449175 0.11829772
0001d0 99 d6 93 3c 06 07 e3 3d 6c 47 24 be 42 2d a9 3d
       0.018046664 0.11085324 -0.1604287 0.08260585
0001e0 6c d7 f2 bc 32 fb 05 be e4 ee 1e 3d 80 73 e1 3a
       -0.029643737 -0.13084105 0.038802043 0.0017200559
0001f0 ab 37 85 3d 18 79 75 bd ae ff 33 3e 47 07 3c be
       0.065047584 -0.059929937 0.17578003 -0.18362151
000200 18 60 30 3e a2 bf 9c bd 41 08 d5 3d 20 80 cc bc
       0.17224157 -0.076537386 0.10401965 -0.024963439
000210 f9 c6 49 bd 10 8c 07 be 81 0c 0f be 0a e9 bd 3c
       -0.04926202 -0.13237023 -0.13969614 0.02318241
000220 e7 3d d3 bd ad 92 fd bd 78 dd 18 be 6d 05 1b 3e
       -0.10314541 -0.12381492 -0.14928234 0.15138789
000230 1a 76 2a 3d b4 74 77 3c 64 54 55 bd c4 f5 1c be
       0.041616537 0.015103508 -0.052082434 -0.15328127
000240 7c b8 cd 3d 17 3d 12 3e 54 2f 08 3d 38 6a 42 3d
       0.10044953 0.14281116 0.03324826 0.04746458
000250 26 a4 a5 3a 6e 81 8b 3d 73 45 08 3c c6 72 e4 bd
       0.0012637421 0.06811796 0.008317339 -0.11154704
000260 54 5e c9 bc ce 2f 24 3e 4c 75 da bd 84 15 1f 3e
       -0.024581112 0.16033861 -0.10666904 0.15535551
000270 16 ea cd bd d5 d0 0c bd 10 83 e8 3d 3c 3b e1 bd
       -0.10054414 -0.034378845 0.11353123 -0.10997626
000280 99 b8 37 bd 65 2b 08 be f0 08 c1 bc cc 2a e8 3d
       -0.04485378 -0.13297804 -0.023563832 0.11336288
000290 fb 4c b8 bd 0c c7 18 bd 09 0b 89 3b b7 06 db 3d
       -0.08999058 -0.0372992 0.0041822237 0.1069464
0002a0 19 f1 f2 3c a8 aa a9 bc 73 56 dd bd 00 58 06 be
       0.02965598 -0.020711258 -0.108075045 -0.13119507
0002b0 3c 7d 2f 3e 09 5c 3a bd 38 2b de 3d 4a 88 86 bc
       0.17137617 -0.045497928 0.10848087 -0.01642241
0002c0 9d 5c af bd 90 40 8b bd 66 bf 10 be 78 ec 10 bd
       -0.085625865 -0.06799424 -0.14135513 -0.035381764
0002d0 e8 4e 86 3c 4d 6d b0 bd b0 a9 4b 3d 7c 2d 9e 3d
       0.016395047 -0.086145975 0.049722373 0.07723519
0002e0 24 1a e8 bd 4a 31 93 bc 6f 1f 01 3e 81 2b 25 be
       -0.11333111 -0.017967839 0.12609647 -0.16129877
0002f0 ee e4 c5 3d 93 09 35 bd 3a 35 65 bd 6d 2a d5 bd
       0.096628055 -0.044198584 -0.055958964 -0.10408483
000300 ac 82 53 bc 62 39 6e 3d 90 ca a7 bd d3 38 69 bd
       -0.012909573 0.058160193 -0.081929326 -0.056938957
000310 49 51 be 3d 8a 86 ab bd 7c a2 18 3c 8b 54 cc 3d
       0.09292848 -0.08375271 0.009316083 0.09977063
000320 a0 8a 5b bb 0b 9f 3e bd 63 ff e7 bd f5 f6 22 bd
       -0.0033499375 -0.046538394 -0.11328008 -0.039786298
000330 59 ba 0e bd 4a 94 e8 3d 2e 8c 78 3c 2f e7 12 be
       -0.034845684 0.11356409 0.01517014 -0.14346002
000340 3c 51 51 bc b0 d8 da bd d4 90 3f 3e 97 0f 2a bd
       -0.012775715 -0.10685861 0.18707591 -0.041518774
000350 e6 6e 2b be aa fb c1 bd 44 4d cf 3d 4d ea 2a 3e
       -0.16741523 -0.09471829 0.10122159 0.16690941
000360 01 bc e7 bd cf 34 31 be e4 96 2c bd d2 dc 46 bd
       -0.11315156 -0.17305301 -0.042136088 -0.048550434
000370 79 00 b3 bd e2 25 da 3d 91 fc 68 3c e8 88 09 3e
       -0.087403245 0.10651757 0.014220373 0.13431132
000380 82 11 02 3e 98 c5 6c 3c b5 c9 10 3e 5c 34 3b bd
       0.12701991 0.014451407 0.14139445 -0.04570423
000390 65 b8 76 3d 56 0b e5 bd 40 61 31 3d 21 88 8f 3d
       0.060234446 -0.11183803 0.043305635 0.070083864
0003a0 81 90 36 be 28 e9 15 3e f6 fd fb 3d ef d0 e3 bd
       -0.17828561 0.14639723 0.123042986 -0.11123835
0003b0 31 fe 56 3d d0 84 2a 3e 04 83 74 bd 0f f9 a6 3b
       0.05248851 0.16652226 -0.05969526 0.005095608
0003c0 63 9b 94 bc 11 8b d1 bd 40 b9 b4 3d e0 90 a2 bd
       -0.0181405 -0.10231603 0.08824396 -0.07937789
0003d0 c6 e0 50 3d ea e4 0c 3d 8b 29 b0 3d 7b 81 2d 3e
       0.05099561 0.034397997 0.08601674 0.16943924
0003e0 b1 93 74 3d 5a bb de bc 25 71 61 bd 81 b0 14 3e
       0.059711162 -0.027188946 -0.055039544 0.14520456
0003f0 2a 9f e6 3d 03 48 1d 3e 54 9b 9a bd ee 6e db 3d
       0.11260827 0.15359502 -0.07549158 0.107145175

egnn.layers.0.message_mlp.2.bias f4 [32]
000000 2a fa 81 3b 96 ed db 3d b8 11 a0 3c c8 a7 27 3e
       0.0039665895 0.10738675 0.019539699 0.16372597
000010 b2 d2 b8 bc cd 31 28 be 36 fd 20 be ce d5 98 bd
       -0.022561405 -0.16425247 -0.15721592 -0.07462655
000020 d0 d2 74 3d 48 f3 c8 3d af f1 a3 3d 59 a1 1b 3e
       0.05977136 0.09812027 0.08005082 0.15198268
000030 9d ab 30 be e1 e5 92 3d b5 9c 82 bc 67 52 09 be
       -0.17252965 0.07172752 -0.015943864 -0.1341034
000040 43 e7 2c 3d 7e 5a 2b 3e 78 c5 44 3d cc d0 da 3d
       0.042212736 0.16733739 0.048039883 0.10684356
000050 30 31 c9 3d 66 5e f1 bd ae 0a 31 be 20 2b 26 be
       0.09823835 -0.11785583 -0.1728923 -0.16227388
000060 d6 f0 1a 3e 59 01 06 be 3a 7b 6d bd 94 26 18 3e
       0.15130934 -0.13086452 -0.057978846 0.14858466
000070 8e 04 20 3e 84 1c 03 be d2 f7 95 3d 2f 62 a1 bb
       0.15626737 -0.12803847 0.073226586 -0.0049250345

egnn.layers.0.coord_mlp.0.weight f4 [32, 32]
000000 0d 79 20 bd b0 1f 4f bb 0d cf f4 3b a0 ee 2c be
       -0.039177943 -0.003160458 0.0074709714 -0.16887903
000010 67 9b f6 bd 7e cf ac 3d 79 be dd 3d 51 7d 4c 3d
       -0.120413594 0.084380135 0.108273454 0.0499242
000020 fa 3f df bd 1a d4 80 bc 70 f1 e2 3d 59 49 e1 bd
       -0.109008744 -0.015726138 0.11081207 -0.11000318
000030 97 62 02 3e 0f e1 86 3d 70 ca da bd dd b0 25 be
       0.12732922 0.06585895 -0.10683143 -0.16180749
000040 9b d1 9b 3d d8 e7 38 3d 86 7a c4 bd 6a 89 0a be
       0.076083384 0.04514298 -0.09593682 -0.13528982
000050 c3 85 14 3d a2 59 a0 3d 03 c5 89 bd a8 18 16 3e
       0.036260378 0.07829596 -0.0672703 0.14657843
000060 c4 c9 fc 3d 42 c0 e4 3d c3 31 15 3e 4e 49 ef bd
       0.12343171 0.11169483 0.14569764 -0.11683904
000070 be 19 11 3e 8b 9b 1a be 1d 22 33 bd d0 df 03 be
       0.14169976 -0.15098397 -0.043733705 -0.12878346
000080 1b 01 34 bd ce 1a 1e be f9 9c 1b be 88 5b e7 bd
       -0.043946367 -0.15439913 -0.15196599 -0.11296755
000090 69 0b e7 3c f6 da e3 bd 41 22 86 3c aa cb ec 3c
       0.028203683 -0.11125748 0.016373755 0.028905708
0000a0 70 65 1b be 88 60 0f 3e 85 4a 49 bd a4 86 f5 3d
       -0.15175414 0.14001667 -0.049143333 0.11988571
0000b0 6e 2d 67 bb 33 a9 e2 3d 0c c7 59 3c 7a 25 e1 bd
       -0.003527488 0.110674284 0.013292085 -0.10993476
0000c0 bc c7 25 be 05 1f 03 be 08 da cf bd 2c 4b f7 bd
       -0.16189474 -0.12804802 -0.10149008 -0.12074885
0000d0 d5 0a 2f 3e 67 16 f6 bd a0 04 74 3c 15 85 f5 bd
       0.17093976 -0.12015992 0.014893681 -0.11988274
0000e0 b7 5e 05 3e 4c ee 01 bc d5 79 a0 bd f0 4c 81 3c
       0.13024412 -0.00793035 -0.078357376 0.015783757
0000f0 17 92 c0 bd ed 99 b3 3d 83 ff c9 bb 4d e7 f8 bd
       -0.094028644 0.087695934 -0.0061644926 -0.12153492
000100 34 31 39 bd 69 ef 85 bb b1 91 7b bc 91 43 94 bd
       -0.04521294 -0.004087378 -0.01535456 -0.0723945
000110 f3 db 0d 3d 5d 56 37 3e 3f dc c5 bd bd a0 9e bd
       0.034633588 0.17904039 -0.09661149 -0.07745502
000120 e6 88 c7 3b d0 a4 f9 3d a6 0d ac bd f6 63 0a be
       0.0060893176 0.121896386 -0.08401041 -0.13514695
000130 27 eb 2d 3e 70 cd 85 3d 16 58 99 3d 72 ed 2c bd
       0.16984235 0.06533325 0.07487504 -0.042218633
000140 a3 a0 18 3e a6 8b 77 3a ea d9 6d 3d 0e 0c 25 3e
       0.14905028 0.00094431115 0.058069147 0.1611788
000150 85 fd f1 bd 6c 82 ee bd f2 c7 ed 3d a6 1e ce 3d
       -0.11815933 -0.1164597 0.11610402 0.100644395
000160 b5 9f af ba 37 d4 97 bd fc a3 1f 3e e8 e9 17 be
       -0.0013399037 -0.07413524 0.15589899 -0.14835322
000170 3c ce d9 bc c3 83 18 be 0a ec 07 3e b3 ac 09 3d
       -0.026587598 -0.14894013 0.13273636 0.033611964
000180 10 97 56 bd d7 7a fb bd 18 5c 1c bd fb 09 14 be
       -0.05239016 -0.12279289 -0.038173765 -0.14456932
000190 ff 22 23 3e 31 d7 b5 bd 6b 92 1a bb c0 dc 8f 3c
       0.15931319 -0.08878935 -0.0023585807 0.017561316
0001a0 fc af d2 3d ed b4 a4 bc dd 8b e8 3c 49 fb 67 bc
       0.102874726 -0.020105803 0.028387005 -0.014159032
0001b0 d5 94 1a 3c 5d df c3 3d 4f 3a f2 3d 35 00 33 bc
       0.009434898 0.095640875 0.11827528 -0.010925342
0001c0 55 c5 41 3d 4d 1e 32 bd c0 37 8f 3d 6b f3 c9 3b
       0.04730733 -0.04348593 0.06993055 0.006163051
0001d0 3f 10 65 bc c0 96 36 3c 08 d1 0f 3e a5 1c f6 3d
       -0.013980924 0.01114434 0.14044583 0.12017182
0001e0 b8 aa 14 bd a6 9c fc 3d 7e 8a dc 3b b2 20 94 bd
       -0.036295623 0.12334566 0.0067303767 -0.07232799
0001f0 a4 6d b0 bd 46 46 d6 3d c0 c9 85 bd 70 88 a7 bc
       -0.08614662 0.10462622 -0.065326214 -0.0204508
000200 c9 8a a9 bd b2 93 e1 bd 4e ee f8 3d ba fe 15 3e
       -0.08278424 -0.11014499 0.12154828 0.14647952
000210 62 80 1e be a3 f1 2e 3c f4 64 10 3e 2e 75 f4 3d
       -0.15478662 0.010677728 0.1410101 0.11936413
000220 c0 f5 49 3d eb ad 6f 3d cc 9e 31 bd bd ab ef 3c
       0.04930663 0.05851547 -0.04336433 0.029256696
000230 88 6c d3 3d f1 c1 bd bd 78 b7 25 bc 2a bb 37 3e
       0.10323435 -0.09265507 -0.010114543 0.17942491
000240 87 cb f2 3d ce 06 ae 3d c5 63 01 3d e1 87 13 3e
       0.11855226 0.08497392 0.03158929 0.14407302
000250 5c e7 01 bd 69 43 1b bd da 39 9b bd 2d 92 b7 3d
       -0.031714782 -0.037906084 -0.07579394 0.08963428
000260 b0 f1 0b be 1e 70 07 3d 14 a6 08 3d 85 f5 de bd
       -0.13666415 0.033065908 0.03336151 -0.10886673
000270 57 78 b0 3d 50 0e 17 bc 84 eb 9b 3d ab ee 8e bd
       0.08616703 -0.009219721 0.076132804 -0.06979116
000280 c5 56 2e 3d 38 9d 0a 3e cb 39 b7 3c c9 4e e2 bd
       0.04256322 0.13536537 0.022366425 -0.11050183
000290 c8 8d 2d bd 36 14 4c bd a8 c4 0b bc 13 d7 4b bd
       -0.04237154 -0.049823962 -0.008530773 -0.049765658
0002a0 ff 64 10 3d d9 3c 92 bd 3a d7 e9 3c ed 2f 19 be
       0.035252567 -0.07140512 0.02854501 -0.14959688
0002b0 4f 06 2d bd cb 19 a7 3d ef 1d c9 3d 75 69 03 be
       -0.042242344 0.081592165 0.098201625 -0.12833197
0002c0 98 18 dd bd 76 91 82 3c 4a 63 cc 3c 4c af 3a bd
       -0.107957065 0.015938502 0.024949688 -0.045577332
0002d0 cc 68 ea 3d 6a d8 c0 bd f4 bf d8 bd d0 03 10 3e
       0.1144577 -0.09416278 -0.10583487 0.14063954
0002e0 ab 39 bc bd 87 29 20 bd 8b 86 0c be 1e 8a b4 3d
       -0.09190687 -0.039102104 -0.13723199 0.08815406
0002f0 7c a3 39 bd ce 97 b4 3d ad 3b ac 3d db 6b 14 be
       -0.045321926 0.08818017 0.0840982 -0.14494269
000300 e5 ae fc bd cc 60 24 3e 52 54 25 be b4 0b f6 bd
       -0.12338046 0.1605255 -0.16145447 -0.12013951
000310 7c 24 16 be d4 eb 0b 3e e8 cd 40 bc a0 0b 28 be
       -0.14662355 0.1366418 -0.011767842 -0.16410685
000320 53 9f 08 be c0 33 17 3e 97 ab b1 bd 26 cc 04 3e
       -0.13342027 0.14765835 -0.08675306 0.12968501
000330 cf 26 26 3e 40 55 5c 3d 72 3f aa bd 9f f1 36 3e
       0.16225742 0.05379224 -0.083128825 0.17865609
000340 13 9b 27 3e a8 8a 0b 3e f1 64 6e bd 6a 2c 04 3e
       0.1636775 0.13627112 -0.058201734 0.12907568
000350 05 21 d7 bd 97 e5 bb 3d a9 98 5c 3b 49 73 17 3e
       -0.10504345 0.0917465 0.0033660328 0.14790072
000360 23 98 1a 3d 0a 28 a9 3d b6 0c f1 bd 0a e2 f3 3d
       0.037742745 0.0825959 -0.117700025 0.11908348
000370 c6 e0 20 bc 84 03 36 bc 58 c9 d5 3c e9 82 67 bd
       -0.009819215 -0.011109237 0.026096985 -0.05652133
000380 29 ca 28 be 2b 5b 26 be 4e b0 3c 3d fd 89 93 bd
       -0.16483368 -0.16245715 0.046066575 -0.072040536
000390 5a eb f9 bd ca 68 11 3e f7 12 3b 3e d6 c7 3b be
       -0.12203093 0.1420013 0.18268953 -0.1833795
0003a0 cc 68 f1 bd 11 e0 dd bd d6 ee 70 3d 5f 61 b6 3d
       -0.117875665 -0.10833753 0.05882152 0.08905291
0003b0 15 ca b6 bd 83 c5 d3 bd be a9 ea 3d 7a cf d3 bd
       -0.08925263 -0.10340407 0.11458157 -0.103423074
0003c0 d8 e4 ac bd f3 49 2e 3e fd 15 b0 3a d6 2e 95 bd
       -0.08442086 0.17020397 0.0013434287 -0.07284324
0003d0 b5 f6 bd 3d 9b 07 1d be 40 3e 2d 3e 4e 0e c6 bd
       0.09275571 -0.15334933 0.16918278 -0.09670697
0003e0 7f 2d bb 3c b3 28 d0 bd 8c a4 01 3e 72 c3 62 3c
       0.022848843 -0.10164013 0.12660426 0.013840543
0003f0 dd bd 20 be aa e0 d2 bd bc 8f e2 3d 4b b6 76 bd
       -0.15697427 -0.102967575 0.110625714 -0.060232442

egnn.layers.0.coord_mlp.0.bias f4 [32]
000000 f8 08 39 bd 4a 1b a6 bd f1 d2 27 be fa 28 06 3e
       -0.04517457 -0.08110674 -0.16389062 0.13101569
000010 9d 3d e7 bd 5b e0 0f 3e 31 a6 96 3c fc 5b 9e bd
       -0.11291049 0.14050429 0.018389793 -0.077323884
000020 78 01 d5 bd 2b b2 0c be f2 75 27 3e 9b 20 59 bd
       -0.10400671 -0.1373984 0.16353586 -0.05300961
000030 7d b1 e5 3c 2c 85 fa bc 91 35 2f 3e f1 79 31 3e
       0.028038735 -0.03058108 0.17110278 0.17331673
000040 8c df dc 3c d9 be c7 bd 5f ac 49 3d 06 ba 2b be
       0.026962064 -0.09753198 0.04923665 -0.16770181
000050 4e b7 26 be 76 72 7c 3c da b4 d8 3b d7 dd fd 3d
       -0.16280863 0.015408149 0.006613356 0.12395828
000060 c7 7e a2 bd 1f 87 00 3d d5 d4 c0 3d a4 cb 29 be
       -0.07934337 0.03137886 0.094155945 -0.16581589
000070 ae 2d 7f 3d 76 c3 f6 bd 6b 4e af 3d 1e 27 d4 3d
       0.062299423 -0.12049 0.08559879 0.103590235

egnn.layers.0.coord_mlp.2.weight f4 [1, 32]
000000 b2 a0 b7 bb 20 87 85 bb 91 63 13 bc 89 a4 ef ba
       -0.005603873 -0.004074946 -0.008995906 -0.0018283288
000010 fa f5 18 bc 00 c8 2a 3c e8 7c 7c bc 29 d1 2d bc
       -0.009335989 0.01042366 -0.015410639 -0.01060895
000020 8f f3 36 bc 63 c3 62 bc 8c 58 f9 3b 56 29 e8 3b
       -0.011166467 -0.013840529 0.0076094326 0.0070850058
000030 3e 69 69 3c e0 7d 29 3c c1 ef 8d 3b 3f 11 01 3c
       0.014246283 0.010344952 0.0043315594 0.007877647
000040 74 38 55 bc 62 43 8b bc 4d 74 06 3c ed d1 03 bc
       -0.013013948 -0.016999904 0.008206439 -0.008045656
000050 6d de 89 bc 21 fd 43 3c 3c f2 6a 3c 9d 90 4a 3c
       -0.016829694 0.011962206 0.01433998 0.01236358
000060 25 c6 11 3c e5 42 80 3c 96 13 29 3b 8c 94 14 bc
       0.008897339 0.015656898 0.0025799028 -0.009068619
000070 ef 97 88 bc b8 7a 28 bc 22 23 98 3b 8c 57 8c 3b
       -0.01667401 -0.010283165 0.00464286 0.0042828973

egnn.layers.0.hidden_mlp.0.weight f4 [32, 48]
000000 df 94 5b 3d 59 f5 04 3d 3f 37 df bd a9 9b 11 bd
       0.05360877 0.032460544 -0.10899209 -0.03554884
000010 84 1f 01 3e b7 b5 ee 3c 6c 75 02 be 16 79 98 bd
       0.12609679 0.029139383 -0.12740105 -0.0744497
000020 83 e5 89 bd 19 e3 a7 3c 7b af f2 bd bf 14 f4 3d
       -0.06733229 0.02049403 -0.118498765 0.119180195
000030 3f 38 bc 3d 6b 95 b7 3c 1c fd ff bd e2 40 b4 3b
       0.091904156 0.022410115 -0.12499449 0.0055008987
000040 6d 23 a1 b9 f6 a4 90 bd ed 49 e9 bd ca 05 1d be
       -0.00030734707 -0.07062714 -0.11391053 -0.1533424
000050 a0 d1 72 3d 5c 23 57 3c 2c e9 24 3d 46 d4 fc 3d
       0.059281945 0.013130989 0.040261433 0.123451754
000060 d6 7a 52 bd f0 cd f8 bd 5f c7 fb bd 9c c4 0b be
       -0.051386677 -0.121486545 -0.122938864 -0.1364922
000070 21 b5 8f 3d 9c eb 94 bd 97 7c be 3d 37 c0 8f bd
       0.070169695 -0.072715014 0.093011074 -0.07019084
000080 e2 55 4d 3b a5 7e 7d 3d 0d f3 59 3d ec 56 09 3e
       0.0031331708 0.061888356 0.053210307 0.13412064
000090 39 19 34 3c 88 aa 7b bd a7 92 87 3c 53 95 34 bd
       0.010992342 -0.06144193 0.016549421 -0.04408772
0000a0 38 d0 e0 3d 10 71 2a bd 81 55 c5 bd e0 18 27 bd
       0.109772146 -0.04161173 -0.09635449 -0.040795207
0000b0 96 15 8a bd 1c 5e f8 3d e3 c1 94 bd 5f cf 45 bd
       -0.067423984 0.12127325 -0.072635435 -0.048293468
0000c0 42 cd 88 bd 7b c4 0e 3e d9 be e5 bd fc b6 e0 3d
       -0.06679775 0.13942139 -0.11218042 0.109724015
0000d0 09 59 61 bd 40 2a c1 3d 5b e1 58 3d cb 25 ba bd
       -0.05501655 0.09431887 0.05294929 -0.0908924
0000e0 63 a5 07 be f4 eb 9e 3d 70 1a ae bd 0d 3e cf bd
       -0.13246684 0.07759848 -0.08501136 -0.10119257
0000f0 a1 c2 9f bd 56 44 ea bc 57 64 78 bd 26 5b b9 3d
       -0.078007944 -0.028597038 -0.060642567 0.09050588
000100 0f 4d 22 3c f8 36 a7 bd 5e 97 d7 bd db c8 60 3d
       0.0099060675 -0.08164781 -0.10526918 0.05487905
000110 4e 6d 10 bd d1 fd 59 bd 3e ae 17 3e 49 99 df bd
       -0.03526049 -0.053220574 0.14812562 -0.10917909
000120 b2 a9 97 3d e9 d2 74 bd 79 53 de 3b 6d 40 42 3d
       0.07405414 -0.059771452 0.006784853 0.047424722
000130 0a ec 13 bd 96 c9 c6 3c 61 8c 84 bd c4 d8 26 bd
       -0.036113776 0.024266046 -0.06472088 -0.040734068
000140 09 24 f8 bb 8f 70 c9 3d 05 b6 d3 3c f3 ad 3f bd
       -0.007572655 0.09835922 0.02584363 -0.04679675
000150 3a ef 4a bd da d3 29 bc ba 5f 77 bd d3 4b f7 bc
       -0.04954455 -0.010365451 -0.060394026 -0.030187523
000160 30 b7 ba 3d aa 36 84 3d f9 3a b3 3d f2 b6 c5 bd
       0.091169715 0.06455739 0.087514825 -0.09654035
000170 66 19 bb 3d 99 54 94 3c 52 01 e6 3d 43 37 53 3a
       0.09135704 0.018106746 0.112307206 0.0008057246
000180 84 b8 e0 bd c2 36 70 3d 6a b0 ba 3c 01 70 c2 3d
       -0.109726936 0.05864597 0.022789199 0.09494019
000190 1f 36 5e bd e9 e3 8e bd 61 a1 fd bd 63 79 d3 3d
       -0.054250833 -0.06977064 -0.12384296 0.10325887
0001a0 8d 36 da bd 82 53 38 bd 4c ec 0b 3e 12 88 c3 bd
       -0.10654936 -0.045001514 0.13664359 -0.09547438
0001b0 e0 22 c7 3d 7d e9 21 3d ab 5c fe bd 25 c5 ba 3d
       0.09723449 0.039529312 -0.12420019 0.091196336
0001c0 f4 a9 9b bd 9e 18 87 3d 2b 6a ca bd 2d d3 09 be
       -0.07600775 0.06596492 -0.09883531 -0.13459463
0001d0 79 c5 6e bd 6e c7 8a bd 2f 09 de 3d 94 47 ce bc
       -0.058293793 -0.067763194 0.108415954 -0.025180615
0001e0 92 34 11 3e 60 32 5f 3b 0f 94 5a 3d 67 78 ec 3d
       0.1418021 0.0034057125 0.053363856 0.115464024
0001f0 4a 36 99 3d 9a 38 3c 3d 03 43 2a 3d e8 8f 26 3c
       0.07481058 0.045952417 0.041567814 0.010166146
000200 42 dd 75 3c e6 71 09 3e 6a 59 af bd 36 b9 bd 3d
       0.015006365 0.13422355 -0.08561976 0.09263842
000210 9b ba 70 3d 35 b9 7f bd 91 61 ba bd cf df 74 bd
       0.05877171 -0.062432487 -0.091006406 -0.059783753
000220 ed cc e1 3d e9 5b 09 be 6b 59 f0 3c 64 3a 02 3e
       0.110254146 -0.13413967 0.029339513 0.12717587
000230 0d ef dd bd 68 2f 17 be 82 bd 0a be 2a 74 ab bd
       -0.10836611 -0.14764178 -0.13548854 -0.08371766
000240 d4 91 b2 3d 07 33 cc 3d 36 bb 52 bd 5a 10 e7 bd
       0.08719221 0.0997067 -0.05144807 -0.11282416
000250 22 59 84 3d 36 20 ab bd 3a fd 03 3e 16 a6 49 ba
       0.06462313 -0.08355753 0.12889567 -0.000769229
000260 dd 63 86 3d 50 f6 7c 3c 3e 5f d7 bd 81 5f c6 bd
       0.06562016 0.015439585 -0.10516213 -0.09686185
000270 42 96 85 3d f3 bb a8 bd d8 58 bc bd 30 12 90 3d
       0.065228 -0.082389735 -0.09196633 0.07034719
000280 76 d7 08 3e fe 5b a2 bd 21 78 a4 3d 9f 45 c7 bc
       0.13363442 -0.07927702 0.08030725 -0.02432519
000290 80 c9 8f bd cb c4 0a 3e 49 51 b3 3d fe 73 20 3d
       -0.07020855 0.13551633 0.08755738 0.03917312
0002a0 cb 1f ae bd 21 0d 96 bd e1 6f b4 3d 64 56 24 3c
       -0.08502158 -0.07326723 0.08810402 0.010030363
0002b0 c6 4d 0c be 7b 95 40 bd 61 29 46 3c 67 6d 50 3d
       -0.13701543 -0.047017556 0.012094826 0.050885584
0002c0 1d 67 8e bd 68 7a c8 3d da cc f1 bd 6c db d1 3d
       -0.06953261 0.09788972 -0.118066505 0.102469295
0002d0 d4 2b ac bd dc 5e f5 bd 49 63 d9 3d 9c 2f f1 bc
       -0.08406797 -0.119809836 0.1061464 -0.029441647
0002e0 74 95 dc 3d 1a 60 0d be c7 c9 63 3d f4 5d 86 3d
       0.107706934 -0.13806191 0.05561235 0.06560889
0002f0 2c 9b 95 3d 2e 85 63 bd 95 91 c0 3b d5 d0 8c bc
       0.07304987 -0.055546932 0.0058767297 -0.017189423
000300 42 8b d9 bd f1 b5 77 bd 61 12 d7 bd 95 29 9c 3d
       -0.106222644 -0.060476247 -0.105015524 0.07625119
000310 2c bd 01 3d 3e 8f 4a 3d 72 f1 0f be 14 a0 79 3d
       0.03167455 0.049453013 -0.14056948 0.060943678
000320 c6 b6 97 bd 82 85 cf bd 4c 61 e1 bd 69 aa f8 3d
       -0.07407908 -0.101328865 -0.11004886 0.12141878
000330 a0 f3 ab bd e8 f2 c3 3d 08 79 a8 bd 05 8e 7a 3d
       -0.08396077 0.09567815 -0.0822621 0.061170597
000340 5c 38 1c 3d d7 ab ea bd 10 71 bc bd 6f 89 8b 3b
       0.038139686 -0.11458557 -0.092012525 0.0042583267
000350 61 ea e5 bc 2d 3a ec 3d 64 a2 00 be 24 42 37 3d
       -0.028065862 0.11534534 -0.12561947 0.04474081
000360 6e f6 99 bc 3a ea a6 bd 85 d7 fc bd bc 56 fa bb
       -0.018794265 -0.08150144 -0.123457946 -0.007639734
000370 21 03 c7 3c 7a ea 95 bd f4 e5 e8 3d ba 89 ea 3d
       0.024293484 -0.073201135 0.11371985 0.114520505
000380 f8 b9 00 be fc dd b1 bd 42 ac 6e 3d e4 86 bf 3d
       -0.12570941 -0.08684918 0.058269747 0.093519
000390 c2 01 b8 bd 58 f7 bf 3d 57 41 e7 bd b2 0e 96 bd
       -0.0898471 0.09373349 -0.112917595 -0.07327022
0003a0 d5 63 05 3d 2b 76 85 3d c3 b9 9d 3c 36 5b 88 bc
       0.03256591 0.065166794 0.019253617 -0.016645055
0003b0 16 e4 57 3d 12 6e ca bd 09 6b 62 3d 77 c1 12 3e
       0.052707754 -0.098842755 0.055277858 0.14331613
0003c0 e3 8b c4 bc a6 92 92 bb 34 4d c9 3d 24 c2 82 3c
       -0.023992484 -0.0044730483 0.098291785 0.015961714
0003d0 d5 5c ed bc 15 f5 ec 3d 2e 9b a0 bd 5d 3d b8 3d
       -0.02897493 0.11570183 -0.07842098 0.08996079
0003e0 3c cb aa 3d 9e e3 e2 bd 8e 57 04 bd 53 f3 46 3d
       0.08339545 -0.11078571 -0.03231006 0.048571896
0003f0 a8 5c 6f 3c 89 6b 99 3c 91 69 ed 3d 02 c1 d0 3d
       0.014609493 0.018728035 0.11592401 0.10193063

egnn.layers.0.hidden_mlp.0.bias f4 [32]
000000 a8 cf 78 3d 2c 81 e1 bb 19 de f8 3c 1b 01 bd bd
       0.06074491 -0.0068818536 0.030379342 -0.092287265
000010 7f 90 34 3d b0 4a a1 bb 2c 9c 8b bd 37 16 de bd
       0.044083115 -0.0049222335 -0.06816897 -0.10844081
000020 7c 03 1f 3d a9 57 aa bd b5 74 df 3c ed 0d 0e be
       0.038821682 -0.08317501 0.02727733 -0.138725
000030 c6 21 8c 3d a1 b3 a2 3d d7 8c cf 3b 1a d0 b5 bb
       0.06842379 0.07944418 0.006333928 -0.0055484893
000040 40 a2 09 3e 10 27 32 3d 1f c7 c0 bd 4d ca 74 bd
       0.134408 0.043494284 -0.09412979 -0.05976324
000050 0b a9 50 bd f8 df b3 bd d3 12 cd bd 68 7c b3 bb
       -0.050942462 -0.08782953 -0.10013356 -0.005477477
000060 86 c4 d6 bd 3f 7b 6c bc 20 7f 11 3d 28 16 93 bd
       -0.104867026 -0.014433681 0.035521626 -0.0718196
000070 90 61 68 bd 66 e8 08 be 77 29 3b 3d 28 72 04 3d
       -0.056733668 -0.13369903 0.04569384 0.03233543

egnn.layers.0.hidden_mlp.2.weight f4 [16, 32]
000000 31 5a 0a be a2 54 da bd 06 5d f4 bc 01 12 e1 3a
       -0.13510968 -0.10660674 -0.029829513 0.0017171503
000010 85 eb 36 3c a3 c0 1e 3e aa 41 24 be 92 4b 95 3d
       0.011164551 0.15503173 -0.16040674 0.072898045
000020 f1 82 0b 3e 09 2e 24 3e 71 30 05 3d 25 07 21 3e
       0.13624169 0.16033186 0.0325169 0.15725382
000030 56 ba bd bd 97 ac fd bd 90 3d 25 bd 9e 66 ba bd
       -0.092640564 -0.123864345 -0.040341914 -0.09101604
000040 5c e7 a9 3d d8 2e 43 bd 7c d5 b2 3d 7e ba 80 bd
       0.082960814 -0.047652096 0.08732125 -0.062855706
000050 39 8d 9a bd cc 95 58 bd 38 86 9b bc 1f e1 aa bd
       -0.07546467 -0.052877232 -0.018984899 -0.0834372
000060 a5 85 ca 3d ee ff e5 3d 35 5b 08 3d 26 2f 2e be
       0.09888772 0.11230455 0.033290107 -0.17010173
000070 79 de 12 3e 8e 21 04 be a4 14 f8 bd c1 93 b8 3d
       0.14342679 -0.12903425 -0.12113312 0.09012557
000080 e3 e1 d1 bd 79 e4 0b be 61 10 09 be 1a d2 18 3e
       -0.102481626 -0.13661374 -0.13385154 0.14923897
000090 6f 2c 4d 3d 74 8b b0 3d 9b 54 0f 3d 4e 97 a5 3d
       0.050091203 0.086203486 0.034992795 0.080855
0000a0 5b 7c 35 3e 85 44 dc bc 68 b2 e5 bd 4f df 17 bd
       0.17723219 -0.026888141 -0.11215669 -0.037078198
0000b0 1b 97 84 bd f9 78 2c be b2 60 0a be d0 63 7a bd
       -0.064741336 -0.16843022 -0.13513449 -0.061130345
0000c0 54 71 09 3d b7 59 b8 3d 37 a4 ee 3d d2 6f 33 be
       0.033555344 0.09001487 0.11652415 -0.17523125
0000d0 aa bd 5f bc c1 dc 09 bd 2e 96 19 3e 95 a0 3c bd
       -0.013656059 -0.033657793 0.14998695 -0.04605158
0000e0 6c 24 3b 3e 7b b5 2c 3d 53 a2 c3 3c c5 86 9e 3d
       0.18275613 0.04216526 0.023881113 0.07740549
0000f0 ef 47 09 3e ed 57 c0 bd 6d 86 98 3d a9 e7 8a bd
       0.13406347 -0.093917705 0.07447515 -0.06782467
000100 c5 d0 3b 3d b3 12 d7 3d 5e 06 a3 bd 94 d5 3a bd
       0.045853395 0.105016135 -0.07960199 -0.04561384
000110 21 97 25 3e 59 86 2a be cc 32 f0 bc 84 ac 15 3e
       0.16170932 -0.16652812 -0.029321097 0.1461659
000120 99 68 1b 3d d4 5f 13 be 96 5f e4 3b fd 4d 12 be
       0.03794155 -0.14392024 0.0069694025 -0.14287563
000130 87 be 86 bd bf 67 16 3d 87 68 c4 3d f9 39 ca bd
       -0.06579309 0.036720034 0.095902495 -0.09874339
000140 ce 7b 1c 3e 8f f7 fe bd a4 00 10 bd 9a 4c 1c be
       0.15281603 -0.12449562 -0.03515686 -0.15263596
000150 2b 80 94 bb 41 48 a2 bb 01 52 99 3d 98 8c f2 bd
       -0.0045318804 -0.004952461 0.07486344 -0.118432224
000160 4b 6f fa 3b fb 80 68 3d 12 00 e6 bd dc 5c 1e 3e
       0.0076426617 0.05676363 -0.11230482 0.1546511
000170 f5 bb 13 bd aa 56 38 be 3e 45 ff bc 90 c5 2a 3d
       -0.03606792 -0.1800181 -0.031160947 0.041692317
000180 7c 8e ba bd 85 99 8c bd b8 a2 a0 3d d2 9b 09 bd
       -0.09109208 -0.06865219 0.07843536 -0.033595867
000190 7c d0 85 3d 3d 98 43 3c f9 f4 2a bb cb 7c 17 3e
       0.06533906 0.011938152 -0.0026085956 0.14793698
0001a0 22 df f8 bc b1 47 12 3e ec 33 77 bd a8 81 ea 3d
       -0.030379836 0.1428516 -0.06035225 0.11450511
0001b0 17 7f bb 3d 35 80 e5 bd 3b ab 2b bd e4 e9 f3 bd
       0.091551 -0.11206094 -0.041911345 -0.119098455
0001c0 ae 54 17 3d e5 37 b1 3b 7b 54 72 bd 90 a9 1b 3e
       0.03694599 0.0054082745 -0.059162598 0.15201402
0001d0 0f 14 2c 3e 18 48 01 be d5 6a c6 bd d9 6e 83 3c
       0.16804527 -0.12625158 -0.09688345 0.016044067
0001e0 a0 2f e0 3d 61 94 dc bd 53 f6 7e bc 61 db 02 bd
       0.10946584 -0.107704885 -0.015561658 -0.031947497
0001f0 24 e8 12 be c4 40 48 bc 0e bf b8 bb 44 ed 2f 3d
       -0.14346367 -0.012222473 -0.00563801 0.042950884
000200 6a 44 01 3e 72 cd 0d bc 06 ad 02 3e d4 46 81 bd
       0.12623754 -0.008654939 0.12761316 -0.063123375
000210 e1 62 ec bd ea 4c 8d 3d 3c f5 f5 3d 68 af e4 bb
       -0.11542297 0.06899436 0.12009665 -0.006978918
000220 ab f7 f6 bd 80 4e ad bd 0c 35 bf bd 93 3a 2b 3d
       -0.12058958 -0.08462238 -0.0933629 0.041803908
000230 fe 5e 45 3d c7 fb 20 be ad 88 ef bc e0 25 25 3d
       0.048186295 -0.15721045 -0.029239977 0.040319324
000240 cf 6e 98 bd 82 fc 31 3e 61 20 13 3e ed a1 af bd
       -0.0744301 0.1738148 0.1436782 -0.08575807
000250 09 9f 99 3c 26 ef f3 bc 5d 2f 1c be f4 d3 6d 3c
       0.018752592 -0.02977712 -0.15252443 0.014515866
000260 5e 4f 00 3e 89 7f cf 3d 84 57 b3 3d aa 8d 6e bd
       0.12530276 0.10131747 0.08756927 -0.05824057
000270 c9 ee c8 bd d1 38 1a be dd e6 20 be cd d7 07 3c
       -0.0981117 -0.15060736 -0.15713067 0.008291197
000280 8c c1 03 3e 2c 95 28 3d 9d 1e 0e bd 66 f4 a5 3c
       0.12866801 0.041157886 -0.034697164 0.02025814
000290 89 56 25 3d ab e8 9d bd bf 13 e6 3d 4e 95 9b 3d
       0.04036573 -0.077103935 0.11234235 0.07596837
0002a0 24 13 57 bd 68 56 56 bc cf 15 20 be 8e 5a b1 3d
       -0.05250849 -0.013082124 -0.1563332 0.0865985
0002b0 b2 04 ca 3c 31 4c 08 3e 96 b2 73 3d a7 af 1a be
       0.024660442 0.13310315 0.059496485 -0.15106069
0002c0 d7 a6 2e bd 58 c0 c9 3d 1c d6 19 3e 39 4f 4b 3d
       -0.04263958 0.0985114 0.15023082 0.0496361
0002d0 71 c0 19 3e c1 0f 34 3e ff 53 73 bd 47 5f f3 3c
       0.15014817 0.17584135 -0.059406277 0.029708518
0002e0 53 9c 1c 3e cd d2 a9 bc 06 98 c9 bd 26 fb 03 be
       0.15294008 -0.0207304 -0.09843449 -0.12888774
0002f0 c6 dc 8e bd 97 3c 3f be c7 0b a1 bd 1a cc b1 3d
       -0.06975703 -0.18675457 -0.078635745 0.086815074
000300 6f de 0d 3e 8b 35 c6 3c 96 4c 8b bd 84 15 de bd
       0.13854383 0.024195453 -0.06801717 -0.108439475
000310 80 32 0c be e6 a9 00 3d e9 a1 26 3e 06 79 e7 bd
       -0.13691139 0.031412028 0.16272701 -0.1130238
000320 3d e6 2f 3e 2f 62 9e bd ab fe ec bd b4 df c9 3d
       0.17177673 -0.07733571 -0.115720116 0.09857121
000330 dd 0e e0 bd fc 1f 25 3e 24 60 1f be 42 75 d8 3d
       -0.10940335 0.16125482 -0.15564018 0.1056924
000340 06 e1 22 3e 21 6c 76 bd 76 04 d6 bd 87 74 6e bd
       0.15906152 -0.060161714 -0.104500696 -0.058216598
000350 29 c6 15 3e 6e 94 03 be e9 f2 18 3e 29 4d 21 3e
       0.14626373 -0.1284959 0.14936413 0.1575209
000360 c2 66 9d bd 58 7a 0c 3e 5b 8c 2f b9 e9 de 08 3d
       -0.07685615 0.13718545 -0.00016741587 0.03341571
000370 3b b4 20 bb 04 1c 10 3d 07 05 28 3e ad 0a 03 3d
       -0.0024521488 0.035182968 0.16408168 0.031992603
000380 b6 f1 8b 3c 76 f6 d1 bd 27 37 f9 3d 09 e6 78 bd
       0.01708303 -0.10252087 0.121687226 -0.060766254
000390 60 e5 0e be ea f4 2b be 5a 47 28 3e 6f 35 8d 3d
       -0.13954687 -0.16792646 0.16433468 0.06894957
0003a0 9c c7 97 bd 3b ea df bd b4 22 af 3b d9 c8 f9 bc
       -0.07411119 -0.10933348 0.005344713 -0.03049128
0003b0 ea 6f 2d ba b7 80 0e 3e f4 68 b5 bd 29 79 f7 3c
       -0.0006616103 0.13916288 -0.08857909 0.03020914
0003c0 88 58 c2 3d 27 ff 0a 3e 12 cf 06 3d 3b 6f eb bd
       0.09489542 0.13573895 0.03291232 -0.11495825
0003d0 8a aa 13 bd fb 21 ca bc c6 c6 48 bd 3a f9 29 be
       -0.03605131 -0.024674406 -0.04901769 -0.16598979
0003e0 f1 7d 01 bc a7 74 1d 3e 1d a4 a4 bd 38 b2 92 bd
       -0.007903562 0.1537653 -0.080391146 -0.07162899
0003f0 7a c2 ef bd 40 fd 1f 3d 2f 10 da bd 7f ff a3 3c
       -0.11707015 0.039059877 -0.10647618 0.020019291

egnn.layers.0.hidden_mlp.2.bias f4 [16]
000000 71 ab 70 3b 76 19 d8 bd 71 83 e2 3d 11 6f 5f 36
       0.003672328 -0.10551731 0.11060227 3.3294239e-06
000010 22 f4 aa bd 5a e1 56 3d e1 66 c2 bd 04 20 b0 b7
       -0.08347346 0.052461006 -0.09492279 -2.0995743e-05
000020 f3 75 a2 bd 93 6d 66 3a 2e 06 62 3b 34 e9 cd 3d
       -0.07932653 0.00087901315 0.0034488547 0.100542456
000030 db 32 03 bd 0e 9e 80 3d aa a5 e8 35 3d aa 8c 3d
       -0.03203092 0.062801465 1.7333562e-06 0.06868408
