2-egnca-rework/logs/line4-2024-10-05@23-20-03/best@7.pt (torch, 25382 bytes, 11 tensors)

egnn.layers.0.message_mlp.0.weight f4 [32, 33]
0	0x3d4b271e	0.049597852
1	0x3db19ad3	0.086721085
2	0xbc36911a	-0.011142993
3	0x3dc4945c	0.0959861
4	0xbd38d0b7	-0.04512092
5	0x3cce3770	0.025172919
6	0xbd6e9d74	-0.058255628
7	0xbca583b2	-0.020204399
8	0xbd4659dc	-0.04842554
9	0x3d040088	0.03222707
10	0x3e03ee2e	0.12883827
11	0x3e14754d	0.14497872
12	0xbcd083f3	-0.025453543
13	0xbd878257	-0.06616657
14	0xbc9f4b4f	-0.01944509
15	0x3e11f601	0.14254
16	0x3e0d6e1a	0.13811532
17	0xbd4c56f6	-0.04988762
18	0xbd49515e	-0.049149863
19	0xbd0f14b1	-0.034931842
20	0x3ddfa298	0.10919684
21	0x3e169340	0.14704609
22	0xbdfa9520	-0.122354746
23	0xbd554fcb	-0.05207805
24	0xbe186def	-0.14885686
25	0x3e275eb5	0.16344722
26	0x3d1774b2	0.036976524
27	0x3d29cd5b	0.041455608
28	0x3db79375	0.08963672
29	0x3d534c76	0.05158659
30	0xbd3820fc	-0.04495333
31	0xbe258bf2	-0.16166666
32	0x3d620cc4	0.055187955
33	0xbcaecb2b	-0.021337112
34	0xbe23d0f2	-0.15997675
35	0xbc829124	-0.015938349
36	0xbdb398ac	-0.08769354
37	0xbdd6c83f	-0.10487413
38	0xbdf43224	-0.11923626
39	0xbe049c37	-0.12950216
40	0xbb4ddd39	-0.0031412377
41	0x3d0093a6	0.03139081
42	0xbe260f29	-0.1621672
43	0xbe1bea3b	-0.1522607
44	0xbbd2b726	-0.0064305244
45	0xbe2a65ee	-0.16640446
46	0x3dbebedb	0.093137465
47	0xbd558847	-0.052131917
48	0xbc873452	-0.01650444
49	0xbe1a8b55	-0.15092213
50	0xbe047cdc	-0.12938255
51	0x3d591ae7	0.05300417
52	0xbdd86a96	-0.10567205
53	0xbd76c63c	-0.060247645
54	0xbe292228	-0.16516936
55	0xb9848dbf	-0.0002528261
56	0xbdf113e6	-0.117713735
57	0x3d14f838	0.036369532
58	0x3d7daa64	0.061930075
59	0x3cdecec2	0.0271982
60	0x3d93653b	0.071970426
61	0xbdecd623	-0.11564281
62	0x3bc89e15	0.0061223605
63	0xbe113b4e	-0.14182779
64	0xbe0466e2	-0.12929872
65	0x3e06d978	0.13168895
66	0x3decbf64	0.11559942
67	0xbe0c28c5	-0.13687427
68	0x3db87eb1	0.090085395
69	0xbe171375	-0.14753516
70	0x3cfb7006	0.030693065
71	0x3e19e4f1	0.1502874
72	0xbb749616	-0.0037320904
73	0x3d742263	0.059603106
74	0x3e166159	0.14685573
75	0xbd90cc8f	-0.070702665
76	0x3df6a656	0.12043445
77	0x3cf88526	0.030336928
78	0xbd176774	-0.036963895
79	0xbe285750	-0.16439557
80	0x3e324eef	0.17412923
81	0x3e2869c1	0.16446592
82	0xbdac5450	-0.08414519
83	0x3d245804	0.040123
84	0xbe2f0a06	-0.17093667
85	0x3d1da897	0.038490858
86	0x3db1b7c4	0.08677629
87	0x3cb89eea	0.022536714
88	0xbdc51a7f	-0.09624194
89	0x3e2a2641	0.16616155
90	0xbdb905c5	-0.090343036
91	0x3c30efb4	0.010799337
92	0xbe1f0f85	-0.15533264
93	0x3d7feea6	0.062483452
94	0x3de06157	0.10956066
95	0x3d339edc	0.043852672
96	0x3dfde2a0	0.12396741
97	0xbe3013b2	-0.17195013
98	0xbdbeb8e8	-0.09312612
99	0x3d15bba8	0.036555916
100	0x3d9906a4	0.0747197
101	0xbd4cd452	-0.050007172
102	0x3d320030	0.04345721
103	0xbe27bb9a	-0.16380158
104	0x3e267053	0.16253786
105	0xbe198639	-0.14992608
106	0xbe2cb9ad	-0.16867705
107	0xbe0f549e	-0.13997123
108	0x3e30661c	0.17226452
109	0x3d120e50	0.03565818
110	0xbc0229a6	-0.0079445
111	0x3d29292e	0.041299038
112	0xbc19bb2b	-0.009383003
113	0xbde8b933	-0.11363449
114	0x3dd39b3e	0.103323445
115	0xbe1cfbcf	-0.15330432
116	0xbd19cc24	-0.0375482
117	0x3d01df4b	0.03170709
118	0xbdc1efd2	-0.0946957
119	0x3d0698fe	0.03286075
120	0xbe1bc48b	-0.15211694
121	0xbdad41af	-0.08459794
122	0x3e222155	0.15833028
123	0x3d834911	0.06410421
124	0xbe1868f1	-0.14883782
125	0x3e30bca9	0.17259468
126	0xbd68c2f1	-0.056826536
127	0x3cb2568a	0.02176978
128	0xbcdb2ef3	-0.026755786
129	0xbde6f775	-0.112776674
130	0x3d09fbda	0.03368745
131	0xbce32920	-0.02772957
132	0xbdaad136	-0.08340685
133	0x3dd27f93	0.10278239
134	0x3dc507d6	0.09620635
135	0x3e01d228	0.12677824
136	0xbd0d37ab	-0.034476917
137	0xbc852001	-0.016250612
138	0x3d005a84	0.031336322
139	0x3e2adf6a	0.16686788
140	0xbe143c1d	-0.14476056
141	0xbc0fb804	-0.0087719
142	0x3cf0bb1e	0.0293861
143	0x3d9db270	0.0770005
144	0xbe28c469	-0.16481175
145	0xbe32d521	-0.17464115
146	0xbc5ee724	-0.013604913
147	0x3d8bcd50	0.068262696
148	0xbd6faa95	-0.05851229
149	0x3e105359	0.14094295
150	0x3cdcaa11	0.026936563
151	0xbd87c0c2	-0.066285625
152	0xbd4fd964	-0.05074443
153	0xbe156ff5	-0.1459349
154	0x3dd0d2b2	0.10196437
155	0xbd291140	-0.041276217
156	0x3daf884b	0.08570918
157	0xbe3040bf	-0.17212199
158	0x3df5083e	0.11964463
159	0x3d8af12f	0.06784283
160	0xbddb2a6a	-0.10701449
161	0xbdd5d77e	-0.104414925
162	0x3e0aa6e3	0.13540225
163	0x3d9a677a	0.07539268
164	0x3d99e26c	0.0751389
165	0x3ce56908	0.028004184
166	0xbdcdb6c0	-0.100446224
167	0xbdf97225	-0.121799745
168	0xbd6482db	-0.055788856
169	0xbd2ad0df	-0.0417031
170	0xbd0d7095	-0.034531195
171	0xbd7979db	-0.060907226
172	0xbe19cb7f	-0.15019034
173	0xbe2e9b06	-0.17051324
174	0xbdf5fd59	-0.12011213
175	0x3da57afe	0.080800995
176	0xbdd33a67	-0.10313874
177	0xbe053851	-0.13009764
178	0xbdab5e65	-0.08367614
179	0x3d81ebcb	0.06343802
180	0xbd7d150e	-0.061787657
181	0xbc03e550	-0.008050278
182	0x3cb6c2fa	0.022309769
183	0xbde3f03c	-0.111298054
184	0xbd24d0a2	-0.04023803
185	0xbd80711f	-0.06271576
186	0x37ee1c05	2.8384859e-05
187	0xbde628f6	-0.112382814
188	0xbcc409c7	-0.023930443
189	0x3ccaff04	0.024779804
190	0x3d3faefc	0.046797737
191	0xbdcf1224	-0.10110882
192	0x3e1248fc	0.14285654
193	0x3d1c1f70	0.03811592
194	0xbe01c51f	-0.12672852
195	0x3e1a3e75	0.15062888
196	0xbdd0cd02	-0.10195352
197	0x3c398738	0.011323743
198	0x3e019f8e	0.12658522
199	0xbd5aae1e	-0.053388707
200	0x3d1452ed	0.036211897
201	0x3d92a900	0.071611404
202	0xbd842e2e	-0.064541206
203	0x3c325e1c	0.010886695
204	0x3de7621f	0.11298012
205	0xbc181b2f	-0.009283825
206	0xbd6b5721	-0.05745614
207	0x3defc628	0.11707717
208	0x3cd2b4dd	0.025721008
209	0xbdf37142	-0.118868366
210	0x3d9b382c	0.07579073
211	0x3e06c1c6	0.13159856
212	0x3c459711	0.012059943
213	0x3e0d1633	0.13778
214	0xbdf517a4	-0.119674
215	0x3e25aeb1	0.1617992
216	0x3dd556c7	0.10416942
217	0xbc90c676	-0.017672759
218	0xbe2cf490	-0.16890168
219	0x3e2823f1	0.1641996
220	0xbcbc541b	-0.022989323
221	0x3dafad89	0.08578021
222	0xbdbd0eae	-0.092313156
223	0x3d472f69	0.0486292
224	0xbcd89fce	-0.026443388
225	0x3d0a4e2d	0.03376596
226	0x3d576cf9	0.05259416
227	0xbde4d308	-0.111730635
228	0xbe0dc23b	-0.13843624
229	0xbc5b9253	-0.013401586
230	0xbd314f05	-0.04328825
231	0x3de2d7f6	0.110763475
232	0xbda861e3	-0.082217954
233	0x3d38ff56	0.045165382
234	0xbe24842a	-0.16066042
235	0x3da09711	0.07841314
236	0x3de1fdf8	0.11034769
237	0x3cbab6ea	0.022792298
238	0x3cd80749	0.026370661
239	0x3cc4522d	0.023964966
240	0xbc47e768	-0.012201168
241	0xbd0fa791	-0.035071913
242	0x3e010a72	0.12601641
243	0xbd5ab594	-0.053395823
244	0xbc9433da	-0.018091131
245	0xbca332e4	-0.019921727
246	0xbdcbf055	-0.09957949
247	0xbe08cce7	-0.13359414
248	0xbdcd8c15	-0.10036484
249	0xbcd2dc02	-0.025739674
250	0xbe0abc06	-0.13548288
251	0x3d6b3805	0.05742647
252	0xbe003842	-0.1252146
253	0xbd4aefa6	-0.049544953
254	0xbd9dc922	-0.07704379
255	0xbdaa84a5	-0.08326081

egnn.layers.0.message_mlp.0.bias f4 [32]
0	0xbd241bc7	-0.040065553
1	0xbc41fc44	-0.01183993
2	0x3d39dc59	0.045376156
3	0xbe23ff46	-0.16015348
4	0x3d8d8162	0.069094434
5	0xbe20655f	-0.1566367
6	0xbd33e1b0	-0.043916404
7	0xbe13e425	-0.14442499
8	0xbe13aa53	-0.14420442
9	0xbdbd46ea	-0.092420414
10	0x3dfc50ca	0.12320097
11	0xbe24a069	-0.16076817
12	0x3d926fac	0.07150206
13	0x3b0aec14	0.0021197842
14	0xbe0b269b	-0.13588946
15	0x3d268a48	0.04065922
16	0xbdb64c74	-0.08901301
17	0xbddd96ae	-0.108197555
18	0x3d249b7a	0.040187337
19	0xbe08e7c3	-0.1336966
20	0x3c00c8e4	0.007860396
21	0x3d578a72	0.052622266
22	0x3d6457c1	0.05574775
23	0x3dc33910	0.09532368
24	0xbe1766a9	-0.14785255
25	0x3d54d6be	0.051962607
26	0x3df081f9	0.1174354
27	0xbe1b75ff	-0.1518173
28	0x3d9fc5fb	0.07801434
29	0x3c908577	0.017641766
30	0x3d6ce6fc	0.05783747
31	0xbe24bb46	-0.16087064

egnn.layers.0.message_mlp.2.weight f4 [32, 32]
0	0x3dcfe631	0.101513274
1	0xbe12f443	-0.14350991
2	0x3d86c276	0.06580059
3	0x3e301704	0.1719628
4	0xbd161a36	-0.03664609
5	0x3da76c7b	0.08174988
6	0xbce33831	-0.027736755
7	0x3db7cc15	0.089744724
8	0xbe16a6ff	-0.14712141
9	0x3c054608	0.0081343725
10	0x3e308637	0.17238699
11	0xbcf0c72d	-0.02939185
12	0xbe0ab727	-0.1354643
13	0xbe085f55	-0.13317616
14	0x3d582b8e	0.052775912
15	0x3e1f4e79	0.15557279
16	0xbe2d4f3f	-0.16924761
17	0x3dd84e82	0.10561849
18	0xbdfd7dfe	-0.12377547
19	0x3d918245	0.07104925
20	0x3cb562d9	0.02214186
21	0x3d319c79	0.043362115
22	0xbe26557e	-0.1624355
23	0x3e2ac354	0.16676074
24	0x3d40dabe	0.04708361
25	0xbccc0d19	-0.02490859
26	0xbdf43c5c	-0.11925575
27	0x3def4fa0	0.11685109
28	0x3e237e26	0.1596609
29	0x3db60f76	0.08889668
30	0xbcb46c67	-0.022024347
31	0xbd1279b9	-0.035760615
32	0xbe330a06	-0.17484292
33	0x3de52f7d	0.11190698
34	0xbc757e28	-0.014983691
35	0xbe2a3a00	-0.16623688
36	0x3a12d28f	0.00056008337
37	0x3d086194	0.033296183
38	0x3df029cc	0.11726722
39	0x3d85e9f8	0.065387666
40	0xbe02e195	-0.12781365
41	0xbd590f9c	-0.052993402
42	0xbe22e3c8	-0.15907204
43	0x3d8f6f94	0.07003704
44	0x3d9ea6e9	0.07746679
45	0xbdd2c180	-0.102908134
46	0x3d017be5	0.031612296
47	0x3df7db8c	0.12102422
48	0x3e22f22e	0.15912697
49	0x3e015174	0.12628728
50	0x3d6de2ed	0.05807774
51	0x3d309e8d	0.043119956
52	0x3d9b7d4d	0.075922586
53	0x3e2d511f	0.16925476
54	0x3e020c55	0.12700017
55	0x3ccdf6d8	0.025142118
56	0x3c86589c	0.016399674
57	0x3e046b9a	0.12931672
58	0x3e289111	0.16461588
59	0xbdf4453e	-0.119272694
60	0xbd9d78e3	-0.07689073
61	0x3e35ec23	0.1776586
62	0xbd9f9c09	-0.07793433
63	0xbd41a97b	-0.04728077
64	0x3e0b9a11	0.1363299
65	0xbd6ddc3e	-0.058071367
66	0x3e295419	0.16535987
67	0xbdbfefac	-0.09371886
68	0xbd99acbe	-0.07503651
69	0x3c24dec7	0.01006288
70	0x3be3aa69	0.0069478047
71	0x3e1de24b	0.15418355
72	0xbd806dce	-0.062709436
73	0x3d99694a	0.074907854
74	0xbd1557f7	-0.036460843
75	0xbc706b45	-0.014674013
76	0xbe149bc0	-0.14512539
77	0x3e2c0ae4	0.1680103
78	0xbda73313	-0.081640385
79	0xbd2283b0	-0.03967637
80	0xbda6eba6	-0.08150415
81	0x3e216d01	0.15764238
82	0xbd7ea144	-0.062165514
83	0xbd2bfd28	-0.041989475
84	0x3db2d20a	0.08731468
85	0x3e204d4b	0.15654485
86	0x3e1f4a49	0.15555681
87	0xbdc5c1d9	-0.09656114
88	0xbd6ffc37	-0.05859014
89	0x3e0843bf	0.13307093
90	0x3dafde5e	0.08587335
91	0x3e0e5b63	0.13902049
92	0x3d612e28	0.05497566
93	0xbdc13161	-0.094332464
94	0xbcbf3643	-0.023341304
95	0xbda22c46	-0.07918601
96	0xbe192aee	-0.14957783
97	0x3d3b6bd4	0.04575713
98	0x3db63dcb	0.08898505
99	0x3d866d72	0.06563844
100	0x3e12955b	0.14314787
101	0xbd996854	-0.07490602
102	0x3d845829	0.06462128
103	0xbd78a3e3	-0.06070317
104	0x3e223d9c	0.15843815
105	0xbc5fe281	-0.013664843
106	0x3df4be02	0.119503036
107	0x3e1532f2	0.14570215
108	0xbe025e05	-0.12731178
109	0xbd0d36f0	-0.03447622
110	0x3e225fa9	0.15856804
111	0xbda55ba8	-0.08074123
112	0xbd116e70	-0.035505712
113	0x3e0ef5fc	0.13961023
114	0x3e1b503b	0.15167324
115	0x3de258c0	0.11052084
116	0x3c37628e	0.011192931
117	0x3deb3967	0.11485558
118	0xbe206233	-0.1566246
119	0x3daac630	0.083385825
120	0xbcbf09db	-0.02332013
121	0xbe0d998a	-0.13828102
122	0x3d3ac608	0.045599014
123	0x3bd2e9d1	0.0064365645
124	0x3d908671	0.07056893
125	0xbd5f4e1e	-0.054517858
126	0x3e2a8ff1	0.16656472
127	0xbe3054b5	-0.17219813
128	0x3e28e512	0.16493633
129	0xbd8c6c94	-0.06856647
130	0x3db7bd48	0.089716494
131	0xbc694c7d	-0.014239428
132	0xbd4cdeaf	-0.050017055
133	0xbe0a2826	-0.13491878
134	0xbe132440	-0.14369297
135	0x3c6be289	0.014397272
136	0xbdb79816	-0.08964555
137	0xbdf15e02	-0.11785509
138	0xbe282f27	-0.16424237
139	0x3e2b2a09	0.16715254
140	0x3d2ce3a3	0.04220928
141	0x3cc5daa1	0.024152102
142	0xbd1a1677	-0.03761908
143	0xbe1cb87b	-0.15304749
144	0x3dd632ae	0.10458885
145	0x3e0a0983	0.13480191
146	0x3d33f2b4	0.04393263
147	0x3d40c523	0.047063004
148	0xbc519026	-0.012790715
149	0x3d65cbef	0.05610269
150	0xbac05b52	-0.0014675653
151	0xbde66fa5	-0.11251763
152	0xbc792d25	-0.015208517
153	0x3e1630c5	0.14667042
154	0xbdc1834d	-0.09448872
155	0x3e27f93d	0.1640367
156	0xbdd5dcbd	-0.10442493
157	0xbc8d3d0e	-0.017241027
158	0x3de8081e	0.11329673
159	0xbddac04e	-0.106812105
160	0xbcf34c71	-0.029699536
161	0xbe0eaba7	-0.13932668
162	0xbc5c08ad	-0.013429803
163	0x3dd36a2d	0.10322986
164	0xbdac9977	-0.084277086
165	0xbd1776ea	-0.03697864
166	0x3bf27a31	0.0073998203
167	0x3ddaa803	0.10676577
168	0x3ccff63b	0.025385967
169	0xbcc973ce	-0.024591353
170	0xbdd56618	-0.104198635
171	0xbe00cd8d	-0.12578411
172	0x3e2a6411	0.16639735
173	0xbd631442	-0.05543924
174	0x3de6e36a	0.112738445
175	0xbca8dbf2	-0.02061269
176	0xbda2fde5	-0.07958583
177	0xbd83dd30	-0.064386725
178	0xbe0f2b3a	-0.13981333
179	0xbd0c2af3	-0.034220647
180	0x3c6a732b	0.014309685
181	0xbda0f3d8	-0.078590095
182	0x3d468072	0.04846234
183	0x3db878e1	0.09007431
184	0xbdde92ee	-0.10867868
185	0xbca725f3	-0.020403838
186	0x3df63714	0.12022224
187	0xbe27b63d	-0.16378112
188	0x3dd011bc	0.101596326
189	0xbd30c604	-0.043157592
190	0xbd87d11f	-0.066316836
191	0xbdd0a91e	-0.101885065
192	0xbabcbcda	-0.0014399544
193	0x3d2dae91	0.042402808
194	0xbd85195d	-0.06498978
195	0xbd90fe49	-0.07079751
196	0x3dc27cc7	0.09496456
197	0xbdaddbcb	-0.08489188
198	0x3c93b525	0.018030712
199	0x3ddece89	0.10879237
200	0xbc91460a	-0.017733593
201	0xbd72db2e	-0.059291057
202	0xbdc951a0	-0.09830022
203	0xbd58f8b3	-0.052971553
204	0xbd3cbf23	-0.04608072
205	0x3de45464	0.11148909
206	0x3aacecf8	0.0013193181
207	0xbe1085f5	-0.141136
208	0xbc65d28f	-0.014027252
209	0xbdcb68b6	-0.099320814
210	0x3e348c2c	0.17631596
211	0xbd0eaaac	-0.034830734
212	0xbe1b92b6	-0.15192685
213	0xbd9fff48	-0.07812363
214	0x3de31295	0.110875286
215	0x3e2fbb56	0.17161307
216	0xbdf54bc6	-0.11977343
217	0xbe23f09e	-0.16009757
218	0xbd627bfe	-0.05529403
219	0xbd6d25bc	-0.057897314
220	0xbda5f0f8	-0.08102602
221	0x3db0abea	0.0862654
222	0x3c89a1db	0.016800812
223	0x3e028ea8	0.12749732
224	0x3df14f04	0.11782649
225	0x3d0d5061	0.034500483
226	0x3e07eda9	0.13274254
227	0xbd0100cf	-0.03149491
228	0x3d7685bb	0.06018613
229	0xbde08afb	-0.109640084
230	0x3ce90875	0.028446415
231	0x3d8b93fb	0.068153344
232	0xbe2c8777	-0.1684855
233	0x3e2145e5	0.15749319
234	0x3dea2a31	0.114338286
235	0xbdc944be	-0.09827565
236	0x3d82258b	0.06354817
237	0x3e32b928	0.17453444
238	0xbd5ce795	-0.05393179
239	0x3bdf4bb3	0.006814444
240	0xbcd44b41	-0.02591479
241	0xbddd7f73	-0.10815325
242	0x3dc04a05	0.09389118
243	0xbda18c6c	-0.078881115
244	0x3d348352	0.04407055
245	0x3ced686a	0.028980453
246	0x3da6569e	0.0812199
247	0x3e26e550	0.16298413
248	0x3d6f37f0	0.058402956
249	0xbd101c2d	-0.03518312
250	0xbd3f5736	-0.04671403
251	0x3e1692ca	0.14704433
252	0x3ddc6fdc	0.10763523
253	0x3e24d8c1	0.1609831
254	0xbd903688	-0.07041651
255	0x3ddbcb4f	0.107321374

egnn.layers.0.message_mlp.2.bias f4 [32]
0	0xbb04f2bd	-0.0020286285
1	0x3dee6721	0.11640764
2	0x3c715054	0.014728624
3	0x3e294791	0.16531207
4	0xbce85726	-0.028361868
5	0xbe271eed	-0.16320391
6	0xbe1a0b9b	-0.1504349
7	0xbda8dd52	-0.082453385
8	0x3d709cce	0.05874329
9	0x3dd1994e	0.10234319
10	0x3d92caaf	0.07167565
11	0x3e1e52b5	0.15461238
12	0xbe2c8926	-0.16849193
13	0x3da5df6b	0.08099254
14	0xbcb4ea65	-0.022084424
15	0xbe07e3e7	-0.13270532
16	0x3d21d2b0	0.039507568
17	0x3e24a5d8	0.1607889
18	0x3d5e49e6	0.054269694
19	0x3ded2526	0.11579351
20	0x3dc3e0cf	0.09564363
21	0xbdd21641	-0.10258151
22	0xbe2d4703	-0.1692162
23	0xbe2c8db0	-0.16850924
24	0x3e136a2a	0.14395967
25	0xbdfbb6c5	-0.1229072
26	0xbd5786c0	-0.052618742
27	0x3e0e9d76	0.13927254
28	0x3e1847c2	0.14871123
29	0xbde48ee9	-0.111600704
30	0x3da62c53	0.08113923
31	0xbba3e1e9	-0.005001296

egnn.layers.0.coord_mlp.0.weight f4 [32, 32]
0	0xbcced0cd	-0.025246048
1	0xbb7f818d	-0.003898713
2	0x3cc6da58	0.024274036
3	0xbe311c6d	-0.17296
4	0xbdea2013	-0.11431899
5	0x3da45f29	0.08025963
6	0x3dbd02ae	0.09229027
7	0x3d8aa4e8	0.067697346
8	0xbddb8002	-0.10717775
9	0xbcc0cfb6	-0.023536544
10	0x3e01eb61	0.12687446
11	0xbde36ca4	-0.11104706
12	0x3dfb1a00	0.122608185
13	0x3d77faa2	0.060541756
14	0xbdd0103c	-0.101593465
15	0xbe2cc514	-0.16872054
16	0x3d95ed99	0.07320709
17	0x3d2970fa	0.04136751
18	0xbdd393c1	-0.10330916
19	0xbe00670c	-0.1253931
20	0x3d3076df	0.043082114
21	0x3d7dc943	0.061959516
22	0xbd951b6b	-0.0728062
23	0x3e1a88e7	0.15091287
24	0x3e040be1	0.12895156
25	0x3dc36a14	0.09541717
26	0x3e073100	0.13202286
27	0xbdca8109	-0.09887893
28	0x3e20d50e	0.15706274
29	0xbe29d69e	-0.16585776
30	0xbd533a92	-0.05156953
31	0xbe08557a	-0.13313857
32	0xbcf1a689	-0.029498355
33	0xbe1f424d	-0.15552635
34	0xbe0ab509	-0.13545622
35	0xbdf004a8	-0.11719638
36	0x3d0f313f	0.034959074
37	0xbdeb44f4	-0.11487761
38	0x3aabc60d	0.0013105288
39	0x3d387354	0.04503186
40	0xbe19e6df	-0.15029477
41	0x3e06d879	0.13168515
42	0xbd0915e6	-0.03346815
43	0x3df2d40f	0.11856853
44	0xbbfcb9da	-0.007712585
45	0x3dd6b18f	0.10483085
46	0x3c9ca477	0.019121392
47	0xbdee35e7	-0.11631375
48	0xbe293583	-0.1652432
49	0xbe077b36	-0.13230595
50	0xbde02078	-0.10943693
51	0xbde3c496	-0.1112148
52	0x3e354be0	0.17704725
53	0xbe0a97ac	-0.1353442
54	0x3c1f2da2	0.00971547
55	0xbdec1da0	-0.11529088
56	0x3e0ac2dd	0.13550897
57	0xbcc2ca62	-0.023778144
58	0xbdbd8f7a	-0.092558816
59	0x3d0630d1	0.0327614
60	0xbda1a552	-0.078928605
61	0x3d97711a	0.07394619
62	0xbc6c6f1e	-0.014430789
63	0xbe015657	-0.12630592
64	0xbd00e4f7	-0.031468358
65	0xbb77b68d	-0.0037798018
66	0x3acc6684	0.0015594517
67	0xbd9b525d	-0.07584069
68	0x3d2384c2	0.03992153
69	0x3e31fc24	0.1738134
70	0xbde71d0d	-0.11284838
71	0xbd72f77b	-0.059318047
72	0x3c154838	0.009111457
73	0x3deaf91c	0.11473295
74	0xbd8bba53	-0.06822648
75	0xbe0a459e	-0.1350312
76	0x3e280e8f	0.16411804
77	0x3d7954c1	0.060871843
78	0x3da20ea2	0.07912947
79	0xbd4c5d9e	-0.049893968
80	0x3e16947f	0.14705084
81	0xbaf71827	-0.0018851802
82	0x3d51d632	0.051229663
83	0x3e2fdd19	0.17174186
84	0xbde24481	-0.11048222
85	0xbe086c58	-0.1332258
86	0x3de0fb5b	0.10985442
87	0x3dd48daf	0.103785865
88	0x3b9e6ec8	0.0048349835
89	0xbdb95147	-0.090487055
90	0x3e11b430	0.14228892
91	0xbe054966	-0.1301628
92	0xbc38438c	-0.011246573
93	0xbe27f035	-0.16400225
94	0x3e0072f9	0.12543859
95	0x3cfb3d55	0.030668894
96	0xbd6e181e	-0.05812847
97	0xbde92042	-0.11383106
98	0xbd1ea50a	-0.038731612
99	0xbe0d4155	-0.13794453
100	0x3e190cb6	0.14946255
101	0xbdcb51ea	-0.09927733
102	0xbbe900cd	-0.007110691
103	0x3cd994a1	0.02656013
104	0x3de6c54a	0.11268099
105	0xbc7804b5	-0.015137841
106	0x3cf838b1	0.03030047
107	0xbbcd10d8	-0.0062581114
108	0xba83e6a6	-0.0010063245
109	0x3dd6786e	0.10472189
110	0x3dddf3dc	0.10837528
111	0xbca4d5db	-0.020121505
112	0x3d632323	0.05545343
113	0xbd0cbadd	-0.034357894
114	0x3d9f7b6a	0.07787211
115	0x3c4f4002	0.012649538
116	0xbb8b2bc0	-0.0042471588
117	0x3b7fcc91	0.0039031843
118	0x3e07d3b2	0.13264349
119	0x3de36eff	0.11105155
120	0xbcf7f142	-0.030266408
121	0x3df8e8f9	0.12153811
122	0x3c3a0ff1	0.01135634
123	0xbd8a2823	-0.06745937
124	0xbdb23e8e	-0.087033376
125	0x3dc7eb0a	0.09761627
126	0xbd6c07e7	-0.057624724
127	0xbc28f30d	-0.010311854
128	0xbd8da4d8	-0.06916207
129	0xbde0fdf1	-0.109859355
130	0x3e0debf8	0.13859546
131	0x3e128f2b	0.14312427
132	0xbe19326f	-0.14960645
133	0x3baed088	0.0053349175
134	0x3dfec08d	0.1243907
135	0x3e0d790d	0.13815708
136	0x3d56109d	0.052261937
137	0x3d526860	0.05136907
138	0xbce00795	-0.027347365
139	0x3cf06052	0.029342804
140	0x3dc78dc3	0.09743836
141	0xbdc6e392	-0.09711374
142	0xbbbfea41	-0.0058567827
143	0x3e2fdd41	0.17174245
144	0x3deeb68b	0.11655911
145	0x3da84ca2	0.082177415
146	0x3ccb37de	0.024806913
147	0x3e1e7fe5	0.15478475
148	0xbcc3428e	-0.023835447
149	0xbd61ea7a	-0.055155255
150	0xbda84685	-0.082165755
151	0x3dbe194b	0.09282168
152	0xbe059f26	-0.13048992
153	0x3c86b5c6	0.016444098
154	0x3ca271d6	0.019829672
155	0xbdb8d407	-0.09024816
156	0x3dd04ea8	0.101712525
157	0xbccaf5f6	-0.024775486
158	0x3d8d1000	0.068878174
159	0xbd953ff4	-0.07287589
160	0x3cef0dba	0.02918135
161	0x3e09fb66	0.13474807
162	0x3bb79677	0.0056026536
163	0xbddbfb27	-0.10741263
164	0xbd41573c	-0.047202334
165	0xbd355659	-0.0442718
166	0x3bfd5213	0.0077307313
167	0xbd8ba544	-0.06818631
168	0x3d02cb8c	0.0319324
169	0xbd845b86	-0.06462769
170	0x3c547637	0.012967638
171	0xbe19c0f1	-0.15015008
172	0xbd145bfe	-0.036220543
173	0x3daf5e8b	0.085629545
174	0x3dc164d5	0.0944306
175	0xbdf6ce42	-0.12051059
176	0xbdd9bc49	-0.10631616
177	0x3c964ecb	0.018348118
178	0x3d00a2ce	0.031405263
179	0xbd66d51b	-0.056355577
180	0x3dda30e7	0.10653859
181	0xbd9e6008	-0.0773316
182	0xbdcb8ee7	-0.09939366
183	0x3e0d4d1a	0.13798943
184	0xbdc940fa	-0.098268464
185	0xbcbb8e9b	-0.022895148
186	0xbdfde647	-0.123974375
187	0x3d8f0e7d	0.06985185
188	0xbd78086b	-0.060554903
189	0x3dd3acaa	0.103356674
190	0x3dba6d63	0.09102895
191	0xbe11fe70	-0.14257216
192	0xbde26f9c	-0.11056444
193	0x3e267627	0.16256009
194	0xbe14310c	-0.14471835
195	0xbdfa2df4	-0.12215796
196	0xbe12511e	-0.14288756
197	0x3e048665	0.12941892
198	0xbceeda4f	-0.029156832
199	0xbe13fe01	-0.14452364
200	0xbe03fb6a	-0.12888876
201	0x3e115684	0.1419316
202	0xbd9123e8	-0.07086927
203	0x3e06948e	0.13142607
204	0x3e1e671c	0.1546902
205	0x3d50105c	0.05079685
206	0xbda4a512	-0.08039297
207	0x3e2d6cb7	0.16936003
208	0x3e2723bf	0.1632223
209	0x3e0a348d	0.13496609
210	0xbd82863b	-0.06373259
211	0x3e104c6a	0.1409165
212	0xbdc31b58	-0.095267
213	0x3d96bf02	0.073606506
214	0xbb987c80	-0.0046535134
215	0x3e192023	0.14953665
216	0x3d3a4af3	0.045481633
217	0x3d86e7c3	0.06587174
218	0xbe05a78d	-0.13052197
219	0x3e0d627a	0.13807097
220	0x3bbda2ce	0.00578723
221	0xbce5db86	-0.028058778
222	0x3ca3d55c	0.019999199
223	0xbd6e51d2	-0.0581835
224	0xbe1aed10	-0.15129495
225	0xbe2577a6	-0.16158924
226	0x3d814f94	0.063140064
227	0xbd999811	-0.074997075
228	0xbdf013de	-0.11722539
229	0x3e0b53c3	0.13606171
230	0x3e29dbe7	0.16587792
231	0xbe28f92a	-0.16501299
232	0xbdea57ae	-0.11442505
233	0xbdec0b8c	-0.1152564
234	0x3d9963ea	0.0748976
235	0x3db7b249	0.08969552
236	0xbdc3dc2c	-0.09563479
237	0xbddc1922	-0.10746981
238	0x3df29487	0.118447356
239	0xbde49657	-0.111614875
240	0xbdb01693	-0.08598056
241	0x3e2be5d4	0.16786891
242	0xbba8fce2	-0.005157099
243	0xbd7d3c71	-0.06182522
244	0x3dcf4119	0.10119838
245	0xbe2efb75	-0.1708811
246	0x3e263bd6	0.16233763
247	0xbdc0a96a	-0.09407313
248	0x3cf18625	0.02948291
249	0xbdf298dc	-0.11845562
250	0x3de7a4b8	0.113107145
251	0x3d05b0b3	0.032639217
252	0xbe10bb36	-0.14133915
253	0xbdf3b25c	-0.11899254
254	0x3dd4488a	0.10365398
255	0xbd80a779	-0.06281943

egnn.layers.0.coord_mlp.0.bias f4 [32]
0	0xbd296099	-0.04135189
1	0xbd9f030a	-0.077642515
2	0xbe22e794	-0.15908653
3	0x3e0f5ce0	0.14000273
4	0xbddd6233	-0.10809746
5	0x3e0aaecc	0.13543242
6	0x3ccc3cda	0.02493136
7	0xbd935473	-0.07193842
8	0xbdca7ce6	-0.09887104
9	0xbe06e4be	-0.13173196
10	0x3e227f29	0.1586882
11	0xbd79f0bd	-0.0610206
12	0x3cb5d7ac	0.022197567
13	0xbd13b925	-0.03606524
14	0x3e2c87d4	0.1684869
15	0x3e2c3945	0.16818722
16	0x3d067deb	0.03283493
17	0xbdbc68e4	-0.09199694
18	0x3d2c0cee	0.04200452
19	0xbe277c18	-0.16355932
20	0xbe2061de	-0.15662333
21	0x3c0b9418	0.008519195
22	0x3a117802	0.00055491936
23	0x3df25525	0.11832646
24	0xbdad541b	-0.084633075
25	0x3ccbca3d	0.024876708
26	0x3dbd3fc1	0.09240676
27	0xbe254322	-0.1613889
28	0x3d8cfd64	0.06884268
29	0xbded7a28	-0.11595565
30	0x3da7b4ca	0.0818878
31	0x3dd26ae2	0.102742925

egnn.layers.0.coord_mlp.2.weight f4 [1, 32]
0	0xba1cf848	-0.00059879245
1	0xba3aac16	-0.000712098
2	0xba922a3c	-0.0011151503
3	0xb9884363	-0.00025990148
4	0xba773fc8	-0.00094318064
5	0x3a9a8415	0.0011788631
6	0xbac8f2b1	-0.0015331117
7	0xbaa4614e	-0.0012541206
8	0xbaa8e7bd	-0.0012886446
9	0xbafc9f8f	-0.0019273626
10	0x3a8af0fe	0.0010600386
11	0x3a81317c	0.0009856666
12	0x3a98d6eb	0.001166073
13	0x39b1f492	0.0003394229
14	0x39a31e31	0.00031112277
15	0x3abd75ce	0.0014454664
16	0xba698d25	-0.0008909277
17	0xbb6e2dad	-0.0036343143
18	0x3ab1fc90	0.0013579298
19	0xba2b5092	-0.0006535138
20	0xbb6811e7	-0.0035411061
21	0x3adee09c	0.0017004195
22	0x3ac91bec	0.0015343404
23	0x3ac7828c	0.0015221401
24	0x3a3d6159	0.0007224284
25	0x3b4b300d	0.0031003982
26	0x399e12db	0.00030150157
27	0xba808666	-0.0009805679
28	0xbb1071b1	-0.0022040422
29	0xba1bea34	-0.000594768
30	0x3a2cd22e	0.00065925985
31	0xb802dc4b	-3.119958e-05

egnn.layers.0.hidden_mlp.0.weight f4 [32, 48]
0	0x3d2d81dd	0.042360175
1	0x3cf7ea92	0.030263219
2	0xbdddc9a0	-0.108294725
3	0xbd0cb2b7	-0.034350123
4	0x3df9965d	0.12186883
5	0x3c1f7dfb	0.009734626
6	0xbe07a7c8	-0.13247597
7	0xbd9fdcca	-0.07805784
8	0xbd9da130	-0.0769676
9	0x3c8cfad2	0.017209444
10	0xbdec9e17	-0.11553591
11	0x3dffaf6d	0.12484632
12	0x3db94ed3	0.09048238
13	0x3cbdd7fe	0.023174282
14	0xbe0683d8	-0.13136232
15	0x3b1baabf	0.0023752896
16	0x3b7d8fa8	0.0038690362
17	0xbd7fde94	-0.062468126
18	0xbdea6d30	-0.11446607
19	0xbe12ea6f	-0.14347242
20	0x3d87d381	0.06632138
21	0x3c048f9f	0.008090883
22	0x3d1cef62	0.03831423
23	0x3e01eb6b	0.12687461
24	0xbd3cca47	-0.046091344
25	0xbde9d614	-0.11417785
26	0xbdfc47f8	-0.123184144
27	0xbe020086	-0.12695512
28	0x3d8ae4ef	0.06781947
29	0xbda13053	-0.07870545
30	0x3dcf7cf6	0.10131256
31	0xbd985a69	-0.07439119
32	0x3c4a2551	0.0123379985
33	0x3d927e17	0.07152956
34	0x3d4cd1b4	0.050004676
35	0x3e03ea82	0.12882426
36	0x3c80db99	0.015729712
37	0xbd8639ac	-0.06553969
38	0x3c1dca56	0.00963076
39	0xbd6b683f	-0.057472464
40	0x3df1090b	0.11769303
41	0xbd444247	-0.04791477
42	0xbdbaafad	-0.09115539
43	0xbd217263	-0.03941573
44	0xbd947ac7	-0.072499804
45	0x3df12fd4	0.117767006
46	0xbd6da4c9	-0.05801848
47	0xbd23903b	-0.03993247
48	0xbda062e7	-0.07831364
49	0x3e09c057	0.13452278
50	0xbde2ce54	-0.1107451
51	0x3de7667d	0.11298845
52	0xbd7829a1	-0.060586575
53	0x3d9f31cb	0.07773169
54	0x3d445919	0.047936533
55	0xbdce5fc7	-0.10076862
56	0xbe0e13fa	-0.13874808
57	0x3d963e94	0.073361546
58	0xbda1c3b1	-0.07898653
59	0xbdb03d92	-0.086054936
60	0xbda5a386	-0.0808783
61	0xbcc746a8	-0.024325684
62	0xbd84d08e	-0.06485091
63	0x3db14878	0.086564004
64	0x3c86b794	0.016444959
65	0xbd9a7cdc	-0.07543346
66	0xbdd0b424	-0.10190609
67	0x3d828063	0.06372144
68	0xbcd5ea69	-0.026112752
69	0xbd758762	-0.059943564
70	0x3e1263c5	0.14295872
71	0xbdd4898d	-0.10377798
72	0x3da99e24	0.08282116
73	0xbd7485de	-0.05969798
74	0x3c25df34	0.010124017
75	0x3d5e4ce6	0.054272555
76	0xbd26f86f	-0.04076427
77	0x3c89011b	0.01672416
78	0xbd6419c2	-0.055688627
79	0xbd41e543	-0.04733778
80	0x3a8ce84c	0.0010750382
81	0x3dd9fb2c	0.1064361
82	0x3ca80492	0.020509992
83	0xbd5c3544	-0.053761736
84	0xbd2fd21b	-0.04292498
85	0xbc86fa5f	-0.016476808
86	0xbd8aaedf	-0.06771635
87	0xbd1829c4	-0.037149206
88	0x3dcc8d7c	0.099879235
89	0x3d6b1f8c	0.057403132
90	0x3db848e4	0.08998278
91	0xbdbd189c	-0.092332095
92	0x3db44d2c	0.08803782
93	0x3c448cb0	0.011996433
94	0x3dfab489	0.122414656
95	0x3c11517d	0.008869526
96	0xbdf0a9ce	-0.11751138
97	0x3d89bc98	0.067254245
98	0x3ce735fd	0.028223986
99	0x3da8c5ba	0.08240838
100	0xbd363be3	-0.044490706
101	0xbd96e740	-0.07368326
102	0xbdf0c6f7	-0.117566995
103	0x3dd87c0b	0.10570534
104	0xbdec226f	-0.11530005
105	0xbd15ea55	-0.03660043
106	0x3e0150bb	0.12628452
107	0xbdda2ba0	-0.10652852
108	0x3ddcbf82	0.10778715
109	0x3cf69f6c	0.030105315
110	0xbded1817	-0.115768604
111	0x3dcc4996	0.09974973
112	0xbdaf3ae2	-0.08556153
113	0x3d7080a3	0.058716428
114	0xbde25bbe	-0.11052655
115	0xbe0fd103	-0.14044575
116	0xbd84f853	-0.064926766
117	0xbd6ea414	-0.058261946
118	0x3df641b1	0.120242484
119	0xbd126f90	-0.035750926
120	0x3e092f61	0.1339698
121	0x3c94185d	0.018078024
122	0x3d2272e2	0.039660342
123	0x3de9a227	0.11407881
124	0x3db2c474	0.08728877
125	0x3d48a3f0	0.048984468
126	0x3d13ea4f	0.036112126
127	0x3c91e691	0.017810138
128	0x3c37de8c	0.011222493
129	0x3e0582f1	0.13038231
130	0xbda15321	-0.07877184
131	0x3dcbba1f	0.09947609
132	0x3d442095	0.047882635
133	0xbd5453da	-0.05183778
134	0xbdacced9	-0.084378906
135	0xbd73ed04	-0.059552208
136	0x3dd42a31	0.1035961
137	0xbe011ec5	-0.12609394
138	0x3d0d9145	0.034562368
139	0x3ded7c8c	0.11596021
140	0xbde005d6	-0.10938613
141	0xbe0ea857	-0.13931404
142	0xbe0d0725	-0.13772257
143	0xbdaf814f	-0.085695855
144	0x3dc3da2d	0.09563098
145	0x3dcf331b	0.101171695
146	0xbd5d805e	-0.0540775
147	0xbdeacfdc	-0.11465427
148	0x3d8ae399	0.06781692
149	0xbd88efda	-0.06686373
150	0x3e064dd9	0.13115634
151	0x3b8cd9c1	0.004298419
152	0x3d901be5	0.070365705
153	0x3c8aa507	0.016924394
154	0xbdda10fb	-0.1064777
155	0xbdde75fa	-0.10862346
156	0x3d882e20	0.06649423
157	0xbda99d34	-0.08281937
158	0xbdb2edce	-0.08736764
159	0x3d928080	0.07153416
160	0x3e0788eb	0.13235824
161	0xbdad7093	-0.084687375
162	0x3da3a2d7	0.079900436
163	0xbd003985	-0.031304855
164	0xbd9ea158	-0.07745618
165	0x3e0be6c3	0.13662247
166	0x3db62436	0.088936254
167	0x3d1f14d1	0.03883821
168	0xbdb295e8	-0.087199986
169	0xbd9c3af1	-0.0762843
170	0x3db27871	0.087143786
171	0x3bebe7ac	0.0071992483
172	0xbe0aa8a2	-0.13540891
173	0xbd2d007b	-0.042236786
174	0x3bd6b816	0.0065527065
175	0x3d5217ec	0.051292345
176	0xbd9131f2	-0.070896044
177	0x3dc62d42	0.09676601
178	0xbded6002	-0.11590578
179	0x3dc73aad	0.097279884
180	0xbdaf2189	-0.08551318
181	0xbdf37d0c	-0.11889085
182	0x3dde9d11	0.10869802
183	0xbcc015e2	-0.023447935
184	0x3dd74897	0.10511892
185	0xbe0a7a81	-0.13523294
186	0x3d66ec11	0.056377474
187	0x3d852b10	0.06502354
188	0x3d91eab5	0.07124845
189	0xbd5a8a63	-0.053354632
190	0xba85e818	-0.0010216264
191	0xbca82064	-0.020523258
192	0xbdd3f185	-0.103488006
193	0xbd69ad2f	-0.057049926
194	0xbdc937cc	-0.098250955
195	0x3d93acc0	0.07210684
196	0x3d14f78a	0.036368884
197	0x3d64a2ae	0.055819206
198	0xbe0b1ae5	-0.13584478
199	0x3d81bec7	0.06335216
200	0xbd968e4c	-0.0735136
201	0xbdc4a5b9	-0.096019216
202	0xbdeb11a1	-0.11477972
203	0x3e04005b	0.1289076
204	0xbda00b11	-0.07814611
205	0x3dbb7ea4	0.09155014
206	0xbd9e7712	-0.077375546
207	0x3d8999e3	0.06718805
208	0x3d090637	0.033453193
209	0xbdf046da	-0.11732264
210	0xbdc72430	-0.09723699
211	0x3b1c8ed6	0.0023888848
212	0xbd007620	-0.031362653
213	0x3df2d7e8	0.11857587
214	0xbdf777cf	-0.120833986
215	0x3d2584f9	0.040410016
216	0xbcaa9fee	-0.020828214
217	0xbd9b407d	-0.075806595
218	0xbe03e74d	-0.12881203
219	0xbc7abbd6	-0.015303573
220	0x3cf33354	0.029687561
221	0xbd90096f	-0.07033049
222	0x3ddfe002	0.10931398
223	0x3df34e7a	0.118802026
224	0xbe03f0a1	-0.12884761
225	0xbdbd2756	-0.09236018
226	0x3d810421	0.06299616
227	0x3db9bd8f	0.090693586
228	0xbdc1c3d7	-0.094611816
229	0x3dc980d0	0.09839022
230	0xbdde45c0	-0.108531475
231	0xbd8e9ebc	-0.0696387
232	0x3cedf318	0.02904658
233	0x3d8f8bc5	0.07009081
234	0x3cc8bdf2	0.024504635
235	0xbcb5993d	-0.022167796
236	0x3d4c440d	0.049869586
237	0xbdbf61d7	-0.09344833
238	0x3d671188	0.056413203
239	0x3e0d8db3	0.13823585
240	0xbd003e8d	-0.031309653
241	0xbc847634	-0.016169645
242	0x3dbda46a	0.09259875
243	0x3cbe1024	0.023201056
244	0xbd200435	-0.039066512
245	0x3dea7cd8	0.11449593
246	0xbdae911a	-0.0852377
247	0x3da2d207	0.07950216
248	0x3daae352	0.08344139
249	0xbdf3bf5e	-0.11901735
250	0xbcc96bb7	-0.024587495
251	0x3d760ddd	0.060071815
252	0x3bd18650	0.006394185
253	0x3ce9c87a	0.028537977
254	0x3ddfa1c8	0.10919529
255	0x3dc415e2	0.09574486

egnn.layers.0.hidden_mlp.0.bias f4 [32]
0	0x3d5fc316	0.054629408
1	0x3bcfa169	0.0063363803
2	0x3d0f6255	0.035005886
3	0xbdb74c56	-0.08950107
4	0x3d4cb3e0	0.04997623
5	0xbc2b74da	-0.010464871
6	0xbd9e225a	-0.07721396
7	0xbde9b458	-0.11411351
8	0x3d529e99	0.05142078
9	0xbd9f859f	-0.07789158
10	0x3cd57aef	0.026059596
11	0xbe0915a0	-0.13387156
12	0x3d68b539	0.056813452
13	0x3d423a76	0.047419034
14	0xbb049724	-0.0020231688
15	0xbb3ce05b	-0.002882025
16	0x3e057516	0.13032946
17	0x3d62092c	0.05518453
18	0xbdc0f72f	-0.094221465
19	0xbd5e78c0	-0.054314375
20	0xbd5c8575	-0.053838212
21	0xbdc2a941	-0.09504939
22	0xbdd3384e	-0.10313474
23	0xbc27a9e7	-0.010233379
24	0xbd9f08cc	-0.0776535
25	0xbc4ad3cc	-0.012379598
26	0x3ce1b120	0.02755028
27	0xbd93b79e	-0.072127566
28	0xbd5caadb	-0.053873878
29	0xbe0a0765	-0.13479383
30	0x3d1a46fb	0.03766535
31	0x3d2ad375	0.041705567

egnn.layers.0.hidden_mlp.2.weight f4 [16, 32]
0	0xbe001a1f	-0.12509964
1	0xbde2b3da	-0.1106946
2	0xbd19a1b1	-0.037507717
3	0x3c27496e	0.010210378
4	0x3c0d7581	0.008633972
5	0x3e161a8e	0.14658567
6	0xbe1e7869	-0.1547562
7	0x3d91fd8c	0.07128438
8	0x3e0e713c	0.13910383
9	0x3e252bfe	0.16130063
10	0x3c73db2d	0.014883799
11	0x3e237d36	0.15965733
12	0xbdce6c03	-0.10079195
13	0xbe01708a	-0.12640586
14	0xbd508456	-0.050907455
15	0xbdbbec05	-0.091758765
16	0x3db6573a	0.08903356
17	0xbd3d8fb8	-0.04627964
18	0x3dc030a0	0.093842745
19	0xbd95d429	-0.07315857
20	0xbd96813e	-0.0734887
21	0xbd86e0ec	-0.06585869
22	0xbc859392	-0.016305719
23	0xbdb949fb	-0.09047314
24	0x3dcda7a3	0.1004174
25	0x3df83ad2	0.12120594
26	0x3cf3c2a1	0.029755892
27	0xbe2f967e	-0.17147252
28	0x3e0f1d0c	0.13975924
29	0xbe010943	-0.1260119
30	0xbe06b62c	-0.1315543
31	0x3dc4039c	0.09571001
32	0xbde1ee45	-0.110317744
33	0xbe0fffad	-0.14062376
34	0xbe00fd47	-0.12596618
35	0x3e127f52	0.14306381
36	0x3d446648	0.047949106
37	0x3db98ad2	0.09059681
38	0x3d11504f	0.03547698
39	0x3db82264	0.089909345
40	0x3e2d4876	0.16922173
41	0xbca20f47	-0.019782675
42	0xbdde6fc3	-0.108611606
43	0xbcecb55a	-0.028895069
44	0xbd838b0c	-0.064230055
45	0xbe23d77b	-0.16000168
46	0xbdf7ba99	-0.120961376
47	0xbd93fab1	-0.0722555
48	0x3d1e16b8	0.038595885
49	0x3da84a48	0.08217293
50	0x3dd86c34	0.10567513
51	0xbe2c55dd	-0.16829629
52	0xbc6ef830	-0.01458554
53	0xbcde69e3	-0.0271501
54	0x3e0f5f72	0.14001253
55	0xbd23a697	-0.039953794
56	0x3e34971c	0.17635769
57	0x3d0ab38b	0.03386263
58	0x3cc3e07f	0.023910759
59	0x3d8bf5f4	0.06834021
60	0x3e06dae5	0.13169439
61	0xbdd4e1b4	-0.10394612
62	0x3daf2de6	0.08553676
63	0xbd9e3757	-0.07725399
64	0x3d56b2d3	0.052416634
65	0x3ddda9e5	0.108234204
66	0xbdb62b8a	-0.08895023
67	0xbd36cb0a	-0.044627227
68	0x3e20a0a5	0.15686281
69	0xbe30812f	-0.1723678
70	0xbd15d3c4	-0.03657891
71	0x3e0c18c2	0.1368132
72	0x3d40e84c	0.047096536
73	0xbe1e2c90	-0.15446687
74	0x3b94c97e	0.0045406213
75	0xbe1cf7a1	-0.15328838
76	0xbd8afcc5	-0.06786493
77	0x3ce23848	0.027614728
78	0x3db0e1e7	0.086368375
79	0xbdb5585b	-0.08854743
80	0x3e188b16	0.14896807
81	0xbdedf270	-0.11618507
82	0xbcdbc148	-0.026825562
83	0xbe247538	-0.1606034
84	0xb93a8807	-0.00017789016
85	0xbc808572	-0.015688632
86	0x3dac99f9	0.084278055
87	0xbdedfd37	-0.116205625
88	0x3c822e94	0.01589135
89	0x3d86420c	0.06555566
90	0xbded4c53	-0.11586823
91	0x3e27cedd	0.16387506
92	0xbd1b43eb	-0.03790657
93	0xbe2f7c69	-0.17137302
94	0xbd2a905a	-0.04164157
95	0x3d5178bc	0.051140532
96	0xbda4a93f	-0.08040094
97	0xbd82a9ae	-0.0638002
98	0x3d87ab35	0.06624452
99	0xbcb81350	-0.022470146
100	0x3d60d92f	0.054894622
101	0x3aad1716	0.0013205733
102	0xbc61e4c8	-0.013787456
103	0x3e0ad51c	0.13557857
104	0xbc8201d9	-0.015870022
105	0x3e0639a3	0.13107924
106	0xbd903902	-0.070421234
107	0x3dd30f60	0.10305667
108	0x3db0798a	0.08616932
109	0xbe015758	-0.12630975
110	0xbd5bfdfe	-0.053709023
111	0xbddb492c	-0.10707316
112	0x3ce92fb2	0.028465126
113	0x3c8b3ee8	0.01699777
114	0xbd3cce82	-0.04609538
115	0x3e1268ed	0.14297839
116	0x3e2ea068	0.17053378
117	0xbe0a4f9f	-0.13506936
118	0xbdacf005	-0.084442176
119	0x3c5e2422	0.013558419
120	0x3dff7e9b	0.1247532
121	0xbdc1b1bb	-0.094577275
122	0xbce5ce4f	-0.028052477
123	0xbca36823	-0.019947117
124	0xbe176eda	-0.1478838
125	0x3a88b0e6	0.0010428696
126	0xbc936e0b	-0.017996809
127	0x3d690ee4	0.056898966
128	0x3df26207	0.118351035
129	0xbc6bb7d6	-0.014387092
130	0x3e0cc34d	0.13746376
131	0xbd89ce36	-0.06728785
132	0xbde1daaa	-0.11028035
133	0x3d958af6	0.07301895
134	0x3e065efc	0.13122171
135	0x3b073f34	0.0020637037
136	0xbe047903	-0.12936787
137	0xbd9d6058	-0.07684392
138	0xbdc88853	-0.09791627
139	0x3d4eec6c	0.05051844
140	0x3d4c4c91	0.049877707
141	0xbe1b6b0c	-0.15177554
142	0xbcb1b49c	-0.021692567
143	0x3d01f9c5	0.03173234
144	0xbd87184f	-0.06596433
145	0x3e27de80	0.16393471
146	0x3e08f57b	0.13374893
147	0xbda80c96	-0.082055256
148	0x3c9b0e9c	0.018927865
149	0xbcfa59f2	-0.030560467
150	0xbe24c261	-0.16089775
151	0x3bbf9e41	0.0058477228
152	0x3df5a5b2	0.119944945
153	0x3dc262c9	0.09491498
154	0x3dbd8e2a	0.09255631
155	0xbd88b711	-0.06675542
156	0xbdcc1bce	-0.09966241
157	0xbe216800	-0.15762329
158	0xbe185b5b	-0.148786
159	0xbb0bbdb3	-0.0021322786
160	0x3e110f4c	0.14165992
161	0x3d58ba3f	0.052911993
162	0xbd3fd686	-0.046835445
163	0x3cc51abb	0.024060598
164	0x3cfd6852	0.030933533
165	0xbdae81ad	-0.085208274
166	0x3dce8b98	0.10085219
167	0x3d7cb4e7	0.06169596
168	0xbd1628f7	-0.03666016
169	0xbcf7aec8	-0.03023471
170	0xbe2f155e	-0.17097995
171	0x3d91efd1	0.071258195
172	0x3cb090bd	0.021553392
173	0x3dedf398	0.116187274
174	0x3d401d6e	0.046903066
175	0xbe0a45ec	-0.13503236
176	0xbd62394f	-0.055230435
177	0x3de502d5	0.11182181
178	0x3e2780a3	0.16357665
179	0x3d2f28b2	0.04276342
180	0x3e142556	0.14467368
181	0x3e28af82	0.16473201
182	0xbd360245	-0.04443576
183	0x3d1cac35	0.038250167
184	0x3e2e6194	0.1702941
185	0xbbd2cb2d	-0.006432912
186	0xbddbc768	-0.10731393
187	0xbde80569	-0.11329157
188	0xbd9f617d	-0.07782266
189	0xbe2ea12a	-0.17053667
190	0xbdbebe49	-0.09313638
191	0x3dcd6fd3	0.100310944
192	0x3e0808fc	0.13284677
193	0x3cd29534	0.025705911
194	0xbd921b5c	-0.07134125
195	0xbde394a3	-0.111123346
196	0xbe114be0	-0.141891
197	0x3d029175	0.031877
198	0x3e241376	0.16023049
199	0xbdeb8f5e	-0.115019545
200	0x3e30a855	0.17251714
201	0xbd9dc664	-0.07703856
202	0xbde3f990	-0.11131585
203	0x3dcc8ab7	0.09987395
204	0xbdd7e093	-0.10540881
205	0x3e283be9	0.16429104
206	0xbe1ffd42	-0.15623954
207	0x3dd279f7	0.10277169
208	0x3e250969	0.16116871
209	0xbd685dc0	-0.056730032
210	0xbdd45249	-0.10367257
211	0xbd72287e	-0.059120648
212	0x3e1ed556	0.15511069
213	0xbdf78ed0	-0.12087786
214	0x3e1a09b3	0.15042762
215	0x3e2d16db	0.1690325
216	0xbd981d40	-0.07427454
217	0x3e0f6e3e	0.14006898
218	0x3b14a620	0.0022682026
219	0x3d037d16	0.032101713
220	0xbbe4891a	-0.0069743516
221	0x3d18f405	0.03734209
222	0x3e26b9c9	0.16281809
223	0x3d00592c	0.03133504
224	0x3cbafb3d	0.022824878
225	0xbddbd2bb	-0.10733553
226	0x3df1c895	0.11805836
227	0xbd64a04c	-0.055816934
228	0xbe12e12a	-0.14343706
229	0xbe313d17	-0.1730846
230	0x3e2d6aab	0.16935222
231	0x3d8b6430	0.068062186
232	0xbd94792f	-0.072496764
233	0xbdde7b10	-0.10863316
234	0xbc291d80	-0.010321975
235	0xbceee9f8	-0.0291643
236	0xbbaa0724	-0.0051888395
237	0x3e0bd0ae	0.13653824
238	0xbdc357bd	-0.09538219
239	0x3cfc3d46	0.030790936
240	0x3dceeaec	0.101034015
241	0x3e0b41a0	0.13599253
242	0x3d146df6	0.03623768
243	0xbdf61845	-0.12016348
244	0xbd162e16	-0.036665045
245	0xbd0b35b3	-0.03398676
246	0xbd3fc404	-0.046817794
247	0xbe312f6a	-0.17303243
248	0xbbc653c6	-0.006052467
249	0x3e23a61e	0.15981337
250	0xbdad4be6	-0.08461742
251	0xbd949778	-0.07255453
252	0xbdf82ec7	-0.12118297
253	0x3d2a90f3	0.04164214
254	0xbde80db0	-0.11330736
255	0x3cb81752	0.022472057

egnn.layers.0.hidden_mlp.2.bias f4 [16]
0	0x3d21e8c6	0.03952863
1	0xbe23136c	-0.15925378
2	0x3e287785	0.16451843
3	0xbc8c2670	-0.017108172
4	0xbe0b87f7	-0.13626085
5	0x3dd31665	0.10307006
6	0xbe17cce7	-0.14824258
7	0xbc5da09d	-0.013527063
8	0xbe070df9	-0.13188924
9	0x3cff5d65	0.031172464
10	0x3d1fcf07	0.039015796
11	0x3e1dca58	0.1540922
12	0xbda3d247	-0.079990916
13	0x3dea1449	0.1142965
14	0xbbaea6ed	-0.0053299577
15	0x3df6fdd0	0.1206013
