2-egnca-rework/logs/line4-2024-10-05@23-20-03/best@23.pt (torch, 25525 bytes, 11 tensors)

egnn.layers.0.message_mlp.0.weight f4 [32, 33]
0.054177284 0.09076927 -0.0054169632 0.10067924 -0.048650064 0.031225685 -0.052123617 -0.013648533
-0.042405397 0.030961419 0.13447526 0.14128122 -0.025408318 -0.06061079 -0.023720913 0.14885849
0.14458343 -0.047820818 -0.054082535 -0.039119944 0.11574492 0.14525102 -0.119576596 -0.056132313
-0.15355949 0.16718231 0.0336761 0.04771487 0.09068878 0.046765488 -0.03907498 -0.16445032
0.051154338 -0.026116002 -0.16463536 -0.021263279 -0.09254679 -0.099932596 -0.1248053 -0.13619925
-0.008859903 0.025941966 -0.15882105 -0.15752801 -0.0012755133 -0.165745 0.08784289 -0.047009002
-0.022408169 -0.15639906 -0.12868312 0.058727585 -0.10006655 -0.06594168 -0.16017976 -0.0010623406
-0.11211773 0.042031858 0.057722006 0.032593463 0.06596713 -0.11662175 0.011886086 -0.1477212
-0.12431836 0.13728535 0.119919404 -0.13036902 0.09574515 -0.14159499 0.028024688 0.15689403
0.0036114159 0.06578716 0.15270653 -0.065330654 0.12677315 0.028239558 -0.035971947 -0.15876807
0.17018908 0.17108017 -0.07795526 0.041985944 -0.17518046 0.03508245 0.092668764 0.022542035
-0.09282821 0.16301729 -0.09430765 0.017142104 -0.15698637 0.06866491 0.11541434 0.039764825
0.12956813 -0.1715789 -0.09550676 0.041355044 0.081509985 -0.044051286 0.049384877 -0.16634983
0.16959782 -0.1423222 -0.1621523 -0.13384499 0.1759626 0.042376332 -0.010640564 0.042318206
-0.00343656 -0.118057154 0.11024841 -0.14678632 -0.035718042 0.026686475 -0.09922451 0.03936419
-0.1512451 -0.081429906 0.15481147 0.059648294 -0.14344786 0.1708866 -0.0502152 0.026303936
-0.031683158 -0.106619045 0.034566943 -0.030994192 -0.08877994 0.09819932 0.090258285 0.12093406
-0.031533625 -0.02219931 0.025082702 0.16049431 -0.15081088 -0.0102829905 0.023865787 0.07968116
-0.1680156 -0.18060401 -0.009439054 0.06130299 -0.064901926 0.1363828 0.03150144 -0.062669255
-0.05644163 -0.14541616 0.096345805 -0.03808 0.09014758 -0.17816079 0.121882685 0.061481785
-0.10930871 -0.09991119 0.12957352 0.07609581 0.07838705 0.033013977 -0.09520928 -0.11627787
-0.050459817 -0.046501786 -0.028607389 -0.054112118 -0.14429983 -0.16489542 -0.12160066 0.08641236
-0.1081664 -0.1301366 -0.07817231 0.058259264 -0.055511955 -0.0023006028 0.022447908 -0.11687064
-0.045790873 -0.05706225 -0.004242283 -0.11051088 -0.029339565 0.019285383 0.05183278 -0.10618466
0.14883207 0.03996567 -0.1323197 0.15646166 -0.10655015 0.005944502 0.1273638 -0.048382763
0.041532073 0.076590784 -0.060942527 0.016163187 0.11798256 -0.0040737917 -0.052202243 0.12182702
0.030991128 -0.11504035 0.079996705 0.13694546 0.011888566 0.14293921 -0.11437414 0.16529712
0.10048699 -0.016563244 -0.1640896 0.16792983 -0.018184688 0.08531508 -0.0961536 0.052999314
-0.025387315 0.038648315 0.057688273 -0.114042915 -0.13375922 -0.008648091 -0.042927325 0.10980956
-0.08143652 0.04284764 -0.16139436 0.08085983 0.109918 0.022460775 0.024655892 0.022133417
-0.011235481 -0.035721555 0.12773778 -0.05285061 -0.020413034 -0.017542727 -0.10031925 -0.13477522
-0.102024324 -0.022818089 -0.13217156 0.055233266 -0.12348016 -0.049694594 -0.07403473 -0.08015819
00000000: 00e9 5d3d 3de5 b93d c880 b1bb eb30 ce3d
00000010: 4a45 47bd 02cd ff3c 937f 55bd 199e 5fbc
00000020: 48b1 2dbd cda2 fd3c e2b3 093e 06ac 103e
00000030: 1b25 d0bc 0543 78bd 5c52 c2bc 5c6e 183e
00000040: ae0d 143e c3df 43bd a685 5dbd 3c3c 20bd
00000050: ac0b ed3d afbc 143e 93e4 f4bd ffea 65bd
00000060: b33e 1dbe d731 2b3e f3ef 093d ab70 433d
00000070: 0abb b93d 2b8d 3f3d 160d 20bd aa65 28be
00000080: 3687 513d 3af1 d5bc 2c96 28be 5430 aebc
00000090: 2c89 bdbd 76a9 ccbd ec99 ffbd d177 0bbe
000000a0: 2029 11bc 3f84 d43c fca1 22be 064f 21be
000000b0: 202f a7ba 0fb9 29be f9e6 b33d 838c 40bd
000000c0: 5691 b7bc 1327 20be 82c5 03be 568c 703d
000000d0: b1ef ccbd 6e0c 87bd 2a06 24be 3c3e 8bba
000000e0: fb9d e5bd 9929 2c3d e96d 6c3d b980 053d
000000f0: c619 873d 62d7 eebd dcbd 423c 3a44 17be
00000100: a09a febd 8894 0c3e 4e98 f53d 757f 05be
00000110: 0916 c43d 47fe 10be 0894 e53c d4a8 203e
00000120: 81ad 6c3b 6bbb 863d 1a5f 1c3e 14cc 85bd
00000130: d2d0 013e a556 e73c 5257 13bd 1994 22be
00000140: 0c46 2e3e a42f 2f3e 02a7 9fbd 74f9 2b3d
00000150: 8262 33be 9db2 0f3d 1fc9 bd3d 13aa b83c
00000160: b71c bebd 01ee 263e 5f24 c1bd 996d 8c3c
00000170: 09c1 20be 30a0 8c3d 5a5e ec3d 71e0 223d
00000180: 82ad 043e 61b2 2fbe 0c99 c3bd e863 293d
00000190: b5ee a63d 1f6f 34bd cc47 4a3d 9c57 2abe
000001a0: 0dab 2d3e e9bc 11be 410b 26be a90e 09be
000001b0: 8a2f 343e ce92 2d3d c355 2ebc db55 2d3d
000001c0: e937 61bb f3c7 f1bd ebc9 e13d 274f 16be
000001d0: 154d 12bd 989d da3c 3836 cbbd 583c 213d
000001e0: ffdf 1abe b9c4 a6bd e686 1e3e c551 743d
000001f0: ffe3 12be e6fc 2e3e 74ae 4dbd 5a7b d73c
00000200: 33c6 01bd 165b dabd 1196 0d3d 88e7 fdbc
00000210: 42d2 b5bd ba1c c93d 56d9 b83d 47ac f73d
00000220: 6729 01bd 54db b5bc 3d7a cd3c 9f58 243e
00000230: 2b6e 1abe fd79 28bc 2f82 c33c e02f a33d
00000240: 480c 2cbe 42f0 38be 43a6 1abc d818 7b3d
00000250: 4deb 84bd efa7 0b3e a707 013d bd58 80bd
00000260: 572f 67bd f9e7 14be f350 c53d c6f9 1bbd
00000270: 4b9f b83d c86f 36be a19d f93d 53d4 7b3d
00000280: 3fdd dfbd 3d9e ccbd ecae 043e 1fd8 9b3d
00000290: 6489 a03d aa39 073d 15fd c2bd 1823 eebd
000002a0: f4ae 4ebd a878 3ebd 0b5a eabc aba4 5dbd
000002b0: 56c3 13be 58da 28be c409 f9bd f7f8 b03d
000002c0: 5886 ddbd 8742 05be ce18 a0bd 44a1 6e3d
000002d0: 8160 63bd b6c5 16bb ade4 b73c e059 efbd
000002e0: 368f 3bbd 1bba 69bd d902 8bbb 8753 e2bd
000002f0: 8759 f0bc 61fc 9d3c 9c4e 543d 5877 d9bd
00000300: 6f67 183e 0bb3 233d d17e 07be 7c37 203e
00000310: f736 dabd 19ca c23b a86b 023e 012d 46bd
00000320: 891d 2a3d a1db 9c3d df9e 79bd a968 843c
00000330: d7a0 f13d 717d 85bb 05d2 55bd 7280 f93d
00000340: 1be1 fd3c 469a ebbd 50d5 a33d 6e3b 0c3e
00000350: 43c8 423c a85e 123e fd3c eabd a643 293e
00000360: 1fcc cd3d a4af 87bc 1b07 28be ccf5 2b3e
00000370: 0ef8 94bc acb9 ae3d 2eec c4bd cf15 593d
00000380: 0ff9 cfbc b24d 1e3d 8a4a 6c3d 558f e9bd
00000390: 2df8 08be b9b0 0dbc 90d4 2fbd d6e3 e03d
000003a0: 31c8 a6bd 0281 2f3d 9044 25be d799 a53d
000003b0: b01c e13d a9ff b73c 27fb c93c 2451 b53c
000003c0: 0615 38bc c450 12bd b1cd 023e e279 58bd
000003d0: 3c39 a7bc c4b5 8fbc 2e74 cdbd 8402 0abe
000003e0: 21f2 d0bd 00ed babc fb57 07be 473c 623d
000003f0: 2be3 fcbd 8f8c 4bbd 859f 97bd fa29 a4bd

egnn.layers.0.message_mlp.0.bias f4 [32]
-0.036175966 -0.01617145 0.049385145 -0.1556677 0.06416863 -0.15201089 -0.041736353 -0.14477582
-0.14750764 -0.08936342 0.12644549 -0.15833339 0.07563099 -0.002653438 -0.14019988 0.045661297
-0.09315748 -0.10397595 0.036095165 -0.12942542 0.010212078 0.05736617 0.05148863 0.092418246
-0.14536981 0.056185797 0.11281582 -0.15808229 0.07214582 0.013102054 0.05859059 -0.16545925
00000000: 402d 14bd fd79 84bc 1448 4a3d 5b67 1fbe
00000010: d86a 833d bea8 1bbe bdf3 2abd 1d40 14be
00000020: 3e0c 17be 2b04 b7bd ed7a 013e 2622 22be
00000030: 6ce4 9a3d 4de5 2dbb 8f90 0fbe 5707 3b3d
00000040: 59c9 bebd 58f1 d4bd 86d8 133d 1988 04be
00000050: 8f50 273c caf8 6a3d bee5 523d c745 bd3d
00000060: d3db 14be 1423 663d fb0b e73d 53e0 21be
00000070: 30c1 933d ffa9 563c b0fc 6f3d 266e 29be

egnn.layers.0.message_mlp.2.weight f4 [32, 32]
0.108704165 -0.15042207 0.07305798 0.16591619 -0.03263338 0.07975226 -0.023324875 0.09370165
-0.15474582 0.0032242737 0.17986602 -0.036341883 -0.13789752 -0.13637704 0.045234904 0.15732269
-0.17067428 0.10933881 -0.12956114 0.073134586 0.029584121 0.048626263 -0.15742826 0.16529009
0.04316324 -0.017365467 -0.1256536 0.11057238 0.16317117 0.081438325 -0.021313239 -0.04211252
-0.17952049 0.11534028 -0.021232782 -0.16152413 -0.0019013957 0.03585923 0.113596484 0.061265808
-0.12138549 -0.048920173 -0.16593312 0.07626628 0.08041811 -0.10385116 0.03917874 0.11865704
0.15974878 0.122901544 0.063729465 0.040990856 0.06866572 0.16460095 0.121391386 0.026987066
0.019897373 0.12187044 0.17028233 -0.115188695 -0.08101652 0.18460052 -0.07845971 -0.04272957
0.1399102 -0.061330542 0.17065698 -0.097691596 -0.07284351 0.0073530893 0.012620619 0.1568591
-0.0699705 0.0700905 -0.02953147 -0.022282748 -0.14728814 0.16322553 -0.08966293 -0.03802046
-0.08114466 0.16073063 -0.0679386 -0.041214526 0.09494337 0.16107075 0.16043071 -0.098602
-0.060668644 0.14103918 0.07914271 0.13688634 0.05775899 -0.10197433 -0.023711838 -0.08112462
-0.14821738 0.04832318 0.091589 0.066138074 0.14142789 -0.07147912 0.061205123 -0.05696198
0.15532282 -0.012813543 0.123349026 0.14185849 -0.12364382 -0.039302666 0.1540654 -0.08272111
-0.039741833 0.14276896 0.14801651 0.11196366 0.015325161 0.11464244 -0.15582787 0.08155913
-0.02770057 -0.13392891 0.04277765 0.003645931 0.06925937 -0.058064386 0.16939709 -0.17656103
0.16947296 -0.071476266 0.09629069 -0.019037167 -0.046197206 -0.13535163 -0.1393507 0.018499654
-0.097331464 -0.121650405 -0.15676467 0.15986827 0.04196425 0.019105652 -0.0453091 -0.1517598
0.10280121 0.13865714 0.038047627 0.047339447 -0.005223008 0.06093167 0.0037221597 -0.11496418
-0.01923937 0.154344 -0.101142384 0.15873294 -0.10140936 -0.024858417 0.11329967 -0.10964913
-0.030501634 -0.13634995 -0.01134426 0.100409664 -0.083505526 -0.035611235 0.0055714073 0.110133976
0.021190876 -0.025137698 -0.10031726 -0.13162616 0.16879654 -0.05490989 0.1061657 -0.019985465
-0.08328648 -0.06300895 -0.14392637 -0.03620336 0.019272352 -0.07846149 0.051362865 0.087309085
-0.11344035 -0.014282122 0.11823063 -0.16895576 0.10256371 -0.04811113 -0.064897105 -0.10353984
-0.008048124 0.049231343 -0.07253776 -0.064363055 0.090715714 -0.08126342 0.013195679 0.10517021
-0.010398168 -0.053018335 -0.10584861 -0.046133794 -0.041224394 0.11204123 0.008780727 -0.14352831
-0.013644486 -0.10284604 0.18217559 -0.038242344 -0.1594063 -0.0842724 0.106048755 0.16856721
-0.115997784 -0.16763248 -0.049004294 -0.05187697 -0.08521847 0.093763284 0.015088339 0.13369767
0.12284919 0.029049547 0.1360769 -0.033065155 0.061198257 -0.112479135 0.034442652 0.06924498
-0.17278777 0.15385976 0.11804276 -0.09926762 0.059441186 0.17168823 -0.05588276 0.006993688
-0.021231936 -0.1054773 0.0912027 -0.07624118 0.047889862 0.032089606 0.08346805 0.16453251
0.061443835 -0.031589173 -0.050763298 0.14763437 0.10914658 0.15828437 -0.071994215 0.10456759
00000000: 4aa0 de3d 3e08 1abe 6c9f 953d efe5 293e
00000010: 94aa 05bd 2755 a33d cf13 bfbc a7e6 bf3d
00000020: b075 1ebe 564e 533b cc2e 383e 3adb 14bd
00000030: 0235 0dbe 6ca6 0bbe 3c48 393d 3319 213e
00000040: 3dc5 2ebe 07ed df3d adab 04be 96c7 953d
00000050: 665a f23c 552c 473d e034 21be ce41 293e
00000060: f0cb 303d 0642 8ebc 56ab 00be c673 e23d
00000070: 5816 273e 23c9 a63d 1a99 aebc 2e7e 2cbd
00000080: 38d4 37be 8637 ec3d 5ff0 adbc 9566 25be
00000090: 4138 f9ba 21e1 123d 46a5 e83d dbf1 7a3d
000000a0: f598 f8bd 8560 48bd 5fea 29be 7f31 9c3d
000000b0: 40b2 a43d ebaf d4bd e379 203d 7602 f33d
000000c0: 2f95 233e ceb3 fb3d 9884 823d 07e6 273d
000000d0: 9da0 8c3d 278d 283e 0c9c f83d fb13 dd3c
000000e0: d1ff a23c 3697 f93d 7e5e 2e3e 0de8 ebbd
000000f0: fdeb a5bd eb07 3d3e 7caf a0bd 3405 2fbd
00000100: 9f44 0f3e bc35 7bbd b4c0 2e3e 8812 c8bd
00000110: fa2e 95bd 2ff2 f03b b6c6 4e3c ac9f 203e
00000120: b24c 8fbd 9c8b 8f3d fbeb f1bc 4f8a b6bc
00000130: b4d2 16be 9824 273e 33a1 b7bd 58bb 1bbd
00000140: 2c2f a6bd 9296 243e 6523 8bbd 90d0 28bd
00000150: ab71 c23d bbef 243e f347 243e d8ef c9bd
00000160: af7f 78bd 936c 103e 9315 a23d ef2b 0c3e
00000170: b194 6c3d ebd7 d0bd 543f c2bc aa24 a6bd
00000180: 4cc6 17be 87ee 453d 0393 bb3d 6673 873d
00000190: 79d2 103e a563 92bd 39b2 7a3d f750 69bd
000001a0: f20c 1f3e e5ef 51bc 6a9e fc3d 5a43 113e
000001b0: f938 fdbd d5fb 20bd 52c3 1d3e af69 a9bd
000001c0: 55c8 22bd 0732 123e a491 173e 344d e53d
000001d0: 6216 7b3c a8c9 ea3d 5791 1fbe 7908 a73d
000001e0: 4eec e2bc a924 09be 9e37 2f3d 92f0 6e3b
000001f0: dbd7 8d3d ecd4 6dbd 6e76 2d3e 6acc 34be
00000200: 528a 2d3e 2662 92bd 0e34 c53d d5f3 9bbc
00000210: 4839 3dbd 9e99 0abe f3b1 0ebe 968c 973c
00000220: b855 c7bd d923 f9bd eb86 20be 82b4 233e
00000230: b5e2 2b3d 7583 9c3c 0996 39bd ec66 1bbe
00000240: 7189 d23d 23fc 0d3e d4d7 1b3d 02e7 413d
00000250: c425 abbb 7d93 793d 7aef 733b 5772 ebbd
00000260: e29b 9dbc 5b0c 1e3e bd23 cfbd e38a 223e
00000270: b6af cfbd e1a3 cbbc a809 e83d b98f e0bd
00000280: 90de f9bc 529f 0bbe 46dd 39bc 95a3 cd3d
00000290: f204 abbd 16dd 11bd 5a90 b63b ec8d e13d
000002a0: 7d98 ad3c 93ed cdbc 2373 cdbd 02c9 06be
000002b0: 00d9 2c3e 31e9 60bd 676d d93d 8fb8 a3bc
000002c0: 1a92 aabd d60a 81bd 6f61 13be f949 14bd
000002d0: 0de1 9d3c 6bb0 a0bd de61 523d 1bcf b23d
000002e0: 6a53 e8bd 90ff 69bc e722 f23d bd02 2dbe
000002f0: ec0c d23d 2d10 45bd c6e8 84bd b20c d4bd
00000300: 47dc 03bc cea6 493d ad8e 94bd c7d0 83bd
00000310: 29c9 b93d 706d a6bd b032 583c 7b63 d73d
00000320: 145d 2abc c129 59bd 28c7 d8bd caf6 3cbd
00000330: e9da 28bd df75 e53d 0add 0f3c 16f9 12be
00000340: 1f8d 5fbc f2a0 d2bd 3d8c 3a3e 01a4 1cbd
00000350: 683b 23be 0297 acbd 1730 d93d e29c 2c3e
00000360: 3f90 edbd d9a7 2bbe bab8 48bd f27c 54bd
00000370: 0587 aebd f706 c03d 1535 773c 0be8 083e
00000380: 5b98 fb3d 51f9 ed3c be57 0b3e 546f 07bd
00000390: 06ab 7a3d 765b e6bd bd13 0d3d 50d0 8d3d
000003a0: 47ef 30be 6a8d 1d3e 67c0 f13d d24c cbbd
000003b0: 9a78 733d 0acf 2f3e 52e5 64bd 4f2b e53b
000003c0: 99ee adbc 7c04 d8bd 7bc8 ba3d 5624 9cbd
000003d0: 2928 443d 6470 033d 4cf1 aa3d 367b 283e
000003e0: 88ac 7b3d a663 01bd 2ded 4fbd 772d 173e
000003f0: 3e88 df3d 4c15 223e b471 93bd 8827 d63d

egnn.layers.0.message_mlp.2.bias f4 [32]
0.0021063546 0.11182577 0.01799779 0.16547115 -0.02470091 -0.15981498 -0.15529867 -0.08192743
0.061075483 0.09864085 0.07705003 0.15126537 -0.17288953 0.07596066 -0.01733634 -0.13461861
0.042743105 0.16495991 0.049800076 0.11057746 0.09862969 -0.10924137 -0.17284182 -0.1639902
0.14675938 -0.12690322 -0.05659095 0.1446702 0.15309237 -0.118387565 0.0763755 -0.0063951127
00000000: c40a 0a3b e904 e53d 1a70 933c 4571 293e
00000010: 9059 cabc 8aa6 23be 9d06 1fbe 92c9 a7bd
00000020: 492a 7a3d 3704 ca3d 68cc 9d3d 4fe5 1a3e
00000030: f409 31be 4391 9b3d f104 8ebc 76d9 09be
00000040: 6513 2f3d 40eb 283e 2afb 4b3d 6f76 e23d
00000050: 5dfe c93d f0b9 dfbd 72fd 30be 0ced 27be
00000060: 1748 163e ebf2 01be e9cb 67bd 6d24 143e
00000070: 3fc4 1c3e 2e75 f2bd c26a 9c3d 188e d1bb

egnn.layers.0.coord_mlp.0.weight f4 [32, 32]
-0.031564556 -0.0054192604 0.017647523 -0.17305459 -0.11605459 0.08296469 0.09848737 0.061753087
-0.10975691 -0.021758892 0.12088496 -0.11306809 0.12560427 0.06174081 -0.103027254 -0.16442442
0.07296381 0.04161365 -0.10075575 -0.13144863 0.039495036 0.0679648 -0.06861911 0.1508598
0.12438578 0.1019417 0.13802662 -0.10539424 0.15019144 -0.15971208 -0.04906866 -0.13334659
-0.03599851 -0.15729283 -0.14227012 -0.11741547 0.033264544 -0.111845076 0.007691882 0.038876187
-0.15320082 0.13351156 -0.039592538 0.11624405 -0.0044172336 0.105931796 0.017798379 -0.11174872
-0.16563237 -0.13224104 -0.10680201 -0.11748677 0.17319503 -0.12914085 0.014174111 -0.11505198
0.13070059 -0.017055083 -0.086324975 0.026066596 -0.085983686 0.0802725 -0.011895851 -0.12687048
-0.038134664 -0.0058465535 -0.005468097 -0.076206155 0.03839792 0.17717446 -0.10625671 -0.065728314
0.0058534113 0.11648497 -0.07455778 -0.13763271 0.16771443 0.061797276 0.078068495 -0.04506147
0.14641444 -0.0020692695 0.05379907 0.16528136 -0.1146102 -0.126808 0.11459002 0.104300104
-0.00022987362 -0.08352214 0.14872265 -0.13705374 -0.018517634 -0.15746701 0.1279215 0.029794833
-0.057392024 -0.11572675 -0.03871008 -0.13938878 0.15199456 -0.09732215 -0.00674209 0.02540522
0.11022471 -0.016410628 0.03035729 -0.008233194 0.00080189016 0.102584116 0.11082962 -0.018411262
0.053702526 -0.03655829 0.0762202 0.011478412 -0.0055435877 0.0047933427 0.13433297 0.11363071
-0.031598266 0.12209642 0.010961945 -0.06789427 -0.08710985 0.09811037 -0.059445534 -0.0140492
-0.075738706 -0.11178817 0.13165867 0.14279239 -0.15115164 0.008531498 0.13090327 0.13183607
0.049197607 0.053143203 -0.033621404 0.026880937 0.10087221 -0.09611123 -0.007026519 0.17641886
0.11602186 0.082083546 0.027394025 0.14841193 -0.027832083 -0.048824172 -0.07756571 0.093205355
-0.13542062 0.023311136 0.026162758 -0.09706147 0.09452854 -0.01832527 0.07136557 -0.0735489
0.035874937 0.13682619 0.012652885 -0.10697356 -0.045715515 -0.04766351 0.0011263924 -0.061769124
0.035208005 -0.06636383 0.01931575 -0.14750822 -0.03982987 0.08474813 0.09545194 -0.12534265
-0.105641924 0.018589832 0.028857058 -0.049876936 0.110676095 -0.08375726 -0.104141496 0.13740881
-0.093196824 -0.029874695 -0.13041975 0.076764576 -0.05325515 0.09680544 0.088592805 -0.14160016
-0.11726185 0.1602118 -0.1517504 -0.12277857 -0.14413218 0.13304232 -0.022448117 -0.1509545
-0.13238402 0.1434138 -0.077356145 0.1285474 0.15855114 0.051473957 -0.08119224 0.17438535
0.16233498 0.1345212 -0.0613155 0.13444003 -0.0996675 0.08009684 0.00031150007 0.15029146
0.040188007 0.07287378 -0.12408097 0.13116881 -0.0014949845 -0.02143072 0.022304744 -0.059116594
-0.15799446 -0.16373758 0.056094408 -0.07546104 -0.118668035 0.13950156 0.17249183 -0.17140521
-0.117729954 -0.11344888 0.06852761 0.08700777 -0.09196887 -0.10659294 0.11741076 -0.10673698
-0.08667486 0.1675923 -0.0025890374 -0.06829378 0.09699799 -0.16444397 0.16713527 -0.09345944
0.0243693 -0.11148089 0.11958187 0.025738025 -0.14862317 -0.11242791 0.10609302 -0.063721046
00000000: d649 01bd 0d94 b1bb 8a91 903c 3935 31be
00000010: 07ae edbd 64e9 a93d bfb3 c93d cef0 7c3d
00000020: 3bc8 e0bd b43f b2bc 8992 f73d 3e90 e7bd
00000030: 689e 003e eee3 7c3d f4ff d2bd e05e 28be
00000040: 0d6e 953d 1373 2a3d 0859 cebd 789a 06be
00000050: 8cc5 213d 2131 8b3d 2d88 8cbd fe7a 1a3e
00000060: f9bd fe3d cfc6 d03d da56 0d3e efd8 d7bd
00000070: c9cb 193e 908b 23be 38fc 48bd 028c 08be
00000080: 2c73 13bd 5f11 21be 42af 11be 8677 f0bd
00000090: 6740 083d 080f e5bd 2f0c fc3b a33c 1f3d
000000a0: ade0 1cbe 41b7 083e c92b 22bd 5c11 ee3d
000000b0: 71be 90bb c5f2 d83d e8cd 913c 83dc e4bd
000000c0: 889b 29be 326a 07be 03bb dabd e79c f0bd
000000d0: 0a5a 313e 803d 04be 883a 683c 5fa0 ebbd
000000e0: 60d6 053e 1ab7 8bbc 26cb b0bd 9d89 d53c
000000f0: 3718 b0bd e965 a43d d1e6 42bc 56ea 01be
00000100: 1833 1cbd 7294 bfbb b92d b3bb f911 9cbd
00000110: 2347 1d3d 396d 353e 1e9d d9bd 919c 86bd
00000120: f9cd bf3b ac8f ee3d c0b1 98bd 97ef 0cbe
00000130: 55bd 2b3e 241f 7d3d 60e2 9f3d 6092 38bd
00000140: abed 153e 959c 07bb 6a5c 5c3d 843f 293e
00000150: c1b8 eabd f5d9 01be 2cae ea3d 4b9b d53d
00000160: 3b0a 71b9 a80d abbd c04a 183e d157 0cbe
00000170: 4bb2 97bc 083f 21be dbfd 023e 4b14 f43c
00000180: e613 6bbd 2502 edbd 768e 1ebd efbb 0ebe
00000190: 76a4 1b3e d650 c7bd c0ec dcbb 9c1e d03c
000001a0: 7ebd e13d 956f 86bc daaf f83c 85e4 06bc
000001b0: f035 523a 9f17 d23d a4fa e23d 37d3 96bc
000001c0: 2ef7 5b3d 25be 15bd 5619 9c3d f30f 3c3c
000001d0: fca6 b5bb 7911 9d3b 958e 093e 38b7 e83d
000001e0: 2f6d 01bd b00d fa3d bb99 333c 270c 8bbd
000001f0: a666 b2bd 17ee c83d 297d 73bd 9e2e 66bc
00000200: e51c 9bbd 32f1 e4bd 88d1 063e 2b38 123e
00000210: 7fc7 1abe b2c7 0b3c 820b 063e 0900 073e
00000220: 6e83 493d b0ac 593d 99b6 09bd 6935 dc3c
00000230: 1796 ce3d f7d5 c4bd b73e e6bb 25a7 343e
00000240: de9c ed3d 6b1b a83d 6f69 e03c 4cf9 173e
00000250: 1c00 e4bc dbfb 47bd c5da 9ebd 73e2 be3d
00000260: b4ab 0abe fff6 be3c 4853 d63c 2ac8 c6bd
00000270: 2e98 c13d e01e 96bc 1d28 923d cea0 96bd
00000280: 99f1 123d 2a1c 0c3e 0c4e 4f3c f414 dbbd
00000290: 3140 3bbd d03a 43bd 75a3 933a 9f01 7dbd
000002a0: 4536 103d c2e9 87bd 103c 9e3c 650c 17be
000002b0: a524 23bd 6d90 ad3d 4f7c c33d d359 00be
000002c0: cb5a d8bd b449 983c a365 ec3c c24b 4cbd
000002d0: 26aa e23d ed88 abbd 2348 d5bd e5b4 0c3e
000002e0: fadd bebd c7bb f4bc c18c 05be bf36 9d3d
000002f0: 1222 5abd ee41 c63d 2570 b53d a2ff 10be
00000300: fb26 f0bd 900e 243e 7564 1bbe 5573 fbbd
00000310: 6397 13be 3f3c 083e 1de5 b7bc d193 1abe
00000320: ad8f 07be 11db 123e e66c 9ebd eea1 033e
00000330: 3b5b 223e 5bd6 523d 1e48 a6bd 1392 323e
00000340: 243b 263e edbf 093e f625 7bbd a6aa 093e
00000350: 791e ccbd d009 a43d d550 a339 01e6 193e
00000360: 2e9c 243d d93e 953d 2a1e febd 1e51 063e
00000370: 5bf3 c3ba 7a8f afbc 70b8 b63c 3e24 72bd
00000380: 4dc9 21be d3aa 27be 40c3 653d 518b 9abd
00000390: 3a08 f3bd 7fd9 0e3e b3a1 303e d984 2fbe
000003a0: 671c f1bd e357 e8bd 3458 8c3d 2131 b23d
000003b0: 2d5a bcbd 664d dabd 0d75 f03d eb98 dabd
000003c0: 9782 b1bd 519d 2b3e d7ac 29bb 9cdd 8bbd
000003d0: e2a6 c63d 0064 28be 8225 2b3e aa67 bfbd
000003e0: 20a2 c73c 1850 e4bd 57e7 f43d 8dd8 d23c
000003f0: ac30 18be 9b40 e6bd 4c47 d93d 2e80 82bd

egnn.layers.0.coord_mlp.0.bias f4 [32]
-0.044859543 -0.081443734 -0.16318467 0.13813598 -0.11203521 0.13954298 0.020590967 -0.0761008
-0.1030004 -0.13606182 0.16278781 -0.056258816 0.026302952 -0.033303853 0.17120133 0.17251009
0.028893681 -0.096416175 0.046672437 -0.1670266 -0.16119204 0.013136913 0.004842916 0.12261785
-0.08085319 0.02949225 0.09515175 -0.16531104 0.06436122 -0.11925754 0.08564606 0.10371048
00000000: a4be 37bd f9cb a6bd e219 27be 8573 0d3e
00000010: b772 e5bd 5be4 0e3e 63ae a83c bcda 9bbd
00000020: e0f1 d2bd ca53 0bbe d9b1 263e a56f 66bd
00000030: 4a79 d73c 9f69 08bd 674f 2f3e 7ca6 303e
00000040: 71b2 ec3c d875 c5bd 992b 3f3d 0509 2bbe
00000050: 870f 25be 353c 573c 53b1 9e3b 111f fb3d
00000060: 5b96 a5bd bb99 f13c ecde c23d 4c47 29be
00000070: d1cf 833d 4c3d f4bd 3467 af3d 2966 d43d

egnn.layers.0.coord_mlp.2.weight f4 [1, 32]
-0.004341786 -0.003974101 -0.0060066 7.13334e-05 -0.0059770704 0.006421161 -0.008271392 -0.0069489223
-0.007056898 -0.008545608 0.0057577686 0.0032308875 0.007542103 0.0030889162 0.003596733 0.0064839334
-0.006746194 -0.010867313 0.004506823 -0.005301401 -0.010500438 0.0068342644 0.008202768 0.007641157
0.0059234467 0.009833184 0.0030399607 -0.0058628707 -0.009942133 -0.0059750914 0.004177253 0.0034260128
00000000: 8a45 8ebb 2d39 82bb 03d3 c4bb d498 9538
00000010: 4ddb c3bb 9a68 d23b bc84 07bc c9b3 e3bb
00000020: 8d3d e7bb e102 0cbc aaab bc3b 4cbd 533b
00000030: bf23 f73b 6a6f 4a3b 2bb7 6b3b 2d77 d43b
00000040: 2d0f ddbb d00c 32bc f9ad 933b 60b7 adbb
00000050: 070a 2cbc f7f1 df3b e764 063c ac62 fa3b
00000060: 7919 c23b 5d1b 213c 143a 473b 531d c0bb
00000070: 54e4 22bc b3ca c3bb 57e1 883b f586 603b

egnn.layers.0.hidden_mlp.0.weight f4 [32, 48]
0.047036573 0.031030815 -0.10848577 -0.034017533 0.12286366 0.015315243 -0.1310251 -0.07712602
-0.07217497 0.018086804 -0.11656015 0.12268177 0.09049768 0.022915704 -0.12911823 0.00345326
0.0012435606 -0.067490734 -0.11421732 -0.1487063 0.061372284 0.012319016 0.038739167 0.12366419
-0.048735768 -0.11572357 -0.12228261 -0.13185324 0.06811518 -0.077672414 0.09663194 -0.070433274
0.007019108 0.06659124 0.050418865 0.1341087 0.0120901065 -0.06260567 0.013519258 -0.052738547
0.113464415 -0.04534931 -0.0937528 -0.039810266 -0.06873696 0.11819874 -0.063376315 -0.044701993
-0.07351537 0.1349174 -0.11157914 0.11284591 -0.060374085 0.08328206 0.048872586 -0.10008185
-0.13496275 0.07360749 -0.08051977 -0.08881829 -0.08121792 -0.024727669 -0.063979514 0.08724203
0.014475951 -0.07990208 -0.101560645 0.05867332 -0.03065615 -0.056530196 0.14318417 -0.10588243
0.08053902 -0.06187074 0.011055024 0.04972941 -0.04053753 0.018624566 -0.06003131 -0.044104546
-0.0040099663 0.10188842 0.021157142 -0.048615117 -0.045583673 -0.014537677 -0.06437315 -0.032780655
0.096252255 0.059616555 0.08755848 -0.09250331 0.09162254 0.012792293 0.117047116 0.004525033
-0.116421126 0.06561587 0.025195738 0.08374736 -0.04576552 -0.07001151 -0.11749954 0.10441473
-0.114533536 -0.038000997 0.12746443 -0.10580392 0.105293505 0.032330085 -0.11507901 0.098641396
-0.08242329 0.063194424 -0.10677811 -0.13812447 -0.06309094 -0.062309843 0.11639768 -0.031148063
0.13604863 0.011698835 0.044718932 0.11590135 0.0841223 0.051558115 0.03706634 0.014547026
0.014398523 0.13363746 -0.079019256 0.0949501 0.05195081 -0.055962604 -0.086347505 -0.0623283
0.10594378 -0.1275331 0.03571299 0.1197433 -0.11409407 -0.1407263 -0.13440204 -0.08220274
0.09311472 0.1022495 -0.051667932 -0.1154689 0.068121746 -0.072565 0.13150108 0.005248578
0.06649215 0.017677533 -0.10730229 -0.104934305 0.067540295 -0.08413024 -0.0884025 0.07227079
0.13143726 -0.07979179 0.078376435 -0.025720252 -0.073005 0.13674329 0.09003813 0.037655793
-0.087843515 -0.07307256 0.085930005 0.011768814 -0.13444619 -0.04387103 0.009474887 0.05215713
-0.06512717 0.10183299 -0.11527092 0.09391435 -0.08618735 -0.11782482 0.10838435 -0.027659824
0.10518385 -0.13524017 0.057705067 0.06368894 0.07002449 -0.052855827 0.003735297 -0.017402386
-0.106934056 -0.061163057 -0.10185875 0.07485358 0.031719036 0.052235756 -0.13987775 0.059239246
-0.07581984 -0.10039654 -0.110565186 0.12788992 -0.08260784 0.09572977 -0.081627764 0.062954456
0.037662476 -0.11531481 -0.09272859 0.004814003 -0.027865112 0.11533073 -0.12531044 0.044195794
-0.01691996 -0.080507234 -0.12471096 -0.012420908 0.02515937 -0.072531804 0.11297278 0.11514911
-0.12758005 -0.090425335 0.05872487 0.093989335 -0.090546146 0.09433753 -0.11205048 -0.071373925
0.032659538 0.066070154 0.020101005 -0.017796278 0.05350427 -0.0977866 0.05625068 0.14085801
-0.028854994 -0.012502418 0.09610195 0.018646866 -0.035431847 0.113619566 -0.08181916 0.0832193
0.08385216 -0.11524348 -0.028531337 0.057360772 0.010186149 0.024743723 0.11138509 0.09931165
00000000: 6ca9 403d 5634 fe3c ca2d debd f855 0bbd
00000010: f19f fb3d c9ec 7a3c 722b 06be 3ff4 9dbd
00000020: 78d0 93bd c72a 943c 17b7 eebd 9440 fb3d
00000030: d956 b93d b7b9 bb3c 9237 04be 1750 623b
00000040: f8fe a23a 9538 8abd c5ea e9bd 7746 18be
00000050: 8161 7b3d b3d5 493c f6ac 1e3d a743 fd3d
00000060: 289f 47bd 7b00 edbd 4e6f fabd 8904 07be
00000070: f97f 8b3d b712 9fbd f7e6 c53d 523f 90bd
00000080: 8c00 e63b fd60 883d 0384 4e3d cb53 093e
00000090: 9515 463c 6737 80bd e17f 5d3c 6004 58bd
000000a0: 0860 e83d 33c0 39bd 7801 c0bd 1710 23bd
000000b0: f7c5 8cbd 2e12 f23d 71cb 81bd 7019 37bd
000000c0: 3a8f 96bd c927 0a3e 9b83 e4bd c21b e73d
000000d0: d14a 77bd c98f aa3d 9f2e 483d b7f7 ccbd
000000e0: ad33 0abe 86bf 963d 8de7 a4bd 5de6 b5bd
000000f0: 9555 a6bd ae91 cabc b107 83bd f3ab b23d
00000100: 8a2c 6d3c b4a3 a3bd 07ff cfbd 6f53 703d
00000110: 9b22 fbbc 358c 67bd df9e 123e e3d8 d8bd
00000120: a4f1 a43d 2c6c 7dbd 2220 353c 11b1 4b3d
00000130: ae0a 26bd 8c92 983c 64e3 75bd f8a6 34bd
00000140: 0966 83bb e0aa d03d be51 ad3c a520 47bd
00000150: f2b5 3abd 702f 6ebc 12d6 83bd 0245 06bd
00000160: e71f c53d 7d30 743d dc51 b33d 6072 bdbd
00000170: 99a4 bb3d c496 513c 66b6 ef3d ba46 943b
00000180: 336e eebd 9d61 863d 4b67 ce3c bc83 ab3d
00000190: a074 3bbd 3262 8fbd 99a3 f0bd 64d7 d53d
000001a0: 8f90 eabd efa6 1bbd 0986 023e baaf d8bd
000001b0: 1fa4 d73d 8d6c 043d 8bae ebbd 8004 ca3d
000001c0: 8bcd a8bd 146c 813d 7bae dabd 8070 0dbe
000001d0: d335 81bd 9b38 7fbd e861 ee3d 392a ffbc
000001e0: 5550 0b3e 78ac 3f3c 332b 373d b05d ed3d
000001f0: 5048 ac3d 9a2e 533d e0d2 173d a656 6e3c
00000200: c8e7 6b3c 42d8 083e d9d4 a1bd 3375 c23d
00000210: 5fca 543d 0b39 65bd f6d6 b0bd f64b 7fbd
00000220: 0df9 d83d 0998 02be c947 123d fa3b f53d
00000230: 27aa e9bd 8e1a 10be b0a0 09be e959 a8bd
00000240: eeb2 be3d 3068 d13d c1a1 53bd f57a ecbd
00000250: 6a83 8b3d f59c 94bd 38a8 063e 43fc ab3b
00000260: 092d 883d 79d0 903c 4ec1 dbbd cce7 d6bd
00000270: 9152 8a3d 7a4c acbd 5f0c b5bd b502 943d
00000280: 7d97 063e e169 a3bd d383 a03d 47b3 d2bc
00000290: a583 95bd 6f06 0c3e e965 b83d f63c 1a3d
000002a0: 4de7 b3bd 11a7 95bd 12fc af3d fcd1 403c
000002b0: 43ac 09be 1cb2 33bd 8e3c 1b3c b7a2 553d
000002c0: 6561 85bd d18d d03d 2913 ecbd 2b56 c03d
000002d0: fe82 b0bd 244e f1bd 9df8 dd3d db96 e2bc
000002e0: a16a d73d 667c 0abe 265c 6c3d 596f 823d
000002f0: 0069 8f3d 5a7f 58bd e2cb 743b 738f 8ebc
00000300: 3e00 dbbd 1d86 7abd 529b d0bd d54c 993d
00000310: d2eb 013d 29f5 553d 1d3c 0fbe daa4 723d
00000320: 6f47 9bbd b39c cdbd 0070 e2bd 93f5 023e
00000330: 4d2e a9bd f80d c43d 752c a7bd 44ee 803d
00000340: f843 1a3d 2c2a ecbd 7de8 bdbd c9be 9d3b
00000350: 6045 e4bc 8532 ec3d 6151 00be a606 353d
00000360: ba9b 8abc fae0 a4bd 7668 ffbd 1081 4bbc
00000370: 061b ce3c 8e8b 94bd 465e e73d 4cd3 eb3d
00000380: 58a4 02be eb30 b9bd 7d89 703d 7b7d c03d
00000390: 4270 b9bd 0934 c13d b97a e5bd 7e2c 92bd
000003a0: 02c6 053d ca4f 873d ddaa a43c 80c9 91bc
000003b0: 4b27 5b3d 5744 c8bd 1d67 663d 153d 103e
000003c0: 4f61 ecbc f1d6 4cbc 19d1 c43d 50c1 983c
000003d0: fc20 11bd 60b1 e83d ce90 a7bd e16e aa3d
000003e0: aeba ab3d c604 ecbd 8dba e9bc 21f3 6a3d
000003f0: cee3 263c 59b3 ca3c de1d e43d e863 cb3d

egnn.layers.0.hidden_mlp.0.bias f4 [32]
0.05875665 0.001956299 0.03671204 -0.09352843 0.047493227 -0.0084539475 -0.07374467 -0.11219405
0.053976726 -0.08203918 0.025894415 -0.13806154 0.0597789 0.047919933 -0.0054770852 -0.0053564426
0.1308228 0.050565373 -0.091243945 -0.054045245 -0.052201197 -0.09384117 -0.104397394 -0.007917605
-0.07771255 -0.007329909 0.03204384 -0.07450834 -0.05859328 -0.13643634 0.035908926 0.036607172
00000000: d0aa 703d 4035 003b 5d5f 163d d58b bfbd
00000010: 4288 423d 6d82 0abc 7207 97bd fec5 e5bd
00000020: b316 5d3d 2804 a8bd 8620 d43c 0160 0dbe
00000030: b8da 743d b147 443d 1f79 b3bb 1985 afbb
00000040: 69f6 053e a31d 4f3d 1bde babd 8c5e 5dbd
00000050: ecd0 55bd cd2f c0bd 4dce d5bd d8b8 01bc
00000060: c227 9fbd bc2f f0bb 6740 033d d497 98bd
00000070: 82ff 6fbd f8b5 0bbe 3d15 133d 67f1 153d

egnn.layers.0.hidden_mlp.2.weight f4 [16, 32]
-0.12994114 -0.106441304 -0.03415246 0.005466213 0.005605303 0.14836593 -0.15784107 0.070251346
0.140367 0.15822189 0.01911454 0.15705895 -0.09762838 -0.12878391 -0.046054516 -0.089920625
0.08500802 -0.044509303 0.09248786 -0.068067305 -0.077957876 -0.06104813 -0.01525142 -0.085941434
0.10320189 0.1204227 0.02721738 -0.16896765 0.13632612 -0.1241324 -0.12737969 0.09435925
-0.108628176 -0.13879406 -0.12901725 0.14763053 0.045454066 0.08568235 0.03508581 0.08531882
0.17363374 -0.024229433 -0.1105144 -0.03332781 -0.065012686 -0.16485178 -0.1262924 -0.06739924
0.036248494 0.08597247 0.110419594 -0.17327935 -0.016026797 -0.03218063 0.14504288 -0.044121195
0.18067348 0.038887687 0.020028703 0.07306654 0.12741227 -0.0988942 0.080141164 -0.07260619
0.0498667 0.106734075 -0.08427303 -0.049521085 0.16124812 -0.1675946 -0.032437813 0.14140874
0.042450022 -0.14991982 0.0064285593 -0.14882873 -0.064278625 0.031803537 0.09132537 -0.09309126
0.15191478 -0.12077595 -0.031556204 -0.15579042 -0.0014409429 -0.010758038 0.079567954 -0.11856665
0.011368479 0.060702365 -0.1114799 0.15935104 -0.03397936 -0.17605852 -0.03667037 0.046347592
-0.08309998 -0.06105085 0.07155793 -0.02798149 0.056831658 0.0067816908 -0.010625514 0.140719
-0.020703726 0.13487512 -0.06752323 0.107895024 0.08803758 -0.1217191 -0.04796883 -0.11223243
0.026869826 0.012938357 -0.051507913 0.14864986 0.16560176 -0.12892705 -0.08995822 0.018324569
0.12018453 -0.10011645 -0.023396844 -0.025216604 -0.14486443 -0.004178478 -0.01220062 0.051496435
0.12085398 -0.012555813 0.1328874 -0.062339574 -0.11462825 0.06835528 0.12685357 -0.0023276552
-0.12467473 -0.0812431 -0.0991859 0.04628158 0.046633653 -0.15567526 -0.02642436 0.03588316
-0.06859929 0.16852391 0.13836877 -0.0866346 0.01846164 -0.034653854 -0.15637697 0.008989687
0.124307275 0.09982791 0.08820168 -0.06239895 -0.10340096 -0.15302132 -0.1536848 0.0025758317
0.13815942 0.052386355 -0.042198587 0.019061824 0.03552732 -0.08022487 0.10547987 0.06661873
-0.041739352 -0.025631053 -0.16618425 0.07599786 0.02574035 0.119554944 0.051798504 -0.13959348
-0.053859152 0.106848516 0.1585824 0.047211457 0.1439448 0.16921106 -0.04939929 0.036912158
0.16549209 -0.011630499 -0.102563985 -0.11814069 -0.07352823 -0.17542328 -0.08801425 0.09520006
0.13707976 0.024129916 -0.06972485 -0.11117879 -0.13986582 0.032873724 0.1624001 -0.11374326
0.17158146 -0.07592377 -0.11661277 0.10173802 -0.10655405 0.16235168 -0.15672229 0.10127211
0.1629515 -0.058073718 -0.10365477 -0.05844508 0.15627035 -0.12619314 0.14985637 0.16494067
-0.07582794 0.1393814 0.0041038124 0.03114 -0.0036559955 0.036604736 0.1628181 0.030500859
0.020109052 -0.10320135 0.118872285 -0.059322137 -0.14491148 -0.1718394 0.16655102 0.06750547
-0.072255775 -0.11024048 -0.006938935 -0.030573597 -0.0027028937 0.13571887 -0.09335697 0.031192817
0.09734357 0.13689555 0.035821106 -0.117617965 -0.039933838 -0.030105794 -0.04669263 -0.16818695
-0.0046238364 0.15890725 -0.08620217 -0.07126569 -0.123020686 0.04195378 -0.11126983 0.022148017
00000000: 4a0f 05be e6fd d9bd 73e3 0bbd eb1d b33b
00000010: b1ac b73b 3ded 173e 17a1 21be f0df 8f3d
00000020: 5ebc 0f3e eb04 223e 1996 9c3c 10d4 203e
00000030: 63f1 c7bd eedf 03be a9a3 3cbd 4e28 b8bd
00000040: af18 ae3d 634f 36bd 466a bd3d df66 8bbd
00000050: 61a8 9fbd 9b0d 7abd 18e1 79bc 1002 b0bd
00000060: 835b d33d 2da0 f63d fcf6 de3c db05 2dbe
00000070: 1399 0b3e 2139 febd d26f 02be 6c3f c13d
00000080: 7378 debd 0820 0ebe 191d 04be 752c 173e
00000090: 0b2e 3a3d 3a7a af3d 23b6 0f3d a2bb ae3d
000000a0: 0bcd 313e ce7c c6bc 6055 e2bd be82 08bd
000000b0: 5f25 85bd e8ce 28be cb52 01be 9d08 8abd
000000c0: 4d79 143d 5612 b03d ab23 e23d 2470 31be
000000d0: a14a 83bc d6cf 03bd 1f86 143e 6db8 34bd
000000e0: 7802 393e b248 1f3d 3c13 a43c e9a3 953d
000000f0: 5d78 023e 0b89 cabd 0d21 a43d 8eb2 94bd
00000100: 0641 4c3d 6597 da3d 5797 acbd 9fd6 4abd
00000110: 3a1e 253e eb9d 2bbe 83dd 04bd 74cd 103e
00000120: 13e0 2d3d 9584 19be aaa6 d23b 8f66 18be
00000130: 83a4 83bd 6d44 023d cc08 bb3d a1a6 bebd
00000140: 8c8f 1b3e 6259 f7bd 1441 01bd 8687 1fbe
00000150: 05de bcba 7b42 30bc 86f4 a23d 12d3 f2bd
00000160: db42 3a3c 0ba3 783d 934f e4bd eb2c 233e
00000170: f12d 0bbd af48 34be ab33 16bd f9d6 3d3d
00000180: 5330 aabd 7510 7abd f78c 923d 7039 e5bc
00000190: 50c8 683d f238 de3b a316 2ebc a418 103e
000001a0: dc9a a9bc b41c 0a3e 9f49 8abd 11f8 dc3d
000001b0: 0c4d b43d dd47 f9bd f77a 44bd 1eda e5bd
000001c0: 1c1e dc3c 67fb 533c f6f9 52bd ab37 183e
000001d0: 8293 293e 7405 04be 043c b8bd 681d 963c
000001e0: 4f23 f63d da09 cdbd bdaa bfbc 0d93 cebc
000001f0: 5757 14be 9deb 88bb 1ce5 47bc eded 523d
00000200: 4b82 f73d e6b6 4dbc a213 083e c857 7fbd
00000210: 37c2 eabd dafd 8b3d e7e5 013e 938b 18bb
00000220: 7755 ffbd c862 a6bd fa21 cbbd c191 3d3d
00000230: ee02 3f3d 5669 1fbe e677 d8bc 38fa 123d
00000240: c97d 8cbd 8891 2c3e 8bb0 0d3e 7b6d b1bd
00000250: de3c 973c 33f1 0dbd 4921 20be 7b49 133c
00000260: d094 fe3d 9372 cc3d 15a3 b43d 0b96 7fbd
00000270: e2c3 d3bd 9fb1 1cbe 8c5f 1dbe 49cf 283b
00000280: aa79 0d3e 1393 563d 6dd8 2cbd 8b27 9c3c
00000290: 1885 113d f04c a4bd d505 d83d 676f 883d
000002a0: e2f6 2abd 37f8 d1bc 342c 2abe c4a4 9b3d
000002b0: 6ddd d23c 39d9 f43d ab2a 543d 98f1 0ebe
000002c0: 6a9b 5cbd 65d3 da3d 6d63 223e cd60 413d
000002d0: 4466 133e aa45 2d3e e956 4abd 3431 173d
000002e0: c276 293e d98d 3ebc 110d d2bd bff3 f1bd
000002f0: f895 96bd 29a2 33be d140 b4bd 40f8 c23d
00000300: a35e 0c3e 1aac c53c e7cb 8ebd b5b1 e3bd
00000310: fc38 0fbe 99a6 063d 364c 263e 3af2 e8bd
00000320: 0db3 2f3e ec7d 9bbd add2 eebd 065c d03d
00000330: 0339 dabd 853f 263e cf7b 20be c167 cf3d
00000340: c2dc 263e b5de 6dbd f448 d4bd 1c64 6fbd
00000350: 5605 203e c638 01be f373 193e 35e6 283e
00000360: ae4b 9bbd ffb9 0e3e 4679 863b 5019 ff3c
00000370: 6d99 6fbb d9ee 153d cab9 263e f0dc f93c
00000380: bdbb a43c 3b5b d3bd 5073 f33d c5fb 72bd
00000390: ad63 14be abf6 2fbe 5a8c 2a3e 4f40 8a3d
000003a0: d6fa 93bd c3c5 e1bd 0160 e3bb 7b75 fabc
000003b0: 0823 31bb e3f9 0a3e f031 bfbd 1488 ff3c
000003c0: 115c c73d 592e 0c3e 27b9 123d b0e1 f0bd
000003d0: aa91 23bd 6da0 f6bc c540 3fbd 3339 2cbe
000003e0: 8d83 97bb 95b8 223e c38a b0bd bff3 91bd
000003f0: 45f2 fbbd bad7 2b3d 70e1 e3bd c26f b53c

egnn.layers.0.hidden_mlp.2.bias f4 [16]
0.031967882 -0.15136331 0.15662484 -0.01009816 -0.12838905 0.095239736 -0.14036061 -0.0067755235
-0.12402185 0.02372835 0.03146042 0.14620629 -0.07220979 0.10644921 -0.00012905139 0.11274596
00000000: c1f0 023d fcfe 1abe 4362 203e c172 25bc
00000010: 6b78 03be 0d0d c33d b1ba 0fbe 3605 debb
00000020: 2bff fdbd f561 c23c a4dc 003d 1ab7 153e
00000030: bae2 93bd 0b02 da3d f851 07b9 5be7 e63d
