2-egnca-rework/logs/line4-2024-10-05@23-20-03/best@82.pt (torch, 25525 bytes, 11 tensors)

egnn.layers.0.message_mlp.0.weight f4 [32, 33]
000000 33 63 6f 3d db 9c c4 3d 0d ae cd bb e6 19 cd 3d
       0.058444213 0.0960023 -0.006276852 0.10014705
000010 43 2e 55 bd b3 5d f6 3c 99 2b 38 bd 91 1a 51 bc
       -0.05204607 0.030073976 -0.044963453 -0.012762682
000020 52 14 21 bd 02 7b e8 3c a7 05 0a 3e 5a ac 0d 3e
       -0.03932602 0.028378967 0.13478719 0.13835278
000030 13 8d e8 bc 4f 3f 70 bd b9 39 d7 bc 45 db 19 3e
       -0.028387582 -0.058654126 -0.026272641 0.15025051
000040 54 f0 16 3e 40 fe 44 bd 1d ea 6a bd 91 12 30 bd
       0.14740115 -0.048094034 -0.057352174 -0.042986456
000050 09 1c f7 3d ed 4a 11 3e c4 3e fd bd dd 72 74 bd
       0.12065894 0.14188738 -0.12365487 -0.059679855
000060 9e b5 1d be 1b 16 31 3e 1b 67 ef 3c e0 ce 53 3d
       -0.15401313 0.17293589 0.02922397 0.051710963
000070 89 13 c0 3d 04 0f 2c 3d c2 c5 17 bd 66 0f 2c be
       0.09378726 0.042006508 -0.03705383 -0.16802749
000080 fa 1c 3b 3d 30 d7 f3 bc 32 05 2e be fb a9 c1 bc
       0.04568193 -0.029765695 -0.1699417 -0.023640623
000090 2b 6c c4 bd 9e 30 c5 bd a5 2e 02 be ca 73 13 be
       -0.09590944 -0.096284136 -0.12713106 -0.14399639
0000a0 36 21 43 bc e9 fd b6 3c 2a 04 1f be 18 d5 24 be
       -0.011909774 0.02233787 -0.15528932 -0.16096914
0000b0 21 78 09 3b 1b 98 26 be 2e cc ab 3d ae 13 33 bd
       0.0020976143 -0.16268961 0.083885536 -0.04371994
0000c0 f4 fb ce bc 00 17 25 be 0b c4 fd bd 30 b8 7f 3d
       -0.025266625 -0.16122055 -0.12390908 0.062431514
0000d0 a9 8a c4 bd 85 3a 8c bd 05 0d 21 be 6b bc 96 3a
       -0.0959676 -0.06847099 -0.15727623 0.0011500245
0000e0 8c e9 e0 bd 26 98 3c 3d cd 0a 64 3d 81 a8 15 3d
       -0.109820455 0.046043538 0.055674363 0.03653765
0000f0 e6 e7 80 3d 9b bb f7 bd 1b 85 84 3c f9 6a 1b be
       0.06294231 -0.1209633 0.01617675 -0.15177526
000100 d8 24 fa bd 59 ae 11 3e fb c0 fb 3d 56 f8 ff bd
       -0.12214059 0.14226665 0.122926675 -0.12498538
000110 23 b4 c6 3d 0e 39 0f be be 89 c9 3c 8c f9 21 3e
       0.09702327 -0.13986608 0.024601813 0.15817851
000120 66 cf 2b 3c 64 c7 8b 3d 13 8d 1f 3e 04 b3 88 bd
       0.010486459 0.0682514 0.1558116 -0.066747695
000130 25 75 04 3e f7 4e ce 3c c1 ed 1d bd 81 2c 1f be
       0.12935312 0.025184138 -0.038556818 -0.1554432
000140 78 45 2b 3e 6d ba 31 3e a2 97 96 bd 16 b2 25 3d
       0.16725719 0.17356272 -0.073531404 0.04045304
000150 04 73 36 be 96 91 00 3d 24 74 c6 3d 30 db a0 3c
       -0.17817312 0.03138884 0.09690121 0.019635767
000160 54 2b c5 bd d7 e1 23 3e 60 4d c4 bd 32 d3 b8 3c
       -0.09627405 0.1600412 -0.095850706 0.022561643
000170 75 e1 24 be 43 70 94 3d 20 04 f3 3d 1b b2 10 3d
       -0.1610163 0.07247975 0.11866021 0.035326105
000180 b0 e3 07 3e c5 b1 32 be 60 4a ce bd 5d 49 39 3d
       0.1327045 -0.17450626 -0.1007278 0.04523598
000190 60 16 b3 3d f2 b1 2c bd 73 ba 4f 3d 97 ff 2d be
       0.08744502 -0.04216189 0.05071492 -0.16992031
0001a0 ce c2 2e 3e 3d 5c 0c be 03 02 25 be 1b e8 04 be
       0.170665 -0.13707061 -0.16114049 -0.12979166
0001b0 38 24 31 3e 7b 8c 35 3d c9 e6 6a bc fc 0f 14 3d
       0.17298973 0.044323426 -0.01433725 0.036148056
0001c0 a9 cf 17 ba 56 9b fa bd c5 42 e3 3d cf 87 13 be
       -0.00057911366 -0.12236659 0.1109672 -0.14407276
0001d0 c6 db 33 bd aa 68 a9 3c 05 c1 d6 bd ee 46 25 3d
       -0.043910764 0.02067979 -0.10486034 0.040350847
0001e0 7a 71 1f be f3 ab ae bd ef 70 1c 3e 07 27 53 3d
       -0.15570632 -0.085288905 0.15277456 0.05155089
0001f0 5d 21 11 be ef ef 29 3e 6a 29 45 bd 49 28 02 3d
       -0.14172883 0.16595434 -0.0481352 0.0317767
000200 2e a3 14 bd e6 fc d1 bd ef 28 07 3d 83 cc 13 bd
       -0.036288433 -0.10253315 0.03299802 -0.03608371
000210 9d 8c be bd 59 3b c4 3d 22 96 ab 3d d0 39 e7 3d
       -0.093041636 0.09581632 0.08378245 0.11290324
000220 de 28 dc bc da af f0 bc 91 ec 39 3c f7 8e 1c 3e
       -0.026874956 -0.029380728 0.011347906 0.15288912
000230 b7 ac 1d be 26 10 26 bc 68 ed 7b 3c be 26 ab 3d
       -0.15397917 -0.010135686 0.015376426 0.08356999
000240 d4 a9 2f be c5 4d 40 be 4f be e8 bb b4 82 5d 3d
       -0.17154628 -0.18779667 -0.0071027647 0.054079726
000250 97 6d 97 bd 9a 0f 09 3e 19 65 02 3d 66 2a 77 bd
       -0.073939495 0.13384858 0.031834695 -0.06034317
000260 a8 ce 7d bd 72 2b 12 be 2a 5e bb 3d e5 e6 0b bd
       -0.06196466 -0.14274386 0.0914882 -0.034155745
000270 f0 0d b5 3d 1e 3f 3c be ef c7 00 3e 02 1b 63 3d
       0.08840549 -0.18383452 0.12576269 0.05544568
000280 95 ee e1 bd 11 64 c3 bd e0 5b fe 3d 98 93 a3 3d
       -0.11031834 -0.095405705 0.124198675 0.07987136
000290 ca 8c aa 3d 8f 4d 16 3d c9 e0 b8 bd 34 8b e8 bd
       0.08327635 0.03669506 -0.09027249 -0.11354676
0002a0 9d 4d 44 bd 1d 7f 4f bd ce 7f d5 bc e2 6a 3e bd
       -0.04792558 -0.050658334 -0.026061919 -0.04648865
0002b0 6c 75 10 be 26 f4 24 be 08 dd ff bd 9a 50 b8 3d
       -0.14107293 -0.1610876 -0.1249333 0.089997485
0002c0 78 5a e5 bd 44 58 09 be 5e b3 97 bd 0e 42 5f 3d
       -0.11198896 -0.13412577 -0.074072585 0.054506354
0002d0 be 50 56 bd 3f 47 29 3b 21 a4 97 3c 3e 29 f8 bd
       -0.052323096 0.002582982 0.01851088 -0.12117241
0002e0 83 5c 4b bd fc cc 5a bd 55 b1 07 bc 3f b2 eb bd
       -0.049648773 -0.053418145 -0.008282025 -0.11508607
0002f0 fd 92 05 bd 14 48 7c 3c 03 fc 5d 3d 0b 2b e3 bd
       -0.032610882 0.015398044 0.054195415 -0.11092194
000300 92 1b 1c 3e 79 0d 35 3d 6d ae 0c be 9c 71 24 3e
       0.15244892 0.0442023 -0.13738413 0.16058964
000310 b2 a4 e1 bd 49 53 12 39 a0 91 07 3e 03 af 31 bd
       -0.11017741 0.00013954671 0.13239145 -0.043379795
000320 cc a8 34 3d 1f a0 a7 3d c0 49 76 bd e9 b9 9b 3c
       0.04410629 0.081848375 -0.060128927 0.019009547
000330 33 8e 01 3e 37 c5 32 ba ba a3 46 bd cb 89 02 3e
       0.12651901 -0.00068195484 -0.048495986 0.12747876
000340 6e 48 0f 3d ed df e8 bd a5 2a b0 3d f1 fb 0f 3e
       0.034981184 -0.113708355 0.08601884 0.14060952
000350 26 0c 53 3c 75 63 15 3e 95 bc df bd 8f e1 2a 3e
       0.012881314 0.14588721 -0.10924641 0.16687606
000360 1e 53 d0 3d b2 ba 0a bc e3 0b 24 be 09 fb 2d 3e
       0.10172103 -0.008467363 -0.1602016 0.16990294
000370 00 a9 23 bc 2e 67 ae 3d 77 06 c0 bd e7 03 6e 3d
       -0.009989023 0.08515774 -0.09376233 0.05810919
000380 aa ac d1 bc cf 8f 2f 3d 23 1e 80 3d cd 0b ed bd
       -0.025595028 0.042861756 0.06255748 -0.115745164
000390 7a 3b 05 be c5 45 e2 bb 6b 4d 35 bd 75 f8 e9 3d
       -0.1301097 -0.00690529 -0.044263285 0.114243425
0003a0 99 cf 9a bd 92 2c 2b 3d 66 1f 23 be de fc ac 3d
       -0.07559127 0.041790552 -0.15929946 0.08446668
0003b0 ab 8f df 3d c1 9f d1 3c 9a b2 bd 3c b9 c7 cb 3c
       0.10916074 0.025588872 0.023156453 0.024875509
0003c0 a1 78 f3 bb f6 84 13 bd 72 fa 04 3e 5b 5c 5b bd
       -0.0074301516 -0.036015473 0.12986162 -0.053554874
0003d0 6d 90 b3 bc a1 2c 8c bc 28 d2 d1 bd be ff 09 be
       -0.021919454 -0.017111124 -0.10245162 -0.13476464
0003e0 de 5f d6 bd 2b 98 f4 bc e5 b0 06 be 88 49 65 3d
       -0.10467504 -0.029857716 -0.13153417 0.055978328
0003f0 56 08 01 be d4 2a 42 bd 7b d0 92 bd 61 4f af bd
       -0.12600836 -0.047404125 -0.07168671 -0.08560062

egnn.layers.0.message_mlp.0.bias f4 [32]
000000 ec 36 0b bd 1a c2 8c bc c1 48 4f 3d 04 cd 1e be
       -0.033987924 -0.017182399 0.050606493 -0.15507895
000010 fe f2 70 3d 96 41 1a be ad 1a 17 bd 2a ac 12 be
       0.058825485 -0.15064082 -0.036890674 -0.14323488
000020 cb fc 18 be da 41 bd bd cd 0f 01 3e 8c d5 24 be
       -0.14940183 -0.09241076 0.12603684 -0.16097087
000030 61 77 9e 3d c4 bf 5a bc c0 0b 12 be 2e 11 45 3d
       0.077376135 -0.013351385 -0.14262295 0.048112087
000040 11 f3 c1 bd 0a aa d1 bd 57 4a 13 3d 69 42 00 be
       -0.09470189 -0.102375105 0.035959568 -0.12525333
000050 7b a9 1a 3c f3 bf 74 3d 5a 80 4e 3d 8a a8 c0 3d
       0.009439821 0.05975337 0.050415374 0.09407146
000060 6d 69 12 be 3a 14 6b 3d d3 e6 da 3d 38 b7 26 be
       -0.14298029 0.057392336 0.106885575 -0.1628083
000070 80 2c 8d 3d f7 9e 46 3c 2a c0 7e 3d 44 5f 2b be
       0.06893253 0.012122861 0.06219498 -0.1673556

egnn.layers.0.message_mlp.2.weight f4 [32, 32]
000000 30 94 e6 3d 4b e8 1f be c3 0e a3 3d 4b 34 25 3e
       0.11258733 -0.15615956 0.079618 0.1613323
000010 fc 2e 11 bd 4b f8 a7 3d b5 ca 9a bc bf 6a c6 3d
       -0.0354452 0.08201655 -0.018895486 0.09688329
000020 5b d3 24 be 0d fe ed ba 87 c9 3e 3e f8 18 33 bd
       -0.1609625 -0.0018157378 0.18631564 -0.043724984
000030 3c 5c 0e be 88 a5 0f be 78 f0 21 3d 75 85 1f 3e
       -0.13902372 -0.14027989 0.03953597 0.15578254
000040 bc d6 2f be 6b eb e7 3d 97 3d 09 be 1d 84 99 3d
       -0.17171758 0.11324199 -0.13402401 0.07495902
000050 c8 9e 0f 3d 90 9e 5f 3d 23 9d 1c be 55 40 2d 3e
       0.035063535 0.054594576 -0.15294318 0.16919072
000060 6d c7 20 3d 66 b8 4a bc 13 14 06 be 00 8a dc 3d
       0.039252687 -0.012373066 -0.13093595 0.10768509
000070 04 2e 27 3e 13 c4 95 3d cd c0 a1 bc 49 c4 30 bd
       0.16326147 0.07312789 -0.019745255 -0.043155942
000080 71 9e 3a be 42 39 f2 3d 8c 7a d5 bc 76 76 1f be
       -0.18224503 0.11827327 -0.026059411 -0.15572533
000090 e7 bf 42 ba 13 a4 0f 3d 40 b9 e1 3d f0 41 73 3d
       -0.00074291084 0.035068583 0.11021662 0.059389055
0000a0 f7 66 ed bd b5 70 37 bd 71 d6 2e be 16 49 ac 3d
       -0.115919046 -0.04478522 -0.1707399 0.084123775
0000b0 39 6a aa 3d c6 9c d4 bd 84 4c 30 3d d1 02 f3 3d
       0.083210416 -0.10381465 0.04304172 0.118657716
0000c0 b8 4a 22 3e fa 47 f5 3d a2 de 89 3d 8d c5 23 3d
       0.15848815 0.11976619 0.06731917 0.03998332
0000d0 2c 65 83 3d bc 0d 26 3e 0b 11 e6 3d c2 12 e2 3c
       0.064157814 0.16216177 0.112337194 0.027596835
0000e0 37 a7 a8 3c 21 2d f1 3d 7d 49 33 3e fb 51 e8 bd
       0.020587547 0.11776186 0.17508502 -0.113437615
0000f0 de 05 ad bd d7 15 44 3e 88 e4 9f bd 6a c5 2d bd
       -0.08448385 0.19148956 -0.07807261 -0.042424597
000100 a5 80 0e 3e dc 3e 87 bd af ea 31 3e 58 cd cd bd
       0.13916261 -0.06603786 0.17374681 -0.10048932
000110 3a 20 a9 bd 74 42 03 3c 53 95 86 3c 06 ba 22 3e
       -0.082581 0.008011449 0.016428625 0.15891275
000120 cf 77 95 bd 32 d6 87 3d 39 2d d9 bc d4 df f0 bc
       -0.07298242 0.066326514 -0.026510822 -0.029403605
000130 96 42 1a be b3 18 26 3e a5 18 c0 bd 25 ea 1b bd
       -0.15064463 0.1622036 -0.093797006 -0.038065095
000140 5e 7e a5 bd d8 b8 26 3e 81 04 91 bd 4b 11 27 bd
       -0.08080743 0.1628145 -0.07080937 -0.040787976
000150 d9 11 cc 3d 5a 3d 27 3e b1 2a 28 3e b4 70 d0 bd
       0.09964342 0.16331998 0.16422535 -0.101777464
000160 6f 75 81 bd f8 1b 12 3e 0a b1 9c 3d 28 9a 0c 3e
       -0.06321227 0.14268482 0.07650955 0.13730681
000170 dc cf 6e 3d fa 26 e1 bd 34 96 c1 bc de 93 a3 bd
       0.0583037 -0.10993762 -0.023631193 -0.07987188
000180 e7 44 14 be 65 53 4a 3d 00 f9 c0 3d 68 f7 87 3d
       -0.14479409 0.049395937 0.09422493 0.06638986
000190 ff 83 0d 3e e8 93 91 bd e6 b9 7a 3d b7 ac 63 bd
       0.13819884 -0.07108289 0.061212443 -0.055584636
0001a0 0b 69 19 3e f8 67 60 bc 22 31 02 3e 27 78 0a 3e
       0.14981477 -0.013696663 0.12714055 0.13522397
0001b0 c8 ed fa bd ea 69 2f bd 50 87 1a 3e bd 5c af bd
       -0.122523844 -0.042825617 0.1509068 -0.0856261
0001c0 03 72 2a bd ee bc 15 3e d7 ab 13 3e b7 f7 f1 3d
       -0.041612636 0.14622852 0.1442102 0.11814826
0001d0 7a 62 98 3c d0 01 e5 3d 4f 1e 21 be fa dd a9 3d
       0.018601645 0.11181986 -0.15734218 0.08294292
0001e0 c8 bc f0 bc 13 8a 05 be 9f 2d 1d 3d bc 80 e9 3a
       -0.029386893 -0.13040952 0.038373586 0.0017814855
0001f0 51 e4 86 3d c5 20 7a bd ef d4 32 3e 23 78 3b be
       0.06586517 -0.061066408 0.1746404 -0.18307547
000200 64 2c 30 3e be e8 9b bd 9f c1 d0 3d 22 3e c0 bc
       0.17204434 -0.076127514 0.1019318 -0.023467127
000210 12 b7 49 bd 2a e3 07 be 3f 7d 0c be 41 96 b2 3c
       -0.049246855 -0.1327025 -0.13719653 0.021800162
000220 77 c4 d2 bd a1 ac ff bd cc c5 19 be e5 20 1b 3e
       -0.10291379 -0.12484098 -0.1501686 0.15149267
000230 94 f5 2b 3d ee 08 6e 3c ee 67 52 bd 10 95 1d be
       0.04198225 0.014528496 -0.051368646 -0.15388894
000240 90 80 ce 3d 6b 41 12 3e 79 bc 08 3d 90 14 44 3d
       0.10083115 0.14282767 0.033382867 0.047871172
000250 5b 15 ab b8 f8 4d 89 3d 66 c4 07 3c a6 f0 e1 bd
       -8.157893e-05 0.067043245 0.008286571 -0.11032228
000260 46 58 c6 bc 28 8f 23 3e 44 2e d9 bd a6 93 1f 3e
       -0.024212014 0.15972579 -0.106045276 0.15583667
000270 2b 62 d0 bd 67 ba 04 bd 59 f7 ea 3d e3 08 e3 bd
       -0.10174974 -0.03240433 0.11472959 -0.110856794
000280 b3 d4 2d bd 09 d4 08 be bf 32 a6 bc 8d fc e1 3d
       -0.042439174 -0.13362135 -0.02028787 0.11034498
000290 b9 98 b9 bd ce 9d 14 bd 93 34 62 3b 9a 44 e0 3d
       -0.09062333 -0.036283307 0.00345162 0.10950585
0002a0 9b 68 e7 3c 84 a1 ad bc f7 e6 d9 bd eb 7f 05 be
       0.028248122 -0.02119518 -0.10639756 -0.13037078
0002b0 37 98 2e 3e 92 a0 3c bd 21 63 db 3d 01 40 82 bc
       0.17050253 -0.04605157 0.10712267 -0.01589966
0002c0 a5 1b ae bd b8 35 8a bd 2f 40 11 be de 5b 12 bd
       -0.085013665 -0.06748527 -0.1418464 -0.035732143
0002d0 9a 56 98 3c 27 8a ae bd 99 5d 4c 3d 33 0f 9f 3d
       0.018595982 -0.08522444 0.04989395 0.07766571
0002e0 92 ce e8 bd 8d 73 8b bc 8a 03 00 3e fd 0a 26 be
       -0.11367525 -0.017022872 0.1250135 -0.16215129
0002f0 01 a8 cd 3d a1 3c 3b bd 09 52 77 bd 1f 54 d4 bd
       0.1004181 -0.045712117 -0.06038097 -0.10367607
000300 0a c0 4f bc 8f 37 69 3d d8 aa a2 bd dd 89 6f bd
       -0.012680063 0.05693775 -0.07942742 -0.058481086
000310 1e 1d bf 3d 5f 01 aa bd f9 dd 02 3c 60 ab d0 3d
       0.093317255 -0.08301043 0.007987493 0.10188937
000320 2a 9e 7d bb 0c 3e 3a bd 60 58 e5 bd dd 6b 21 bd
       -0.003869901 -0.04546933 -0.11198497 -0.039409507
000330 ef ae 14 bd 5e 25 ea 3d d4 2a 66 3c 97 1d 12 be
       -0.036299642 0.114329085 0.014048297 -0.142691
000340 23 97 56 bc 1e 31 da bd 4f 09 3f 3e 38 45 2b bd
       -0.013097557 -0.106538996 0.18655895 -0.04181406
000350 63 24 29 be e2 dd ba bd a1 0b d2 3d ef 41 29 3e
       -0.16517787 -0.09124352 0.10256124 0.16529058
000360 9e 88 e8 bd 43 04 30 be bf d3 31 bd 97 8e 47 bd
       -0.11354183 -0.17189126 -0.043414827 -0.04871997
000370 be db af bd 61 da d1 3d 54 27 54 3c 2f 89 0b 3e
       -0.08586834 0.102467306 0.01294883 0.1362655
000380 dd dc 01 3e e9 6c 90 3c f1 ae 0f 3e 79 b7 2d bd
       0.12681909 0.017630057 0.14031579 -0.0424113
000390 11 06 77 3d f3 47 e5 bd be 48 39 3d 54 10 8d 3d
       0.06030852 -0.11195364 0.045235388 0.0688788
0003a0 09 73 36 be 3c bc 14 3e 54 09 fb 3d d0 97 e3 bd
       -0.1781732 0.1452493 0.122576386 -0.1111294
0003b0 a3 54 5e 3d 0b 3f 2a 3e 0c e1 72 bd 5c 06 8f 3b
       0.054279935 0.16625611 -0.059296653 0.004364772
0003c0 f0 ac 93 bc 19 3b d1 bd 20 91 b4 3d 1f d0 a1 bd
       -0.018026799 -0.1021635 0.08816743 -0.07901024
0003d0 7b bf 4c 3d 55 ed 0b 3d 68 e5 b0 3d e5 ed 2d 3e
       0.049987298 0.034161884 0.08637506 0.16985281
0003e0 a7 01 75 3d 0c 02 e1 bc 8a 3a 60 bd 83 e3 14 3e
       0.05981603 -0.027466796 -0.054743327 0.14539914
0003f0 1c 0b e2 3d ee 29 1e 3e 90 2a 97 bd 53 db d9 3d
       0.11037275 0.15445682 -0.07381165 0.10637536

egnn.layers.0.message_mlp.2.bias f4 [32]
000000 07 2b 66 3b 72 c1 db 3d 5a a3 9b 3c ae 46 28 3e
       0.003512086 0.10730256 0.01899879 0.16433212
000010 6a e6 bc bc 09 0b 27 be bf 8f 20 be f3 ce 9a bd
       -0.023059089 -0.16312803 -0.15679835 -0.07559004
000020 a1 e4 76 3d 67 56 c9 3d c1 80 a2 3d f9 0b 1c 3e
       0.06027663 0.09830933 0.07934714 0.15238942
000030 60 aa 30 be f5 11 94 3d c3 45 85 bc b1 df 08 be
       -0.17252493 0.072299875 -0.016268617 -0.13366581
000040 ee e4 2c 3d ef c4 2b 3e 78 88 46 3d 72 1b db 3d
       0.042210512 0.16774343 0.04846999 0.10698594
000050 eb db c7 3d 6c c7 ef bd 11 b8 30 be 34 9e 26 be
       0.09758743 -0.117079586 -0.17257716 -0.16271287
000060 10 a2 1a 3e 69 c8 05 be 8c ad 6b bd 48 18 17 3e
       0.15100884 -0.13064732 -0.057538554 0.14755356
000070 42 9c 1f 3e 61 04 03 be 5e 7e 97 3d 27 bd 98 bb
       0.15586951 -0.12794639 0.073971495 -0.0046612206

egnn.layers.0.coord_mlp.0.weight f4 [32, 32]
000000 15 e0 1b bd 5b bf 63 bb 1d 5b 1e 3c dd a0 2d be
       -0.0380555 -0.0034751508 0.009665278 -0.16955896
000010 9b 57 f6 bd 5e 33 ab 3d 91 e3 d8 3d d5 52 5e 3d
       -0.12028428 0.08359407 0.1059028 0.054278214
000020 cf ca dd bd d1 c3 8b bc c1 1a e7 3d 83 5d e2 bd
       -0.10829698 -0.017061146 0.112844 -0.11052992
000030 7a 0a 01 3e 0f d6 86 3d 8d d5 da bd bc 02 27 be
       0.12601653 0.06583797 -0.10685263 -0.16309637
000040 03 2c 9b 3d 76 72 39 3d ee 83 c5 bd 3e b9 0a be
       0.07576754 0.045275174 -0.09644304 -0.13547227
000050 a6 3c 1a 3d 13 b7 9b 3d 0c 06 8a bd 45 98 16 3e
       0.037655495 0.07603278 -0.067394346 0.14706524
000060 ab 57 fd 3d 63 03 e1 3d cc 3d 14 3e ed 57 ea bd
       0.12370237 0.10986974 0.14476699 -0.11442552
000070 f7 18 12 3e 79 db 1b be 37 d8 34 bd 96 04 04 be
       0.14267336 -0.15220441 -0.04415151 -0.12892374
000080 e5 c2 2f bd 50 7c 1e be 72 c4 19 be 05 aa e8 bd
       -0.042910475 -0.15477109 -0.15016344 -0.11360554
000090 1a c3 e8 3c c3 0d e5 bd ea 71 6e 3c d9 46 04 3d
       0.028413344 -0.111842655 0.014553526 0.032294128
0000a0 13 d8 1a be 1d 0c 0e 3e a8 0f 42 bd 31 5d f4 3d
       -0.15121488 0.13871808 -0.047378212 0.11931837
0000b0 78 a8 96 bb 12 78 e2 3d d4 f2 5a 3c c7 39 e3 bd
       -0.0045977198 0.11058058 0.013363559 -0.110950045
0000c0 39 2f 26 be 33 1c 03 be 3e e8 d0 bd fc cc f7 bd
       -0.16228952 -0.12803726 -0.10200547 -0.120996445
0000d0 83 25 30 3e 25 a8 f9 bd bf 0e 74 3c 16 7f f4 bd
       0.1720181 -0.12190274 0.014896094 -0.11938302
0000e0 ee 84 05 3e dc 09 1a bc 09 4e a2 bd 37 0e 91 3c
       0.1303899 -0.009401765 -0.0792504 0.017706973
0000f0 aa 0f bf bd c9 e7 b1 3d f1 0c d8 bb 57 6a f9 bd
       -0.093291596 0.08686788 -0.0065933396 -0.12178486
000100 a2 be 34 bd 7d e0 8f bb 4f a5 56 bc b4 ab 95 bd
       -0.044127114 -0.0043907748 -0.013100936 -0.073081404
000110 a1 37 0e 3d 28 84 36 3e 46 f9 ca bd 50 a5 95 bd
       0.03472102 0.17823851 -0.099108264 -0.073069215
000120 03 da df 3b 02 15 f7 3d ed 1f a8 bd a2 e1 0a be
       0.006831409 0.12064554 -0.08209214 -0.13562635
000130 58 92 2c 3e 91 dd 85 3d 79 2e 99 3d 2e 16 32 bd
       0.168527 0.06536401 0.07479567 -0.043478183
000140 f6 54 18 3e 82 06 92 3a 22 fd 6b 3d 99 ef 24 3e
       0.1487616 0.0011140855 0.057614453 0.16107024
000150 07 1f ef bd 76 68 f3 bd 1d 9a ed 3d 62 00 cf 3d
       -0.1167584 -0.11885159 0.116016604 0.10107495
000160 a9 54 8e ba e4 a3 9b bd fb bb 1e 3e 1e 61 15 be
       -0.0010858971 -0.07599619 0.15501396 -0.14587829
000170 31 3c d2 bc 7b b0 19 be 6f 8d 07 3e 4a 7a 09 3d
       -0.025663467 -0.15008728 0.13237546 0.03356389
000180 50 d8 53 bd cf 40 fb bd 23 72 13 bd 23 58 14 be
       -0.051719964 -0.12268221 -0.03599752 -0.14486746
000190 c9 d3 22 3e 28 5b b8 bd 54 34 a5 bb 16 66 b3 3c
       0.15901102 -0.09001762 -0.0050416384 0.021899264
0001a0 52 e5 d4 3d 1c 72 aa bc cc e0 f4 3c 01 94 67 bc
       0.10395302 -0.020806365 0.029892348 -0.014134408
0001b0 b3 62 ff 3b 43 c8 c4 3d a0 45 f1 3d 99 2a 4c bc
       0.0077937483 0.096085094 0.11780858 -0.012461328
0001c0 03 80 42 3d ea b8 2f bd 1b 31 8f 3d 1f 16 d5 3b
       0.047485363 -0.042900957 0.06991788 0.006502881
0001d0 d7 e3 48 bc c2 d0 0b 3c 52 4f 0f 3e e0 13 f6 3d
       -0.0122613525 0.008533658 0.13995102 0.120155096
0001e0 cc 05 12 bd aa c3 f8 3d 95 5e cc 3b 8a f6 8e bd
       -0.03565006 0.12146695 0.006236861 -0.06980617
0001f0 3a 62 ae bd e1 04 d3 3d 32 b7 85 bd 88 57 a4 bc
       -0.08514829 0.10303665 -0.06529082 -0.02006127
000200 5f 4c a7 bd a2 29 e2 bd 5b c3 fd 3d 77 52 15 3e
       -0.081688635 -0.11043097 0.12390777 0.14582239
000210 39 74 1e be 1b 42 20 3c b1 b1 0d 3e 76 2b fe 3d
       -0.15474023 0.009781386 0.13837315 0.12410633
000220 d8 43 4d 3d cb 84 6a 3d ee 7c 29 bd 30 04 ec 3c
       0.05011353 0.057255547 -0.041378908 0.02881059
000230 b0 83 d0 3d f2 a6 bd bd 3f 7a 27 bc de 5f 36 3e
       0.101813674 -0.09260358 -0.010222017 0.17810008
000240 38 3f f2 3d 29 77 ae 3d 25 18 ff 3c 61 75 13 3e
       0.11828464 0.08518822 0.031139443 0.14400245
000250 af 57 f7 bc d4 af 25 bd f0 8d 9b bd f0 69 b8 3d
       -0.030193178 -0.040450886 -0.07595432 0.09004581
000260 10 a5 0b be a6 9d fe 3c e1 ef 04 3d 74 93 d9 bd
       -0.13637185 0.031081032 0.03245533 -0.106238276
000270 3a 8a b2 3d b0 ef 2b bc 51 32 9b 3d d1 fd 8e bd
       0.08717771 -0.010494158 0.075779565 -0.069820054
000280 0b 19 2a 3d 3a e3 0a 3e d3 5f a4 3c 52 fb e0 bd
       0.04152779 0.13563243 0.020065224 -0.109854355
000290 ef 97 2d bd 61 8a 48 bd 02 4e c2 bb 38 94 5e bd
       -0.042381223 -0.048960093 -0.0059297094 -0.05434057
0002a0 52 1a 0d 3d 23 c8 8f bd 04 2c da 3c 9d c6 18 be
       0.03444893 -0.07020595 0.026632316 -0.14919515
0002b0 35 46 27 bd e6 e8 a6 3d 66 75 c9 3d fb 16 02 be
       -0.04083844 0.081498906 0.09836845 -0.12704079
0002c0 76 98 dc bd 32 9f 80 3c 2c b9 cf 3c 22 6f 3a bd
       -0.10771267 0.01570091 0.025356852 -0.04551614
0002d0 8b 66 e7 3d f7 ca bb bd b7 7b d8 bd 71 a7 0f 3e
       0.112988554 -0.09169572 -0.10570472 0.14028718
0002e0 7a dc bc bd 8e 50 18 bd 7a aa 0b be 75 3e af 3d
       -0.0922174 -0.037186198 -0.1363925 0.085568346
0002f0 c0 7f 3d bd 6f 02 b7 3d 73 e3 ac 3d 56 75 14 be
       -0.04626441 0.08936011 0.0844182 -0.14497885
000300 80 b1 fa bd 74 45 24 3e fa e2 22 be 36 2d f7 bd
       -0.12240887 0.1604212 -0.15906897 -0.1206917
000310 08 45 16 be 85 c8 0a 3e 72 ca 6f bc 93 eb 22 be
       -0.14674771 0.13553055 -0.014635669 -0.15910177
000320 35 a3 07 be d6 1a 16 3e 55 d6 ad bd fd 89 04 3e
       -0.13245852 0.14658675 -0.08488146 0.12943263
000330 81 7a 24 3e cb 41 5d 3d 8d d5 aa bd c7 60 35 3e
       0.16062357 0.054017823 -0.08341513 0.17712699
000340 9f 82 27 3e a7 f3 0b 3e 76 9f 6f bd 2c 4b 04 3e
       0.16358422 0.13667165 -0.058501683 0.12919301
000350 ff 7f d3 bd e3 46 b6 3d 90 94 45 3b 5b b1 17 3e
       -0.10327148 0.08900239 0.0030148365 0.1481375
000360 8e a6 1c 3d 61 e2 a4 3d 11 a9 f2 bd c4 81 f9 3d
       0.038244776 0.08050991 -0.11848653 0.12182954
000370 11 6c 0f bc 8e de 4e bc d0 1c d4 3c df d2 66 bd
       -0.008753792 -0.012626303 0.025892645 -0.056353446
000380 0d b3 27 be 5d 9c 26 be 81 4c 46 3d ad d9 94 bd
       -0.16376896 -0.16270585 0.048412804 -0.07268081
000390 7c de f9 bd 1b 7d 10 3e 46 5e 38 3e 7b 3b 37 be
       -0.12200639 0.14110224 0.18004712 -0.17893784
0003a0 e9 c6 ef bd 13 59 e0 bd 77 fc 78 3d 5c 8f b5 3d
       -0.11707861 -0.109544896 0.060787644 0.08865234
0003b0 49 bb b9 bd 5c a0 d3 bd 2d 6c ea 3d 5c 8b d6 bd
       -0.09068925 -0.103333205 0.11446414 -0.104757994
0003c0 fc 66 ad bd 19 88 2e 3e ba 53 70 3a 0b 4a 95 bd
       -0.08466908 0.17044105 0.00091677497 -0.07289513
0003d0 de 18 c1 3d 4d a6 1f be 44 11 2d 3e 12 4d c5 bd
       0.09428571 -0.15590782 0.16901118 -0.096338406
0003e0 1c d8 bd 3c dd 59 d4 bd 8d bd 00 3e 13 ff 86 3c
       0.023174338 -0.103687026 0.12572308 0.01647905
0003f0 a7 b2 1f be 8e a4 d5 bd 9d e2 e1 3d 86 c4 76 bd
       -0.15595494 -0.10431777 0.11029551 -0.060246013

egnn.layers.0.coord_mlp.0.bias f4 [32]
000000 1f 21 38 bd 95 e9 a5 bd 10 97 27 be d1 dc 06 3e
       -0.04495346 -0.08101193 -0.1636622 0.13170172
000010 f8 a8 e6 bd 18 95 0f 3e 2a a6 9a 3c 72 b7 9d bd
       -0.11262697 0.14021719 0.018878061 -0.07701005
000020 2b 71 d4 bd 07 5c 0c be 61 38 27 3e f9 63 5b bd
       -0.103731476 -0.1370698 0.163301 -0.05356214
000030 e1 42 e2 3c ac 82 00 bd 46 06 2f 3e 2e 3f 31 3e
       0.027619781 -0.03137462 0.17092237 0.17309257
000040 b1 8a e0 3c c3 30 c7 bd 49 e9 47 3d 62 76 2b be
       0.027409883 -0.097260974 0.048806462 -0.16744378
000050 01 5a 26 be 7b 4b 75 3c 92 5c cb 3b 72 2f fd 3d
       -0.16245271 0.014971609 0.0062061036 0.12362565
000060 ec 39 a3 bd 39 fe fd 3c 0b d2 c0 3d dc 96 29 be
       -0.07970032 0.031005012 0.094150625 -0.16561455
000070 a4 6c 80 3d f0 0b f6 bd 39 03 af 3d 40 cd d3 3d
       0.062707216 -0.12013996 0.085455365 0.10341883

egnn.layers.0.coord_mlp.2.weight f4 [1, 32]
000000 de 9e ae bb b6 a9 7c bb c8 0d 0a bc e2 b2 ef ba
       -0.005328997 -0.0038553304 -0.008426137 -0.0018287564
000010 83 1d 0d bc f8 14 1d 3c b8 8e 60 bc 87 84 28 bc
       -0.008612993 0.009587519 -0.013705902 -0.010285503
000020 2b 7c 2a bc 31 94 56 bc bd af f2 3b 7b 51 dd 3b
       -0.0104055805 -0.013096855 0.0074062035 0.006754098
000030 44 dd 4f 3c ae c9 ec 3b 40 b5 88 3b 4b 4d 03 3c
       0.012687031 0.0072261905 0.0041719973 0.008014034
000040 f2 50 42 bc 27 62 84 bc 3d 30 fe 3b d4 b0 f8 bb
       -0.011860119 -0.016160084 0.0077572153 -0.007589439
000050 e4 f5 82 bc 24 34 3d 3c 7a 9c 5d 3c 1c 3c 3c 3c
       -0.01598639 0.011548076 0.013526076 0.011488941
000060 d2 1c 14 3c 4e 5f 76 3c 64 8e 2c 3b 1a 17 0b bc
       0.009040074 0.015037371 0.0026329989 -0.008489395
000070 08 69 83 bc 8e 44 1b bc 53 91 92 3b 89 56 86 3b
       -0.016041294 -0.009476794 0.0044728904 0.0040996713

egnn.layers.0.hidden_mlp.0.weight f4 [32, 48]
000000 4a 0f 4b 3d 2a fc 08 3d e0 2f de bd 07 93 1c bd
       0.049575128 0.033443607 -0.10848975 -0.038226154
000010 19 23 02 3e bd 32 c0 3c f1 12 02 be 1c a2 9a bd
       0.12708701 0.023461694 -0.12702538 -0.07550451
000020 19 d3 90 bd f1 1d ad 3c ef 4a f6 bd d4 5f f2 3d
       -0.07071514 0.021132441 -0.12026011 0.11834684
000030 bf 7b bf 3d 2b 1d ad 3c 4e 88 fd bd ac 47 db 3b
       0.093497746 0.021132072 -0.12379514 0.0066918936
000040 e1 11 bf ba be 14 8f bd 8b fb ed bd 24 d4 1b be
       -0.0014577472 -0.06986378 -0.11620244 -0.15217644
000050 0f bb 6f 3d e3 4c 67 3c 0f a0 2b 3d 0d 72 fa 3d
       0.058528002 0.014117452 0.04190069 0.12228785
000060 1f 3c 53 bd 31 3d ee bd c7 7f 00 be 7d 8a 09 be
       -0.051571008 -0.11632765 -0.12548743 -0.13431735
000070 37 9c 92 3d 52 56 94 bd 61 98 be 3d 8d f0 8c bd
       0.07158702 -0.07243027 0.09306408 -0.06881819
000080 ba 68 96 3b de 2e 83 3d 55 75 5d 3d 07 86 09 3e
       0.004590121 0.064054236 0.054066975 0.13430034
000090 31 16 1e 3c 46 a7 76 bd 5f 0b 88 3c 37 94 41 bd
       0.0096488455 -0.060218118 0.016606985 -0.04726049
0000a0 24 eb e1 3d 72 c9 28 bd 2c 68 c0 bd df ec 2e bd
       0.11031178 -0.04120774 -0.09394869 -0.042706367
0000b0 a9 95 8c bd 1f bf fa 3d a4 8e 8d bd 0e 48 3c bd
       -0.06864483 0.12243485 -0.06911972 -0.045967154
0000c0 70 37 89 bd 5a 92 0e 3e cc 6a e5 bd c0 fb e0 3d
       -0.06700027 0.13923016 -0.112020105 0.109855175
0000d0 8d 2c 62 bd 81 bb bb 3d 95 2d 58 3d a7 ee ba bd
       -0.05521827 0.09166623 0.052777845 -0.091275506
0000e0 4c 8e 07 be ed 91 9e 3d e7 c5 ad bd f5 31 ce bd
       -0.13237876 0.07742677 -0.084850125 -0.10068122
0000f0 f5 fa 9f bd 7b 4a e9 bc 98 6c 79 bd a2 0d b9 3d
       -0.07811538 -0.028477898 -0.06089458 0.090358034
000100 85 e3 25 3c d1 03 a6 bd ac aa d7 bd be 76 64 3d
       0.010125046 -0.08106197 -0.105306 0.055777304
000110 61 1e 0f bd 93 8e 5b bd 21 83 17 3e b9 54 df bd
       -0.03494108 -0.053602766 0.14796115 -0.109048314
000120 0b bf 98 3d c2 34 73 bd 58 1b e1 3b 84 00 47 3d
       0.074583136 -0.059376486 0.0068697147 0.048584476
000130 09 c2 14 bd 54 6d c3 3c b2 88 83 bd 5e 37 27 bd
       -0.03631786 0.023855843 -0.06422557 -0.040824287
000140 28 bd cf bb 6b 65 cb 3d 00 c7 d1 3c cf 2f 42 bd
       -0.006339688 0.09931453 0.025607586 -0.047408875
000150 0f 39 4a bd 51 23 2d bc d9 4c 79 bd 7f 26 f8 bc
       -0.04937082 -0.010567502 -0.060864303 -0.030291794
000160 b7 1c bc 3d 44 7e 83 3d be 27 b3 3d 00 87 c5 bd
       0.091851644 0.06420568 0.087478146 -0.0964489
000170 14 a3 bb 3d af 76 91 3c e2 df e6 3d 0b 99 a5 3a
       0.09161964 0.017756788 0.11273171 0.0012634111
000180 78 67 e4 bd c2 14 74 3d b6 c5 b8 3c 7e b7 bf 3d
       -0.111525476 0.05959011 0.022555213 0.0936117
000190 d6 31 5b bd aa d4 8f bd 3f 8e fc bd f5 67 d2 3d
       -0.053514324 -0.07022984 -0.12331819 0.102737345
0001a0 38 94 dc bd 7d 4a 35 bd 00 f8 0a 3e 5b cd c5 bd
       -0.10770458 -0.04426049 0.13571167 -0.09658309
0001b0 a2 b4 c8 3d f3 b3 1e 3d 26 29 fc bd cc 01 bd 3d
       0.09800078 0.03874583 -0.12312536 0.09228858
0001c0 38 c1 9c bd 75 7a 86 3d e9 a0 cb bd 9c 3c 0a be
       -0.07654041 0.065663256 -0.099428006 -0.13499683
0001d0 df 7f 6f bd c2 42 89 bd 10 69 df 3d 89 cc d4 bc
       -0.058471557 -0.06702186 0.10908711 -0.025976436
0001e0 7a ac 10 3e e8 14 6b 3b 41 94 57 3d 01 80 ec 3d
       0.14128295 0.0035870615 0.05263162 0.11547852
0001f0 67 c4 9b 3d b8 f8 3d 3d 45 89 29 3d c1 05 2a 3c
       0.0760582 0.046379775 0.041390676 0.010377348
000200 b5 0e 72 3c 4b af 08 3e f7 b1 ae bd 72 b2 be 3d
       0.014774014 0.13348119 -0.08530038 0.093113795
000210 80 64 6d 3d 51 47 7d bd bd 7c b9 bd 1f cf 76 bd
       0.057957172 -0.06183559 -0.09056995 -0.06025612
000220 b3 0e e1 3d 59 bc 08 be 56 0d f5 3c 36 bc 01 3e
       0.10989132 -0.13353099 0.029913586 0.12669453
000230 f3 9e de bd bc c5 16 be 15 2e 0b be e7 8c ab bd
       -0.10870161 -0.14723867 -0.13591798 -0.08376484
000240 c0 81 b3 3d 88 de c9 3d 77 4a 53 bd 09 b1 e5 bd
       0.08764982 0.098568976 -0.051584687 -0.112154074
000250 ac 7c 82 3d 57 de a5 bd 69 43 03 3e 02 9a 4e ba
       0.063714355 -0.080990486 0.12818684 -0.00078812253
000260 9c 01 87 3d 27 ce 6d 3c c1 8e d5 bd 18 0f c3 bd
       0.06592104 0.014514483 -0.10427619 -0.09524363
000270 e1 b2 83 3d ca db a6 bd 91 c7 bd bd c9 2b 8e 3d
       0.06430603 -0.0814739 -0.0926658 0.06941945
000280 e1 d2 09 3e 78 65 a1 bd 0c 6c a6 3d af 9d c1 bc
       0.1345935 -0.07880682 0.08126077 -0.02363476
000290 22 15 8e bd d1 97 09 3e ba 4b b1 3d 33 26 24 3d
       -0.069376245 0.1343682 0.08657022 0.040075492
0002a0 5f 1b ac bd dd 78 98 bd 0f 5b b6 3d d0 a9 25 3c
       -0.08403658 -0.07444928 0.08904087 0.010111287
0002b0 06 2a 0d be 11 8d 43 bd fd 7a 51 3c 55 fe 4b 3d
       -0.13785562 -0.047741953 0.01278567 0.049803097
0002c0 be a2 8b bd 48 fd c8 3d a1 5f f3 bd 2e 78 cd 3d
       -0.0681815 0.098139346 -0.11883474 0.10032688
0002d0 0d 41 aa bd fc 51 f7 bd c9 10 d8 3d 28 2b e7 bc
       -0.08313189 -0.12076184 0.105500765 -0.02821882
0002e0 7b f3 dd 3d b1 14 0e be db 43 60 3d 6e 3c 88 3d
       0.10837456 -0.1387508 0.054752212 0.06652151
0002f0 6c 47 97 3d 2c 23 67 bd 62 03 a2 3b 54 9c 90 bc
       0.073866695 -0.056430027 0.004944251 -0.017652668
000300 75 50 d8 bd c8 46 7d bd 03 03 d7 bd 8d 22 9e 3d
       -0.10562221 -0.06183508 -0.10498621 0.07721434
000310 2d ed fa 3c c0 0f 4c 3d 63 b8 10 be 8e 61 7c 3d
       0.030630672 0.049819708 -0.14132838 0.061616473
000320 ee 5a 96 bd 54 7f d1 bd 75 15 df bd b7 bc fa 3d
       -0.07341562 -0.10229364 -0.108927645 0.12243026
000330 25 f4 ad bd 79 5a c6 3d e8 8e aa bd bd c0 76 3d
       -0.084938325 0.09685225 -0.083280385 0.060242403
000340 ab f3 1f 3d 8b e0 e9 bd 6a 79 ba bd 7c 53 9f 3b
       0.03905074 -0.11419781 -0.09105189 0.004862247
000350 11 af df bc c5 5d ea 3d 0d ab 01 be 8c 64 3a 3d
       -0.027305158 0.11443666 -0.12662907 0.045506045
000360 10 96 8f bc e9 8d a8 bd 8c ee fa bd 06 e1 00 bc
       -0.01752761 -0.08230192 -0.122525305 -0.00786615
000370 6c 53 be 3c 86 c8 97 bd f5 66 ea 3d 10 0a e9 3d
       0.023233138 -0.07411294 0.11445419 0.113788724
000380 d1 6b 00 be 8e 53 b3 bd 35 bc 6a 3d ef 62 bf 3d
       -0.12541129 -0.08756171 0.057308394 0.09345042
000390 b6 36 b6 bd 83 50 be 3d 6f ad e8 bd e8 47 93 bd
       -0.08897154 0.092927 -0.11361205 -0.071914494
0003a0 c1 45 08 3d 69 c4 83 3d 04 cd 94 3c 31 4d 81 bc
       0.033269648 0.06433947 0.018164165 -0.015783878
0003b0 a7 79 5d 3d 93 4b cc bd 1f 78 5d 3d cd 0e 11 3e
       0.054071095 -0.09975352 0.054069635 0.14165802
0003c0 b6 99 c0 bc 83 e2 ae bb 9e 8a c7 3d d0 c1 87 3c
       -0.023510795 -0.005337061 0.09743236 0.01657191
0003d0 61 09 f4 bc 77 62 f4 3d ba 37 a1 bd b5 a0 b9 3d
       -0.029789628 0.11932843 -0.07871957 0.090638556
0003e0 c5 e5 ab 3d 22 07 e4 bd 7b 82 01 bd 12 9d 46 3d
       0.083934344 -0.11134173 -0.031618576 0.048489638
0003f0 73 15 60 3c a7 2b a0 3c e4 04 ec 3d 33 31 cf 3d
       0.013676989 0.019552065 0.1152437 0.10116806

egnn.layers.0.hidden_mlp.0.bias f4 [32]
000000 19 5a 7a 3d f2 b4 bf bb 46 17 00 3d c3 60 bf bd
       0.06112108 -0.005850428 0.031272195 -0.09344628
000010 8d 51 35 3d 97 2c 7c bb 76 80 8d bd c4 c1 dd bd
       0.044267226 -0.0038478726 -0.069092676 -0.108279735
000020 74 70 35 3d ef be a9 bd d0 78 db 3c d7 0c 10 be
       0.044296697 -0.08288371 0.026791006 -0.14067398
000030 df 11 89 3d 7e b6 88 3d 67 42 e1 3a 49 67 e5 bb
       0.06692862 0.066754326 0.0017185927 -0.007000838
000040 c4 67 0a 3e bf a8 32 3d ba 9c c0 bd dd 67 78 bd
       0.13516146 0.04361796 -0.09404893 -0.060645927
000050 38 1f 68 bd 2e b4 b3 bd 90 ec cd bd 09 50 b5 bb
       -0.056670398 -0.08774601 -0.10054886 -0.0055332226
000060 f9 a1 c0 bd 1c 61 3f bc 9c 78 18 3d 40 02 95 bd
       -0.09405894 -0.0116808675 0.037224397 -0.0727582
000070 f6 03 69 bd 7e 90 0b be c8 e1 2e 3d 22 3f fe 3c
       -0.056888543 -0.13629338 0.04269579 0.031035963

egnn.layers.0.hidden_mlp.2.weight f4 [16, 32]
000000 cc c3 09 be 27 ab d8 bd 42 08 f8 bc c8 50 aa 3a
       -0.13453597 -0.1057952 -0.030277375 0.0012994045
000010 1a c5 34 3c 10 b0 1f 3e b6 7b 24 be 9c 1a 94 3d
       0.011033321 0.15594506 -0.16062817 0.07231638
000020 87 73 0c 3e 6c 28 23 3e 0c 78 00 3d 33 46 20 3e
       0.13715945 0.15933388 0.031364486 0.15651779
000030 23 0d bd bd 1c 4a 00 be 35 61 28 bd f7 ef b8 bd
       -0.09231021 -0.1252827 -0.04110833 -0.09030145
000040 f2 c4 a8 3d b9 29 41 bd 0a c8 b3 3d 1b c7 7b bd
       0.08240689 -0.04715893 0.08778389 -0.06146918
000050 b6 7b 9e bd 41 44 59 bd 4a 2b 95 bc d1 31 aa bd
       -0.0773844 -0.053043608 -0.018209118 -0.08310283
000060 3e 94 cd 3d 97 2d e8 3d 39 73 0c 3d 38 69 2d be
       0.100380406 0.113368206 0.034289572 -0.16934669
000070 2e 28 13 3e 32 fb 02 be 90 e4 f9 bd cb 76 b9 3d
       0.14370796 -0.12791136 -0.12201798 0.09055861
000080 67 9c d2 bd 7a 09 0c be ff c5 08 be 62 81 18 3e
       -0.10283738 -0.1367549 -0.1335678 0.14893106
000090 2b 01 50 3d d5 01 b1 3d cf 2a 10 3d 18 28 a6 3d
       0.050782364 0.086429276 0.035197075 0.08113116
0000a0 27 48 35 3e ee e1 dc bc 24 21 e4 bd aa 6e 17 bd
       0.17703305 -0.0269632 -0.111391336 -0.03697077
0000b0 4b 2c 85 bd c7 3d 2c be 64 86 08 be cd 45 7b bd
       -0.06502589 -0.16820441 -0.13332516 -0.061345864
0000c0 9a 1d 0b 3d d7 94 b7 3d 1d 63 ed 3d ee eb 32 be
       0.033963777 0.08963936 0.1159117 -0.17472813
0000d0 a5 9d 6a bc 00 dc 0a bd 94 35 19 3e a1 c3 3d bd
       -0.014319812 -0.033901215 0.14961845 -0.046329144
0000e0 10 15 3b 3e 5d da 29 3d 96 4a c8 3c 4a 0e 9e 3d
       0.18269753 0.041468013 0.024449628 0.07717569
0000f0 d8 f4 08 3e 83 bb c1 bd f1 1b 99 3d 2a 76 8b bd
       0.1337465 -0.09459593 0.074760325 -0.068096474
000100 76 a8 3a 3d b1 ab d6 3d 23 4e a2 bd 38 39 3e bd
       0.045570813 0.10481966 -0.0792506 -0.046441287
000110 4a ee 26 3e 8b e7 29 be 0f 91 e9 bc 17 05 16 3e
       0.16301838 -0.16592233 -0.028511552 0.14650379
000120 99 17 1a 3d fd 9e 13 be cd 16 06 3c 8a 6f 12 be
       0.03762016 -0.14416118 0.008184147 -0.14300361
000130 ec d1 87 bd d6 9e 16 3d 3c 24 c5 3d 25 5b ca bd
       -0.06631836 0.03677257 0.09626052 -0.09880666
000140 21 c5 1d 3e a3 ef ff bd d2 4b 12 bd fe b0 1b be
       0.1540723 -0.12496879 -0.03571684 -0.15204236
000150 cc 16 a7 bb c2 a9 af bb 71 ab 98 3d 52 96 f4 bd
       -0.005099153 -0.005360813 0.07454575 -0.11942734
000160 b5 98 f4 3b 7a ec 66 3d 95 84 e4 bd 0f 26 1e 3e
       0.007464493 0.056377865 -0.111581005 0.15444206
000170 d8 76 12 bd 15 ef 38 be 20 8d fe bc 99 b2 29 3d
       -0.03575787 -0.18059953 -0.031073153 0.04143009
000180 14 5a b8 bd e1 4b 8b bd f5 e8 9e 3d ce 0c 09 bd
       -0.09001556 -0.06801582 0.07759277 -0.033459477
000190 5c 15 85 3d dd e3 43 3c 88 9c 38 bb b2 cb 16 3e
       0.064982146 0.011956182 -0.0028169472 0.14726141
0001a0 55 28 f2 bc 83 d7 11 3e b9 2b 7e bd 39 11 e9 3d
       -0.029560247 0.14242367 -0.062053416 0.11380238
0001b0 5d 8a bc 3d 5d 76 e7 bd be c4 2f bd 19 3a f2 bd
       0.09206078 -0.11301873 -0.042912237 -0.118274875
0001c0 4d 0d 14 3d 49 0a ca 3b 6e b3 6e bd 4d df 1a 3e
       0.036145497 0.006165777 -0.058276586 0.15124245
0001d0 94 3c 2d 3e 4e ea 01 be ad fa c4 bd d6 0c 87 3c
       0.1691764 -0.12687036 -0.09618125 0.016485613
0001e0 7f 5a e1 3d 04 bc da bd 4c c7 81 bc 8c ee ff bc
       0.11003589 -0.106803924 -0.015842102 -0.031241678
0001f0 c7 4f 12 be 19 53 38 bc 5b ae d2 bb 44 06 32 3d
       -0.14288245 -0.011250281 -0.006429476 0.043463007
000200 7a e2 01 3e a2 e9 fc bb 06 3d 02 3e 44 fe 81 bd
       0.1268405 -0.007718281 0.12718591 -0.063473254
000210 a5 53 ec bd 62 45 8e 3d 51 19 f6 3d 4c 72 fa bb
       -0.115393914 0.069468275 0.120165475 -0.00764302
000220 21 cf f4 bd 8a bd af bd 29 12 c2 bd 80 50 28 3d
       -0.11953569 -0.085810736 -0.0947612 0.041092396
000230 02 d5 45 3d 4e 03 23 be 6e 53 fc bc 79 ab 28 3d
       0.048298843 -0.1591923 -0.030801501 0.041179154
000240 25 1c 99 bd e8 8a 32 3e 14 ba 13 3e 44 80 ae bd
       -0.07476071 0.17435801 0.14426452 -0.085205585
000250 7f 99 89 3c 69 ca fa bc 6c 0f 1b be e4 90 71 3c
       0.016796825 -0.030614095 -0.15142602 0.014744017
000260 e1 89 02 3e 72 77 d3 3d f1 9e b6 3d 13 f2 6a bd
       0.12747909 0.10325517 0.089170344 -0.057359766
000270 0c 46 c9 bd 3f 5d 18 be 64 50 22 be 2f bf 0c 3c
       -0.098278135 -0.1487932 -0.15850979 0.008590504
000280 e4 b5 04 3e 55 65 32 3d 1c e1 0f bd ed c3 97 3c
       0.12960011 0.04355367 -0.03512679 0.018526042
000290 5c 47 29 3d 77 ba 99 bd 65 cb e5 3d b1 ed 98 3d
       0.04132782 -0.075062685 0.11220435 0.07467211
0002a0 93 9e 4e bd 0a 9e 84 bc 89 81 20 be d1 63 ac 3d
       -0.050444197 -0.01618864 -0.15674414 0.08417476
0002b0 e1 1e e1 3c 06 75 04 3e 28 ed 73 3d ce 20 18 be
       0.027480545 0.12935266 0.05955234 -0.14856264
0002c0 f6 4b 3a bd 62 5f ca 3d eb dd 19 3e 49 09 56 3d
       -0.0454826 0.09881474 0.15026061 0.05225495
0002d0 3e 77 15 3e 95 ba 34 3e 11 e8 6d bd 0b 64 f7 3c
       0.14596269 0.176493 -0.058082644 0.030199071
0002e0 bc 16 20 3e 5e e1 a5 bc 40 6a c7 bd 66 00 02 be
       0.15633672 -0.020249065 -0.097370625 -0.12695464
0002f0 b9 d4 90 bd c0 66 3d be 1c ca a2 bd 51 e6 b2 3d
       -0.070718236 -0.18496227 -0.079487056 0.087353356
000300 c8 8a 12 3e dc a2 ee 3c 2d 15 96 bd 95 33 e0 bd
       0.14310753 0.029130392 -0.07328258 -0.109473385
000310 5d 90 0e be 29 45 01 3d 92 d3 22 3e 5f cb f1 bd
       -0.13922258 0.031560097 0.1590102 -0.11806368
000320 a3 d3 34 3e 98 5d a7 bd 66 c2 f1 bd 13 f6 c2 3d
       0.17658858 -0.081721485 -0.11804657 0.09519591
000330 1e 38 dd bd f1 31 20 3e c8 58 22 be 2a d8 de 3d
       -0.10801719 0.15644051 -0.1585418 0.10881074
000340 89 0f 20 3e 56 1d 64 bd 88 16 ce bd 50 ad 6f bd
       0.15630926 -0.05569204 -0.10062891 -0.058514893
000350 f1 69 17 3e 54 8a 03 be 90 0a 1d 3e b6 87 26 3e
       0.14786507 -0.12845737 0.1533606 0.16262707
000360 62 94 94 bd e6 f7 0f 3e 11 31 15 3b bd ef 17 3d
       -0.07254864 0.1405941 0.0022764842 0.037093867
000370 1a 4a 2e 37 53 49 20 3d e1 ee 23 3e 5b 79 11 3d
       1.0388461e-05 0.039132427 0.16009094 0.035516124
000380 2a c8 91 3c cd 40 d0 bd 9f 14 f8 3d d6 bf 7a bd
       0.017795641 -0.1016861 0.12113308 -0.061218105
000390 c7 26 0f be c2 e1 2a be 93 df 27 3e 8e d5 8b 3d
       -0.13979636 -0.16687682 0.1639388 0.06827842
0003a0 df d5 95 bd 60 f0 e1 bd 3b 9e 83 3b 94 66 00 bd
       -0.07316183 -0.11032176 0.0040166653 -0.031347826
0003b0 6a 59 42 b9 1c 24 0d 3e 9b 01 b7 bd 6e 62 fd 3c
       -0.00018534591 0.13783306 -0.08935853 0.030930724
0003c0 5d e6 c0 3d fd a1 0b 3e de 29 09 3d 0b c9 e7 bd
       0.09418938 0.13636012 0.033487193 -0.11317643
0003d0 70 17 1a bd 2e 6c c7 bc a3 8b 45 bd c1 91 29 be
       -0.037620008 -0.024343576 -0.04822887 -0.16559507
0003e0 46 0f d9 bb a0 7d 1e 3e 48 f7 a2 bd ca 26 91 bd
       -0.006624135 0.1547761 -0.079573214 -0.070874766
0003f0 35 8a ed bd d2 1f 24 3d a0 db db bd 49 35 a9 3c
       -0.115986265 0.04006941 -0.107352495 0.020655291

egnn.layers.0.hidden_mlp.2.bias f4 [16]
000000 ba 1b 34 3c 7d 7d fd bd 62 11 04 3e be 64 87 39
       0.010992939 -0.123774506 0.12897256 0.00025824265
000010 5c 22 cf bd fa d3 8c 3d 21 43 e7 bd ac 5b a7 39
       -0.101139754 0.06876369 -0.11292101 0.00031921023
000020 60 5a c6 bd 6a 89 aa 3b 02 de 2d 3c dc 0f f3 3d
       -0.096852064 0.0052043693 0.010612013 0.11868259
000030 ae 31 3f bd bf 24 a3 3d 49 31 9f b6 df bb af 3d
       -0.046678238 0.07965993 -4.744307e-06 0.085807554
