2-egnca-rework/logs/line4-2024-10-05@23-20-03/best@88.pt (torch, 25525 bytes, 11 tensors)

egnn.layers.0.message_mlp.0.weight f4 [32, 33]
000000 88 a8 6e 3d 3b 80 c4 3d fc 4f c8 bb 04 91 cb 3d
       0.058266193 0.095947705 -0.0061130505 0.09939769
000010 71 db 55 bd 10 a9 f7 3c 60 ed 37 bd c5 cf 4c bc
       -0.05221123 0.030231982 -0.044904113 -0.012500708
000020 e5 30 21 bd f8 5d e7 3c c4 3c 0a 3e 44 6c 0d 3e
       -0.03935327 0.02824305 0.13499743 0.13810831
000030 05 1c ec bc c4 b2 6f bd b2 1b d9 bc b9 08 1a 3e
       -0.028821955 -0.058520094 -0.026502464 0.1504239
000040 a9 10 17 3e ef ed 44 bd ba 2b 6d bd 86 86 30 bd
       0.14752449 -0.048078474 -0.05790303 -0.04309704
000050 a7 e7 f7 3d f7 cf 10 3e fc d8 fd bd 23 5e 76 bd
       0.12104731 0.14141832 -0.12394902 -0.06014837
000060 1d d5 1d be 47 39 31 3e ee 51 eb 3c 03 57 56 3d
       -0.15413328 0.17307006 0.02872559 0.052329075
000070 fe fd bf 3d bd 42 2a 3d c7 df 15 bd 03 82 2c be
       0.09374617 0.041567553 -0.036590364 -0.1684647
000080 4d 60 39 3d fd 7c f2 bc 4e 11 2e be 7d ec c3 bc
       0.045257855 -0.029600615 -0.16998789 -0.023916477
000090 43 1c c4 bd e7 ce c4 bd 31 75 02 be b9 d3 13 be
       -0.09575703 -0.09609776 -0.12740017 -0.14436235
0000a0 26 4d 48 bc 67 e8 b5 3c 4f e9 1e be 6d 23 25 be
       -0.012225425 0.022205545 -0.15518688 -0.16126795
0000b0 a2 6a 1c 3b 30 53 26 be 23 54 ab 3d 89 21 32 bd
       0.002386727 -0.16242671 0.08365657 -0.043489013
0000c0 ff fb d0 bc 52 55 25 be c5 65 fe bd 72 03 81 3d
       -0.025510786 -0.16145828 -0.12421755 0.06299485
0000d0 ce 72 c4 bd 50 53 8d bd 4b 77 20 be c7 12 91 3a
       -0.0959221 -0.06900656 -0.15670507 0.0011068218
0000e0 f3 bf df bd 64 bc 3c 3d 8e 43 62 3d b2 04 18 3d
       -0.10925283 0.0460781 0.055240206 0.037113853
0000f0 8f 2e 7f 3d d0 61 f8 bd 19 02 89 3c 92 e8 1b be
       0.06230026 -0.12128031 0.016724633 -0.15225437
000100 8c f6 f8 bd 12 3f 12 3e 42 47 fb 3d 3b fe ff bd
       -0.121564 0.14281872 0.12269451 -0.124996625
000110 1d 42 c7 3d 3e bf 0f be aa fd c7 3c e4 3d 22 3e
       0.09729407 -0.14037797 0.024412949 0.15843922
000120 0e 69 2f 3c ec 73 8c 3d 86 9b 1f 3e cd f1 88 bd
       0.010706199 0.06858048 0.15586671 -0.06686745
000130 4c c5 04 3e b0 f6 cb 3c 3f ad 1f bd db f2 1e be
       0.12965888 0.024897903 -0.03898358 -0.1552233
000140 46 02 2b 3e 87 fa 31 3e fe 19 96 bd 3e 1f 26 3d
       0.16700086 0.17380725 -0.07329176 0.04055714
000150 4e 07 37 be 75 51 00 3d 23 61 c7 3d 50 9e 9c 3c
       -0.1787388 0.031327683 0.09735324 0.019118458
000160 37 a3 c5 bd 78 59 23 3e a3 82 c4 bd 36 72 bb 3c
       -0.096502714 0.15952098 -0.095952295 0.022881608
000170 6c 6f 25 be b4 b2 95 3d f5 40 f3 3d f0 b0 0e 3d
       -0.16155785 0.073094755 0.11877624 0.03483671
000180 00 60 08 3e 11 33 33 be 16 45 cf bd 2b 08 39 3d
       0.13317871 -0.17499949 -0.10120599 0.045173805
000190 07 ee b2 3d e6 5f 2c bd a4 a6 4e 3d dd 2e 2e be
       0.08736806 -0.042083643 0.05045189 -0.17010064
0001a0 6f dd 2e 3e f8 70 0c be 9a d7 24 be 15 ef 04 be
       0.17076658 -0.13714969 -0.1609787 -0.12981828
0001b0 ce f5 30 3e a2 eb 35 3d a2 22 6f bc d9 e7 12 3d
       0.17281267 0.04441417 -0.014595659 0.03586564
0001c0 c2 6f f4 b9 59 05 fb bd 79 85 e3 3d 01 7e 13 be
       -0.00046622573 -0.12256879 0.11109442 -0.14403535
0001d0 ba e0 33 bd 69 c8 a5 3c f1 75 d7 bd e0 f0 25 3d
       -0.043915488 0.020237165 -0.105205424 0.04051292
0001e0 fd ed 1f be ce aa ae bd 7c fd 1b 3e bf b1 52 3d
       -0.15618129 -0.08528672 0.15233415 0.051439043
0001f0 d0 23 11 be 6e 7b 29 3e a5 1b 44 bd 61 d3 01 3d
       -0.14173818 0.16550991 -0.047877926 0.031695727
000200 4e 6c 16 bd 01 90 d1 bd f4 41 05 3d a4 97 15 bd
       -0.03672438 -0.10232545 0.0325336 -0.03652157
000210 e3 fc bd bd 4c 66 c4 3d b8 4c ab 3d 7b 9e e7 3d
       -0.0927675 0.09589824 0.08364242 0.113095246
000220 57 ef da bc f9 8b f1 bc bc b9 39 3c ba 68 1c 3e
       -0.026725454 -0.02948569 0.011335786 0.15274325
000230 40 9c 1d be f5 89 23 bc 93 df 79 3c 28 9e ab 3d
       -0.15391636 -0.009981622 0.015251058 0.08379775
000240 34 72 2f be 53 63 40 be a5 5a e1 bb 73 0d 5d 3d
       -0.17133409 -0.18787889 -0.0068772607 0.053967904
000250 cd 8e 97 bd 59 0b 09 3e a7 f8 03 3d ca fd 76 bd
       -0.07400284 0.13383235 0.032219555 -0.060300626
000260 ed 37 7e bd 1d df 11 be 58 38 bc 3d 26 d8 0a bd
       -0.062065054 -0.14245267 0.09190434 -0.03389754
000270 6a 13 b5 3d b2 47 3c be 69 1c 01 3e 46 70 62 3d
       0.088415936 -0.18386725 0.12608494 0.055282854
000280 73 d4 e1 bd 32 f3 c2 bd 32 03 fe 3d cc 05 a4 3d
       -0.110268496 -0.09519042 0.12402953 0.08008918
000290 59 0d ab 3d ae 8a 15 3d 59 c0 b8 bd 75 15 e8 bd
       0.08352155 0.03650921 -0.090210624 -0.113322176
0002a0 5d 32 45 bd db 20 50 bd 05 9e d3 bc db 03 3d bd
       -0.048143733 -0.050812583 -0.025832186 -0.046146255
0002b0 89 28 10 be b9 d4 24 be d0 00 00 be 45 d9 b8 3d
       -0.14077963 -0.16096772 -0.1250031 0.09025816
0002c0 8d de e5 bd a3 a1 09 be a0 56 97 bd 14 78 5e 3d
       -0.11224089 -0.13440566 -0.07389569 0.054313734
0002d0 46 74 55 bd 77 1f 36 3b 93 23 99 3c 92 2c f9 bd
       -0.05211284 0.002778975 0.01869372 -0.12166704
0002e0 c1 72 4b bd 65 8c 58 bd bd 14 11 bc d7 03 ec bd
       -0.049669985 -0.052868266 -0.008855042 -0.1152417
0002f0 29 04 08 bd 87 3b 7b 3c c6 1b 60 3d 63 4e e4 bd
       -0.033207092 0.015334017 0.054713987 -0.111477636
000300 87 c8 1c 3e bd e7 35 3d f7 31 0d be 72 d4 24 3e
       0.1531087 0.044410456 -0.13788591 0.16096666
000310 b8 eb e2 bd 76 31 c3 b9 99 3c 07 3e 27 90 30 bd
       -0.11080116 -0.0003723015 0.1320671 -0.043106224
000320 4c 3f 36 3d c4 ba a7 3d 42 e0 76 bd 4b 5c 9e 3c
       0.04449396 0.081899196 -0.060272463 0.019331118
000330 7e 1b 02 3e 5d a8 aa b9 60 ba 44 bd 58 a3 02 3e
       0.127058 -0.00032550367 -0.048029304 0.12757623
000340 2c d3 10 3d 7f 63 e9 bd b5 fa af 3d ff 41 10 3e
       0.03535764 -0.113959305 0.085927404 0.14087676
000350 2d 0a 4f 3c f6 a8 15 3e 5c 16 df bd 07 0d 2b 3e
       0.012636703 0.14615235 -0.108929366 0.16704188
000360 27 10 cf 3d 1a dc 00 bc ba 99 23 be a4 6d 2d 3e
       0.10110503 -0.007864976 -0.15976611 0.16936356
000370 46 cd 23 bc cd 4d ad 3d fc 0b c0 bd 38 46 6f 3d
       -0.0099976715 0.08462105 -0.09377286 0.058416575
000380 e7 7f d6 bc b4 cf 31 3d 9d 61 81 3d d4 1a ee bd
       -0.026184035 0.04341097 0.063174464 -0.11626211
000390 f6 b5 04 be 3d e7 f2 bb 98 88 37 bd ab ce e9 3d
       -0.12960038 -0.0074128197 -0.044808 0.11416372
0003a0 eb ed 9a bd af 52 2b 3d 4e 40 23 be a0 8a ac 3d
       -0.075649105 0.0418269 -0.15942499 0.08424878
0003b0 45 aa df 3d 4e 1e d1 3c 90 68 be 3c 0d 90 cb 3c
       0.10921148 0.025527146 0.023243219 0.024848962
0003c0 24 62 f8 bb 37 5f 13 bd 90 aa 04 3e 39 19 5c bd
       -0.0075800586 -0.035979476 0.1295569 -0.05373499
0003d0 3b ed b2 bc fc 6e 8e bc 01 ad d1 bd 52 02 0a be
       -0.021841636 -0.017386906 -0.10238076 -0.13477448
0003e0 6b 69 d6 bd 46 56 fb bc ad 31 07 be 4a 5f 65 3d
       -0.10469326 -0.030680787 -0.13202544 0.055999078
0003f0 b0 b8 01 be 61 01 42 bd 41 62 93 bd 4b 73 af bd
       -0.12668109 -0.047364596 -0.07196475 -0.08566912

egnn.layers.0.message_mlp.0.bias f4 [32]
000000 b4 8f 0c bd e3 ff 89 bc d6 c5 4d 3d a3 13 1f be
       -0.034316733 -0.01684565 0.0502375 -0.15534835
000010 8d 79 71 3d 67 95 1a be 00 b1 18 bd 78 f5 12 be
       0.05895381 -0.15096055 -0.037278175 -0.14351451
000020 62 a7 18 be f0 de bc bd ed b2 00 3e 25 e3 24 be
       -0.14907601 -0.092222095 0.12568255 -0.16102274
000030 cd 51 9e 3d db 9c 5d bc 2a ab 11 be c6 77 44 3d
       0.07730446 -0.013526167 -0.1422545 0.047965787
000040 9c 45 c1 bd fd 5f d2 bd 56 8c 14 3d a1 88 00 be
       -0.09437105 -0.102722146 0.036266647 -0.1255212
000050 7e 0f 16 3c 07 4b 73 3d e9 da 4c 3d 90 6e c0 3d
       0.009158967 0.059397724 0.050013456 0.09396088
000060 d2 8a 12 be 20 b8 69 3d 50 7e db 3d 42 42 26 be
       -0.14310768 0.05706036 0.107174516 -0.16236213
000070 d2 9c 8b 3d 4a 49 4d 3c 69 72 7f 3d b6 04 2b be
       0.068170205 0.0125296805 0.06236497 -0.16701016

egnn.layers.0.message_mlp.2.weight f4 [32, 32]
000000 32 42 e7 3d a7 b7 1f be 78 40 a4 3d 13 50 25 3e
       0.11291923 -0.15597402 0.08020109 0.16143827
000010 d5 29 10 bd fc dd a8 3d 0d 7e 9f bc f4 9a c7 3d
       -0.035196144 0.08245465 -0.019469285 0.09746352
000020 97 0e 25 be 07 27 ba ba ac 3c 3f 3e d0 2e 31 bd
       -0.16118847 -0.0014202305 0.18675488 -0.043257535
000030 2b 5e 0e be e1 c7 0f be e9 59 20 3d 46 48 1f 3e
       -0.1390311 -0.14041092 0.039148245 0.15554914
000040 78 26 30 be 5b 9b e8 3d c5 93 09 be 49 00 9a 3d
       -0.17202175 0.11357757 -0.13435276 0.07519586
000050 98 26 11 3d 3e c8 61 3d 97 e4 1c be f9 73 2d 3e
       0.035437196 0.055122606 -0.15321575 0.16938771
000060 46 3e 1f 3d 37 0c 44 bc d4 7d 06 be 48 a5 db 3d
       0.038877748 -0.011965803 -0.13133937 0.10724884
000070 4b 02 27 3e ad e0 94 3d 3a d3 a0 bc a0 40 30 bd
       0.16309468 0.07269416 -0.01963197 -0.04303038
000080 04 94 3a be 95 70 f1 3d e1 fe d5 bc d0 cf 1f be
       -0.18220526 0.117890514 -0.026122512 -0.15606618
000090 5e e0 2e ba 8f ea 0d 3d 4a 30 e2 3d b2 49 71 3d
       -0.00066710066 0.03464752 0.11044367 0.058908172
0000a0 75 77 ed bd 6d c2 38 bd 2e f6 2e be 63 02 ab 3d
       -0.1159505 -0.045107294 -0.17086098 0.083500646
0000b0 ac f1 a9 3d 04 c6 d4 bd 3c 35 31 3d 68 50 f3 3d
       0.082980484 -0.10389331 0.04326366 0.11880571
0000c0 ee 81 22 3e b5 d8 f4 3d 76 5e 8a 3d 14 97 23 3d
       0.15869877 0.11955396 0.06756298 0.039939
0000d0 b1 80 82 3d bc f8 25 3e 41 b3 e5 3d 57 4d e3 3c
       0.06372202 0.16208166 0.112158306 0.02774684
0000e0 90 d6 aa 3c 73 ce f0 3d 48 78 33 3e fd ab e8 bd
       0.020854264 0.11758127 0.17526352 -0.11360929
0000f0 2e d7 ac bd fa 67 44 3e cd a3 9f bd 56 8e 30 bd
       -0.0843948 0.19180289 -0.077949144 -0.043104492
000100 2d e4 0e 3e 7f f7 86 bd cc 77 32 3e ef 8a cd bd
       0.1395423 -0.06590175 0.17428511 -0.10036265
000110 d4 a9 a8 bd e9 10 0b 3c f0 75 81 3c 74 80 23 3e
       -0.08235517 0.008487918 0.015803307 0.1596697
000120 77 f1 95 bd 00 7e 88 3d 4d 33 d4 bc ec db ec bc
       -0.073214464 0.066646576 -0.025903368 -0.02891346
000130 f5 40 1a be 01 ec 25 3e a8 27 c1 bd 8a fd 1c bd
       -0.15063842 0.1620331 -0.09431392 -0.03832773
000140 ec 29 a6 bd f9 25 27 3e 9a de 91 bd 72 da 25 bd
       -0.08113465 0.16323079 -0.07122536 -0.04049153
000150 ef 25 cd 3d 87 08 28 3e 7d dd 27 3e ab f8 cf bd
       0.10017001 0.16409503 0.16393085 -0.101548515
000160 03 5f 82 bd c3 a7 12 3e 29 84 9b 3d b5 54 0c 3e
       -0.06365778 0.14321809 0.07593567 0.13704188
000170 f6 14 6e 3d 06 92 e2 bd dd 7b c0 bc 92 35 a3 bd
       0.05812546 -0.11063008 -0.023496563 -0.07969202
000180 59 21 14 be 61 9d 4a 3d 0b 58 c1 3d de 04 88 3d
       -0.14465846 0.049466494 0.09440621 0.06641553
000190 15 b0 0d 3e 6f cf 90 bd 40 f1 79 3d b9 49 62 bd
       0.13836701 -0.07070815 0.06102109 -0.05524609
0001a0 7f 41 19 3e f8 c6 5f bc 1d 6f 02 3e d0 ac 0a 3e
       0.14966391 -0.013658278 0.12737699 0.13542485
0001b0 67 d6 fa bd fc db 2f bd 1c 40 1a 3e cd 05 b0 bd
       -0.12247925 -0.042934403 0.15063518 -0.085948564
0001c0 9a ab 2b bd 3d 09 16 3e 47 62 13 3e 2d 67 f2 3d
       -0.0419117 0.14651962 0.14392959 0.118360855
0001d0 7e 1e 9a 3c a7 53 e5 3d 9c 7f 21 be 83 23 aa 3d
       0.018813368 0.11197596 -0.15771335 0.083075546
0001e0 67 15 f3 bc 70 41 05 be 58 3d 1c 3d 82 aa cc 3a
       -0.029673291 -0.13013244 0.03814444 0.001561478
0001f0 fe 53 86 3d 0f c9 7a bd 08 1b 33 3e 1f 90 3b be
       0.06558989 -0.0612269 0.1749078 -0.18316697
000200 ce 89 30 3e 76 a8 9b bd b4 f8 d1 3d e1 06 c0 bc
       0.17240068 -0.07600491 0.102525145 -0.02344078
000210 34 62 48 bd 3a 82 07 be c3 33 0d be b5 bd b6 3c
       -0.04892178 -0.13233271 -0.13789277 0.022307256
000220 36 45 d3 bd 81 2d ff bd 6e 52 19 be c6 89 1b 3e
       -0.10315935 -0.12459851 -0.1497285 0.15189275
000230 0e 14 2c 3d a3 a2 6b 3c 3a f1 53 bd e8 cc 1d be
       0.042011313 0.014382037 -0.051743723 -0.15410197
000240 e9 e0 cd 3d 96 91 12 3e d1 80 07 3d 69 d5 44 3d
       0.10052664 0.14313349 0.033081833 0.048055086
000250 f0 0b 87 39 23 48 8a 3d f5 22 03 3c fb 5f e1 bd
       0.000257581 0.0675204 0.00800394 -0.11004635
000260 c8 1b c9 bc 1d f3 23 3e 39 f5 d9 bd ed 07 1f 3e
       -0.02454938 0.16010709 -0.10642476 0.15530367
000270 70 b2 d0 bd c0 3a 06 bd 15 32 eb 3d f7 ec e2 bd
       -0.10190284 -0.032770872 0.11484162 -0.11080354
000280 db ea 2f bd 71 ce 08 be 60 25 aa bc a6 0f e3 3d
       -0.042948585 -0.13360001 -0.020769775 0.11086969
000290 14 b9 b9 bd f5 79 15 bd 5e 33 7a 3b 0f 9a df 3d
       -0.09068504 -0.03649326 0.003817759 0.10918056
0002a0 44 b6 e9 3c ce 92 ac bc 30 7b da bd 93 6f 05 be
       0.028529294 -0.021066096 -0.106680274 -0.13030843
0002b0 11 9f 2e 3e 58 fe 3b bd 88 e9 db 3d 1d 5e 81 bc
       0.17052867 -0.045896858 0.10737902 -0.015791947
0002c0 4b bd ad bd b5 83 8a bd b9 1c 11 be 61 1f 12 bd
       -0.084833704 -0.067634024 -0.14171113 -0.035674457
0002d0 e7 25 97 3c 1b d9 ae bd 99 ac 4c 3d 80 99 9e 3d
       0.01845069 -0.08537503 0.04996929 0.077441216
0002e0 12 6f e8 bd 62 fd 8c bc 73 2e 00 3e 86 a3 25 be
       -0.1134931 -0.017210666 0.12517719 -0.1617566
0002f0 c7 7b cd 3d ff cf 3a bd 90 98 76 bd bc 10 d4 bd
       0.10033374 -0.045608517 -0.06020409 -0.10354754
000300 80 ce 54 bc b8 0d 68 3d d4 cb a3 bd b8 36 70 bd
       -0.012988687 0.05665371 -0.079978615 -0.058645934
000310 50 9d be 3d 72 11 ab bd ff 6e 09 3c 50 59 cf 3d
       0.09307349 -0.08352937 0.00838828 0.10124457
000320 e5 fb 6e bb 13 09 3c bd 6d 4b e6 bd 41 74 23 bd
       -0.0036466059 -0.04590709 -0.11244855 -0.03990579
000330 eb 6d 14 bd 4b 68 ea 3d cc cf 6c 3c c5 d9 11 be
       -0.03623764 0.114456736 0.0144538395 -0.14243229
000340 82 83 51 bc ab fa da bd e0 6a 3f 3e 46 4e 2c bd
       -0.012787702 -0.10692342 0.18693113 -0.042066835
000350 f9 93 29 be 04 64 bc bd 01 78 d2 3d 30 19 29 3e
       -0.16560353 -0.09198764 0.10276795 0.16513515
000360 44 bc e7 bd 08 7b 30 be 35 fd 2f bd 8b 3c 46 bd
       -0.11315206 -0.17234433 -0.042966086 -0.048397582
000370 16 86 af bd 00 f9 d2 3d b3 6c 52 3c 8f 57 0b 3e
       -0.08570497 0.10301399 0.012843299 0.1360762
000380 5f 28 02 3e e2 74 90 3c 39 13 10 3e c0 dd 2e bd
       0.12710713 0.017633859 0.14069833 -0.042691946
000390 64 8f 77 3d 48 80 e4 bd 59 49 37 3d 42 1b 8e 3d
       0.060439482 -0.1115728 0.044747684 0.06938793
0003a0 a0 b2 36 be eb c4 14 3e b6 a8 fb 3d 70 88 e2 bd
       -0.17841578 0.14528243 0.122880384 -0.1106118
0003b0 ce 82 5d 3d 8b 19 2a 3e 4c 39 74 bd ff 2d 88 3b
       0.054079823 0.16611306 -0.059624955 0.004155874
0003c0 20 a5 96 bc fc b0 d0 bd e8 01 b4 3d 02 5c a1 bd
       -0.018389285 -0.10190007 0.08789426 -0.07878877
0003d0 78 11 4e 3d 22 c7 0c 3d 14 7b b0 3d a1 1e 2e 3e
       0.05030963 0.034369595 0.08617225 0.17003872
0003e0 6c 98 73 3d f8 c6 de bc cb 6a 61 bd 33 8d 14 3e
       0.059471533 -0.027194485 -0.055033486 0.14506988
0003f0 03 92 e1 3d e3 ef 1d 3e 10 cf 96 bd c8 88 d9 3d
       0.11014178 0.15423541 -0.07363713 0.10621792

egnn.layers.0.message_mlp.2.bias f4 [32]
000000 c7 1b 50 3b 2a 88 dc 3d a2 d3 98 3c 79 f0 27 3e
       0.0031754838 0.10768159 0.018655602 0.16400327
000010 1f 49 bf bc 94 2d 27 be be 2f 20 be b6 8e 9b bd
       -0.023350297 -0.1632598 -0.15643212 -0.07595579
000020 ba 5b 77 3d 74 24 ca 3d 78 c6 a1 3d 00 5c 1c 3e
       0.06039021 0.09870234 0.07899183 0.1526947
000030 9d 3c 30 be 06 ad 94 3d 2a fe 87 bc c1 8e 08 be
       -0.17210622 0.07259564 -0.016600687 -0.13335706
000040 90 3f 2d 3d 8d 84 2b 3e e8 bd 47 3d 6a f7 da 3d
       0.042296946 0.16749783 0.048765093 0.10691722
000050 7c 55 c7 3d 5e d6 ee bd f8 6c 30 be 19 f8 26 be
       0.09733102 -0.11661981 -0.17229068 -0.16305579
000060 68 48 1a 3e ea 77 05 be 87 35 6a bd 54 b6 16 3e
       0.15066683 -0.13034025 -0.057179954 0.1471799
000070 d4 35 1f 3e 17 a7 02 be 45 eb 97 3d 21 33 93 bb
       0.15547878 -0.12759052 0.07417921 -0.004492179

egnn.layers.0.coord_mlp.0.weight f4 [32, 32]
000000 5a 82 1d bd d7 8f 4c bb ce 17 17 3c 12 34 2d be
       -0.03845439 -0.0031213665 0.009221984 -0.16914394
000010 a1 f6 f6 bd 26 cb aa 3d a0 31 d9 3d d4 18 5d 3d
       -0.120587595 0.08339529 0.10605168 0.053978756
000020 7e 53 dd bd 51 71 87 bc b3 37 e6 3d 84 71 e1 bd
       -0.108069405 -0.016533526 0.112410925 -0.110079795
000030 b8 db 00 3e fc 71 87 3d 0f 6e db bd 6c 37 27 be
       0.12583816 0.06613538 -0.107143514 -0.16329736
000040 7b f3 9b 3d 68 b9 3a 3d cc c4 c4 bd a1 41 0a be
       0.076147996 0.045586973 -0.096078485 -0.13501598
000050 9f e5 1a 3d 75 0c 9c 3d 5f e3 8a bd ab 32 16 3e
       0.03781664 0.076195635 -0.06781649 0.14667766
000060 9a 2f fe 3d a3 74 e1 3d eb 9f 14 3e 55 1a eb bd
       0.12411423 0.11008575 0.14514129 -0.11479632
000070 e8 13 12 3e f5 08 1c be e8 85 33 bd 22 a0 03 be
       0.14265406 -0.15237792 -0.043828875 -0.12854055
000080 74 37 31 bd 80 28 1e be 2d 24 1a be d4 ef e7 bd
       -0.043265775 -0.15445137 -0.15052862 -0.113250405
000090 5e 73 e6 3c 88 67 e5 bd b9 55 70 3c ce 5b 03 3d
       0.028131183 -0.11201388 0.014668875 0.032069974
0000a0 90 9e 1a be 57 8f 0e 3e 73 99 43 bd 76 3e f5 3d
       -0.1509955 0.13921867 -0.047753762 0.11974804
0000b0 3e 27 9c bb 44 08 e3 3d be 88 56 3c 6b 9c e3 bd
       -0.00476542 0.11085561 0.013094125 -0.11113819
0000c0 85 d3 25 be e4 cf 02 be 20 3d d0 bd dc f3 f6 bd
       -0.1619397 -0.12774616 -0.10167909 -0.12058231
0000d0 f9 4a 30 3e b2 65 f9 bd d3 ca 6d 3c 44 3a f5 bd
       0.172161 -0.121776 0.014513689 -0.11974004
0000e0 71 e9 05 3e 7e 24 17 bc 63 9d a1 bd 18 a0 8e 3c
       0.13077332 -0.009225009 -0.07891347 0.017410323
0000f0 3f 18 bf bd 6f 9a b1 3d 25 af ce bb ce a3 f8 bd
       -0.093307965 0.08672034 -0.0063075 -0.12140618
000100 d8 73 36 bd b5 ca 83 bb b2 63 5e bc 6f c4 94 bd
       -0.04454407 -0.0040219673 -0.013573574 -0.07264029
000110 41 eb 0c 3d af 4b 36 3e 0d a9 ca bd 76 3a 96 bd
       0.034404043 0.17802308 -0.09895525 -0.07335369
000120 9c 83 e7 3b 43 28 f8 3d 3c 06 a9 bd 21 6b 0a be
       0.0070652496 0.12117054 -0.08253142 -0.13517429
000130 54 60 2c 3e f8 7e 86 3d d9 8f 98 3d 4d f8 32 bd
       0.16833621 0.06567186 0.07449312 -0.04369383
000140 2f bc 18 3e 02 8f bc 3a 72 8a 6d 3d aa 66 25 3e
       0.14915536 0.0014385881 0.05799336 0.16152444
000150 90 c1 ee bd 0b 0f f3 bd 78 b4 ec 3d 81 30 ce 3d
       -0.11658013 -0.118681036 0.11557859 0.10067845
000160 72 41 2e ba 39 2e 9b bd 8d 22 1f 3e d0 c7 15 be
       -0.00066473254 -0.07577176 0.15540524 -0.14627004
000170 f1 45 d2 bc 2b e8 19 be 44 e6 07 3e d6 0b 0b 3d
       -0.025668116 -0.15029971 0.13271433 0.033946835
000180 86 27 55 bd 48 ba fa bd a3 49 15 bd 50 fb 13 be
       -0.052039646 -0.122425616 -0.03644718 -0.14451337
000190 b9 9d 22 3e ee 95 b8 bd 3f f1 9f bb d4 bb b0 3c
       0.15880479 -0.09012972 -0.0048810537 0.021573938
0001a0 98 20 d5 3d 25 76 a7 bc 10 22 f2 3c 59 c8 62 bc
       0.104066074 -0.020442078 0.029557258 -0.013841712
0001b0 88 10 fd 3b cb 2b c5 3d 2b e1 f0 3d 2a dd 4d bc
       0.007722918 0.096274935 0.117616974 -0.012564937
0001c0 d0 98 43 3d 9c e2 2e bd b2 be 8f 3d cb 01 df 3b
       0.047753155 -0.04269658 0.07018794 0.0068056337
0001d0 ec ac 47 bc 2d c1 0e 3c c6 ff 0e 3e 9e 87 f5 3d
       -0.012187224 0.008713049 0.13964757 0.119887576
0001e0 46 e7 10 bd d0 2c f9 3d 1b 0d d6 3b a1 be 8f bd
       -0.03537681 0.121667504 0.006532324 -0.070187815
0001f0 21 57 ae bd 05 a8 d2 3d 4e 36 85 bd f1 6d a2 bc
       -0.08512712 0.102859534 -0.065044984 -0.019827815
000200 ca 26 a8 bd 01 68 e1 bd 91 c4 fc 3d 9b c6 15 3e
       -0.082105234 -0.11006165 0.123421796 0.14626543
000210 8b c5 1e be 40 ca 1c 3c c8 db 0d 3e 33 82 fd 3d
       -0.15505044 0.0095697045 0.13853371 0.12378349
000220 2c 30 4e 3d 83 a9 6c 3d fc 4d 2b bd 13 ab ef 3c
       0.05033891 0.057778846 -0.04182242 0.02925638
000230 4a 25 d0 3d 62 07 bd bd ed 5d 2c bc 1e 28 36 3e
       0.10163362 -0.09229924 -0.0105204405 0.17788741
000240 13 0d f3 3d 3b 1e af 3d f9 19 01 3d 6a ec 13 3e
       0.11867728 0.08550688 0.03151891 0.14445654
000250 bc ee f5 bc 16 f2 24 bd 1b 72 9c bd fe 9b b7 3d
       -0.030021064 -0.040269934 -0.076389514 0.089653
000260 22 37 0b be 4f 46 00 3d 54 8b 06 3d 13 6a da bd
       -0.1359525 0.03131705 0.032847717 -0.10664763
000270 a5 85 b2 3d 48 70 2f bc c3 e3 9b 3d d4 38 8e bd
       0.08716897 -0.010707922 0.076118015 -0.06944433
000280 0a cf 2b 3d b1 82 0a 3e 9d 5e a8 3c 0f e4 e1 bd
       0.041945495 0.13526417 0.020552928 -0.11029827
000290 fc 50 2c bd ec a8 47 bd c3 5b c7 bb 56 5b 5d bd
       -0.04206942 -0.04874508 -0.006083937 -0.054042183
0002a0 04 2c 0c 3d 30 d8 90 bd 9d d5 dd 3c 58 3a 19 be
       0.034221664 -0.070724845 0.027079398 -0.14963663
0002b0 8b 87 26 bd 86 49 a6 3d 25 11 ca 3d ba de 01 be
       -0.040656608 0.08119492 0.09866551 -0.1268262
0002c0 13 66 dd bd 9f 00 7c 3c 81 9d cc 3c ee 47 3c bd
       -0.10810485 0.015381007 0.024977447 -0.045967035
0002d0 ec 09 e7 3d 0e 23 bc bd 74 97 d7 bd 9a 0d 10 3e
       0.11281189 -0.09186374 -0.10526934 0.14067689
0002e0 08 b6 bd bd 84 42 19 bd 98 11 0c be f4 15 b0 3d
       -0.09263235 -0.03741695 -0.13678586 0.08597937
0002f0 d4 7d 3d bd 12 7b b7 3d 81 30 ac 3d 47 d7 14 be
       -0.046262577 0.08959021 0.08407689 -0.14535247
000300 76 7f fb bd 7c 9e 24 3e 0d 62 23 be 61 48 f6 bd
       -0.122801706 0.16076082 -0.15955372 -0.12025524
000310 3b 8e 16 be 7c 96 0a 3e d4 f7 6c bc 56 45 23 be
       -0.14702694 0.13533968 -0.014463384 -0.15944418
000320 ed 70 07 be 29 97 16 3e 89 af ae bd 76 f2 04 3e
       -0.13226672 0.147061 -0.085295744 0.12983117
000330 75 54 24 3e 28 5f 5e 3d b6 61 ab bd 07 32 35 3e
       0.16047843 0.054289967 -0.08368246 0.17694865
000340 50 e1 27 3e 7e 3e 0c 3e 0a 2b 6e bd a3 b6 04 3e
       0.16394544 0.13695714 -0.058146514 0.12960295
000350 e5 33 d3 bd f5 aa b6 3d d2 75 2b 3b c7 53 17 3e
       -0.103126325 0.08919326 0.0026162756 0.14778052
000360 a3 2d 1e 3d 20 5f a5 3d 79 e7 f1 bd 8e a7 f8 3d
       0.03861774 0.08074784 -0.11811728 0.121413335
000370 bc 72 0f bc 96 2b 52 bc 94 b7 d6 3c bf 7a 65 bd
       -0.008755382 -0.0128277745 0.026210584 -0.056025263
000380 d2 1d 28 be f2 3e 26 be 2f 4e 44 3d dc f3 93 bd
       -0.16417626 -0.16234949 0.047926124 -0.07224247
000390 70 7a fa bd af 47 10 3e 8e 89 38 3e af 8a 37 be
       -0.12230384 0.14089845 0.18021223 -0.17923997
0003a0 83 58 ef bd 0c 51 df bd f2 33 77 3d bb 6d b6 3d
       -0.11686804 -0.1090413 0.060352273 0.08907648
0003b0 a3 0f ba bd b8 07 d3 bd ac d5 e9 3d ed f0 d6 bd
       -0.09085014 -0.103042066 0.11417708 -0.10495172
0003c0 7d 9f ac bd bf d7 2e 3e f5 a2 a8 3a 9e 66 94 bd
       -0.084288575 0.17074488 0.0012865948 -0.07246135
0003d0 c5 6b c1 3d 0d 76 1f be a6 a3 2c 3e 4e 12 c6 bd
       0.094443835 -0.15572377 0.16859302 -0.0967146
0003e0 65 14 c1 3c 7d d9 d3 bd 28 22 01 3e 47 9d 83 3c
       0.023569295 -0.10344217 0.12610686 0.016066207
0003f0 e6 b5 1f be ee 0d d6 bd b6 8f e2 3d 53 4e 75 bd
       -0.15596732 -0.104518756 0.11062567 -0.05988915

egnn.layers.0.coord_mlp.0.bias f4 [32]
000000 02 9f 36 bd 14 38 a5 bd a6 33 27 be 29 1b 07 3e
       -0.044585235 -0.08067337 -0.16328296 0.13193955
000010 09 e4 e5 bd 0d 33 0f 3e c9 68 9d 3c 94 fc 9c bd
       -0.11225135 0.13984318 0.019215005 -0.07665363
000020 a0 b0 d3 bd 97 00 0c be 05 dc 26 3e e9 ba 5c bd
       -0.10336423 -0.136721 0.16294868 -0.05388919
000030 d8 4a df 3c 26 4b 02 bd f9 a3 2e 3e 47 e6 30 3e
       0.027257368 -0.03180995 0.17054738 0.17275344
000040 f1 72 e3 3c 1e 81 c6 bd 00 93 46 3d 06 15 2b be
       0.02776477 -0.09692596 0.048480034 -0.16707239
000050 46 04 26 be bb e0 6f 3c 67 da bf 3b ff 72 fc 3d
       -0.16212568 0.014640982 0.005854893 0.12326621
000060 14 eb a3 bd b4 53 fb 3c 21 1f c0 3d a3 32 29 be
       -0.08003822 0.030679561 0.09380937 -0.16523223
000070 37 1c 81 3d fe 4d f5 bd 40 46 ae 3d a9 0e d3 3d
       0.0630421 -0.119777665 0.08509493 0.103055306

egnn.layers.0.coord_mlp.2.weight f4 [1, 32]
000000 27 03 aa bb f0 92 6e bb a0 bf 08 bc e5 85 00 bb
       -0.005188364 -0.00364035 -0.008346468 -0.0019611057
000010 34 27 0c bc e2 8e 1d 3c 36 99 67 bc f6 d1 26 bc
       -0.008554269 0.009616585 -0.014135649 -0.0101818945
000020 1b c7 29 bc 49 b0 57 bc 44 61 ec 3b 34 dc e4 3b
       -0.010362412 -0.013164588 0.0072137434 0.006984258
000030 2e b7 53 3c f2 9f 00 3c 8c 96 83 3b 85 2b fd 3b
       0.012922091 0.007850634 0.0040157493 0.007726135
000040 5d 5e 45 bc 66 8a 85 bc 5e d8 00 3c 19 fa f5 bb
       -0.012046424 -0.016301345 0.007864086 -0.0075066206
000050 c9 e4 84 bc f8 aa 40 3c ff 60 60 3c ee 2e 3c 3c
       -0.016222375 0.011759512 0.013695001 0.011485798
000060 4a 3a 12 3c 8f 4f 79 3c 8a 78 1d 3b bf 18 0a bc
       0.00892503 0.015216722 0.0024028146 -0.0084287515
000070 77 af 84 bc 72 78 1b bc 4e c5 8b 3b d8 60 80 3b
       -0.01619695 -0.009489166 0.004265464 0.0039177947

egnn.layers.0.hidden_mlp.0.weight f4 [32, 48]
000000 2d a5 4c 3d 78 78 08 3d 30 55 de bd 0e 6b 1b bd
       0.04996221 0.033318013 -0.10856092 -0.037943892
000010 15 00 02 3e 5f 60 c5 3c 31 25 02 be 33 7e 9a bd
       0.12695344 0.024093805 -0.127095 -0.07543602
000020 b8 f3 8f bd 57 60 ac 3c 52 d0 f5 bd 43 b1 f2 3d
       -0.070289075 0.021042032 -0.120026246 0.11850216
000030 e4 15 bf 3d 8f 9c ae 3c 10 d5 fd bd ba 9a d7 3b
       0.09330347 0.021314887 -0.12394154 0.006579724
000040 d8 cb ad ba 76 7d 8f bd 54 65 ed bd 5a 08 1c be
       -0.0013259603 -0.07006352 -0.115915924 -0.15237561
000050 d7 01 70 3d 05 fe 65 3c af d8 2a 3d 16 b3 fa 3d
       0.058595505 0.014037614 0.04171055 0.12241189
000060 5f ff 52 bd 51 78 ef bd 00 36 00 be 5e db 09 be
       -0.051513072 -0.116928704 -0.125206 -0.13462588
000070 76 43 92 3d b2 68 94 bd 64 8a be 3d 06 3e 8d bd
       0.071417734 -0.072465315 0.0930374 -0.06896596
000080 7e 67 8e 3b ce 94 82 3d df f2 5c 3d cc 95 09 3e
       0.0043458333 0.063760385 0.053942557 0.13436049
000090 13 5d 20 3c b2 34 77 bd 34 40 88 3c 61 ef 3f bd
       0.009787816 -0.06035299 0.016632177 -0.04685915
0000a0 b1 c3 e1 3d 8d f8 28 bd 93 0b c1 bd d5 03 2e bd
       0.11023653 -0.04125266 -0.09426036 -0.042484123
0000b0 9e 30 8c bd c7 83 fa 3d 7d 88 8e bd a1 96 3d bd
       -0.068452105 0.12232166 -0.06959627 -0.04628623
0000c0 b8 ff 88 bd bf 65 0e 3e f9 76 e5 bd 93 36 e1 3d
       -0.066893995 0.13906 -0.11204333 0.10996737
0000d0 e1 c3 62 bd 2c 34 bc 3d 43 b1 57 3d be 97 ba bd
       -0.055362586 0.091896385 0.052659284 -0.09110974
0000e0 cc 75 07 be 7e 49 9e 3d af 7b ad bd 5a 2a ce bd
       -0.1322853 0.07728861 -0.084708564 -0.10066672
0000f0 cd 49 a0 bd 45 3e e8 bc 7e fd 79 bd 01 c6 b8 3d
       -0.078265764 -0.028350005 -0.061032765 0.09022141
000100 aa 3b 27 3c 68 20 a6 bd 52 5c d7 bd 45 f4 63 3d
       0.010207096 -0.0811165 -0.105156556 0.055652875
000110 34 f3 0e bd f3 ab 5b bd 6a 66 17 3e c8 3f df bd
       -0.034899905 -0.05363078 0.14785162 -0.10900837
000120 0a ee 98 3d 32 eb 73 bd f1 2b e5 3b 07 c5 45 3d
       0.07467277 -0.05955047 0.0069937636 0.048283603
000130 22 40 15 bd ed c8 c2 3c 43 7e 83 bd 8d 77 27 bd
       -0.036438115 0.02377745 -0.06420567 -0.040885497
000140 52 8e da bb 0d b1 ca 3d f1 c7 d0 3c f1 04 41 bd
       -0.006669798 0.09897051 0.025485964 -0.047123853
000150 f2 e6 49 bd 45 37 2e bc e8 4e 79 bd 62 69 f6 bc
       -0.049292512 -0.0106332945 -0.060866266 -0.030079547
000160 52 fc bb 3d 0d 59 83 3d 17 c9 b2 3d 73 49 c5 bd
       0.09178986 0.064134695 0.08729761 -0.0963315
000170 45 0b bc 3d 21 d1 90 3c ef 45 e6 3d 95 7b 6e 3a
       0.09181837 0.017677845 0.112438075 0.00090973946
000180 22 4a e4 bd 68 89 74 3d 4d 24 b9 3c 89 7e bf 3d
       -0.11146952 0.059701353 0.022600317 0.093503065
000190 d2 a1 5a bd 4e d7 8f bd 51 4b fc bd 53 82 d2 3d
       -0.05337698 -0.07023488 -0.12319053 0.102787636
0001a0 7f bb dc bd 9b cf 34 bd 27 cb 0a 3e d9 09 c6 bd
       -0.107779495 -0.0441433 0.13554059 -0.09669847
0001b0 28 09 c9 3d 92 2f 1e 3d e9 e6 fb bd 3d 37 bd 3d
       0.098161995 0.038619585 -0.12299902 0.092390515
0001c0 36 fb 9c bd 13 8c 86 3d 23 f9 cb bd 89 34 0a be
       -0.07665102 0.06569686 -0.099596284 -0.13496603
0001d0 95 fd 6f bd eb 2c 89 bd 0c ae df 3d dd df d4 bc
       -0.058591444 -0.066980205 0.10921869 -0.025985653
0001e0 81 98 10 3e b5 cf 7b 3b fb ee 56 3d 13 b5 ec 3d
       0.14120676 0.0038423364 0.052474003 0.11557975
0001f0 69 e6 9b 3d 36 af 3e 3d c4 1a 29 3d 49 80 2b 3c
       0.076123066 0.046553813 0.04128529 0.010467597
000200 da dd 73 3c 8c 02 09 3e 7d 4c ae bd 07 88 be 3d
       0.0148844365 0.13379878 -0.08510683 0.09303289
000210 34 28 6d 3d 6f f0 7c bd 98 68 b9 bd 01 02 78 bd
       0.05789967 -0.061752733 -0.09053153 -0.060548786
000220 8f 0d e1 3d c7 a2 08 be 9e 22 f7 3c 91 91 01 3e
       0.10988914 -0.13343345 0.030167874 0.12653185
000230 4e 3f df bd 88 9d 16 be 7a ab 0a be 71 06 ab bd
       -0.10900746 -0.14708531 -0.13541976 -0.08350838
000240 16 40 b3 3d 83 cc ca 3d dd 3a 53 bd e3 49 e6 bd
       0.08752458 0.09902289 -0.05156981 -0.112445615
000250 fc 54 83 3d bd ba a5 bd a9 9e 03 3e 58 a1 3f ba
       0.06412694 -0.08092258 0.12853493 -0.0007310114
000260 1d 97 86 3d ed 58 74 3c 7c 59 d6 bd 2c 1a c4 bd
       0.06571791 0.01491378 -0.104662865 -0.095753044
000270 59 81 84 3d f0 96 a7 bd 94 ff bc bd b9 f3 8e 3d
       0.064699836 -0.08183086 -0.09228435 0.0698008
000280 70 78 09 3e 86 c7 a1 bd bb b2 a5 3d 03 a6 c3 bc
       0.1342485 -0.07899384 0.08090731 -0.023882871
000290 ce b0 8e bd 76 f6 09 3e e2 0b b2 3d 6f 16 23 3d
       -0.069673166 0.13472924 0.08693673 0.039816316
0002a0 6c 03 ad bd 0f d0 97 bd 66 a6 b5 3d af e8 25 3c
       -0.08447918 -0.07412731 0.088696286 0.010126277
0002b0 4f cc 0c be f8 19 42 bd ee a2 4c 3c 77 47 4d 3d
       -0.13749813 -0.047388047 0.012490017 0.050116982
0002c0 1d 23 8c bd 76 52 c9 3d 4f a1 f2 bd 4c cb cd 3d
       -0.06842635 0.09830181 -0.118471734 0.100485414
0002d0 eb e8 aa bd 2f a8 f6 bd 35 97 d8 3d ff f8 ea bc
       -0.08345207 -0.12043797 0.105757155 -0.028683184
0002e0 84 6a dd 3d 44 c1 0d be ce e3 61 3d aa 88 87 3d
       0.10811332 -0.13843256 0.055148892 0.066178635
0002f0 f9 52 96 3d 02 a9 65 bd c6 36 b0 3b d7 73 8c bc
       0.073400445 -0.05606938 0.0053776233 -0.01714508
000300 ba 46 d8 bd e2 4b 7d bd 1e 11 d7 bd 8d 26 9e 3d
       -0.10560365 -0.061839946 -0.10501312 0.07722197
000310 1d dd fa 3c 97 30 4c 3d f6 bb 10 be 1c 5e 7c 3d
       0.030623013 0.049851026 -0.14134201 0.061613187
000320 6e 55 96 bd a7 84 d1 bd aa 0e df bd cb a0 fa 3d
       -0.07340513 -0.102303796 -0.10891469 0.122377
000330 02 fd ad bd 81 5d c6 3d d5 91 aa bd ad b0 76 3d
       -0.08495523 0.09685803 -0.083285965 0.060227085
000340 8c 00 20 3d ec dc e9 bd 28 6c ba bd ad 84 9e 3b
       0.03906302 -0.11419091 -0.091026604 0.0048375935
000350 ac 8d df bc 24 5a ea 3d 13 af 01 be c5 66 3a 3d
       -0.027289234 0.11442974 -0.12664442 0.045508165
000360 64 9c 8f bc 12 a6 a8 bd fb e2 fa bd 8c db 01 bc
       -0.017530628 -0.082348004 -0.12250324 -0.007925879
000370 87 4a be 3c a6 cb 97 bd 30 6a ea 3d 16 fc e8 3d
       0.023228897 -0.0741189 0.11446035 0.113762066
000380 3c 86 00 be 1b b2 b3 bd c6 ab 6a 3d 3f 9b bf 3d
       -0.12551206 -0.08774205 0.057292722 0.09355783
000390 26 31 b6 bd b0 49 be 3d 5d ae e8 bd 5b 33 93 bd
       -0.08896093 0.092913985 -0.11361382 -0.0718753
0003a0 45 35 08 3d 14 c1 83 3d 24 95 94 3c 3f 1d 81 bc
       0.033253927 0.06433311 0.018137522 -0.015761016
0003b0 93 93 5d 3d 76 53 cc bd eb 26 5d 3d 3c f5 10 3e
       0.054095816 -0.099768564 0.053992193 0.1415605
0003c0 8e 5a c0 bc a5 67 b9 bb 7e d9 c7 3d 42 b7 88 3c
       -0.02348068 -0.0056581073 0.0975828 0.016688947
0003d0 a4 de f5 bc a5 43 f3 3d ba b7 a1 bd 7a 9d b9 3d
       -0.03001339 0.118781365 -0.07896371 0.090632394
0003e0 7a 05 ac 3d ac 9d e4 bd 62 b5 00 bd 01 ff 46 3d
       0.08399482 -0.11162886 -0.03142298 0.048583034
0003f0 e9 59 5d 3c f3 f7 a1 3c df a5 eb 3d 73 c7 ce 3d
       0.013510206 0.019771552 0.11506247 0.10096636

egnn.layers.0.hidden_mlp.0.bias f4 [32]
000000 da 50 7a 3d ef 5d c8 bb 0e ac 00 3d 20 9d be bd
       0.061112262 -0.0061147134 0.031414084 -0.09307313
000010 c4 2f 35 3d 0a a4 80 bb 85 c8 8d bd e9 1e de bd
       0.044235006 -0.003925805 -0.06923012 -0.108457394
000020 1b 80 32 3d ff ec a9 bd de af db 3c 6a db 0f be
       0.043579202 -0.082971565 0.026817258 -0.14048544
000030 93 bd 89 3d 05 ca 8b 3d c0 76 04 3b f3 9b e4 bb
       0.067256115 0.068256415 0.0020212382 -0.0069765984
000040 dd 86 0a 3e b4 d2 31 3d 65 54 c0 bd 2a c4 78 bd
       0.13528009 0.043413833 -0.09391097 -0.06073395
000050 09 a3 64 bd e8 2e b4 bd 18 0e ce bd af 67 b5 bb
       -0.055819545 -0.08798009 -0.10061282 -0.0055360417
000060 a4 91 c3 bd f3 f2 3f bc bf e7 17 3d 37 03 95 bd
       -0.09549263 -0.011715638 0.037086245 -0.07276004
000070 a8 8c 68 bd 12 95 0b be b9 83 2f 3d ff 6c fe 3c
       -0.056774765 -0.13631085 0.04285023 0.031057833

egnn.layers.0.hidden_mlp.2.weight f4 [16, 32]
000000 ca b4 09 be 1d 92 d8 bd 60 a5 f8 bc 67 4e a9 3a
       -0.13447872 -0.10574744 -0.030352294 0.0012917042
000010 e8 47 32 3c 5c ab 1f 3e e1 96 24 be 15 fe 93 3d
       0.010881402 0.15592712 -0.1607318 0.07226197
000020 95 82 0c 3e 61 22 23 3e bb 8f 00 3d cb 3f 20 3e
       0.13721688 0.15931083 0.031387072 0.15649335
000030 55 ef bc bd 31 49 00 be 9f 79 28 bd 8d df b8 bd
       -0.092253365 -0.1252792 -0.041131612 -0.09027014
000040 ef 9b a8 3d 57 de 40 bd 9a eb b3 3d e6 c9 7b bd
       0.08232867 -0.04708704 0.08785172 -0.061471842
000050 a0 3d 9e bd 3a 9f 58 bd d8 e8 94 bc f0 fa a9 bd
       -0.07726598 -0.052886225 -0.018177435 -0.08299816
000060 82 a8 cd 3d c8 46 e8 3d 54 a7 0c 3d f3 62 2d be
       0.10041906 0.113416255 0.034339264 -0.16932277
000070 f5 4c 13 3e 44 f1 02 be 1b f3 f9 bd 91 9a b9 3d
       0.14384826 -0.12787348 -0.12204572 0.09062684
000080 a4 2f d2 bd c0 dc 0b be 6f fd 08 be 11 7a 18 3e
       -0.10262993 -0.13658428 -0.13377927 0.14890315
000090 93 59 4e 3d 95 10 b1 3d 09 70 0f 3d ef ca a5 3d
       0.050378393 0.08645741 0.035018954 0.08095347
0000a0 e2 7f 35 3e 59 eb dd bc b4 79 e4 bd c7 e2 17 bd
       0.17724565 -0.027089762 -0.111560255 -0.037081506
0000b0 9d eb 84 bd cf 6d 2c be f2 12 09 be 4d b5 7a bd
       -0.06490252 -0.16838764 -0.13386133 -0.06120806
0000c0 74 65 0a 3d e7 0f b8 3d 82 f8 ed 3d e8 f3 32 be
       0.03378816 0.08987408 0.11619665 -0.17475855
0000d0 6b af 68 bc 9d 7a 0a bd ac 66 19 3e 85 dd 3c bd
       -0.014201979 -0.03380834 0.14980572 -0.046109695
0000e0 fd 55 3b 3e cf 95 2b 3d 3e 9d c8 3c d0 57 9e 3d
       0.1829452 0.041890915 0.024489041 0.07731593
0000f0 ba 2c 09 3e 1c 20 c1 bd 86 a0 98 3d 0b 10 8b bd
       0.13395968 -0.094299525 0.074524924 -0.06790169
000100 fd 9c 3b 3d 13 30 d7 3d ae c3 a2 bd ad 17 3e bd
       0.045804013 0.10507216 -0.07947479 -0.046409298
000110 ff 8f 26 3e 7e ea 29 be f3 d0 ec bc 43 ce 15 3e
       0.16265868 -0.16593358 -0.028908229 0.14629464
000120 95 6a 1b 3d 19 c9 13 be 5c 77 01 3c e4 8c 12 be
       0.03794344 -0.14432181 0.007901993 -0.14311558
000130 56 34 87 bd 5b b1 15 3d 9b ee c4 3d 61 05 ca bd
       -0.06601779 0.036546092 0.09615823 -0.09864307
000140 03 3e 1d 3e 57 78 ff bd 87 63 11 bd 40 b6 1b be
       0.15355687 -0.12474125 -0.035495307 -0.15206242
000150 96 ff a4 bb 36 f8 aa bb 48 f9 98 3d 7d be f3 bd
       -0.005035351 -0.0052175773 0.074694216 -0.11901567
000160 11 97 ff 3b a2 b3 67 3d 7f 8d e4 bd f8 48 1e 3e
       0.007799991 0.056567796 -0.11159801 0.15457523
000170 9f 1d 12 bd 85 af 38 be 3d 86 ff bc 7d 9e 2a 3d
       -0.03567278 -0.18035705 -0.03119194 0.041655052
000180 27 db b8 bd ef 6f 8b bd 37 46 9f 3d ee 48 09 bd
       -0.09026175 -0.06808459 0.07777064 -0.033516817
000190 30 3d 85 3d a9 b1 44 3c 44 97 3a bb c5 ea 16 3e
       0.06505811 0.012005248 -0.002847151 0.14737995
0001a0 4a 43 f3 bc 71 db 11 3e 9d 79 7c bd dd 32 e9 3d
       -0.029695172 0.14243867 -0.061639417 0.113866545
0001b0 41 97 bc 3d 94 2d e7 bd 50 b8 2e bd e4 86 f2 bd
       0.09208537 -0.1128799 -0.042656243 -0.118421346
0001c0 81 06 14 3d 3f d8 c4 3b 33 8f 6f bd 8d 23 1b 3e
       0.036139015 0.006007224 -0.058486175 0.1515028
0001d0 64 ca 2c 3e 53 aa 01 be 06 3d c5 bd 9b bd 86 3c
       0.16874081 -0.1266263 -0.0963078 0.016447833
0001e0 60 40 e1 3d af 26 db bd 75 3e 82 bc 18 4d 00 bd
       0.10998607 -0.10700738 -0.015898922 -0.031323522
0001f0 18 83 12 be 32 10 3b bc 7b b0 cc bb 43 8c 31 3d
       -0.14307821 -0.0114174355 -0.006246624 0.043346655
000200 06 d6 01 3e da b3 ff bb e3 42 02 3e d7 ec 81 bd
       0.126793 -0.0078034224 0.12720828 -0.06344002
000210 49 54 ec bd c8 36 8e 3d bc fe f5 3d 57 da f8 bb
       -0.115395136 0.069440424 0.12011477 -0.0075943875
000220 6a 01 f5 bd 74 81 af bd 29 a2 c1 bd 93 83 28 3d
       -0.1196316 -0.08569613 -0.09454758 0.041141104
000230 6d ec 45 3d d4 c9 22 be bc a2 fa bc c7 5f 28 3d
       0.048321176 -0.15897304 -0.030595176 0.041106965
000240 6b 1f 99 bd bf 7f 32 3e 8b ab 13 3e db 81 ae bd
       -0.074766956 0.17431544 0.14420907 -0.08520862
000250 ef 0c 8b 3c 27 36 f9 bc 92 2d 1b be b0 90 71 3c
       0.01697394 -0.03042133 -0.15154102 0.014743969
000260 85 47 02 3e 3e f8 d2 3d 19 51 b6 3d 90 46 6b bd
       0.12722595 0.10301255 0.08902187 -0.05744034
000270 10 fa c8 bd 81 94 18 be ef 26 22 be fd 9e 0c 3c
       -0.09813321 -0.149004 -0.15835164 0.008582828
000280 6e a2 04 3e 21 82 31 3d 1a ba 0f bd d3 13 99 3c
       0.12952587 0.04333699 -0.03508959 0.01868621
000290 b6 fa 28 3d 70 08 9a bd 64 d3 e5 3d a0 27 99 3d
       0.04125472 -0.075211406 0.1122196 0.07478261
0002a0 e4 58 4f bd b6 65 82 bc ac 75 20 be 3a c9 ac 3d
       -0.050621882 -0.01591764 -0.15669888 0.084368184
0002b0 25 58 df 3c 51 ce 04 3e c6 f0 73 3d f6 57 18 be
       0.02726371 0.12969328 0.05955579 -0.14877304
0002c0 c9 52 39 bd d3 50 ca 3d 45 da 19 3e 5f 4d 55 3d
       -0.045244966 0.09878697 0.1502467 0.05207574
0002d0 1e d0 15 3e 47 b8 34 3e 7d 69 6e bd d2 d4 f6 3c
       0.14630172 0.17648421 -0.05820607 0.030130778
0002e0 ef bd 1f 3e fb 4a a6 bc ce 7f c7 bd 11 2e 02 be
       0.15599798 -0.020299425 -0.09741174 -0.12712885
0002f0 14 49 90 bd a6 93 3d be b1 a0 a2 bd 63 d2 b2 3d
       -0.070451885 -0.18513355 -0.07940806 0.08731534
000300 d9 e8 11 3e a4 c6 e9 3c 90 93 94 bd e6 01 e0 bd
       0.1424898 0.028537102 -0.07254708 -0.10937862
000310 a3 29 0e be 05 a5 01 3d 41 3b 23 3e 46 7c f0 bd
       -0.1388307 0.031651516 0.15940572 -0.11742453
000320 37 36 34 3e ab 69 a6 bd 92 dc f0 bd 41 8b c3 3d
       0.17598806 -0.08125623 -0.117608204 0.09548045
000330 8a 5d dd bd a6 ca 20 3e dc cb 21 be 35 23 de 3d
       -0.10808857 0.15702304 -0.15800422 0.10846559
000340 15 49 20 3e a7 c6 66 bd 3d 5b cf bd 9c b0 6e bd
       0.15652879 -0.056341793 -0.10124824 -0.058273897
000350 c4 f0 16 3e bf 59 03 be ad 75 1c 3e 8f ca 25 3e
       0.14740282 -0.12827204 0.15279265 0.16190551
000360 ff ab 95 bd 1c 68 0f 3e 0f 03 03 3b 98 27 16 3d
       -0.07308196 0.14004558 0.0019990837 0.036658853
000370 c4 cc c9 b8 ad de 1d 3d 86 90 24 3e e9 af 0f 3d
       -9.6225674e-05 0.03854244 0.16070756 0.03507987
000380 b9 d8 92 3c 68 f7 cf bd 31 c7 f7 3d 0b ef 7a bd
       0.017925607 -0.10154611 0.120985396 -0.061263125
000390 55 5d 0f be 6d d8 2a be c2 b4 27 3e fc 93 8b 3d
       -0.14000447 -0.16684122 0.16377547 0.06815335
0003a0 be 82 95 bd af 2c e2 bd 1e 5f 7c 3b ee bc 00 bd
       -0.07300328 -0.11043679 0.0038508843 -0.031430177
0003b0 2e dd b0 b8 c4 05 0d 3e 70 3f b7 bd 26 4e fe 3c
       -8.433532e-05 0.1377173 -0.089476466 0.031043123
0003c0 57 97 c0 3d 4f c7 0b 3e 36 bc 09 3d 6f a3 e7 bd
       0.09403866 0.13650249 0.033626758 -0.11310469
0003d0 54 f1 19 bd f4 fa c5 bc 32 14 45 bd 6d 60 29 be
       -0.037583664 -0.024167515 -0.048114963 -0.1654069
0003e0 e4 d2 d2 bb 39 a7 1e 3e 15 90 a2 bd 8d f3 90 bd
       -0.0064338315 0.15493478 -0.07937638 -0.070777036
0003f0 8c 56 ed bd 54 cb 24 3d c8 1b dc bd 34 3a aa 3c
       -0.11588773 0.04023297 -0.10747486 0.020779707

egnn.layers.0.hidden_mlp.2.bias f4 [16]
000000 3f 4e 1d 3c eb 12 f8 bd e5 58 01 3e 38 8b 8c 39
       0.009601175 -0.12112983 0.12631567 0.00026806607
000010 5e d9 c9 bd 91 d8 87 3d 5d e7 e1 bd a0 8f 4f 39
       -0.098559126 0.06633104 -0.11030457 0.00019794563
000020 a1 19 c1 bd 57 9d 8a 3b 32 68 17 3c e3 ab ed 3d
       -0.094287165 0.004230182 0.009241151 0.116050504
000030 60 f8 35 bd a6 09 9e 3d ad eb 08 38 00 92 aa 3d
       -0.044426322 0.07716684 3.2644417e-05 0.083286285
