2-egnca-rework/logs/line4-2024-10-05@23-20-03/best@163.pt (torch, 26116 bytes, 11 tensors)

egnn.layers.0.message_mlp.0.weight f4 [32, 33]
0	0x3d7cd032	0.061721988
1	0x3dc85daa	0.0978349
2	0xbc2168fd	-0.009851691
3	0x3dbfbbdf	0.093620054
4	0xbd4f3ec0	-0.050596952
5	0x3cdbf65e	0.026850875
6	0xbd28f47e	-0.04124879
7	0xbc6843a8	-0.014176287
8	0xbd192f2a	-0.037398495
9	0x3cea7328	0.028619364
10	0x3e06bd27	0.13158093
11	0x3e0e83f2	0.1391752
12	0xbcf8e5a0	-0.030382931
13	0xbd7f1e75	-0.062284905
14	0xbcd0bb78	-0.025480017
15	0x3e1702e1	0.14747192
16	0x3e10dcaf	0.14146684
17	0xbd40d2d8	-0.047076076
18	0xbd79e311	-0.061007563
19	0xbd3586ff	-0.044318195
20	0x3dfb5cef	0.12273585
21	0x3e0eebee	0.13957188
22	0xbdf9e398	-0.12201613
23	0xbd7cf3bb	-0.061755877
24	0xbe1e8b60	-0.15482855
25	0x3e2d87ca	0.1694633
26	0x3cd85e21	0.026412072
27	0x3d5db265	0.05412521
28	0x3dbf71bd	0.09347866
29	0x3d22a43f	0.03970742
30	0xbd0d0e98	-0.034437746
31	0xbe2ddb84	-0.1697827
32	0x3d2fa42d	0.04288118
33	0xbd0470e2	-0.032334216
34	0xbe324362	-0.17408517
35	0xbcb8fb16	-0.022580665
36	0xbdc1d9be	-0.09465359
37	0xbdc91081	-0.09817601
38	0xbe013aa8	-0.12620032
39	0xbe1a3e68	-0.15062869
40	0xbc433329	-0.011914053
41	0x3c967273	0.01836512
42	0xbe20e9a3	-0.15714125
43	0xbe241ec5	-0.16027363
44	0x3a86ecbf	0.0010293945
45	0xbe262765	-0.16225965
46	0x3daeb9df	0.08531546
47	0xbd3673e0	-0.0445441
48	0xbcc40413	-0.023927724
49	0xbe232c8c	-0.15934962
50	0xbe02b823	-0.12765555
51	0x3d869b44	0.06572583
52	0xbdc262e0	-0.09491515
53	0xbd921be1	-0.07134224
54	0xbe1eb9fa	-0.15500632
55	0xbc004d02	-0.00783086
56	0xbddcd77a	-0.107832864
57	0x3d3c656c	0.04599516
58	0x3d623cdd	0.055233825
59	0x3d209120	0.039200902
60	0x3d764dbb	0.060132723
61	0xbdfd8bd0	-0.12380183
62	0x3c98d1e5	0.018654773
63	0xbe1e44fe	-0.15456006
64	0xbdf6c013	-0.12048354
65	0x3e14b836	0.14523396
66	0x3e005c1e	0.1253514
67	0xbdf9e398	-0.12201613
68	0x3dc3197f	0.09526347
69	0xbe13a5c3	-0.14418702
70	0x3cd866df	0.02641624
71	0x3e2049a2	0.15653089
72	0x3c850736	0.01623879
73	0x3d8afe2e	0.06786762
74	0x3e22ddd6	0.15904936
75	0xbd863e6d	-0.065548755
76	0x3e031b30	0.1280334
77	0x3cd70c8c	0.0262511
78	0xbd22bfd3	-0.03973372
79	0xbe2172ae	-0.15766403
80	0x3e2c2d86	0.16814241
81	0x3e2fcae3	0.17167239
82	0xbd9c8b1f	-0.07643723
83	0x3d296fde	0.04136645
84	0xbe394069	-0.18090977
85	0x3cfc1016	0.03076939
86	0x3dc9f02a	0.09860261
87	0x3c92d28a	0.017922658
88	0xbdbdf536	-0.09275286
89	0x3e22296d	0.15836115
90	0xbdc68466	-0.09693222
91	0x3cacb83e	0.021083947
92	0xbe272728	-0.1632353
93	0x3d988bb3	0.074485205
94	0x3df58f46	0.11990218
95	0x3d09bdb1	0.03362817
96	0x3e0a27c4	0.13491732
97	0xbe33d781	-0.17562677
98	0xbdd2aa71	-0.10286415
99	0x3d42ea77	0.047586884
100	0x3db55bde	0.08855413
101	0xbd325c67	-0.043545153
102	0x3d49c21d	0.049257386
103	0xbe2d3c42	-0.16917518
104	0x3e2d6661	0.16933586
105	0xbe0be590	-0.1366179
106	0xbe25a171	-0.16174866
107	0xbe03e6fd	-0.12881084
108	0x3e30efd7	0.17278992
109	0x3d2ffb45	0.04296424
110	0xbc67d383	-0.014149549
111	0x3d0f6c1d	0.035015214
112	0xbaf6cf36	-0.0018830064
113	0xbdfa7ce2	-0.12230851
114	0x3ddfdf96	0.109313175
115	0xbe15eba4	-0.14640671
116	0xbd2f1f17	-0.04275426
117	0x3c8e7543	0.0173899
118	0xbddcfc93	-0.10790362
119	0x3d2bbb0a	0.04192642
120	0xbe2232a7	-0.15839635
121	0xbda79844	-0.08183339
122	0x3e1a4ebc	0.15069097
123	0x3d52b6ac	0.05144374
124	0xbe115be6	-0.14195213
125	0x3e27443f	0.16334628
126	0xbd3e723f	-0.046495672
127	0x3d010af1	0.031504575
128	0xbd209f77	-0.039214578
129	0xbdce7a0e	-0.10081874
130	0x3cfc7494	0.030817308
131	0xbd20778a	-0.0391765
132	0xbdbdcf6c	-0.09268078
133	0x3dc2c079	0.095093675
134	0x3dac315d	0.08407853
135	0x3de97528	0.11399299
136	0xbcdeeaec	-0.027211629
137	0xbcecb3b9	-0.028894292
138	0x3c0f83a6	0.008759415
139	0x3e1c5bf0	0.15269446
140	0xbe1eabc4	-0.15495211
141	0xbc2b13bd	-0.010441718
142	0x3c7d06fb	0.015443559
143	0x3daae121	0.08343721
144	0xbe2ed111	-0.1707194
145	0xbe3f7bdc	-0.18699592
146	0xbbe9ec41	-0.0071387594
147	0x3d5ee44a	0.054416932
148	0xbd963b39	-0.073355146
149	0x3e095a7f	0.13413428
150	0x3d05f7e1	0.0327071
151	0xbd78b197	-0.060716238
152	0xbd7e0339	-0.062014792
153	0xbe11a82e	-0.14224312
154	0x3dc02b70	0.09383285
155	0xbd091c2b	-0.03347413
156	0x3db620d2	0.08892979
157	0xbe3bfa64	-0.18357235
158	0x3e01a008	0.12658703
159	0x3d621f22	0.05520547
160	0xbde249f5	-0.110492624
161	0xbdc2fd81	-0.09521008
162	0x3dfdcc98	0.12392539
163	0x3da42efa	0.080167726
164	0x3dab72df	0.08371519
165	0x3d20197f	0.039086815
166	0xbdb0634e	-0.08612691
167	0xbdeb0be1	-0.11476875
168	0xbd4ba6a2	-0.04971946
169	0xbd46840d	-0.048465777
170	0xbcdf1206	-0.027230274
171	0xbd20bbea	-0.03924171
172	0xbe108a69	-0.141153
173	0xbe2144b4	-0.15748864
174	0xbdfbcfe0	-0.122955084
175	0x3db68b12	0.08913244
176	0xbde2a7b5	-0.11067144
177	0xbe09d306	-0.13459405
178	0xbd9b6053	-0.07586732
179	0x3d631f82	0.05544997
180	0xbd5ce931	-0.053933326
181	0x39bc9a1d	0.00035972978
182	0x3cb0d1f1	0.021584483
183	0xbdfedd5b	-0.12444564
184	0xbd4cb34a	-0.04997567
185	0xbd4ccaac	-0.04999797
186	0xbc33832c	-0.010956567
187	0xbde047ac	-0.1095117
188	0xbd100754	-0.03516324
189	0x3c78c2bf	0.01518315
190	0x3d615d49	0.055020604
191	0xbde9477e	-0.11390589
192	0x3e1f8f51	0.15582015
193	0x3d3e4ae7	0.04645815
194	0xbe0f5022	-0.13995412
195	0x3e270c87	0.16313373
196	0xbde686f5	-0.1125621
197	0xbb4522b7	-0.0030080506
198	0x3e08a217	0.13343082
199	0xbd146d63	-0.03623713
200	0x3d35ec30	0.0444147
201	0x3daa76a3	0.083234094
202	0xbd6b3966	-0.057427786
203	0x3c9d4bc8	0.019201174
204	0x3e090c18	0.1338352
205	0x39246746	0.00015678731
206	0xbd251645	-0.04030444
207	0x3e078c32	0.13237074
208	0x3d11f9fc	0.035638794
209	0xbde55496	-0.11197774
210	0x3db4958f	0.088175885
211	0x3e0f4a59	0.13993205
212	0x3c6d892e	0.014498038
213	0x3e14da43	0.14536385
214	0xbde0169c	-0.109418124
215	0x3e2bdc81	0.16783334
216	0x3dcd23ed	0.10016618
217	0xba4f68a8	-0.00079120183
218	0xbe22428c	-0.15845698
219	0x3e2d224b	0.16907613
220	0xbbb49766	-0.005511212
221	0x3dac411a	0.08410855
222	0xbdbf9e39	-0.093563505
223	0x3d737690	0.059439242
224	0xbcdbebbe	-0.02684581
225	0x3d384c61	0.044994716
226	0x3d8a93f8	0.06766504
227	0xbdee83d2	-0.116462365
228	0xbe02d02b	-0.12774722
229	0xbbf31161	-0.007417843
230	0xbd383dfd	-0.04498099
231	0x3df276d1	0.11839069
232	0xbd949b21	-0.07256151
233	0x3d22a804	0.039711013
234	0xbe23c6d0	-0.1599381
235	0x3db16c27	0.086632065
236	0x3ddc3e6f	0.10754096
237	0x3cde2d25	0.027121136
238	0x3cb8a9f6	0.022541981
239	0x3cdff69c	0.027339272
240	0xbbe3ca24	-0.0069515873
241	0xbd19caa4	-0.03754677
242	0x3e05fd31	0.13084866
243	0xbd5d58b6	-0.05403968
244	0xbcc5e292	-0.024155889
245	0xbc85389e	-0.016262349
246	0xbdd652a8	-0.10464984
247	0xbe0cba45	-0.13742931
248	0xbdd396e9	-0.10331518
249	0xbd2c3275	-0.042040307
250	0xbe0b3332	-0.13593748
251	0x3d6c7ddd	0.05773722
252	0xbe09400c	-0.13403338
253	0xbd2d4ead	-0.04231136
254	0xbd99a44c	-0.0750204
255	0xbdad98c0	-0.084764004

egnn.layers.0.message_mlp.0.bias f4 [32]
0	0xbd08ed1f	-0.03342926
1	0xbc8fff07	-0.017577661
2	0x3d50cab2	0.050974555
3	0xbe1ebf4d	-0.15502663
4	0x3d70e2f8	0.058810204
5	0xbe199df9	-0.15001668
6	0xbd138196	-0.036012255
7	0xbe1218d6	-0.14267287
8	0xbe19a88e	-0.15005705
9	0xbdbefdde	-0.09325765
10	0x3e017545	0.12642391
11	0xbe2394b9	-0.15974702
12	0x3d9c9358	0.07645291
13	0xbc67d32f	-0.014149471
14	0xbe1284dc	-0.14308494
15	0x3d41121b	0.047136407
16	0xbdc22de1	-0.09481407
17	0xbdd0b395	-0.101905026
18	0x3d10c329	0.03534237
19	0xbe00d9ba	-0.12583056
20	0x3c240fc3	0.0100135235
21	0x3d77a115	0.060456354
22	0x3d505c6e	0.050869398
23	0x3dc071a1	0.09396673
24	0xbe13095d	-0.1435904
25	0x3d6cf9d0	0.057855427
26	0x3dd8d135	0.10586778
27	0xbe23eddd	-0.16008706
28	0x3d87e521	0.066355
29	0x3c4570a8	0.012050785
30	0x3d7c6760	0.061622024
31	0xbe2b9160	-0.16754675

egnn.layers.0.message_mlp.2.weight f4 [32, 32]
0	0x3de6a2c9	0.112615176
1	0xbe22045e	-0.15821978
2	0x3dac0696	0.08399694
3	0x3e228e39	0.15874566
4	0xbd0b9829	-0.034080658
5	0x3daa19a9	0.083056755
6	0xbcc669ce	-0.024220373
7	0x3dcdb6b8	0.100446165
8	0xbe2501e7	-0.16114007
9	0x3afde537	0.001937068
10	0x3e40abde	0.18815562
11	0xbd2ed738	-0.042685717
12	0xbe0f838c	-0.14015025
13	0xbe0e1b21	-0.13877536
14	0x3d1c44e4	0.038151637
15	0x3e20a32d	0.15687247
16	0xbe3083b0	-0.17237735
17	0x3de866d8	0.11347741
18	0xbe09b632	-0.13448408
19	0x3d9831b7	0.07431357
20	0x3d1c11bd	0.038102854
21	0x3d6e9077	0.05824324
22	0xbe1b6c3d	-0.15178008
23	0x3e2a974b	0.16659276
24	0x3d1e3bb5	0.03863116
25	0xbc314984	-0.01082075
26	0xbe07e23a	-0.13269892
27	0x3ddccbc9	0.107810564
28	0x3e29a8e2	0.1656833
29	0x3d89b778	0.06724447
30	0xbcb75761	-0.022380533
31	0xbd2225ea	-0.03958694
32	0xbe389692	-0.18026188
33	0x3dee02d3	0.116216324
34	0xbcd5c1a8	-0.026093319
35	0xbe20cf79	-0.15704145
36	0x39718789	0.00023034042
37	0x3d07b394	0.033130243
38	0x3de5ed66	0.11226921
39	0x3d6407cd	0.055671502
40	0xbdf07205	-0.117404975
41	0xbd44a526	-0.04800906
42	0xbe2edaee	-0.17075703
43	0x3da4ae88	0.08041102
44	0x3da6ea06	0.08150105
45	0xbdd99a03	-0.106250785
46	0x3d332bea	0.04374305
47	0x3df0b49c	0.117531985
48	0x3e22d965	0.15903242
49	0x3df4cb54	0.11952844
50	0x3d8b3dda	0.067989066
51	0x3d2f142a	0.04274384
52	0x3d7476b5	0.05968352
53	0x3e256620	0.16152239
54	0x3dda603c	0.106628865
55	0x3cfe3fd5	0.031036297
56	0x3cae2bf1	0.021261187
57	0x3df00e0f	0.117214315
58	0x3e342488	0.1759206
59	0xbdef570f	-0.11686527
60	0xbdb31f5e	-0.08746217
61	0x3e48a68b	0.19594781
62	0xbd964b26	-0.07338552
63	0xbd54d4eb	-0.051960867
64	0x3e0ee29d	0.13953634
65	0xbd8b6238	-0.06805843
66	0x3e3831d8	0.17987764
67	0xbdd2945c	-0.102822036
68	0xbda3b9e5	-0.07994441
69	0x3c19fb0c	0.009398233
70	0x3c2456a1	0.01003042
71	0x3e285d4f	0.16441844
72	0xbd970f84	-0.07376006
73	0x3d8cda16	0.06877534
74	0xbcbc29d2	-0.02296916
75	0xbce68fd2	-0.02814475
76	0xbe1b9cf5	-0.15196593
77	0x3e28347f	0.16426276
78	0xbdc555b6	-0.09635489
79	0xbd15abd7	-0.036540832
80	0xbda6f989	-0.08153064
81	0x3e27505b	0.16339247
82	0xbd92e773	-0.07173052
83	0xbd2a6789	-0.041602645
84	0x3dd74479	0.10511107
85	0x3e2ffbbc	0.17185873
86	0x3e2aacaf	0.16667436
87	0xbdd8a91b	-0.10579129
88	0xbd834ef4	-0.064115435
89	0x3e15064a	0.1455318
90	0x3d958b01	0.073019035
91	0x3e0c5c6d	0.13707133
92	0x3d7b1252	0.06129677
93	0xbdfcea22	-0.12349345
94	0xbcdf9e3e	-0.027297135
95	0xbd9a5662	-0.075360075
96	0xbe14aa08	-0.14517987
97	0x3d49804e	0.049194627
98	0x3dbe318c	0.09286794
99	0x3d86b64f	0.06577741
100	0x3e0ed231	0.13947369
101	0xbd9420b2	-0.07232799
102	0x3d72768f	0.059195098
103	0xbd67a156	-0.056550346
104	0x3e1a3b74	0.15061742
105	0xbc4d8b8e	-0.012545479
106	0x3e00c590	0.12575364
107	0x3e073628	0.13204253
108	0xbdf95481	-0.12174321
109	0xbd2ae4b6	-0.041722022
110	0x3e1bba62	0.15207818
111	0xbdb0051d	-0.08594725
112	0xbd2fae7e	-0.042891018
113	0x3e14876e	0.14504787
114	0x3e14b43e	0.14521882
115	0x3df338f5	0.11876098
116	0x3c866542	0.016405705
117	0x3de0e9c8	0.1098209
118	0xbe29026f	-0.16504835
119	0x3da9b23b	0.08285948
120	0xbcf3519d	-0.029702002
121	0xbe06b901	-0.13156511
122	0x3d21c4b9	0.03949425
123	0x3a8d5232	0.0010781942
124	0x3d823f5a	0.063597396
125	0xbd6d7fcf	-0.057983216
126	0x3e361165	0.17780073
127	0xbe3da052	-0.18518189
128	0x3e302c5c	0.17204422
129	0xbd9de3d4	-0.077094704
130	0x3dd8f96b	0.10594448
131	0xbcd335d1	-0.025782498
132	0xbd46c3ae	-0.04852646
133	0xbe0701f1	-0.13184334
134	0xbe121cfa	-0.14268866
135	0x3ccb8ad6	0.024846476
136	0xbdd2f15f	-0.10299944
137	0xbdf9c88c	-0.121964544
138	0xbe180799	-0.14846648
139	0x3e1c1475	0.15242179
140	0x3d29ef0c	0.04148774
141	0x3c81c9c9	0.015843289
142	0xbd576837	-0.05258962
143	0xbe1c9135	-0.15289767
144	0x3dcd0ddb	0.10012408
145	0x3e1260d4	0.1429475
146	0x3d075499	0.033039663
147	0x3d41275e	0.047156684
148	0x3b26c8b3	0.0025449216
149	0x3d8e57e0	0.069503546
150	0x3c11a3bc	0.008889135
151	0xbde72522	-0.112863794
152	0xbccb5f2c	-0.024825655
153	0x3e24dd81	0.16100122
154	0xbddc21c4	-0.10748628
155	0x3e1fb5ba	0.15596667
156	0xbdcba60b	-0.099437796
157	0xbd173bc4	-0.03692223
158	0x3de51ef6	0.11187546
159	0xbdddb68a	-0.10825832
160	0xbd361b0f	-0.0444594
161	0xbe088755	-0.13332875
162	0xbcd49981	-0.025952103
163	0x3de71d52	0.11284889
164	0xbdb57a11	-0.08861173
165	0xbd228541	-0.039677862
166	0x3b894f3c	0.0041903537
167	0x3dd0fe8e	0.102048025
168	0x3cf67d2a	0.03008898
169	0xbcb3f33e	-0.021966573
170	0xbde0cf88	-0.109770834
171	0xbe0af543	-0.13570122
172	0x3e2fc0a3	0.17163329
173	0xbd3a4b09	-0.045481715
174	0x3de16268	0.11005098
175	0xbc8b38ee	-0.01699492
176	0xbdb10f17	-0.08645456
177	0xbd8da706	-0.06916623
178	0xbe0f3834	-0.13986284
179	0xbd0eb593	-0.03484113
180	0x3c3841e9	0.011246183
181	0xbdb2a6f1	-0.08723248
182	0x3d43c622	0.047796376
183	0x3da039a9	0.07823498
184	0xbde7d167	-0.11319237
185	0xbc9d0211	-0.019166024
186	0x3e02ef3a	0.1278657
187	0xbe27389a	-0.16330186
188	0x3dbdfb71	0.09276474
189	0xbd27b94e	-0.040948205
190	0xbd413de7	-0.047178175
191	0xbddc5c78	-0.107598245
192	0xbc503268	-0.01270733
193	0x3d75f663	0.060049426
194	0xbdabe26e	-0.083927974
195	0xbd659889	-0.056053672
196	0x3dba846c	0.09107289
197	0xbdad0c92	-0.08449663
198	0x3c4205d9	0.0118422145
199	0x3dc8225e	0.0977218
200	0xbb61a4cf	-0.003443051
201	0xbd48c93b	-0.049020033
202	0xbde9e5e7	-0.114208035
203	0xbd273ea9	-0.04083124
204	0xbd0c2268	-0.0342125
205	0x3de6a846	0.11262564
206	0x3c80c988	0.015721098
207	0xbe134f32	-0.1438568
208	0xbc4caa80	-0.012491822
209	0xbddb7213	-0.10715117
210	0x3e3fe507	0.18739711
211	0xbd28b656	-0.041189514
212	0xbe2d0430	-0.16896129
213	0xbdc881ae	-0.097903594
214	0x3dccea24	0.10005596
215	0x3e2c4055	0.16821416
216	0xbde74ab2	-0.11293544
217	0xbe321f8d	-0.17394848
218	0xbd27ef1a	-0.04099951
219	0xbd48cdcf	-0.0490244
220	0xbdb5809b	-0.0886242
221	0x3de1b1f3	0.11020269
222	0x3c8063d1	0.015672596
223	0x3e07090e	0.13187048
224	0x3e01e671	0.12685563
225	0x3c3b5467	0.011433697
226	0x3e11f105	0.14252098
227	0xbd419daa	-0.0472695
228	0x3d76dec0	0.060271025
229	0xbde3f4de	-0.11130689
230	0x3d25e1b2	0.040498443
231	0x3d937324	0.07199696
232	0xbe365818	-0.17807043
233	0x3e18ca95	0.14921029
234	0x3dfd0668	0.123547375
235	0xbddf933b	-0.10916754
236	0x3d5322c5	0.05154683
237	0x3e2b07fc	0.16702265
238	0xbd75d999	-0.06002197
239	0x3bb9129d	0.005647971
240	0xbc95a6d5	-0.018268028
241	0xbdd178d0	-0.10228121
242	0x3db48989	0.08815295
243	0xbda3229f	-0.07965588
244	0x3d563289	0.052294288
245	0x3d0ea901	0.034829143
246	0x3db0adcc	0.08626899
247	0x3e2cc5ec	0.16872376
248	0x3d74770e	0.059683852
249	0xbcdb6afa	-0.026784409
250	0xbd63c879	-0.055611107
251	0x3e153c3b	0.14573757
252	0x3deaca7f	0.11464404
253	0x3e1ba9da	0.15201512
254	0xbda0121c	-0.07815954
255	0x3de115e9	0.10990507

egnn.layers.0.message_mlp.2.bias f4 [32]
0	0x3b7bbe27	0.00384129
1	0x3ddcd889	0.10783488
2	0x3c9fe9a1	0.019520583
3	0x3e270b63	0.16312937
4	0xbcb99ff7	-0.022659285
5	0xbe2822f5	-0.16419585
6	0xbe20d680	-0.15706825
7	0xbd996ff6	-0.07492058
8	0x3d72a72c	0.05924146
9	0x3dc944eb	0.09827598
10	0x3da3c114	0.07995811
11	0x3e1b9065	0.15191801
12	0xbe3038de	-0.17209193
13	0x3d930850	0.0717932
14	0xbc837b61	-0.016050043
15	0xbe093c69	-0.13401951
16	0x3d2c7471	0.042103235
17	0x3e2aa303	0.16663747
18	0x3d454197	0.048158254
19	0x3ddae4ee	0.10688196
20	0x3dc9675b	0.098341666
21	0xbdf0d628	-0.11759597
22	0xbe30e72b	-0.17275684
23	0xbe262e4d	-0.162286
24	0x3e1a6fc6	0.150817
25	0xbe058bdf	-0.13041638
26	0xbd6d249c	-0.05789624
27	0x3e17dad7	0.14829575
28	0x3e1fd284	0.15607649
29	0xbe024279	-0.1272067
30	0x3d9605d6	0.07325332
31	0xbba7b0c6	-0.0051175086

egnn.layers.0.coord_mlp.0.weight f4 [32, 32]
0	0xbd23e5b4	-0.040013984
1	0xbb28288e	-0.0025658938
2	0x3bbce7c3	0.005764933
3	0xbe2c0e19	-0.16802253
4	0xbdf6f463	-0.12058332
5	0x3dad42b7	0.084599905
6	0x3de051df	0.10953116
7	0x3d3acf86	0.045608066
8	0xbddfa259	-0.10919637
9	0xbc66bb40	-0.01408273
10	0x3ddfd613	0.10929503
11	0xbddff309	-0.10935027
12	0x3e035a6e	0.12827465
13	0x3d86ed0f	0.06588184
14	0xbddae3f0	-0.10688007
15	0xbe24c178	-0.16089427
16	0x3d9d0780	0.07667446
17	0x3d390d78	0.04517886
18	0xbdc37db3	-0.095454596
19	0xbe09d654	-0.13460666
20	0x3d10d6cc	0.035361096
21	0x3da25d87	0.07927995
22	0xbd8a95a3	-0.06766822
23	0x3e158a54	0.14603549
24	0x3dfd6b46	0.123739764
25	0x3de63800	0.1124115
26	0x3e15caed	0.14628191
27	0xbdf2b59f	-0.11851048
28	0x3e115f3a	0.14196482
29	0xbe1ab0a7	-0.1510645
30	0xbd3176d6	-0.04332622
31	0xbe03d55b	-0.12874357
32	0xbd372249	-0.04471043
33	0xbe1d83a5	-0.1538225
34	0xbe1d0ab5	-0.15336116
35	0xbde5d00c	-0.112213224
36	0x3ce54770	0.027988166
37	0xbde389f3	-0.11110296
38	0x3c8e0339	0.017335521
39	0x3cd0e5a6	0.02550013
40	0xbe1b7f9d	-0.151854
41	0x3e10f89f	0.14157341
42	0xbd4ec2b3	-0.05047865
43	0x3df6d791	0.12052835
44	0xbb33a163	-0.0027409426
45	0x3de2c9db	0.11073657
46	0x3c581194	0.013187785
47	0xbddfa78a	-0.109206274
48	0xbe2529cd	-0.16129227
49	0xbe030327	-0.12794171
50	0xbdcee5c0	-0.10102415
51	0xbdf5f3fe	-0.120094284
52	0x3e2e520f	0.1702349
53	0xbdf4827a	-0.11938949
54	0x3c6d2cd8	0.014476024
55	0xbdf69472	-0.120400324
56	0x3e05b7d6	0.13058409
57	0xbbf08f00	-0.0073412657
58	0xbd9f4d84	-0.07778457
59	0x3c6c9ebd	0.014442143
60	0xbdc01a4c	-0.09380016
61	0x3db35333	0.08756103
62	0xbbbcf57a	-0.005766568
63	0xbdf8a6eb	-0.12141212
64	0xbd3ca9b1	-0.046060268
65	0xbb63a030	-0.003473293
66	0xbc8c7843	-0.017147189
67	0xbd927438	-0.07151073
68	0x3d0d2367	0.03445759
69	0x3e378e72	0.17925432
70	0xbdc30f89	-0.095244475
71	0xbda78aed	-0.08180795
72	0x3bc13323	0.0058959886
73	0x3dfcf0fc	0.123506516
74	0xbdaf18a2	-0.0854962
75	0xbe09bbb2	-0.13450506
76	0x3e2edf10	0.17077279
77	0x3d85d328	0.065344155
78	0x3d994359	0.07483549
79	0xbd29518c	-0.041337535
80	0x3e193da2	0.14964917
81	0x3a80f726	0.0009839281
82	0x3d6fc60b	0.058538478
83	0x3e25b160	0.16180944
84	0xbdf3d439	-0.11905713
85	0xbdec4b41	-0.11537791
86	0x3decdf5e	0.115660414
87	0x3dcd07cb	0.10011252
88	0xba830ca3	-0.0009998273
89	0xbd9655e7	-0.07340603
90	0x3e203c5a	0.15648022
91	0xbe19b814	-0.15011626
92	0xbcd69b3f	-0.026197074
93	0xbe18b822	-0.14913991
94	0x3e0853db	0.13313238
95	0x3d09b521	0.033620004
96	0xbd58dad8	-0.05294308
97	0xbdfac0af	-0.12243783
98	0xbd23590a	-0.039879836
99	0xbe135e76	-0.14391503
100	0x3e233993	0.15939932
101	0xbdb4ca9b	-0.088277064
102	0xba7033e8	-0.0009163008
103	0x3c5b2c76	0.0133772995
104	0x3dd1afc4	0.10238603
105	0xbc9ba001	-0.018997194
106	0x3cdfbdcc	0.027312182
107	0xbc63781a	-0.013883615
108	0x3c2d55d5	0.010579546
109	0x3dc35884	0.095383674
110	0x3df2b18a	0.11850269
111	0xbc22486e	-0.009904964
112	0x3d42ce2e	0.04755991
113	0xbd333378	-0.043750256
114	0x3d8f9270	0.070103526
115	0x3bd34d82	0.0064484486
116	0xbc76b195	-0.015056987
117	0x3c49a850	0.012308195
118	0x3e0fa937	0.14029394
119	0x3df5a9e7	0.11995297
120	0xbd14c3bf	-0.03631949
121	0x3dfe065f	0.12403559
122	0x3be6a942	0.00703922
123	0xbd97962c	-0.0740169
124	0xbdaf6760	-0.08564639
125	0x3dd5fc50	0.104485154
126	0xbd859048	-0.0652166
127	0xbcaa2904	-0.02077151
128	0xbdab47b4	-0.08363286
129	0xbde04f83	-0.10952666
130	0x3df50e60	0.119656324
131	0x3e16e583	0.1473599
132	0xbe1ea150	-0.15491223
133	0x3c33907a	0.010959739
134	0x3e11dfcb	0.14245526
135	0x3deaa7c4	0.1145778
136	0x3d48e779	0.049048875
137	0x3d766712	0.06015689
138	0xbd37d67e	-0.04488229
139	0x3cf4bd80	0.029875517
140	0x3dd591ab	0.104281746
141	0xbdbdcb70	-0.09267318
142	0xbc25b3f2	-0.010113703
143	0x3e38b325	0.18037088
144	0x3df40168	0.11914331
145	0x3dae0032	0.08496131
146	0x3d034a3c	0.032053217
147	0x3e142b0e	0.14469549
148	0xbd060687	-0.03272107
149	0xbd1686f3	-0.03674979
150	0xbd9c0bf4	-0.076194674
151	0x3db684e0	0.08912063
152	0xbe0b9ef1	-0.1363485
153	0x3d0ab607	0.033865
154	0x3d0b0c91	0.03394753
155	0xbde2ce8a	-0.110745504
156	0x3db147b8	0.086562574
157	0xbc1a504c	-0.009418558
158	0x3d9cb1d7	0.07651108
159	0xbd8f01ad	-0.069827415
160	0x3d31c6f3	0.043402623
161	0x3e09ff97	0.13476406
162	0x3cc6b672	0.024256919
163	0xbde414a4	-0.111367494
164	0xbd2d095c	-0.042245254
165	0xbd4d341c	-0.050098523
166	0xbc24174a	-0.010015318
167	0xbd38f504	-0.04515554
168	0x3d116afa	0.03550241
169	0xbd958856	-0.07301395
170	0x3cf67718	0.030086085
171	0xbe19cbac	-0.15019101
172	0xbd314334	-0.04327698
173	0x3da728a1	0.08162046
174	0x3dc913d4	0.09818235
175	0xbe045c60	-0.12925863
176	0xbdde4869	-0.10853655
177	0x3c82a8ca	0.015949626
178	0x3cc8af8c	0.02449777
179	0xbd3d2b4f	-0.04618388
180	0x3dec6b72	0.11543931
181	0xbdc32da3	-0.09530189
182	0xbdd7eb8a	-0.105429724
183	0x3e10834f	0.1411259
184	0xbdbcd1d9	-0.09219713
185	0xbd236efb	-0.03990076
186	0xbe0d1d24	-0.13780648
187	0x3db877e2	0.09007241
188	0xbd3b5378	-0.0457339
189	0x3db4ff46	0.08837752
190	0x3dab72ce	0.08371507
191	0xbe145f71	-0.14489533
192	0xbdfe4b76	-0.12416737
193	0x3e24eea4	0.16106659
194	0xbe275a30	-0.16342998
195	0xbdf4388c	-0.11924848
196	0xbe16253e	-0.14662644
197	0x3e0c5822	0.13705495
198	0xbc26295e	-0.010141699
199	0xbe2d6286	-0.16932115
200	0xbe090425	-0.13380487
201	0x3e18cc38	0.14921653
202	0xbdb49940	-0.088182926
203	0x3e0552c3	0.13019852
204	0x3e276ce9	0.1635014
205	0x3d5bbe47	0.05364826
206	0xbda9f5d0	-0.08298838
207	0x3e381756	0.17977652
208	0x3e281eea	0.16418043
209	0x3e0b6293	0.13611822
210	0xbd6cd503	-0.05782033
211	0x3e04b92a	0.1296126
212	0xbdd999db	-0.10625049
213	0x3dbe8460	0.09302592
214	0x3b48498d	0.0030561418
215	0x3e170785	0.14748962
216	0x3d1b46f8	0.037909478
217	0x3daaea3b	0.08345457
218	0xbdf001f8	-0.117191255
219	0x3defc919	0.11708278
220	0xbc18a2ef	-0.00931619
221	0xbc395200	-0.011311054
222	0x3cd80ca2	0.026373211
223	0xbd6856af	-0.056723293
224	0xbe299c9a	-0.16563645
225	0xbe25c839	-0.1618966
226	0x3d35365b	0.04424129
227	0xbd91d410	-0.07120526
228	0xbdfa23b0	-0.12213838
229	0x3e11b214	0.14228088
230	0x3e3c86aa	0.18410745
231	0xbe4036e2	-0.18770936
232	0xbdf1ef72	-0.11813249
233	0xbddabc37	-0.106804304
234	0x3d6ae56b	0.057347696
235	0x3db7858d	0.0896102
236	0xbdb4aa7f	-0.08821582
237	0xbdd3d3e0	-0.10343146
238	0x3deaaa71	0.1145829
239	0xbdd1e73c	-0.102491826
240	0xbdabc3e3	-0.08386972
241	0x3e2e40fa	0.17016974
242	0x3ae939d5	0.0017793725
243	0xbd940368	-0.07227212
244	0x3dbbf1fd	0.09177015
245	0xbe1bda33	-0.15219955
246	0x3e2cdfd2	0.16882256
247	0xbdc70070	-0.0971688
248	0x3cbd38c8	0.023098364
249	0xbdce622e	-0.1007732
250	0x3e0237a6	0.1271654
251	0x3c44a31a	0.012001777
252	0xbe2063bf	-0.1566305
253	0xbdd30c8c	-0.103051275
254	0x3de347f9	0.11097712
255	0xbd76de79	-0.06027076

egnn.layers.0.coord_mlp.0.bias f4 [32]
0	0xbd381c6d	-0.044948984
1	0xbda59272	-0.08084573
2	0xbe27940d	-0.1636507
3	0x3e060cd5	0.13090833
4	0xbde6d46a	-0.112709835
5	0x3e0fae4d	0.14031334
6	0x3c9743dc	0.018464975
7	0xbd9e0b21	-0.077169664
8	0xbdd49873	-0.1038064
9	0xbe0c901d	-0.1372685
10	0x3e274418	0.1633457
11	0xbd591d26	-0.053006314
12	0x3ce4a4e1	0.027910652
13	0xbcfb4f99	-0.030677604
14	0x3e2ef7f0	0.17086768
15	0x3e314b62	0.17313913
16	0x3cdd7f75	0.027038315
17	0xbdc773a9	-0.09738857
18	0x3d496059	0.04916415
19	0xbe2b8535	-0.16750033
20	0xbe269f13	-0.1627162
21	0x3c7b6d08	0.015345819
22	0x3bd55c96	0.0065112812
23	0x3dfd8ef1	0.123807795
24	0xbda2aa2a	-0.079426125
25	0x3d002b0c	0.031291053
26	0x3dc03858	0.09385747
27	0xbe298ec4	-0.16558367
28	0x3d7f821d	0.062379945
29	0xbdf66f02	-0.12032892
30	0x3daecb2a	0.08534844
31	0x3dd39f94	0.103331715

egnn.layers.0.coord_mlp.2.weight f4 [1, 32]
0	0xbbb9262e	-0.0056503033
1	0xbb819803	-0.003954889
2	0xbc18a307	-0.0093162125
3	0xbaee376b	-0.0018174475
4	0xbc20402c	-0.009780925
5	0x3c336c9f	0.01095119
6	0xbc8b9fe8	-0.017044023
7	0xbc2b5456	-0.010457119
8	0xbc3ce886	-0.011530047
9	0xbc6833c6	-0.0141725
10	0x3bf48c58	0.0074630193
11	0x3bf19994	0.0073730443
12	0x3c7d1a50	0.015448168
13	0x3c5898a5	0.013219987
14	0x3b8959e2	0.004191623
15	0x3bee2760	0.0072678775
16	0xbc61cec1	-0.013782204
17	0xbc8f9bcb	-0.017530343
18	0x3c0af251	0.008480624
19	0xbc0618da	-0.008184636
20	0xbc8f13c2	-0.017465476
21	0x3c4863b7	0.012230805
22	0x3c72f86e	0.014829738
23	0x3c541177	0.012943617
24	0x3c043ddb	0.008071388
25	0x3c8304ef	0.015993563
26	0x3b1374a3	0.002249994
27	0xbc190b7d	-0.009341118
28	0xbc89b1c4	-0.016808398
29	0xbc2f06aa	-0.010682741
30	0x3b951855	0.0045500197
31	0x3b859183	0.0040761842

egnn.layers.0.hidden_mlp.0.weight f4 [32, 48]
0	0x3d721451	0.059101406
1	0x3d006933	0.031350326
2	0xbddf63d5	-0.10907713
3	0xbd04ded2	-0.03243906
4	0x3e003a5b	0.12522261
5	0x3d11b1cd	0.035569955
6	0xbe02a5e5	-0.12758596
7	0xbd944b6e	-0.072409496
8	0xbd82c9ae	-0.063861236
9	0x3ca2d0bc	0.019874923
10	0xbdef1d17	-0.1167547
11	0x3df6e4d2	0.12055363
12	0x3db8f8a6	0.09031801
13	0x3cc171d7	0.023613853
14	0xbe013b13	-0.12620191
15	0x3b78895f	0.0037923676
16	0x3a484fe3	0.00076412986
17	0xbd90983c	-0.070602864
18	0xbde51230	-0.111851096
19	0xbe1db954	-0.15402728
20	0x3d761da7	0.060086872
21	0x3c4793b4	0.012181211
22	0x3d1ec7b8	0.038764685
23	0x3dfefddc	0.124507636
24	0xbd53ad9a	-0.05167923
25	0xbe010e01	-0.12602998
26	0xbdf689b7	-0.12037986
27	0xbe0da0cb	-0.13830869
28	0x3d8c787c	0.06858918
29	0xbd95d92e	-0.07316814
30	0x3dbeecbd	0.09322498
31	0xbd923893	-0.07139697
32	0x3ac78ebd	0.0015225034
33	0x3d73c743	0.059516203
34	0x3d567889	0.052361045
35	0x3e097d01	0.13426591
36	0x3c4b9e7d	0.012427923
37	0xbd7fe774	-0.06247659
38	0x3c8459db	0.016156128
39	0xbd29a89a	-0.041420557
40	0x3ddf8f75	0.10916034
41	0xbd2cd3c6	-0.04219415
42	0xbdca37b0	-0.09873903
43	0xbd1f6b77	-0.038920846
44	0xbd876836	-0.066116735
45	0x3df5c2d8	0.12000054
46	0xbd9bcb72	-0.076071635
47	0xbd517bfb	-0.051143628
48	0xbd8816ee	-0.066449985
49	0x3e0eaf75	0.13934119
50	0xbde59507	-0.11210065
51	0x3de0fe70	0.1098603
52	0xbd610344	-0.054934755
53	0x3dc73528	0.097269356
54	0x3d593d63	0.05303706
55	0xbdb7fe5c	-0.08984062
56	0xbe07ba35	-0.13254626
57	0x3d9edc17	0.077568226
58	0xbdae052b	-0.084970795
59	0xbdced270	-0.100987315
60	0xbd9fd26a	-0.07803805
61	0xbcea194d	-0.028576517
62	0xbd77f095	-0.06053217
63	0x3db904db	0.09034129
64	0x3c20ed47	0.009822196
65	0xbda7ba5b	-0.08189841
66	0xbdd77a5c	-0.10521385
67	0x3d5f41aa	0.05450598
68	0xbd10f2a5	-0.035387654
69	0xbd593f6b	-0.053038996
70	0x3e17b8d7	0.14816605
71	0xbddfd4f8	-0.109292924
72	0x3d96ee4e	0.07369672
73	0xbd75ef80	-0.060042858
74	0x3be0473f	0.0068444307
75	0x3d3ff116	0.046860777
76	0xbd13dacf	-0.036097344
77	0x3cc82107	0.024429811
78	0xbd84ee76	-0.06490795
79	0xbd26b642	-0.04070116
80	0xbc09c937	-0.00840979
81	0x3dc7e1ce	0.09759866
82	0x3cd43050	0.025901943
83	0xbd3d6291	-0.04623658
84	0xbd4b03fb	-0.049564343
85	0xbc27cfce	-0.010242416
86	0xbd7690b0	-0.06019658
87	0xbcf66640	-0.030078053
88	0x3db9d89e	0.090745196
89	0x3d847ab8	0.06468719
90	0x3db30e0f	0.08742916
91	0xbdc5a7e3	-0.096511625
92	0x3dbb1743	0.09135296
93	0x3c95399e	0.01821595
94	0x3de53108	0.111909926
95	0x3995d792	0.00028580107
96	0xbddb437e	-0.107062325
97	0x3d6e7f9e	0.058227174
98	0x3cbbeac1	0.022939088
99	0x3dc3d715	0.09562508
100	0xbd5ef114	-0.05442913
101	0xbd896483	-0.06708624
102	0xbdfd899b	-0.12379762
103	0x3dd52829	0.104080506
104	0xbdd884bb	-0.10572191
105	0xbd38c634	-0.045110896
106	0x3e0c451f	0.13698243
107	0xbdc327da	-0.095290855
108	0x3dc69324	0.096960336
109	0x3d23e3f1	0.040012304
110	0xbdff2e73	-0.12460031
111	0x3db9c380	0.09070492
112	0xbd9b13bf	-0.07572126
113	0x3d85e25e	0.06537317
114	0xbdc95032	-0.09829749
115	0xbe0a40b6	-0.13501248
116	0xbd6f15c4	-0.058370367
117	0xbd8b8f2b	-0.068144165
118	0x3ddd2213	0.10797515
119	0xbcc844e0	-0.024446905
120	0x3e11202e	0.14172432
121	0x3b35d5d6	0.0027745864
122	0x3d5c6927	0.05381122
123	0x3dead324	0.11466053
124	0x3d97b50c	0.07407579
125	0x3d3c257b	0.04593418
126	0x3d28cbbc	0.04120992
127	0x3c24f775	0.010068764
128	0x3c6ea490	0.014565602
129	0x3e097929	0.13425125
130	0xbdaf1859	-0.08549566
131	0x3dbd58d9	0.09245462
132	0x3d72e55f	0.059300777
133	0xbd80bc71	-0.06285942
134	0xbdba6cec	-0.091028064
135	0xbd72dc06	-0.059291862
136	0x3de19f17	0.11016672
137	0xbe097c03	-0.13426213
138	0x3ced2f0a	0.028953094
139	0x3e0272f8	0.1273917
140	0xbdde1951	-0.108446725
141	0xbe171667	-0.1475464
142	0xbe0ab8c9	-0.13547052
143	0xbdabd8cd	-0.08390961
144	0x3dafa966	0.08577232
145	0x3dcf1979	0.101122804
146	0xbd5269ab	-0.051370304
147	0xbde9835d	-0.11402009
148	0x3d861fcc	0.065490335
149	0xbdb72689	-0.08942897
150	0x3e047f10	0.12939095
151	0xbb43be17	-0.002986794
152	0x3d857c1a	0.06517811
153	0x3c869468	0.016428187
154	0xbdd96c9e	-0.1061642
155	0xbdca365a	-0.09873648
156	0x3d87d08f	0.06631576
157	0xbdaabf4f	-0.083372705
158	0xbdbab92b	-0.09117349
159	0x3d934275	0.0719041
160	0x3e07c5d2	0.13259056
161	0xbda3ed62	-0.080042616
162	0x3da21f1d	0.07916091
163	0xbcccc2ba	-0.024995197
164	0xbd91ce66	-0.071194455
165	0x3e0c196d	0.13681574
166	0x3db5a91f	0.08870148
167	0x3d1c308c	0.038132235
168	0xbdaf30dd	-0.08554242
169	0xbd929ced	-0.071588375
170	0x3db1b18a	0.08676441
171	0x3c286952	0.010279017
172	0xbe0b376c	-0.1359536
173	0xbd3dd295	-0.046343405
174	0x3c39ef95	0.011348625
175	0x3d5571d4	0.052110508
176	0xbd8f2220	-0.06988931
177	0x3dcc3fa6	0.099730775
178	0xbdf03dbc	-0.11730525
179	0x3dd498e3	0.10380723
180	0xbdae97b6	-0.0852503
181	0xbdf35bae	-0.11882721
182	0x3ddb1468	0.106972516
183	0xbcfd4a23	-0.03091914
184	0x3ddbbf04	0.10729793
185	0xbe0c9f86	-0.13732728
186	0x3d6855d3	0.056722473
187	0x3d840e29	0.06448013
188	0x3d93b2cc	0.07211837
189	0xbd5f30dc	-0.054489955
190	0x3bf568ea	0.0074893134
191	0xbc7ec72b	-0.015550415
192	0xbddcb1fd	-0.10776136
193	0xbd71f8e6	-0.05907526
194	0xbdd6e02a	-0.10491975
195	0x3d99b2e8	0.07504827
196	0x3d05b129	0.032639656
197	0x3d406a87	0.046976592
198	0xbe0f5ef1	-0.14001061
199	0x3d6ee893	0.05832727
200	0xbd99a986	-0.07503037
201	0xbdcdc68f	-0.10047638
202	0xbde3a952	-0.1111628
203	0x3df70c46	0.12062888
204	0xbda9c428	-0.08289367
205	0x3dc17573	0.0944623
206	0xbda65fe3	-0.08123758
207	0x3d7f4274	0.062319234
208	0x3d183541	0.037160162
209	0xbdeb57c2	-0.11491348
210	0xbdbef937	-0.09324878
211	0x3b86cdda	0.004113895
212	0xbceca532	-0.028887365
213	0x3dee2920	0.11628938
214	0xbdfeef9f	-0.12448048
215	0x3d333da3	0.043759953
216	0xbc9f809d	-0.019470507
217	0xbda3c3ff	-0.07996368
218	0xbdff5c2d	-0.12468753
219	0xbbcac7d4	-0.006188372
220	0x3cd09c2f	0.0254651
221	0xbd944a5e	-0.07240747
222	0x3de7a88f	0.11311447
223	0x3dec6d3d	0.11544273
224	0xbdfe69fd	-0.124225594
225	0xbdac36c7	-0.084088854
226	0x3d725a6d	0.059168268
227	0x3dbe6630	0.092968345
228	0xbdba21ab	-0.09088453
229	0x3dc1c8e2	0.094621435
230	0xbde5d5c3	-0.112224124
231	0xbd99939b	-0.07498857
232	0x3d043fa4	0.032287255
233	0x3d8709e6	0.06593685
234	0x3ca8a4e0	0.020586431
235	0xbc90e503	-0.017687326
236	0x3d528fb5	0.05140658
237	0xbdc87af9	-0.0978908
238	0x3d6a1e69	0.057157908
239	0x3e1552b3	0.14582328
240	0xbcc9bb8f	-0.024625568
241	0xbb67248b	-0.0035269584
242	0x3dca5a97	0.0988056
243	0x3c796e4c	0.015224051
244	0xbce63c35	-0.02810488
245	0x3de80d9a	0.11330719
246	0xbd9fd380	-0.07804012
247	0x3db63793	0.08897319
248	0x3da97fa3	0.08276298
249	0xbde17b4d	-0.11009846
250	0xbd075d83	-0.033048164
251	0x3d46a4f5	0.04849716
252	0x3c7f93eb	0.015599231
253	0x3c936732	0.017993543
254	0x3deefbde	0.116691336
255	0x3dd2eb79	0.10298819

egnn.layers.0.hidden_mlp.0.bias f4 [32]
0	0x3d776ce0	0.060406566
1	0xbbf106bf	-0.0073555405
2	0x3cf5963e	0.029978868
3	0xbdbb7c05	-0.09154514
4	0x3d346279	0.044039223
5	0xbbb5d810	-0.0055494383
6	0xbd8a447c	-0.067513436
7	0xbddf09a1	-0.108905084
8	0x3d0cf553	0.034413647
9	0xbdaba586	-0.083811805
10	0x3ce31e8e	0.02772453
11	0xbe0b7e0e	-0.13622305
12	0x3d909e50	0.07061446
13	0x3db8dd2d	0.09026561
14	0x3c288dc4	0.010287706
15	0xbb6ece98	-0.0036439057
16	0x3e08e885	0.13369949
17	0x3d366672	0.044531293
18	0xbdc1592d	-0.09440837
19	0xbd6e1990	-0.058129847
20	0xbd5452a3	-0.05183662
21	0xbdb2e736	-0.08735506
22	0xbdcc189a	-0.0996563
23	0xbbb7f78b	-0.005614226
24	0xbde4fe5f	-0.1118133
25	0xbc86e059	-0.0164644
26	0x3d0ecbeb	0.03486244
27	0xbd90b1f5	-0.070651926
28	0xbd68dc92	-0.056850977
29	0xbe072a45	-0.13199718
30	0x3d460556	0.048344932
31	0x3d0db69b	0.034597974

egnn.layers.0.hidden_mlp.2.weight f4 [16, 32]
0	0xbe0aef27	-0.13567792
1	0xbddc2c72	-0.10750665
2	0xbcf1020d	-0.029419923
3	0x3b0c0bdf	0.002136938
4	0x3c33d924	0.010977063
5	0x3e1d6f17	0.15374409
6	0xbe2418c7	-0.16025077
7	0x3d969dee	0.073543414
8	0x3e0a8a25	0.1352926
9	0x3e2558dd	0.1614718
10	0x3d08f232	0.0334341
11	0x3e21fa6a	0.15818182
12	0xbdbed265	-0.09317473
13	0xbdfa77c3	-0.12229874
14	0xbd2282a3	-0.039675366
15	0xbdbc3015	-0.091888584
16	0x3dab70ac	0.083711
17	0xbd44f7f1	-0.048088018
18	0x3db20ae9	0.08693487
19	0xbd8513a7	-0.06497889
20	0xbd956c78	-0.072960794
21	0xbd5a2e67	-0.05326691
22	0xbca2686e	-0.019825187
23	0xbdab630d	-0.08368502
24	0x3dc773a1	0.09738851
25	0x3de43d5d	0.111445166
26	0x3d03e059	0.032196376
27	0xbe2f1310	-0.17097116
28	0x3e11d9aa	0.14243189
29	0xbe054499	-0.13014449
30	0xbdf654e3	-0.120279096
31	0x3db7afb1	0.08969057
32	0xbdd1624e	-0.10223828
33	0xbe0b856a	-0.13625112
34	0xbe0928d3	-0.1339448
35	0x3e191aa4	0.14951569
36	0x3d4dbfaf	0.05023163
37	0x3db09f86	0.08624177
38	0x3d0f04aa	0.034916557
39	0x3da4cb2a	0.08046563
40	0x3e35db26	0.1775938
41	0xbcdf4794	-0.02725581
42	0xbde74cee	-0.1129397
43	0xbd19ff88	-0.03759721
44	0xbd83dc10	-0.06438458
45	0xbe2d6e9c	-0.16936725
46	0xbe0bd90f	-0.1365702
47	0xbd784772	-0.06061501
48	0x3d06d81d	0.032920945
49	0x3db8cf6c	0.090239376
50	0x3deedfbd	0.116637684
51	0xbe3323bd	-0.17494102
52	0xbc692b93	-0.01423158
53	0xbd07e41b	-0.033176523
54	0x3e1a4cc0	0.1506834
55	0xbd3c8ccf	-0.046032723
56	0x3e3b9cda	0.18321553
57	0x3d2e8777	0.042609658
58	0x3cc66577	0.024218304
59	0x3d9fa8e7	0.077958874
60	0x3e09e2f3	0.1346548
61	0xbdbe07ef	-0.09278857
62	0x3d97acdf	0.074060194
63	0xbd8a987d	-0.06767366
64	0x3d3cce94	0.046095446
65	0x3dd91e40	0.10601473
66	0xbda3a12f	-0.07989728
67	0xbd3a5682	-0.045492657
68	0x3e24abe6	0.16081199
69	0xbe2a5a5d	-0.16636033
70	0xbcf72445	-0.030168662
71	0x3e14eb59	0.14542903
72	0x3d1f7290	0.038927615
73	0xbe146fc2	-0.14495757
74	0x3bcb6aaf	0.006207786
75	0xbe133ab6	-0.14377865
76	0xbd844edb	-0.06460353
77	0x3d0fe14f	0.03512698
78	0x3dc408d4	0.09571996
79	0xbdc8cfa9	-0.09805233
80	0x3e1a3267	0.1505829
81	0xbdfdf78d	-0.12400732
82	0xbd0ef130	-0.034897983
83	0xbe1bbc6a	-0.15208593
84	0xbbb96739	-0.005658057
85	0xbb891657	-0.0041835713
86	0x3d9b05c3	0.07569458
87	0xbdf07f13	-0.117429875
88	0x3c141a1b	0.009039427
89	0x3d6a2f54	0.057174042
90	0xbde65ea2	-0.112485185
91	0x3e1f4c43	0.15556435
92	0xbd15f719	-0.036612604
93	0xbe3722b2	-0.17884329
94	0xbd00ee51	-0.031477276
95	0x3d2c0016	0.04199227
96	0xbdb9a363	-0.09064367
97	0xbd8c0e24	-0.068386346
98	0x3d9f7aa1	0.077870615
99	0xbd08851e	-0.033330075
100	0x3d84b88d	0.06480513
101	0x3c4039a2	0.011732491
102	0xbb7deede	-0.0038747112
103	0x3e170b92	0.14750507
104	0xbcf53ad5	-0.02993528
105	0x3e122a32	0.14273909
106	0xbd7685e5	-0.060186286
107	0x3dea372c	0.114363045
108	0x3dbbb990	0.091662526
109	0xbde4ec7d	-0.11177919
110	0xbd2b126f	-0.041765627
111	0xbdf36b14	-0.11885658
112	0x3d156064	0.03646888
113	0x3bbc97e9	0.005755414
114	0xbd7194ad	-0.05897968
115	0x3e1bd38c	0.15217417
116	0x3e2c84e4	0.16847569
117	0xbe00a9ff	-0.12564848
118	0xbdc66969	-0.09688074
119	0x3c891ad8	0.016736433
120	0x3de0621e	0.10956214
121	0xbddc626c	-0.1076096
122	0xbc61b5fc	-0.013776299
123	0xbd0343a6	-0.032046936
124	0xbe10e85c	-0.14151138
125	0xbc4aee44	-0.0123859085
126	0xbbb9fa7b	-0.0056756116
127	0x3d321bf5	0.043483693
128	0x3e0059bf	0.12534235
129	0xbc1fe858	-0.009759985
130	0x3e036213	0.12830381
131	0xbd80df9b	-0.06292649
132	0xbdebe9f8	-0.115192354
133	0x3d8bfd97	0.06835478
134	0x3df67cd2	0.12035526
135	0xbbc67162	-0.0060559968
136	0xbdf99bb7	-0.121879034
137	0xbdaaa980	-0.08333111
138	0xbdbc02d7	-0.09180229
139	0x3d2f69d2	0.042825527
140	0x3d4400b2	0.047852226
141	0xbe1ed684	-0.15511519
142	0xbcdff3f8	-0.027338013
143	0x3d20f891	0.03929955
144	0xbd970333	-0.07373657
145	0x3e312369	0.17298664
146	0x3e122f9e	0.14275977
147	0xbdb1142a	-0.08646424
148	0x3ca572c3	0.020196324
149	0xbcf24715	-0.02957491
150	0xbe1d7a48	-0.15378678
151	0x3c6850c7	0.014179415
152	0x3dfc6b06	0.123251006
153	0x3dcae768	0.099074185
154	0x3daf89ca	0.08571203
155	0xbd72b8ab	-0.059258144
156	0xbdcbfd85	-0.099604644
157	0xbe1c0d6c	-0.15239495
158	0xbe1f5001	-0.15557863
159	0x3bfad3d7	0.007654648
160	0x3e032462	0.12806848
161	0x3d20c560	0.03925073
162	0xbd0e52dd	-0.034746993
163	0x3cb3b194	0.021935262
164	0x3d1e2d6f	0.038617548
165	0xbda30cc9	-0.07961423
166	0x3de47bc1	0.11156417
167	0x3d9ddeca	0.07708509
168	0xbd5d5970	-0.054040372
169	0xbc2945d9	-0.010331594
170	0xbe200e04	-0.15630347
171	0x3db62510	0.08893788
172	0x3cb170a8	0.021660164
173	0x3e0b9140	0.13629627
174	0x3d72b1a9	0.05925146
175	0xbe1d4f06	-0.15362176
176	0xbd25b7b6	-0.040458404
177	0x3dca067f	0.0986452
178	0x3e1a543d	0.15071197
179	0x3d3b4c03	0.045726787
180	0x3e1f592d	0.15561362
181	0x3e327c19	0.17430152
182	0xbd78409a	-0.060608484
183	0x3cf7d90a	0.03025486
184	0x3e19fd24	0.15037972
185	0xbca9aaf3	-0.020711398
186	0xbdccee10	-0.10006344
187	0xbe05d447	-0.13069259
188	0xbd90ecb3	-0.07076397
189	0xbe40bce8	-0.18822062
190	0xbd9fc2b3	-0.07800808
191	0x3db0fbac	0.086417526
192	0x3e0b0703	0.13576894
193	0x3caf8336	0.021424871
194	0xbd85a56d	-0.06525693
195	0xbddb5e51	-0.10711349
196	0xbe0b0408	-0.13575757
197	0x3cf97bb3	0.030454492
198	0x3e291afd	0.16514201
199	0xbde1f64e	-0.11033307
200	0x3e2d1c36	0.16905293
201	0xbd991247	-0.07474189
202	0xbdeadcfc	-0.11467931
203	0x3dceddda	0.101009086
204	0xbde38b4f	-0.111105554
205	0x3e27ce4c	0.1638729
206	0xbe1e0bdc	-0.15434211
207	0x3dd4e2d6	0.10394828
208	0x3e252d21	0.16130497
209	0xbd8098a0	-0.06279111
210	0xbddaa561	-0.10676075
211	0xbd723ab0	-0.059138
212	0x3e155e95	0.14586861
213	0xbe049b5d	-0.12949891
214	0x3e16b440	0.14717197
215	0x3e1eb15b	0.15497343
216	0xbda2a952	-0.079424515
217	0x3e0a7be5	0.13523825
218	0xbaa70e78	-0.0012745401
219	0x3d007f1f	0.031371232
220	0xbba3b47b	-0.00499588
221	0x3d0886eb	0.033331793
222	0x3e2a30b4	0.16620141
223	0x3cf062ba	0.029343951
224	0x3c874ebe	0.01651704
225	0xbdd39491	-0.10331071
226	0x3df9ed4e	0.122034654
227	0xbd770625	-0.060308594
228	0xbe0f2dbe	-0.13982293
229	0xbe2d5bc7	-0.16929542
230	0x3e286013	0.164429
231	0x3d8e5ec7	0.06951671
232	0xbd9966f6	-0.07490341
233	0xbddde1a4	-0.10834053
234	0x3bca3fd0	0.006172158
235	0xbcf27675	-0.0295975
236	0xbaa7fded	-0.0012816765
237	0x3e0fdd11	0.14049174
238	0xbdb446b6	-0.088025495
239	0x3cf12378	0.029435858
240	0x3dc3d74e	0.095625505
241	0x3e0a95f6	0.13533768
242	0x3d056202	0.03256417
243	0xbdf049c4	-0.1173282
244	0xbd0a8d98	-0.03382644
245	0xbccf3827	-0.02529533
246	0xbd4bba42	-0.049738176
247	0xbe2a1b49	-0.16611971
248	0xbc14568e	-0.009053839
249	0x3e1ccbf3	0.15312175
250	0xbda5c08e	-0.080933675
251	0xbd943ba1	-0.07237936
252	0xbdf1ceed	-0.11807046
253	0x3d1c7205	0.038194675
254	0xbdd89d0f	-0.105768315
255	0x3ca01045	0.019539008

egnn.layers.0.hidden_mlp.2.bias f4 [16]
0	0x3a8c54db	0.0010706441
1	0xbdb9dc1a	-0.09075184
2	0x3dc3f8ba	0.09568925
3	0xb705df15	-7.979358e-06
4	0xbd8e519c	-0.069491595
5	0x3d24ebaa	0.04026381
6	0xbda4ddf6	-0.08050148
7	0xb78fb96c	-1.7133272e-05
8	0xbd86337c	-0.065527886
9	0x38a81322	8.014428e-05
10	0x3a7b2c8d	0.0009581529
11	0x3daffd4d	0.08593235
12	0xbcb3ce21	-0.021948876
13	0x3d4c52a4	0.0498835
14	0x35d23e77	1.5664399e-06
15	0x3d6300d9	0.05542073
