2-egnca-rework/logs/line4-2024-10-05@23-20-03/best@84.pt (torch, 25525 bytes, 11 tensors)

egnn.layers.0.message_mlp.0.weight f4 [32, 33]
00000000: c1bc 6e3d 1783 c43d 2957 c9bb 075e cc3d
00000010: 6fa5 55bd eb66 f73c 5b4f 38bd eb69 4ebc
00000020: 3a30 21bd b9bb e73c 512c 0a3e 9982 0d3e
00000030: c3a2 eabc a1c5 6fbd ae84 d8bc b6fc 193e
00000040: 770c 173e 4913 45bd ed17 6cbd 5463 30bd
00000050: d67e f73d 9b0a 113e ea95 fdbd a570 75bd
00000060: 38cc 1dbe 901d 313e f049 ed3c 510c 553d
00000070: c203 c03d 9120 2b3d f6d6 16bd 784a 2cbe
00000080: f737 3a3d 24a8 f2bc 9504 2ebe 1221 c3bc
00000090: c250 c4bd 13ee c4bd a55b 02be 2497 13be
000000a0: ad2e 46bc f883 b63c fdef 1ebe 5605 25be
000000b0: a058 153b a06f 26be b17d ab3d a176 32bd
000000c0: d545 d0bc 053f 25be 0506 febd dd73 803d
000000d0: 377c c4bd eac9 8cbd e2bf 20be a39c 9a3a
000000e0: de4f e0bd feba 3c3d 752a 633d 8ade 163d
000000f0: fc3c 803d 0913 f8bd c7cb 863c 8caa 1bbe
00000100: b688 f9bd a9f7 113e 9f62 fb3d 0604 00be
00000110: f412 c73d 6b76 0fbe 957a c83c cc26 223e
00000120: a082 2c3c 1a2e 8c3d 4191 1f3e 78e0 88bd
00000130: 17a7 043e 0ccf cc3c 20fa 1ebd b504 1fbe
00000140: d718 2b3e bde4 313e 8245 96bd 40d0 253d
00000150: 80c2 36be 0359 003d 2fee c63d 7596 9e3c
00000160: 3875 c5bd c199 233e a274 c4bd 6708 ba3c
00000170: be2c 25be 1916 953d 1021 f33d a1a2 0f3d
00000180: 2124 083e 55f6 32be 4ace cebd ffed 383d
00000190: 0cf9 b23d 136d 2cbd 8d31 4f3d e81d 2ebe
000001a0: 1cd7 2e3e ac6b 0cbe 0ce7 24be 89ed 04be
000001b0: 4109 313e 85d5 353d 2371 6dbc 026c 133d
000001c0: 8d95 02ba 26dc fabd 3e74 e33d 847c 13be
000001d0: e2ef 33bd 9da3 a73c fb16 d7bd d195 253d
000001e0: 18af 1fbe a2c2 aebd 5836 1c3e ace2 523d
000001f0: e824 11be cbb5 293e bdab 44bd 31f9 013d
00000200: 387e 15bd 95cc d1bd 6e34 063d 12af 14bd
00000210: 623c bebd 2156 c43d 4b6a ab3d e069 e73d
00000220: 4d74 dbbc 9b38 f1bc e6a1 3a3c ea7a 1c3e
00000230: 98a2 1dbe de95 24bc d2cd 7a3c 1f6b ab3d
00000240: be8b 2fbe 2f5c 40be 5f5e e4bb d53e 5d3d
00000250: a080 97bd 320e 093e 123b 033d 9e03 77bd
00000260: fb01 7ebd d603 12be aec1 bb3d 405f 0bbd
00000270: a113 b53d b142 3cbe 1ef3 003e adc6 623d
00000280: 1ae1 e1bd 9329 c3bd cb2d fe3d 2ccd a33d
00000290: 05ce aa3d 00af 153d ccde b8bd 963b e8bd
000002a0: d6a2 44bd 79f6 4fbd 1639 d4bc baf2 3dbd
000002b0: c846 10be fee6 24be a7fe ffbd c9a7 b83d
000002c0: e8b1 e5bd 0583 09be 7e70 97bd 63b8 5e3d
000002d0: 50b8 55bd 6109 323b ec30 983c 4faf f8bd
000002e0: 2679 4bbd c2a7 59bd b28e 0cbc 09e7 ebbd
000002f0: e9d4 06bd b48d 7b3c 9505 5f3d afc0 e3bd
00000300: 7f73 1c3e 537d 353d edf1 0cbe 0ea4 243e
00000310: 214d e2bd a130 fcb8 d058 073e 4b52 31bd
00000320: 1299 353d 07b2 a73d 41c4 76bd 744a 9d3c
00000330: 16c6 013e 3c0d fdb9 afcd 45bd 5e89 023e
00000340: 2628 103d b239 e9bd dcfe af3d 1f28 103e
00000350: f12d 503c 2e8e 153e 235d dfbd 93f4 2a3e
00000360: 99a2 cf3d db41 07bc 5bd1 23be 23ae 2d3e
00000370: 9df2 23bc fad1 ad3d 271a c0bd a2a0 6e3d
00000380: 5f44 d4bc cbb6 303d 8ebc 803d d39e edbd
00000390: 53f6 04be f22d ebbb 8782 36bd 01bd e93d
000003a0: 2aed 9abd bd65 2b3d ae30 23be e4a6 ac3d
000003b0: 87ad df3d a83f d13c da47 be3c 5096 cb3c
000003c0: 71ab f6bb 0d55 13bd 46c4 043e ebcc 5bbd
000003d0: 5eef b2bc 20be 8dbc f2aa d1bd 80fa 09be
000003e0: ff68 d6bd cb00 f8bc 27f0 06be 9652 653d
000003f0: d963 01be fb40 42bd 4722 93bd ee65 afbd
0.05828548 0.09595316 -0.0061444235 0.09978872 -0.052159723 0.030200442 -0.044997554 -0.012598495
-0.039352633 0.028287755 0.13493468 0.1381935 -0.028642064 -0.058538083 -0.026430454 0.15037808
0.14750849 -0.048114095 -0.057640005 -0.043063477 0.12084739 0.14164202 -0.123821095 -0.05992188
-0.15409935 0.17296433 0.02896592 0.0520137 0.09375717 0.041779105 -0.036826096 -0.16825283
0.04546353 -0.029621191 -0.16993935 -0.02381948 -0.09585716 -0.096157216 -0.12730272 -0.14413124
-0.012096089 0.022279724 -0.15521236 -0.16115317 0.002278842 -0.16253519 0.08373583 -0.043570165
-0.025423924 -0.16137321 -0.12403492 0.06272099 -0.095940046 -0.068744496 -0.15698197 0.0011795949
-0.109527335 0.046076767 0.055460412 0.036833324 0.06261632 -0.12113006 0.01645459 -0.15201777
-0.12184279 0.14254631 0.1227467 -0.12501535 0.09720412 -0.14010017 0.024472514 0.15835112
0.01052919 0.06844731 0.15582754 -0.06683439 0.12954365 0.025001071 -0.038812757 -0.1552914
0.16708694 0.17372413 -0.07337476 0.040481806 -0.17847633 0.03133489 0.09713399 0.019358853
-0.09641498 0.15976621 -0.095925584 0.022709085 -0.16130349 0.072796054 0.118715405 0.035067204
0.13295032 -0.1747678 -0.1009794 0.045148846 0.08738908 -0.04209621 0.050584365 -0.17003596
0.17074245 -0.13712949 -0.16103762 -0.12981237 0.17288686 0.04439308 -0.014492306 0.035991676
-0.0004981391 -0.12249021 0.11106156 -0.14402968 -0.043929942 0.02046376 -0.1050243 0.04042608
-0.15594137 -0.08533217 0.15255105 0.051485702 -0.14174235 0.16573255 -0.048015345 0.031731788
-0.036497325 -0.10244099 0.032764845 -0.036299773 -0.09288861 0.0958674 0.08369883 0.11299491
-0.026788855 -0.029445937 0.011391139 0.15281263 -0.15394056 -0.010045497 0.01530786 0.08370041
-0.17143151 -0.18785165 -0.0069692577 0.054015 -0.0739758 0.13384321 0.032038756 -0.060306184
-0.062013607 -0.14259276 0.09167801 -0.034026384 0.088416345 -0.18384816 0.12592742 0.055365253
-0.11029263 -0.09529414 0.12411078 0.07998118 0.08340076 0.036543846 -0.0902687 -0.1133949
-0.048006855 -0.050772164 -0.025906127 -0.04637406 -0.14089501 -0.16103742 -0.12499743 0.090163775
-0.112155735 -0.13428886 -0.07394503 0.054375064 -0.052177727 0.0027166235 0.018578015 -0.121428125
-0.049676083 -0.053138502 -0.008578943 -0.11518676 -0.03291789 0.015353609 0.054448683 -0.11120736
0.15278433 0.04430897 -0.13764162 0.16078207 -0.110498674 -0.00012025354 0.13217473 -0.04329137
0.044335432 0.08188253 -0.060245756 0.019200541 0.1267322 -0.0004826578 -0.04829186 0.12747714
0.03519454 -0.11387958 0.085935324 0.14077805 0.012706266 0.14605018 -0.10906436 0.1669486
0.10138435 -0.008255447 -0.15997832 0.16960959 -0.010006574 0.084873155 -0.09379988 0.05825866
-0.025911508 0.043143075 0.06285964 -0.11602559 -0.1298459 -0.007177108 -0.044558074 0.11413003
-0.07564767 0.041845072 -0.15936539 0.08430269 0.109217696 0.025543049 0.02322762 0.024851948
-0.0075277616 -0.035969783 0.12965497 -0.053662222 -0.021842655 -0.017302573 -0.10237683 -0.13474464
-0.10469245 -0.030273816 -0.13177548 0.055986963 -0.12635745 -0.04742525 -0.07184272 -0.085643634

egnn.layers.0.message_mlp.0.bias f4 [32]
00000000: 6614 0cbd fb17 8bbc ef5a 4e3d 1ef6 1ebe
00000010: d748 713d 1a75 1abe 5015 18bd 4fd8 12be
00000020: 7ac6 18be d204 bdbd 43d7 003e 7bde 24be
00000030: 2a70 9e3d 84ba 5bbc f1ce 11be bcb4 443d
00000040: 288c c1bd 881a d2bd e40e 143d 5e6c 00be
00000050: 67e1 173c bcd2 733d fc8d 4d3d 718b c03d
00000060: 737f 12be 583f 6a3d ad56 db3d a27e 26be
00000070: dd49 8c3d 5b92 4a3c 8423 7f3d 1029 2bbe
-0.03419914 -0.016979208 0.05037969 -0.15523574 0.058907356 -0.15083733 -0.0371297 -0.14340328
-0.14919463 -0.09229435 0.12582116 -0.16100495 0.07736237 -0.013411168 -0.14239098 0.048023924
-0.09450561 -0.10258967 0.036147013 -0.12541339 0.009270049 0.059527144 0.050184235 0.09401596
-0.1430643 0.057189316 0.107098915 -0.16259244 0.06850026 0.012363995 0.06228973 -0.16714883

egnn.layers.0.message_mlp.2.weight f4 [32, 32]
00000000: a3f0 e63d 1ac7 1fbe 4a98 a33d e851 253e
00000010: c08c 10bd cc73 a83d 2d3a 9dbc ea01 c73d
00000020: 7ef3 24be bb03 d2ba db02 3f3e 900e 32bd
00000030: 0952 0ebe abbb 0fbe 141f 213d 255e 1f3e
00000040: de07 30be ff4d e83d b66d 09be d4d2 993d
00000050: 895d 103d 258e 603d cecc 1cbe 1962 2d3e
00000060: bde8 1f3d b33f 47bc f249 06be 0a10 dc3d
00000070: 040b 273e e669 953d 39df a0bc 4db6 30bd
00000080: 7298 3abe 07c5 f13d 7985 d5bc faae 1fbe
00000090: 39c7 3bba 49bd 0e3d 3906 e23d 2354 723d
000000a0: 9373 edbd bc31 38bd 82e3 2ebe 1fa5 ab3d
000000b0: 8f15 aa3d bbac d4bd 52bd 303d da3d f33d
000000c0: 9170 223e 010d f53d d620 8a3d 7094 233d
000000d0: 3a03 833d be0b 263e c313 e63d 4f8e e23c
000000e0: f0fb a93c 8000 f13d 875c 333e b87a e8bd
000000f0: e4c6 acbd 212f 443e a2e3 9fbd 3ce7 2ebd
00000100: ddb8 0e3e a511 87bd d72b 323e 6997 cdbd
00000110: 4bc1 a8bd 4386 073c d2e3 833c cd1d 233e
00000120: c6bf 95bd 1e2e 883d bf9b d6bc 33b4 eebc
00000130: 153a 1abe 63f9 253e 5aa8 c0bd dca0 1cbd
00000140: 5fec a5bd a6f7 263e 3281 91bd 534a 26bd
00000150: 9198 cc3d 0696 273e 36f5 273e 1d11 d0bd
00000160: 22fe 81bd 2867 123e 5114 9c3d e76f 0c3e
00000170: bd3b 6e3d 24b1 e1bd 6b7c c0bc 1786 a3bd
00000180: 802f 14be ad79 4a3d 7a33 c13d 1a00 883d
00000190: ed99 0d3e 1026 91bd 3759 7a3d 8be7 62bd
000001a0: f350 193e e137 60bc f455 023e 5f96 0a3e
000001b0: c0e2 fabd 45b4 2fbd e05d 1a3e ceb7 afbd
000001c0: fd19 2bbd aee8 153e de81 133e bb36 f23d
000001d0: 7774 993c f434 e53d e44b 21be c705 aa3d
000001e0: 9205 f2bc 1660 05be 2ba3 1c3d a658 d93a
000001f0: a799 863d 4e8f 7abd 90f9 323e 0287 3bbe
00000200: ac5d 303e 25bf 9bbd ed4f d13d abb4 bfbc
00000210: 23ed 48bd f5ae 07be 2bd8 0cbe c1ad b43c
00000220: 890a d3bd f768 ffbd 458c 19be 015c 1b3e
00000230: 751c 2c3d ad9a 6c3c 8532 53bd 3cb8 1dbe
00000240: 9022 ce3d 996e 123e 910a 083d 7d96 443d
00000250: 5170 bd38 60c0 893d 1af4 043c 919c e1bd
00000260: 21da c7bc 61c3 233e 1f96 d9bd 674c 1f3e
00000270: bfa1 d0bd 9a60 05bd a32e eb3d c80a e3bd
00000280: db7b 2ebd 14da 08be 216f a7bc 2541 e23d
00000290: 97a6 b9bd e600 15bd 4afb 6c3b 5b01 e03d
000002a0: 3217 e83c 2c99 adbc de19 dabd e87e 05be
000002b0: cd93 2e3e 5b65 3cbd e794 db3d 31ba 81bc
000002c0: e1e8 adbd 6557 8abd 5630 11be c445 12bd
000002d0: 28ef 973c 3da3 aebd f87e 4c3d aee4 9e3d
000002e0: f9a4 e8bd 1306 8cbc b911 003e 2ee8 25be
000002f0: 9cc4 cd3d aa20 3bbd 022c 77bd 8641 d4bd
00000300: 3560 52bc 1468 683d c528 a3bd dd22 70bd
00000310: f7ce be3d 1791 aabd 4987 063c 4907 d03d
00000320: ad1f 76bb 1e40 3bbd 63ce e5bd e27e 22bd
00000330: 99dd 14bd 2552 ea3d 8581 693c a8f1 11be
00000340: b168 53bc cc9e dabd ed3d 3f3e e9e5 2bbd
00000350: 2258 29be 4c7b bbbd 9d61 d23d 7524 293e
00000360: 8a12 e8bd 4740 30be bbee 30bd 2fd8 46bd
00000370: 3493 afbd 4345 d23d 2c73 523c 4f7f 0b3e
00000380: b803 023e a12d 913c d7dd 0f3e 90de 2dbd
00000390: f751 773d 2ada e4bd 7a4e 383d fd99 8d3d
000003a0: e994 36be 0fc4 143e e258 fb3d 02f9 e2bd
000003b0: e92c 5e3d e22a 2a3e f693 73bd a5b7 8a3b
000003c0: 7c7b 95bc e0ec d0bd e93e b43d 5982 a1bd
000003d0: c673 4d3d 5d55 0c3d bfa9 b03d 8707 2e3e
000003e0: 8d3b 743d 4dd7 dfbc 2cdc 60bd 67b8 143e
000003f0: 41a3 e13d da0e 1e3e 1cda 96bd c7a0 d93d
0.112763666 -0.15603295 0.07988031 0.16144526 -0.03529048 0.082252115 -0.01919278 0.09717162
-0.1610851 -0.001602284 0.18653433 -0.04347092 -0.13898481 -0.14036433 0.03933628 0.15563257
-0.17190501 0.113430016 -0.13420758 0.075109154 0.035245452 0.05482306 -0.15312502 0.16931953
0.039040316 -0.012161183 -0.13114145 0.10745247 0.16312796 0.07295589 -0.01963769 -0.043142606
-0.18222216 0.11805158 -0.026064621 -0.15594092 -0.00071631704 0.034848485 0.11036343 0.05916227
-0.1159431 -0.044969305 -0.17078975 0.08381104 0.08304893 -0.10384508 0.0431493 0.118770316
0.15863253 0.11965371 0.06744544 0.039936483 0.063971 0.16215417 0.11234238 0.027655749
0.020750016 0.117676735 0.17515765 -0.11351532 -0.08436373 0.19158603 -0.078070894 -0.04270099
0.13937707 -0.06595162 0.17399536 -0.10038645 -0.08239993 0.008271757 0.016099844 0.15929337
-0.073119685 0.06649421 -0.026197312 -0.02913866 -0.15061219 0.16208415 -0.094071105 -0.038239345
-0.08101725 0.16305408 -0.0710472 -0.040598225 0.09990037 0.16365823 0.16402134 -0.10159514
-0.063473 0.14297163 0.076210625 0.13714562 0.05816244 -0.11020115 -0.023496827 -0.0798456
-0.14471245 0.049432445 0.094336465 0.06640644 0.1382825 -0.07087338 0.06112024 -0.055396598
0.14972286 -0.013685198 0.12728101 0.13533925 -0.122502804 -0.042896528 0.15074873 -0.0857998
-0.04177283 0.14639542 0.14405009 0.11826845 0.018732293 0.11191741 -0.15751606 0.08301883
-0.029543672 -0.13024935 0.038241547 0.0016582205 0.065722756 -0.061171822 0.17478013 -0.1831322
0.17223233 -0.07604817 0.10220323 -0.023401579 -0.049054276 -0.13250335 -0.13754337 0.022055509
-0.10304744 -0.12471192 -0.14994915 0.15171815 0.042019326 0.014441174 -0.05156185 -0.15402311
0.10065186 0.14300002 0.033213202 0.04799508 9.033143e-05 0.06726146 0.008114839 -0.11016191
-0.024396004 0.159925 -0.106243365 0.15556489 -0.101871006 -0.03256283 0.114835046 -0.11086041
-0.042598587 -0.1336444 -0.020438733 0.110475816 -0.090649776 -0.03637781 0.0036160522 0.109377585
0.028331373 -0.021191202 -0.10649465 -0.13036692 0.17048569 -0.045995098 0.1072176 -0.015835853
-0.08491684 -0.067549504 -0.14178595 -0.035711065 0.018546656 -0.08527229 0.049925774 0.07758461
-0.11359591 -0.01709274 0.1250676 -0.16201851 0.10047266 -0.045685448 -0.060344703 -0.1036406
-0.01284032 0.05673988 -0.079667605 -0.058627 0.09316819 -0.08328455 0.008210965 0.101576395
-0.0037555501 -0.045715444 -0.11221006 -0.039671786 -0.036344144 0.11441449 0.014252071 -0.14252341
-0.012903378 -0.10674819 0.18675967 -0.041967306 -0.16537526 -0.091543764 0.102725245 0.16517814
-0.11331661 -0.1721202 -0.04319642 -0.048546012 -0.08572999 0.10267117 0.012844842 0.13622783
0.12696731 0.017721953 0.14049469 -0.04244858 0.060380902 -0.11174424 0.044996716 0.069141366
-0.17830242 0.14527915 0.122728124 -0.11082651 0.05424205 0.16617921 -0.05946728 0.004233318
-0.018247359 -0.1020143 0.08801062 -0.0788619 0.05015924 0.034261096 0.086261265 0.16995059
0.059627105 -0.027324343 -0.054897472 0.14523469 0.11017466 0.15435353 -0.0736582 0.10626369

egnn.layers.0.message_mlp.2.bias f4 [32]
00000000: 5aa1 583b 743d dc3d 07ec 993c 0f1a 283e
00000010: 1469 bebc b20f 27be b655 20be c154 9bbd
00000020: 7d30 773d 65cf c93d 6c0b a23d 5d3b 1c3e
00000030: b56c 30be ab74 943d 5fe0 86bc e0ad 08be
00000040: d90c 2d3d 1e9f 2b3e ec49 473d 850e db3d
00000050: 0c89 c73d 392b efbd 7a8b 30be afd4 26be
00000060: 9868 1a3e a299 05be 8fcc 6abd ccd9 163e
00000070: 215e 1f3e 66c9 02be edc8 973d b1a1 95bb
0.0033055157 0.10753909 0.018789304 0.1641619 -0.023243465 -0.16314581 -0.15657696 -0.07584525
0.060348976 0.098540105 0.07912335 0.1525702 -0.17228968 0.07248815 -0.01646441 -0.13347578
0.04224858 0.16759917 0.04865448 0.10696129 0.097429365 -0.11678166 -0.17240706 -0.1629207
0.15078962 -0.13046888 -0.05732399 0.1473152 0.15563251 -0.1277214 0.074113704 -0.0045663943

egnn.layers.0.coord_mlp.0.weight f4 [32, 32]
00000000: cdaf 1cbd 29dc 56bb cb23 1b3c e767 2dbe
00000010: d2b1 f6bd fde9 aa3d 6df4 d83d 3d27 5e3d
00000020: 387e ddbd 4fa1 89bc 1eb9 e63d 22df e1bd
00000030: 82e6 003e e32e 873d 5f2e dbbd fc28 27be
00000040: 6c9a 9b3d eb2f 3a3d 321d c5bd 3b79 0abe
00000050: ecc4 1a3d b8c5 9b3d ab82 8abd 9661 163e
00000060: 47d1 fd3d b72d e13d ad6f 143e aaa4 eabd
00000070: ef17 123e 10fd 1bbe 551f 34bd fccb 03be
00000080: a279 30bd d14e 1ebe b2ee 19be 084a e8bd
00000090: c07b e73c e54a e5bd 1edd 6e3c b629 043d
000000a0: 80b4 1abe 564c 0e3e d9b8 42bd 13d4 f43d
000000b0: 6db1 9abb 6fc8 e23d b471 583c 0d7e e3bd
000000c0: abfd 25be 29f1 02be ef8d d0bd be5a f7bd
000000d0: 3e42 303e 6c9c f9bd 729b 703c 5ce2 f4bd
000000e0: 74bc 053e dff4 18bc b3f5 a1bd df18 903c
000000f0: 0812 bfbd 39b2 b13d f706 d3bb e3fc f8bd
00000100: 899a 35bd ba1a 89bb d21d 5abc 7431 95bd
00000110: 6179 0d3d 735c 363e cbe8 cabd bbb5 95bd
00000120: d0cb e43b 629e f73d 9584 a8bd 99a1 0abe
00000130: 526c 2c3e 873a 863d 12d1 983d e7b7 32bd
00000140: 9e8e 183e d5dc aa3a 8cd5 6c3d 0930 253e
00000150: 1fd5 eebd 345a f3bd be18 ed3d 338f ce3d
00000160: c167 5eba 7777 9bbd d7f0 1e3e 128a 15be
00000170: 783a d2bc bfd7 19be b5be 073e c75f 0a3d
00000180: 688a 54bd 7ced fabd af47 14bd db23 14be
00000190: e5b0 223e 7094 b8bd 0a47 a4bb 7bf5 b23c
000001a0: bb17 d53d ede3 a8bc a9af f33c acc1 64bc
000001b0: ee6b fc3b 660a c53d 9901 f13d e6dd 4dbc
000001c0: c42d 433d 1e29 2fbd af85 8f3d d0ea da3b
000001d0: 3452 47bc 4c33 0c3c 3b1e 0f3e 77c0 f53d
000001e0: 9453 11bd 80e9 f83d cfab d13b aa44 8fbd
000001f0: ea5a aebd 45b7 d23d 9568 85bd 1c1e a3bc
00000200: 49ba a7bd c7bc e1bd 9351 fd3d 2390 153e
00000210: 27a3 1ebe 96c4 1d3c 58ba 0d3e b314 fe3d
00000220: ebde 4d3d 9696 6b3d 5447 2abd 56ff ed3c
00000230: 5c39 d03d a74a bdbd d75f 2abc 7e37 363e
00000240: 94b2 f23d 78d9 ae3d 3165 003d 17b6 133e
00000250: cb30 f6bc f290 25bd 820f 9cbd 75f9 b73d
00000260: d966 0bbe cc57 ff3c aec3 053d b0e8 d9bd
00000270: 3f8a b23d 8573 2ebc f694 9b3d e98c 8ebd
00000280: 74f7 2a3d a6ac 0a3e 082d a63c 8577 e1bd
00000290: ffd9 2cbd 06e9 47bd 534b c3bb 1d71 5ebd
000002a0: e27d 0c3d cd50 90bd f7c7 db3c db05 19be
000002b0: 71b0 26bd ec8b a63d b5d2 c93d 5aee 01be
000002c0: 5d0c ddbd 8b24 7e3c 8603 ce3c b470 3bbd
000002d0: ce1b e73d 30d7 bbbd 15fa d7bd c4df 0f3e
000002e0: 4d58 bdbd 7bac 18bd 26e0 0bbe ad94 af3d
000002f0: 3481 3dbd 2157 b73d 447f ac3d 15ae 14be
00000300: 201b fbbd 6079 243e 171c 23be 13b1 f6bd
00000310: f870 16be c1a1 0a3e 013b 6fbc 64f8 22be
00000320: 0c80 07be ef59 163e 0d35 aebd 4bc4 043e
00000330: bd58 243e e2ed 5d3d 5b2c abbd b43b 353e
00000340: 6ab9 273e 9b21 0c3e 64ce 6ebd 4587 043e
00000350: fd39 d3bd 7156 b63d 4042 363b b57c 173e
00000360: e48b 1d3d c210 a53d 6943 f2bd 952b f93d
00000370: f45a 0fbc 8069 51bc 329b d53c 4406 66bd
00000380: c2e8 27be 9b67 26be 1f69 453d 905f 94bd
00000390: e638 fabd 4a56 103e 3867 383e 8545 37be
000003a0: 9a7d efbd 7bd5 dfbd f536 783d 6108 b63d
000003b0: 9600 babd 9b47 d3bd a812 ea3d 2cd7 d6bd
000003c0: fbf6 acbd 4bb7 2e3e b4a8 923a 50ce 94bd
000003d0: 095f c13d 8d9e 1fbe dcd2 2c3e 3ab9 c5bd
000003e0: 34b0 bf3c 192a d4bd 59f1 003e 21a9 853c
000003f0: 17b3 1fbe b9f2 d5bd 1f43 e23d 56ed 75bd
-0.038253594 -0.0032785034 0.009468983 -0.16934167 -0.12045635 0.08345411 0.105934955 0.05423664
-0.1081509 -0.01680055 0.11265777 -0.11028887 0.12587932 0.0660074 -0.10702204 -0.16324228
0.07597813 0.045455854 -0.09624709 -0.13522808 0.037785456 0.07606071 -0.06763204 0.14685664
0.12393432 0.109950475 0.14495726 -0.114571884 0.14266942 -0.15233254 -0.043975193 -0.12870783
-0.043084748 -0.15459754 -0.15032461 -0.11342245 0.02825725 -0.111959256 0.014579086 0.03226634
-0.15107918 0.13896307 -0.047539566 0.119545124 -0.004720858 0.11073386 0.013210703 -0.11108027
-0.16210048 -0.12787308 -0.10183322 -0.120778546 0.1721277 -0.12188038 0.014685499 -0.11957237
0.1306017 -0.009335726 -0.079081915 0.017589984 -0.09329611 0.086765714 -0.0064400393 -0.12157609
-0.04433683 -0.0041840943 -0.013312774 -0.07284823 0.034539584 0.17808704 -0.09907683 -0.07310053
0.006982304 0.12090756 -0.08228413 -0.13538207 0.16838196 0.06554132 0.07461752 -0.043632414
0.14898154 0.0013035784 0.05782084 0.16131605 -0.116617434 -0.11882439 0.11576985 0.10085907
-0.00084840885 -0.075911455 0.1552156 -0.14603451 -0.025662646 -0.15023707 0.13256343 0.033782747
-0.051889807 -0.12252328 -0.036201175 -0.14466803 0.15887792 -0.09012687 -0.0050133513 0.02184557
0.10404917 -0.020616496 0.029746847 -0.013962191 0.007703296 0.09621124 0.11767883 -0.012565112
0.047651067 -0.04276382 0.0700792 0.006680824 -0.012165595 0.008557152 0.13976376 0.119996004
-0.035480097 0.121539116 0.006398655 -0.069955185 -0.08513434 0.10288862 -0.06514088 -0.019911818
-0.08189828 -0.110223345 0.12369075 0.14605765 -0.15491925 0.009629389 0.13840616 0.12406292
0.05026142 0.057516657 -0.04157193 0.029052418 0.101671904 -0.092427544 -0.010398827 0.17794606
0.11850467 0.085375726 0.031346504 0.1442493 -0.030052563 -0.040421434 -0.076201454 0.08983127
-0.13613452 0.031169794 0.032657318 -0.10640085 0.087177746 -0.010647659 0.075967714 -0.0696047
0.041739896 0.13542423 0.020285144 -0.11009125 -0.042200085 -0.048806213 -0.005959907 -0.054307092
0.03429974 -0.070466615 0.02682875 -0.1494364 -0.04069561 0.08132157 0.09854642 -0.1268858
-0.10793374 0.015511642 0.025148164 -0.04576178 0.112846 -0.09171903 -0.10545746 0.14050204
-0.09245358 -0.037273865 -0.13659725 0.085732795 -0.046265796 0.089521654 0.084227115 -0.14519532
-0.12261033 0.16061926 -0.15928684 -0.12045493 -0.14691532 0.13538267 -0.01460147 -0.15915066
-0.1323244 0.14682744 -0.085062124 0.12965505 0.16049476 0.05418194 -0.083580695 0.17698556
0.16379324 0.13684694 -0.0583023 0.12942226 -0.10313795 0.08903206 0.0027810484 0.14793666
0.03846349 0.08059837 -0.11829264 0.12166516 -0.008749712 -0.012781501 0.02607498 -0.05615832
-0.16397384 -0.1625046 0.048195954 -0.072447896 -0.12217884 0.14095417 0.18008125 -0.17897613
-0.116938785 -0.1092939 0.060599286 0.08888317 -0.09082143 -0.10316392 0.1142934 -0.104902595
-0.08445545 0.17062108 0.0011189193 -0.072659135 0.09441955 -0.15587826 0.16877311 -0.0965447
0.02339945 -0.10359592 0.12592067 0.016315999 -0.15595661 -0.10446686 0.110479586 -0.060040794

egnn.layers.0.coord_mlp.0.bias f4 [32]
00000000: c940 37bd d784 a5bd 0b5d 27be 6906 073e
00000010: 3235 e6bd 3f5b 0f3e fd56 9c3c c648 9dbd
00000020: cdff d3bd 8825 0cbe 6a02 273e fd38 5cbd
00000030: e078 e03c c3a1 01bd a2cd 2e3e 4d0b 313e
00000040: 2e4d e23c 98c8 c6bd 7419 473d 4a3d 2bbe
00000050: 7426 26be 88ff 713c ad6b c43b 8bbf fc3d
00000060: 99a3 a3bd 1463 fc3c 336e c03d 7e5c 29be
00000070: c2d6 803d d89a f5bd 0d97 ae3d 825f d33d
-0.04473952 -0.08081978 -0.16344087 0.13186039 -0.11240615 0.13999651 0.019084448 -0.07679896
-0.103515245 -0.13686192 0.16309515 -0.053765286 0.027401388 -0.03164841 0.1707063 0.17289467
0.027624693 -0.09706229 0.04860826 -0.16722599 -0.16225606 0.014770396 0.0059942813 0.123412214
-0.07990188 0.030808963 0.09396019 -0.16539189 0.06290962 -0.11992425 0.085249044 0.10320951

egnn.layers.0.coord_mlp.2.weight f4 [1, 32]
00000000: 00bd abbb 7366 74bb 970e 09bc a7e3 f9ba
00000010: 3c44 0cbc 7dfc 1c3c 80d2 63bc da7d 27bc
00000020: e1ca 29bc edf0 56bc d002 ef3b 7669 e13b
00000030: b76d 513c 4f49 f53b dfad 853b efbc 003c
00000040: efa0 43bc 13e3 84bc 2607 003c b9c6 f6bb
00000050: 2ae5 83bc b90f 3f3c b0d7 5e3c cce4 3b3c
00000060: 8442 133c 24de 773c a32c 243b 5145 0abc
00000070: 2d0e 84bc 001d 1bbc 0690 8e3b 1ef6 823b
-0.0052410364 -0.003729251 -0.008365295 -0.0019065038 -0.00856119 0.009581682 -0.013905168 -0.010222876
-0.0103633115 -0.013118965 0.0072940364 0.006879027 0.012782506 0.0074855457 0.004079565 0.007857545
-0.011940225 -0.016221559 0.007814204 -0.007531014 -0.016100485 0.011661463 0.013601229 0.011468124
0.0089880265 0.015128646 0.002505102 -0.008439378 -0.01612004 -0.009467363 0.004350665 0.0039966246

egnn.layers.0.hidden_mlp.0.weight f4 [32, 48]
00000000: 72a8 4b3d 08de 083d a337 debd 7635 1cbd
00000010: 241b 023e ff13 c23c 4716 02be e491 9abd
00000020: b27d 90bd 22f9 ac3c 2125 f6bd 177f f23d
00000030: ac60 bf3d 0d94 ad3c ae9a fdbd 5496 da3b
00000040: 958b bbba 7e4b 8fbd 13ce edbd 17ed 1bbe
00000050: 9fbe 6f3d bc57 673c 486f 2b3d 167e fa3d
00000060: 5b34 53bd a2a0 eebd 616b 00be f1ab 09be
00000070: 4084 923d 3e54 94bd 428a be3d 4f01 8dbd
00000080: 915c 923b 0bed 823d 9e51 5d3d 7797 093e
00000090: c48d 1e3c 4ec1 76bd a944 883c ef10 41bd
000000a0: 8ed4 e13d a1ca 28bd bf9d c0bd f4ad 2ebd
000000b0: b272 8cbd ecb6 fa3d 0fec 8dbd 0dd9 3cbd
000000c0: 751f 89bd 5e7d 0e3e 1c6e e5bd 9817 e13d
000000d0: 5e74 62bd fedb bb3d eaf1 573d 6ec9 babd
000000e0: f382 07be d86f 9e3d 0ba3 adbd b82c cebd
000000f0: 8f1f a0bd d3ce e8bc aeb2 79bd 8aec b83d
00000100: 2d6f 263c 3e14 a6bd df87 d7bd 7d35 643d
00000110: ef0f 0fbd 7491 5bbd c376 173e 2150 dfbd
00000120: c9d5 983d 347f 73bd 71e3 e23b b168 463d
00000130: 78fd 14bd bd1d c33c 6a84 83bd 6d4b 27bd
00000140: 436a d5bb bd0c cb3d fe4a d13c f87e 41bd
00000150: 5718 4abd 6c87 2dbc 5e4b 79bd bb5e f7bc
00000160: 9a0c bc3d 966c 833d 6dfa b23d ff6b c5bd
00000170: 16d9 bb3d 3c2e 913c da95 e63d 32ec 8d3a
00000180: e564 e4bd 4e6d 743d 23e9 b83c 9589 bf3d
00000190: 94d0 5abd 68d2 8fbd e761 fcbd 3d75 d23d
000001a0: 18b4 dcbd d9f3 34bd 09da 0a3e bf05 c6bd
000001b0: bfea c83d fe57 1e3d d3f8 fbbd 712a bd3d
000001c0: 95e4 9cbd d684 863d 77d5 cbbd 4b3a 0abe
000001d0: cec1 6fbd 1a32 89bd 5d94 df3d e4f0 d4bc
000001e0: 1c9d 103e 8574 733b e230 573d 1d9c ec3d
000001f0: 47e6 9b3d 0962 3e3d 044c 293d a0cf 2a3c
00000200: ce0c 733c cfd5 083e ef76 aebd c69a be3d
00000210: ea34 6d3d 2210 7dbd 416e b9bd 8878 77bd
00000220: ed08 e13d 22ab 08be 8744 f63c 91a3 013e
00000230: 36fd debd e9ae 16be 67eb 0abe 0445 abbd
00000240: 0f68 b33d ce53 ca3d 0a41 53bd 1dfa e5bd
00000250: d8e5 823d 92bc a5bd cf6f 033e 15ee 3eba
00000260: 90d0 863d 33fc 703c e8ef d5bd 909b c3bd
00000270: a315 843d db36 a7bd 2767 bdbd a18b 8e3d
00000280: 91a7 093e 2492 a1bd 9313 a63d 1b9c c2bc
00000290: 1960 8ebd 50c4 093e 4ba8 b13d 30a6 233d
000002a0: e08e acbd 812c 98bd a205 b63d 0cab 253c
000002b0: c2fc 0cbe 51d9 42bd 391f 4f3c 5599 4c3d
000002c0: 23de 8bbd 9522 c93d be02 f3bd 3892 cd3d
000002d0: de90 aabd 7b01 f7bd 6552 d83d d8fb e8bc
000002e0: 1dae dd3d 38ec 0dbe d00b 613d 0de7 873d
000002f0: 1bce 963d ac6d 66bd 21db a83b 559e 8ebc
00000300: 954a d8bd ce58 7dbd 8708 d7bd 3d29 9e3d
00000310: 04cd fa3c 921a 4c3d 76bc 10be 975d 7c3d
00000320: 2b55 96bd 8087 d1bd e60b dfbd beb7 fa3d
00000330: 70fd adbd e862 c63d fb95 aabd 7fb0 763d
00000340: b302 203d 07de e9bd 986e babd 5027 9f3b
00000350: cf92 dfbc 2358 ea3d 77af 01be 476c 3a3d
00000360: b175 8fbc 5b9b a8bd 15e5 fabd 185b 01bc
00000370: a037 be3c 27cf 97bd 366c ea3d d000 e93d
00000380: 1a78 00be 417f b3bd 6ca9 6a3d 0b82 bf3d
00000390: f72f b6bd 9149 be3d 39b1 e8bd f437 93bd
000003a0: 3147 083d 3fbe 833d 239c 943c bf26 81bc
000003b0: a296 5d3d a553 ccbd 9b47 5d3d 99fe 103e
000003c0: 0c72 c0bc 6cfb b4bb 6fa6 c73d 5a50 883c
000003d0: 211f f5bc 5cf6 f33d 0c7d a1bd 34a0 b93d
000003e0: 94f9 ab3d 4a5a e4bd 880c 01bd 6dd2 463d
000003f0: 9a66 5e3c 7643 a13c 80ce eb3d 7ef6 ce3d
0.04972119 0.03341487 -0.108504556 -0.03813692 0.12705666 0.023691176 -0.1270381 -0.07547358
-0.070552245 0.02111489 -0.120188005 0.11840647 0.093446106 0.02118876 -0.123830184 0.0066707525
-0.0014308566 -0.06996821 -0.11611571 -0.15227161 0.0585314 0.014120039 0.041854173 0.1223108
-0.051563602 -0.11651732 -0.12540962 -0.13444497 0.07154131 -0.072426304 0.09303714 -0.06885015
0.004466601 0.063928686 0.054032914 0.13436686 0.009677354 -0.060242943 0.016634302 -0.04713529
0.1102687 -0.041208867 -0.09405088 -0.042646363 -0.06857814 0.12241921 -0.0692979 -0.046105433
-0.06695453 0.13915011 -0.11202642 0.10990828 -0.055286758 0.091728196 0.05272094 -0.09120451
-0.13233547 0.07736176 -0.084783636 -0.10067123 -0.07818519 -0.028418934 -0.060961418 0.09029491
0.010158342 -0.0810933 -0.10523962 0.055715073 -0.034927305 -0.05360551 0.14791398 -0.10903955
0.07462651 -0.059447482 0.006924086 0.048439685 -0.03637454 0.023817891 -0.0642174 -0.040843416
-0.0065129115 0.09914539 0.025548454 -0.047240227 -0.04933962 -0.010591369 -0.06086289 -0.030196538
0.09182091 0.064171955 0.08739171 -0.09639739 0.09172265 0.017722242 0.11259051 0.0010827838
-0.111520566 0.059674554 0.022572106 0.093524136 -0.05342157 -0.07022554 -0.12323361 0.10276268
-0.10776538 -0.044177864 0.13559736 -0.09669065 0.09810399 0.038658135 -0.12303319 0.09236611
-0.07660786 0.06568305 -0.099528246 -0.134988 -0.058534436 -0.06699009 0.1091697 -0.025993772
0.14122432 0.0037148308 0.052536853 0.11553214 0.07612281 0.046480212 0.04133226 0.010425478
0.014834596 0.13362812 -0.085187785 0.093068644 0.05791179 -0.061782964 -0.090542324 -0.060417682
0.109880306 -0.13346532 0.030061973 0.12660052 -0.1088814 -0.1471516 -0.13566361 -0.08362773
0.08760082 0.09879266 -0.051575698 -0.11229346 0.063914955 -0.080926076 0.1283562 -0.0007283402
0.06582749 0.0147085665 -0.10446149 -0.095511556 0.064494394 -0.0816476 -0.092481904 0.06960226
0.13442828 -0.07889202 0.08109202 -0.023756078 -0.06951923 0.13453794 0.086746775 0.03995341
-0.08425689 -0.074303634 0.08887793 0.0101115815 -0.13768294 -0.04757053 0.012641721 0.049950916
-0.068294786 0.09821049 -0.118657574 0.10037655 -0.083284125 -0.12060829 0.105625905 -0.028440401
0.10824225 -0.13859642 0.054942906 0.06635866 0.0736353 -0.056256935 0.0051530753 -0.017409483
-0.105611004 -0.06185227 -0.10499673 0.07722709 0.030615337 0.049830027 -0.14134392 0.06161269
-0.07340463 -0.10230923 -0.10890941 0.12242077 -0.08495605 0.096868336 -0.08329388 0.060226914
0.039065074 -0.114193015 -0.09103125 0.0048569813 -0.027291683 0.11442592 -0.12664591 0.045513418
-0.017512174 -0.08232757 -0.12250725 -0.007895254 0.023219883 -0.07412558 0.11446421 0.11377108
-0.12545815 -0.08764506 0.05729048 0.093509756 -0.08895867 0.092913754 -0.113619275 -0.071884066
0.03327102 0.06432771 0.018140858 -0.015765546 0.054098733 -0.099768914 0.054023366 0.14159621
-0.023491882 -0.005523136 0.097485416 0.016639877 -0.02992207 0.11912224 -0.07885179 0.090637594
0.083972126 -0.11150034 -0.03150609 0.04854052 0.013574267 0.019685488 0.11513996 0.101056084

egnn.layers.0.hidden_mlp.0.bias f4 [32]
00000000: ba79 7a3d 2515 c3bb 6879 003d 930b bfbd
00000010: 9947 353d 4984 7dbb 4bab 8dbd eeef ddbd
00000020: d579 343d 67d4 a9bd eb71 db3c 78fa 0fbe
00000030: 295b 893d b3bf 893d 0513 f33a 8d1d e6bb
00000040: cf79 0a3e 8048 323d 6078 c0bd d39b 78bd
00000050: 6c00 67bd ae03 b4bd 8c04 cebd 8b1e b5bb
00000060: d59a c1bd 94b2 3ebc 1548 183d 190a 95bd
00000070: 79d0 68bd f4b2 0bbe 2aee 2e3d 6e3d fe3c
0.061151244 -0.0059534484 0.031365782 -0.093283795 0.044257734 -0.0038683584 -0.06917437 -0.108367786
0.0440615 -0.08292466 0.026787719 -0.1406039 0.067068405 0.06726017 0.0018545097 -0.0070225657
0.13523029 0.043526173 -0.0939796 -0.06069548 -0.056396887 -0.08789764 -0.10059461 -0.0055273226
-0.0945336 -0.011639256 0.037178118 -0.072773166 -0.05683944 -0.13642484 0.0427076 0.031035151

egnn.layers.0.hidden_mlp.2.weight f4 [16, 32]
00000000: 3dba 09be 6397 d8bd ef64 f8bc 10e5 a83a
00000010: ef53 333c 2eb0 1f3e 3b8a 24be a107 943d
00000020: 3a7f 0c3e f820 233e 5c6b 003d 6d40 203e
00000030: bffc bcbd 1350 00be 3e79 28bd bae2 b8bd
00000040: 72ac a83d e3fa 40bd 2ede b33d 62b5 7bbd
00000050: bc6f 9ebd 73fb 58bd abed 94bc 4e12 aabd
00000060: e0ad cd3d 2445 e83d ed96 0c3d d562 2dbe
00000070: f434 133e c4f0 02be 96f3 f9bd fa8b b93d
00000080: 476b d2bd 3af4 0bbe 4edf 08be 957c 183e
00000090: 393a 4f3d 6f09 b13d 39d7 0f3d 51fd a53d
000000a0: 8362 353e 0b69 ddbc f148 e4bd 92a5 17bd
000000b0: 1911 85bd 6e55 2cbe 5dc5 08be b303 7bbd
000000c0: a3cd 0a3d 81cd b73d 60a6 ed3d 7bee 32be
000000d0: eee4 69bc 8eb8 0abd b24c 193e 7f5a 3dbd
000000e0: 4135 3b3e 3fad 2a3d fc8b c83c c230 9e3d
000000f0: 320c 093e 4073 c1bd 37e0 983d f047 8bbd
00000100: c728 3b3d 55f8 d63d 1e8c a2bd a544 3ebd
00000110: 32bf 263e d4e5 29be 9340 ebbc 1ee7 153e
00000120: c8d5 1a3d d6bb 13be 8ffb 033c 0083 12be
00000130: a482 87bd b10a 163d d50a c53d 5b2a cabd
00000140: a880 1d3e e6b0 ffbd a3d7 11bd 0eaf 1bbe
00000150: 4ce0 a6bb d67f adbb 6bd7 983d 7726 f4bd
00000160: fe1f fb3b 7d57 673d dd7d e4bd 8f3a 1e3e
00000170: 824f 12bd f4cc 38be e91e ffbc 2330 2a3d
00000180: 6f99 b8bd c75c 8bbd 4015 9f3d 1325 09bd
00000190: f724 853d 8b46 443c 1c72 3abb a8da 163e
000001a0: 85ad f2bc f6d9 113e fd54 7dbd 7923 e93d
000001b0: 5499 bc3d 9150 e7bd 3a3e 2fbd b460 f2bd
000001c0: a5f4 133d 148f c73b 151d 6fbd 9301 1b3e
000001d0: 7e03 2d3e 26c7 01be c01b c5bd adfe 863c
000001e0: d54e e13d d2f0 dabd b730 82bc b41f 00bd
000001f0: a66c 12be 50a3 39bc 709a cfbb 60cd 313d
00000200: 6edc 013e 5602 febb a040 023e f5f8 81bd
00000210: 9e48 ecbd e942 8e3d 8210 f63d bcbe f9bb
00000220: 08e4 f4bd 4fa7 afbd a8df c1bd af63 283d
00000230: 48df 453d 42ed 22be 7781 fbbc af8e 283d
00000240: 5c1d 99bd a384 323e c2b1 133e 5d78 aebd
00000250: 13ec 893c 931f fabc 191c 1bbe e27e 713c
00000260: 9770 023e fa3c d33d 5082 b63d 2e13 6bbd
00000270: 9a2b c9bd fa73 18be 7b3e 22be fda0 0c3c
00000280: 76b8 043e a83e 323d 15f2 0fbd 2a22 983c
00000290: 8014 293d 49d4 99bd cac2 e53d d2f1 983d
000002a0: feaf 4ebd 3b25 84bc 6a8a 20be d877 ac3d
000002b0: 1ca6 e03c 7186 043e 36d4 733d eb2a 18be
000002c0: 1b1b 3abd 6069 ca3d 2ee4 193e 38bf 553d
000002d0: 0b97 153e e1b5 343e 78f6 6dbd 2e77 f73c
000002e0: 5d04 203e ddc1 a5bc 1c66 c7bd 4b09 02be
000002f0: 489e 90bd 586c 3dbe 4ecb a2bd e2eb b23d
00000300: 1042 123e 7568 ec3c e767 95bd 1b1e e0bd
00000310: 2262 0ebe 5671 013d 6fff 223e 4935 f1bd
00000320: 128c 343e 86eb a6bd e453 f1bd 0a3c c33d
00000330: ee46 ddbd 0d7a 203e 2e17 22be 8084 de3d
00000340: f928 203e 2752 65bd dfaa cebd f535 6fbd
00000350: d635 173e 5e71 03be 3ac5 1c3e 7434 263e
00000360: b414 95bd a5b4 0f3e 0c96 0d3b ca10 173d
00000370: cc63 c4b7 0527 1f3d 163a 243e 83b3 103d
00000380: 3d67 923c 0114 d0bd 94e8 f73d 20df 7abd
00000390: 6947 0fbe 4bdb 2abe bac7 273e 6eae 8b3d
000003a0: c0a2 95bd bc17 e2bd 67eb 7f3b 459e 00bd
000003b0: 45df 07b9 c30e 0d3e ca26 b7bd d6eb fd3c
000003c0: b1b8 c03d 15b8 0b3e 0380 093d 12ab e7bd
000003d0: 3525 1abd 84af c6bc 1d40 45bd e275 29be
000003e0: c50a d5bb 3098 1e3e aec1 a2bd 4106 91bd
000003f0: 0e74 edbd ea8a 243d bb03 dcbd 56cf a93c
-0.1344995 -0.1057575 -0.030321566 0.0012885649 0.010945304 0.15594551 -0.16068356 0.072280176
0.13720408 0.15930545 0.031352386 0.15649576 -0.09227895 -0.12530546 -0.04113125 -0.0902762
0.08236016 -0.047114264 0.08782612 -0.061452277 -0.077361554 -0.052974176 -0.018179735 -0.083042726
0.1004293 0.113413125 0.03432362 -0.16932233 0.14375669 -0.12787157 -0.122046635 0.090599015
-0.10274368 -0.13667384 -0.13366434 0.14891274 0.050592635 0.086443774 0.03511736 0.08104957
0.1771336 -0.027027627 -0.11146725 -0.037023135 -0.06497402 -0.16829464 -0.13356538 -0.061282825
0.033887517 0.08974744 0.11603999 -0.17473786 -0.0142757725 -0.03386741 0.14970663 -0.046228882
0.18282034 0.041669127 0.024480812 0.077241436 0.13383558 -0.0944581 0.074646406 -0.0680083
0.045693185 0.10496584 -0.079368815 -0.046452183 0.16283873 -0.16591579 -0.028717315 0.14638945
0.037801534 -0.14427122 0.008055582 -0.14307785 -0.066167146 0.03663129 0.09621207 -0.0987136
0.1538111 -0.124849126 -0.035606038 -0.15203497 -0.0050926562 -0.0052947802 0.07462963 -0.11921399
0.007663726 0.05647992 -0.11156819 0.15452026 -0.035720356 -0.18046933 -0.031142669 0.041549813
-0.0901364 -0.06804805 0.07767725 -0.033482622 0.06501191 0.011979709 -0.0028449362 0.14731848
-0.029623756 0.14243302 -0.06184863 0.11383719 0.092089325 -0.11294664 -0.042783953 -0.11834851
0.036121983 0.0060900543 -0.058377344 0.1513732 0.16895863 -0.12673625 -0.096244335 0.01647886
0.11001364 -0.10690464 -0.01589237 -0.031280234 -0.14299259 -0.011330441 -0.006335549 0.04340875
0.12681744 -0.0077517433 0.12719965 -0.06346313 -0.11537288 0.06946356 0.12014867 -0.0076216143
-0.11957556 -0.085768335 -0.09466487 0.04111069 0.04830864 -0.15910819 -0.030701382 0.0411517
-0.07476303 0.1743341 0.14423278 -0.08519051 0.016836202 -0.030532634 -0.15147437 0.014739724
0.12738262 0.10314365 0.08911574 -0.057391338 -0.098227695 -0.14887992 -0.15844147 0.0085833045
0.12960991 0.043516785 -0.035142977 0.018570978 0.041279316 -0.07511193 0.11218794 0.074679986
-0.050460808 -0.016131034 -0.15677801 0.08421296 0.027422957 0.1294191 0.059528552 -0.14860122
-0.045436006 0.0988338 0.1502845 0.052184314 0.146084 0.17647506 -0.05809638 0.030208196
0.15626664 -0.020234043 -0.09736273 -0.12698857 -0.0706144 -0.18498361 -0.079489335 0.08736397
0.14283013 0.028858403 -0.072952084 -0.10943242 -0.13904622 0.031602226 0.15917753 -0.117777415
0.17631558 -0.08150391 -0.11783579 0.09532936 -0.108045444 0.15671559 -0.15829155 0.10865116
0.1564063 -0.05598655 -0.10091185 -0.058401067 0.1476663 -0.12836215 0.15309611 0.16230947
-0.072793394 0.14033754 0.0021604327 0.036881246 -2.3411492e-05 0.03885557 0.16037783 0.035327446
0.017871493 -0.101600654 0.12104908 -0.061247945 -0.13992085 -0.16685216 0.16384783 0.06820379
-0.07306433 -0.11039683 0.0039050223 -0.031400938 -0.00012957778 0.13775162 -0.08942945 0.030996244
0.09410227 0.1364444 0.033569347 -0.11311926 -0.03763314 -0.024253614 -0.048156846 -0.16548875
-0.006501528 0.15487742 -0.07947098 -0.07081271 -0.11594401 0.04017154 -0.10742899 0.020728748

egnn.layers.0.hidden_mlp.2.bias f4 [16]
00000000: 8842 2c3c 76ad fbbd 5b28 033e a6a6 8c39
00000010: 325d cdbd e727 8b3d e977 e5bd 7dbc 9139
00000020: e297 c4bd b259 9f3b 4424 263c 0142 f13d
00000030: b416 3cbd 726e a13d e8e2 4037 c800 ae3d
0.010513909 -0.122889444 0.12808363 0.00026827044 -0.10027541 0.0679472 -0.11204512 0.0002779699
-0.09599282 0.0048629874 0.010140482 0.11780167 -0.04592009 0.07882394 1.14969225e-05 0.08496243
