2-egnca-rework/logs/line4-2024-10-05@23-20-03/best@141.pt (torch, 26116 bytes, 11 tensors)

egnn.layers.0.message_mlp.0.weight f4 [32, 33]
0.060443956 0.09701834 -0.0082439715 0.09516875 -0.051310714 0.02811953 -0.042814318 -0.013514299
-0.03822181 0.028493535 0.13297455 0.13870145 -0.030197123 -0.060878027 -0.025979655 0.14852364
0.14389372 -0.04778247 -0.060194165 -0.043869257 0.12223496 0.13994473 -0.12329037 -0.061497364
-0.15489323 0.17092541 0.0269455 0.053864826 0.09361496 0.04015435 -0.034918327 -0.16958089
0.043553088 -0.031417873 -0.17248338 -0.023294419 -0.09489605 -0.0972973 -0.12673803 -0.14802429
-0.012131103 0.019804867 -0.1564717 -0.16078933 0.001642308 -0.16194955 0.084609985 -0.044000864
-0.024546469 -0.16032296 -0.12627967 0.06514979 -0.09519362 -0.07075198 -0.15520337 -0.004330689
-0.107931025 0.046285696 0.05494824 0.038848605 0.060493384 -0.12314739 0.018324044 -0.15408619
-0.12048996 0.14468963 0.124369964 -0.12320563 0.09627242 -0.14308527 0.025565859 0.15733938
0.014057782 0.06824773 0.15782827 -0.06599309 0.12881757 0.025655331 -0.039845433 -0.15667163
0.16757737 0.17249234 -0.07503543 0.040935397 -0.18050985 0.030991292 0.09838801 0.018009271
-0.09451941 0.1584287 -0.09679508 0.022092909 -0.1629728 0.0744007 0.119686805 0.03376351
0.13466573 -0.17571697 -0.10253839 0.04694362 0.08805928 -0.04298085 0.049478892 -0.16958089
0.16980837 -0.13701995 -0.16149087 -0.12920547 0.1727681 0.043474775 -0.014390689 0.035088856
-0.0013892497 -0.12249566 0.109876245 -0.14553502 -0.043197032 0.018111125 -0.10722297 0.041505743
-0.15792684 -0.0829918 0.15097569 0.051299356 -0.1418855 0.16381097 -0.046798717 0.031535424
-0.03861964 -0.10118847 0.031146064 -0.038491245 -0.0926937 0.09535262 0.08400546 0.113848515
-0.027056329 -0.028987113 0.009625226 0.1527472 -0.15461545 -0.010267355 0.015458383 0.08355996
-0.17077865 -0.18720163 -0.007032055 0.054359686 -0.07349479 0.13404112 0.03276595 -0.060542975
-0.06205879 -0.14216001 0.093465954 -0.03349224 0.0887826 -0.18366808 0.12657417 0.055173393
-0.11039222 -0.095101796 0.123887286 0.08024155 0.08377731 0.038208175 -0.08769441 -0.114039525
-0.049377374 -0.049414825 -0.026662065 -0.041993197 -0.14093982 -0.15878709 -0.12361616 0.08967366
-0.11132063 -0.13489558 -0.0750942 0.054915328 -0.053276755 0.0014312988 0.020261167 -0.123818524
-0.049844373 -0.050752442 -0.0106329145 -0.1121135 -0.034929845 0.015005232 0.055229668 -0.11344698
0.15530732 0.045927327 -0.13955157 0.16264589 -0.11236014 -0.002375798 0.13312605 -0.03833676
0.044650864 0.08278545 -0.058362428 0.01934251 0.13175936 0.000119159275 -0.042618576 0.13103586
0.03570806 -0.11264729 0.087291166 0.14030777 0.013843677 0.14566447 -0.10906809 0.16767183
0.1000597 -0.002702651 -0.15863003 0.168856 -0.00655376 0.08395899 -0.09375203 0.05927079
-0.0269667 0.044817023 0.066718124 -0.11669013 -0.12798487 -0.0076789157 -0.045222346 0.116891645
-0.07401282 0.040762924 -0.15983877 0.08551744 0.10826551 0.026125785 0.022845592 0.02619886
-0.0072583505 -0.03683291 0.13016124 -0.054175142 -0.023125086 -0.016952952 -0.103754506 -0.13618971
-0.10396045 -0.03827897 -0.1348857 0.05704014 -0.13200413 -0.044529036 -0.07430344 -0.085316874
00000000: 1594 773d 8db1 c63d b911 07bc d5e7 c23d
00000010: 2f2b 52bd ee5a e63c 115e 2fbd 146b 5dbc
00000020: 798e 1cbd 466b e93c 7b2a 083e c107 0e3e
00000030: f55f f7bc 3d5b 79bd 49d3 d4bc 9516 183e
00000040: e058 133e 8db7 43bd 288e 76bd 40b0 33bd
00000050: 5356 fa3d ac4d 0f3e a97f fcbd a9e4 7bbd
00000060: 559c 1ebe 1207 2f3e cfbc dc3c 5da1 5c3d
00000070: 33b9 bf3d e378 243d 8506 0fbd 9da6 2dbe
00000080: b964 323d 07b0 00bd 7c9f 30be f0d3 bebc
00000090: dc58 c2bd cf43 c7bd 9dc7 01be ae93 17be
000000a0: 89c1 46bc d13d a23c 1e3a 20be f5a5 24be
000000b0: b642 d73a 1ad6 25be 0048 ad3d 403a 34bd
000000c0: ad15 c9bc b42b 24be 754f 01be 416d 853d
000000d0: dff4 c2bd 6ae6 90bd a2ed 1ebe 74e8 8dbb
000000e0: f10a ddbd 1296 3d3d 6811 613d b71f 1f3d
000000f0: e9c7 773d b334 fcbd 4e1c 963c c5c8 1dbe
00000100: 71c3 f6bd 8529 143e aeb5 fe3d 3c53 fcbd
00000110: 792a c53d f284 12be 7e6f d13c 931d 213e
00000120: 9c52 663c 77c5 8b3d bc9d 213e 6327 87bd
00000130: c1e8 033e 212b d23c f734 23bd 876e 20be
00000140: 6799 2b3e d5a1 303e 2dac 99bd e0ab 273d
00000150: 93d7 38be 73e1 fd3c a77f c93d 2e88 933c
00000160: 6493 c1bd 223b 223e 803c c6bd 30fc b43c
00000170: 57e2 26be 655f 983d 5b1e f53d 9b4b 0a3d
00000180: d0e5 093e 26ef 33be a6ff d1bd f447 403d
00000190: 6c58 b43d b00c 30bd 61aa 4a3d 9da6 2dbe
000001a0: 3fe2 2d3e f54e 0cbe dd5d 25be 704e 04be
000001b0: 1fea 303e 9b12 323d edc6 6bbc 55b9 0f3d
000001c0: 7c17 b6ba 01df fabd cc06 e13d 2207 15be
000001d0: 5fef 30bd c85d 943c b797 dbbd ed01 2a3d
000001e0: 93b7 21be 9bf7 a9bd 5f99 1a3e 461f 523d
000001f0: 6f4a 11be 10be 273e 03b0 3fbd 4a2b 013d
00000200: a12f 1ebd e73b cfbd 0826 ff3c ffa8 1dbd
00000210: 32d6 bdbd 3c48 c33d 0e0b ac3d 6929 e93d
00000220: 3ca5 ddbc 6276 edbc 20b3 1d3c c369 1c3e
00000230: 8353 1ebe 6838 28bc 2845 7d3c 7c21 ab3d
00000240: 99e0 2ebe c9b1 3fbe 276d e6bb 43a8 5e3d
00000250: 7084 96bd 1342 093e 9735 063d e9fb 77bd
00000260: 5c31 7ebd 6592 11be 146b bf3d 292f 09bd
00000270: a7d3 b53d 7c13 3cbe a99c 013e 7ffd 613d
00000280: 5115 e2bd bbc4 c2bd 9eb8 fd3d af55 a43d
00000290: 7093 ab3d 2d80 1c3d 2099 b3bd 8e8d e9bd
000002a0: ee3f 4abd 3367 4abd 676a dabc 0f01 2cbd
000002b0: 8752 10be 1599 22be 782a fdbd d3a6 b73d
000002c0: 12fc e3bd 1122 0abe fdca 99bd e5ee 603d
000002d0: ba38 5abd 6b9a bb3a bffa a53c 9194 fdbd
000002e0: 9d29 4cbd cbe1 4fbd ad35 2ebc c39b e5bd
000002f0: 9912 0fbd 81d8 753c 8138 623d e456 e8bd
00000300: e208 1f3e 4b1e 3c3d 9be6 0ebe a58c 263e
00000310: 131d e6bd 47b3 1bbb 3252 083e 0207 1dbd
00000320: d3e3 363d 6b8b a93d 710d 6fbd 2f74 9e3c
00000330: edeb 063e 26e5 f938 d190 2ebd 442e 063e
00000340: 9d42 123d 9fb3 e6bd b6c5 b23d d7ac 0f3e
00000350: 97d0 623c 1129 153e 175f dfbd 2ab2 2b3e
00000360: 1aec cc3d f61e 31bb e96f 22be 96e8 2c3e
00000370: ecc0 d6bb b1f2 ab3d 1001 c0bd eec5 723d
00000380: 45e9 dcbc 0e92 373d 83a3 883d 3cfb eebd
00000390: 770e 03be 6a9f fbbb 113b 39bd e364 ef3d
000003a0: 0994 97bd 06f7 263d c6ac 23be c523 af3d
000003b0: 4fba dd3d be05 d63c ae26 bb3c fe9e d63c
000003c0: 75d7 edbb 1bde 16bd fd48 053e c1e6 5dbd
000003d0: d270 bdbc ebe0 8abc 3e7d d4bd 5175 0bbe
000003e0: 37e9 d4bd 69ca 1cbd 7a1f 0abe eca2 693d
000003f0: 172c 07be 1464 36bd 672c 98bd 9dba aebd

egnn.layers.0.message_mlp.0.bias f4 [32]
-0.033824682 -0.017228127 0.050621975 -0.15518714 0.05876556 -0.15040709 -0.036368463 -0.14313488
-0.14965594 -0.09295301 0.12605917 -0.16029274 0.07675467 -0.014433919 -0.14272174 0.04743721
-0.09457114 -0.10229069 0.035758413 -0.1255734 0.009628292 0.06001559 0.05034147 0.09395316
-0.1434595 0.05749574 0.10629951 -0.16100226 0.06646104 0.012347567 0.062075097 -0.16731785
00000000: c08b 0abd 0022 8dbc fd58 4f3d 61e9 1ebe
00000010: 28b4 703d 5104 1abe 19f7 14bd f391 12be
00000020: 683f 19be 265e bebd a815 013e c823 24be
00000030: 8d31 9d3d 3f7c 6cbc a625 12be 854d 423d
00000040: 84ae c1bd c87d d1bd 6a77 123d 5096 00be
00000050: fcbf 1d3c e8d2 753d db32 4e3d 846a c03d
00000060: 0ce7 12be a780 6b3d 8fb3 d93d c7dd 24be
00000070: ba1c 883d 734d 4a3c 7542 7e3d 5f55 2bbe

egnn.layers.0.message_mlp.2.weight f4 [32, 32]
0.112957984 -0.15721665 0.083034754 0.15961088 -0.034528904 0.083086245 -0.023062194 0.099740125
-0.16132705 0.00080146716 0.18789431 -0.042842835 -0.13976128 -0.13934153 0.03824591 0.15635592
-0.17245716 0.11366453 -0.13460535 0.074658595 0.037486956 0.05748288 -0.1524021 0.16760789
0.03841893 -0.011032143 -0.13243538 0.10711287 0.1647589 0.068986796 -0.021319613 -0.04077719
-0.18091872 0.11642915 -0.026090443 -0.15697749 0.00016764889 0.033383664 0.111724064 0.05647925
-0.11694198 -0.047200345 -0.17081046 0.08113701 0.08184827 -0.10553919 0.0437054 0.11798562
0.15899004 0.11942366 0.067994125 0.041803494 0.060735855 0.16170552 0.10825107 0.030062517
0.021285076 0.11728567 0.17578691 -0.11591407 -0.08644131 0.19469145 -0.074858524 -0.04950347
0.13984235 -0.06697628 0.1781327 -0.101887904 -0.08116551 0.009366513 0.011459883 0.1631759
-0.07373012 0.0681076 -0.023742205 -0.028365115 -0.15141177 0.16349044 -0.09598183 -0.037270144
-0.081662856 0.16352287 -0.07177066 -0.04109684 0.10376639 0.16951537 0.16538529 -0.10435187
-0.064381436 0.14493328 0.07378573 0.13660763 0.060063373 -0.11891684 -0.02574084 -0.07692699
-0.14497897 0.049263366 0.09359798 0.066005066 0.1392584 -0.07143084 0.05970453 -0.055715118
0.15012802 -0.01294842 0.12652777 0.13358723 -0.12198958 -0.0420672 0.15133081 -0.08600568
-0.042786397 0.14578758 0.14450924 0.118564844 0.017716842 0.11076635 -0.16210167 0.08288073
-0.029892169 -0.13083643 0.038778607 0.001209215 0.06454472 -0.05950392 0.17659184 -0.18430968
0.17240268 -0.07659225 0.1050318 -0.025066804 -0.048615266 -0.13184488 -0.14168236 0.024185097
-0.103190884 -0.12286445 -0.14873399 0.15216328 0.04170464 0.015323815 -0.052484974 -0.15338047
0.10006117 0.14311767 0.03294388 0.047469757 0.0019271659 0.06898201 0.008314537 -0.11174664
-0.024982633 0.16081628 -0.10724512 0.15514955 -0.10035514 -0.035440817 0.11307152 -0.10925621
-0.044626776 -0.13341431 -0.024412185 0.11292965 -0.089429066 -0.038343202 0.00478502 0.10504275
0.029618312 -0.021575402 -0.1086731 -0.13289939 0.17123745 -0.04547075 0.109089404 -0.016421746
-0.08566804 -0.06845573 -0.1408089 -0.03512425 0.014674424 -0.08647579 0.049191914 0.07753707
-0.11310062 -0.018405305 0.12661949 -0.16202137 0.09557584 -0.04319013 -0.05291317 -0.10546629
-0.013076589 0.05861196 -0.08299041 -0.056879908 0.0919034 -0.08446459 0.010878315 0.09853078
-0.0032826858 -0.047884874 -0.11390048 -0.040613867 -0.034784097 0.1132743 0.015595625 -0.14331862
-0.0124045815 -0.10728094 0.18746546 -0.041572753 -0.16820574 -0.096476704 0.10099294 0.16712977
-0.112705596 -0.17366028 -0.0413833 -0.048368577 -0.087632306 0.10807387 0.01461536 0.13325651
0.1271932 0.013764514 0.14204971 -0.046014793 0.06038597 -0.11120734 0.041432075 0.07126931
-0.17835371 0.14766037 0.12344134 -0.10984143 0.052417852 0.16662794 -0.060056776 0.0049910606
-0.018586121 -0.10202105 0.0879422 -0.07927919 0.05170912 0.03473605 0.08592095 0.16938171
0.05930617 -0.02683264 -0.05551085 0.1451007 0.11294578 0.15292726 -0.076190285 0.10812836
00000000: 8456 e73d 67fd 20be 200e aa3d 0971 233e
00000010: 2e6e 0dbd 1f29 aa3d edec bcbc 8d44 cc3d
00000020: eb32 25be 8d19 523a 5e67 403e f87b 2fbd
00000030: 951d 0fbe 8caf 0ebe bea7 1c3d c41b 203e
00000040: 9c98 30be f3c8 e83d fcd5 09be 9be6 983d
00000050: ec8b 193d 2b73 6b3d 4c0f 1cbe 67a1 2b3e
00000060: 2b5d 1d3d 29c0 34bc 249d 07be fe5d db3d
00000070: 8fb6 283e f348 8d3d 78a6 aebc fc05 27bd
00000080: c242 39be 6872 ee3d a0bb d5bc b5be 20be
00000090: e8ca 2f39 4fbd 083d 96cf e43d c956 673d
000000a0: 477f efbd 2655 41bd f0e8 2ebe 292b a63d
000000b0: 11a0 a73d ee24 d8bd 6f04 333d 72a2 f13d
000000c0: 49ce 223e 6494 f43d 8140 8b3d 243a 2b3d
000000d0: 29c6 783d 2296 253e bdb2 dd3d ab45 f63c
000000e0: 0a5e ae3c 7833 f03d 7c01 343e 5b64 edbd
000000f0: 2408 b1bd 325d 473e 6d4f 99bd 27c4 4abd
00000100: d532 0f3e dc2a 89bd 6b68 363e 9baa d0bd
00000110: 1a3a a6bd 0176 193c 3cc2 3b3c 9517 273e
00000120: d1ff 96bd ff7b 8b3d 037f c2bc f55d e8bc
00000130: b00b 1bbe 0a6a 273e 1f92 c4bd 94a8 18bd
00000140: db3e a7bd 8a72 273e 7ffc 92bd 2955 28bd
00000150: 7983 d43d 7095 2d3e c35a 293e 6fb6 d5bd
00000160: 6ada 83bd 6469 143e f91c 973d dfe2 0b3e
00000170: 0305 763d ac8a f3bd 74de d2bc e68b 9dbd
00000180: 5e75 14be 62c8 493d 4cb0 bf3d aa2d 873d
00000190: c199 0e3e 554a 92bd bd8c 743d 8935 64bd
000001a0: 29bb 193e 9c25 54bc 7f90 013e 17cb 083e
000001b0: acd5 f9bd a84e 2cbd 77f6 1a3e bf23 b0bd
000001c0: ca40 2fbd 5749 153e 3bfa 133e 20d2 f23d
000001d0: e922 913c 78d9 e23d fbfd 25be 5fbd a93d
000001e0: 6ce0 f4bc fcf9 05be 51d6 1e3d 867e 9e3a
000001f0: 0630 843d 62ba 73bd 7ed4 343e adbb 3cbe
00000200: 548a 303e 66dc 9cbd ea1a d73d e658 cdbc
00000210: cd20 47bd 5802 07be 2e15 11be d31f c63c
00000220: be55 d3bd 5ba0 fbbd b94d 18be b1d0 1b3e
00000230: 7cd2 2a3d bd10 7b3c 7cfa 56bd c50f 1dbe
00000240: dfec cc3d 708d 123e 29f0 063d a66f 423d
00000250: f598 fc3a 7146 8d3d b239 083c 6cdb e4bd
00000260: 61a8 ccbc 06ad 243e 54a3 dbbd 86df 1e3e
00000270: ff86 cdbd 642a 11bd 0b92 e73d b8c1 dfbd
00000280: 91ca 36bd c39d 08be 10fc c7bc a947 e73d
00000290: 9626 b7bd c30d 1dbd a8cb 9c3b a720 d73d
000002a0: 1aa2 f23c e6be b0bc 0190 debd c716 08be
000002b0: df58 2f3e 8a3f 3abd 446a df3d e686 86bc
000002c0: ba72 afbd 8532 8cbd 3530 10be 72de 0fbd
000002d0: ff6c 703c 381a b1bd 767d 493d c1cb 9e3d
000002e0: 4ca1 e7bd b9c6 96bc 8aa8 013e eee8 25be
000002f0: 44bd c33d 22e8 30bd 7bbb 58bd b6fe d7bd
00000300: 313f 56bc 1813 703d e0f6 a9bd e8fa 68bd
00000310: da37 bc3d c5fb acbd f63a 323c 81ca c93d
00000320: 5422 57bb ee22 44bd a844 e9bd ba5a 26bd
00000330: c579 0ebd 5bfc e73d cb84 7f3c 1ec2 12be
00000340: 963c 4bbc 1cb6 dbbd f2f6 3f3e 3148 2abd
00000350: 203e 2cbe 9495 c5bd 63d5 ce3d 1124 2b3e
00000360: 31d2 e6bd 00d4 31be 8981 29bd 211e 46bd
00000370: 9178 b3bd d555 dd3d 4375 6f3c 6574 083e
00000380: ef3e 023e 8e84 613c 7b75 113e 027a 3cbd
00000390: 4757 773d adc0 e3bd aeb4 293d a5f5 913d
000003a0: 5ba2 36be 4834 173e d0ce fc3d 8bf4 e0bd
000003b0: 1ab4 563d 84a0 2a3e 18fe 75bd 0d8c a33b
000003c0: ec41 98bc 6af0 d0bd 0a1b b43d 215d a2bd
000003d0: f1cc 533d 6347 0e3d 53f7 af3d 6672 2d3e
000003e0: 07eb 723d 20d0 dbbc 585f 63bd 4795 143e
000003f0: 1e50 e73d f798 1c3e a709 9cbd 6772 dd3d

egnn.layers.0.message_mlp.2.bias f4 [32]
0.0035343638 0.10795384 0.019070549 0.16343005 -0.022948366 -0.1640305 -0.15677086 -0.07534848
0.059800018 0.09859597 0.07956324 0.15233316 -0.17193437 0.0720433 -0.01633319 -0.13366407
0.04226768 0.1668639 0.048434503 0.10681988 0.09789486 -0.11716766 -0.17256962 -0.16266398
0.15074906 -0.13031034 -0.05754098 0.1479473 0.15578595 -0.12739064 0.073551394 -0.0048177624
00000000: c9a0 673b e716 dd3d d739 9c3c 355a 273e
00000010: 36fe bbbc 9df7 27be 8a88 20be 4e50 9abd
00000020: ddf0 743d afec c93d 0df2 a23d 39fd 1b3e
00000030: 900f 30be 708b 933d 2fcd 85bc 3cdf 08be
00000040: e020 2d3d 5fde 2a3e 4263 463d 62c4 da3d
00000050: 1a7d c83d 99f5 efbd 17b6 30be 6391 26be
00000060: f65d 1a3e 1370 05be 17b0 6bbd 7f7f 173e
00000070: 5a86 1f3e b172 02be 1da2 963d 52de 9dbb

egnn.layers.0.coord_mlp.0.weight f4 [32, 32]
-0.03971912 -0.002621006 0.0066089057 -0.16816932 -0.12070827 0.084135085 0.108561784 0.048285984
-0.10884025 -0.014682127 0.11004203 -0.10939797 0.12745824 0.0660882 -0.10709672 -0.16172156
0.0766574 0.045435674 -0.095462985 -0.13464452 0.036206722 0.07844474 -0.06786849 0.14607593
0.123986594 0.11188269 0.14614365 -0.11756257 0.14197804 -0.15137583 -0.043315403 -0.12846331
-0.044432927 -0.15390678 -0.1526738 -0.1123598 0.027916279 -0.111467615 0.01659653 0.02761346
-0.15157585 0.14100145 -0.049819257 0.12046296 -0.003429295 0.1108939 0.013033563 -0.109882884
-0.16135624 -0.12775856 -0.10106016 -0.12015732 0.1709083 -0.12003727 0.014343198 -0.120346606
0.13076901 -0.007770882 -0.07794269 0.015201478 -0.093805045 0.08736356 -0.0057861 -0.12119832
-0.04578411 -0.003518195 -0.016277747 -0.0716406 0.034311384 0.17876405 -0.09630349 -0.07907881
0.006275245 0.12294353 -0.08479668 -0.13453002 0.16994393 0.06558025 0.07458731 -0.042164754
0.14965178 0.0012638748 0.058564503 0.16181621 -0.11818658 -0.11629952 0.11546872 0.10012371
-0.0007541008 -0.07394735 0.15637143 -0.14912833 -0.026245274 -0.14941463 0.13318074 0.03394254
-0.05279359 -0.12238511 -0.039036546 -0.14394952 0.15915355 -0.08889607 -0.0020440705 0.015979482
0.10287579 -0.019357514 0.027829086 -0.013776604 0.009684734 0.095722914 0.11815328 -0.010754249
0.0477033 -0.043351498 0.070253596 0.0065745534 -0.014136043 0.011317178 0.1400077 0.1198453
-0.03595227 0.1234863 0.007044588 -0.07304438 -0.08571662 0.10415527 -0.065044545 -0.020334978
-0.08335404 -0.109566644 0.12058544 0.14724544 -0.15508766 0.010412241 0.14132637 0.117566586
0.049468093 0.0595773 -0.044155806 0.029867087 0.10337861 -0.09241906 -0.010386954 0.1794948
0.119157165 0.085274585 0.032087058 0.144716 -0.031770635 -0.037740216 -0.07642715 0.08911956
-0.13607849 0.03326948 0.033834685 -0.109682135 0.086527444 -0.0097235935 0.076572075 -0.06948059
0.043139964 0.13479222 0.02334227 -0.11126412 -0.04206187 -0.04955665 -0.008861367 -0.048047453
0.035084054 -0.07245961 0.02936642 -0.15020032 -0.042380806 0.08135348 0.09847512 -0.1283955
-0.10856144 0.015630752 0.024449592 -0.046211187 0.11450625 -0.09431528 -0.10520454 0.14114961
-0.09248137 -0.039310418 -0.13771342 0.088998206 -0.045684222 0.08868328 0.08364666 -0.14525922
-0.12392624 0.16108583 -0.16245094 -0.119336456 -0.14687996 0.13639393 -0.011427433 -0.16604532
-0.13330466 0.14868033 -0.08749676 0.13025351 0.16246662 0.053983536 -0.083352566 0.17877762
0.16425912 0.13652429 -0.057724733 0.12968817 -0.105147764 0.09191331 0.0027509953 0.14742327
0.038276743 0.082798444 -0.11725443 0.11823352 -0.009385189 -0.0116634425 0.026507432 -0.0562781
-0.16536763 -0.16192825 0.045136392 -0.07131898 -0.12230029 0.141767 0.18301809 -0.1850274
-0.11774469 -0.107350335 0.058060456 0.08960549 -0.089077204 -0.10319654 0.11433523 -0.10332201
-0.08386131 0.17046648 0.0018058419 -0.07225744 0.09267105 -0.15316331 0.16860668 -0.09717371
0.023364097 -0.10139876 0.1270491 0.013037861 -0.15664515 -0.10339703 0.11103167 -0.059954803
00000000: 84b0 22bd 2fc5 2bbb 858f d83b 9434 2cbe
00000010: e635 f7bd 044f ac3d a455 de3d 86c7 453d
00000020: a3e7 debd 4e8d 70bc b75d e13d 0b0c e0bd
00000030: 6a84 023e 4059 873d 8655 dbbd 569a 25be
00000040: 8efe 9c3d c21a 3a3d 1982 c3bd 41e0 09be
00000050: 804d 143d a3a7 a03d a3fe 8abd ee94 153e
00000060: afec fd3d c022 e53d aea6 153e a5c4 f0bd
00000070: b162 113e 4402 1bbe 7e6b 31bd e38b 03be
00000080: 4dff 35bd bd99 1dbe 8556 1cbe e51c e6bd
00000090: aeb0 e43c 2249 e4bd 72f5 873c 9f35 e23c
000000a0: b336 1bbe af62 103e 470f 4cbd 49b5 f63d
000000b0: 06be 60bb 571c e33d ba8a 553c 470a e1bd
000000c0: 923a 25be 24d3 02be a1f8 cebd 0a15 f6bd
000000d0: 9602 2f3e 1ad6 f5bd bcff 6a3c 4878 f6bd
000000e0: 50e8 053e e2a2 febb 6ba0 9fbd 9f0f 793c
000000f0: dc1c c0bd abeb b23d 5399 bdbb d336 f8bd
00000100: 1e88 3bbd 8491 66bb e958 85bc 4fb8 92bd
00000110: 188a 0c3d ec0d 373e c43a c5bd 12f4 a1bd
00000120: 92a0 cd3b d1c9 fb3d e2a9 adbd 3dc2 09be
00000130: c805 2e3e f04e 863d 3bc1 983d f3b4 2cbd
00000140: 513e 193e 9aa8 a53a 55e1 6f3d 26b3 253e
00000150: ce0b f2bd 712e eebd dd7a ec3d a90d cd3d
00000160: d9ae 45ba b571 97bd d51f 203e 19b5 18be
00000170: 5400 d7bc 2600 19be 8860 083e 5507 0b3d
00000180: 173e 58bd 0ba5 fabd c9e4 1fbd 8167 13be
00000190: 26f9 223e 250f b6bd d0f5 05bb 67e7 823c
000001a0: 8bb0 d23d a693 9ebc d3f9 e33c 44b7 61bc
000001b0: b8ac 1e3c 600a c43d 59fa f13d 9732 30bc
000001c0: 8964 433d 5791 31bd 1ee1 8f3d 5a6f d73b
000001d0: dd9a 67bc af6b 393c 2e5e 0f3e 7471 f53d
000001e0: b042 13bd 63e6 fc3d 4ad6 e63b 4b98 95bd
000001f0: 328c afbd 5c4f d53d 1336 85bd 8a95 a6bc
00000200: 86b5 aabd 7a64 e0bd 80f5 f63d 82c7 163e
00000210: 4dcf 1ebe 1b98 2a3c dcb7 103e c0c6 f03d
00000220: 0e9f 4a3d 5407 743d b8dc 34bd d2ab f43c
00000230: 2ab8 d33d 3446 bdbd 0b2e 2abc 7ccd 373e
00000240: ac08 f43d 71a4 ae3d b86d 033d 6e30 143e
00000250: ed21 02bd 7c95 1abd d685 9cbd 5184 b63d
00000260: 2958 0bbe 9445 083d 3d96 0a3d 07a1 e0bd
00000270: 4d35 b13d b54f 1fbc d2d1 9c3d d74b 8ebd
00000280: 88b3 303d f906 0a3e 4a38 bf3c 71de e3bd
00000290: 1149 2cbd eafb 4abd 442f 11bc 68cd 44bd
000002a0: 4cb4 0f3d b465 94bd d991 f03c 1dce 19be
000002b0: 7f97 2dbd a79c a63d 53ad c93d 1c7a 03be
000002c0: 7655 debd 100c 803c 834a c83c f147 3dbd
000002d0: 4182 ea3d 5f28 c1bd 7a75 d7bd 8689 103e
000002e0: df66 bdbd f603 21bd bf04 0dbe b144 b63d
000002f0: 611f 3bbd 949f b53d f14e ab3d d5be 14be
00000300: 0acd fdbd aff3 243e 8a59 26be ac66 f4bd
00000310: b367 16be daaa 0b3e 213a 3bbc c907 2abe
00000320: 0481 08be a83f 183e 8031 b3bd 2d61 053e
00000330: a65d 263e d71d 5d3d c0b4 aabd 7b11 373e
00000340: 8b33 283e 06cd 0b3e c570 6cbd facc 043e
00000350: b657 d7bd 0c3d bc3d 0b4a 343b 20f6 163e
00000360: 13c8 1c3d 3b92 a93d 1723 f0bd 6a24 f23d
00000370: 56c4 19bc 0618 3fbc 1d26 d93c dd83 66bd
00000380: 2256 29be 85d0 25be f0e0 383d af0f 92bd
00000390: 9378 fabd 5e2b 113e 1869 3b3e d377 3dbe
000003a0: 2124 f1bd 7eda dbbd cdd0 6d3d 1583 b73d
000003b0: 1c6e b6bd b558 d3bd 9728 ea3d 7d9a d3bd
000003c0: 7abf abbd c48e 2e3e 00b2 ec3a b5fb 93bd
000003d0: 52ca bd3d d8d6 1cbe 3ba7 2c3e 0303 c7bd
000003e0: 1066 bf3c 27aa cfbd 2919 023e c19c 553c
000003f0: 9667 20be d2c1 d3bd 9264 e33d 2b93 75bd

egnn.layers.0.coord_mlp.0.bias f4 [32]
-0.044715572 -0.080675736 -0.16340573 0.13128261 -0.11243285 0.14003111 0.018829208 -0.07690174
-0.10354165 -0.13697909 0.16311355 -0.053386275 0.027569214 -0.03125471 0.17064804 0.17293042
0.027395828 -0.097125866 0.048840582 -0.1672449 -0.16241778 0.015021954 0.006191249 0.123511076
-0.079705864 0.030992525 0.093750484 -0.16533811 0.06269191 -0.12003437 0.085149765 0.10313848
00000000: ad27 37bd 5239 a5bd d553 27be f36e 063e
00000010: 3243 e6bd 5164 0f3e b63f 9a3c a97e 9dbd
00000020: a50d d4bd 3f44 0cbe 3d07 273e 91ab 5abd
00000030: d5d8 e13c f004 00bd 5cbe 2e3e ac14 313e
00000040: 376d e03c ede9 c6bd 100d 483d 3f42 2bbe
00000050: d950 26be a41e 763c f6df ca3b 60f3 fc3d
00000060: d43c a3bd 09e4 fd3c 4100 c03d 654e 29be
00000070: 9e64 803d 94d4 f5bd 0063 ae3d 443a d33d

egnn.layers.0.coord_mlp.2.weight f4 [1, 32]
-0.0054316367 -0.0037968375 -0.008981571 -0.0019175672 -0.0093750805 0.010562915 -0.01627149 -0.010366003
-0.011173822 -0.013923549 0.007320015 0.0073561124 0.014766065 0.011749088 0.004101782 0.007336745
-0.013337474 -0.017236985 0.008376292 -0.007944425 -0.0171942 0.0121989725 0.014537322 0.012489201
0.008425792 0.015871106 0.0022278996 -0.009049966 -0.016716888 -0.010318427 0.0043957937 0.003968054
00000000: dffb b1bb 5dd4 78bb 7027 13bc e156 fbba
00000010: f099 19bc 1410 2d3c ca4b 85bc 2bd6 29bc
00000020: 6812 37bc 991f 64bc bddc ef3b 8b0b f13b
00000030: 5eed 713c 3f7f 403c 3e68 863b 1469 f03b
00000040: 6c85 5abc 9434 8dbc b73c 093c 5529 02bc
00000050: dada 8cbc 33de 473c f32d 6e3c 819f 4c3c
00000060: 550c 0a3c 1f04 823c f401 123b 4f46 14bc
00000070: dbf1 88bc 9f0e 29bc 970a 903b 7306 823b

egnn.layers.0.hidden_mlp.0.weight f4 [32, 48]
0.05583694 0.03223831 -0.108992346 -0.03444807 0.12593645 0.031849913 -0.12734011 -0.07366556
-0.06596783 0.02041447 -0.11796226 0.11954602 0.09145754 0.022754356 -0.12526466 0.0050617936
-4.336314e-05 -0.07092359 -0.11321567 -0.15383762 0.05942726 0.012953319 0.039832026 0.123735175
-0.051608272 -0.12328616 -0.1220918 -0.13736601 0.069730595 -0.072674595 0.09288904 -0.0705521
0.0023294238 0.060893998 0.053036682 0.13430874 0.011389835 -0.061702903 0.016598312 -0.043140862
0.10939408 -0.04165126 -0.097150326 -0.04021122 -0.067100376 0.120985754 -0.073961265 -0.049416326
-0.066581264 0.13921344 -0.112175964 0.10988055 -0.055107277 0.09578726 0.052904792 -0.09032728
-0.13241987 0.07747744 -0.08487992 -0.101074845 -0.07814881 -0.028469987 -0.060720515 0.0903093
0.00994589 -0.08180947 -0.10511173 0.05462752 -0.03525818 -0.05316614 0.14804111 -0.10919053
0.07399591 -0.060041077 0.006922986 0.04695227 -0.036220543 0.02426612 -0.06476429 -0.04079138
-0.008193258 0.09775904 0.025753956 -0.04631184 -0.049482796 -0.010367021 -0.060332205 -0.029945293
0.090964146 0.06454654 0.08731718 -0.09642965 0.09154469 0.018073617 0.11188143 0.00028828814
-0.108941875 0.05880576 0.022926055 0.09488335 -0.05406814 -0.06923329 -0.12364215 0.10355706
-0.106418274 -0.044809263 0.13647048 -0.09580379 0.097422116 0.039415803 -0.12410936 0.09131627
-0.076149195 0.06570288 -0.09895494 -0.1348152 -0.058560092 -0.067694224 0.108548805 -0.025076851
0.14160737 0.0035983976 0.053195298 0.115256675 0.07479616 0.046209026 0.041228022 0.010360338
0.014909022 0.1345273 -0.08528637 0.09257703 0.0587356 -0.062372677 -0.09084091 -0.060024574
0.11012504 -0.13397312 0.02956598 0.12695628 -0.108782135 -0.14731894 -0.13496733 -0.08351663
0.086573415 0.10062964 -0.051378455 -0.11352724 0.06526165 -0.08583574 0.12931228 -0.0016263296
0.06529167 0.016119115 -0.10583171 -0.0979766 0.06594522 -0.0830393 -0.091365 0.07127339
0.13297752 -0.079733014 0.07959536 -0.024762182 -0.07083167 0.13627523 0.08827389 0.038585182
-0.08553388 -0.07237313 0.08731089 0.010138577 -0.13632925 -0.046500757 0.011565561 0.05159909
-0.06976843 0.09895027 -0.117491834 0.102942 -0.084763475 -0.11920706 0.10667529 -0.03037685
0.1073602 -0.13754238 0.05635038 0.06491719 0.07232058 -0.054859012 0.0068931477 -0.0160714
-0.106678665 -0.06020033 -0.10503359 0.075949855 0.03188097 0.048860162 -0.14045574 0.06004479
-0.074348934 -0.10115257 -0.11031154 0.12128975 -0.083720185 0.095424674 -0.08201137 0.06142335
0.037940152 -0.114640795 -0.09228451 0.0042851153 -0.028203497 0.11553459 -0.12537856 0.044527337
-0.018885365 -0.08114482 -0.123734474 -0.007160967 0.024564117 -0.073035635 0.11363239 0.11467911
-0.12520258 -0.0860889 0.058447145 0.093339615 -0.09007061 0.093919314 -0.11279544 -0.073655926
0.032579128 0.06532743 0.019559259 -0.016871719 0.052437264 -0.09864721 0.055704724 0.14400667
-0.024171468 -0.004482466 0.09850843 0.015831912 -0.028872065 0.11483423 -0.07845063 0.089639544
0.08323732 -0.11077862 -0.0323969 0.04866876 0.014786114 0.01870892 0.11603191 0.102081046
00000000: 46b5 643d 510c 043d 6137 dfbd 6b19 0dbd
00000010: 7cf5 003e 0e75 023d 7265 02be f8dd 96bd
00000020: 241a 87bd 3f3c a73c 3396 f1bd 8bd4 f43d
00000030: 174e bb3d 5867 ba3c 6145 00be 67dd a53b
00000040: d1e0 35b8 6340 91bd 9edd e7bd 9c87 1dbe
00000050: 006a 733d 283a 543c e826 233d de68 fd3d
00000060: 3263 53bd 747d fcbd 440b fabd ada9 0cbe
00000070: eace 8e3d 6bd6 94bd 9c3c be3d 9f7d 90bd
00000080: 3fa9 183b fc6b 793d fe3c 593d 3b88 093e
00000090: 6e9c 3a3c 2fbc 7cbd 2ff9 873c 79b4 30bd
000000a0: 010a e03d 839a 2abd c0f6 c6bd 85b4 24bd
000000b0: ec6b 89bd 61c7 f73d 0179 97bd c668 4abd
000000c0: c25b 88bd f88d 0e3e 83bc e5bd 0e09 e13d
000000d0: 2bb8 61bd 1c2c c43d b2b2 583d 82fd b8bd
000000e0: 1399 07be 7eac 9e3d 86d5 adbd 5400 cfbd
000000f0: 7c0c a0bd e439 e9bc 13b6 78bd 15f4 b83d
00000100: 16f4 223c b98b a7bd d244 d7bd 1bc1 5f3d
00000110: e26a 10bd bdc4 59bd 1798 173e 499f dfbd
00000120: 2b8b 973d a2ed 75bd 37da e23b 0651 403d
00000130: fe5b 14bd bec9 c63c 24a3 84bd dd14 27bd
00000140: 043d 06bc e435 c83d f6f9 d23c 7cb1 3dbd
00000150: 79ae 4abd 70da 29bc e71e 77bd d54f f5bc
00000160: 694b ba3d fa30 843d 5ad3 b23d e97c c5bd
00000170: c87b bb3d 1f0f 943c 1722 e53d 6125 9739
00000180: eb1c dfbd 4fde 703d 6ccf bb3c 3452 c23d
00000190: 8e76 5dbd 2fca 8dbd 1838 fdbd b915 d43d
000001a0: d3f1 d9bd eb89 37bd ebbe 0b3e c734 c4bd
000001b0: 3f85 c73d 7772 213d 0c2d febd 0604 bb3d
000001c0: 1cf4 9bbd 3b8f 863d e3a8 cabd ff0c 0abe
000001d0: b5dc 6fbd 45a3 8abd d64e de3d f86d cdbc
000001e0: 8601 113e 18d3 6b3b 50e3 593d b10b ec3d
000001f0: bb2e 993d ad45 3d3d b7de 283d 68be 293c
00000200: f844 743c 86c1 093e 9faa aebd 0799 bd3d
00000210: be94 703d 7e7a 7fbd cd0a babd 54dc 75bd
00000220: 3d89 e13d 4030 09be 5b34 f23c d400 023e
00000230: 2bc9 debd c7da 16be e034 0abe c40a abbd
00000240: 674d b13d ea16 ce3d 3772 52bd f880 e8bd
00000250: e6a7 853d a6ca afbd 706a 043e 912a d5ba
00000260: a4b7 853d 3c0c 843c 4cbe d8bd f5a7 c8bd
00000270: 4a0e 873d 8210 aabd 931d bbbd c8f7 913d
00000280: 422b 083e 104b a3bd e402 a33d 0fda cabc
00000290: 3210 91bd bc8b 0b3e f1c8 b43d 7f0b 1e3d
000002a0: 632c afbd 5d38 94bd 0dd0 b23d 461c 263c
000002b0: e599 0bbe 9477 3ebd 7b7d 3d3c 9159 533d
000002c0: c0e2 8ebd 70a6 ca3d 8f9f f0bd 41d3 d23d
000002d0: 7998 adbd d522 f4bd 9378 da3d dfd8 f8bc
000002e0: aadf db3d e9d7 0cbe a8cf 663d 4ef3 843d
000002f0: d01c 943d d8b3 60bd eadf e13b 2ba8 83bc
00000300: 587a dabd 9f94 76bd da1b d7bd 998b 9b3d
00000310: 9f95 023d 9821 483d a1d3 0fbe 87f1 753d
00000320: 4144 98bd 1429 cfbd 04eb e1bd c366 f83d
00000330: 7d75 abbd 036e c33d 94f5 a7bd 0d97 7b3d
00000340: 2267 1b3d cbc8 eabd a9ff bcbd 276a 8c3b
00000350: 050b e7bc 669d ec3d 3d63 00be 4c62 363d
00000360: 7bb5 9abc 412f a6bd 8068 fdbd 8ca6 eabb
00000370: b03a c93c b593 95bd 19b8 e83d e2dc ea3d
00000380: 1b35 00be 614f b0bd 4666 6f3d d728 bf3d
00000390: f176 b8bd c558 c03d 4c01 e7bd ebd8 96bd
000003a0: b171 053d 63ca 853d bd3a a03c 8f36 8abc
000003b0: 75c8 563d 8c07 cabd a32a 643d 7c76 133e
000003c0: 3e03 c6bc a6e1 92bb cabe c93d edb1 813c
000003d0: 1c85 ecbc 352e eb3d b9aa a0bd f094 b73d
000003e0: 5478 aa3d e7df e2bd 9db2 04bd e558 473d
000003f0: 7541 723c 7343 993c 23a2 ed3d de0f d13d

egnn.layers.0.hidden_mlp.0.bias f4 [32]
0.060826708 -0.007268566 0.030465242 -0.091744475 0.044054296 -0.005137837 -0.068188556 -0.10873666
0.036911726 -0.08352458 0.027361332 -0.13786831 0.06945422 0.0840006 0.007794513 -0.0048885215
0.1343682 0.043674137 -0.09408074 -0.059417374 -0.05045973 -0.087844856 -0.10007938 -0.0054932944
-0.10796072 -0.015003418 0.03533511 -0.071551144 -0.05663177 -0.13321047 0.046632104 0.03311851
00000000: 6d25 793d 272d eebb 3e92 f93c 87e4 bbbd
00000010: 4772 343d 4d5b a8bb 71a6 8bbd 53b1 debd
00000020: c030 173d ef0e abbd df24 e03c 5a2d 0dbe
00000030: 043e 8e3d 8208 ac3d 1d69 ff3b e42f a0bb
00000040: d197 093e a7e3 323d 67ad c0bd a25f 73bd
00000050: ddae 4ebd 01e8 b3bd 6bf6 ccbd 1801 b4bb
00000060: 831a ddbd e5d0 75bc 8cbb 103d 6889 92bd
00000070: b7f6 67bd 5368 08be 4e01 3f3d 46a7 073d

egnn.layers.0.hidden_mlp.2.weight f4 [16, 32]
-0.13523525 -0.10681755 -0.02977321 0.0018589621 0.010928792 0.15465833 -0.16045946 0.0730297
0.13602996 0.16062497 0.032702688 0.15748228 -0.0927623 -0.12343227 -0.04020825 -0.091244504
0.08310191 -0.0477074 0.087275736 -0.063498706 -0.074635014 -0.052871343 -0.019173818 -0.08341399
0.09851455 0.112139 0.033029925 -0.1703129 0.14324816 -0.12929657 -0.12093236 0.090052836
-0.1022272 -0.13632616 -0.13406278 0.14931098 0.049817022 0.086300515 0.034786806 0.08056483
0.17755899 -0.02715772 -0.1125744 -0.03738194 -0.06452303 -0.16893713 -0.1359875 -0.06084376
0.033175193 0.09029128 0.11678285 -0.17508982 -0.013802689 -0.03339112 0.15039396 -0.045856945
0.18317933 0.042705745 0.024089005 0.07773088 0.1345533 -0.093281336 0.07411689 -0.06760827
0.04593065 0.105358966 -0.07972544 -0.04552503 0.16132319 -0.16649847 -0.029787073 0.14589636
0.03828631 -0.14424261 0.0068121045 -0.14315215 -0.06526454 0.03626588 0.095902205 -0.098509334
0.1518992 -0.124325 -0.035084147 -0.15238596 -0.0049536605 -0.0045047863 0.07511372 -0.11796646
0.008113448 0.0568533 -0.11239297 0.1549456 -0.036229514 -0.17963894 -0.031210538 0.041826475
-0.09089492 -0.06831221 0.07814357 -0.033657033 0.06503234 0.0119512705 -0.0033142783 0.14764372
-0.029998042 0.14252624 -0.06019665 0.11426776 0.091820866 -0.11217732 -0.04178334 -0.11887383
0.036435142 0.0056096846 -0.059092134 0.15230322 0.16783601 -0.12586144 -0.096775316 0.016540019
0.109839804 -0.1076312 -0.014790882 -0.031826463 -0.1429186 -0.012144052 -0.0056906254 0.043214977
0.12591198 -0.009057674 0.12784824 -0.06304004 -0.1154539 0.06877138 0.120128684 -0.0066485237
-0.12105817 -0.08413691 -0.09272902 0.042172834 0.048091326 -0.15638997 -0.02846712 0.039919727
-0.07421623 0.17353304 0.14335683 -0.08598373 0.019369207 -0.029574083 -0.15300857 0.014438553
0.124524236 0.10046604 0.08679819 -0.058626518 -0.098561 -0.15132217 -0.15652281 0.008092946
0.1285981 0.04057013 -0.034885038 0.020843325 0.039518047 -0.07800315 0.1118414 0.07623248
-0.052920327 -0.012131219 -0.156554 0.087387845 0.023569524 0.13423611 0.059258077 -0.15192778
-0.041929774 0.0987357 0.15057832 0.048161115 0.15227345 0.17529501 -0.05970175 0.030127062
0.15211073 -0.020547932 -0.09894978 -0.12944703 -0.06988586 -0.18714161 -0.07855973 0.0868146
0.1377126 0.023441618 -0.0672016 -0.108121306 -0.13654618 0.031292293 0.16340628 -0.11223309
0.17099927 -0.07667061 -0.115468726 0.099201575 -0.10980375 0.16195008 -0.15529425 0.10528947
0.15962516 -0.06093793 -0.10514831 -0.05835828 0.14588922 -0.12872374 0.14879182 0.15681815
-0.077497 0.1366708 -0.0004646371 0.032971118 -0.003253119 0.034749676 0.1646346 0.031182785
0.017028958 -0.10260948 0.12165606 -0.06061889 -0.1398364 -0.16824642 0.1641998 0.06897596
-0.0741802 -0.10918004 0.005286006 -0.03036236 -0.0007660944 0.13939953 -0.088587515 0.030110845
0.094945274 0.13575901 0.03293922 -0.1155972 -0.035436682 -0.024670517 -0.04907483 -0.16586803
-0.008055698 0.15376177 -0.08021796 -0.07171376 -0.11713205 0.038990974 -0.10641729 0.019981755
00000000: 1c7b 0abe 29c3 dabd f2e6 f3bc 6ba8 f33a
00000010: ad0e 333c c15e 1e3e 7c4f 24be 9890 953d
00000020: 704b 0b3e df7a 243e 41f3 053d 0943 213e
00000030: 29fa bdbd 0fca fcbd 68b1 24bd 66de babd
00000040: 5631 aa3d d668 43bd 9fbd b23d 9c0b 82bd
00000050: 3eda 98bd 9f8f 58bd 6912 9dbc f4d4 aabd
00000060: ffc1 c93d 22a9 e53d 634a 073d 8166 2ebe
00000070: a5af 123e 5266 04be 63ab f7bd 9f6d b83d
00000080: 7f5c d1bd 1699 0bbe c147 09be fae4 183e
00000090: ef0c 4c3d 53be b03d 9c7c 0e3d 2cff a43d
000000a0: 06d2 353e de79 debc 688d e6bd ce1d 19bd
000000b0: a624 84bd dbfd 2cbe 4f40 0bbe 4e37 79bd
000000c0: b6e2 073d a2ea b83d d92b ef3d bf4a 33be
000000d0: ac24 62bc 21c5 08bd e000 1a3e 7ed4 3bbd
000000e0: 5d93 3b3e 38ec 2e3d 4e56 c53c 5e31 9f3d
000000f0: 57c8 093e 490a bfbd 99ca 973d 3476 8abd
00000100: c721 3c3d 71c6 d73d 1747 a3bd 7478 3abd
00000110: e831 253e 937e 2abe 0504 f4bc db65 153e
00000120: 1bd2 1c3d 56b4 13be 1338 df3b 7a96 12be
00000130: 6aa9 85bd 888b 143d 6068 c43d 43bf c9bd
00000140: 778b 1b3e 1b9e febd 65b4 0fbd 110b 1cbe
00000150: 5152 a2bb e39c 93bb 39d5 993d 6698 f1bd
00000160: 44ee 043c 02df 683d 492e e6bd 0faa 1e3e
00000170: 6665 14bd 45f3 37be 3ead ffbc 3d52 2b3d
00000180: 1e27 babd 46e7 8bbd bc09 a03d f5db 09bd
00000190: ad2f 853d 43cf 433c 5d34 59bb ea2f 173e
000001a0: 74be f5bc 66f2 113e c390 76bd 3705 ea3d
000001b0: 940c bc3d 39bd e5bd 0225 2bbd 1f74 f3bd
000001c0: 043d 153d 72d1 b73b 980a 72bd 60f5 1b3e
000001d0: 34dd 2b3e d2e1 00be 2332 c6bd ef7e 873c
000001e0: b1f3 e03d bf6d dcbd 7555 72bc 775c 02bd
000001f0: 4159 12be d9f7 46bc 6d78 babb 3002 313d
00000200: 12ef 003e a366 14bc a6ea 023e 231b 81bd
00000210: 1873 ecbd 02d8 8c3d 0706 f63d dcdb d9bb
00000220: 59ed f7bd f94f acbd b6e8 bdbd 6cbd 2c3d
00000230: 69fb 443d b124 20be e133 e9bc de82 233d
00000240: aefe 97bd a5b2 313e 22cc 123e 3d18 b0bd
00000250: 2cac 9e3c 5945 f2bc 47ae 1cbe ae8f 6c3c
00000260: 9006 ff3d 24c1 cd3d 40c3 b13d 5c22 70bd
00000270: 59da c9bd 33f4 1abe 8447 20be 4798 043c
00000280: 38af 033e dd2c 263d 9de3 0ebd 9fbf aa3c
00000290: addd 213d 1ec0 9fbd 1b0d e53d c61f 9c3d
000002a0: fcc2 58bd 05c2 46bc b14f 20be 66f8 b23d
000002b0: e014 c13c 3175 093e 99b8 723d f592 1bbe
000002c0: 8ebe 2bbd f135 ca3d 3431 1a3e 9744 453d
000002d0: 92ed 1b3e 8980 333e d289 74bd 07cd f63c
000002e0: eac2 1b3e 2354 a8bc 2fa6 cabd c38d 04be
000002f0: 5120 8fbd 0da2 3fbe ece3 a0bd dacb b13d
00000300: 8804 0d3e a308 c03c fea0 89bd b46e ddbd
00000310: c3d2 0bbe 592c 003d fa53 273e 76da e5bd
00000320: 6f1a 2f3e 7b05 9dbd de7a ecbd 322a cb3d
00000330: cae0 e0bd 3ed6 253e 7505 1fbe 01a2 d73d
00000340: c774 233e 0d9a 79bd ff57 d7bd 1809 6fbd
00000350: fc63 153e 28d0 03be e25c 183e f094 203e
00000360: bfb6 9ebd 6ef3 0b3e 899a f3b9 b90c 073d
00000370: 4832 55bb ad55 0e3d f995 283e 0a73 ff3c
00000380: 5080 8b3c eb24 d2bd d026 f93d 834b 78bd
00000390: 4631 0fbe ca48 2cbe fe23 283e 4543 8d3d
000003a0: caeb 97bd c999 dfbd 3b36 ad3b 7cba f8bc
000003b0: bad3 48ba c0be 0e3e 5f6d b5bd 05ab f63c
000003c0: ab72 c23d 6904 0b3e 47eb 063d 3abe ecbd
000003d0: 0e26 11bd d319 cabc b002 49bd 4fd9 29be
000003e0: 0cfc 03bc ba73 1d3e 5049 a4bd aade 92bd
000003f0: eee2 efbd 00b5 1f3d 4ff1 d9bd c7b0 a33c

egnn.layers.0.hidden_mlp.2.bias f4 [16]
0.0022535569 -0.09914225 0.104169756 -1.29347545e-05 -0.07739794 0.04707202 -0.088679016 8.7499275e-06
-0.073320866 0.00036256248 0.0020843865 0.09422715 -0.027465153 0.057134636 -3.1987436e-06 0.062882625
00000000: 69b0 133b 180b cbbd f456 d53d 5902 59b7
00000010: d082 9ebd 97ce 403d 589d b5bd a7cc 1237
00000020: 4029 96bd 5016 be39 349a 083b 2afa c03d
00000030: 9afe e0bc 0206 6a3d ffa9 56b6 9bc8 803d
