2-egnca-rework/logs/line4-2024-10-05@23-20-03/best@51.pt (torch, 25525 bytes, 11 tensors)

egnn.layers.0.message_mlp.0.weight f4 [32, 33]
0	0x3d68a6f4	0.056799844
1	0x3dc4f852	0.09617676
2	0xbb8f1149	-0.004366074
3	0x3dd3787c	0.10325715
4	0xbd56793c	-0.05236171
5	0x3d031d16	0.03201016
6	0xbd3b79c8	-0.045770437
7	0xbc3f6eae	-0.011684103
8	0xbd1ea4d2	-0.038731404
9	0x3ce90718	0.028445765
10	0x3e0b9add	0.13633294
11	0x3e0d49c5	0.13797672
12	0xbce8fcf1	-0.028440924
13	0xbd6a92ff	-0.057269093
14	0xbcdd68ea	-0.027027566
15	0x3e1b2723	0.15151648
16	0x3e182907	0.148594
17	0xbd49b370	-0.04924339
18	0xbd697598	-0.05699691
19	0xbd2f7ca0	-0.04284346
20	0x3df5d27a	0.12003036
21	0x3e11be9a	0.14232865
22	0xbdfb87a2	-0.12281729
23	0xbd71c847	-0.05902889
24	0xbe1edb35	-0.15513308
25	0x3e2fd58c	0.17171305
26	0x3cf4ef01	0.029899122
27	0x3d50a093	0.050934386
28	0x3dc1b274	0.09457865
29	0x3d2ea9cb	0.042642396
30	0xbd174479	-0.036930535
31	0xbe2b645f	-0.16737507
32	0x3d3edfda	0.0466002
33	0xbce7b4af	-0.028284399
34	0xbe2d9d54	-0.16954547
35	0xbcc7a8f8	-0.024372563
36	0xbdc648a9	-0.096818276
37	0xbdc401b1	-0.09570635
38	0xbe02f14c	-0.1278736
39	0xbe118291	-0.14209963
40	0xbc483212	-0.012218969
41	0x3cb6fa6b	0.022336205
42	0xbe1ebb5f	-0.15501164
43	0xbe2546ea	-0.16140333
44	0x3b243953	0.0025058582
45	0xbe2630bb	-0.16229527
46	0x3daad5f1	0.08341587
47	0xbd30e602	-0.043188103
48	0xbcd42c93	-0.02590016
49	0xbe2548f5	-0.16141112
50	0xbdfd0941	-0.12355281
51	0x3d7d83f4	0.06189342
52	0xbdc47abe	-0.09593724
53	0xbd8c2712	-0.068433896
54	0xbe217eac	-0.15770978
55	0x3ad304e3	0.0016099479
56	0xbde1c047	-0.11023002
57	0x3d3d6a5c	0.04624401
58	0x3d66254e	0.05618792
59	0x3d1342fb	0.03595255
60	0x3d822b93	0.063559674
61	0xbdf7ad14	-0.12093559
62	0x3c7e5fff	0.015525817
63	0xbe1ae44c	-0.15126151
64	0xbdfae4f1	-0.12250698
65	0x3e10da0a	0.14145675
66	0x3df8fe00	0.12157822
67	0xbe000834	-0.12503129
68	0x3dc8f802	0.09812929
69	0xbe0cfea0	-0.13769007
70	0x3cc613dd	0.024179393
71	0x3e232209	0.15930952
72	0x3c15643b	0.009118135
73	0x3d8ce29e	0.06879161
74	0x3e1fdf01	0.15612413
75	0xbd88deca	-0.06683119
76	0x3e0537ae	0.13009521
77	0x3ccb388e	0.02480724
78	0xbd1f597d	-0.038903702
79	0xbe1e637e	-0.15467641
80	0x3e2a9f73	0.16662388
81	0x3e3297fd	0.17440791
82	0xbd95c41e	-0.07312797
83	0x3d222deb	0.039594572
84	0xbe363b43	-0.17796044
85	0x3d006601	0.03134728
86	0x3dc5db89	0.09661014
87	0x3ca2e264	0.019883342
88	0xbdc414db	-0.0957429
89	0x3e245305	0.16047294
90	0xbdc5f267	-0.09665375
91	0x3cb25366	0.021768283
92	0xbe24649b	-0.16054003
93	0x3d935ab5	0.07195035
94	0x3df42a47	0.11922126
95	0x3d12ab35	0.035807807
96	0x3e07cbc9	0.13261332
97	0xbe324b46	-0.17411527
98	0xbdccba15	-0.0999643
99	0x3d32669b	0.043554883
100	0x3db2c85c	0.08729622
101	0xbd28790c	-0.041131064
102	0x3d55b03d	0.052170027
103	0xbe2e7b86	-0.17039308
104	0x3e30016a	0.1718804
105	0xbe0c5f3e	-0.13708207
106	0xbe24043a	-0.16017237
107	0xbe04aef9	-0.12957372
108	0x3e315bec	0.17320222
109	0x3d39bef9	0.04534814
110	0xbc6df65b	-0.014524068
111	0x3d16bb99	0.0368
112	0x3965ee2c	0.00021927868
113	0xbdfaf210	-0.12253201
114	0x3de5e1a7	0.112246804
115	0xbe128f0d	-0.14312382
116	0xbd2faa3b	-0.042886954
117	0x3cb32630	0.021868795
118	0xbdd4c1ce	-0.10388528
119	0x3d28817e	0.04113912
120	0xbe1e7512	-0.15474346
121	0xbdaee098	-0.085389316
122	0x3e1cd3a0	0.15315104
123	0x3d5735f8	0.052541703
124	0xbe1058b4	-0.14096338
125	0x3e2ad416	0.16682467
126	0xbd44a873	-0.04801221
127	0x3d02d422	0.031940587
128	0xbd111c8e	-0.035427622
129	0xbdd29ea8	-0.102841675
130	0x3d08a9fa	0.033365227
131	0xbd104695	-0.035223562
132	0xbdbd8028	-0.092529595
133	0x3dc32226	0.09527998
134	0x3dac6782	0.0841818
135	0x3de8cf2c	0.1136764
136	0xbcdfd104	-0.027321346
137	0xbceca684	-0.028887995
138	0x3c6882e8	0.014191367
139	0x3e1d8fb0	0.15386844
140	0xbe1e20b5	-0.15442164
141	0xbc2947df	-0.010332077
142	0x3c85ce29	0.016333656
143	0x3daaaa15	0.08333222
144	0xbe2e52ba	-0.17023745
145	0xbe3fbece	-0.1872513
146	0xbbdbf226	-0.006712216
147	0x3d604e5b	0.054762226
148	0xbd95213a	-0.07281728
149	0x3e0a5776	0.13509926
150	0x3d0430e3	0.032273185
151	0xbd77ec18	-0.06052789
152	0xbd79861d	-0.060918916
153	0xbe126b80	-0.1429882
154	0x3dbb5c3d	0.091484524
155	0xbd0f1c66	-0.034939192
156	0x3db7e8d1	0.08979953
157	0xbe3b0611	-0.18264033
158	0x3e003b45	0.1252261
159	0x3d675acc	0.056483075
160	0xbde3f028	-0.111297905
161	0xbdc4b7d8	-0.09605378
162	0x3dff880f	0.12477123
163	0x3da20cdb	0.07912608
164	0x3da8bb55	0.08238856
165	0x3d10b531	0.035329048
166	0xbdb99278	-0.0906114
167	0xbde70ad8	-0.11281365
168	0xbd3ec352	-0.04657299
169	0xbd51b140	-0.05119443
170	0xbcce30ac	-0.025169693
171	0xbd45777f	-0.048209663
172	0xbe100710	-0.14065194
173	0xbe24f4cc	-0.16109008
174	0xbe002fd6	-0.12518248
175	0x3db966e0	0.09052825
176	0xbde63ff0	-0.11242664
177	0xbe0969ae	-0.1341922
178	0xbd967af4	-0.0734767
179	0x3d5d5383	0.05403472
180	0xbd531367	-0.051532175
181	0x3b3cf50d	0.0028832585
182	0x3c953150	0.01821199
183	0xbdf6f2fc	-0.12058064
184	0xbd4c0450	-0.0498088
185	0xbd5c22a1	-0.053743962
186	0xbbfa5f2d	-0.0076407404
187	0xbdea54dc	-0.11441967
188	0xbd02f3b4	-0.031970695
189	0x3c793229	0.015209713
190	0x3d5b6cc5	0.053570528
191	0xbde1a7fb	-0.11018368
192	0x3e1b64af	0.15175126
193	0x3d359b3e	0.044337504
194	0xbe0be9b5	-0.13663371
195	0x3e2413b6	0.16023144
196	0xbde023db	-0.10944339
197	0x3a93dca1	0.0011280962
198	0x3e05fdf0	0.1308515
199	0xbd37c1f6	-0.04486271
200	0x3d3690d8	0.044571728
201	0x3da7463c	0.08167693
202	0xbd7b74c1	-0.061390642
203	0x3c9f8861	0.01947421
204	0x3dfd978f	0.12382423
205	0xba2e3012	-0.0006644736
206	0xbd4a9321	-0.04945672
207	0x3e00ca69	0.12577213
208	0x3d0f78b0	0.035027206
209	0xbdeb0c70	-0.11476982
210	0x3dac51d0	0.08414042
211	0x3e107e82	0.14110759
212	0x3c390455	0.011292537
213	0x3e15e4a1	0.14637996
214	0xbde02061	-0.10943676
215	0x3e29d443	0.16584878
216	0x3dcf6bf3	0.101280116
217	0xbc42ff59	-0.0119017
218	0xbe2497cf	-0.16073535
219	0x3e2da863	0.16958766
220	0xbc3158b2	-0.010824369
221	0x3daebc18	0.0853197
222	0xbdc38998	-0.09547728
223	0x3d69aefb	0.05705164
224	0xbcd25a00	-0.025677681
225	0x3d2c3cb6	0.042050086
226	0x3d7c6c84	0.061626926
227	0xbded0627	-0.11573439
228	0xbe05cab8	-0.13065612
229	0xbbe16907	-0.0068789753
230	0xbd34d2df	-0.044146415
231	0x3de676e1	0.11253143
232	0xbd9b1fc5	-0.07574419
233	0x3d32f3dc	0.043689594
234	0xbe21c724	-0.15798622
235	0x3daa220c	0.08307275
236	0x3de38998	0.11110228
237	0x3cd8c52b	0.026461205
238	0x3ccd3d08	0.025053516
239	0x3cd0cf6a	0.025489528
240	0xbbedb1c1	-0.007253856
241	0xbd0c0eab	-0.034193676
242	0x3e0412f6	0.12897858
243	0xbd57865d	-0.052618373
244	0xbca2b18b	-0.01986005
245	0xbc91b29a	-0.01778536
246	0xbdcd2060	-0.10015941
247	0xbe08217c	-0.13294023
248	0xbdd43a78	-0.103627145
249	0xbcdbd2db	-0.026833942
250	0xbe054403	-0.13014226
251	0x3d69349b	0.056934934
252	0xbdff6f49	-0.12472398
253	0xbd41bd19	-0.04729948
254	0xbd941484	-0.072304755
255	0xbdacd991	-0.08439935

egnn.layers.0.message_mlp.0.bias f4 [32]
0	0xbd0f1397	-0.03493079
1	0xbc88fe7a	-0.016722906
2	0x3d4ca8d5	0.0499657
3	0xbe1f0447	-0.15528975
4	0x3d7688b7	0.060188975
5	0xbe1ad06f	-0.15118574
6	0xbd1c2f44	-0.038131014
7	0xbe12bb3c	-0.14329237
8	0xbe17fb69	-0.14841999
9	0xbdbd666a	-0.092480496
10	0x3e00aacb	0.12565152
11	0xbe247d0b	-0.16063325
12	0x3da0611a	0.07831021
13	0xbc2dcee3	-0.010608408
14	0xbe10eec5	-0.14153583
15	0x3d41462f	0.047186073
16	0xbdc0c4d7	-0.09412544
17	0xbdd30521	-0.10303713
18	0x3d14ac83	0.036297332
19	0xbe0190dd	-0.12652917
20	0x3c191279	0.009342783
21	0x3d709674	0.058737233
22	0x3d523322	0.051318295
23	0x3dc1e0dc	0.09466717
24	0xbe13835d	-0.1440558
25	0x3d68aa38	0.05680296
26	0x3ddf89b1	0.109149344
27	0xbe268d91	-0.16264941
28	0x3d8ee577	0.06977361
29	0x3c4db1d0	0.012554601
30	0x3d7accad	0.06123035
31	0xbe2aa86c	-0.1666581

egnn.layers.0.message_mlp.2.weight f4 [32, 32]
0	0x3de6d41f	0.11270928
1	0xbe1fe1c2	-0.15613464
2	0x3da077c5	0.07835344
3	0x3e26fce8	0.16307414
4	0xbd10fc83	-0.035397064
5	0x3da76032	0.08172645
6	0xbc95ce9e	-0.018287
7	0x3dc51413	0.096229695
8	0xbe24a0b2	-0.16076925
9	0xbae77773	-0.00176595
10	0x3e3e0b6c	0.18559045
11	0xbd31cd2e	-0.043408565
12	0xbe0d73a7	-0.13813649
13	0xbe0ff1ad	-0.14057036
14	0x3d23ecaa	0.040020622
15	0x3e1f2860	0.15542746
16	0xbe305fe7	-0.17224084
17	0x3de7d108	0.113191664
18	0xbe092f11	-0.1339686
19	0x3d9b29e5	0.0757635
20	0x3d0dee68	0.03465119
21	0x3d5913ab	0.052997272
22	0xbe1dd207	-0.1541215
23	0x3e2d6379	0.16932477
24	0x3d221924	0.039574757
25	0xbc4fa0c2	-0.012672605
26	0xbe059afc	-0.13047403
27	0x3ddcdf05	0.10784725
28	0x3e26438c	0.16236705
29	0x3d98f6f5	0.07468978
30	0xbc999cb1	-0.018751474
31	0xbd391de1	-0.04519451
32	0xbe3a61fb	-0.18201439
33	0x3def99d6	0.11699264
34	0xbccea2e9	-0.025224166
35	0xbe21ab94	-0.15788108
36	0xb9f32ba5	-0.0004638109
37	0x3d0e3278	0.0347161
38	0x3de47b50	0.111563325
39	0x3d73e7f6	0.059547387
40	0xbdee5703	-0.1163769
41	0xbd3c8717	-0.04602727
42	0xbe2e614d	-0.17029305
43	0x3dab7f43	0.083738826
44	0x3da66e33	0.081264876
45	0xbdd42388	-0.103583395
46	0x3d3099de	0.04311549
47	0x3df4e498	0.11957663
48	0x3e23e28b	0.16004388
49	0x3df52895	0.11970631
50	0x3d8a06ee	0.06739603
51	0x3d1f9d42	0.038968332
52	0x3d84a761	0.064772375
53	0x3e273c08	0.16331494
54	0x3ded0510	0.11573231
55	0x3ce25ca2	0.027632061
56	0x3cb076d8	0.021541044
57	0x3df17479	0.117897935
58	0x3e329cb2	0.17442587
59	0xbde81549	-0.11332185
60	0xbda86a70	-0.08223426
61	0x3e42665f	0.18984364
62	0xbda39f5d	-0.079893805
63	0xbd236d81	-0.039899353
64	0x3e1006a3	0.14065032
65	0xbd887b60	-0.06664157
66	0x3e31efbb	0.17376606
67	0xbdcca4f6	-0.09992401
68	0xbda3a6ed	-0.07990823
69	0x3bfd9ed5	0.0077398815
70	0x3c971197	0.018441005
71	0x3e21f69a	0.15816727
72	0xbd977dd5	-0.073970474
73	0x3d860e0f	0.0654565
74	0xbcd7a282	-0.026322607
75	0xbcf17c08	-0.029478088
76	0xbe1a2d51	-0.1505635
77	0x3e24aa64	0.16080624
78	0xbdbff0f3	-0.09372129
79	0xbd1ea6ed	-0.03873341
80	0xbda6989b	-0.08134576
81	0x3e2723f1	0.16322304
82	0xbd91bef4	-0.071164995
83	0xbd2220cb	-0.039582055
84	0x3dcb5d76	0.09929936
85	0x3e26ee8b	0.16301934
86	0x3e26f992	0.16306141
87	0xbdcb2f09	-0.099210806
88	0xbd80c9f9	-0.06288523
89	0x3e12a76d	0.1432168
90	0x3d9c3f57	0.076292686
91	0x3e0b349c	0.13594288
92	0x3d6b4ad9	0.057444427
93	0xbddd7aef	-0.10814463
94	0xbcb5b437	-0.02218066
95	0xbda982bf	-0.08276891
96	0xbe146ed7	-0.14495407
97	0x3d4d7d46	0.0501683
98	0x3dc1583f	0.0944066
99	0x3d89790f	0.06712543
100	0x3e0cf386	0.13764772
101	0xbd90130b	-0.07034882
102	0x3d788c0c	0.060680434
103	0xbd618197	-0.055055227
104	0x3e19a1f6	0.1500319
105	0xbc569a07	-0.013098246
106	0x3e0276d7	0.12740646
107	0x3e0ad8a8	0.1355921
108	0xbdf94c0b	-0.12172707
109	0xbd3095a9	-0.043111477
110	0x3e19f362	0.1503425
111	0xbdaf7328	-0.08566886
112	0xbd2c17fc	-0.04201506
113	0x3e15f862	0.14645532
114	0x3e1378a7	0.14401494
115	0x3df07158	0.117403686
116	0x3c9d48e5	0.019199798
117	0x3de5c4f9	0.1121921
118	0xbe1fff2f	-0.15624689
119	0x3da92061	0.08258129
120	0xbcf5c308	-0.030000225
121	0xbe0517f4	-0.12997419
122	0x3d1d7ad4	0.038447216
123	0x3aef302a	0.0018248607
124	0x3d87b1b2	0.066256896
125	0xbd7cb0fb	-0.06169222
126	0x3e3239f8	0.17404926
127	0xbe3b0c16	-0.18266329
128	0x3e309997	0.1724609
129	0xbd9cb882	-0.076523796
130	0x3dcecd60	0.10097766
131	0xbcb4c1c8	-0.022065058
132	0xbd4adb37	-0.049525466
133	0xbe0844b3	-0.13307457
134	0xbe0ac158	-0.13550317
135	0x3cae840b	0.021303197
136	0xbdd2c997	-0.102923565
137	0xbe0041bd	-0.12525077
138	0xbe1a854b	-0.1508991
139	0x3e1bcd7e	0.15215108
140	0x3d2c0ed0	0.042006314
141	0x3c6e839c	0.014557745
142	0xbd502b42	-0.050822504
143	0xbe1dade3	-0.15398364
144	0x3dce3b51	0.100699075
145	0x3e12289d	0.14273305
146	0x3d08ff6f	0.033446725
147	0x3d491038	0.049087733
148	0xb9707f8d	-0.000229357
149	0x3d86e4b0	0.065865874
150	0x3bf23b9d	0.0073923604
151	0xbde270cf	-0.11056673
152	0xbcc0b14f	-0.023522047
153	0x3e2330c8	0.15936577
154	0xbdd8be71	-0.10583199
155	0x3e1ff5d7	0.15621124
156	0xbdd1af43	-0.10238507
157	0xbd00ddab	-0.0314614
158	0x3decf7ca	0.115706995
159	0xbde6594b	-0.112475
160	0xbd1b3bcf	-0.037898835
161	0xbe08e500	-0.13368607
162	0xbc870a11	-0.016484292
163	0x3dd77d16	0.10521905
164	0xbdb5e1d9	-0.08880968
165	0xbd0e7952	-0.03478367
166	0x3b08742c	0.0020821197
167	0x3de3a63e	0.111156926
168	0x3ccf1d53	0.025282538
169	0xbcbaba9d	-0.022794062
170	0xbdd49cc5	-0.10381464
171	0xbe0779db	-0.13230078
172	0x3e2ecfe0	0.17071486
173	0xbd454f4f	-0.048171338
174	0x3dd70171	0.10498322
175	0xbc8f0609	-0.017458932
176	0xbdb0057b	-0.08594795
177	0xbd86a96a	-0.06575282
178	0xbe12cb42	-0.14335349
179	0xbd17596b	-0.03695051
180	0x3c9fdbcf	0.019513993
181	0xbdaaa5bf	-0.08332395
182	0x3d4e020a	0.050294913
183	0x3da4838d	0.08032904
184	0xbdec2d16	-0.11532037
185	0xbc760627	-0.015016115
186	0x3dfc0050	0.12304747
187	0xbe29de5a	-0.16588727
188	0x3dcf98b3	0.10136547
189	0xbd409d9e	-0.047025315
190	0xbd7c19d1	-0.061548058
191	0xbdd52958	-0.10408276
192	0xbc4b72d4	-0.012417514
193	0x3d64a36f	0.055819925
194	0xbd9f5ed9	-0.07781763
195	0xbd7805fd	-0.060552586
196	0x3dbe961a	0.09305973
197	0xbda96d94	-0.082728535
198	0x3c087839	0.008329445
199	0x3dd28ccd	0.10280762
200	0xbb90e945	-0.004422339
201	0xbd3dd8d0	-0.046349347
202	0xbde38d42	-0.11110927
203	0xbd21c8ec	-0.039498255
204	0xbd1f7f31	-0.03893966
205	0x3deb628e	0.11493407
206	0x3c5c92a1	0.013462693
207	0xbe117b12	-0.14207104
208	0xbc4aba46	-0.012373513
209	0xbdd9f7e2	-0.10642983
210	0x3e3ed941	0.18637563
211	0xbd2c422b	-0.04205529
212	0xbe28630b	-0.16444032
213	0xbdb5b880	-0.08873081
214	0x3dd49673	0.103802584
215	0x3e28e97c	0.16495317
216	0xbde84f0a	-0.113432005
217	0xbe2fa25f	-0.17151783
218	0xbd353793	-0.044242453
219	0xbd4909af	-0.0490815
220	0xbdad87eb	-0.0847319
221	0x3dcd41b5	0.10022298
222	0x3c45e0bf	0.012077509
223	0x3e0d4748	0.13796723
224	0x3e01699c	0.12637943
225	0x3ca2d565	0.019877145
226	0x3e0ebfec	0.139404
227	0xbd1ad284	-0.03779842
228	0x3d730726	0.05933299
229	0xbde5551f	-0.11197876
230	0x3d39199b	0.045190435
231	0x3d8d7bd6	0.069083855
232	0xbe35fe08	-0.17772686
233	0x3e16306c	0.14666909
234	0x3df98a20	0.121845484
235	0xbddf781d	-0.10911582
236	0x3d65419a	0.055970766
237	0x3e2af335	0.16694339
238	0xbd7194e6	-0.05897989
239	0x3b950694	0.0045479033
240	0xbc9bff6f	-0.019042699
241	0xbdd1b00c	-0.102386564
242	0x3db48e5d	0.08816216
243	0xbd9e121b	-0.07718297
244	0x3d4ef624	0.050527707
245	0x3d0865c9	0.033300195
246	0x3daf4132	0.08557357
247	0x3e2ce009	0.16882338
248	0x3d76c93a	0.0602505
249	0xbce51ecf	-0.027968792
250	0xbd5ee03e	-0.054413073
251	0x3e15d289	0.14631094
252	0x3ddf1eb3	0.10894527
253	0x3e1e9cda	0.15489522
254	0xbd940eb0	-0.07229364
255	0x3dd6a680	0.10480976

egnn.layers.0.message_mlp.2.bias f4 [32]
0	0x3b3af27e	0.0028525884
1	0x3ddf0236	0.108890936
2	0x3c982224	0.018570967
3	0x3e288e97	0.16460644
4	0xbcc2dfde	-0.023788389
5	0xbe24f7df	-0.1611018
6	0xbe1fef38	-0.15618598
7	0xbd9fc935	-0.07802049
8	0x3d761077	0.060074296
9	0x3dca0466	0.0986412
10	0x3da0ae85	0.07845787
11	0x3e1c12b8	0.15241516
12	0xbe30e7ac	-0.17275876
13	0x3d968390	0.07349312
14	0xbc881735	-0.016612628
15	0xbe0893e3	-0.13337664
16	0x3d28eae4	0.041239634
17	0x3e2aeb99	0.16691436
18	0x3d493e6c	0.049131796
19	0x3dddba85	0.108265914
20	0x3dc7c249	0.09753854
21	0xbdebe247	-0.11517768
22	0xbe308c4d	-0.1724102
23	0xbe273023	-0.16326956
24	0x3e19079b	0.14944308
25	0xbe05de3d	-0.13073058
26	0xbd69fe9a	-0.057127573
27	0x3e162184	0.14661223
28	0x3e1ea671	0.1549318
29	0xbe00e7ee	-0.12588474
30	0x3d993548	0.07480866
31	0xbba81567	-0.0051295045

egnn.layers.0.coord_mlp.0.weight f4 [32, 32]
0	0xbd188dd7	-0.037244644
1	0xbb66d5a2	-0.003522255
2	0x3c370c3f	0.011172353
3	0xbe2e506a	-0.17022863
4	0xbdf63bbc	-0.12023112
5	0x3da9c027	0.08288603
6	0x3dd64767	0.10462838
7	0x3d68092d	0.056649376
8	0xbddd1cae	-0.10796486
9	0xbc9391a3	-0.018013781
10	0x3dea2c8b	0.11434277
11	0xbde33547	-0.11094146
12	0x3e003a09	0.12522139
13	0x3d86880c	0.06568918
14	0xbddaea9c	-0.106892794
15	0xbe27940c	-0.16365069
16	0x3d9aa24f	0.07550489
17	0x3d3911db	0.045183044
18	0xbdc6603b	-0.09686323
19	0xbe0ab873	-0.13546924
20	0x3d1da854	0.03849061
21	0x3d98320e	0.07431422
22	0xbd89de98	-0.067319095
23	0x3e16e78e	0.14736769
24	0x3dfcbc15	0.12340561
25	0x3dde64bd	0.10859058
26	0x3e1353d6	0.1438745
27	0xbde66a3e	-0.11250733
28	0x3e12b426	0.14326534
29	0xbe1ccc66	-0.15312347
30	0xbd367c15	-0.044551928
31	0xbe0455cc	-0.12923354
32	0xbd2bf25d	-0.041979183
33	0xbe1ebcf7	-0.15501772
34	0xbe185306	-0.14875421
35	0xbdea284e	-0.11433469
36	0x3ceb161b	0.028697064
37	0xbde5fc89	-0.11229808
38	0x3c5c71d6	0.013454875
39	0x3d0be351	0.034152333
40	0xbe1abd3f	-0.15111254
41	0x3e0ced47	0.13762389
42	0xbd3c1295	-0.04591616
43	0x3df323e1	0.11872078
44	0xbba7eb32	-0.005124473
45	0x3de1bf6e	0.110228404
46	0x3c5e16c9	0.013555237
47	0xbde3e3cc	-0.11127433
48	0xbe26a557	-0.1627401
49	0xbe036c98	-0.12834394
50	0xbdd2165a	-0.102581695
51	0xbdf81313	-0.12113013
52	0x3e30b98a	0.17258278
53	0xbdfca0c7	-0.12335353
54	0x3c77baf8	0.01512026
55	0xbdf381b3	-0.118899725
56	0x3e05176e	0.12997219
57	0xbc2d992f	-0.010595604
58	0xbda45f45	-0.08025984
59	0x3c9ec74b	0.01938214
60	0xbdbdd852	-0.092697755
61	0x3db075ed	0.086162426
62	0xbbe9f605	-0.0071399235
63	0xbdfa88bb	-0.122331105
64	0xbd321122	-0.04347337
65	0xbb8d556c	-0.0043131616
66	0xbc3f5fdf	-0.011680572
67	0xbd96e177	-0.07367223
68	0x3d0dcbe9	0.034618292
69	0x3e35aec6	0.17742452
70	0xbdcd782c	-0.100326866
71	0xbd90cf77	-0.07070821
72	0x3bee271f	0.007267847
73	0x3df57638	0.11985439
74	0xbda56b8f	-0.08077156
75	0xbe0b281a	-0.13589516
76	0x3e2babf8	0.1676482
77	0x3d85dedb	0.06536647
78	0x3d98c3ea	0.07459243
79	0xbd348cbf	-0.04407954
80	0x3e18302a	0.14862123
81	0x3a96bfe0	0.0011501275
82	0x3d6ae281	0.057344917
83	0x3e250cef	0.16118215
84	0xbded44de	-0.11585401
85	0xbdf6eda4	-0.12057045
86	0x3dedac18	0.1160509
87	0x3dcf4b9f	0.101218455
88	0xbaaf9c82	-0.0013398083
89	0xbd9e08d8	-0.077165306
90	0x3e1df818	0.15426672
91	0xbe1374e4	-0.14400059
92	0xbcceaff9	-0.025230395
93	0xbe1a8cdd	-0.15092798
94	0x3e074a74	0.13211995
95	0x3d08ecfa	0.033429123
96	0xbd576c27	-0.052593376
97	0xbdf843f9	-0.1212234
98	0xbd128b9e	-0.03577768
99	0xbe13992d	-0.144139
100	0x3e213ee3	0.15746646
101	0xbdbc92cf	-0.09207689
102	0xbbc1acd6	-0.005910496
103	0x3cc9d127	0.024635864
104	0x3dd821b8	0.10553306
105	0xbca6e1ec	-0.0203714
106	0x3cf7be20	0.030242026
107	0xbc566be3	-0.013087246
108	0x3bbb9882	0.0057249675
109	0x3dc7adf4	0.09749976
110	0x3dedf082	0.11618139
111	0xbc679854	-0.014135439
112	0x3d476db5	0.04868861
113	0xbd2a0c4d	-0.041515637
114	0x3d91a0a7	0.0711072
115	0x3bfb03f6	0.0076603843
116	0xbc279f9f	-0.010230928
117	0x3be66b8b	0.007031863
118	0x3e0e37ee	0.13888523
119	0x3df38130	0.11889875
120	0xbd0f0246	-0.034914277
121	0x3df8415c	0.12121841
122	0x3be2c648	0.0069206096
123	0xbd8c63dc	-0.06854984
124	0xbdaf7901	-0.085680015
125	0x3dd04bee	0.101707324
126	0xbd83532f	-0.064123504
127	0xbc9aea01	-0.01891041
128	0xbda60238	-0.08105892
129	0xbde1e760	-0.110304594
130	0x3e006135	0.12537082
131	0x3e14c35b	0.14527647
132	0xbe1e9df3	-0.1548994
133	0x3c11617a	0.008873338
134	0x3e0c5ee3	0.13708071
135	0x3e01b744	0.12667567
136	0x3d4f4fdf	0.05061328
137	0x3d675d5f	0.05648553
138	0xbd23f033	-0.040023994
139	0x3cea3969	0.028591828
140	0x3dce8615	0.10084168
141	0xbdbd9016	-0.09255998
142	0xbc2b9526	-0.0104725715
143	0x3e35b2d2	0.17743996
144	0x3df20c29	0.118187256
145	0x3daea664	0.0852783
146	0x3cfd2875	0.03090308
147	0x3e13a097	0.14416729
148	0xbcef1842	-0.029186372
149	0xbd2d2c55	-0.042278606
150	0xbd9ba08d	-0.07598982
151	0x3db89eb5	0.09014646
152	0xbe0bddc5	-0.13658817
153	0x3cf47f83	0.029845959
154	0x3d01ebf0	0.03171915
155	0xbdd58644	-0.10426
156	0x3db38108	0.08764845
157	0xbc3b7293	-0.011440891
158	0x3d9abd87	0.07555681
159	0xbd8f321d	-0.0699198
160	0x3d27fbd8	0.04101166
161	0x3e0ab241	0.13544561
162	0x3c995cc4	0.018720992
163	0xbddff91d	-0.109361865
164	0xbd2c9694	-0.04213579
165	0xbd44c991	-0.04804379
166	0xbb9bb596	-0.0047518713
167	0xbd68b4c6	-0.056813024
168	0x3d0ae39f	0.033908483
169	0xbd8e68cf	-0.069535844
170	0x3cd02463	0.025407976
171	0xbe18a4a6	-0.14906558
172	0xbd2333de	-0.039844386
173	0x3da6a395	0.081366695
174	0x3dca2cd9	0.09871835
175	0xbe016608	-0.12636578
176	0xbddc88c0	-0.107682705
177	0x3c7ea418	0.015542053
178	0x3cd0eee7	0.025504543
179	0xbd3b4295	-0.045717794
180	0x3de55be8	0.1119917
181	0xbdb850e2	-0.08999802
182	0xbdd862b8	-0.10565704
183	0x3e0fa740	0.14028645
184	0xbdbc8493	-0.09204974
185	0xbd13d892	-0.03609521
186	0xbe0b0824	-0.13577324
187	0x3dab691b	0.08369657
188	0xbd3ee9bf	-0.046609636
189	0x3db8bbce	0.09020196
190	0x3dad2e67	0.08456116
191	0xbe147826	-0.14498958
192	0xbdfa276b	-0.1221455
193	0x3e24d0d2	0.16095284
194	0xbe21a14e	-0.15784189
195	0xbdf7a0cf	-0.12091219
196	0xbe16d35e	-0.14729068
197	0x3e097530	0.1342361
198	0xbc82986b	-0.01594182
199	0xbe2019bb	-0.15634815
200	0xbe06ceb4	-0.13164788
201	0x3e15ae6f	0.14617322
202	0xbdab8f1a	-0.08376904
203	0x3e04b749	0.12960543
204	0x3e231c72	0.1592882
205	0x3d5efd6b	0.054440897
206	0xbdac2102	-0.08404733
207	0x3e345b3a	0.17612925
208	0x3e27ca57	0.1638578
209	0x3e0c6ae1	0.13712646
210	0xbd6f1054	-0.05836518
211	0x3e04d122	0.12970403
212	0xbdd0a5c7	-0.101878695
213	0x3db271a7	0.08713084
214	0x3b2cd14e	0.0026369873
215	0x3e17660d	0.14785023
216	0x3d1d10c2	0.03834606
217	0x3da2a5fb	0.079418145
218	0xbdf37800	-0.118881226
219	0x3dfd6ffa	0.123748735
220	0xbc0a1b06	-0.008429294
221	0xbc626b7e	-0.013819573
222	0x3cd53220	0.026024878
223	0xbd65b438	-0.056080073
224	0xbe272143	-0.16321282
225	0xbe266001	-0.1624756
226	0x3d4c3bcb	0.04986171
227	0xbd95d21a	-0.07315464
228	0xbdfa6399	-0.12226028
229	0x3e0f7389	0.14008917
230	0x3e36fe0b	0.17870347
231	0xbe34a8ef	-0.17642568
232	0xbdee985d	-0.11650155
233	0xbde1c71a	-0.11024304
234	0x3d7e8406	0.062137626
235	0x3db54f19	0.08852977
236	0xbdbbf571	-0.091776736
237	0xbdd359ae	-0.103198394
238	0x3de9b8e7	0.114122204
239	0xbdd81c68	-0.10552293
240	0xbdad6e71	-0.08468331
241	0x3e2eb80f	0.170624
242	0x3a48c582	0.00076588255
243	0xbd94c8a9	-0.072648354
244	0x3dc36641	0.09540988
245	0xbe2199b2	-0.15781286
246	0x3e2cf1e0	0.16889143
247	0xbdc54c58	-0.09633702
248	0x3cbcd11f	0.023048935
249	0xbdd6f9ae	-0.10496841
250	0x3e000d98	0.12505186
251	0x3c979ca6	0.018507313
252	0xbe1f38f4	-0.1554907
253	0xbdd7d57e	-0.10538767
254	0x3de19871	0.11015404
255	0xbd76d826	-0.06026473

egnn.layers.0.coord_mlp.0.bias f4 [32]
0	0xbd37891d	-0.044808496
1	0xbda60659	-0.081066795
2	0xbe275919	-0.16342582
3	0x3e0860d4	0.13318187
4	0xbde60b22	-0.11232592
5	0x3e0f3b88	0.13987553
6	0x3ca0322f	0.01955518
7	0xbd9ce34d	-0.07660542
8	0xbdd3baa9	-0.10338337
9	0xbe0be4a6	-0.13661441
10	0x3e26f2e5	0.16303594
11	0xbd5ecaad	-0.054392505
12	0x3cdd9edc	0.02705329
13	0xbd040709	-0.03223327
14	0x3e2ef8e0	0.17087126
15	0x3e30fd55	0.17284139
16	0x3ce5df1c	0.028060488
17	0xbdc660e0	-0.09686446
18	0x3d451d22	0.048123486
19	0xbe2b24f9	-0.16713323
20	0xbe25db45	-0.16196926
21	0x3c6aa780	0.014322162
22	0x3bb88ed0	0.005632259
23	0x3dfc53ed	0.12320695
24	0xbda463fe	-0.080268845
25	0x3cf995ed	0.030466998
26	0x3dc14e56	0.094387695
27	0xbe29573b	-0.16537182
28	0x3d81b914	0.06334129
29	0xbdf5121c	-0.11966345
30	0x3daf1752	0.0854937
31	0x3dd3771c	0.10325453

egnn.layers.0.coord_mlp.2.weight f4 [1, 32]
0	0xbba4ae6d	-0.005025676
1	0xbb74cee5	-0.0037354764
2	0xbc014869	-0.007890799
3	0xbb04b08d	-0.0020246834
4	0xbc04abb2	-0.008097576
5	0x3c121be1	0.00891778
6	0xbc548175	-0.012970318
7	0xbc24a5ac	-0.010049265
8	0xbc222dd4	-0.009898622
9	0xbc4e997c	-0.012609836
10	0x3bedb54d	0.0072542788
11	0x3bd9266f	0.006626896
12	0x3c431bb8	0.011908464
13	0x3bab2ea6	0.005224067
14	0x3b8189a4	0.0039531756
15	0x3c0348e6	0.008012986
16	0xbc3c8c89	-0.011508116
17	0xbc7fac76	-0.015605083
18	0x3bffe9d4	0.007809857
19	0xbbeda5db	-0.0072524375
20	0xbc7c51ec	-0.015400391
21	0x3c3a8cd1	0.011386112
22	0x3c54f975	0.012998928
23	0x3c345cca	0.011008451
24	0x3c1b32fb	0.009472604
25	0x3c71d000	0.014759064
26	0x3b2a7c54	0.0026014047
27	0xbc02b054	-0.00797661
28	0xbc82bd90	-0.015959531
29	0xbc16159b	-0.009160425
30	0x3b8a9bb8	0.004229989
31	0x3b87466c	0.004128268

egnn.layers.0.hidden_mlp.0.weight f4 [32, 48]
0	0x3d497d6c	0.049191877
1	0x3d0d04d1	0.03442842
2	0xbddb7f07	-0.10717588
3	0xbd1e42ee	-0.038638048
4	0x3e0309e1	0.12796737
5	0x3cae041c	0.021242194
6	0xbe015313	-0.12629347
7	0xbd996532	-0.074900046
8	0xbd921b77	-0.07134145
9	0x3cb486db	0.02203696
10	0xbdf852d1	-0.12125171
11	0x3df2c161	0.1185329
12	0x3dc1b6c7	0.0945869
13	0x3ca45967	0.020062162
14	0xbdfc1ef7	-0.123105936
15	0x3bf8b6e0	0.00759016
16	0xbb300fdb	-0.002686492
17	0xbd900920	-0.070329905
18	0xbdf130cd	-0.11776886
19	0xbe1bdbf0	-0.15220618
20	0x3d6b5e1c	0.057462797
21	0x3c7d6865	0.015466784
22	0x3d30b78c	0.043143794
23	0x3df75a8b	0.120778166
24	0xbd568662	-0.05237425
25	0xbde814c6	-0.11332087
26	0xbe021a34	-0.12705308
27	0xbe097215	-0.13422425
28	0x3d94956c	0.072550625
29	0xbd9364ba	-0.071969464
30	0x3dbd67c5	0.09248308
31	0xbd89f749	-0.06736619
32	0x3b8b94d3	0.0042596846
33	0x3d8344cc	0.06409606
34	0x3d6044d7	0.05475315
35	0x3e0b0f18	0.13579977
36	0x3c090639	0.0083633
37	0xbd71163c	-0.058859095
38	0x3c8d1ef7	0.01722668
39	0xbd48efc3	-0.04905678
40	0x3de11bb0	0.10991609
41	0xbd260d06	-0.040539764
42	0xbdbe3a79	-0.092884965
43	0xbd3497e2	-0.04409016
44	0xbd8cac6c	-0.06868824
45	0x3dfcb3de	0.123389944
46	0xbd8a7c1f	-0.067619555
47	0xbd3d733d	-0.046252478
48	0xbd8b6234	-0.0680584
49	0x3e0e7d30	0.13914943
50	0xbde3973a	-0.111128286
51	0x3de058af	0.10954415
52	0xbd624f04	-0.055251136
53	0x3db814e2	0.08988358
54	0x3d5958bf	0.05306315
55	0xbdbe50bd	-0.09292743
56	0xbe0825b9	-0.1329564
57	0x3d9f23a6	0.07770471
58	0xbdae6629	-0.08515579
59	0xbdc9acef	-0.098474376
60	0xbd9f7532	-0.07786025
61	0xbcea2f60	-0.028587043
62	0xbd78ee2d	-0.060774017
63	0x3dba0ef0	0.0908488
64	0x3c200858	0.009767614
65	0xbda8302a	-0.082123116
66	0xbdd84b95	-0.10561291
67	0x3d62f9cd	0.05541401
68	0xbd10be42	-0.035337694
69	0xbd58dea0	-0.052946687
70	0x3e17bc91	0.14818026
71	0xbde0a29f	-0.109685175
72	0x3d9988fe	0.07496832
73	0xbd707344	-0.058703676
74	0x3bd1f403	0.0064072623
75	0x3d4471ae	0.047959976
76	0xbd13d610	-0.036092818
77	0x3cc48441	0.023988845
78	0xbd843dde	-0.06457113
79	0xbd24e0a2	-0.04025329
80	0xbbdcd1d4	-0.0067388806
81	0x3dcae1e9	0.0990637
82	0x3cd1e954	0.025623955
83	0xbd3e992f	-0.046532806
84	0xbd4c5ec8	-0.049895078
85	0xbc25379f	-0.010084062
86	0xbd77865c	-0.06043087
87	0xbcf8a872	-0.030353758
88	0x3dbc2aa1	0.09187818
89	0x3d841ca2	0.06450774
90	0x3db37524	0.08762577
91	0xbdc66fb3	-0.09689274
92	0x3dbca528	0.092111886
93	0x3c93e657	0.01805417
94	0x3de76b4e	0.112997636
95	0x3a8e5e0a	0.0010861766
96	0xbde9d64f	-0.11417829
97	0x3d76eb82	0.06028319
98	0x3cb337c5	0.021877179
99	0x3dbaf6f8	0.09129137
100	0xbd574cb8	-0.0525634
101	0xbd903712	-0.07041754
102	0xbdfb457f	-0.12269115
103	0x3dd0431d	0.10169051
104	0xbde1db8f	-0.110282056
105	0xbd32eb07	-0.04368117
106	0x3e099cba	0.13438693
107	0xbdc87ace	-0.09789048
108	0x3dcab960	0.09898639
109	0x3d1b70c8	0.037949353
110	0xbdf923ce	-0.12165032
111	0x3dbe9b2a	0.09306939
112	0xbd9d084d	-0.07667599
113	0x3d883246	0.06650214
114	0xbdcd0ac6	-0.100118205
115	0xbe09b953	-0.13449602
116	0xbd6e2495	-0.058140356
117	0xbd89a2bb	-0.067204915
118	0x3de0a41b	0.10968801
119	0xbcd46863	-0.025928682
120	0x3e10895b	0.14114897
121	0x3b872884	0.004124703
122	0x3d547bac	0.051875755
123	0x3def5fe2	0.1168821
124	0x3d9e4d19	0.07729549
125	0x3d401698	0.046896547
126	0x3d2aa3de	0.041660182
127	0x3c22dabf	0.009939848
128	0x3c844eed	0.016150916
129	0x3e09b08b	0.13446252
130	0xbdad3f18	-0.084593
131	0x3dbc6be5	0.09200267
132	0x3d6c4f70	0.057692945
133	0xbd7ce2be	-0.061739676
134	0xbdb9eefe	-0.09078787
135	0xbd7b1463	-0.06129874
136	0x3de1a2d6	0.110173866
137	0xbe084f07	-0.13311397
138	0x3d003ff3	0.031310987
139	0x3e0138a6	0.12619266
140	0xbde29c9e	-0.110650286
141	0xbe166aeb	-0.14689223
142	0xbe0a0295	-0.13477547
143	0xbda8088d	-0.08204756
144	0x3db56f14	0.08859077
145	0x3dc869de	0.097858176
146	0xbd5616ca	-0.052267827
147	0xbde44693	-0.111462735
148	0x3d80eaab	0.06294759
149	0xbda5f82b	-0.08103975
150	0x3e024695	0.12722237
151	0xb933c557	-0.00017144285
152	0x3d88f422	0.0668719
153	0x3c5e0a84	0.013552312
154	0xbdd36415	-0.103218235
155	0xbdc557ff	-0.096359245
156	0x3d81d5c5	0.063396014
157	0xbda527e1	-0.08064247
158	0xbdbf786a	-0.09349139
159	0x3d8c1304	0.068395644
160	0x3e0aeee8	0.13567698
161	0xbd9dd23f	-0.07706117
162	0x3da82889	0.082108565
163	0xbcb5504e	-0.022133019
164	0xbd8bd237	-0.06827205
165	0x3e0802f1	0.13282372
166	0x3daf7285	0.08566765
167	0x3d28d26e	0.041216306
168	0xbdaa2811	-0.08308423
169	0xbd9a6583	-0.07538893
170	0x3db8603c	0.0900273
171	0x3c45b7a7	0.012067712
172	0xbe0e0f97	-0.13873135
173	0xbd47a774	-0.04874368
174	0x3c64b2e3	0.013958666
175	0x3d46ccde	0.04853522
176	0xbd851d22	-0.06499697
177	0x3dce46d4	0.10072103
178	0xbdf4f731	-0.119612105
179	0x3dc6e75c	0.09712097
180	0xbda7f15f	-0.08200335
181	0xbdf9b7c2	-0.12193252
182	0x3dd5c20b	0.104374014
183	0xbce10c82	-0.027471785
184	0x3ddfef5e	0.109343275
185	0xbe0f208c	-0.1397726
186	0x3d5d1966	0.0539793
187	0x3d8a5702	0.06754877
188	0x3d981a85	0.07426933
189	0xbd6b8fee	-0.05751031
190	0x3b93d06f	0.004510931
191	0xbc8d430b	-0.017243883
192	0xbdda07bd	-0.10646007
193	0xbd7f3bcc	-0.062312886
194	0xbdd541eb	-0.104129635
195	0x3d9e1730	0.077192664
196	0x3cf81821	0.030284943
197	0x3d4ba1a8	0.049714714
198	0xbe10b934	-0.1413315
199	0x3d77de08	0.06051448
200	0xbd96cbe1	-0.073631056
201	0xbdd19540	-0.10233545
202	0xbddebecc	-0.10876235
203	0x3dff15bb	0.12455317
204	0xbdae06f0	-0.08497417
205	0x3dc746df	0.097303145
206	0xbdaaec9d	-0.08345912
207	0x3d77e3d7	0.06052002
208	0x3d1fc7b7	0.039008822
209	0xbdebf4ec	-0.115213245
210	0xbdba534c	-0.09097919
211	0x3b8fca0c	0.0043880995
212	0xbce1657c	-0.027514212
213	0x3deb2a77	0.11482709
214	0xbe01c79b	-0.126738
215	0x3d392a88	0.045206577
216	0xbc88f9ca	-0.016720671
217	0xbda7ed41	-0.081995495
218	0xbdfb4056	-0.122681305
219	0xbc18d335	-0.009327699
220	0x3cbd40ea	0.023102242
221	0xbd980c5f	-0.074242346
222	0x3de9f739	0.11424107
223	0x3de9cee6	0.11416416
224	0xbe01fda6	-0.12694415
225	0xbdb642d0	-0.08899462
226	0x3d6989a5	0.057016034
227	0x3dc2c9eb	0.09511169
228	0xbdb6a9a9	-0.08919079
229	0x3dbeb596	0.093119785
230	0xbde7ff8f	-0.11328041
231	0xbd922ded	-0.07137666
232	0x3d089744	0.033347383
233	0x3d83e170	0.06439483
234	0x3c92eb9b	0.017934611
235	0xbc82788f	-0.015926627
236	0x3d610517	0.054936495
237	0xbdcc2271	-0.09967507
238	0x3d5c5a7b	0.053797226
239	0x3e1019c2	0.14072326
240	0xbcc862e2	-0.024461213
241	0xbbc6d91f	-0.0060683633
242	0x3dc73ce3	0.0972841
243	0x3c832fac	0.016013943
244	0xbcf56f6c	-0.029960357
245	0x3df82a1b	0.12117406
246	0xbda028e4	-0.07820299
247	0x3db76b0b	0.08955964
248	0x3daa6856	0.08320682
249	0xbde376d1	-0.11106647
250	0xbd036f9c	-0.03208886
251	0x3d4bcac1	0.049753908
252	0x3c62348b	0.0138064725
253	0x3ca3de85	0.020003567
254	0x3decb93f	0.115587704
255	0x3dd09ca9	0.101861306

egnn.layers.0.hidden_mlp.0.bias f4 [32]
0	0x3d7fb7a1	0.06243098
1	0xbb88c670	-0.004174046
2	0x3d0201ac	0.031739876
3	0xbdc351c5	-0.09537081
4	0x3d3ba905	0.045815486
5	0xbb879598	-0.004137706
6	0xbd8d7dac	-0.06908736
7	0xbddcad6c	-0.10775265
8	0x3d4905b2	0.049077697
9	0xbda96db0	-0.08272874
10	0x3cce1528	0.025156572
11	0xbe103ff7	-0.140869
12	0x3d855792	0.06510843
13	0x3d6f97bf	0.058494326
14	0xba3ff063	-0.0007321892
15	0xbbeecad8	-0.0072873645
16	0x3e09eda1	0.13469554
17	0x3d3861e9	0.04501525
18	0xbdc1fc3f	-0.0947194
19	0xbd73e621	-0.05954564
20	0xbd6ee9ed	-0.058328558
21	0xbdb44429	-0.08802063
22	0xbdcd7f9f	-0.100341074
23	0xbb973a64	-0.004615115
24	0xbdaf915e	-0.085726485
25	0xbc1752ef	-0.0092360815
26	0x3d168627	0.03674903
27	0xbd9486b0	-0.07252252
28	0xbd6ecf05	-0.058302898
29	0xbe0f3500	-0.13985062
30	0x3d28d23b	0.041216116
31	0x3d032853	0.032020878

egnn.layers.0.hidden_mlp.2.weight f4 [16, 32]
0	0xbe0a25c0	-0.13490963
1	0xbdd8cf34	-0.10586396
2	0xbcf45e0f	-0.029830007
3	0x3ae418a2	0.0017402361
4	0x3c1ac760	0.009446949
5	0x3e1ecef3	0.15508632
6	0xbe23fa50	-0.16013455
7	0x3d94b781	0.07261563
8	0x3e0ca582	0.13735011
9	0x3e230b0b	0.15922181
10	0x3cee919c	0.029122166
11	0x3e20bab7	0.15696226
12	0xbdbee190	-0.093203664
13	0xbe00f948	-0.12595093
14	0xbd289f4b	-0.04116754
15	0xbdba3dfa	-0.09093852
16	0x3da9d8bd	0.08293293
17	0xbd418339	-0.047244284
18	0x3db3a321	0.08771349
19	0xbd7d7ad6	-0.061884724
20	0xbda1464a	-0.07874735
21	0xbd5ee255	-0.054415066
22	0xbc9518bb	-0.018200269
23	0xbdaab8c5	-0.08336023
24	0x3dcfbf53	0.10143914
25	0x3dea1411	0.114296086
26	0x3d05428c	0.032534167
27	0xbe2da4f4	-0.16957456
28	0x3e103c56	0.14085516
29	0xbe02865a	-0.12746564
30	0xbdfa250f	-0.122140996
31	0x3db92a5e	0.09041284
32	0xbdd57698	-0.104230106
33	0xbe0d18ac	-0.13778943
34	0xbe075c91	-0.13218905
35	0x3e19599e	0.14975592
36	0x3d4cccd4	0.050000027
37	0x3daea235	0.08527032
38	0x3d15649f	0.036472913
39	0x3da898db	0.0823228
40	0x3e343e75	0.1760195
41	0xbcd69e94	-0.026198663
42	0xbde5e637	-0.112255506
43	0xbd12ee00	-0.035871506
44	0xbd8830bf	-0.066499226
45	0xbe2b92a0	-0.16755152
46	0xbe06a6c6	-0.13149557
47	0xbd8074a7	-0.0627225
48	0x3d10deb6	0.035368644
49	0x3db53de8	0.08849698
50	0x3dea86a8	0.11451465
51	0xbe33a5d1	-0.17543723
52	0xbc6d6d82	-0.014491441
53	0xbd108cbb	-0.03529046
54	0x3e1831a4	0.14862686
55	0xbd42d414	-0.047565535
56	0x3e3a7687	0.18209277
57	0x3d27bbbf	0.040950533
58	0x3cbe3119	0.023216771
59	0x3d9bda33	0.076099776
60	0x3e06dfac	0.13171262
61	0xbdc3c47c	-0.09558961
62	0x3d9b1a1e	0.07573341
63	0xbd8de432	-0.069282904
64	0x3d3dd7af	0.04634827
65	0x3dd9029b	0.105962
66	0xbda3eccc	-0.0800415
67	0xbd4594b2	-0.04823751
68	0x3e27377e	0.16329762
69	0xbe29b500	-0.16572952
70	0xbcee1ba1	-0.029065909
71	0x3e14faa1	0.14548732
72	0x3d1dc5c8	0.038518697
73	0xbe15584c	-0.14584464
74	0x3c0fad40	0.008769333
75	0xbe13fdd5	-0.14452298
76	0xbd86608b	-0.06561383
77	0x3d11011b	0.035401445
78	0x3dc3f373	0.09567919
79	0xbdc80ae6	-0.09767704
80	0x3e1d7d0a	0.1537973
81	0xbdfe75e7	-0.12424832
82	0xbd106aed	-0.035258222
83	0xbe1bb889	-0.15207113
84	0xbbb036e8	-0.005377639
85	0xbbcf11bc	-0.006319253
86	0x3d9aba30	0.07555044
87	0xbdf3dfd1	-0.11907924
88	0x3c04fe3f	0.008117258
89	0x3d6999eb	0.057031553
90	0xbde30440	-0.11084795
91	0x3e1f535a	0.1555914
92	0xbd0f94ab	-0.03505389
93	0xbe3823e6	-0.17982444
94	0xbd03752e	-0.032094173
95	0x3d2cb9a2	0.04216922
96	0xbdb51f0d	-0.08843813
97	0xbd88b654	-0.06675401
98	0x3d9c70b3	0.07638683
99	0xbd097d4b	-0.033566754
100	0x3d8263c7	0.06366687
101	0x3c4683db	0.012116398
102	0xbb8c203a	-0.0042763026
103	0x3e15d043	0.14630227
104	0xbce2b0c6	-0.027672183
105	0x3e10ccba	0.14140597
106	0xbd819e2b	-0.06328996
107	0x3de7fa32	0.11327018
108	0x3dbe4c9c	0.09291956
109	0xbdeaa179	-0.1145658
110	0xbd32b043	-0.043625128
111	0xbdf067bd	-0.117385365
112	0x3d0c291e	0.0342189
113	0x3bf060c1	0.0073357527
114	0xbd698dc5	-0.057019968
115	0x3e1ae913	0.15127973
116	0x3e2d12e4	0.16901737
117	0xbe019bef	-0.1265714
118	0xbdc361e5	-0.09540156
119	0x3c933e79	0.017974125
120	0x3de5eee2	0.11227204
121	0xbdd85932	-0.10563888
122	0xbc85c736	-0.016330343
123	0xbcfb077c	-0.030643217
124	0xbe13697a	-0.14395705
125	0xbc24cbb4	-0.010058332
126	0xbbee31ca	-0.007269119
127	0x3d37fce0	0.044918895
128	0x3e00efa8	0.12591422
129	0xbc08cc79	-0.008349531
130	0x3e0352e9	0.12824596
131	0xbd8051da	-0.06265612
132	0xbded3ef9	-0.11584277
133	0x3d8cbc3d	0.06871841
134	0x3df8db2c	0.12151179
135	0xbbdd6897	-0.006756853
136	0xbdf5f696	-0.12009923
137	0xbdaed779	-0.08537192
138	0xbdc66faf	-0.09689271
139	0x3d2c02f4	0.041995004
140	0x3d40a7d1	0.047035042
141	0xbe232efb	-0.1593589
142	0xbcfb79df	-0.030697761
143	0x3d25148c	0.0403028
144	0xbd96b7ca	-0.07359274
145	0x3e31a469	0.17347874
146	0x3e12dd99	0.14342345
147	0xbdb031de	-0.086032614
148	0x3c86d01a	0.016456652
149	0xbd05cdc1	-0.032666925
150	0xbe1b8fd0	-0.15191579
151	0x3c6028c1	0.0136815915
152	0x3e032160	0.128057
153	0x3dd466b0	0.103711486
154	0x3db58fd7	0.08865326
155	0xbd6dcaca	-0.058054723
156	0xbdcde2f6	-0.10053055
157	0xbe184ea0	-0.14873743
158	0xbe2201d0	-0.15821004
159	0x3bf8f903	0.007598044
160	0x3e07195c	0.13193268
161	0x3d3de624	0.046362057
162	0xbd182dc0	-0.037153006
163	0x3c885dbc	0.016646259
164	0x3d2695b0	0.040670097
165	0xbd98dc99	-0.07463951
166	0x3de25d4b	0.110529505
167	0x3d94850b	0.072519384
168	0xbd43b15c	-0.047776565
169	0xbc9c252f	-0.0190607
170	0xbe22a0e5	-0.15881689
171	0x3da7a47b	0.08185669
172	0x3cf4d897	0.029888434
173	0x3e011c58	0.12608469
174	0x3d6d2462	0.057896025
175	0xbe155312	-0.1458247
176	0xbd45504a	-0.048172273
177	0x3dce04f1	0.10059536
178	0x3e1bb8ad	0.15207167
179	0x3d540859	0.051765773
180	0x3e158135	0.1460007
181	0x3e334e8d	0.17510433
182	0xbd653f09	-0.055968318
183	0x3d04e57c	0.032445416
184	0x3e238c81	0.15971567
185	0xbc96111c	-0.018318705
186	0xbdc757eb	-0.09733566
187	0xbdff4fbb	-0.12466379
188	0xbd930b6f	-0.07179915
189	0xbe3ac1f9	-0.18238057
190	0xbda70863	-0.081558965
191	0x3db6844a	0.08911951
192	0x3e146651	0.14492156
193	0x3cfdd058	0.030983135
194	0xbd9c18e3	-0.07621934
195	0xbde06f5e	-0.109587416
196	0xbe10ffd9	-0.14160098
197	0x3cfbd9c9	0.030743496
198	0x3e213549	0.15742983
199	0xbdf60a40	-0.12013674
200	0x3e36c11d	0.17847104
201	0xbda9a9d8	-0.08284348
202	0xbdf614e9	-0.12015707
203	0x3dc342d3	0.0953423
204	0xbdde19b5	-0.10844747
205	0x3e1ecbb1	0.1550739
206	0xbe24cb4a	-0.16093174
207	0x3ddee276	0.10883038
208	0x3e20206e	0.15637371
209	0xbd58f873	-0.052971315
210	0xbdc8d927	-0.098070435
211	0xbd7747cb	-0.0603712
212	0x3e1af873	0.15133838
213	0xbe050643	-0.1299067
214	0x3e1f0dac	0.15532559
215	0x3e2a87ea	0.1665341
216	0xbd901c13	-0.07036605
217	0x3e12988c	0.14316005
218	0x3b237132	0.0024939296
219	0x3d1b317c	0.03788899
220	0xba789602	-0.0009482802
221	0x3d29bd41	0.041440252
222	0x3e2155e3	0.1575542
223	0x3d177a66	0.036981963
224	0x3c9001b4	0.017578937
225	0xbdd00977	-0.10158055
226	0x3df8a2dc	0.12140438
227	0xbd79d543	-0.060994398
228	0xbe111022	-0.1416631
229	0xbe2bbcf2	-0.16771296
230	0x3e27fe1c	0.16405529
231	0x3d8bf554	0.06833902
232	0xbd950ed8	-0.07278222
233	0xbde28e61	-0.11062313
234	0x3b1274e6	0.002234751
235	0xbcff0e32	-0.031134699
236	0xba6564ee	-0.00087506964
237	0x3e0c597d	0.13706012
238	0xbdb6a191	-0.08917535
239	0x3cf8748c	0.030329011
240	0x3dc16922	0.094438806
241	0x3e0bcbd2	0.1365197
242	0x3d097bf6	0.033565484
243	0xbde742e0	-0.11292052
244	0xbd2394b4	-0.039936736
245	0xbcca6e12	-0.024710689
246	0xbd44f24c	-0.048082635
247	0xbe298e37	-0.16558157
248	0xbbb86cbb	-0.005628196
249	0x3e1f5f49	0.15563692
250	0xbda77560	-0.081766844
251	0xbd91528a	-0.07095821
252	0xbdf1cb81	-0.118063934
253	0x3d25f92c	0.040520832
254	0xbddc1ef4	-0.10748091
255	0x3caa6566	0.020800304

egnn.layers.0.hidden_mlp.2.bias f4 [16]
0	0x3ca71df8	0.020400032
1	0xbe0d3cd7	-0.1379274
2	0x3e129afe	0.14316937
3	0xbb0552d7	-0.0020343566
4	0xbdeb9fd6	-0.11505096
5	0x3da82f77	0.08212178
6	0xbe020381	-0.12696649
7	0xb93b895d	-0.00017884882
8	0xbde2b912	-0.110704556
9	0x3c52d536	0.012868216
10	0x3ca333c7	0.01992215
11	0x3e07f947	0.13278686
12	0xbd7325be	-0.059362166
13	0x3dbef583	0.093241714
14	0x39a7af9c	0.0003198356
15	0x3dcbc3f7	0.09949487
