2-egnca-rework/logs/line4-2024-10-05@23-20-03/best@112.pt (torch, 26116 bytes, 11 tensors)

egnn.layers.0.message_mlp.0.weight f4 [32, 33]
000000 6d 9d 74 3d f3 c1 c5 3d 3b b8 ee bb 1b 09 c9 3d
       0.059720445 0.096561335 -0.0072851456 0.0981619
000010 f1 0e 53 bd d5 63 ee 3c a9 54 32 bd e3 77 57 bc
       -0.05152792 0.029100338 -0.04353777 -0.013151142
000020 15 d2 1e bd a5 c3 ea 3c 98 2c 09 3e f6 14 0e 3e
       -0.03877457 0.028657744 0.13395917 0.13875183
000030 09 e9 eb bc 59 dd 74 bd c4 b1 d3 bc 39 f1 18 3e
       -0.028797643 -0.059781406 -0.025841601 0.14935769
000040 48 68 15 3e bf 7a 44 bd 71 fa 6e bd 06 3b 30 bd
       0.14590561 -0.047968622 -0.05834431 -0.04302504
000050 ba 4c f8 3d 65 8f 10 3e 6a 53 fd bd 26 8f 77 bd
       0.121240094 0.141172 -0.123694256 -0.06043925
000060 0b 14 1e be f7 df 30 3e 9a 81 e8 3c 19 fd 57 3d
       -0.15437333 0.17272936 0.028382111 0.052731607
000070 f8 53 c0 3d ff 6c 29 3d 96 d7 13 bd 02 a7 2c be
       0.09391016 0.041363712 -0.03609427 -0.16860583
000080 c5 5e 38 3d 5a f5 fc bc 80 28 2f be 09 91 be bc
       0.045012254 -0.030878711 -0.17105293 -0.023262518
000090 34 1d c3 bd 39 70 c6 bd 0f d3 01 be 73 78 15 be
       -0.095270544 -0.096893735 -0.12678169 -0.14596729
0000a0 73 9b 42 bc 39 a7 ae 3c 06 a8 1f be 26 96 24 be
       -0.011877882 0.021319972 -0.1559144 -0.16072902
0000b0 d9 8d e2 3a 86 67 26 be 32 c8 ac 3d 2f 56 34 bd
       0.0017284706 -0.16250429 0.08436622 -0.044027504
0000c0 9f 09 cb bc 2f 8a 24 be a5 34 ff bd b7 02 82 3d
       -0.024784861 -0.16068338 -0.12461213 0.06348174
0000d0 96 13 c4 bd 34 cd 8d bd 3b 23 20 be 38 08 18 ba
       -0.09574048 -0.06923905 -0.1563844 -0.00057995645
0000e0 76 18 df bd f1 cc 3d 3d 75 a4 62 3d 95 96 19 3d
       -0.108933374 0.046338025 0.05533262 0.03749712
0000f0 80 99 7d 3d 7f 63 f9 bd 51 af 8b 3c fb 61 1c be
       0.061913967 -0.121771805 0.01705137 -0.15271752
000100 dd b8 f8 bd c6 91 12 3e e2 da fd 3d 39 3e fe bd
       -0.12144635 0.1431342 0.12395264 -0.12414212
000110 05 8e c5 3d 2d a3 10 be 24 ac ce 3c f3 68 21 3e
       0.09646229 -0.14124747 0.025228567 0.15762691
000120 85 97 4c 3c de 83 8b 3d 9a 6e 20 3e a6 a4 87 bd
       0.012487297 0.06812261 0.15667191 -0.06623201
000130 6b 11 04 3e 74 ec d1 3c e5 d6 1e bd 20 ea 1f be
       0.1289727 0.025625445 -0.03877916 -0.15616655
000140 d8 b1 2b 3e 26 10 31 3e de 2a 98 bd f1 20 26 3d
       0.16767061 0.17291316 -0.07430051 0.04055876
000150 12 3b 37 be 39 16 01 3d 09 59 c7 3d 4f 2e 9c 3c
       -0.17893627 0.031515334 0.09733779 0.01906505
000160 a0 65 c4 bd 92 36 23 3e 2b 2b c5 bd 3f e0 b8 3c
       -0.09589696 0.15938786 -0.09627374 0.022567866
000170 2c 96 25 be 46 03 96 3d 0a f4 f3 3d e6 98 0e 3d
       -0.16170567 0.07324843 0.11911781 0.034813784
000180 8c a6 08 3e b8 1c 33 be d1 5c cf bd 20 d0 3d 3d
       0.13344783 -0.17491424 -0.10125125 0.04634106
000190 64 c5 b3 3d ab 7f 2e bd 94 72 4d 3d 76 be 2d be
       0.08777884 -0.042602222 0.0501581 -0.16967186
0001a0 02 52 2e 3e 1b 2f 0c be 3f 30 25 be 31 9c 04 be
       0.17023471 -0.13689844 -0.16131686 -0.12950207
0001b0 33 1e 31 3e 98 dd 33 3d e9 0a 6a bc 9f 73 12 3d
       0.17296676 0.0439125 -0.014284828 0.035754796
0001c0 87 aa 81 ba 5c 8d fa bd 36 22 e2 3d e8 37 14 be
       -0.000989274 -0.122339934 0.110416815 -0.14474452
0001d0 fe 9d 32 bd d0 90 9f 3c bc e7 d8 bd 3b 60 27 3d
       -0.043607704 0.019478232 -0.10591075 0.040863257
0001e0 6c 96 20 be 1c 8e ac bd 44 78 1b 3e 38 5a 52 3d
       -0.15682381 -0.08425543 0.15182596 0.05135557
0001f0 49 19 11 be 74 e0 28 3e 39 2b 42 bd 52 09 02 3d
       -0.14169802 0.16491872 -0.0474045 0.03174717
000200 aa 4f 19 bd 35 7f d0 bd fa 4d 03 3d 3e 1a 18 bd
       -0.03742949 -0.10180513 0.032056786 -0.0371344
000210 58 0d be bd be d4 c3 3d 62 24 ac 3d de 4b e8 3d
       -0.09279889 0.09562062 0.08405377 0.113425955
000220 90 21 dd bc 8e 3e ee bc 85 d6 2a 3c 3c 8a 1c 3e
       -0.026993543 -0.029082563 0.010427122 0.15287107
000230 bc eb 1d be 68 14 27 bc c0 fb 7d 3c c6 05 ab 3d
       -0.15421957 -0.010197736 0.015501916 0.083507106
000240 5e 4c 2f be 18 ee 3f be 25 b8 ea bb be 5c 5e 3d
       -0.17118976 -0.1874317 -0.007163065 0.054287665
000250 8c e2 96 bd 33 25 09 3e 32 83 03 3d 7c b1 77 bd
       -0.07367429 0.13393097 0.03210754 -0.060471997
000260 4f d9 7d bd e6 f1 11 be f4 e9 bd 3d 18 a9 0a bd
       -0.06197482 -0.14252433 0.09273139 -0.033852667
000270 6a 5b b5 3d 92 2b 3c be e2 1c 01 3e 83 ca 62 3d
       0.088553265 -0.18375996 0.12608674 0.05536891
000280 30 c1 e1 bd b6 33 c3 bd 9e 4f fe 3d 9f e1 a3 3d
       -0.11023176 -0.095313475 0.124175295 0.08002018
000290 f8 ec aa 3d 31 77 1a 3d 0c 93 b6 bd 9d 60 e9 bd
       0.083459795 0.037711326 -0.08914766 -0.11395381
0002a0 c6 b2 47 bd c7 a1 4c bd 7b 22 d9 bc 91 88 35 bd
       -0.048754476 -0.04995897 -0.0265057 -0.044319693
0002b0 75 88 10 be 16 02 24 be bf 68 fe bd 7e bb b7 3d
       -0.14114554 -0.1601642 -0.124223225 0.08971308
0002c0 8f 62 e4 bd d2 8c 09 be 26 f3 98 bd d7 bc 60 3d
       -0.11151611 -0.13432625 -0.07468252 0.05486759
0002d0 17 bf 58 bd 41 4d 01 3b 43 67 9b 3c 93 46 fa bd
       -0.052916612 0.0019729885 0.018970137 -0.12220492
0002e0 1a e0 4a bd 49 d1 56 bd 37 57 18 bc 71 55 ea bd
       -0.049530126 -0.052445684 -0.009298137 -0.11442078
0002f0 1d 16 0a bd d6 8e 77 3c 99 1f 60 3d 90 5a e5 bd
       -0.033712495 0.015109738 0.054717634 -0.11198914
000300 46 61 1d 3e 87 ed 37 3d 6b 94 0d be 52 4e 25 3e
       0.15369138 0.044904258 -0.13826148 0.16143158
000310 3e 94 e3 bd 6f 34 4f ba 09 39 08 3e 5c 5b 28 bd
       -0.11112259 -0.00079042366 0.13303007 -0.041102752
000320 5e 09 35 3d 08 14 a8 3d 44 6b 72 bd 35 f4 9b 3c
       0.044198386 0.08206946 -0.059184328 0.019037345
000330 a3 2e 04 3e c9 28 c9 b9 e2 3d 3c bd 37 4a 04 3e
       0.12908415 -0.00038368095 -0.045957454 0.12918936
000340 4d 44 10 3d 4d 9d e7 bd 34 7d b1 3d 66 b4 0f 3e
       0.035221387 -0.113092996 0.08666459 0.1403366
000350 40 71 5d 3c 25 2b 15 3e 94 bb df bd d6 30 2b 3e
       0.01351577 0.1456724 -0.109244496 0.16717848
000360 89 eb ce 3d ea fc b2 bb a8 64 23 be 50 7a 2d 3e
       0.101035185 -0.0054622786 -0.15956366 0.1694119
000370 45 ed 13 bc 64 14 ad 3d d5 1f c0 bd ac 29 70 3d
       -0.009028737 0.08451155 -0.093810715 0.05863349
000380 67 e4 d6 bc f1 3e 33 3d a9 e8 83 3d 4f e1 ed bd
       -0.026231958 0.043761197 0.06440861 -0.1161524
000390 9d 46 04 be 09 82 ee bb f1 b7 36 bd 89 4b ed 3d
       -0.12917562 -0.007278685 -0.044609014 0.11586673
0003a0 cb 37 99 bd 80 a9 28 3d 17 45 23 be a4 a5 ae 3d
       -0.07481345 0.041177273 -0.15944324 0.08527687
0003b0 21 83 de 3d f9 42 d4 3c a4 73 bb 3c 72 88 d0 3c
       0.108648546 0.025910841 0.02288229 0.025455687
0003c0 ff 34 ea bb a5 62 15 bd 5d 76 05 3e dd a5 5b bd
       -0.007147431 -0.036471028 0.13033433 -0.053624976
0003d0 94 19 b9 bc 65 b1 88 bc ee 55 d3 bd 48 ab 0a be
       -0.022595204 -0.01668615 -0.10319124 -0.13541901
0003e0 6f de d5 bd 54 23 07 bd 2e ee 07 be 52 b0 66 3d
       -0.104428165 -0.032992676 -0.13274452 0.056320496
0003f0 a1 5f 03 be c7 5a 3d bd cd c1 94 bd b9 3b af bd
       -0.12829448 -0.04622915 -0.07263527 -0.08556313

egnn.layers.0.message_mlp.0.bias f4 [32]
000000 10 2e 09 bd 27 43 8f bc 69 d3 50 3d 91 b0 1e be
       -0.033491194 -0.017488075 0.050982866 -0.15497042
000010 85 f7 70 3d c3 da 19 be 06 1a 15 bd 8d 53 12 be
       0.058829803 -0.15024857 -0.03640177 -0.14289685
000020 a0 74 19 be e4 1b be bd 1c 66 01 3e 1f 7a 24 be
       -0.14985895 -0.092826635 0.12636608 -0.1606221
000030 7c 65 9d 3d 57 77 64 bc 79 7f 12 be 8d 75 44 3d
       0.07685372 -0.013944468 -0.1430644 0.047963668
000040 c1 43 c2 bd 79 ff d0 bd 7e d3 11 3d a2 5f 00 be
       -0.09485579 -0.102049775 0.035602085 -0.12536481
000050 73 64 20 3c 82 c8 76 3d 0e c2 4f 3d 94 91 c0 3d
       0.009789574 0.060249813 0.050722174 0.09402767
000060 a2 68 12 be 8b 7c 6c 3d 33 33 d9 3d c7 98 25 be
       -0.14297727 0.05773596 0.106054686 -0.16171561
000070 c5 2f 8c 3d ba 3c 43 3c 89 da 7d 3d dc 95 2b be
       0.06845049 0.011916334 0.06197599 -0.16756386

egnn.layers.0.message_mlp.2.weight f4 [32, 32]
000000 56 f0 e6 3d 4b 74 20 be ef 66 a6 3d c7 f1 23 3e
       0.11276309 -0.15669362 0.08125102 0.160102
000010 d5 ef 10 bd 42 a7 a8 3d 96 87 a7 bc c0 dc c8 3d
       -0.03538497 0.08235027 -0.020450395 0.0980773
000020 2b fb 24 be 55 39 73 ba 5a 7f 3f 3e dd de 32 bd
       -0.16111438 -0.00092782575 0.18700925 -0.04366957
000030 81 04 0f be af 25 0f be 95 92 1f 3d a1 00 20 3e
       -0.13966562 -0.13979219 0.03895815 0.1562524
000040 00 fb 2f be f0 fd e7 3d 6a 60 09 be a7 ec 98 3d
       -0.17185593 0.113277316 -0.13415685 0.07467013
000050 c6 d0 13 3d e2 f8 64 3d e7 44 1c be 6f 64 2c 3e
       0.036087774 0.055901416 -0.15260659 0.16835187
000060 c7 c7 1f 3d ca f9 41 bc ae ab 06 be a7 c7 db 3d
       0.039008882 -0.0118393395 -0.13151428 0.1073144
000070 a9 23 28 3e 99 e2 91 3d e3 d6 a8 bc 00 23 2c bd
       0.16419853 0.07123298 -0.020610278 -0.042025566
000080 2c 25 3a be 61 e6 f0 3d e2 6a d7 bc 55 a8 1f be
       -0.18178242 0.11762691 -0.026296083 -0.15591557
000090 d9 50 6c b9 50 fc 0c 3d 15 68 e2 3d 51 e6 6d 3d
       -0.00022536832 0.03442031 0.11055008 0.058080975
0000a0 46 07 ee bd d5 b6 3a bd e8 f8 2e be d9 09 aa 3d
       -0.11622481 -0.04558452 -0.17087138 0.083026595
0000b0 4c f0 a9 3d ed 27 d6 bd c8 cf 31 3d 75 d7 f1 3d
       0.08297786 -0.10456834 0.043411046 0.11808673
0000c0 bd 41 22 3e 35 19 f5 3d 50 6b 8a 3d 0c 57 27 3d
       0.1584539 0.119676985 0.067587495 0.0408545
0000d0 25 0b 80 3d ed a4 25 3e b1 6f e1 3d 9d 28 eb 3c
       0.06252126 0.16176195 0.110076316 0.02870589
0000e0 ac c7 a9 3c 4b a6 f0 3d c7 b2 33 3e 71 61 ea bd
       0.020725094 0.11750468 0.17548667 -0.11444367
0000f0 a4 bd af bd c1 d8 45 3e 5e 7d 9c bd 77 17 3b bd
       -0.08581093 0.19320966 -0.076410994 -0.045676675
000100 67 a5 0e 3e b7 ff 87 bd ed b8 33 3e 43 a9 cf bd
       0.13930283 -0.066405706 0.17551012 -0.10139706
000110 42 a7 a9 bd 71 bf 08 3c 61 8c 70 3c 58 67 24 3e
       -0.08283855 0.008346424 0.014681906 0.16055048
000120 ee c4 95 bd fc 23 89 3d 50 da d0 bc a6 68 f0 bc
       -0.07312952 0.066963166 -0.025494725 -0.029346775
000130 a4 c9 1a be 02 e4 26 3e b4 cd c1 bd e5 37 19 bd
       -0.15115982 0.16297916 -0.09463063 -0.03740682
000140 91 a9 a5 bd 2e ba 26 3e e3 56 91 bd b9 94 28 bd
       -0.08088983 0.1628196 -0.070966505 -0.041157458
000150 d8 68 cf 3d d5 b3 29 3e f5 c5 28 3e 33 b9 d3 bd
       0.10127419 0.16572507 0.16481765 -0.10338058
000160 3b f9 81 bd 70 de 12 3e f0 d3 9a 3d f7 70 0c 3e
       -0.06346365 0.14342666 0.07559955 0.13714968
000170 44 19 73 3d f2 dc e8 bd 6d 11 cb bc 4d a7 a0 bd
       0.059350267 -0.11370267 -0.024788583 -0.0784441
000180 15 91 14 be fa 1c 4b 3d 21 f4 bf 3d a6 2a 88 3d
       -0.1450847 0.04958818 0.09372736 0.066487595
000190 0d cc 0d 3e e9 cc 91 bd c0 f6 77 3d 7b b8 63 bd
       0.1384737 -0.07119162 0.060538054 -0.055595856
0001a0 db c3 19 3e c5 cc 56 bc 1b be 01 3e de 02 0a 3e
       0.15016119 -0.013110344 0.12670176 0.13477656
0001b0 89 27 fa bd 94 31 2d bd 09 d0 1a 3e ad a3 af bd
       -0.12214572 -0.04228361 0.15118422 -0.085761406
0001c0 f1 72 2c bd 4e 75 15 3e d3 d9 13 3e e1 0f f2 3d
       -0.042101804 0.1459553 0.14438562 0.11819435
0001d0 e4 5b 95 3c 0f 9c e3 3d e8 0e 23 be 18 43 a9 3d
       0.018232293 0.1111375 -0.15923655 0.0826475
0001e0 97 25 f2 bc 05 da 05 be 98 65 1e 3d c1 ff f6 3a
       -0.02955894 -0.13071449 0.038671106 0.0018844531
0001f0 7d c0 85 3d c4 15 77 bd d0 72 33 3e 63 8b 3b be
       0.06530855 -0.06032349 0.17524266 -0.1831489
000200 ac 5d 30 3e 76 72 9c bd bc bc d3 3d b2 9f c9 bc
       0.17223233 -0.07639019 0.103387326 -0.024612281
000210 f4 9a 49 bd ef a4 07 be 53 5c 0e be 9b 4a ba 3c
       -0.04922004 -0.13246511 -0.13902406 0.022740653
000220 04 f8 d2 bd 0d 45 fe bd 41 25 19 be 6a fe 1a 3e
       -0.103012115 -0.12415514 -0.14955617 0.15136114
000230 d7 bb 2a 3d 51 6a 74 3c ee 59 54 bd 62 2c 1d be
       0.041683044 0.014917926 -0.051843576 -0.15348962
000240 e6 19 ce 3d ea 39 12 3e c3 85 08 3d 3c b2 42 3d
       0.100635335 0.14279905 0.03333069 0.04753326
000250 77 aa 2f 3a 2e f5 8a 3d 47 05 07 3c 8b 4e e3 bd
       0.00067011215 0.067850456 0.008241004 -0.11098965
000260 fe 79 c8 bc ef f8 23 3e 37 01 da bd ca 08 1f 3e
       -0.024472233 0.1601293 -0.10644763 0.15530697
000270 91 a7 ce bd 19 d6 09 bd 1b 3b e9 3d 41 ae e1 bd
       -0.100905545 -0.033651445 0.113882266 -0.110195644
000280 30 fc 37 bd aa 0d 08 be 13 71 bc bc d7 37 e8 3d
       -0.04491824 -0.13286462 -0.023003137 0.113387756
000290 0a 5d b9 bd 21 46 17 bd 45 36 87 3b 6e ee dc 3d
       -0.09050949 -0.036932115 0.0041263425 0.10787664
0002a0 a3 c5 f3 3c 13 91 a4 bc bb bf dc bd 87 74 05 be
       0.029757326 -0.020088708 -0.10778757 -0.13032733
0002b0 01 64 2f 3e 6e 4e 3a bd c0 a4 dd 3d 8a 75 84 bc
       0.17127992 -0.045484953 0.10822439 -0.016169328
0002c0 9b 88 ae bd 5e 1b 8b bd 50 d9 10 be ca 70 11 bd
       -0.08522149 -0.06792329 -0.14145398 -0.035507955
0002d0 3a db 8d 3c cc 3a b0 bd 17 7d 4c 3d 62 9f 9d 3d
       0.01731645 -0.086049646 0.049923982 0.076964155
0002e0 cd 08 e8 bd 83 f2 91 bc 26 fc 00 3e 96 9a 24 be
       -0.113298036 -0.017815834 0.12596187 -0.16074595
0002f0 77 12 c8 3d d4 1f 37 bd 7f a9 6d bd 71 a1 d3 bd
       0.09769147 -0.044708088 -0.058022972 -0.10333527
000300 a3 39 53 bc fa 65 6c 3d c9 3b a6 bd 2c b0 6a bd
       -0.01289216 0.05771444 -0.08116872 -0.057296917
000310 e3 b4 be 3d 78 1d ab bd d2 73 12 3c 0d 9c cd 3d
       0.09311845 -0.0835523 0.0089387465 0.1003953
000320 c5 24 6a bb ba 52 3d bd a1 2b e7 bd 6d 6f 22 bd
       -0.0035727483 -0.046221472 -0.112876184 -0.039657045
000330 e8 e5 0f bd b8 fd e8 3d 23 88 72 3c 42 a7 12 be
       -0.035131365 0.11376518 0.014802965 -0.14321616
000340 06 86 54 bc 59 9c da bd 3d 5e 3f 3e b3 5d 2a bd
       -0.012971407 -0.10674352 0.18688293 -0.041593265
000350 cc 8f 2a be fa f4 bf bd 40 43 d0 3d 60 4b 2a 3e
       -0.16656417 -0.093728974 0.10169077 0.16630316
000360 72 05 e8 bd b8 d0 30 be 13 3e 2e bd 73 91 46 bd
       -0.113291636 -0.1726712 -0.042539667 -0.048478555
000370 eb 17 b2 bd 22 67 d7 3d 85 1c 63 3c 24 09 0a 3e
       -0.08695968 0.10517718 0.01386178 0.1348005
000380 98 10 02 3e c7 96 7c 3c 89 78 10 3e dd 5c 38 bd
       0.12701643 0.0154168075 0.1410848 -0.045010436
000390 15 07 77 3d 8e 1b e5 bd a2 79 33 3d b1 ac 8e 3d
       0.06030949 -0.11186896 0.04381717 0.06966532
0003a0 88 84 36 be b8 60 15 3e d5 bb fb 3d 05 29 e4 bd
       -0.17823994 0.14587677 0.122916855 -0.11140636
0003b0 04 b7 58 3d 27 66 2a 3e 1a 02 74 bd b1 2d 9e 3b
       0.052908912 0.1664053 -0.059572317 0.004827224
0003c0 0b b3 93 bc f2 74 d1 bd 36 bf b4 3d bc 84 a2 bd
       -0.01802971 -0.10227384 0.08825533 -0.07935473
0003d0 9d b4 4e 3d a7 ca 0c 3d b4 4f b0 3d 04 c5 2d 3e
       0.050465215 0.03437295 0.08608952 0.16969687
0003e0 37 91 74 3d e4 6b df bc d8 fe 60 bd 6a 98 14 3e
       0.0597088 -0.027273126 -0.054930538 0.14511266
0003f0 14 4a e5 3d 5f a2 1d 3e 41 86 99 bd cc e2 da 3d
       0.1119577 0.15393971 -0.0749631 0.10687789

egnn.layers.0.message_mlp.2.bias f4 [32]
000000 51 ae 7a 3b 9a 92 db 3d 0f 8b 9e 3c af b2 27 3e
       0.0038250873 0.107213214 0.019353418 0.16376756
000010 3a ec b9 bc 93 2c 28 be 47 da 20 be f0 36 99 bd
       -0.02269565 -0.16423254 -0.15708266 -0.074811816
000020 82 72 75 3d 35 1a c9 3d 2f 8e a3 3d 82 ca 1b 3e
       0.059923656 0.09819452 0.07986104 0.1521397
000030 bc 9e 30 be a8 44 93 3d e0 a9 83 bc 2a 3a 09 be
       -0.17248052 0.071908295 -0.016072214 -0.13401094
000040 35 10 2d 3d 2b 8e 2b 3e 10 35 45 3d 35 d1 da 3d
       0.042251784 0.16753452 0.048146307 0.10684434
000050 c9 c2 c8 3d ee 03 f1 bd 4e eb 30 be 1f 52 26 be
       0.09802777 -0.11768328 -0.17277262 -0.16242264
000060 54 e3 1a 3e 7f f1 05 be 09 d5 6c bd a9 ca 17 3e
       0.15125781 -0.13080405 -0.057820354 0.14823402
000070 21 e1 1f 3e 9d 2b 03 be ef 57 96 3d 3c 08 9d bb
       0.15613224 -0.12809606 0.07340991 -0.0047922414

egnn.layers.0.coord_mlp.0.weight f4 [32, 32]
000000 0f d7 1e bd 1b 73 55 bb cc af 06 3c a2 1d 2d be
       -0.038779315 -0.003256983 0.008220624 -0.16905835
000010 12 6b f6 bd 33 44 ac 3d 70 db db 3d c8 df 51 3d
       -0.12032141 0.084114455 0.10735214 0.051238805
000020 e4 d1 de bd a3 47 84 bc fa 6e e4 3d 9a 9a e1 bd
       -0.10879877 -0.01614744 0.111539796 -0.11015816
000030 3d f9 01 3e 43 d6 86 3d 73 b9 da bd c3 2c 26 be
       0.12692733 0.06583836 -0.10679903 -0.16228013
000040 e3 9b 9b 3d ee 05 39 3d 9b d1 c4 bd a5 86 0a be
       0.075980924 0.04517167 -0.096102916 -0.13527925
000050 fd 80 16 3d 9d b9 9e 3d 4d 09 8a bd 97 46 16 3e
       0.036744107 0.07750247 -0.06740055 0.14675365
000060 12 1e fd 3d df 69 e3 3d 63 da 14 3e 80 91 ed bd
       0.12359251 0.11104178 0.14536433 -0.116000175
000070 8b 96 11 3e aa 27 1b be 22 dd 33 bd 4a f5 03 be
       0.14217584 -0.1515185 -0.04391206 -0.12886539
000080 7d 89 32 bd 35 36 1e be 77 fc 1a be 27 b1 e7 bd
       -0.04358815 -0.15450366 -0.1513537 -0.11313086
000090 0f e1 e7 3c a3 48 e4 bd 28 4d 80 3c 48 42 f5 3c
       0.028305558 -0.11146667 0.015661791 0.029938832
0000a0 6b 39 1b be dd f7 0e 3e f9 b3 46 bd b1 34 f5 3d
       -0.15158622 0.1396174 -0.04851148 0.11972941
0000b0 8a 6d 7d bb a1 98 e2 3d 95 8b 5a 3c 9a f1 e1 bd
       -0.0038670027 0.11064268 0.013338943 -0.1103241
0000c0 3c e6 25 be 54 1e 03 be 28 2d d0 bd eb 4d f7 bd
       -0.16201109 -0.12804538 -0.10164863 -0.120754085
0000d0 68 70 2f 3e 4d 58 f7 bd 94 86 72 3c c2 2d f5 bd
       0.17132723 -0.12077389 0.014802594 -0.11971618
0000e0 cf 7f 05 3e 0c 87 0a bc b9 1b a1 bd 84 c5 86 3c
       0.13037036 -0.008455049 -0.07866616 0.016451605
0000f0 e9 d2 bf bd 6c d0 b2 3d 38 75 cf bb 18 1d f9 bd
       -0.093664 0.087311596 -0.0063311122 -0.12163752
000100 96 99 37 bd 56 3c 89 bb f3 f0 6e bc ea a5 94 bd
       -0.044824205 -0.004188101 -0.014583814 -0.07258208
000110 02 32 0e 3d 36 12 37 3e 7a d7 c7 bd d3 ed 9b bd
       0.03471566 0.1787804 -0.09757896 -0.07613721
000120 35 a2 ce 3b a9 d3 f8 3d e6 a5 aa bd 26 8a 0a be
       0.0063059577 0.12149746 -0.08332424 -0.13529262
000130 fc 82 2d 3e 87 c9 85 3d 4b 61 99 3d 91 cb 2e bd
       0.16944498 0.06532579 0.0748926 -0.042674605
000140 42 86 18 3e 57 94 80 3a f6 37 6d 3d 56 13 25 3e
       0.14894965 0.0009809834 0.057914697 0.16120657
000150 50 03 f1 bd ed 34 f0 bd 1e 8f ed 3d 31 73 ce 3d
       -0.1176821 -0.11728845 0.11599563 0.10080565
000160 29 36 9c ba 95 30 99 bd f5 4f 1f 3e 0f 09 17 be
       -0.0011917996 -0.074799694 0.15557845 -0.1474955
000170 30 f0 d5 bc 42 08 19 be d1 c0 07 3e 89 73 09 3d
       -0.026115507 -0.14944556 0.13257147 0.03355745
000180 0e 73 55 bd 77 7c fb bd 32 45 19 bd 73 23 14 be
       -0.052111678 -0.12279599 -0.037419505 -0.14466648
000190 87 1e 23 3e a6 93 b6 bd 99 6b 5c bb 79 5a 9a 3c
       0.15929614 -0.089148805 -0.003363347 0.018841969
0001a0 26 4b d3 3d e9 b9 a6 bc ac ff ec 3c 98 4a 68 bc
       0.10317068 -0.02035232 0.028930508 -0.014177941
0001b0 cd ec 12 3c 94 10 c4 3d 94 10 f2 3d dd 20 3b bc
       0.0089675905 0.095734745 0.11819568 -0.011421409
0001c0 26 d7 41 3d 02 8c 31 bd f1 20 8f 3d 85 1d ce 3b
       0.047324322 -0.043346412 0.06988705 0.00629014
0001d0 9e 4d 5c bc 3f 38 28 3c 08 9f 0f 3e 03 35 f6 3d
       -0.01344624 0.010267316 0.1402551 0.1202183
0001e0 e2 b7 13 bd 22 3d fb 3d 17 6a d5 3b 99 5c 92 bd
       -0.036064036 0.122675195 0.006512891 -0.07146568
0001f0 f9 5f af bd 47 08 d5 3d 79 ea 85 bd 42 02 a7 bc
       -0.08563227 0.104019694 -0.06538863 -0.020386819
000200 f4 ba a8 bd 04 c6 e1 bd 00 97 fa 3d 1f d0 15 3e
       -0.082387835 -0.110240966 0.12235832 0.14630173
000210 57 6d 1e be 70 25 2a 3c c8 57 0f 3e 36 63 f7 3d
       -0.15471397 0.010384902 0.1399833 0.1207947
000220 88 ec 4a 3d a5 05 6e 3d 22 b2 2e bd 1a 8c ee 3c
       0.04954198 0.05811085 -0.04265035 0.02911954
000230 5a 8b d2 3d 94 c3 bd bd ab 89 25 bc 82 3d 37 3e
       0.102804855 -0.09265819 -0.010103623 0.17894557
000240 c1 99 f2 3d 79 20 ae 3d d4 c1 00 3d 2f 92 13 3e
       0.118457325 0.085022874 0.03143485 0.14411233
000250 41 8f ff bc 37 e7 1e bd 79 80 9b bd 03 e5 b7 3d
       -0.031196238 -0.038794722 -0.075928636 0.089792274
000260 49 c7 0b be de 86 04 3d f6 4a 07 3d 46 16 dd bd
       -0.1365024 0.032355182 0.033030473 -0.10795264
000270 a7 83 b1 3d f5 32 20 bc c4 94 9b 3d 56 09 8f bd
       0.08667689 -0.009777774 0.07596734 -0.069842026
000280 ba cb 2c 3d 3b b6 0a 3e 11 c1 b0 3c b3 ef e1 bd
       0.042186476 0.13546078 0.021576436 -0.11032047
000290 a3 ce 2d bd 87 f5 4a bd 8a 6d f6 bb ce 74 51 bd
       -0.042433392 -0.04955056 -0.0075203823 -0.051136784
0002a0 0d 72 0f 3d dc 71 91 bd 0e 3c e4 3c 98 0e 19 be
       0.035020877 -0.07101795 0.027860668 -0.14946973
0002b0 86 4e 2b bd 73 15 a7 3d 7e 21 c9 3d bb f0 02 be
       -0.041822933 0.08158388 0.09820841 -0.12787144
0002c0 4e e8 dc bd b2 20 82 3c 2d 90 cd 3c 7a d6 3a bd
       -0.10786496 0.015884731 0.025093162 -0.045614697
0002d0 64 66 e9 3d 8e 18 bf bd 72 83 d8 bd c6 de 0f 3e
       0.113964826 -0.09330855 -0.10571946 0.14049825
0002e0 f5 8d bc bd f6 5c 1d bd 67 35 0c be ab b4 b2 3d
       -0.09206764 -0.038418733 -0.13692246 0.08725866
0002f0 99 a2 3b bd 02 a5 b5 3d 9d 8d ac 3d a7 63 14 be
       -0.045809362 0.08869363 0.08425448 -0.1449114
000300 94 e9 fb bd 1d 52 24 3e 22 78 24 be 1a 60 f6 bd
       -0.12300411 0.16046949 -0.16061452 -0.12030049
000310 6f 1b 16 be ff 8f 0b 3e 5f 2a 53 bc 97 7d 26 be
       -0.14658903 0.13629149 -0.01288852 -0.16258846
000320 9a 57 08 be 1f d4 16 3e e7 40 b0 bd 3b b3 04 3e
       -0.13314667 0.14729355 -0.08606129 0.12958996
000330 53 a7 25 3e e4 7b 5c 3d 9c 4f aa bd b5 65 36 3e
       0.1617711 0.05382909 -0.083159655 0.17812236
000340 1f 8c 27 3e 25 a3 0b 3e 1d e7 6e bd 43 41 04 3e
       0.16362046 0.13636453 -0.058325876 0.1291552
000350 25 ec d5 bd 8e eb b9 3d c5 e0 50 3b d4 92 17 3e
       -0.104454316 0.090781316 0.0031872254 0.14802104
000360 74 77 1b 3d ee 99 a7 3d d7 af f1 bd 38 de f5 3d
       0.037955716 0.08183657 -0.11801117 0.120052755
000370 47 ec 17 bc a7 6d 40 bc 79 ad d4 3c 8f 86 67 bd
       -0.0092726415 -0.011744893 0.025961624 -0.05652481
000380 b5 66 28 be c0 70 26 be 4b ef 3f 3d 04 e3 93 bd
       -0.1644543 -0.16253948 0.046859067 -0.07221034
000390 85 ca f9 bd e2 1c 11 3e d8 09 3a 3e d1 6d 3a be
       -0.12196831 0.14171174 0.18167818 -0.18205954
0003a0 08 f0 f0 bd fb a7 de bd cd c6 73 3d 2c 22 b6 3d
       -0.11764532 -0.108718835 0.059515763 0.088932365
0003b0 74 ab b7 bd 51 c3 d3 bd a7 ac ea 3d f8 c7 d4 bd
       -0.08968249 -0.10339988 0.11458712 -0.103897035
0003c0 18 12 ad bd e6 58 2e 3e 2a 42 9d 3a b5 17 95 bd
       -0.08450717 0.170261 0.0011997868 -0.072799124
0003d0 b3 03 bf 3d e5 ed 1d be ed 1a 2d 3e 7f c4 c5 bd
       0.093268774 -0.15422781 0.16904803 -0.09656619
0003e0 70 8f bc 3c 73 a1 d1 bd 89 51 01 3e 2a 87 71 3c
       0.023017615 -0.10235872 0.1262876 0.014741698
0003f0 8a 39 20 be 45 0c d4 bd 10 3f e2 3d c7 e2 76 bd
       -0.1564695 -0.10353903 0.110471845 -0.060274865

egnn.layers.0.coord_mlp.0.bias f4 [32]
000000 bc a2 38 bd 41 f8 a5 bd bd ba 27 be 5e 5d 06 3e
       -0.04507707 -0.08103991 -0.16379829 0.13121554
000010 0c 04 e7 bd eb c4 0f 3e b5 f2 97 3c 17 1e 9e bd
       -0.11280069 0.14039962 0.018548349 -0.07720583
000020 de ca d4 bd 47 94 0c be 74 5c 27 3e 00 d9 59 bd
       -0.10390256 -0.13728438 0.16343862 -0.053185463
000030 05 86 e4 3c f7 76 fc bc f7 1d 2f 3e b7 60 31 3e
       0.027895937 -0.030818446 0.17101274 0.1732205
000040 eb 25 de 3c 6a 8f c7 bd 48 12 49 3d c5 9f 2b be
       0.02711769 -0.09744151 0.0490897 -0.16760166
000050 a0 98 26 be 3a 16 7a 3c 1f 2d d4 3b 01 9e fd 3d
       -0.1626916 0.015264088 0.0064751054 0.123836525
000060 42 c7 a2 bd 1e 03 00 3d e3 bc c0 3d ec b6 29 be
       -0.07948162 0.031252973 0.09411027 -0.16573685
000070 de c0 7f 3d 40 81 f6 bd 57 24 af 3d 22 f9 d3 3d
       0.06243979 -0.12036371 0.08551853 0.10350253

egnn.layers.0.coord_mlp.2.weight f4 [1, 32]
000000 80 af b4 bb 73 75 82 bb a5 36 10 bc 20 4e ec ba
       -0.0055140853 -0.003981286 -0.008802091 -0.0018028654
000010 e8 ab 14 bc db ff 25 3c 89 05 73 bc e4 0c 2b bc
       -0.009074189 0.0101318015 -0.014832863 -0.010440085
000020 40 86 32 bc 82 08 5e bc f5 04 f6 3b 45 7e e3 3b
       -0.0108962655 -0.013551833 0.007507915 0.0069425427
000030 c4 4d 60 3c f2 e2 19 3c ca c5 8b 3b eb 40 01 3c
       0.013690416 0.009392487 0.0042655217 0.007889013
000040 e3 0b 4d bc 04 b6 88 bc c3 d1 02 3c 30 0e 01 bc
       -0.012515041 -0.016688354 0.007984581 -0.007876918
000050 ba 5a 87 bc 35 0e 41 3c f0 b2 65 3c 28 dd 44 3c
       -0.016522754 0.011783172 0.014019713 0.012015618
000060 e2 f4 0f 3c 85 4d 7c 3c 86 07 29 3b 98 35 11 bc
       0.008786412 0.0153993415 0.0025791838 -0.008862875
000070 e7 d7 85 bc dd 4b 23 bc 97 25 96 3b 36 da 88 3b
       -0.016338302 -0.009966818 0.004582118 0.0041764034

egnn.layers.0.hidden_mlp.0.weight f4 [32, 48]
000000 10 5c 55 3d 6b 73 05 3d 3d 0e df bd 8e 8f 14 bd
       0.05208975 0.032580774 -0.108913876 -0.036269717
000010 56 3b 01 3e 9d 95 de 3c f9 85 02 be 36 7e 99 bd
       0.12620291 0.02717095 -0.12746419 -0.07494776
000020 61 1e 8c bd 4e 13 a8 3c 95 6c f3 bd ee e2 f3 3d
       -0.06841732 0.020517018 -0.11885945 0.11908518
000030 b3 db bc 3d e1 90 b5 3c fb a1 ff bd 72 0a bc 3b
       0.09221592 0.02216381 -0.12482067 0.00573855
000040 e3 14 04 ba 90 01 90 bd a7 6a ea bd 2f 8d 1c be
       -0.0005038513 -0.07031548 -0.114461236 -0.15288232
000050 da 6c 72 3d 03 49 59 3c 8c 42 26 3d 3a 58 fc 3d
       0.05918584 0.013262036 0.040590808 0.123215154
000060 e3 e5 51 bd 4f cc f5 bd ec 0e fd bd 2b 05 0b be
       -0.051244628 -0.120018594 -0.12356362 -0.1357619
000070 55 4c 90 3d 23 1c 95 bd 8a c9 be 3d 58 23 8f bd
       0.07045809 -0.07280757 0.09315784 -0.06989163
000080 d8 10 74 3b f0 45 80 3d 72 5b 5a 3d c8 42 09 3e
       0.0037241485 0.062633395 0.053309865 0.13404381
000090 b4 7f 2f 3c 2f c9 7a bd 6f dc 86 3c df bb 37 bd
       0.010711599 -0.06122702 0.016462533 -0.044856902
0000a0 e7 6a e1 3d e5 87 2a bd 3e 29 c4 bd 32 dc 28 bd
       0.11006718 -0.041633505 -0.09578179 -0.04122562
0000b0 25 73 8a bd eb bb f8 3d 6e b3 92 bd 70 a1 42 bd
       -0.06760243 0.121452175 -0.0716313 -0.04751724
0000c0 c1 d1 88 bd d4 95 0e 3e f4 af e5 bd f9 f5 e0 3d
       -0.066806324 0.13924342 -0.11215201 0.109844156
0000d0 e8 0a 62 bd 0c 61 bf 3d d7 53 58 3d a2 33 ba bd
       -0.055186182 0.09344682 0.05281433 -0.090918794
0000e0 12 8a 07 be e2 9b 9e 3d 31 cb ad bd eb d6 ce bd
       -0.13236263 0.07744576 -0.08486021 -0.10099586
0000f0 93 0b a0 bd 28 36 e9 bc 1d 28 79 bd 2d 0c b9 3d
       -0.078147076 -0.028468207 -0.06082927 0.090355255
000100 44 27 25 3c a4 a7 a6 bd 62 68 d7 bd b5 38 62 3d
       0.010080162 -0.08137444 -0.10517956 0.05522986
000110 36 9c 0f bd c2 01 5b bd 7c 84 17 3e 96 50 df bd
       -0.035061084 -0.053468473 0.14796633 -0.109040424
000120 c6 39 98 3d 51 be 74 bd e7 ad e2 3b b7 be 43 3d
       0.074328944 -0.059751812 0.0069177034 0.0477893
000130 dc 91 14 bd 04 f3 c4 3c b2 0d 84 bd f6 5c 27 bd
       -0.036271915 0.02404166 -0.06447925 -0.04086014
000140 b4 dc e8 bb 9a f9 c9 3d 6d 5e d2 3c 77 e9 40 bd
       -0.007106388 0.09862061 0.025679791 -0.04709765
000150 27 4f 4a bd 45 93 2c bc f9 4d 78 bd d2 78 f6 bc
       -0.04939189 -0.010533159 -0.060621236 -0.030086908
000160 8e 48 bb 3d 97 cf 83 3d d6 00 b3 3d af 73 c5 bd
       0.09144698 0.06436079 0.08740394 -0.096412055
000170 21 76 bb 3d 10 8b 92 3c 31 15 e6 3d 12 c4 67 3a
       0.09153391 0.017888576 0.11234511 0.00088411674
000180 a1 34 e2 bd c1 1e 71 3d 44 40 ba 3c 19 ad c1 3d
       -0.110451944 0.05886722 0.022735722 0.09456844
000190 7e 7d 5d bd 11 8b 8f bd 9c 6e fd bd 94 f4 d2 3d
       -0.054074757 -0.07008947 -0.12374613 0.10300556
0001a0 c8 11 db bd 31 a4 37 bd 6b ad 0b 3e 1f c5 c3 bd
       -0.10696751 -0.04483432 0.13640372 -0.09559082
0001b0 1f 8e c7 3d 56 17 21 3d 3b bf fd bd 50 64 bb 3d
       0.09743904 0.039328896 -0.1238999 0.091499925
0001c0 0c fc 9b bd a2 f3 86 3d 48 cf ca bd f1 e0 09 be
       -0.076164335 0.06589438 -0.09902817 -0.13464715
0001d0 e8 f3 6e bd 84 4f 8a bd ad 70 de 3d 37 7d d0 bc
       -0.058338076 -0.06753448 0.10861335 -0.025450332
0001e0 e9 1f 11 3e 49 84 68 3b 76 a1 59 3d 33 a5 ec 3d
       0.14172329 0.0035479239 0.053132497 0.11554947
0001f0 15 ed 99 3d 4d a4 3c 3d 53 3b 2a 3d ac 9c 27 3c
       0.07515923 0.046055127 0.041560482 0.010230225
000200 ca 38 75 3c e5 4c 09 3e ed 40 af bd 83 14 be 3d
       0.014967153 0.13408239 -0.085573055 0.09281256
000210 73 b9 6f 3d 25 f0 7e bd da 29 ba bd 2b 92 75 bd
       0.058526468 -0.06224074 -0.09090014 -0.05995385
000220 aa af e1 3d de 34 09 be bb ba f1 3c 92 15 02 3e
       0.110198334 -0.13399073 0.029507985 0.12703541
000230 11 fd dd bd 88 16 17 be 30 d4 0a be a0 6c ab bd
       -0.10839284 -0.14754689 -0.13557506 -0.08370328
000240 72 ce b2 3d 93 9a cb 3d 28 06 53 bd c5 c2 e6 bd
       0.087307826 0.09941592 -0.051519543 -0.11267618
000250 6a fa 83 3d c4 8c a8 bd 2a de 03 3e 4a 87 59 ba
       0.06444247 -0.08229974 0.12877718 -0.00082980527
000260 31 64 86 3d cc a9 79 3c a6 01 d7 bd 23 36 c5 bd
       0.06562079 0.015238237 -0.10498361 -0.096294664
000270 dc 31 85 3d ff 45 a8 bd ef 8a bc bd 36 9e 8f 3d
       0.065036505 -0.08216476 -0.09206187 0.07012598
000280 9c 17 09 3e 2b 26 a2 bd 6c f3 a4 3d 29 b7 c5 bc
       0.13387913 -0.07917436 0.080542415 -0.02413519
000290 36 55 8f bd b6 70 0a 3e c2 cd b2 3d 49 91 21 3d
       -0.069986746 0.13519558 0.087306514 0.039445195
0002a0 07 b2 ad bd fa be 96 bd 63 ea b4 3d 51 cd 25 3c
       -0.08481222 -0.07360645 0.08833768 0.010119752
0002b0 e9 7e 0c be 15 17 41 bd 91 b3 48 3c 89 1e 4f 3d
       -0.13720287 -0.047141153 0.012249843 0.05056623
0002c0 80 6d 8d bd a8 ef c8 3d 26 19 f2 bd 71 2a d0 3d
       -0.06905651 0.09811336 -0.11821203 0.10164345
0002d0 b0 a7 ab bd cb e0 f5 bd 0c 0c d9 3d 54 cd ee bc
       -0.08381593 -0.120057665 0.10598001 -0.029150642
0002e0 00 f6 dc 3d c3 83 0d be 5f 1e 63 3d df d0 86 3d
       0.10789108 -0.13819794 0.055448886 0.06582808
0002f0 bc db 95 3d 9e 56 64 bd 91 6d ba 3b 2d 00 8c bc
       0.07317302 -0.055746667 0.005689331 -0.017089928
000300 81 e4 d8 bd 7a cf 79 bd cb 1c d7 bd 23 f8 9c 3d
       -0.10590459 -0.06098888 -0.10503539 0.07664516
000310 51 23 00 3d 3c d5 4b 3d a2 38 10 be 4b 81 7b 3d
       0.03128368 0.049763903 -0.14084104 0.0614026
000320 c6 1d 97 bd 6e 43 d0 bd c5 7e e0 bd ca 4b f9 3d
       -0.07378726 -0.10169111 -0.10961679 0.12172659
000330 57 bf ac bd b6 da c4 3d 04 48 a9 bd 5f fa 78 3d
       -0.08434933 0.09612028 -0.08265689 0.060785647
000340 f4 b2 1d 3d 96 52 ea bd 9f 9f bb bd 15 ce 91 3b
       0.03850074 -0.11441533 -0.09161305 0.0044496157
000350 c0 60 e3 bc 1c 7b eb 3d 14 0c 01 be c9 8d 38 3d
       -0.027756095 0.114980906 -0.12602264 0.04505709
000360 a1 8a 96 bc 6f b8 a7 bd dc 07 fc bd 71 5b 00 bc
       -0.01837665 -0.08189475 -0.123061866 -0.007834301
000370 d4 a0 c3 3c 94 9c 96 bd 31 77 e9 3d 7d e5 e9 3d
       0.0238804 -0.07354084 0.11399687 0.114207245
000380 d3 bc 00 be 01 00 b3 bd 47 2f 6d 3d 12 82 bf 3d
       -0.1257203 -0.08740235 0.057906415 0.09350981
000390 76 47 b7 bd 47 4d bf 3d ed ce e7 bd d7 e4 94 bd
       -0.08949177 0.09340911 -0.11318765 -0.0727021
0003a0 46 4b 06 3d 0d d2 84 3d 16 17 9a 3c fa 6f 85 bc
       0.03278663 0.064853765 0.018809836 -0.016288746
0003b0 26 fc 59 3d b5 2c cb bd ac 28 60 3d 1c fe 11 3e
       0.053218983 -0.099206366 0.054726288 0.14257091
0003c0 41 d4 c2 bc 24 a5 9c bb 9a d4 c8 3d c9 d0 84 3c
       -0.023782851 -0.0047804285 0.098061755 0.016212838
0003d0 37 e0 ef bc 78 13 ef 3d 5a e2 a0 bd 79 df b8 3d
       -0.029281719 0.11673635 -0.07855673 0.09026999
0003e0 f5 41 ab 3d 52 61 e3 bd 84 36 03 bd d0 c5 46 3d
       0.0836219 -0.11102547 -0.032034412 0.048528492
0003f0 ef 94 69 3c 7f b6 9b 3c 8e d6 ec 3d 51 0e d0 3d
       0.0142567 0.01900792 0.115643606 0.10158981

egnn.layers.0.hidden_mlp.0.bias f4 [32]
000000 fe 84 78 3d e9 6b db bb f9 00 fb 3c a5 7a bd bd
       0.060673706 -0.0066962135 0.030640112 -0.09251908
000010 de aa 34 3d 62 47 96 bb f8 69 8c bd ce f6 dd bd
       0.044108264 -0.004586146 -0.068561494 -0.1083809
000020 7a 75 25 3d ce 0a aa bd 45 b4 de 3c a3 be 0e be
       0.040395238 -0.08302842 0.027185569 -0.1393991
000030 ba 0b 8b 3d 4e 72 9a 3d 09 a6 8f 3b d2 b5 c0 bb
       0.06789346 0.07541333 0.0043838066 -0.0058810497
000040 da f2 09 3e af b8 31 3d b0 9d c0 bd ec d8 76 bd
       0.13471547 0.04338902 -0.094050765 -0.060265467
000050 9d 90 55 bd 84 c6 b3 bd 0c 44 cd bd 62 65 b5 bb
       -0.052139867 -0.08778098 -0.100227445 -0.0055357674
000060 68 b7 d0 bd 7e 87 5e bc 3c 77 13 3d 79 c0 93 bd
       -0.10191232 -0.013582109 0.036002383 -0.072144456
000070 e0 eb 67 bd 32 36 09 be 18 60 37 3d b1 99 01 3d
       -0.056621432 -0.1339958 0.044769377 0.031640712

egnn.layers.0.hidden_mlp.2.weight f4 [16, 32]
000000 17 23 0a be a9 bd d9 bd b2 ae f5 bc 15 ec cb 3a
       -0.13489948 -0.10631878 -0.029990528 0.0015558029
000010 60 ad 37 3c ed 28 1f 3e 0c 5a 24 be 88 de 94 3d
       0.011210769 0.15542956 -0.16049975 0.07269007
000020 a5 d5 0b 3e 5d d1 23 3e d3 02 04 3d c1 bd 20 3e
       0.13655718 0.15997835 0.032229256 0.15697385
000030 d4 66 bd bd a4 a8 fe bd 2a 25 26 bd 16 da b9 bd
       -0.092481285 -0.124345094 -0.040562786 -0.090748
000040 23 71 a9 3d 76 84 42 bd a5 20 b3 3d b6 f5 7e bd
       0.08273532 -0.047489606 0.08746461 -0.062246047
000050 7b f8 9b bd 4e 54 58 bd e7 67 99 bc 51 a7 aa bd
       -0.07615753 -0.052814774 -0.018726302 -0.08332694
000060 77 86 cb 3d be a5 e6 3d bb e7 09 3d 40 e9 2d be
       0.099377565 0.112620816 0.03366826 -0.16983509
000070 73 25 13 3e 8f c2 03 be cf ac f8 bd a2 e8 b8 3d
       0.14369754 -0.12867187 -0.121423356 0.09028746
000080 b0 e0 d1 bd 24 da 0b be 1f 1a 09 be 74 af 18 3e
       -0.10247934 -0.13657433 -0.1338887 0.1491068
000090 a6 31 4d 3d f7 c2 b0 3d 0f 1b 0f 3d 82 96 a5 3d
       0.050096177 0.086309366 0.034937914 0.08085348
0000a0 27 89 35 3e 46 f4 dc bc 9e 40 e5 bd 62 ec 17 bd
       0.177281 -0.026971947 -0.111939654 -0.037090667
0000b0 c6 a3 84 bd 3f 72 2c be 97 f8 09 be 82 6b 7a bd
       -0.0647655 -0.16840456 -0.13473736 -0.061137684
0000c0 bc a4 09 3d f9 5c b8 3d 90 8d ee 3d cc 44 33 be
       0.03360437 0.09002108 0.11648095 -0.17506713
0000d0 dc 9b 61 bc b8 e6 09 bd 82 87 19 3e c6 73 3c bd
       -0.01377007 -0.033667296 0.14993098 -0.046008848
0000e0 d3 3d 3b 3e 1f 99 2c 3d 7f 85 c5 3c 26 7a 9e 3d
       0.18285303 0.042138215 0.024111507 0.07738142
0000f0 0e 61 09 3e 83 9a c0 bd bd 7f 98 3d e9 d5 8a bd
       0.1341593 -0.09404471 0.07446239 -0.067790814
000100 d2 7f 3b 3d f7 bb d6 3d 49 c8 a2 bd 1b a1 3b bd
       0.045776196 0.1048507 -0.079483576 -0.04580794
000110 dd 0e 26 3e fd 5e 2a be 71 82 ed bc 71 d8 15 3e
       0.16216607 -0.16637798 -0.028992863 0.14633347
000120 d7 a3 1a 3d 3c 4c 13 be 0c 34 ef 3b 7c 3b 12 be
       0.037753906 -0.1438455 0.0072999056 -0.14280504
000130 7a 30 87 bd 72 21 17 3d 3b 93 c4 3d cb 61 ca bd
       -0.06601043 0.03689713 0.095983945 -0.09881934
000140 aa 05 1d 3e cd 50 ff bd c1 9e 10 bd 43 3c 1c be
       0.15334192 -0.124665834 -0.03530765 -0.15257363
000150 7a 5c 93 bb 3d 9d a8 bb de f8 98 3d be 53 f3 bd
       -0.004497108 -0.0051456974 0.07469343 -0.11881207
000160 5d a8 f3 3b 03 f3 67 3d cf ab e5 bd 36 34 1e 3e
       0.007435842 0.05662824 -0.112144105 0.15449604
000170 16 11 13 bd 8c 9a 38 be e9 d4 fe bc 8c 64 2a 3d
       -0.035904966 -0.18027705 -0.031107383 0.041599795
000180 bf 11 ba bd be 50 8c bd 54 53 a0 3d d1 a4 09 bd
       -0.09085416 -0.06851338 0.078283936 -0.033604447
000190 ac e5 85 3d c8 f1 44 3c dd f4 25 bb c7 5a 17 3e
       0.06537947 0.012020536 -0.0025322952 0.14780723
0001a0 6c 9f f7 bc 75 29 12 3e 01 e4 78 bd d9 05 ea 3d
       -0.030227385 0.14273627 -0.060764316 0.114268966
0001b0 81 c7 bb 3d b8 15 e6 bd a3 b7 2c bd ec 7a f3 bd
       0.09168912 -0.11234611 -0.042167317 -0.1188868
0001c0 9b ad 16 3d f7 d7 b5 3b 0a 97 71 bd 69 7d 1b 3e
       0.036786657 0.0055494267 -0.058981933 0.15184559
0001d0 a5 49 2c 3e bd 7a 01 be f7 0f c6 bd 5f 54 83 3c
       0.16824968 -0.12644477 -0.09671014 0.016031442
0001e0 89 66 e0 3d da 29 dc bd 1a f9 80 bc 7f 07 02 bd
       0.10957057 -0.1075017 -0.01574378 -0.03174543
0001f0 9b c7 12 be 0c 41 44 bc 03 4a bf bb 12 39 30 3d
       -0.14333956 -0.011978399 -0.0058376803 0.043023176
000200 1e 8a 01 3e 3e 10 08 bc dd 76 02 3e 87 7b 81 bd
       0.12650344 -0.008304654 0.12740655 -0.06322389
000210 16 84 ec bd 3a a8 8d 3d ff e0 f5 3d df d0 ed bb
       -0.11548631 0.06916852 0.12005805 -0.0072575654
000220 b7 21 f6 bd 99 2c ae bd f9 46 c0 bd 91 07 2a 3d
       -0.12018149 -0.085046 -0.09388537 0.041511122
000230 de a9 45 3d a3 b2 21 be 8b d7 f4 bc 5e 82 26 3d
       0.0482577 -0.15790801 -0.029887935 0.04065167
000240 48 c7 98 bd fd 3d 32 3e c2 68 13 3e ff 49 af bd
       -0.07459885 0.17406459 0.1439543 -0.085590355
000250 e4 1c 95 3c 22 b5 f5 bc b1 c1 1b be 79 ae 6f 3c
       0.018202253 -0.029993597 -0.15210606 0.014629
000260 e4 0c 01 3e be 0a d1 3d 8e 9a b4 3d fe 2f 6d bd
       0.12602574 0.10207127 0.088185415 -0.057907097
000270 e6 88 c8 bd 56 8e 19 be c0 70 21 be 0a 6c 0a 3c
       -0.09791736 -0.14995703 -0.15765667 0.00844861
000280 0f b2 03 3e 9c 37 2a 3d 8d 3b 0d bd 07 46 a1 3c
       0.12860893 0.04155694 -0.03448062 0.019686712
000290 04 4e 28 3d b4 4a 9c bd 1d d7 e6 3d 28 66 9b 3d
       0.041090026 -0.07631436 0.11271498 0.07587844
0002a0 8f 2f 56 bd d4 da 61 bc 75 ac 1f be 5b 41 b0 3d
       -0.05229145 -0.013785083 -0.15593131 0.086062156
0002b0 c7 fa d0 3c e5 7f 07 3e 53 f8 74 3d 1f 25 1a be
       0.025510205 0.13232382 0.059807133 -0.15053223
0002c0 60 bb 30 bd a8 3a c9 3d 91 79 19 3e e5 fc 4f 3d
       -0.043147445 0.09825641 0.1498778 0.05077829
0002d0 9b 10 18 3e a6 78 34 3e fd cc 72 bd 70 ad f0 3c
       0.14850084 0.17624149 -0.059277523 0.029379576
0002e0 af 41 1d 3e cd 9d ab bc bb 40 c9 bd 52 97 03 be
       0.15357088 -0.020949269 -0.098267995 -0.12850693
0002f0 18 aa 8f bd fc 08 3f be f9 fa a0 bd 35 9d b1 3d
       -0.07014865 -0.18655771 -0.07860369 0.08672563
000300 45 70 0f 3e c4 ee d3 3c 85 c6 8e bd b1 e1 de bd
       0.14007671 0.025870688 -0.06971458 -0.10882891
000310 f8 d8 0c be a4 85 01 3d f7 50 25 3e 9c e7 ea bd
       -0.13754642 0.03162159 0.16144167 -0.11469957
000320 8b 8e 31 3e 5d 94 a1 bd 09 73 ee bd 25 1f c7 3d
       0.17339532 -0.07889626 -0.11643035 0.09722737
000330 d5 de de bd db 68 23 3e 4d 43 20 be b8 bf da 3d
       -0.108823456 0.15957968 -0.15650673 0.10681099
000340 0d cc 21 3e 59 89 70 bd fe 8c d3 bd 86 15 6e bd
       0.15800495 -0.058724735 -0.103296265 -0.058125995
000350 3a 1a 16 3e 05 6b 03 be 35 4f 1a 3e 44 dd 22 3e
       0.14658442 -0.12833793 0.15069278 0.15904719
000360 38 78 9a bd f4 97 0d 3e c4 0a 33 3a 23 4f 0e 3d
       -0.07542461 0.13827497 0.00068299123 0.03474344
000370 5f 1c b3 ba 22 45 15 3d 1e b1 26 3e 56 f0 07 3d
       -0.0013665071 0.036442883 0.16278502 0.033188187
000380 e4 30 8e 3c 1a 54 d1 bd a3 cb f8 3d 56 ae 79 bd
       0.017357297 -0.10221119 0.121482156 -0.060957275
000390 4a e0 0e be f9 73 2b be a9 21 28 3e 30 b6 8c 3d
       -0.13952747 -0.16743459 0.1641909 0.06870687
0003a0 69 16 97 bd 30 a9 e0 bd 68 fd a2 3b 17 7f fc bc
       -0.07377321 -0.1096977 0.004974056 -0.03082232
0003b0 fc 5f e7 b9 66 04 0e 3e b8 f1 b5 bd f9 d3 f9 3c
       -0.00044131267 0.13868865 -0.08883995 0.030496584
0003c0 91 c5 c1 3d 09 37 0b 3e fe 99 07 3d 5a db e9 bd
       0.09461511 0.13595213 0.033105843 -0.11418791
0003d0 c8 fa 15 bd dd 94 c8 bc 3f a5 47 bd 94 d7 29 be
       -0.036616117 -0.024485046 -0.048741575 -0.16586143
0003e0 dd 62 f4 bb 1c ca 1d 3e 13 fd a3 bd 97 20 92 bd
       -0.0074580745 0.1540913 -0.080072545 -0.07135122
0003f0 8f c4 ee bd 74 69 21 3d 6f b3 da bd f7 f0 a5 3c
       -0.11658584 0.03940721 -0.106787555 0.020256503

egnn.layers.0.hidden_mlp.2.bias f4 [16]
000000 fa 09 ad 3b 4f 0d e3 bd a0 8c ed 3d 75 93 9b 38
       0.0052807303 -0.11086523 0.11599088 7.418442e-05
000010 32 79 b5 bd f5 ec 69 3d 55 2a cd bd 4c 87 15 b8
       -0.08861007 0.057110745 -0.1001784 -3.5650373e-05
000020 05 e1 ac bd 82 1e d5 3a 47 38 a4 3b f1 c6 d8 3d
       -0.084413566 0.0016259702 0.0050115916 0.1058482
000030 0c d6 13 bd 4b 8b 8a 3d 08 87 1b b7 b9 c9 96 3d
       -0.036092803 0.06764849 -9.270159e-06 0.07362694
