2-egnca-rework/logs/line4-2024-10-05@23-20-03/best@167.pt (torch, 26116 bytes, 11 tensors)

egnn.layers.0.message_mlp.0.weight f4 [32, 33]
0.061160482 0.097299494 -0.009637446 0.09218421 -0.051174488 0.02675934 -0.04231844 -0.014258168
-0.038006723 0.028039798 0.13147745 0.13860814 -0.031392355 -0.06213808 -0.026102167 0.14758228
0.14157315 -0.04712014 -0.06190809 -0.045070767 0.12312244 0.1389629 -0.12210012 -0.06225671
-0.15495399 0.168011 0.02571068 0.054279972 0.092866 0.039068624 -0.03434236 -0.17030726
0.042005803 -0.031870544 -0.17379157 -0.023142548 -0.09477492 -0.09767996 -0.12655894 -0.14987008
-0.01223411 0.018566977 -0.15688042 -0.16068842 0.0014695263 -0.16183794 0.0849147 -0.044103447
-0.024285411 -0.15989988 -0.12869255 0.06650155 -0.09457674 -0.07216629 -0.15450628 -0.00940851
-0.107449695 0.04555461 0.05487411 0.03977178 0.059521686 -0.1243057 0.019252354 -0.15513892
-0.11998655 0.14608586 0.124778315 -0.12249257 0.09583289 -0.14506307 0.02579626 0.15683249
0.015162081 0.068134315 0.15858983 -0.06602291 0.12839119 0.02567487 -0.040605567 -0.15725556
0.16752507 0.17202835 -0.07589336 0.041984674 -0.18189827 0.03010961 0.09943884 0.017249124
-0.09182527 0.1578037 -0.096680954 0.020960962 -0.1639979 0.07513281 0.119880944 0.03287808
0.13556328 -0.17625919 -0.103851244 0.04733658 0.08834087 -0.043634642 0.0488683 -0.16935968
0.16919118 -0.1370187 -0.16187637 -0.12900704 0.17253374 0.04281003 -0.014330441 0.034655485
-0.0019503365 -0.12247487 0.10921258 -0.14655429 -0.04295902 0.017398003 -0.10832834 0.041653145
-0.158445 -0.082100585 0.15066826 0.051252723 -0.14226116 0.16327828 -0.046791956 0.031113612
-0.039208695 -0.10106684 0.030864757 -0.0392621 -0.09303668 0.09527875 0.08361049 0.1140338
-0.026938647 -0.029112095 0.009251317 0.15253086 -0.15475258 -0.01030651 0.015199821 0.08371473
-0.17059164 -0.18722534 -0.0068227723 0.054204945 -0.073648654 0.13394319 0.03358204 -0.06061104
-0.06236732 -0.14180966 0.09288682 -0.033166934 0.088718824 -0.18368764 0.1270851 0.054823007
-0.11064441 -0.09477044 0.12337126 0.08052407 0.08430645 0.03865838 -0.08638277 -0.11430399
-0.049787622 -0.04891922 -0.026931595 -0.039894685 -0.14087653 -0.15765232 -0.123230375 0.0894735
-0.111086495 -0.13504906 -0.07553591 0.05505187 -0.053617865 0.0008162401 0.022466227 -0.1251648
-0.050340008 -0.049176358 -0.01148163 -0.108344235 -0.035582684 0.015437745 0.05531754 -0.11447875
0.15641414 0.046698697 -0.1405366 0.16359061 -0.113113426 -0.0038311712 0.1331788 -0.03588242
0.045039836 0.08388095 -0.057655428 0.019651242 0.13413596 0.0005514733 -0.039731383 0.13276434
0.036153577 -0.11216507 0.08851677 0.1403582 0.014255341 0.14573556 -0.10882837 0.16839945
0.09949496 -1.0758142e-05 -0.15775819 0.16869383 -0.003999729 0.08383013 -0.09306039 0.060013846
-0.027276339 0.045625776 0.06872558 -0.11692968 -0.12703614 -0.0077916374 -0.045560513 0.11780581
-0.07318878 0.039826762 -0.16041324 0.08589833 0.10745748 0.026428528 0.022463165 0.02674549
-0.007599601 -0.037629705 0.13017231 -0.054673266 -0.024045905 -0.01695652 -0.104593225 -0.13739352
-0.10342398 -0.043024573 -0.13713263 0.057638552 -0.13485521 -0.04254085 -0.07538967 -0.0849423
00000000: 6a83 7a3d f544 c73d 61e6 1dbc 13cb bc3d
00000010: 579c 51bd 6736 db3c 1a56 2dbd 179b 69bc
00000020: f0ac 1bbd b8b3 e53c 06a2 063e 4bef 0d3e
00000030: 4595 00bd 8084 7ebd 36d4 d5bc cf1f 173e
00000040: 8df8 103e 0c01 41bd 5693 7dbd 209c 38bd
00000050: 9e27 fc3d 4a4c 0e3e a10f fabd e400 7fbd
00000060: 42ac 1ebe 130b 2c3e 349f d23c ad54 5e3d
00000070: 8830 be3d 6c06 203d 93aa 0cbd 0765 2ebe
00000080: 470e 2c3d b08a 02bd 6bf6 31be 7195 bdbc
00000090: 5a19 c2bd 6e0c c8bd ab98 01be 8b77 19be
000000a0: 9471 48bc c619 983c 43a5 20be 818b 24be
000000b0: 1f9d c03a d8b8 25be c2e7 ad3d d1a5 34bd
000000c0: 33f2 c6bc cbbc 23be fbc7 03be f731 883d
000000d0: 73b1 c1bd ebcb 93bd e536 1ebe 2726 1abc
000000e0: 960e dcbd 7997 3a3d adc3 603d bce7 223d
000000f0: 03cd 733d fd93 febd 1db7 9d3c bddc 1ebe
00000100: 82bb f5bd 8897 153e c68b ff3d 62dd fabd
00000110: 0944 c43d 6a8b 14be ae52 d33c b298 203e
00000120: 616a 783c 018a 8b3d 5f65 223e 0537 87bd
00000130: fb78 033e 1b54 d23c 0652 26bd 9a07 21be
00000140: b18b 2b3e 3328 303e fa6d 9bbd 1ff8 2b3d
00000150: 8a43 3abe 6ea8 f63c 97a6 cb3d 094e 8d3c
00000160: e30e bcbd 4b97 213e aa00 c6bd 53b6 ab3c
00000170: 11ef 27be 3bdf 993d 2484 f53d 2aab 063d
00000180: 1ad1 0a3e 4a7d 34be f6af d4bd 00e4 413d
00000190: 0fec b43d 3dba 32bd 202a 483d a06c 2dbe
000001a0: 7440 2d3e a14e 0cbe ebc2 25be 6c1a 04be
000001b0: afac 303e 9259 2f3d 3aca 6abc e9f2 0d3d
000001c0: 6fa2 ffba 1bd4 fabd d8aa df3d 5412 16be
000001d0: ccf5 2fbd 4286 8e3c 40db ddbd 7d9c 2a3d
000001e0: 683f 22be 5a24 a8bd c848 1a3e 60ee 513d
000001f0: e9ac 11be 6c32 273e eca8 3fbd f9e1 fe3c
00000200: 4c99 20bd 22fc cebd 16d8 fc3c 4cd1 20bd
00000210: 048a bebd 8121 c33d fa3b ab3d 8e8a e93d
00000220: 70ae dcbc 7d7c eebc d692 173c 0d31 1c3e
00000230: 7677 1ebe a3dc 28bc ac08 793c a172 ab3d
00000240: 93af 2ebe 00b8 3fbe 9091 dfbb 0106 5e3d
00000250: 1bd5 96bd 6728 093e 528d 093d 4843 78bd
00000260: e074 7fbd 8d36 11be 723b be3d 0dda 07bd
00000270: 37b2 b53d 9d18 3cbe 9922 023e 178e 603d
00000280: 8999 e2bd 0117 c2bd 12aa fc3d cee9 a43d
00000290: dca8 ac3d 4058 1e3d 73e9 b0bd 3618 eabd
000002a0: 1bee 4bbd 855f 48bd a69f dcbc 9c68 23bd
000002b0: f041 10be 9c6f 21be 3560 fcbd e23d b73d
000002c0: 5181 e3bd 4d4a 0abe 92b2 9abd 127e 613d
000002d0: 689e 5bbd f2f8 553a 180b b83c 342b 00be
000002e0: 5331 4ebd 266d 49bd 721d 3cbc 95e3 ddbd
000002f0: 26bf 11bd 98ee 7c3c a594 623d d673 eabd
00000300: 072b 203e 2247 3f3d d4e8 0fbe 4c84 273e
00000310: 03a8 e7bd 6314 7bbb 0660 083e 72f9 12bd
00000320: b17b 383d c7c9 ab3d 1928 6cbd a4fb a03c
00000330: f05a 093e bf90 103a 60bd 22bd 60f3 073e
00000340: c615 143d cdb6 e5bd 4848 b53d 0fba 0f3e
00000350: 3c8f 693c b43b 153e 69e1 debd e870 2c3e
00000360: 03c4 cb3d de7d 34b7 5d8b 21be 13be 2c3e
00000370: 2910 83bb 22af ab3d 7296 bebd 14d1 753d
00000380: a172 dfbc 18e2 3a3d ffbf 8c3d d478 efbd
00000390: c315 02be fe50 ffbb a99d 3abd 2c44 f13d
000003a0: 00e4 95bd 6321 233d 5e43 24be 77eb af3d
000003b0: ab12 dc3d a480 d83c ac04 b83c 5c19 db3c
000003c0: 1306 f9bb 9b21 1abd e44b 053e 13f1 5fbd
000003d0: ebfb c4bc 66e8 8abc f934 d6bd e3b0 0cbe
000003e0: f4cf d3bd 893a 30bd 7f6c 0cbe 6716 6c3d
000003f0: 7c17 0abe 503f 2ebd e665 9abd 3bf6 adbd

egnn.layers.0.message_mlp.0.bias f4 [32]
-0.034217495 -0.01697716 0.050257016 -0.15540235 0.058276843 -0.1505643 -0.036197715 -0.14342494
-0.14943013 -0.09294985 0.1257333 -0.16021094 0.07679998 -0.014943969 -0.14237826 0.047113974
-0.0944342 -0.102449544 0.035942957 -0.1252334 0.009372837 0.05982036 0.04999905 0.09381731
-0.14387432 0.057271935 0.10663611 -0.16130759 0.06492537 0.012731014 0.062433936 -0.16721343
00000000: a527 0cbd af13 8bbc 4dda 4d3d cb21 1fbe
00000010: b3b3 6e3d 872d 1abe 0e44 14bd fddd 12be
00000020: 3604 19be 7e5c bebd 3bc0 003e 560e 24be
00000030: 4f49 9d3d 8dd7 74bc 9bcb 11be 95fa 403d
00000040: b866 c1bd 11d1 d1bd ec38 133d 2f3d 00be
00000050: 8790 193c 3206 753d cecb 4c3d 4a23 c03d
00000060: ca53 13be fa95 6a3d 0864 da3d d12d 25be
00000070: 98f7 843d be95 503c baba 7f3d ff39 2bbe

egnn.layers.0.message_mlp.2.weight f4 [32, 32]
0.11278553 -0.15784268 0.08435861 0.15940975 -0.03333002 0.08367476 -0.02537337 0.101016454
-0.16138892 0.0022853601 0.18860106 -0.041891735 -0.139588 -0.13895082 0.037818752 0.15638547
-0.172898 0.114000455 -0.13494946 0.07443982 0.038721155 0.05895111 -0.15165524 0.16692702
0.038013842 -0.010443671 -0.13320412 0.1076027 0.16524409 0.06675193 -0.022184586 -0.039313912
-0.17992185 0.115499705 -0.025558688 -0.15790641 0.00040948042 0.032677528 0.11280727 0.055345945
-0.117853306 -0.048783794 -0.17049003 0.07951596 0.08082946 -0.10646862 0.043593846 0.11793366
0.15935963 0.11934901 0.06814366 0.042673353 0.059542064 0.16193137 0.10695511 0.031357862
0.021547914 0.117382504 0.17584324 -0.117481135 -0.086891934 0.1956388 -0.073452026 -0.052965455
0.13984822 -0.067755505 0.18043447 -0.10215206 -0.078593105 0.010245028 0.008467179 0.16532993
-0.07418416 0.06905534 -0.022188101 -0.027178219 -0.15141167 0.16391772 -0.09692857 -0.037226215
-0.08226083 0.16418125 -0.072452046 -0.041392833 0.10612288 0.17317675 0.16688089 -0.10519359
-0.06503311 0.14617948 0.07214533 0.13677724 0.06075512 -0.12460778 -0.027001508 -0.0749967
-0.14446978 0.048266545 0.09373867 0.06484234 0.14037937 -0.07204608 0.059308354 -0.056315467
0.14976183 -0.013511522 0.12654161 0.13178833 -0.12234923 -0.042424686 0.15150821 -0.08622474
-0.04309859 0.14565831 0.14470525 0.118961014 0.016963461 0.11076335 -0.16434602 0.083748884
-0.030063717 -0.13089019 0.038756505 5.3931268e-05 0.06384865 -0.05870284 0.17833126 -0.18624996
0.17201753 -0.07669256 0.10616186 -0.02508773 -0.047815163 -0.13126205 -0.14403424 0.025399515
-0.103136696 -0.12153638 -0.1480799 0.1532876 0.04200487 0.01574645 -0.052909583 -0.15336058
0.09957808 0.14343195 0.032597907 0.04714119 0.0031820086 0.07002982 0.009160821 -0.11267714
-0.025396632 0.16134325 -0.10792535 0.1560041 -0.09987127 -0.037401292 0.11197202 -0.10783078
-0.04288622 -0.1347058 -0.02485987 0.11128239 -0.08784931 -0.04030234 0.005477263 0.101438
0.028736435 -0.023644526 -0.10908963 -0.13701208 0.17053945 -0.046017364 0.10967735 -0.016609993
-0.08580026 -0.06895024 -0.14002462 -0.034579188 0.011307978 -0.086475804 0.047952376 0.07921393
-0.11299927 -0.018744882 0.1269771 -0.16476904 0.093695365 -0.041393876 -0.045930542 -0.10913447
-0.012911718 0.05970953 -0.08415181 -0.056734916 0.09047768 -0.08508804 0.012569469 0.09721069
-0.0032582693 -0.049454976 -0.11455303 -0.04158279 -0.03473754 0.11280567 0.01593524 -0.14336647
-0.01208316 -0.10765364 0.18782151 -0.041425183 -0.16944584 -0.09854825 0.10013819 0.16790165
-0.112448946 -0.17422728 -0.0405285 -0.04893462 -0.08816252 0.11046695 0.015423331 0.13167936
0.12699677 0.012367516 0.14285548 -0.046240244 0.060614396 -0.110512614 0.039103825 0.07276126
-0.17836326 0.14945886 0.123962805 -0.10784823 0.052683886 0.16686755 -0.06042768 0.0050403974
-0.019071864 -0.10169268 0.08758226 -0.07958125 0.05316408 0.03520614 0.08656255 0.16894196
0.05894886 -0.026415456 -0.056131452 0.14558691 0.11388965 0.15154767 -0.07794556 0.110337235
00000000: 1afc e63d 83a1 21be 35c4 ac3d 4f3c 233e
00000010: 0f85 08bd ac5d ab3d d0db cfbc b7e1 ce3d
00000020: 2343 25be fbc5 153b a320 413e ab96 2bbd
00000030: 28f0 0ebe 2049 0ebe d6e7 1a3d 8323 203e
00000040: 2c0c 31be 1279 e93d 3130 0abe e873 983d
00000050: 139a 1e3d b876 713d 834b 1bbe ebee 2a3e
00000060: 67b4 1b3d ee1b 2bbc a966 08be ce5e dc3d
00000070: bf35 293e 3cb5 883d 73bc b5bc a007 21bd
00000080: 6f3d 38be 1c8b ec3d 7460 d1bc 38b2 21be
00000090: 88af d639 dfd8 053d 7f07 e73d 6eb2 623d
000000a0: 135d f1bd 84d1 47bd f094 2ebe 43d9 a23d
000000b0: ea89 a53d 380c dabd 768f 323d 3487 f13d
000000c0: 2c2f 233e 416d f43d e78e 8b3d 41ca 2e3d
000000d0: 61e2 733d 56d1 253e 480b db3d 1a71 003d
000000e0: 4085 b03c 3d66 f03d 4010 343e f399 f0bd
000000f0: 66f4 b1bd 8a55 483e 046e 96bd 4ef2 58bd
00000100: 5f34 0f3e 66c3 8abd d0c3 383e 1935 d1bd
00000110: 6cf5 a0bd c3da 273c ecb9 0a3c 404c 293e
00000120: dded 97bd e36c 8d3d d2c3 b5bc dba4 debc
00000130: a90b 1bbe 0cda 273e 7c82 c6bd 847a 18bd
00000140: 5e78 a8bd 211f 283e bd61 94bd 888b 29bd
00000150: f456 d93d 3f55 313e d3e2 2a3e bd6f d7bd
00000160: 1430 85bd 13b0 153e eec0 933d 550f 0c3e
00000170: 5cda 783d 5d32 ffbd 4432 ddbc df97 99bd
00000180: e3ef 13be 24b3 453d 0ffa bf3d 10cc 843d
00000190: 9cbf 0f3e e58c 93bd 51ed 723d 0cab 66bd
000001a0: 2a5b 193e 6e5f 5dbc 2094 013e 85f3 063e
000001b0: 3c92 fabd 82c5 2dbd f824 1b3e 9996 b0bd
000001c0: 2688 30bd 7427 153e 9d2d 143e d5a1 f33d
000001d0: f5f6 8a3c e5d7 e23d 534a 28be 8984 ab3d
000001e0: 2f48 f6bc 1408 06be 24bf 1e3d 4234 6238
000001f0: 15c3 823d 6472 70bd 789c 363e 4fb8 3ebe
00000200: 5d25 303e fd10 9dbd 646b d93d c884 cdbc
00000210: d5d9 43bd 8f69 06be b67d 13be a512 d03c
00000220: 5539 d3bd 11e8 f8bd 42a2 17be 6df7 1c3e
00000230: 4c0d 2c3d b3fe 803c b8b7 58bd 8e0a 1dbe
00000240: 98ef cb3d d3df 123e 6285 053d 1f17 413d
00000250: 3f89 503b cb6b 8f3d 4517 163c 46c3 e6bd
00000260: 990c d0bc 2a37 253e f707 ddbd 8abf 1f3e
00000270: 4f89 ccbd 1932 19bd 9651 e53d 62d6 dcbd
00000280: 76a9 2fbd 51f0 09be eda6 cbbc 06e8 e33d
00000290: 57ea b3bd 1114 25bd 9d7a b33b babe cf3d
000002a0: ac68 eb3c 2ab2 c1bc 626a dfbd e54c 0cbe
000002b0: e5a1 2e3e b47c 3cbd 859e e03d ae11 88bc
000002c0: 0cb8 afbd c935 8dbd 9d62 0fbe e8a2 0dbd
000002d0: 1945 393c 3a1a b1bd b669 443d ea3a a23d
000002e0: 296c e7bd de8e 99bc 4906 023e 37b9 28be
000002f0: 5be3 bf3d a08c 29bd aa21 3cbd e581 dfbd
00000300: ac8b 53bc fb91 743d c957 acbd df62 68bd
00000310: 5d4c b93d a342 aebd 2df0 4d3c 6616 c73d
00000320: b088 55bb 4d91 4abd c79a eabd b752 2abd
00000330: f348 0ebd a906 e73d 9f8a 823c a9ce 12be
00000340: 72f8 45bc 8379 dcbd 4854 403e 74ad 29bd
00000350: 3683 2dbe aad3 c9bd 4015 cd3d 69ee 2b3e
00000360: a24b e6bd a368 32be 3601 26bd ab6f 48bd
00000370: 8d8e b4bd 7f3c e23d 24b2 7c3c f4d6 063e
00000380: 710b 023e 1fa1 4a3c b548 123e 6966 3dbd
00000390: cd46 783d 7054 e2bd 552b 203d db03 953d
000003a0: dca4 36be be0b 193e 36e0 fd3d 88df dcbd
000003b0: 0fcb 573d 54df 2a3e 0483 77bd eb29 a53b
000003c0: 993c 9cbc 4044 d0bd 545e b33d 7ffb a2bd
000003d0: 94c2 593d 5034 103d b547 b13d 1fff 2c3e
000003e0: 5c74 713d 3a65 d8bc 18ea 65bd bc14 153e
000003f0: fa3e e93d 502f 1b3e eca1 9fbd 7df8 e13d

egnn.layers.0.message_mlp.2.bias f4 [32]
0.0032684829 0.10866241 0.018826187 0.16384366 -0.023250585 -0.16308689 -0.1564552 -0.07590557
0.059902966 0.09885648 0.079208136 0.15254019 -0.17151743 0.072104305 -0.016494045 -0.13323684
0.0424887 0.16655031 0.048687838 0.10664297 0.097625956 -0.11671423 -0.17233905 -0.16284497
0.1504556 -0.12969272 -0.057303607 0.14759581 0.1555785 -0.12689216 0.07391362 -0.0047871703
00000000: 0b34 563b 668a de3d 6039 9a3c a2c6 273e
00000010: 0378 bebc 4000 27be cb35 20be 6174 9bbd
00000020: d05c 753d 4475 ca3d e037 a23d 7f33 1c3e
00000030: 44a2 2fbe 6cab 933d 851e 87bc 3d6f 08be
00000040: a208 2e3d 2a8c 2a3e e66c 473d a167 da3d
00000050: 1ef0 c73d df07 efbd a679 30be d5c0 26be
00000060: 0811 1a3e 2bce 04be 30b7 6abd 5b23 173e
00000070: f84f 1f3e 05f0 01be 0660 973d b2dd 9cbb

egnn.layers.0.coord_mlp.0.weight f4 [32, 32]
-0.040473282 -0.0021167463 0.0052731354 -0.16751327 -0.12105187 0.08419199 0.10955109 0.045680996
-0.1087401 -0.013322529 0.10859576 -0.108821146 0.12792005 0.066253975 -0.10735132 -0.16112782
0.077245876 0.045670558 -0.09498846 -0.13413084 0.035654396 0.079128034 -0.06818632 0.14552662
0.12436446 0.11242603 0.14675432 -0.11896547 0.14199154 -0.15122814 -0.0427894 -0.12814464
-0.04511013 -0.1534327 -0.15376009 -0.11178845 0.027568268 -0.111437656 0.017350174 0.02557705
-0.15144008 0.14227808 -0.05109347 0.12101685 -0.0030545671 0.11106659 0.012767001 -0.10941168
-0.16078484 -0.12750016 -0.10061941 -0.119675584 0.17047828 -0.11950293 0.014020817 -0.12085628
0.13115034 -0.0073272903 -0.077369705 0.01408477 -0.09378187 0.08742945 -0.00530198 -0.12084079
-0.046552405 -0.0029855962 -0.01768257 -0.070949875 0.033954944 0.17879517 -0.09525305 -0.08168973
0.0063809906 0.124292 -0.08622713 -0.13395199 0.17038392 0.06574405 0.07433068 -0.041604258
0.15026064 0.0015113063 0.05904076 0.16230693 -0.11872024 -0.11558171 0.11509922 0.099573866
-0.00033956493 -0.07341933 0.15698677 -0.15060961 -0.02613565 -0.14936882 0.13371201 0.03424013
-0.053337 -0.122062236 -0.040372185 -0.14345187 0.15902117 -0.08860912 -0.00089673925 0.013383914
0.1027137 -0.0184129 0.026753698 -0.013488983 0.010330062 0.09566914 0.11812643 -0.010069362
0.048023496 -0.043363743 0.07049185 0.006801921 -0.014834259 0.01214594 0.13987865 0.11955121
-0.03584732 0.12402736 0.0074408995 -0.07446629 -0.08558408 0.104280576 -0.06475524 -0.020331243
-0.084136315 -0.109026745 0.11909515 0.14793554 -0.15541984 0.010492012 0.14245719 0.11466685
0.049536802 0.06095633 -0.04562931 0.030435141 0.10389496 -0.09226722 -0.010625216 0.1801027
0.1197671 0.08549408 0.0325671 0.14520296 -0.032382216 -0.036953293 -0.07676385 0.08857358
-0.13567823 0.03386365 0.034466438 -0.111269414 0.08661743 -0.009648996 0.07710273 -0.06920362
0.043910444 0.13425966 0.024823992 -0.11195036 -0.041732118 -0.04962074 -0.009996072 -0.045273684
0.03500969 -0.07381434 0.030845337 -0.15075187 -0.04288449 0.081210576 0.0986975 -0.12898183
-0.10916492 0.015411175 0.023978667 -0.046692226 0.11508947 -0.09506017 -0.10485401 0.14167479
-0.09286813 -0.039877918 -0.13833135 0.090603314 -0.045802433 0.08863852 0.083115436 -0.1455225
-0.12469859 0.16159484 -0.1640434 -0.11861782 -0.14715302 0.13655286 -0.01013236 -0.16924067
-0.13330638 0.15003498 -0.088949 0.13077149 0.16310833 0.054068502 -0.083518006 0.17950521
0.16483428 0.13666934 -0.05727652 0.13013647 -0.105894595 0.09280067 0.0024623072 0.14692277
0.038593683 0.08345493 -0.1166448 0.11650517 -0.0092477845 -0.0115662655 0.026999474 -0.05609473
-0.16608854 -0.16145357 0.04372834 -0.0706864 -0.122589804 0.1418668 0.18411964 -0.18762968
-0.117706835 -0.106089786 0.056669902 0.090102874 -0.08854666 -0.10307405 0.114126965 -0.102716215
-0.083312996 0.17064083 0.0022386904 -0.07182808 0.09206132 -0.15237346 0.16832131 -0.097653694
0.02368615 -0.10076042 0.12763193 0.011523348 -0.15659034 -0.10324609 0.11150949 -0.05971574
00000000: 50c7 25bd 1cb9 0abb 44ca ac3b 9988 2bbe
00000010: 0bea f7bd da6c ac3d 525c e03d ff1b 3b3d
00000020: 21b3 debd bd46 5abc 7467 de3d 9fdd debd
00000030: 79fd 023e 2ab0 873d 02db dbbd b1fe 24be
00000040: 1633 9e3d 0d11 3b3d 4f89 c2bd 9859 09be
00000050: 580a 123d e10d a23d 45a5 8bbd ee04 153e
00000060: cbb2 fe3d 9e3f e63d c446 163e 2ba4 f3bd
00000070: 3b66 113e 8ddb 1abe f043 2fbd 5938 03be
00000080: 66c5 38bd 761d 1dbe 4973 1dbe 58f1 e4bd
00000090: d9d6 e13c 6d39 e4bd f421 8e3c f686 d13c
000000a0: 1c13 1bbe 58b1 113e 6347 51bd afd7 f73d
000000b0: 222f 48bb e176 e33d af2c 513c 3b13 e0bd
000000c0: c8a4 24be 678f 02be 8d11 cebd 7918 f5bd
000000d0: dc91 2e3e f4bd f4bd 92b7 653c 7f83 f7bd
000000e0: 464c 063e c419 f0bb 0274 9ebd cfc3 663c
000000f0: b610 c0bd 360e b33d 3bbc adbb 607b f7bd
00000100: bcad 3ebd fea9 43bb 09db 90bc 2b4e 91bd
00000110: 5714 0b3d 1516 373e 0814 c3bd f24c a7bd
00000120: a117 d13b ce8c fe3d d997 b0bd b62a 09be
00000130: 1f79 2e3e d1a4 863d af3a 983d 3a69 2abd
00000140: eddd 193e 0617 c63a b9d4 713d ca33 263e
00000150: 9923 f3bd 1bb6 ecbd 24b9 eb3d 62ed cb3d
00000160: a207 b2b9 e05c 96bd 24c1 203e 6839 1abe
00000170: 6e1a d6bc 24f4 18be cdeb 083e 613f 0c3d
00000180: e677 5abd c4fb f9bd 4e5d 25bd 0ce5 12be
00000190: 72d6 223e b378 b5bd 2713 6bba 3448 5b3c
000001a0: 8f5b d23d a6d6 96bc 922a db3c e500 5dbc
000001b0: 6c3f 293c 2fee c33d 45ec f13d f7f9 24bc
000001c0: 49b4 443d 2e9e 31bd 085e 903d a6e2 de3b
000001d0: 640b 73bc c4ff 463c 593c 0f3e 44d7 f43d
000001e0: a4d4 12bd 0e02 fe3d cad2 f33b c881 98bd
000001f0: b546 afbd 0e91 d53d 659e 84bd b58d a6bc
00000200: a94f acbd 6a49 dfbd 28e8 f33d 6a7c 173e
00000210: 6126 1fbe b0e6 2b3c 4ce0 113e 74d6 ea3d
00000220: 1ae7 4a3d 58ad 793d cde5 3abd 1e53 f93c
00000230: e1c6 d43d 99f6 bcbd 6315 2ebc d86c 383e
00000240: 7448 f53d 8517 af3d 1465 053d 16b0 143e
00000250: 37a3 04bd 565c 17bd 5e36 9dbd 1166 b53d
00000260: 3cef 0abe 9cb4 0a3d ae2c 0d3d 38e1 e3bd
00000270: 7b64 b13d d316 1ebc 09e8 9d3d a1ba 8dbd
00000280: 70db 333d 5d7b 093e af5b cb3c 3b46 e5bd
00000290: 4cef 2abd 1e3f 4bbd 91c6 23bc e670 39bd
000002a0: 5266 0f3d f92b 97bd 5caf fc3c b35e 1abe
000002b0: a6a7 2fbd bb51 a63d ea21 ca3d d013 04be
000002c0: dc91 dfbd 277f 7c3c e96e c43c 5940 3fbd
000002d0: 07b4 eb3d e8ae c2bd b3bd d6bd 3213 113e
000002e0: a531 bebd 0757 23bd bca6 0dbe 3b8e b93d
000002f0: 559b 3bbd 1d88 b53d 6d38 aa3d da03 15be
00000300: f961 ffbd 1e79 253e fefa 27be e6ed f2bd
00000310: 48af 16be 83d4 0b3e 3302 26bc 6d4d 2dbe
00000320: 7881 08be c5a2 193e e52a b6bd f6e8 053e
00000330: df05 273e ef76 5d3d 7d0b abbd 37d0 373e
00000340: 51ca 283e 0cf3 0b3e c99a 6abd 7f42 053e
00000350: 44df d8bd 470e be3d a95e 213b ec72 163e
00000360: 6914 1e3d 6bea aa3d 78e3 eebd 439a ee3d
00000370: 0584 17bc 6f80 3dbc 002e dd3c 96c3 65bd
00000380: 1d13 2abe 1654 25be 7d1c 333d 08c4 90bd
00000390: 5d10 fbbd 8845 113e dc89 3c3e ff21 40be
000003a0: 4810 f1bd 9a45 d9bd b31e 683d db87 b83d
000003b0: f457 b5bd 7d18 d3bd 66bb e93d e15c d2bd
000003c0: 01a0 aabd 78bc 2e3e feb6 123b 9a1a 93bd
000003d0: a58a bc3d ca07 1cbe 6c5c 2c3e a9fe c7bd
000003e0: 7509 c23c 7b5b cebd f2b1 023e 6dcc 3c3c
000003f0: 3859 20be b072 d3bd 165f e43d 7e98 74bd

egnn.layers.0.coord_mlp.0.bias f4 [32]
-0.044429876 -0.0803833 -0.16309619 0.13130662 -0.11214724 0.1397476 0.019046746 -0.076674886
-0.103263676 -0.1367496 0.16286318 -0.05352194 0.027320076 -0.03155554 0.17037007 0.17271453
0.027594708 -0.09688051 0.04866225 -0.16696765 -0.16220969 0.014848189 0.0059797014 0.12326305
-0.079843 0.030800339 0.09346464 -0.16502823 0.06287252 -0.11977859 0.08486014 0.10284723
00000000: 1afc 35bd 00a0 a4bd b002 27be 3e75 063e
00000010: 74ad e5bd ff19 0f3e ec07 9c3c b907 9dbd
00000020: e87b d3bd 1608 0cbe 9bc5 263e d239 5bbd
00000030: 5ace df3c 6240 01bd 7e75 2e3e 14dc 303e
00000040: 4c0e e23c 4a69 c6bd 1152 473d 91f9 2abe
00000050: 4c1a 26be d245 733c 5ff1 c33b 5771 fc3d
00000060: ba84 a3bd fe50 fc3c 646a bf3d 29fd 28be
00000070: 4fc3 803d 7a4e f5bd 27cb ad3d 92a1 d23d

egnn.layers.0.coord_mlp.2.weight f4 [1, 32]
-0.0053852946 -0.0036306882 -0.009184202 -0.0019929204 -0.009689525 0.010967816 -0.017547173 -0.010275388
-0.01138767 -0.014228834 0.0071730395 0.0076998957 0.01571842 0.013764084 0.0039652265 0.0068225977
-0.014194798 -0.017689561 0.008721503 -0.008007358 -0.01776739 0.012533034 0.01501285 0.012997684
0.008171546 0.016235517 0.0019305899 -0.009242501 -0.017085062 -0.010594871 0.0042480812 0.0037615215
00000000: 2077 b0bb d7f0 6dbb 5679 16bc a89b 02bb
00000010: d0c0 1ebc 5bb2 333c 17bf 8fbc 1a5a 28bc
00000020: 5a93 3abc 0e20 69bc d10b eb3b 684f fc3b
00000030: eac3 803c c182 613c bbee 813b 1990 df3b
00000040: 4c91 68bc b3e9 90bc a3e4 0e3c 4b31 03bc
00000050: eb8c 91bc 5b57 4d3c 75f8 753c 3df4 543c
00000060: f3e1 053c 5900 853c d90b fd3a dc6d 17bc
00000070: f9f5 8bbc 1c96 2dbc 7d33 8b3b dc83 763b

egnn.layers.0.hidden_mlp.0.weight f4 [32, 48]
0.0583626 0.032196146 -0.10892496 -0.033503514 0.1258397 0.034619078 -0.12709044 -0.072694056
-0.06448137 0.020488765 -0.11757074 0.12014548 0.09109151 0.022958927 -0.12542349 0.0047224006
0.00018603956 -0.071326345 -0.11254962 -0.15443401 0.059455793 0.012799098 0.039464362 0.124116905
-0.052053276 -0.12522352 -0.12127342 -0.13836366 0.069344334 -0.072522834 0.09260694 -0.070841715
0.0016171454 0.059985373 0.05301537 0.13407452 0.011768899 -0.061959885 0.016742667 -0.042239565
0.108876616 -0.041562848 -0.097848296 -0.03968259 -0.067041054 0.12079231 -0.07519439 -0.050374433
-0.06633475 0.13900001 -0.112152256 0.11004814 -0.0551084 0.098113984 0.05292461 -0.08968355
-0.13247885 0.07737711 -0.084794275 -0.100628674 -0.07822497 -0.028358052 -0.060677454 0.090089425
0.0099695595 -0.08190154 -0.105020314 0.05451656 -0.03523798 -0.053142462 0.14799012 -0.109201506
0.07384852 -0.0602523 0.0070354906 0.04673958 -0.03628127 0.02430499 -0.06477831 -0.0408595
-0.008658928 0.09729402 0.025721394 -0.045978896 -0.049414653 -0.010345712 -0.060305245 -0.029817307
0.0907997 0.06455859 0.08720474 -0.09634682 0.09162605 0.018062925 0.111573026 -4.5727924e-05
-0.107091516 0.058942392 0.02321371 0.094953366 -0.05387209 -0.06753143 -0.12335435 0.10419654
-0.10606126 -0.044539284 0.13638327 -0.09618641 0.09756669 0.039418537 -0.124063455 0.091413625
-0.076276205 0.06475763 -0.09886515 -0.13554259 -0.05897662 -0.06754892 0.108584404 -0.02485182
0.14128305 0.0034003812 0.053123806 0.11437684 0.07463401 0.04651027 0.04058504 0.010611833
0.014251594 0.13449837 -0.08489905 0.09277193 0.05874744 -0.062367555 -0.09046871 -0.059966587
0.10975438 -0.13372879 0.029570494 0.12677248 -0.10911744 -0.14685918 -0.13480079 -0.083653994
0.08572822 0.10167695 -0.051163148 -0.11430534 0.065847784 -0.09027529 0.12961921 -0.00267437
0.06508096 0.016802281 -0.10645683 -0.09960737 0.066655815 -0.083756216 -0.090901956 0.072341986
0.13219893 -0.08032146 0.07879021 -0.025381844 -0.07160655 0.13728398 0.08911035 0.03773425
-0.08591101 -0.07121049 0.08637768 0.009941552 -0.13559966 -0.04605274 0.0109875435 0.05255117
-0.07053568 0.09968153 -0.116995215 0.10447326 -0.08564444 -0.11846571 0.107342154 -0.031377606
0.10690795 -0.13703085 0.05705143 0.064137176 0.07175326 -0.05412169 0.007884201 -0.015454654
-0.10767245 -0.059664212 -0.105055094 0.075410314 0.03228322 0.047486793 -0.14027365 0.05825974
-0.074899524 -0.10085191 -0.11079187 0.121022314 -0.0832545 0.0949181 -0.08154327 0.061886966
0.037543707 -0.11460096 -0.09287702 0.004525894 -0.028444432 0.11585787 -0.12488813 0.0440683
-0.019017007 -0.08030547 -0.1242882 -0.0057890755 0.025099738 -0.07274167 0.11353239 0.11500729
-0.12373996 -0.08439489 0.058790796 0.09280576 -0.0905069 0.09429292 -0.11260545 -0.074504994
0.032687735 0.065606445 0.020199759 -0.017324181 0.05189504 -0.09829162 0.056682218 0.14541711
-0.02429409 -0.0043330174 0.098810636 0.015683059 -0.028466346 0.11479604 -0.07833363 0.08933519
0.08292496 -0.11055878 -0.032605547 0.04854655 0.015149631 0.01858062 0.11633713 0.10235027
00000000: 9f0d 6f3d 1be0 033d 0d14 dfbd fb3a 09bd
00000010: 1fdc 003e bccc 0d3d ff23 02be 9fe0 94bd
00000020: cf0e 84bd 0ed8 a73c eec8 f0bd d50e f63d
00000030: 308e ba3d 5c14 bc3c 046f 00be 5ebe 9a3b
00000040: 9d13 4339 8c13 92bd 6a80 e6bd f323 1ebe
00000050: eb87 733d 4fb3 513c 62a5 213d 0131 fe3d
00000060: d135 55bd 983a 00be 335e f8bd 34af 0dbe
00000070: 6704 8e3d da86 94bd b5a8 bd3d 7615 91bd
00000080: 65f6 d33a 39b3 753d a526 593d d54a 093e
00000090: 57d2 403c a6c9 7dbd eb27 893c 6503 2dbd
000000a0: b4fa de3d ce3d 2abd b064 c8bd 368a 22bd
000000b0: d24c 89bd f561 f73d 84ff 99bd 6c55 4ebd
000000c0: 83da 87bd 0556 0e3e 15b0 e5bd eb60 e13d
000000d0: 58b9 61bd fcef c83d 7ac7 583d 02ac b7bd
000000e0: 89a8 07be e477 9e3d 9fa8 adbd 6816 cebd
000000f0: 6a34 a0bd 254f e8bc ec88 78bd ce80 b83d
00000100: 5d57 233c ffbb a7bd e414 d7bd c24c 5f3d
00000110: b355 10bd e9ab 59bd b98a 173e 0aa5 dfbd
00000120: e53d 973d 1ecb 76bd f989 e63b 0072 3f3d
00000130: ab9b 14bd 421b c73c 7eaa 84bd 4b5c 27bd
00000140: 2dde 0dbc 1642 c73d acb5 d23c 5e54 3cbd
00000150: 0567 4abd 1081 29bc a202 77bd 6d43 f4bc
00000160: 31f5 b93d 4b37 843d 6698 b23d 7b51 c5bd
00000170: 70a6 bb3d b3f8 933c 6680 e43d fccb 3fb8
00000180: cc52 dbbd 946d 713d ae2a be3c e976 c23d
00000190: fba8 5cbd eb4d 8abd 35a1 fcbd ff64 d53d
000001a0: a536 d9bd d36e 36bd 0ea8 0b3e 61fd c4bd
000001b0: 0bd1 c73d 5575 213d fb14 febd 1137 bb3d
000001c0: b336 9cbd a69f 843d d079 cabd adcb 0abe
000001d0: 7891 71bd 1757 8abd 8061 de3d 0b96 cbbc
000001e0: 81ac 103e eed8 5e3b 5998 593d 683e ea3d
000001f0: b7d9 983d 8e81 3e3d 803c 263d 41dd 2d3c
00000200: 857f 693c f1b9 093e 8edf adbd 36ff bd3d
00000210: 28a1 703d 1f75 7fbd a947 b9bd 869f 75bd
00000220: e8c6 e03d 33f0 08be d23d f23c a5d0 013e
00000230: f778 dfbd 4162 16be 3809 0abe c952 abbd
00000240: 4792 af3d 013c d03d 7390 51bd eb18 eabd
00000250: 34db 863d 40e2 b8bd e6ba 043e 7c44 2fbb
00000260: 2b49 853d f0a4 893c 0a06 dabd f3fe cbbd
00000270: d882 883d 6188 abbd ce2a babd 0928 943d
00000280: 285f 073e 947f a4bd c35c a13d 96ed cfbc
00000290: 74a6 92bd 2c94 0c3e 7d7f b63d 3b8f 1a3d
000002a0: 1df2 afbd ced6 91bd c8e6 b03d e4e1 223c
000002b0: a3da 0abe cca1 3cbd 1905 343c e53f 573d
000002c0: 0375 90bd d425 cc3d 309b efbd 14f6 d53d
000002d0: 5a66 afbd 269e f2bd 34d6 db3d ce85 00bd
000002e0: 8ef2 da3d d151 0cbe c3ae 693d 5a5a 833d
000002f0: 60f3 923d b5ae 5dbd bc2c 013c 8435 7dbc
00000300: 6083 dcbd 7662 74bd 2027 d7bd b970 9a3d
00000310: 693b 043d 8381 423d e5a3 0fbe c4a1 6e3d
00000320: ec64 99bd 728b cebd d9e6 e2bd 8cda f73d
00000330: 5681 aabd 6c64 c23d 2800 a7bd 307d 7d3d
00000340: 6ec7 193d e8b3 eabd 4f36 bebd f34d 943b
00000350: 4c04 e9bc e446 ed3d 59c5 ffbd f680 343d
00000360: 8ec9 9bbc 3277 a4bd d08a febd 49b2 bdbb
00000370: f79d cd3c 96f9 94bd ab83 e83d f188 eb3d
00000380: 606b fdbd 3ad7 acbd 9ece 703d f210 be3d
00000390: ae5b b9bd a51c c13d b09d e6bd 1396 98bd
000003a0: 93e3 053d ac5c 863d f779 a53c 71eb 8dbc
000003b0: e58f 543d 1e4d c9bd 9d2b 683d 39e8 143e
000003c0: 6604 c7bc fcfb 8dbb 3b5d ca3d c279 803c
000003d0: 4132 e9bc 301a eb3d 626d a0bd 5ef5 b63d
000003e0: 90d4 a93d a46c e2bd 658d 05bd bfd8 463d
000003f0: 2836 783c 6236 983c 2942 ee3d 059d d13d

egnn.layers.0.hidden_mlp.0.bias f4 [32]
0.06088173 -0.0075715096 0.030511837 -0.09089881 0.044006303 -0.0055462345 -0.06813751 -0.10945794
0.034002855 -0.08441802 0.027364431 -0.13693073 0.07160134 0.09049828 0.009786746 -0.0046314956
0.13430591 0.044130657 -0.09410528 -0.057971932 -0.052435454 -0.08737958 -0.10020904 -0.005715179
-0.11126806 -0.015900774 0.03594579 -0.07137917 -0.05716573 -0.1331626 0.047836397 0.03495729
00000000: 1f5f 793d 6d1a f8bb f6f3 f93c 2829 babd
00000010: f43f 343d 30bd b5bb ae8b 8bbd 7c2b e0bd
00000020: 9446 0b3d 5be3 acbd 5f2b e03c 9237 0cbe
00000030: b9a3 923d 2a57 b93d 9758 203c cdc3 97bb
00000040: 7d87 093e 59c2 343d 45ba c0bd fa73 6dbd
00000050: 8fc6 56bd 11f4 b2bd 663a cdbd 6546 bbbb
00000060: 82e0 e3bd 5742 82bc e53b 133d 3e2f 92bd
00000070: 9d26 6abd c75b 08be 19f0 433d 602f 0f3d

egnn.layers.0.hidden_mlp.2.weight f4 [16, 32]
-0.1353354 -0.10708127 -0.029811284 0.0022070543 0.010500256 0.1541387 -0.16070162 0.07310459
0.13580115 0.1610227 0.032705072 0.15767941 -0.092938125 -0.122855745 -0.04026714 -0.09143926
0.0832198 -0.047696467 0.08728361 -0.0646011 -0.07329717 -0.052771717 -0.019332035 -0.08330188
0.097920425 0.11202863 0.03315188 -0.17051749 0.14342149 -0.12956911 -0.120760694 0.08999978
-0.10204781 -0.13593827 -0.13414775 0.14955103 0.05006783 0.08645247 0.03469641 0.08015535
0.17795192 -0.027626203 -0.11317481 -0.037973687 -0.0641827 -0.16989751 -0.13706186 -0.060264893
0.03256061 0.090454824 0.11676633 -0.17456113 -0.014681327 -0.032826994 0.15107219 -0.045849584
0.18369167 0.042983964 0.02481726 0.078312516 0.13539843 -0.09226203 0.07372875 -0.0674812
0.045565803 0.10570559 -0.0794827 -0.045651883 0.16118476 -0.16647054 -0.02996748 0.14573342
0.038513515 -0.14478518 0.0073281066 -0.14342692 -0.06420803 0.035630174 0.096322805 -0.09827797
0.1506008 -0.12447584 -0.03550761 -0.1513677 -0.006340907 -0.003442341 0.075248376 -0.117652506
0.008840849 0.0564721 -0.11275221 0.15524814 -0.036956277 -0.17932998 -0.030910352 0.04180244
-0.089863405 -0.06741873 0.077022314 -0.033234395 0.064236656 0.012112239 -0.0049367235 0.14660007
-0.028917087 0.1417855 -0.061078254 0.11321199 0.092310436 -0.112799995 -0.04222628 -0.117881544
0.035301857 0.0064727413 -0.058406103 0.15235029 0.16814081 -0.12538145 -0.09607446 0.017598767
0.1104811 -0.10689417 -0.012593106 -0.03114358 -0.14030248 -0.011541985 -0.006353038 0.04401509
0.12541543 -0.009547625 0.12816542 -0.06292334 -0.11534756 0.0685072 0.12009058 -0.006264018
-0.12162805 -0.08359576 -0.0917073 0.042588 0.048042394 -0.15537874 -0.027217349 0.039522592
-0.07403219 0.1730948 0.14273307 -0.08597943 0.019665815 -0.029034534 -0.15361317 0.014402557
0.12361385 0.09908627 0.08608585 -0.059053037 -0.09915287 -0.15214966 -0.15564834 0.0077990135
0.12918505 0.040462304 -0.035967186 0.02224615 0.037598073 -0.07867188 0.110053435 0.07582186
-0.052767657 -0.011522894 -0.15761322 0.087583855 0.022765897 0.1350815 0.058300152 -0.15233693
-0.04183202 0.09976972 0.15170811 0.046250515 0.15509915 0.17510639 -0.059406575 0.03159199
0.1515275 -0.01959261 -0.09865083 -0.12946266 -0.069266975 -0.18700904 -0.07910902 0.08743008
0.13660714 0.022487888 -0.06623624 -0.10679406 -0.13593903 0.031086344 0.16413242 -0.111476585
0.1700927 -0.075874895 -0.11530899 0.09977719 -0.11027403 0.1627181 -0.15501869 0.10521569
0.16020387 -0.06202251 -0.10625594 -0.05837684 0.14488155 -0.12867524 0.14823768 0.15586498
-0.07842969 0.13586515 1.0451119e-05 0.032585546 -0.003812375 0.034377757 0.16530168 0.030068496
0.016897943 -0.102830105 0.12160305 -0.06022624 -0.14020912 -0.16876447 0.16391368 0.06900942
-0.07435273 -0.10885757 0.0053620967 -0.030193329 -0.00095290254 0.13988812 -0.088582024 0.03000153
0.09504026 0.13574134 0.03289647 -0.116629004 -0.034408476 -0.024449859 -0.04920642 -0.16570693
-0.008499075 0.15364067 -0.079796016 -0.07186123 -0.11699628 0.0387841 -0.10625883 0.01989528
00000000: 5d95 0abe 6d4d dbbd cb36 f4bc 3aa4 103b
00000010: 4409 2c3c 89d6 1d3e f78e 24be dcb7 953d
00000020: 750f 0b3e 22e3 243e c1f5 053d b676 213e
00000030: 5856 bebd cb9b fbbd 28ef 24bd 8244 bbbd
00000040: 246f aa3d 5f5d 43bd c0c1 b23d 954d 84bd
00000050: d41c 96bd 2827 58bd 375e 9ebc 2d9a aabd
00000060: 818a c83d 446f e53d 44ca 073d 239c 2ebe
00000070: 15dd 123e c4ad 04be 6251 f7bd ce51 b83d
00000080: 71fe d0bd 6733 0bbe 075e 09be e823 193e
00000090: ed13 4d3d fe0d b13d d31d 0e3d 7d28 a43d
000000a0: 0739 363e 5950 e2bc 32c8 e7bd 4c8a 1bbd
000000b0: 3872 83bd 9df9 2dbe f259 0cbe 52d8 76bd
000000c0: 465e 053d 6140 b93d 3023 ef3d 27c0 32be
000000d0: f389 70bc 9975 06bd abb2 1a3e c6cc 3bbd
000000e0: ab19 3c3e f40f 303d 914d cb3c 5062 a03d
000000f0: e3a5 0a3e e0f3 bcbd 19ff 963d 9533 8abd
00000100: 35a3 3a3d 2c7c d83d d3c7 a2bd 78fd 3abd
00000110: 9e0d 253e 4177 2abe 5c7e f5bc 243b 153e
00000120: 59c0 1d3d 9142 14be 9d20 f03b 82de 12be
00000130: 807f 83bd f2f0 113d e444 c53d f645 c9bd
00000140: 1937 1a3e 30ed febd 6d70 11bd 2200 1bbe
00000150: 62c7 cfbb e698 61bb d21b 9a3d ccf3 f0bd
00000160: 35d9 103c 4a4f 673d a1ea e6bd 5ef9 1e3e
00000170: 775f 17bd 47a2 37be b537 fdbc 0939 2b3d
00000180: 4e0a b8bd d512 8abd e0bd 9d3d ca20 08bd
00000190: 828e 833d 6a72 463c 3dc4 a1bb 541e 163e
000001a0: 87e3 ecbc 3830 113e 312d 7abd b0db e73d
000001b0: 410d bd3d af03 e7bd 77f5 2cbd e16b f1bd
000001c0: ae98 103d 4a19 d43b 3d3b 6fbd b701 1c3e
000001d0: 1b2d 2c3e ff63 00be b0c2 c4bd 4a2b 903c
000001e0: ea43 e23d 55eb dabd 5153 4ebc d220 ffbc
000001f0: 74ab 0fbe 981a 3dbc 252d d0bb 2b49 343d
00000200: e76c 003e a46d 1cbc cc3d 033e f4dd 80bd
00000210: 573b ecbd 814d 8c3d 0df2 f53d 6442 cdbb
00000220: 2118 f9bd 4134 abbd 09d1 bbbd c170 2e3d
00000230: 1ac8 443d 9b1b 1fbe ebf6 debc 71e2 213d
00000240: 309e 97bd c33f 313e 9e28 123e fc15 b0bd
00000250: 341a a13c d5d9 edbc c54c 1dbe b4f8 6b3c
00000260: 4229 fd3d beed ca3d c74d b03d 99e1 71bd
00000270: a910 cbbd 1fcd 1bbe 4762 1fbe de8e ff3b
00000280: 1649 043e cdbb 253d 5452 13bd 8f3d b63c
00000290: 7000 1a3d b91e a1bd b263 e13d 7e48 9b3d
000002a0: e622 58bd 85ca 3cbc 5c65 21be 2a5f b33d
000002b0: 8c7f ba3c ce52 0a3e 24cc 6e3d 36fe 1bbe
000002c0: 0d58 2bbd 1154 cc3d 5f59 1b3e 2e71 3d3d
000002d0: 50d2 1e3e 174f 333e 4f54 73bd 9a66 013d
000002e0: 062a 1b3e ae80 a0bc 7209 cabd dc91 04be
000002f0: d8db 8dbd 4c7f 3fbe e903 a2bd 8b0e b33d
00000300: bee2 0b3e 8538 b83c dea6 87bd d8b6 dabd
00000310: 9a33 0bbe caa8 fe3c 5412 283e d64d e4bd
00000320: c82c 2e3e 4c64 9bbd 1f27 ecbd fc57 cc3d
00000330: 5ad7 e1bd 939f 263e 38bd 1ebe 537b d73d
00000340: 7c0c 243e 510b 7ebd b79c d9bd 8e1c 6fbd
00000350: d45b 143e 71c3 03be 9ecb 173e 129b 1f3e
00000360: bf9f a0bd 3c20 0b3e 3757 2f37 6c78 053d
00000370: 0ad9 79bb b1cf 0c3d d844 293e 3552 f63c
00000380: 8e6d 8a3c 9798 d2bd 050b f93d caaf 76bd
00000390: fb92 0fbe 98d0 2cbe fdd8 273e d054 8d3d
000003a0: 3e46 98bd b8f0 debd 87b4 af3b 0058 f7bc
000003b0: 35cc 79ba d53e 0f3e 7e6a b5bd c5c5 f53c
000003c0: 78a4 c23d c7ff 0a3e 73be 063d 30db eebd
000003d0: e7ef 0cbd 124b c8bc ac8c 49bd 14af 29be
000003e0: b43f 0bbc fb53 1d3e 186c a3bd fb2b 93bd
000003f0: bf9b efbd 14dc 1e3d 3b9e d9bd 6dfb a23c

egnn.layers.0.hidden_mlp.2.bias f4 [16]
0.0009263464 -0.08927349 0.09419303 -2.5272575e-06 -0.068110004 0.03910062 -0.079065785 -1.9585057e-05
-0.06416899 5.712345e-05 0.00082142075 0.08447342 -0.021037867 0.048632562 1.2418477e-05 0.054127716
00000000: 0ed6 723a 05d5 b6bd 46e8 c03d f499 29b6
00000010: 427d 8bbd f927 203d 3eed a1bd 974a a4b7
00000020: 086b 83bd d697 6f38 9d54 573a 6700 ad3d
00000030: 9b57 acbc f032 473d f458 5037 06b5 5d3d
