2-egnca-rework/logs/line4-2024-10-05@23-20-03/best@124.pt (torch, 26116 bytes, 11 tensors)

egnn.layers.0.message_mlp.0.weight f4 [32, 33]
0.060192652 0.09671959 -0.007555873 0.09691149 -0.051485777 0.028787931 -0.043271884 -0.013213322
-0.03857223 0.028606936 0.13368094 0.13869248 -0.029405434 -0.06014589 -0.025931051 0.14908251
0.1452483 -0.048142 -0.05898694 -0.043340337 0.12141521 0.14075732 -0.12363764 -0.060824614
-0.15483478 0.17174952 0.02788751 0.053010367 0.0938265 0.040997475 -0.03572573 -0.16888109
0.04457533 -0.031284038 -0.17156471 -0.02335646 -0.09505945 -0.0969857 -0.1268237 -0.14670701
-0.012041328 0.020750962 -0.15612888 -0.1608262 0.0017618085 -0.16220379 0.08440312 -0.04396187
-0.0247418 -0.16062275 -0.12492285 0.06409722 -0.09550649 -0.069677964 -0.15595596 -0.001900621
-0.108537175 0.046589565 0.05536361 0.037987422 0.061429836 -0.122360595 0.017474165 -0.15323214
-0.121166155 0.14360878 0.12432314 -0.12377868 0.09647888 -0.14196195 0.02532939 0.15758003
0.013130726 0.06824569 0.15713678 -0.06610202 0.12900141 0.02560571 -0.039234202 -0.15630811
0.16760729 0.17279299 -0.07449001 0.040459797 -0.1794837 0.03135179 0.097585715 0.01871838
-0.09543206 0.15904115 -0.09673093 0.02219449 -0.16213194 0.07360664 0.11941443 0.034506615
0.1338904 -0.17511263 -0.1016063 0.046718005 0.08783561 -0.04269498 0.049824607 -0.16971126
0.17011543 -0.13699871 -0.16133028 -0.12942119 0.17285217 0.04379346 -0.014402993 0.035427578
-0.0010914637 -0.12245834 0.11026477 -0.14498983 -0.04350313 0.018909097 -0.10648792 0.041078974
-0.15729861 -0.083799876 0.15143612 0.051243335 -0.14180532 0.16444823 -0.04716982 0.031643923
-0.037915714 -0.101552725 0.03168237 -0.037663214 -0.09277183 0.09550263 0.08406658 0.113625824
-0.02703113 -0.029012615 0.01011023 0.15283401 -0.15439531 -0.010235255 0.015509923 0.08351653
-0.17098962 -0.18730967 -0.007116468 0.054350387 -0.073570296 0.1340126 0.032287084 -0.0604858
-0.061951894 -0.14243855 0.09310379 -0.03374215 0.088706285 -0.18367831 0.12622082 0.055358298
-0.1102873 -0.09529576 0.124131925 0.08004139 0.08350626 0.038099017 -0.088641845 -0.11386454
-0.049041558 -0.04984827 -0.026466371 -0.04346461 -0.14096318 -0.1596634 -0.12399789 0.089817435
-0.111537926 -0.13462752 -0.074745364 0.054813858 -0.052961554 0.0019029777 0.019192796 -0.12285192
-0.049638145 -0.051867384 -0.009833884 -0.113600396 -0.034240533 0.01487994 0.054742392 -0.112572104
0.1543241 0.045402154 -0.13873841 0.16193686 -0.11156033 -0.0013356741 0.13328941 -0.039944574
0.04452592 0.0824259 -0.058909602 0.019269373 0.1302728 -7.422947e-05 -0.0445324 0.13002622
0.03554802 -0.11297019 0.08696221 0.1404271 0.01360066 0.14575939 -0.10903178 0.16735716
0.10061974 -0.0040795556 -0.15917596 0.16919258 -0.0078042196 0.08426412 -0.09394001 0.058909457
-0.026522852 0.044238586 0.06558087 -0.11634637 -0.12860933 -0.007396039 -0.04476653 0.11648913
-0.07456283 0.0411756 -0.15958384 0.08522358 0.10863002 0.025973685 0.022989526 0.025713457
-0.00718774 -0.036476724 0.13013619 -0.053847834 -0.022641601 -0.016895825 -0.10326507 -0.13555771
-0.10428045 -0.035036515 -0.13355076 0.056575943 -0.12975232 -0.04560171 -0.07332272 -0.0855442
00000000: 928c 763d ec14 c63d 4297 f7bb 8879 c63d
00000010: c0e2 52bd abd4 eb3c dc3d 31bd b07c 58bc
00000020: eafd 1dbd 1859 ea3c a8e3 083e 6705 0e3e
00000030: aae3 f0bc 895b 76bd 5b6d d4bc 16a9 183e
00000040: f8bb 143e 8c30 45bd 4a9c 71bd a385 31bd
00000050: 8aa8 f83d b022 103e bb35 fdbd 3b23 79bd
00000060: 028d 1ebe 1bdf 2f3e 5974 e43c 6621 593d
00000070: 1c28 c03d f8ec 273d 2555 12bd 2aef 2cbe
00000080: 9f94 363d b123 00bd a9ae 2fbe 0c56 bfbc
00000090: 87ae c2bd 70a0 c6bd 12de 01be 5d3a 16be
000000a0: fd48 45bc ecfd a93c 40e0 1fbe a0af 24be
000000b0: 7cec e63a c018 26be 8bdb ac3d 5d11 34bd
000000c0: 51af cabc 4a7a 24be 8dd7 ffbd 6745 833d
000000d0: e898 c3bd 52b3 8ebd ebb2 1fbe 421e f9ba
000000e0: bd48 debd b3d4 3e3d f4c4 623d b398 1b3d
000000f0: da9d 7b3d 3198 fabd fb25 8f3c e3e8 1cbe
00000100: f625 f8bd 2e0e 133e 219d fe3d ad7f fdbd
00000110: b896 c53d 795e 11be 957f cf3c a95c 213e
00000120: 4222 573c 65c4 8b3d 77e8 203e 7f60 87bd
00000130: f218 043e 11c3 d13c 0bb4 20bd 3c0f 20be
00000140: 3fa1 2b3e a5f0 303e 388e 98bd 2cb9 253d
00000150: 93ca 37be bc6a 003d 05db c73d 4a57 993c
00000160: e271 c3bd afdb 223e de1a c6bd 38d1 b53c
00000170: ea05 26be 14bf 963d 8d8f f43d cf56 0d3d
00000180: 911a 093e ba50 33be f716 d0bd 615b 3f3d
00000190: 28e3 b33d eee0 2ebd e314 4c3d cac8 2dbe
000001a0: bd32 2e3e 6449 0cbe c433 25be fd86 04be
000001b0: 2900 313e c560 333d 88fa 6bbc 821c 113d
000001c0: 720f 8fba 70cb fabd 7fd2 e13d 3778 14be
000001d0: 5730 32bd 40e7 9a3c 5716 dabd 6d42 283d
000001e0: e312 21be 459f abbd 1212 1b3e 88e4 513d
000001f0: 6a35 11be 1e65 283e 2435 41bd 0f9d 013d
00000200: 824d 1bbd e0fa cfbd 5fc5 013d be44 1abd
00000210: 28ff bdbd e296 c33d 192b ac3d a8b4 e83d
00000220: 6370 ddbc ddab edbc 61a5 253c 8580 1c3e
00000230: ce19 1ebe c5b1 27bc 551d 7e3c b70a ab3d
00000240: e717 2fbe 1bce 3fbe 4331 e9bb 839e 5e3d
00000250: 06ac 96bd 993a 093e 763f 043d f5bf 77bd
00000260: 45c1 7dbd 69db 11be 33ad be3d 3535 0abd
00000270: a4ab b53d 2b16 3cbe 0840 013e 62bf 623d
00000280: 4fde e1bd 6c2a c3bd e138 fe3d beec a33d
00000290: 5405 ab3d b70d 1c3d db89 b5bd d031 e9bd
000002a0: cddf 48bd b32d 4cbd 01d0 d8bc f207 32bd
000002b0: a758 10be cd7e 23be 9bf2 fdbd 34f2 b73d
000002c0: ff6d e4bd ccdb 09be 1914 99bd 7f84 603d
000002d0: 37ee 58bd 566d f93a 363a 9d3c ca99 fbbd
000002e0: 5e51 4bbd e572 54bd 4d1e 21bc 53a7 e8bd
000002f0: cd3f 0cbd feca 733c 8f39 603d 348c e6bd
00000300: 2307 1e3e 9cf7 393d 7111 0ebe c7d2 253e
00000310: be79 e4bd c911 afba 057d 083e ec9c 23bd
00000320: d060 363d e9ce a83d 324b 71bd ceda 9d3c
00000330: 3c66 053e a5ab 9bb8 9b67 36bd 9825 053e
00000340: cd9a 113d ea5c e7bd 3e19 b23d 1fcc 0f3e
00000350: 4dd5 5e3c f341 153e 0e4c dfbd ad5f 2b3e
00000360: b911 ce3d cbad 85bb 06ff 22be d240 2d3e
00000370: 8aba ffbb ab92 ac3d 9f63 c0bd 0b4b 713d
00000380: 7446 d9bc 8533 353d 434f 863d 0147 eebd
00000390: 2ab2 03be 795a f2bb 1c5d 37bd da91 ee3d
000003a0: 66b4 98bd bfa7 283d f269 23be b389 ae3d
000003b0: 6a79 de3d c4c6 d43c 8854 bc3c 07a5 d23c
000003c0: 2287 ebbb 9e68 15bd 6c42 053e 8c8f 5cbd
000003d0: e17a b9bc 1d69 8abc a37c d3bd a4cf 0abe
000003e0: fd90 d5bd 7382 0fbd 88c1 08be 2dbc 673d
000003f0: cbdd 04be dcc8 3abd 392a 96bd cc31 afbd

egnn.layers.0.message_mlp.0.bias f4 [32]
-0.033428214 -0.017575461 0.051063333 -0.15494521 0.05882154 -0.15011561 -0.03614226 -0.1428011
-0.1499425 -0.09301689 0.12641363 -0.16045992 0.076740526 -0.014122448 -0.14312334 0.04782108
-0.09490569 -0.10198117 0.035500675 -0.12536432 0.009912511 0.060367648 0.050850105 0.094040744
-0.14310324 0.0578302 0.10596123 -0.16153635 0.068038665 0.011885908 0.061890878 -0.16763657
00000000: 06ec 08bd 6afa 8fbc c927 513d f5a9 1ebe
00000010: dbee 703d e8b7 19be e809 14bd 743a 12be
00000020: 878a 19be a47f bebd 9372 013e 9b4f 24be
00000030: 232a 9d3d d761 67bc ed8e 12be 09e0 433d
00000040: ea5d c2bd 81db d0bd 2869 113d 815f 00be
00000050: 1668 223c 1144 773d 3348 503d 6f98 c03d
00000060: a889 12be 5cdf 6c3d 3402 d93d c969 25be
00000070: db57 8b3d 1dbd 423c 4a81 7d3d eca8 2bbe

egnn.layers.0.message_mlp.2.weight f4 [32, 32]
0.112862796 -0.15695348 0.08202284 0.15979926 -0.035263732 0.0825396 -0.021006364 0.098625
-0.1613715 -0.00062803796 0.18739986 -0.043551452 -0.13979843 -0.13968095 0.038598742 0.15640403
-0.17210615 0.11339572 -0.13434294 0.07466827 0.036827825 0.05646953 -0.15242967 0.16793188
0.03881217 -0.0114997905 -0.13185999 0.10723049 0.16449176 0.07024174 -0.020850776 -0.041792482
-0.18134715 0.116977476 -0.026095685 -0.15645754 8.06986e-05 0.034043618 0.11096069 0.057490394
-0.11655895 -0.04628696 -0.17076561 0.08234483 0.08240788 -0.105006315 0.04352216 0.11797965
0.15869898 0.11963374 0.067731425 0.041297115 0.06171553 0.16187918 0.1092859 0.02938983
0.0209526 0.11747588 0.17551579 -0.11519526 -0.08606588 0.19376664 -0.07576763 -0.04729107
0.13956457 -0.06667666 0.17663012 -0.1016966 -0.08254122 0.008607673 0.014094459 0.16140711
-0.07363228 0.06706199 -0.024719702 -0.029211132 -0.1513542 0.16305648 -0.09530048 -0.037204042
-0.08120825 0.16304787 -0.071297444 -0.041125413 0.10255266 0.16717051 0.16515113 -0.10395093
-0.06377296 0.14406124 0.07490646 0.13690211 0.05971269 -0.11594934 -0.0250987 -0.078200474
-0.14506735 0.049477074 0.09368182 0.06630411 0.1387642 -0.07130717 0.06026764 -0.055654168
0.15010421 -0.01308572 0.12665275 0.1342249 -0.12206854 -0.042208068 0.15119761 -0.08579563
-0.042420194 0.14588949 0.14440487 0.11832483 0.018152887 0.11097603 -0.1602522 0.08267287
-0.029701125 -0.13073929 0.038711403 0.0016460718 0.065067485 -0.060061686 0.17577611 -0.18364869
0.17229825 -0.07649494 0.10403192 -0.024868816 -0.049229566 -0.13231882 -0.13966188 0.023198163
-0.103203155 -0.12386027 -0.1492386 0.15145922 0.041643985 0.015040068 -0.052124564 -0.1533481
0.10040648 0.14287356 0.03319217 0.047518272 0.0012902343 0.06816223 0.008295959 -0.11144182
-0.024629217 0.16038033 -0.10671222 0.15528984 -0.100634366 -0.034366425 0.11361501 -0.110029094
-0.04472629 -0.13304721 -0.023401689 0.11321522 -0.089999475 -0.037267204 0.00422774 0.10705839
0.029543115 -0.020812925 -0.107988745 -0.13118476 0.17130911 -0.045522813 0.10841149 -0.016376933
-0.0855823 -0.067963004 -0.14139314 -0.03538916 0.016528206 -0.086077265 0.049767587 0.077260256
-0.11333436 -0.017913576 0.12600283 -0.16135693 0.09685876 -0.044307243 -0.056137297 -0.10408239
-0.01296585 0.058063734 -0.08192461 -0.057056077 0.092931524 -0.08380875 0.009272885 0.09976771
-0.0033014477 -0.046490427 -0.11331571 -0.03984935 -0.034899797 0.11364235 0.015204546 -0.14337905
-0.012729426 -0.10692205 0.18713039 -0.041585375 -0.1674211 -0.09470996 0.10129539 0.16680059
-0.11309613 -0.17308576 -0.042106524 -0.04849534 -0.087295994 0.106446326 0.0141302245 0.13440718
0.12706834 0.014611481 0.14141794 -0.045545086 0.060255114 -0.11176598 0.04334093 0.0701141
-0.17834513 0.14629973 0.123084135 -0.11113556 0.05255718 0.16647471 -0.059747025 0.005015719
-0.018214542 -0.10224805 0.08817619 -0.07930971 0.051043153 0.034429826 0.08601351 0.16949546
0.059643306 -0.027147414 -0.055087145 0.14515491 0.112443276 0.15358652 -0.07536327 0.10704802
00000000: 9c24 e73d 6ab8 20be 97fb a73d 6ba2 233e
00000010: b470 10bd 860a a93d 8a15 acbc e7fb c93d
00000020: 923e 25be eaa2 24ba c0e5 3f3e 0263 32bd
00000030: 5227 0fbe 8608 0fbe b719 1e3d 6128 203e
00000040: 983c 30be 043c e83d 3291 09be aeeb 983d
00000050: c6d8 163d 984c 673d 8616 1cbe 56f6 2b3e
00000060: 83f9 1e3d 9e69 3cbc 4e06 07be a99b db3d
00000070: 8770 283e e7da 8f3d 3fcf aabc 982e 2bbd
00000080: 11b3 39be e391 ef3d 9ec6 d5bc 6836 20be
00000090: bb3c a938 5271 0b3d 5c3f e33d 0c7b 6b3d
000000a0: 75b6 eebd 6597 3dbd 2edd 2ebe 68a4 a83d
000000b0: 76c5 a83d 8d0d d7bd 4b44 323d 519f f13d
000000c0: fc81 223e 8902 f53d c6b6 8a3d 2a27 293d
000000d0: 6cc9 7c3d a8c3 253e 49d1 df3d f1c2 f03c
000000e0: c9a4 ab3c 3297 f03d 69ba 333e 7eeb ebbd
000000f0: 4f43 b0bd c36a 463e 0f2c 9bbd 48b4 41bd
00000100: 04ea 0e3e c68d 88bd 87de 343e 4f46 d0bd
00000110: 5f0b a9bd 3307 0d3c 72ec 663c e847 253e
00000120: 85cc 96bd cc57 893d f980 cabc 2f4c efbc
00000130: 98fc 1abe 47f8 263e e62c c3bd 4463 18bd
00000140: 8350 a6bd 05f6 263e 6504 92bd 1f73 28bd
00000150: 2107 d23d bf2e 2b3e 611d 293e 3ae4 d4bd
00000160: 669b 82bd ca84 133e 8f68 993d 1130 0c3e
00000170: 4b95 743d d976 edbd ca9b cdbc 9227 a0bd
00000180: 898c 14be 79a8 4a3d 41dc bf3d 73ca 873d
00000190: 3418 0e3e 7e09 92bd 33db 763d a0f5 63bd
000001a0: ebb4 193e 7d65 56bc 42b1 013e 4172 093e
000001b0: 12ff f9bd 5ee2 2cbd 8cd3 1a3e 9fb5 afbd
000001c0: ccc0 2dbd 0e64 153e dfde 133e 4a54 f23d
000001d0: 5db5 943c 6747 e33d 2719 24be 6550 a93d
000001e0: c64f f3bc 85e0 05be d98f 1e3d 01c1 d73a
000001f0: 1a42 853d 3e03 76bd a7fe 333e 670e 3cbe
00000200: f46e 303e 61a9 9cbd b00e d53d b0b9 cbbc
00000210: f1a4 49bd 967e 07be 8603 0fbe 130a be3c
00000220: 2d5c d3bd 74aa fdbd 01d2 18be 2018 1b3e
00000230: e292 2a3d 9e6a 763c 9180 55bd 4907 1dbe
00000240: eaa1 cd3d 724d 123e 83f4 073d 85a2 423d
00000250: 141d a93a a498 8b3d c6eb 073c 9c3b e4bd
00000260: 36c3 c9bc be3a 243e f08b dabd 4d04 1f3e
00000270: 6419 cebd cfc3 0cbd fdae e83d ef56 e1bd
00000280: ea32 37bd 873d 08be e6b4 bfbc 62dd e73d
00000290: a551 b8bd 7fa5 18bd db88 8a3b 6e41 db3d
000002a0: 6704 f23c de7f aabc 3429 ddbd 4c55 06be
000002b0: a86b 2f3e 2176 3abd d806 de3d eb28 86bc
000002c0: c645 afbd 3030 8bbd 5dc9 10be 39f4 10bd
000002d0: 2966 873c 4749 b0bd 19d9 4b3d a03a 9e3d
000002e0: d81b e8bd 7ebf 92bc e306 013e c03a 25be
000002f0: e35d c63d 837b 35bd 39f0 65bd 2629 d5bd
00000300: b76e 54bc 3dd4 6d3d 17c8 a7bd a2b3 69bd
00000310: e252 be3d eca3 abbd 4ced 173c 0353 cc3d
00000320: 1a5d 58bb bf6c 3ebd 1112 e8bd 1239 23bd
00000330: 17f3 0ebd 52bd e83d 7d1c 793c f5d1 12be
00000340: 158f 50bc f3f9 dabd 1c9f 3f3e 6d55 2abd
00000350: 7070 2bbe 4cf7 c1bd f573 cf3d c6cd 2a3e
00000360: f29e e7bd 653d 31be e477 2cbd 0da3 46bd
00000370: 3ec8 b2bd 8800 da3d 7582 673c 09a2 093e
00000380: 341e 023e fe64 6f3c ddcf 103e 7c8d 3abd
00000390: 11ce 763d 90e5 e4bd 4286 313d fb97 8f3d
000003a0: 1ba0 36be 99cf 153e 8913 fc3d 0a9b e3bd
000003b0: 3346 573d 5978 2a3e 4cb9 74bd e75a a43b
000003c0: aa36 95bc 6d67 d1bd b895 b43d 216d a2bd
000003d0: a012 513d 4a06 0d3d da27 b03d 3890 2d3e
000003e0: 8a4c 743d 4164 debc 0fa3 61bd 7da3 143e
000003f0: a948 e63d c945 1d3e 0f58 9abd fe3b db3d

egnn.layers.0.message_mlp.2.bias f4 [32]
0.0038957633 0.10745677 0.019457236 0.16375196 -0.022628231 -0.16416653 -0.15714118 -0.07473533
0.05983521 0.098189935 0.07995769 0.1520548 -0.17246887 0.07178682 -0.016007217 -0.13401747
0.04223639 0.16732347 0.048106957 0.10682957 0.0981565 -0.117743954 -0.17283866 -0.1623475
0.15125623 -0.13079837 -0.057903007 0.14848788 0.15619592 -0.12799187 0.07329855 -0.0048823133
00000000: 1050 7f3b 4c12 dc3d c864 9f3c 98ae 273e
00000010: d75e b9bc 451b 28be 9ee9 20be d60e 99bd
00000020: c415 753d ce17 c93d dbc0 a33d 41b4 1b3e
00000030: ae9b 30be f804 933d 9121 83bc e03b 09be
00000040: 1100 2d3d d856 2b3e cd0b 453d 76c9 da3d
00000050: 4606 c93d be23 f1bd 9efc 30be 6c3e 26be
00000060: eae2 1a3e 02f0 05be b42b 6dbd 350d 183e
00000070: d3f1 1f3e 4d10 03be 8d1d 963d d0fb 9fbb

egnn.layers.0.coord_mlp.0.weight f4 [32, 32]
-0.039212435 -0.003120449 0.0074721333 -0.16884781 -0.12047196 0.08432232 0.10823909 0.050084062
-0.10893961 -0.01569494 0.110788405 -0.10995333 0.1272432 0.065914586 -0.10689399 -0.16188277
0.076131545 0.045207284 -0.09589278 -0.13523959 0.036335003 0.0782594 -0.06732335 0.14652833
0.12349908 0.111685075 0.14573766 -0.11682646 0.14168951 -0.1510073 -0.04368297 -0.12870808
-0.043975145 -0.15436621 -0.1519646 -0.11294261 0.028153542 -0.11130462 0.01634653 0.029034445
-0.1516934 0.14004491 -0.049163423 0.119930975 -0.0036023115 0.110722505 0.013238258 -0.10999881
-0.16185449 -0.12799273 -0.10145327 -0.120705746 0.1710009 -0.12018947 0.014848901 -0.1199269
0.13030355 -0.007939377 -0.07832445 0.01579484 -0.094037116 0.0876792 -0.006122283 -0.12146571
-0.04525259 -0.0040433337 -0.015357013 -0.07235818 0.0345706 0.17897768 -0.096649006 -0.077290624
0.0061617168 0.121931985 -0.08404072 -0.13509373 0.16975327 0.06539336 0.07480739 -0.042296093
0.14910291 0.0010130996 0.05811863 0.16123341 -0.118080474 -0.11650043 0.11604823 0.10058971
-0.0012700385 -0.074144065 0.15594442 -0.14834283 -0.026601275 -0.14896469 0.13279337 0.033691604
-0.052435458 -0.1227478 -0.038181834 -0.14452979 0.15924945 -0.088853784 -0.0023946275 0.017714983
0.10294363 -0.020070696 0.02835557 -0.014107441 0.009349778 0.09570167 0.11820726 -0.010998387
0.047361247 -0.04341708 0.06998337 0.006215361 -0.013904476 0.011103793 0.14039233 0.12011682
-0.036230505 0.123340964 0.006780136 -0.07232105 -0.086168654 0.10460076 -0.06526512 -0.020375354
-0.082825154 -0.11009961 0.12154654 0.14651765 -0.15485196 0.010611594 0.14097156 0.11954055
0.049381647 0.05855125 -0.043394905 0.0293114 0.10314117 -0.09259324 -0.0101843085 0.17934477
0.1186064 0.0850451 0.031640183 0.14412953 -0.03163161 -0.03794835 -0.075852185 0.089578025
-0.13659248 0.033056304 0.033407986 -0.108855136 0.08615253 -0.009245206 0.076191686 -0.06970994
0.042606153 0.13531846 0.022370085 -0.11054176 -0.042304736 -0.049756855 -0.008490248 -0.049939204
0.03517691 -0.07144297 0.028577676 -0.14965318 -0.042148713 0.08152879 0.098273374 -0.12825157
-0.10801274 0.015866024 0.024897007 -0.045634795 0.1143742 -0.09411899 -0.10577584 0.14069776
-0.09198003 -0.039092354 -0.13728067 0.08814284 -0.045306947 0.08820817 0.08403769 -0.14502573
-0.123426884 0.16057608 -0.16145973 -0.12009641 -0.14669469 0.1365689 -0.0118081905 -0.16391967
-0.13334149 0.14769737 -0.08678815 0.12974353 0.16215819 0.05385948 -0.08320468 0.17857091
0.1637367 0.1363481 -0.058145247 0.12913565 -0.10495285 0.09170264 0.003303847 0.14783949
0.037818655 0.082587615 -0.11764804 0.11909362 -0.009838232 -0.011136186 0.026162801 -0.05643553
-0.16487224 -0.16241372 0.04606625 -0.07200408 -0.122093044 0.14193761 0.1826503 -0.183215
-0.117805 -0.10830476 0.058795 0.089104384 -0.0893421 -0.103345424 0.11451545 -0.10349988
-0.08436968 0.17027175 0.0013917348 -0.07279034 0.092836045 -0.1533926 0.1691277 -0.09676038
0.022916751 -0.10165291 0.126648 0.0138543425 -0.15698774 -0.10299541 0.11068196 -0.06015635
00000000: 389d 20bd 7280 4cbb ccd8 f43b 71e6 2cbe
00000010: 01ba f6bd 2eb1 ac3d 75ac dd3d f224 4d3d
00000020: bb1b dfbd ad92 80bc 08e5 e23d 362f e1bd
00000030: 0b4c 023e 3afe 863d 3ceb dabd 99c4 25be
00000040: dbea 9b3d 462b 393d 6f63 c4bd 3f7c 0abe
00000050: 03d4 143d 7746 a03d d3e0 89bd 860b 163e
00000060: 16ed fc3d 25bb e43d 413c 153e b642 efbd
00000070: 0e17 113e a8a1 1abe eaec 32bd 0dcc 03be
00000080: 481f 34bd 2d12 1ebe 9c9c 1bbe 754e e7bd
00000090: 42a2 e63c adf3 e3bd 28e9 853c a5d9 ed3c
000000a0: 8455 1bbe ef67 0f3e 965f 49bd 5f9e f53d
000000b0: c214 6cbb 7bc2 e23d 47e5 583c 0e47 e1bd
000000c0: 2fbd 25be 8710 03be bbc6 cfbd 9334 f7bd
000000d0: dc1a 2f3e e625 f6bd ce48 733c 3c9c f5bd
000000e0: 4b6e 053e 2914 02bc 9268 a0bd 2e64 813c
000000f0: 8896 c0bd 2791 b33d 6f9d c8bb 04c3 f8bd
00000100: c85a 39bd f17d 84bb fb9b 7bbc 8730 94bd
00000110: e799 0d3d ed45 373e eaef c5bd 8c4a 9ebd
00000120: 3ae8 c93b 7ab7 f93d 8a1d acbd 0356 0abe
00000130: cdd3 2d3e f4ec 853d 9e34 993d ab3e 2dbd
00000140: 6fae 183e fbc9 843a cd0d 6e3d 5f1a 253e
00000150: 2dd4 f1bd c797 eebd b2aa ed3d fa01 ce3d
00000160: 6c77 a6ba d8d8 97bd e5af 1f3e 2fe7 17be
00000170: ebea d9bc 338a 18be fcfa 073e 3500 0a3d
00000180: 90c6 56bd 3363 fbbd 8e64 1cbd 9eff 13be
00000190: 4a12 233e f9f8 b5bd 2fef 1cbb 031f 913c
000001a0: 1cd4 d23d 4d6b a4bc f149 e83c e522 67bc
000001b0: d02f 193c 3dff c33d a616 f23d 9432 34bc
000001c0: defd 413d 1cd6 31bd 7153 8f3d 3aaa cb3b
000001d0: 99cf 63bc afec 353c 02c3 0f3e cfff f53d
000001e0: 7066 14bd 309a fc3d e72b de3b 0f1d 94bd
000001f0: 3179 b0bd ec38 d63d b8a9 85bd 37ea a6bc
00000200: 3ca0 a9bd e87b e1bd 64ed f83d b908 163e
00000210: 8391 1ebe 40dc 2d3c d95a 103e add1 f43d
00000220: 6944 4a3d 6fd3 6f3d dbbe 31bd 761e f03c
00000230: ae3b d33d 86a1 bdbd 16dc 26bc 28a6 373e
00000240: eae7 f23d 202c ae3d 2399 013d b196 133e
00000250: 2690 01bd bb6f 1bbd 6458 9bbd af74 b73d
00000260: e6de 0bbe 0c66 073d d0d6 083d 71ef debd
00000270: bd70 b03d 3479 17bc 630a 9c3d 16c4 8ebd
00000280: ca83 2e3d ec90 0a3e 7841 b73c b863 e2bd
00000290: bb47 2dbd d8cd 4bbd ae1a 0bbc 0d8d 4cbd
000002a0: aa15 103d b150 92bd bb1b ea3c af3e 19be
000002b0: 21a4 2cbd 91f8 a63d 8d43 c93d 6154 03be
000002c0: c935 ddbd 77f9 813c cff4 cb3c 8deb 3abd
000002d0: 053d ea3d 75c1 c0bd 01a1 d8bd 1313 103e
000002e0: 0760 bcbd 4e1f 20bd 4e93 0cbe 3c84 b43d
000002f0: c793 39bd 7ca6 b43d f41b ac3d a081 14be
00000300: 3cc7 fcbd 0e6e 243e b355 25be 1bf5 f5bd
00000310: 2237 16be b8d8 0b3e 2477 41bc 8fda 27be
00000320: ac8a 08be fb3d 173e fcbd b1bd 7ddb 043e
00000330: cc0c 263e c29b 5c3d 3767 aabd 4bdb 363e
00000340: 98aa 273e d69e 0b3e b629 6ebd 233c 043e
00000350: 85f1 d6bd 98ce bb3d 5b85 583b 3c63 173e
00000360: bce7 1a3d b223 a93d 75f1 f0bd 5be7 f33d
00000370: 8930 21bc 8d74 36bc 5f53 d63c f128 67bd
00000380: 45d4 28be c84f 26be f7af 3c3d e076 93bd
00000390: eb0b fabd 1858 113e ae08 3b3e b79c 3bbe
000003a0: bf43 f1bd e3ce ddbd 07d3 703d 5c7c b63d
000003b0: fef8 b6bd c4a6 d3bd 1487 ea3d bff7 d3bd
000003c0: 03ca acbd b85b 2e3e df6a b63a 1a13 95bd
000003d0: d320 be3d f312 1dbe d02f 2d3e 4e2a c6bd
000003e0: e9bb bb3c 672f d0bd 03b0 013e 53fd 623c
000003f0: 65c1 20be 42ef d2bd 39ad e23d 8166 76bd

egnn.layers.0.coord_mlp.0.bias f4 [32]
-0.04511201 -0.08105275 -0.16382459 0.13108046 -0.11284204 0.14043477 0.018463267 -0.07725863
-0.103939846 -0.13733123 0.16347468 -0.05308195 0.027964354 -0.03069314 0.17104103 0.17325997
0.02703617 -0.097468115 0.049169376 -0.16763528 -0.1627432 0.015340716 0.006543261 0.1238899
-0.07940704 0.03131403 0.09410858 -0.16574869 0.062366642 -0.12042014 0.08554125 0.10352996
00000000: 5fc7 38bd fcfe a5bd a2c1 27be f539 063e
00000010: ba19 e7bd 22ce 0f3e 4740 973c c639 9ebd
00000020: 6ade d4bd 8fa0 0cbe e865 273e 756c 59bd
00000030: 8015 e53c 2e70 fbbc 6125 2f3e 106b 313e
00000040: f57a dd3c 5d9d c7bd d465 493d 95a8 2bbe
00000050: 27a6 26be a057 7b3c da68 d63b fdb9 fd3d
00000060: 28a0 a2bd 2443 003d 00bc c03d 06ba 29be
00000070: 2a74 7f3d d69e f6bd 4030 af3d 8407 d43d

egnn.layers.0.coord_mlp.2.weight f4 [1, 32]
-0.0055707414 -0.004038186 -0.008964128 -0.0018566992 -0.009304668 0.010403516 -0.015419809 -0.010595734
-0.011136557 -0.013837794 0.0075793224 0.0071187946 0.014237767 0.010313272 0.004305168 0.007847054
-0.013036139 -0.017002312 0.00822507 -0.008020689 -0.016845565 0.01199396 0.014352184 0.012343586
0.0089384485 0.01567782 0.0025494138 -0.009043532 -0.016711209 -0.010265354 0.004604494 0.0042549237
00000000: c48a b6bb c252 84bb 47de 12bc 7d5c f3ba
00000010: 9b72 18bc 8273 2a3c 5ea3 7cbc bb99 2dbc
00000020: 1b76 36bc eab7 62bc f75b f83b c744 e93b
00000030: 8645 693c fff8 283c 5e12 8d3b ee90 003c
00000040: 8895 55bc 6f48 8bbc 72c2 063c 3569 03bc
00000050: b6ff 89bc 5082 443c 6c25 6b3c c13c 4a3c
00000060: 9272 123c c66e 803c 1114 273b 532b 14bc
00000070: f2e5 88bc 0430 28bc 4ce1 963b e36c 8b3b

egnn.layers.0.hidden_mlp.0.weight f4 [32, 48]
0.053438984 0.032537103 -0.10897411 -0.03571353 0.12617157 0.028970553 -0.12735796 -0.0744983
-0.067481175 0.020555021 -0.11860607 0.119126655 0.09200486 0.022340588 -0.124895245 0.005603102
-0.00038013537 -0.070673496 -0.1140179 -0.15334867 0.059219424 0.01320611 0.040355057 0.123389
-0.05141297 -0.12129161 -0.123077266 -0.13644557 0.0702642 -0.07265554 0.09296913 -0.07012111
0.0031532454 0.06196149 0.05327639 0.13414322 0.010908558 -0.061369527 0.016592598 -0.044230916
0.10976608 -0.041554965 -0.096225254 -0.04090082 -0.067517586 0.121366926 -0.07248939 -0.048192006
-0.066788584 0.13938451 -0.11217975 0.10974802 -0.05504647 0.09427075 0.05292674 -0.09087791
-0.13244909 0.07757106 -0.084983654 -0.10116817 -0.07803566 -0.02857169 -0.06067389 0.09047696
0.00992566 -0.08164094 -0.105246045 0.054887082 -0.035242718 -0.053233974 0.14810269 -0.109170906
0.07408691 -0.059786037 0.0068079927 0.047413107 -0.03614111 0.024239939 -0.06470021 -0.04074663
-0.007592175 0.09833053 0.025814485 -0.04675938 -0.04952732 -0.010380387 -0.0604106 -0.03015541
0.091182746 0.064534 0.087482736 -0.09651909 0.091402516 0.0180819 0.11226955 0.0007577947
-0.10982706 0.05873903 0.02279527 0.094824836 -0.054170147 -0.06983116 -0.1237827 0.10323853
-0.106640376 -0.044924654 0.13654427 -0.09558473 0.09732403 0.03944475 -0.12410384 0.09129675
-0.07607374 0.06594884 -0.09892034 -0.13461596 -0.058344457 -0.0677032 0.10849684 -0.025235647
0.14175084 0.0034947647 0.05327051 0.115488574 0.07490696 0.04602549 0.041521326 0.010210904
0.015020745 0.13426912 -0.085545875 0.09264478 0.058701836 -0.062371437 -0.09096151 -0.05989223
0.110227264 -0.13407396 0.029442245 0.12709895 -0.1084666 -0.14756957 -0.13538115 -0.08365044
0.087207906 0.09972744 -0.05144144 -0.112832054 0.064641714 -0.08346391 0.1289115 -0.0007204259
0.06561247 0.015456404 -0.10517492 -0.09689138 0.06524114 -0.082404114 -0.091948576 0.07035908
0.13362338 -0.079281814 0.08029689 -0.02433714 -0.07022047 0.13552251 0.08756965 0.039168518
-0.0850472 -0.073271155 0.088095926 0.010019292 -0.13700186 -0.047000308 0.012079049 0.050890982
-0.069537364 0.097894594 -0.11804823 0.102432445 -0.0840755 -0.11980175 0.10615913 -0.029455792
0.107688405 -0.1380472 0.05562753 0.0655999 0.0730225 -0.055533558 0.005893881 -0.01716727
-0.10617659 -0.060568232 -0.10502178 0.07631841 0.031605665 0.049500983 -0.140618 0.060999356
-0.07403186 -0.10139358 -0.1099735 0.121474706 -0.08402887 0.095756315 -0.08232964 0.061102577
0.038202763 -0.11455668 -0.09194202 0.0042913156 -0.028008938 0.115284316 -0.12569019 0.044791818
-0.018717641 -0.081569664 -0.12338866 -0.0076709855 0.024222616 -0.073261395 0.11377155 0.11446346
-0.1257237 -0.08696803 0.058202583 0.09355129 -0.08978637 0.09367819 -0.11296542 -0.07316835
0.032606497 0.06511149 0.019174175 -0.01658211 0.052804083 -0.098907724 0.05517163 0.14317612
-0.023954907 -0.00459293 0.09827363 0.016025933 -0.029063595 0.11584428 -0.078480795 0.09000534
0.08343845 -0.11087565 -0.032230776 0.048590288 0.014522104 0.018820565 0.11584813 0.101836644
00000000: d6e2 5a3d a045 053d d12d dfbd 5a48 12bd
00000010: 1f33 013e a753 ed3c 206a 02be 9192 98bd
00000020: 9233 8abd 0163 a83c bde7 f2bd adf8 f33d
00000030: 0b6d bc3d 9c03 b73c 14c9 ffbd 3a9a b73b
00000040: e84c c7b9 44bd 90bd 3782 e9bd 6f07 1dbe
00000050: 1190 723d 715e 583c 584b 253d 5fb3 fc3d
00000060: 6896 52bd bc67 f8bd ef0f fcbd 63b8 0bbe
00000070: ade6 8f3d 6ecc 94bd 9966 be3d a89b 8fbd
00000080: aea6 4e3b 55cb 7d3d 5838 5a3d d75c 093e
00000090: cfb9 323c 9d5e 7bbd 33ed 873c 7a2b 35bd
000000a0: 0acd e03d 8a35 2abd bf11 c5bd 9e87 27bd
000000b0: a946 8abd 398f f83d 5175 94bd fb64 45bd
000000c0: 74c8 88bd d0ba 0e3e 7fbe e5bd 92c3 e03d
000000d0: 6878 61bd 0611 c13d b6c9 583d 331e babd
000000e0: bca0 07be 93dd 9e3d e90b aebd 4231 cfbd
000000f0: 29d1 9fbd 2d0f eabc 2f85 78bd fc4b b93d
00000100: 3c9f 223c 5d33 a7bd 3d8b d7bd 47d1 603d
00000110: ab5a 10bd de0b 5abd 3ba8 173e ff94 dfbd
00000120: e1ba 973d 34e2 74bd 9515 df3b 3f34 423d
00000130: b308 14bd d692 c63c 8b81 84bd f0e5 26bd
00000140: c8c7 f8bb 8461 c93d e678 d33c c386 3fbd
00000150: 29dd 4abd 8012 2abc 1b71 77bd 7a08 f7bc
00000160: 05be ba3d 672a 843d 262a b33d cdab c5bd
00000170: 3e31 bb3d 7e20 943c 94ed e53d bea6 463a
00000180: 02ed e0bd 5698 703d 25bd ba3c 8633 c23d
00000190: 84e1 5dbd a403 8fbd c981 fdbd b96e d33d
000001a0: 4566 dabd ea02 38bd 43d2 0b3e edc1 c3bd
000001b0: d251 c73d d190 213d 272a febd caf9 ba3d
000001c0: 8dcc 9bbd 2f10 873d bf96 cabd c4d8 09be
000001d0: 99fa 6ebd faa7 8abd 9733 de3d fdba cebc
000001e0: 2227 113e 6c08 653b 2e32 5a3d 4685 ec3d
000001f0: d268 993d 3985 3c3d 4412 2a3d a34b 273c
00000200: 9219 763c d87d 093e ad32 afbd 8cbc bd3d
00000210: 5671 703d 3179 7fbd 074a babd 8e51 75bd
00000220: d5be e13d af4a 09be dd30 f13c 3a26 023e
00000230: bd23 debd 7a1c 17be 5ba1 0abe ec50 abbd
00000240: 0f9a b23d e63d cc3d 42b4 52bd 7e14 e7bd
00000250: e062 843d 20ef aabd 6001 043e f7da 3cba
00000260: d55f 863d db3c 7d3c f365 d7bd fd6e c6bd
00000270: 269d 853d 7dc3 a8bd 894f bcbd 6c18 903d
00000280: 91d4 083e 815e a2bd b272 a43d af5e c7bc
00000290: c0cf 8fbd 6ac6 0a3e b757 b33d 2b6f 203d
000002a0: 3a2d aebd 300f 96bd a36b b43d f527 243c
000002b0: 374a 0cbe 6583 40bd 34e7 453c 1073 503d
000002c0: 9b69 8ebd f67c c83d 45c3 f1bd 1ac8 d13d
000002d0: c72f acbd 9f5a f5bd f569 d93d 464d f1bc
000002e0: bd8b dc3d 3f5c 0dbe b1d9 633d 3e59 863d
000002f0: d28c 953d 2877 63bd 7521 c13b 60a2 8cbc
00000300: 1d73 d9bd 6516 78bd a915 d7bd d44c 9c3d
00000310: f174 013d 8bc1 4a3d 2afe 0fbe 76da 793d
00000320: 049e 97bd 70a7 cfbd c939 e1bd bbc7 f83d
00000330: 5417 acbd e31b c43d 719c a8bd b246 7a3d
00000340: 807a 1c3d b19c eabd 194c bcbd 2a9e 8c3b
00000350: 0073 e5bc 2f1a ec3d eeb4 00be a077 373d
00000360: bd55 99bc ff0d a7bd 32b3 fcbd e45c fbbb
00000370: 826e c63c 120a 96bd 0f01 e93d d26b ea3d
00000380: b7bd 00be 4b1c b2bd d565 6e3d d297 bf3d
00000390: ebe1 b7bd 5ada bf3d 6a5a e7bd 4ad9 95bd
000003a0: 648e 053d 2c59 853d 2913 9d3c 35d7 87bc
000003b0: 1849 583d 2290 cabd a6fb 613d c39c 123e
000003c0: 153d c4bc 4a80 96bb af43 c93d d148 833c
000003d0: c716 eebc c43f ed3d 8aba a0bd b854 b83d
000003e0: c7e1 aa3d c612 e3bd 6b04 04bd 9c06 473d
000003f0: 1eee 6d3c 962d 9a3c c941 ed3d bb8f d03d

egnn.layers.0.hidden_mlp.0.bias f4 [32]
0.06080252 -0.0068841176 0.030466901 -0.09227376 0.044088908 -0.004880095 -0.0682569 -0.10847377
0.038956955 -0.08319466 0.027243186 -0.13883325 0.06842106 0.07908449 0.00617298 -0.005662148
0.1344869 0.04344663 -0.09409341 -0.05982698 -0.05103548 -0.087864794 -0.100183256 -0.0054714303
-0.10457356 -0.014285362 0.03561418 -0.071895234 -0.056733515 -0.1338752 0.045556463 0.03229973
00000000: 100c 793d 2a94 e1bb b995 f93c 06fa bcbd
00000010: 9296 343d 34e9 9fbb 46ca 8bbd 7f27 debd
00000020: 5491 1f3d f661 aabd 1a2d df3c 4e2a 0ebe
00000030: 5720 8c3d 0df7 a13d b646 ca3b 8a89 b9bb
00000040: efb6 093e 18f5 313d 0cb4 c0bd 230d 75bd
00000050: 940a 51bd 75f2 b3bd e12c cdbd af49 b3bb
00000060: aa2a d6bd 270d 6abc 2de0 113d cf3d 93bd
00000070: 6761 68bd 9516 09be 6a99 3a3d b94c 043d

egnn.layers.0.hidden_mlp.2.weight f4 [16, 32]
-0.13505909 -0.106541865 -0.029877136 0.0016938455 0.011113408 0.15508862 -0.16045174 0.07284484
0.13631679 0.16026002 0.032439362 0.15719566 -0.09260576 -0.123956494 -0.04039794 -0.09096239
0.08290139 -0.04760113 0.08736736 -0.06276131 -0.0755584 -0.05283785 -0.0189237 -0.083389536
0.09899156 0.112387925 0.03338424 -0.17004462 0.14350735 -0.12895162 -0.12119834 0.09017098
-0.10246738 -0.13659532 -0.13386919 0.14922513 0.05006407 0.08621782 0.034976035 0.080840684
0.17725486 -0.026910337 -0.11215327 -0.03709123 -0.06473705 -0.16844882 -0.13513611 -0.061119255
0.033547234 0.090031974 0.116538264 -0.1752128 -0.013670317 -0.033654273 0.14999945 -0.046033654
0.18278924 0.04219859 0.023918776 0.07741707 0.13409446 -0.093903586 0.07445239 -0.067809224
0.04585354 0.10502464 -0.0796029 -0.04564117 0.16173516 -0.16650172 -0.029336298 0.14616486
0.037950244 -0.14393865 0.0070278994 -0.14288601 -0.06576916 0.036720663 0.09592397 -0.098735325
0.15280712 -0.12450278 -0.035171896 -0.15259418 -0.0045625963 -0.0049256175 0.074853025 -0.11843256
0.007655997 0.056747884 -0.112278774 0.15464805 -0.036034636 -0.18003355 -0.03115335 0.041701064
-0.091057435 -0.06859002 0.07839673 -0.033616077 0.0653088 0.011956029 -0.002666996 0.14789271
-0.030319039 0.14278807 -0.06037858 0.1144452 0.09161171 -0.112126045 -0.04192204 -0.11905362
0.036851656 0.00544283 -0.059139024 0.15203759 0.16800113 -0.12622741 -0.096845314 0.016100569
0.10953654 -0.107674696 -0.015556653 -0.03189654 -0.14347091 -0.012173275 -0.005663926 0.04297729
0.1262643 -0.008615204 0.12758969 -0.06313618 -0.115434684 0.06901815 0.12007969 -0.0070102783
-0.120543905 -0.08466992 -0.093392536 0.041770846 0.04820238 -0.15727836 -0.029274747 0.040353842
-0.0744581 0.17384067 0.14370033 -0.0857147 0.018676225 -0.029766027 -0.15248547 0.014537093
0.12538177 0.10137721 0.08763056 -0.05820619 -0.09807763 -0.15054727 -0.1571743 0.008313069
0.12877989 0.041329704 -0.034786966 0.020174218 0.040341258 -0.07699396 0.11222896 0.07584162
-0.05234 -0.013277551 -0.15641439 0.08642108 0.024852203 0.13288708 0.059459306 -0.1508941
-0.04285751 0.09859234 0.15028936 0.049760014 0.14998418 0.17589964 -0.05929286 0.02981417
0.15313987 -0.020649698 -0.09831635 -0.12875143 -0.069644965 -0.18661986 -0.07872599 0.086905695
0.13874291 0.024440145 -0.068243496 -0.10851024 -0.13698433 0.03146446 0.162527 -0.11325507
0.17200334 -0.07757564 -0.11578788 0.098365024 -0.10929451 0.16102031 -0.15572475 0.10585972
0.15888546 -0.059978094 -0.10436033 -0.05816152 0.14624585 -0.12843631 0.14953785 0.15774153
-0.07664519 0.13731475 -5.1338742e-05 0.03361572 -0.002294491 0.035351608 0.1639219 0.032155212
0.017152414 -0.1024385 0.12162267 -0.060797546 -0.13960503 -0.16784453 0.16426979 0.06887881
-0.07401816 -0.109422415 0.0052269637 -0.030569844 -0.00060946174 0.13905434 -0.0886484 0.030279763
0.09481304 0.13580683 0.032973323 -0.114809714 -0.036157362 -0.02459044 -0.04894094 -0.16592687
-0.0077885543 0.15385973 -0.08026842 -0.07155679 -0.11694804 0.03915636 -0.10655611 0.020083558
00000000: ee4c 0abe 9f32 dabd e5c0 f4bc 0604 de3a
00000010: 0315 363c 8dcf 1e3e 764d 24be ad2f 953d
00000020: a196 0b3e 341b 243e 23df 043d e6f7 203e
00000030: 17a8 bdbd e7dc fdbd 4f78 25bd 7d4a babd
00000040: 34c8 a93d 67f9 42bd a9ed b23d 0089 80bd
00000050: 5dbe 9abd 806c 58bd e005 9bbc 22c8 aabd
00000060: 16bc ca3d a42b e63d eabd 083d 2d20 2ebe
00000070: 97f3 123e e50b 04be d636 f8bd 90ab b83d
00000080: 6bda d1bd a5df 0bbe 0115 09be 79ce 183e
00000090: fb0f 4d3d f892 b03d 0843 0f3d cd8f a53d
000000a0: 4c82 353e 1173 dcbc 9db0 e5bd f9ec 17bd
000000b0: dc94 84bd d97d 2cbe 1f61 0abe 2f58 7abd
000000c0: d368 093d af62 b83d 9dab ee3d fc6a 33be
000000d0: 77f9 5fbc 10d9 09bd 7599 193e c98d 3cbd
000000e0: 1a2d 3b3e 6ed8 2c3d 4ff1 c33c d78c 9e3d
000000f0: 0f50 093e 8650 c0bd 7f7a 983d 90df 8abd
00000100: ecd0 3b3d 2917 d73d d806 a3bd 3cf2 3abd
00000110: e79d 253e 6d7f 2abe ad52 f0bc 3eac 153e
00000120: b771 1b3d a764 13be 4b4a e63b b650 12be
00000130: fbb1 86bd 6868 163d c973 c43d bf35 cabd
00000140: 7879 1c3e 50fb febd 6810 10bd a641 1cbe
00000150: d581 95bb 1367 a1bb 8b4c 993d c58c f2bd
00000160: 28df fa3b 7870 683d 6af2 e5bd 0f5c 1e3e
00000170: 0e99 13bd b75a 38be 4f35 ffbc bcce 2a3d
00000180: 527c babd ed78 8cbd 778e a03d 03b1 09bd
00000190: 9fc0 853d 38e3 433c c5c8 2ebb 3071 173e
000001a0: a25f f8bc 0937 123e 884f 77bd 3f62 ea3d
000001b0: ec9e bb3d 57a2 e5bd 72b6 2bbd 62d2 f3bd
000001c0: c3f1 163d c459 b23b c33b 72bd beaf 1b3e
000001d0: 7d08 2c3e c241 01be d656 c6bd 57e5 833c
000001e0: b254 e03d 8d84 dcbd 55e1 7ebc f2a5 02bd
000001f0: 0aea 12be 6b72 47bc 7498 b9bb f408 303d
00000200: 6e4b 013e c926 0dbc dfa6 023e 8b4d 81bd
00000210: 0569 ecbd 6359 8d3d 57ec f53d 7ab6 e5bb
00000220: b9df f6bd 6c67 adbd 9644 bfbd e817 2b3d
00000230: dc6f 453d 940d 21be 98d1 efbc 124a 253d
00000240: 7d7d 98bd 4a03 323e 2e26 133e 308b afbd
00000250: e2fe 983c e2d7 f3bc 2725 1cbe fd2c 6e3c
00000260: 1464 003e db9e cf3d a777 b33d 9d69 6ebd
00000270: eddc c8bd 1029 1abe 4df2 20be 8a33 083c
00000280: e0de 033e 5649 293d c77c 0ebd 6744 a53c
00000290: e03c 253d 02af 9dbd 4cd8 e53d da52 9b3d
000002a0: 7862 56bd 168a 59bc 182b 20be 89fd b03d
000002b0: d996 cb3c 8d13 083e 9a8b 733d fc83 1abe
000002c0: 5b8b 2fbd c8ea c93d 74e5 193e 28d1 4b3d
000002d0: 7495 193e 091f 343e 12dd 72bd d93c f43c
000002e0: b3d0 1c3e 8e29 a9bc 155a c9bd 6ad7 03be
000002f0: 05a2 8ebd 4719 3fbe 183b a1bd 9dfb b13d
00000300: 9f12 0e3e b336 c83c 3fc3 8bbd 9e3a debd
00000310: 9f45 0cbe e1e0 003d 7a6d 263e 46f2 e7bd
00000320: a521 303e fadf 9ebd 3222 edbd 9a73 c93d
00000330: cdd5 dfbd 82e2 243e 4f76 1fbe fbcc d83d
00000340: dfb2 223e 97ab 75bd deba d5bd c63a 6ebd
00000350: 79c1 153e cf84 03be 7320 193e ff86 213e
00000360: 27f8 9cbd 3d9c 0c3e 8e54 57b8 a3b0 093d
00000370: 2c5f 16bb d9cc 103d 24db 273e 2fb5 033d
00000380: 3883 8c3c 47cb d1bd 4e15 f93d d906 79bd
00000390: 9ff4 0ebe 70df 2bbe 5736 283e 5510 8d3d
000003a0: d596 97bd dc18 e0bd f346 ab3b 9c6d fabc
000003b0: 49c4 1fba 4364 0e3e 4b8d b5bd 440d f83c
000003c0: 572d c23d f210 0b3e 090f 073d 5b21 ebbd
000003d0: be19 14bd e471 c9bc 4c76 48bd bce8 29be
000003e0: 2137 ffbb 688d 1d3e c563 a4bd 5e8c 92bd
000003f0: 7482 efbd 6b62 203d 173a dabd 4686 a43c

egnn.layers.0.hidden_mlp.2.bias f4 [16]
0.003780037 -0.10592338 0.11101167 6.4714495e-06 -0.083862245 0.052810006 -0.095321275 -2.3364539e-05
-0.07971125 0.00092418195 0.0035543707 0.1009451 -0.03233221 0.06316664 -8.9882644e-07 0.06905706
00000000: 7fba 773b 5bee d8bd 165a e33d 5425 d936
00000010: f8bf abbd 4e4f 583d cd37 c3bd f7fe c3b7
00000020: a73f a3bd cd44 723a 72f0 683b 4ebc ce3d
00000030: c86e 04bd 835d 813d e246 71b5 ca6d 8d3d
