2-egnca-rework/logs/line4-2024-10-05@23-20-03/best@160.pt (torch, 26116 bytes, 11 tensors)

egnn.layers.0.message_mlp.0.weight f4 [32, 33]
000000 da 2c 7c 3d c1 36 c8 3d 36 94 1c bc 16 8a c0 3d
       0.06156621 0.097760685 -0.009556821 0.09401338
000010 68 8e 4f bd e4 42 de 3c 75 3b 29 bd f5 6a 65 bc
       -0.05067292 0.027131505 -0.04131647 -0.014002551
000020 f0 6f 19 bd 3e ad ea 3c f4 0d 07 3e b1 78 0e 3e
       -0.037460268 0.028647061 0.13188916 0.13913228
000030 dc 08 f8 bc 45 0f 7e bd 71 0f d1 bc 70 3c 17 3e
       -0.030277662 -0.06202628 -0.025520058 0.14769149
000040 4d 51 11 3e e3 eb 40 bd ba 43 79 bd 44 e9 34 bd
       0.1419117 -0.04709996 -0.060855605 -0.044167772
000050 87 52 fb 3d 41 fe 0e 3e de 30 fa bd 0e b9 7c bd
       0.122716 0.13964178 -0.12216352 -0.06169992
000060 34 7f 1e be 42 0c 2e 3e eb 34 d9 3c 78 ee 5d 3d
       -0.15478212 0.16996863 0.026514491 0.0541825
000070 f8 b6 bf 3d 68 f8 22 3d fe f3 0c bd c3 d2 2d be
       0.093610704 0.03978768 -0.034412377 -0.1697493
000080 35 36 30 3d 6f f9 03 bd 06 07 32 be 5f bf b9 bc
       0.043020446 -0.0322203 -0.17385492 -0.02267426
000090 7a e8 c1 bd 37 d3 c8 bd 16 52 01 be 37 fd 19 be
       -0.094681695 -0.09805911 -0.1262897 -0.15038
0000a0 3a c9 43 bc e1 1f 98 3c c0 cc 20 be 80 33 24 be
       -0.011949832 0.018569889 -0.15703106 -0.1603527
0000b0 73 0d 92 3a 10 19 26 be 08 83 ae 3d 48 29 36 bd
       0.0011142924 -0.16220498 0.08521086 -0.044472963
0000c0 02 dc c4 bc c1 4f 23 be 35 7f 02 be 9f 68 86 3d
       -0.02403069 -0.15948392 -0.12743838 0.06562924
0000d0 49 80 c2 bd 6a e9 91 bd ea bd 1e be 62 06 ec bb
       -0.09497125 -0.07124598 -0.15502134 -0.0072029093
0000e0 30 da dc bd 4b a6 3c 3d f7 e6 61 3d e0 61 20 3d
       -0.107838035 0.046057027 0.055151906 0.03915584
0000f0 dd 7e 76 3d 84 61 fd bd d2 73 98 3c 54 32 1e be
       0.06017958 -0.12372115 0.018609915 -0.15448886
000100 43 b7 f6 bd cd 9f 14 3e 95 3d 00 3e e2 31 fa bd
       -0.12046673 0.14514084 0.12523492 -0.12216546
000110 d9 66 c3 3d 4d 62 13 be 18 94 d7 3c a9 70 20 3e
       0.09541101 -0.14392968 0.026315734 0.15667976
000120 3e c8 83 3c 33 26 8b 3d 84 b6 22 3e d4 56 86 bd
       0.016086694 0.06794395 0.15889937 -0.0655953
000130 db 3f 03 3e 29 7d d6 3c 76 a7 22 bd 91 49 21 be
       0.12817328 0.026182728 -0.039710484 -0.1575072
000140 7a 1e 2c 3e 3e f1 2f 3e 07 1a 9c bd 83 55 29 3d
       0.16808501 0.1718187 -0.07622152 0.041341316
000150 aa 28 39 be 0d e1 fc 3c ce e0 c9 3d c5 fa 92 3c
       -0.18081918 0.030869031 0.09857331 0.017941842
000160 f0 a0 be bd f7 2e 22 3e 16 69 c6 bd 5d 0f af 3c
       -0.0930804 0.15838228 -0.09688012 0.02136963
000170 f2 18 27 be 57 8e 98 3d 9f 9c f5 3d 49 de 09 3d
       -0.1631811 0.07449024 0.11992764 0.033659253
000180 aa 1f 0a 3e ef db 33 be cc 81 d2 bd 43 95 42 3d
       0.13488641 -0.17564367 -0.10278663 0.04750563
000190 85 46 b5 3d f2 de 31 bd e0 21 4a 3d 41 49 2d be
       0.08851341 -0.043425508 0.049348712 -0.16922475
0001a0 7e 84 2d 3e ca e3 0b be f6 8c 25 be f4 ec 03 be
       0.16945073 -0.13661113 -0.16167054 -0.12883359
0001b0 2f f5 30 3e 28 79 30 3d 6a 51 68 bc a9 93 0f 3d
       0.1728103 0.043084294 -0.014179567 0.03505293
0001c0 0b 47 e9 ba 08 89 fa bd 5a 1f e0 3d 98 be 15 be
       -0.0017797662 -0.12233168 0.1094348 -0.14623487
0001d0 b4 52 2f bd 46 3c 8f 3c 0a b9 dc bd f4 98 2b 3d
       -0.04280348 0.017484795 -0.10777481 0.041893914
0001e0 a4 21 22 be 5c d5 a7 bd e8 58 1a 3e 2b 9f 52 3d
       -0.15833145 -0.08194992 0.15072978 0.051421326
0001f0 13 50 11 be 7b 55 27 3e eb 74 3e bd 81 56 01 3d
       -0.14190702 0.16341202 -0.04649822 0.031576637
000200 d9 4a 20 bd 88 7f ce bd 51 d7 fc 3c 77 01 20 bd
       -0.03913388 -0.100829184 0.03086439 -0.039063897
000210 8a ca bd bd 90 d8 c2 3d 7d 44 ac 3d d5 79 e9 3d
       -0.09267147 0.09513962 0.084115006 0.11400191
000220 77 c6 de bc 63 9d ec bc d7 4e 11 3c e6 62 1c 3e
       -0.027194245 -0.028883642 0.008868895 0.15272102
000230 46 9a 1e be 24 64 2a bc e3 85 7d 3c 44 e8 aa 3d
       -0.15488538 -0.010399852 0.015473816 0.083450824
000240 63 ce 2e be 66 7e 3f be f2 b5 e9 bb 91 e9 5e 3d
       -0.17070918 -0.18700561 -0.0071322853 0.054421965
000250 ee 37 96 bd 56 57 09 3e 59 db 05 3d f3 9c 78 bd
       -0.073348865 0.13412222 0.03267989 -0.060696553
000260 d3 fb 7d bd 0f a6 11 be 7e 4a c0 3d 01 27 09 bd
       -0.062007736 -0.14223503 0.09389208 -0.033484463
000270 3f 12 b6 3d 5f fd 3b be 2f 9d 01 3e 01 2c 62 3d
       0.08890199 -0.18358372 0.12657617 0.055217747
000280 90 34 e2 bd b7 f9 c2 bd af dd fd 3d d8 34 a4 3d
       -0.11045182 -0.095202856 0.123957984 0.08017892
000290 73 73 ab 3d 7d a3 1f 3d c9 d5 b0 bd 1c d8 ea bd
       0.083716296 0.038974274 -0.08634526 -0.11467001
0002a0 ed 6a 4b bd a7 05 47 bd fe 49 de bc d2 da 21 bd
       -0.04966252 -0.048589375 -0.027134892 -0.039515324
0002b0 9e 80 10 be a9 73 21 be 46 03 fc bd d7 b7 b6 3d
       -0.14111564 -0.15766777 -0.12305312 0.089217834
0002c0 d2 d4 e2 bd 8f de 09 be 50 24 9b bd fc d8 62 3d
       -0.110757485 -0.13463806 -0.075752854 0.055382714
0002d0 3e 77 5c bd 3d fa 05 3a 5a 09 af 3c 39 a1 fe bd
       -0.053824656 0.0005110836 0.021366764 -0.124330945
0002e0 88 80 4c bd fc 50 4d bd cd c8 32 bc 33 4b e1 bd
       -0.049927264 -0.05012606 -0.010912132 -0.11000671
0002f0 93 e4 0f bd fd 1b 78 3c da be 61 3d 48 22 e9 bd
       -0.035130095 0.015143392 0.05511365 -0.11383492
000300 0e 7c 1f 3e a4 0d 3e 3d b2 3e 0f be 5b f8 26 3e
       0.15574667 0.046399727 -0.1398876 0.16305678
000310 6c 7b e6 bd b8 61 3d bb bc 94 08 3e e2 06 16 bd
       -0.112540096 -0.0028897356 0.13337988 -0.036627658
000320 be ea 35 3d d4 22 aa 3d bc dc 6b bd e8 46 9d 3c
       0.04441332 0.08307424 -0.057583556 0.01919885
000330 f8 b0 08 3e 6a 70 07 39 57 dc 26 bd e2 3d 07 3e
       0.13348758 0.00012916481 -0.040737476 0.132072
000340 2b e4 11 3d 9b 93 e5 bd 18 14 b4 3d 66 53 0f 3e
       0.03561799 -0.11209794 0.08792895 0.13996658
000350 67 9e 6b 3c fc e2 14 3e 8b 0f e0 bd 5b ce 2b 3e
       0.014381028 0.14539713 -0.109404646 0.16777937
000360 77 16 cd 3d f0 ba 9e ba c6 4f 22 be e9 11 2d 3e
       0.100140505 -0.0012110155 -0.15850744 0.16901363
000370 04 ea be bb ed 27 ac 3d 5b be bf bd 4f 2e 73 3d
       -0.0058262367 0.08406053 -0.09362479 0.059370335
000380 94 4f dc bc ba 17 38 3d 56 1b 8a 3d 51 9f ee bd
       -0.026893415 0.044944502 0.06743495 -0.11651481
000390 c0 e2 02 be d4 59 f5 bb d1 83 38 bd 64 10 f2 3d
       -0.12781811 -0.007487515 -0.045047585 0.118195325
0003a0 e4 e6 94 bd 91 7f 23 3d f9 b0 23 be b1 2c b1 3d
       -0.072706014 0.03991658 -0.15985478 0.08651102
0003b0 a0 9d dc 3d fe cb dd 3c 30 85 b9 3c ec 33 df 3c
       0.10772252 0.02707481 0.022646517 0.027246438
0003c0 b8 84 e3 bb ae 14 19 bd d1 ea 05 3e 77 39 5d bd
       -0.0069433115 -0.037373237 0.13077857 -0.05400988
0003d0 d6 33 c4 bc 68 c7 85 bc d4 eb d5 bd ba 7b 0c be
       -0.023950499 -0.016330436 -0.10445371 -0.13719073
0003e0 00 c7 d3 bd 8c 88 29 bd 21 f0 0a be da 18 6c 3d
       -0.103406906 -0.041389987 -0.13568164 0.057640888
0003f0 2b e1 08 be e4 7e 2e bd 9a 5c 99 bd 4b c6 ad bd
       -0.13367145 -0.04260148 -0.074883655 -0.08485087

egnn.layers.0.message_mlp.0.bias f4 [32]
000000 fd 0e 09 bd 40 a6 8f bc 33 a5 50 3d 8a c4 1e be
       -0.03346156 -0.017535329 0.050938796 -0.15504661
000010 84 f9 70 3d 49 ab 19 be 5a d3 13 bd 89 27 12 be
       0.058831707 -0.15006746 -0.036090232 -0.14272894
000020 f4 9d 19 be 06 e4 be bd 5f 6c 01 3e ab a9 23 be
       -0.1500166 -0.09320836 0.12638997 -0.15982692
000030 8a 96 9c 3d 33 f6 67 bc e8 7b 12 be 8a 4c 41 3d
       0.076459005 -0.01415782 -0.14305079 0.047192134
000040 13 1a c2 bd eb ca d0 bd cd f7 10 3d dd da 00 be
       -0.094776295 -0.101949535 0.03539257 -0.1258349
000050 92 66 23 3c 85 69 77 3d 32 19 50 3d 8c 6d c0 3d
       0.009973185 0.060403366 0.050805278 0.093958944
000060 77 fb 12 be 3b cc 6c 3d 33 df d8 3d 26 f2 23 be
       -0.14353739 0.057811957 0.10589447 -0.16010341
000070 e7 11 88 3d 3e ee 45 3c f0 87 7c 3d 3c 87 2b be
       0.066440396 0.012080727 0.061653078 -0.16750807

egnn.layers.0.message_mlp.2.weight f4 [32, 32]
000000 86 d5 e6 3d 29 ec 21 be 07 d9 ab 3d 7c a5 22 3e
       0.11271195 -0.15812744 0.08391004 0.1588344
000010 b0 23 0c bd 97 15 aa 3d e5 cb c3 bc 52 7e cd 3d
       -0.03421372 0.08304899 -0.023900935 0.10033859
000020 be 0e 25 be 61 d1 df 3a dd a5 40 3e f9 f9 2e bd
       -0.16118905 0.001707595 0.18813272 -0.04271886
000030 ac 8d 0f be 89 36 0e be dc 4a 1c 3d a1 93 20 3e
       -0.14018887 -0.13887991 0.03815733 0.15681316
000040 ba 7a 30 be 1d 73 e8 3d e2 b9 09 be 2e 5a 98 3d
       -0.17234316 0.11350081 -0.13449815 0.074390754
000050 15 9f 1b 3d 7a 3f 6e 3d 1d 85 1b be a1 c5 2a 3e
       0.03799351 0.058166005 -0.15187497 0.16676952
000060 fc 4e 1e 3d 3d 9e 31 bc 57 d9 07 be 87 89 dc 3d
       0.038649544 -0.01084095 -0.13266502 0.10768419
000070 cb 8a 29 3e f8 3b 8a 3d 3a 25 b6 bc 3a fc 22 bd
       0.16556852 0.067497194 -0.022234548 -0.039791323
000080 76 c3 38 be 2b 48 ee 3d ed 9b d6 bc 3e b9 20 be
       -0.18043312 0.11634859 -0.026197398 -0.15695664
000090 eb b2 4c 39 c7 e2 07 3d 01 96 e5 3d 73 79 64 3d
       0.00019521608 0.033175256 0.112102516 0.055779886
0000a0 c5 20 f0 bd 73 b8 43 bd f8 ee 2e be 49 ec a4 3d
       -0.11725 -0.047783326 -0.17083347 0.0805288
0000b0 79 3c a7 3d 81 4c d9 bd ab 54 33 3d 66 cc f0 3d
       0.08165831 -0.10610295 0.043781918 0.11757736
0000c0 9b cd 22 3e f4 b5 f4 3d 22 4b 8b 3d f7 49 2e 3d
       0.15898745 0.11948767 0.0680144 0.042551007
0000d0 f8 ee 74 3d b0 55 25 3e c5 ba da 3d 23 9f fc 3c
       0.05979821 0.16145968 0.10680155 0.030837601
0000e0 8a f0 ad 3c 60 f8 ef 3d 05 2f 34 3e 54 e3 ee bd
       0.021232862 0.11717296 0.17596062 -0.11664453
0000f0 a5 ea b2 bd 01 8c 48 3e 1e be 96 bd 3d e1 52 bd
       -0.08736161 0.19584657 -0.07360481 -0.051484335
000100 f5 fc 0e 3e 54 20 8b bd da f7 37 3e 08 5b d2 bd
       0.13963683 -0.067932755 0.17965642 -0.10271269
000110 4b 6c a4 bd 01 8e 19 3c 86 73 2b 3c 87 29 28 3e
       -0.08028468 0.009372235 0.010464555 0.16422091
000120 1f 13 97 bd c7 91 8c 3d 20 11 bd bc c6 ea e6 bc
       -0.07376694 0.06863742 -0.023079455 -0.02818812
000130 e3 9f 1b be 1c 10 28 3e af 37 c5 bd 41 02 16 bd
       -0.1519771 0.16412395 -0.096297614 -0.036623243
000140 63 de a6 bd f3 51 27 3e 04 e4 92 bd f9 ed 29 bd
       -0.08147886 0.16339855 -0.07172397 -0.041486714
000150 3d c6 d6 3d a0 a5 2f 3e df 73 2a 3e 0f 30 d8 bd
       0.1048703 0.17153025 0.16645764 -0.105560414
000160 49 37 83 bd 23 ef 14 3e 6d c9 95 3d dd 4b 0c 3e
       -0.06407029 0.14544348 0.073138095 0.13700815
000170 41 6a 7a 3d 12 71 fb bd d9 d8 dd bc 31 e0 9a bd
       0.061136488 -0.12277426 -0.02708094 -0.07562292
000180 33 b3 14 be 3e 16 4a 3d 64 50 be 3d 0a 04 87 3d
       -0.14521484 0.049337618 0.09292677 0.06592567
000190 e7 b9 0e 3e 1c ba 93 bd 34 72 72 3d 75 f3 66 bd
       0.13938104 -0.07213232 0.059190944 -0.056384522
0001a0 29 38 1a 3e 4f f3 4c bc 03 dc 00 3e b1 7c 07 3e
       0.15060486 -0.012509181 0.12583928 0.1323116
0001b0 50 2c f9 bd 97 ea 2a bd 6d 9a 1b 3e 7c 1d b0 bd
       -0.12166655 -0.04172763 0.15195628 -0.08599374
0001c0 1c da 2f bd e2 a2 14 3e ac 97 14 3e ad 04 f3 3d
       -0.042932615 0.1451526 0.14510983 0.11866126
0001d0 6f 01 88 3c 71 1a e1 3d 3b 93 28 be 1b 96 a9 3d
       0.016602246 0.109913714 -0.16462414 0.082805835
0001e0 c3 f1 f3 bc 99 9e 06 be e8 81 21 3d 49 7b 98 3a
       -0.029778367 -0.13146438 0.03943053 0.0011633422
0001f0 2f 77 82 3d b7 51 6e bd 52 d1 35 3e 5d 5d 3d be
       0.06370389 -0.058183398 0.1775563 -0.18492647
000200 20 4e 30 3e 11 dc 9d bd 4c da d8 3d 0e d0 d2 bc
       0.17217302 -0.0770799 0.10588512 -0.025733974
000210 ff 0a 47 bd 12 07 07 be 3a c8 11 be d9 a1 ca 3c
       -0.04859447 -0.13186291 -0.14236537 0.024735378
000220 38 15 d3 bd 85 38 fa bd 1c 0c 18 be 03 05 1c 3e
       -0.103067815 -0.122178115 -0.1484837 0.15236287
000230 a8 b9 29 3d 0a e1 80 3c 1a 5e 57 bd b1 9e 1c be
       0.04143682 0.015732307 -0.052579977 -0.15294911
000240 6d 25 cd 3d 3f 66 12 3e 78 4c 07 3d 0c 7e 41 3d
       0.10016904 0.14296816 0.03303191 0.04723935
000250 8e 08 1f 3b 1c 4a 8e 3d 9c 1d 10 3c 69 af e6 bd
       0.0024266574 0.06947729 0.008796122 -0.112639256
000260 0f 28 cb bc 3e d9 24 3e 5f 15 dc bd 79 85 1f 3e
       -0.024799375 0.16098496 -0.10746264 0.1557826
000270 4b df cb bd 29 58 16 bd cb 79 e5 3d 40 1e de bd
       -0.09954699 -0.03670517 0.11204871 -0.108456135
000280 2e 3e 37 bd 55 4e 08 be e5 3f d4 bc f0 9a e7 3d
       -0.044737034 -0.13311131 -0.025909374 0.11308849
000290 35 e5 b5 bd 76 45 21 bd ed 71 83 3b 30 19 d2 3d
       -0.088816084 -0.039372884 0.0040113837 0.102587104
0002a0 12 84 f7 3c 63 88 b1 bc 0c af e0 bd 03 6e 0a be
       0.030214343 -0.02167148 -0.109708875 -0.13518529
0002b0 11 e7 2f 3e 6f ef 39 bd 3d 28 e1 3d d4 0c 8b bc
       0.17177989 -0.045394357 0.10994003 -0.01697389
0002c0 60 3a b1 bd 60 7d 8d bd 1c 5b 0f be 88 24 0f bd
       -0.08653712 -0.06908679 -0.13999599 -0.03494695
0002d0 3b 88 40 3c 45 a4 b2 bd 3e 98 44 3d 22 ba 9f 3d
       0.01175123 -0.08722738 0.047996752 0.07799174
0002e0 18 ed e7 bd cf 7e 9c bc a4 e3 02 3e 27 d9 26 be
       -0.11324519 -0.019103436 0.1278215 -0.16293775
0002f0 b1 7c be 3d 98 ce 28 bd 76 31 45 bd e4 4c db bd
       0.09301127 -0.04121265 -0.048142873 -0.10708025
000300 f8 bf 51 bc 50 5a 75 3d ae bb ab bd 60 ee 65 bd
       -0.012802117 0.05990058 -0.083854064 -0.056135535
000310 a1 de ba 3d 0d 08 ad bd 1b 00 3e 3c 7a 5b c8 3d
       0.09124494 -0.08448801 0.011596705 0.09783073
000320 b1 5f 5e bb ae d2 47 bd 29 dc e9 bd a3 13 27 bd
       -0.0033931548 -0.048784904 -0.11418945 -0.04079021
000330 83 04 0c bd 9c e2 e6 3d 6b ce 80 3c cf 3e 13 be
       -0.03418399 0.11273691 0.015723428 -0.14379428
000340 65 fa 4c bc 91 7c db bd a6 e8 3f 3e 5d 05 29 bd
       -0.012510871 -0.107171185 0.18741092 -0.04126488
000350 24 e7 2c be f9 35 c8 bd 5f 2c cd 3d 18 11 2c 3e
       -0.16885048 -0.097759195 0.10018229 0.16803396
000360 22 4c e7 bd 9c 1a 32 be 91 1d 28 bd 1e 49 48 bd
       -0.11293818 -0.17392963 -0.04104382 -0.048897855
000370 6c 41 b5 bd 35 20 e1 3d d2 71 7e 3c d4 44 07 3e
       -0.08850369 0.10992471 0.015530067 0.1320985
000380 78 01 02 3e 6f 56 3d 3c 91 eb 11 3e 25 46 41 bd
       0.12695873 0.011556252 0.14250018 -0.047186036
000390 56 da 76 3d 46 f7 e3 bd 59 38 27 3d 09 33 93 3d
       0.060266815 -0.11131148 0.04082522 0.071874686
0003a0 85 6b 36 be 33 6e 18 3e f3 07 fd 3d f0 d2 df bd
       -0.17814453 0.14885788 0.12355032 -0.10928905
0003b0 92 b9 52 3d 38 f1 2a 3e bb ea 75 bd dc a1 b6 3b
       0.051446505 0.1669358 -0.06003831 0.0055734944
0003c0 09 6b 95 bc 6e 66 d1 bd 34 7c b4 3d 8a f1 a2 bd
       -0.018239515 -0.10224615 0.08812752 -0.07956226
0003d0 1f ba 55 3d ac b3 0e 3d 74 93 b0 3d 8a e8 2c 3e
       0.052179452 0.034839317 0.086218745 0.16885582
0003e0 98 75 74 3d ec 60 db bc 51 c1 63 bd 1f 1a 15 3e
       0.05968246 -0.026779614 -0.055604283 0.14560746
0003f0 c4 63 ea 3d ca cc 1b 3e af 80 9f bd 22 64 e0 3d
       0.1144481 0.1521484 -0.07788216 0.10956599

egnn.layers.0.message_mlp.2.bias f4 [32]
000000 75 be 79 3b 97 c8 dc 3d 36 77 9f 3c 65 05 27 3e
       0.0038107906 0.10780447 0.019466024 0.16310652
000010 30 c5 b9 bc dc 3e 28 be 89 cf 20 be 72 77 99 bd
       -0.022677034 -0.16430229 -0.15704168 -0.074934855
000020 b2 e9 72 3d 10 59 c9 3d 10 ae a3 3d 6e 9d 1b 3e
       0.0593049 0.098314404 0.07992184 0.15196773
000030 91 34 30 be 7f 1e 93 3d e7 d7 83 bc cd 35 09 be
       -0.17207552 0.07183551 -0.016094161 -0.1339943
000040 58 81 2c 3d e9 ae 2a 3e 13 64 45 3d 5a e6 da 3d
       0.04211554 0.16668285 0.04819114 0.10688467
000050 c7 4f c9 3d fb c4 f0 bd 85 e3 30 be da 3a 26 be
       0.098296694 -0.11756321 -0.17274292 -0.16233388
000060 6a 71 1a 3e ef 8f 05 be 7a f8 6c bd 5e d0 17 3e
       0.15082327 -0.13043188 -0.057854153 0.1482558
000070 28 c9 1f 3e 5b 4d 02 be 8c 0b 96 3d 01 3c a6 bb
       0.15604079 -0.12724821 0.07326421 -0.005073071

egnn.layers.0.coord_mlp.0.weight f4 [32, 32]
000000 b1 bb 23 bd ed 72 29 bb 6c c1 c0 3b 1e 17 2c be
       -0.03997392 -0.0025855855 0.0058824327 -0.16805694
000010 4c f9 f6 bd e0 2b ad 3d d4 13 e0 3d ce 10 3c 3d
       -0.12059268 0.08455634 0.10941282 0.045914464
000020 08 8e df bd 13 55 68 bc 04 0d e0 3d bb fa df bd
       -0.10915762 -0.0141804395 0.109399825 -0.10936495
000030 fa 3f 03 3e 8d fa 86 3d 14 ef da bd 5a df 24 be
       0.12817374 0.065907575 -0.10690132 -0.16100827
000040 df fa 9c 3d 48 26 39 3d d5 83 c3 bd 85 d5 09 be
       0.07665037 0.045202523 -0.09546629 -0.13460357
000050 da 40 11 3d b0 3a a2 3d ed 9c 8a bd cc 8d 15 3e
       0.035462238 0.0792135 -0.067682125 0.14604872
000060 65 73 fd 3d 2d 1c e6 3d 37 c4 15 3e fb 6d f2 bd
       0.123755254 0.11235843 0.14625631 -0.11837383
000070 7b 60 11 3e 77 b7 1a be 34 86 31 bd 64 cf 03 be
       0.1419696 -0.15109049 -0.043340877 -0.12872082
000080 4f f8 36 bd dd 89 1d be 1f f1 1c be cd e1 e5 bd
       -0.0446704 -0.15384622 -0.15326355 -0.11224709
000090 ba 46 e5 3c a2 9a e3 bd b1 45 8d 3c 4f d9 d2 3c
       0.027987827 -0.11113478 0.017245146 0.025738386
0000a0 a3 78 1b be 83 df 10 3e 3a 5d 4e bd a0 cd f6 3d
       -0.15182738 0.14147763 -0.050381877 0.120509386
0000b0 c7 07 39 bb d7 d2 e2 3d 60 e3 57 3c 76 d7 df bd
       -0.0028233395 0.11075371 0.013176769 -0.10929768
0000c0 bc 31 25 be f6 ff 02 be 3e ee ce bd 86 f5 f5 bd
       -0.16132253 -0.12792954 -0.10104035 -0.120097205
0000d0 a8 66 2e 3e 1a 9e f4 bd e0 19 6d 3c a7 8b f6 bd
       0.17031348 -0.11944218 0.014471501 -0.12038355
0000e0 74 b9 05 3e aa 03 f2 bb 50 5d 9f bd fa 6f 6e 3c
       0.13059026 -0.0073856907 -0.0778147 0.0145530645
0000f0 ca 18 c0 bd 71 4b b3 3d d1 97 bd bb 48 a1 f8 bd
       -0.09379728 0.08754624 -0.00578592 -0.12140137
000100 9b 86 3c bd 12 ba 64 bb 54 83 8b bc 5b 84 92 bd
       -0.046026807 -0.0034900946 -0.017030396 -0.07154151
000110 33 13 0d 3d 33 82 37 3e 77 51 c3 bd 61 e9 a6 bd
       0.034442138 0.17920761 -0.095370226 -0.08149982
000120 2a a8 c2 3b 75 c2 fc 3d a9 e8 ae bd fa bd 09 be
       0.005940457 0.12341777 -0.0854047 -0.13451377
000130 c9 c3 2e 3e 3b e4 85 3d 41 34 99 3d 2b ca 29 bd
       0.17066874 0.06537672 0.0748067 -0.041452568
000140 86 38 19 3e cd d5 84 3a 3d c1 6f 3d 81 b4 25 3e
       0.14962968 0.0010134518 0.058533896 0.16182138
000150 8d 9d f3 bd 46 6f ec bd 0b d8 ec 3d 01 0b cd 3d
       -0.11895285 -0.11544661 0.115646444 0.100118645
000160 a5 b4 80 ba 43 6f 96 bd a6 37 20 3e c2 93 19 be
       -0.0009819461 -0.0734544 0.15646228 -0.14997771
000170 ba a7 d6 bc 2d bc 18 be 15 52 08 3e 3f d7 09 3d
       -0.026203025 -0.14915533 0.13312562 0.03365254
000180 be dc 58 bd 82 ba fa bd 52 f6 22 bd 9e 5e 13 be
       -0.05294489 -0.12242605 -0.03978569 -0.14391562
000190 e9 2c 23 3e 3b f5 b4 bd 65 58 89 ba e9 66 60 3c
       0.159351 -0.088358365 -0.0010478614 0.013696411
0001a0 11 d8 d1 3d df f4 9b bc fd 1a e0 3c a0 0a 63 bc
       0.102462895 -0.019037662 0.027356619 -0.013857514
0001b0 54 31 2b 3c e5 78 c3 3d fa 90 f2 3d 61 63 24 bc
       0.010448772 0.09544543 0.11844058 -0.010033459
0001c0 32 e3 42 3d ed ee 32 bd 32 a2 8f 3d 32 9a d4 3b
       0.04757995 -0.04368489 0.07013358 0.006488108
0001d0 f9 a1 74 bc f9 56 48 3c eb 9d 0f 3e 1d 9b f5 3d
       -0.014931195 0.012227767 0.14025085 0.11992476
0001e0 64 8a 14 bd 4d ef fd 3d 58 37 e7 3b a9 57 97 bd
       -0.036264792 0.123991586 0.007056158 -0.07389767
0001f0 18 71 af bd 8f f1 d5 3d 6b 7f 85 bd b2 92 a9 bc
       -0.08566493 0.10446464 -0.06518444 -0.020699833
000200 00 36 ab bd f4 57 e0 bd 3a 50 f5 3d fd dd 16 3e
       -0.08359909 -0.10954276 0.119781926 0.1473312
000210 86 a6 1e be 74 aa 32 3c 26 bc 11 3e 51 5c eb 3d
       -0.15493211 0.010904897 0.14231929 0.11492217
000220 8b 1c 49 3d 5e 07 76 3d 75 72 37 bd a5 b0 f4 3c
       0.049099486 0.06006562 -0.04478689 0.029869387
000230 25 55 d5 3d cd b8 bd bd af 3c 26 bc de 92 38 3e
       0.10416631 -0.092637636 -0.010146304 0.18024775
000240 f9 f7 f3 3d 58 12 ae 3d 9f 46 03 3d e4 2e 14 3e
       0.119125314 0.084995925 0.03204977 0.14471012
000250 da 8c 05 bd 2a d7 16 bd 70 16 9c bd 11 87 b6 3d
       -0.03260503 -0.03682629 -0.07621467 0.089124806
000260 47 99 0b be 01 7b 0a 3d 34 f9 0a 3d d7 7f e2 bd
       -0.1363269 0.033808712 0.033929065 -0.1105954
000270 cf 45 b1 3d 85 a2 1a bc 43 af 9c 3d 94 ee 8e bd
       0.08655893 -0.009438162 0.07650616 -0.06979099
000280 f1 a7 31 3d 15 03 0a 3e 80 b7 c5 3c fd 06 e4 bd
       0.043373052 0.13477738 0.024135351 -0.111341454
000290 9f f1 2c bd c2 fa 4c bd d5 d6 21 bc 69 4f 3a bd
       -0.042222615 -0.05004383 -0.00987788 -0.045485888
0002a0 8c 34 11 3d 6c 5b 95 bd 90 b7 f5 3c 12 cb 19 be
       0.035450503 -0.07292828 0.029994756 -0.15018871
0002b0 18 ca 30 bd 62 14 a7 3d 34 27 c9 3d 7d 3c 04 be
       -0.04316148 0.081581846 0.098219305 -0.129137
0002c0 85 40 de bd 8d 5b 82 3c ca af c8 3c 40 3d 3d bd
       -0.1085215 0.015912795 0.024497885 -0.04620099
0002d0 a0 2f ec 3d d7 07 c3 bd 01 e1 d7 bd 71 83 10 3e
       0.11532521 -0.0952298 -0.10540963 0.14112641
0002e0 03 df bc bd 7c 37 23 bd 71 19 0d be 55 29 b8 3d
       -0.092222236 -0.039847836 -0.13779236 0.089922585
0002f0 12 4d 3b bd c4 08 b5 3d 05 74 ab 3d 0a 6a 14 be
       -0.045727797 0.088395625 0.08371738 -0.14493576
000300 78 3e fe bd 17 ed 24 3e 3b 38 27 be 97 44 f4 bd
       -0.12414259 0.16106068 -0.16330044 -0.11927145
000310 50 2e 16 be 2d 45 0c 3e 84 b8 28 bc 63 fd 2c be
       -0.14666104 0.13698263 -0.010297898 -0.16893534
000320 f2 f2 08 be a8 b6 18 3e d7 6c b4 bd 4d 54 05 3e
       -0.13373926 0.14913428 -0.08809822 0.1302044
000330 cc 48 27 3e 1e f3 5b 3d 98 0f aa bd 94 f1 37 3e
       0.16336364 0.05369865 -0.083037555 0.17963248
000340 33 1d 28 3e 07 70 0b 3e a1 cc 6c bd d1 bf 04 3e
       0.16417389 0.13616954 -0.057812337 0.12963797
000350 a5 50 d9 bd ab 56 be 3d ad 27 46 3b 53 05 17 3e
       -0.10611085 0.09293874 0.003023605 0.14748125
000360 4c 6f 1b 3d ea c9 aa 3d 0a 06 f0 bd 45 1d f0 3d
       0.037947938 0.08339293 -0.11719902 0.11724333
000370 aa ce 18 bc ca b1 39 bc 20 1f d8 3c 08 1d 68 bd
       -0.009326616 -0.011333892 0.026382029 -0.05666831
000380 8c 94 29 be 78 cb 25 be a0 b2 35 3d 8a e1 91 bd
       -0.16560572 -0.16190898 0.044359803 -0.07123096
000390 38 2e fa bd 26 a4 11 3e 6e 64 3c 3e 02 e6 3f be
       -0.12215847 0.14222774 0.18397686 -0.18740085
0003a0 2a d6 f1 bd f3 e7 da bd af 45 6b 3d b6 83 b7 3d
       -0.11808427 -0.10688772 0.057439502 0.08960669
0003b0 fb e4 b4 bd fd c1 d3 bd 20 9a ea 3d 70 24 d2 bd
       -0.08832737 -0.10339735 0.11455178 -0.10260856
0003c0 d6 cb ab bd 0d 4a 2e 3e f6 f3 e8 3a d5 fb 93 bd
       -0.08388488 0.17020436 0.0017772901 -0.072257675
0003d0 47 2c bc 3d 84 ee 1b be 7a da 2c 3e a6 ff c6 bd
       0.09188133 -0.15227705 0.16880217 -0.0971673
0003e0 40 6b bd 3c a6 82 ce bd 33 33 02 3e b3 fc 46 3c
       0.02312243 -0.10083513 0.12714843 0.012145209
0003f0 0d 64 20 be e6 1a d3 bd 73 46 e3 3d 0c ba 76 bd
       -0.15663166 -0.10307865 0.110974215 -0.060236022

egnn.layers.0.coord_mlp.0.bias f4 [32]
000000 d2 06 38 bd c2 8c a5 bd a9 8d 27 be 8f 1c 06 3e
       -0.04492838 -0.08083488 -0.16362633 0.13096832
000010 0a c5 e6 bd 13 a6 0f 3e c6 a1 97 3c 2e fb 9d bd
       -0.11268051 0.14028196 0.018509757 -0.07713924
000020 94 89 d4 bd 1d 87 0c be 05 3e 27 3e 9e 52 59 bd
       -0.103778034 -0.13723417 0.16332252 -0.053057306
000030 a3 4e e4 3c 51 e8 fb bc ea f2 2e 3e 1a 46 31 3e
       0.027869528 -0.030750426 0.17084852 0.17311898
000040 ec e1 dd 3c ba 63 c7 bd 07 34 49 3d 19 7e 2b be
       0.027085267 -0.09735818 0.049121883 -0.16747321
000050 ad 95 26 be 47 bf 7a 3c 2d 12 d4 3b 0b 7d fd 3d
       -0.16268034 0.015304393 0.0064718933 0.12377366
000060 1d bf a2 bd 5d 04 00 3d 3a 38 c0 3d 04 88 29 be
       -0.07946608 0.03125416 0.09385724 -0.16555792
000070 30 ac 7f 3d 6f 5d f6 bd b6 c3 ae 3d a6 97 d3 3d
       0.06242007 -0.1202954 0.08533423 0.10331659

egnn.layers.0.coord_mlp.2.weight f4 [1, 32]
000000 e4 74 b8 bb 03 25 81 bb 49 ed 17 bc 81 af f0 ba
       -0.005629169 -0.0039411797 -0.009272882 -0.0018362851
000010 5c 61 1f bc 49 9b 32 3c 84 d5 8a bc 64 41 2b bc
       -0.009727802 0.010901281 -0.016947515 -0.010452602
000020 2d 3a 3c bc 65 c0 67 bc 0e 25 f4 3b ed 80 f1 3b
       -0.01148848 -0.0141449915 0.0074507063 0.0073701055
000030 a7 bf 7b 3c 57 df 55 3c 47 02 89 3b ee c8 ee 3b
       0.015365518 0.013053737 0.0041811797 0.0072871363
000040 c9 f8 60 bc 20 4f 8f bc a6 ae 0a 3c ab b2 05 bc
       -0.01373119 -0.017493784 0.008464491 -0.008160274
000050 74 c5 8e bc d1 59 48 3c 81 85 72 3c d5 0a 53 3c
       -0.017428137 0.012228445 0.014802338 0.0128810005
000060 0d 3a 05 3c d6 e3 82 3c b6 62 13 3b 7e 77 18 bc
       0.008131516 0.015977781 0.0022489256 -0.009305833
000070 4f b0 89 bc bb 6e 2e bc a6 7d 94 3b ef 61 85 3b
       -0.016807703 -0.010646517 0.00453158 0.0040705125

egnn.layers.0.hidden_mlp.0.weight f4 [32, 48]
000000 d6 63 70 3d 54 89 00 3d ee 6f df bd 7f 94 05 bd
       0.05868896 0.031380966 -0.10910021 -0.03261232
000010 d1 46 00 3e 53 71 10 3d ec a9 02 be 37 b1 94 bd
       0.12527014 0.035264324 -0.12760133 -0.072603635
000020 08 63 83 bd 3f f7 a2 3c 82 4c ef bd 3f b0 f6 3d
       -0.06415373 0.019893287 -0.116845146 0.12045335
000030 34 28 b9 3d e2 17 c1 3c 5f 25 01 be c4 53 7f 3b
       0.09040871 0.023570959 -0.12611912 0.003895984
000040 47 ba 38 3a af a5 90 bd 08 4f e5 bd 4c ac 1d be
       0.00070468005 -0.07062852 -0.11196715 -0.15397757
000050 af fe 75 3d 10 71 48 3c b8 1a 1f 3d d3 d6 fe 3d
       0.06005734 0.012233987 0.03884384 0.12443318
000060 07 70 53 bd 45 c6 00 be e5 d9 f6 bd 79 7e 0d be
       -0.05162051 -0.12575634 -0.12053279 -0.13817777
000070 8d aa 8c 3d bb cb 95 bd d8 ee be 3d e4 1e 92 bd
       0.068684675 -0.07314249 0.093228996 -0.07134798
000080 35 70 d2 3a d4 5f 74 3d f3 9c 56 3d 31 87 09 3e
       0.0016055169 0.0596617 0.052395772 0.13430478
000090 f4 41 4a 3c 14 a6 7f bd 72 7e 84 3c 98 43 2a bd
       0.012344826 -0.062414244 0.016173575 -0.04156837
0000a0 6f b2 df 3d 9f b5 2c bd cb ef c9 bd 3b dc 1f bd
       0.109227054 -0.042165395 -0.0986019 -0.039028388
0000b0 cf 81 87 bd 96 ea f5 3d 60 67 9b bd 2c c3 50 bd
       -0.06616556 0.12007634 -0.075880766 -0.05096738
0000c0 83 0d 88 bd 61 a2 0e 3e 82 99 e5 bd 79 0e e1 3d
       -0.06643202 0.1392913 -0.1121092 0.109890886
0000d0 ef 33 61 bd 75 f8 c6 3d 6a 1c 59 3d 46 ee b7 bd
       -0.05498117 0.09715358 0.053005613 -0.08980994
0000e0 17 b0 07 be a1 cb 9e 3d 44 f2 ad bd b8 da ce bd
       -0.13250767 0.07753683 -0.08493474 -0.10100311
0000f0 b1 e8 9f bd 29 d0 e9 bc cd 28 78 bd 16 f2 b8 3d
       -0.07808054 -0.028541641 -0.060585786 0.09030549
000100 3a 7c 21 3c e5 b2 a7 bd 19 64 d7 bd 97 47 5f 3d
       0.009856278 -0.08188418 -0.10517139 0.054511633
000110 9a d0 10 bd e0 5c 59 bd 66 ae 17 3e 30 c7 df bd
       -0.035355188 -0.053067088 0.14812621 -0.10926664
000120 79 06 97 3d be 18 76 bd 44 9d e1 3b 0a d0 3f 3d
       0.073742814 -0.06008219 0.0068852026 0.04682926
000130 18 07 14 bd 95 d0 c7 3c fa de 84 bd 54 d3 26 bd
       -0.036139578 0.024391452 -0.06487842 -0.040728882
000140 05 06 0a bc 14 d0 c7 3d 27 d9 d3 3c 94 4a 3d bd
       -0.008424287 0.09756485 0.025860382 -0.0462137
000150 50 e4 4a bd 69 53 28 bc 6d ad 76 bd c8 e9 f5 bc
       -0.049534142 -0.010273793 -0.060223985 -0.030018702
000160 f1 e3 b9 3d 7e 68 84 3d d0 f3 b2 3d 6a 95 c5 bd
       0.090766795 0.06465243 0.0873791 -0.09647639
000170 c7 36 bb 3d 4f e4 94 3c aa 14 e5 3d fe 8d 6a 39
       0.09141307 0.018175272 0.11185582 0.00022368875
000180 b6 fa db bd d0 be 6e 3d b8 ae bb 3c ba 9d c3 3d
       -0.10741179 0.05828744 0.02291046 0.09551568
000190 92 c3 5e bd 77 01 8a bd 86 83 fd bd d4 e7 d4 3d
       -0.05438573 -0.06738561 -0.12378602 0.1039578
0001a0 9d cc d8 bd 3b aa 38 bd be 32 0c 3e 3a 3c c3 bd
       -0.10585902 -0.04508422 0.13691232 -0.09532972
0001b0 b7 b3 c6 3d 54 99 23 3d f5 06 ff bd 20 ea b9 3d
       0.09702247 0.039941147 -0.12452499 0.09077859
0001c0 2e 29 9b bd 6c 1f 86 3d a0 82 c9 bd 61 28 0a be
       -0.07576214 0.06548962 -0.09839368 -0.13491966
0001d0 96 13 6f bd d1 85 8b bd 35 45 dd 3d ac ce c8 bc
       -0.058368288 -0.06812633 0.10804216 -0.024512611
0001e0 bb 22 11 3e 60 f0 3e 3b 8e 12 5c 3d f6 26 eb 3d
       0.14173405 0.0029134974 0.053728633 0.114820406
0001f0 7c e9 97 3d b5 43 3c 3d 2c f1 28 3d 3f 2a 25 3c
       0.074175805 0.045963008 0.041245624 0.010080873
000200 44 f1 70 3c 46 95 09 3e bd 09 af bd ed 38 bd 3d
       0.01470596 0.1343585 -0.08546779 0.09239373
000210 56 a8 72 3d 8a a3 80 bd 9a 71 ba bd 3b 55 73 bd
       0.05924257 -0.062811926 -0.09103699 -0.059407454
000220 2e b3 e1 3d ee 74 09 be 7e 13 ee 3c ba 64 02 3e
       0.11020504 -0.13423511 0.029062029 0.12733737
000230 ce 3c de bd a3 12 17 be d9 96 0a be 21 93 ab bd
       -0.10851441 -0.14753203 -0.13534106 -0.08377672
000240 ed d1 af 3d 35 fb ce 3d ba 7e 52 bd b3 6a e9 bd
       0.08584962 0.10106508 -0.051390387 -0.113973044
000250 5b 15 86 3d 47 20 b6 bd 55 7f 04 3e 66 84 3c bb
       0.06547042 -0.08892875 0.12939198 -0.002876544
000260 43 79 85 3d 9d 4c 86 3c f5 5d d9 bd cf eb c9 bd
       0.065172695 0.016393954 -0.10613624 -0.0985943
000270 2d be 87 3d e1 aa aa bd e5 ba ba bd 19 1b 93 3d
       0.0662807 -0.08333374 -0.091176786 0.07182903
000280 bf d4 07 3e 46 cb a3 bd 31 38 a2 3d 2a 30 cc bc
       0.1326475 -0.07997756 0.07920874 -0.02492531
000290 6c af 91 bd 04 00 0c 3e 61 8b b5 3d b4 84 1c 3d
       -0.07113537 0.13671881 0.08864475 0.038212493
0002a0 84 31 af bd b4 cc 92 bd 72 d3 b1 3d 98 9c 29 3c
       -0.08554366 -0.0716795 0.08682908 0.010352276
0002b0 84 41 0b be 2f e1 3d bd 1d 88 3a 3c 30 1c 55 3d
       -0.13599211 -0.04635733 0.011384991 0.052028835
0002c0 59 c5 8e bd c5 59 cc 3d c0 42 f0 bd d9 fb d3 3d
       -0.06971235 0.0997806 -0.117314816 0.103507705
0002d0 ac 72 ae bd 15 7b f3 bd 81 f8 da 3d 11 dc fc bc
       -0.08517966 -0.118887104 0.106919296 -0.030866655
0002e0 6f d1 db 3d d1 a5 0c be da 3d 68 3d 1b 29 84 3d
       0.10733306 -0.13735129 0.05669961 0.06453153
0002f0 dd af 93 3d 90 61 5f bd b4 86 f4 3b 56 af 7d bc
       0.07211278 -0.054536402 0.007462347 -0.015483698
000300 98 3f dc bd 79 a7 72 bd 14 e2 d6 bd 2c 03 9a 3d
       -0.10754317 -0.059241746 -0.1049234 0.07520136
000310 31 33 05 3d d0 9c 41 3d 35 70 0f be fa 7b 70 3d
       0.032519523 0.04726869 -0.14007647 0.058711983
000320 80 62 99 bd bb fb cd bd ce 60 e3 bd 9a 3f f7 3d
       -0.074894905 -0.100577794 -0.111024484 0.12072678
000330 c8 0a aa bd 20 c2 c1 3d 53 a5 a6 bd a4 aa 7e 3d
       -0.083028376 0.094608545 -0.08137002 0.062174454
000340 49 b1 18 3d 49 47 eb bd fe a5 be bd 1d a6 86 3b
       0.037278447 -0.11488206 -0.09309004 0.0041091577
000350 7a da eb bc 97 f3 ed 3d 20 39 ff bd 2e b6 33 3d
       -0.028790701 0.11618727 -0.124620676 0.043874912
000360 d3 eb 9e bc 28 2f a4 bd a8 09 ff bd d0 a5 d2 bb
       -0.01939956 -0.08016807 -0.12453014 -0.006428458
000370 fc 64 cf 3c 9a 7e 94 bd 72 cd e7 3d 0e 35 ec 3d
       0.025316708 -0.0725071 0.113184825 0.11533557
000380 fd ff fe bd ad 0e ad bd d2 df 71 3d 52 c1 be 3d
       -0.1245117 -0.08450065 0.059051342 0.09314217
000390 1c e0 b9 bd 5d 91 c1 3d 0a 00 e6 bd 6e 1f 99 bd
       -0.090759486 0.09451554 -0.11230476 -0.07476698
0003a0 0e 4f 04 3d 9e d7 86 3d 77 30 a7 3c c2 cf 8f bc
       0.032301955 0.065840945 0.020408852 -0.017555121
0003b0 fb 45 53 3d da b9 c8 bd b9 0c 69 3d 42 f4 14 3e
       0.05158041 -0.09801073 0.0568969 0.14546302
0003c0 bc 33 c9 bc 91 1f 6e bb bd 4c ca 3d 28 b2 7a 3c
       -0.024560802 -0.0036334733 0.09877918 0.015301265
0003d0 55 32 e7 bc 3e 24 e8 3d 6f ef 9f bd aa 6c b6 3d
       -0.028222242 0.11335038 -0.0780934 0.08907445
0003e0 75 aa a9 3d bb ad e1 bd 31 03 07 bd 0f d7 46 3d
       0.08284465 -0.110194646 -0.032962028 0.04854494
0003f0 50 ba 7d 3c 49 13 94 3c e0 c5 ee 3d ee a9 d2 3d
       0.015486315 0.018075602 0.116588354 0.10286318

egnn.layers.0.hidden_mlp.0.bias f4 [32]
000000 64 8f 77 3d 1d e1 f1 bb af 0b f6 3c eb a8 bb bd
       0.060439482 -0.007381572 0.030034868 -0.09163078
000010 b2 72 34 3d 8b 1a b3 bb a0 69 8a bd 6f f3 de bd
       0.044054694 -0.0054658107 -0.067584276 -0.10886275
000020 6d 5b 0e 3d 73 89 ab bd e8 de e2 3c d5 b6 0b be
       0.03475516 -0.08375826 0.02769418 -0.13643964
000030 e9 1b 90 3d 4e 00 b7 3d 44 6b 21 3c 30 96 73 bb
       0.070365734 0.08935605 0.009852234 -0.0037168376
000040 41 01 09 3e 88 04 36 3d 05 3d c1 bd 9c 3e 6f bd
       0.13379385 0.044437915 -0.09435467 -0.05840932
000050 02 03 53 bd 44 f5 b2 bd 79 22 cc bd f4 87 b6 bb
       -0.05151654 -0.08738187 -0.09967513 -0.005570406
000060 3f 1a e4 bd ac 0e 85 bc 60 aa 0e 3d 42 e1 90 bd
       -0.111378185 -0.016242348 0.03483045 -0.070742145
000070 e2 66 68 bd dc 30 07 be b1 1a 45 3d 28 a7 0c 3d
       -0.05673874 -0.13202232 0.048121158 0.0343391

egnn.layers.0.hidden_mlp.2.weight f4 [16, 32]
000000 8b dd 0a be 11 f5 db bd 16 61 f1 bc e2 db 07 3b
       -0.13561074 -0.10740102 -0.02946524 0.0020730426
000010 19 ed 33 3c 31 93 1d 3e a2 1e 24 be 95 78 96 3d
       0.010981821 0.1538818 -0.1602731 0.07347218
000020 dc a6 0a 3e a1 36 25 3e 5c b4 08 3d 8d e0 21 3e
       0.13540214 0.1613412 0.03337513 0.15808316
000030 dc a9 be bd 0e cf fa bd e2 a7 22 bd 11 03 bc bd
       -0.09309742 -0.12246524 -0.039710887 -0.09180272
000040 d0 3e ab 3d 82 bf 44 bd 09 21 b2 3d e6 7a 84 bd
       0.0836159 -0.0480342 0.08697707 -0.064687535
000050 44 f7 95 bd f2 c2 59 bd 0a bb a1 bc d0 51 ab bd
       -0.07322553 -0.05316443 -0.019742507 -0.08365214
000060 e8 ce c7 3d aa 68 e4 3d fa 23 04 3d 37 fc 2e be
       0.09756261 0.111527756 0.032260872 -0.170884
000070 4e fd 11 3e 3c 28 05 be fe 7e f6 bd 99 d2 b7 3d
       0.14256784 -0.1300363 -0.120359406 0.08975715
000080 76 56 d1 bd 3e 85 0b be 4b 31 09 be 44 10 19 3e
       -0.10221569 -0.13625047 -0.1339771 0.14947611
000090 2f 6f 4d 3d f8 a7 b0 3d 73 e7 0e 3d 89 ce a4 3d
       0.05015486 0.086257875 0.034888696 0.08047206
0000a0 8e dd 35 3e 73 38 df bc 1d 38 e7 bd 6e e3 19 bd
       0.17760298 -0.027248597 -0.1129 -0.03757041
0000b0 aa e2 83 bd b5 60 2d be ee ca 0b be f6 69 78 bd
       -0.06439717 -0.16931422 -0.1365163 -0.060647927
0000c0 29 f7 06 3d cc dd b8 3d d6 f8 ee 3d 4a 2a 33 be
       0.032950554 0.090266794 0.116685554 -0.17496601
0000d0 ed af 67 bc 35 08 08 bd 5f 43 1a 3e 95 68 3c bd
       -0.014141065 -0.03321095 0.15064763 -0.045998175
0000e0 91 9f 3b 3e fd bf 2e 3d eb 13 c6 3c 24 99 9f 3d
       0.18322589 0.042663563 0.02417942 0.07792881
0000f0 00 e7 09 3e fc 28 be bd 7f a7 97 3d 60 89 8a bd
       0.13467026 -0.09285161 0.07404994 -0.067644835
000100 1c e6 3c 3d 01 e8 d8 3d e8 a2 a3 bd 0c 37 3a bd
       0.046117887 0.10591126 -0.07990056 -0.045462653
000110 5d bd 24 3e d1 5e 2a be ec 84 f6 bc 72 fc 14 3e
       0.16087861 -0.16637732 -0.030092679 0.14549425
000120 c7 11 1f 3d da 4b 14 be 43 e7 c9 3b 13 24 13 be
       0.038835313 -0.1448206 0.0061616017 -0.1436923
000130 3e ac 84 bd 51 87 10 3d b9 f0 c3 3d 23 f3 c8 bd
       -0.06478165 0.035285298 0.095673986 -0.09812
000140 3c 74 1a 3e 05 fe fd bd d4 cc 0e bd 66 e7 1b be
       0.15083402 -0.12401966 -0.034863308 -0.1522499
000150 96 03 b2 bb 84 77 8e bb 99 e8 9a 3d 9c b1 f0 bd
       -0.0054325564 -0.0043477435 0.07563896 -0.11752626
000160 4e 3b 11 3c e2 44 6a 3d 86 56 e6 bd 04 37 1f 3e
       0.008864237 0.057194598 -0.11246972 0.1554833
000170 3b b0 15 bd 09 39 37 be e7 fc 00 bd 3d e3 2b 3d
       -0.03654502 -0.17892851 -0.031491186 0.04196476
000180 64 d6 b9 bd f7 1a 8c bd c4 af 9f 3d bc f1 08 bd
       -0.09074095 -0.06841081 0.077971965 -0.03343366
000190 f6 dc 84 3d 2b 7e 40 3c d1 ac 75 bb be 1d 17 3e
       0.064874575 0.011748831 -0.003748704 0.1475744
0001a0 2b ad f5 bc 06 28 12 3e eb f8 75 bd c1 50 ea 3d
       -0.0299898 0.1427308 -0.06005184 0.11441184
0001b0 10 d5 bb 3d 5c ef e4 bd 97 c5 2a bd 20 8a f3 bd
       0.09171498 -0.11178467 -0.041692343 -0.1189158
0001c0 4a 74 15 3d 51 28 ba 3b ed e6 71 bd 8c ec 1b 3e
       0.036487855 0.0056810756 -0.05905812 0.15226954
0001d0 2e 5a 2c 3e b1 a1 00 be 9f 82 c6 bd bb 95 88 3c
       0.16831276 -0.1256168 -0.09692883 0.01667296
0001e0 f5 6d e0 3d 98 8b dc bd c1 7b 65 bc 27 5f 03 bd
       0.10958473 -0.10768813 -0.014006556 -0.032073166
0001f0 1a 2e 11 be 57 69 4b bc 64 ce b7 bb b7 e2 31 3d
       -0.14177743 -0.012415252 -0.0056093205 0.043429103
000200 a5 73 00 3e a5 34 1e bc e5 4e 03 3e 67 eb 80 bd
       0.12544115 -0.009656106 0.12823065 -0.062948994
000210 fc 00 ec bd 91 1f 8c 3d 89 6e f6 3d 67 37 c9 bb
       -0.11523625 0.06841958 0.12032802 -0.0061406377
000220 f2 5b f9 bd 6c e4 aa bd b3 58 bc bd d9 06 2f 3d
       -0.1217574 -0.08344349 -0.091966055 0.04273114
000230 99 22 44 3d 45 07 1f be cf a1 e1 bc 6d 4d 21 3d
       0.047884557 -0.15530117 -0.027542977 0.03938048
000240 4b 25 97 bd 61 3c 31 3e b6 4d 12 3e f6 ff b0 bd
       -0.0738016 0.17308189 0.14287457 -0.08642571
000250 f9 08 a5 3c 6f 88 f2 bc dd 5b 1d be b1 d0 68 3c
       0.02014588 -0.029606072 -0.15367074 0.014209912
000260 45 c7 fc 3d 1a 68 cb 3d d1 c9 af 3d 51 5c 72 bd
       0.12342695 0.09931965 0.08583415 -0.05917007
000270 27 a6 cb bd 1b e5 1b be cc 78 1f be 47 42 fd 3b
       -0.099438004 -0.15224116 -0.15573424 0.007728848
000280 8a 1f 03 3e ef 13 21 3d a5 ed 0d bd ff 77 b1 3c
       0.12805 0.03932565 -0.034650464 0.021663664
000290 d6 24 1f 3d 1d c2 a2 bd 29 d4 e4 3d ff df 9d 3d
       0.03885349 -0.079471804 0.11173279 0.077087395
0002a0 96 2f 5d bd ad 89 2b bc af e5 1f be 4c ff b5 3d
       -0.05400046 -0.010469836 -0.15614961 0.08886585
0002b0 8e 44 b3 3c 95 6a 0b 3e 9d 40 73 3d bd 37 1d be
       0.021883275 0.13614877 0.059387792 -0.15353294
0002c0 ff 0d 26 bd 6f d8 c9 3d ea 32 1a 3e 58 df 3c 3d
       -0.04054069 0.098557346 0.15058485 0.046111435
0002d0 66 e9 1e 3e 10 a4 32 3e 52 4b 78 bd 44 a7 f6 3c
       0.15518722 0.17445397 -0.060618706 0.030109055
0002e0 b8 20 1a 3e 2b 8c aa bc 6e ff cc bd 35 cb 05 be
       0.15051544 -0.02081879 -0.10009657 -0.13065799
0002f0 2d e2 90 bd ef ba 40 be 56 a8 9f bd e4 ff b0 3d
       -0.070743896 -0.1882131 -0.077957794 0.08642557
000300 45 52 0b 3e 97 c2 b1 3c 0d 26 86 bd aa e6 db bd
       0.13605602 0.021699233 -0.06550226 -0.10737355
000310 5c 1a 0b be 42 96 fa 3c 30 ea 28 3e e9 6b e2 bd
       -0.13584274 0.030589227 0.16495585 -0.110557385
000320 1c 60 2d 3e 97 9b 99 bd 1e 13 eb bd c4 66 ce 3d
       0.16931194 -0.075003795 -0.11478256 0.10078195
000330 e8 22 e3 bd dd 89 27 3e 2a 2a 1e be 5a 30 d5 3d
       -0.11090642 0.16361184 -0.15445772 0.10409613
000340 ff f4 24 3e ad 0e 80 bd ca 25 da bd 56 bc 71 bd
       0.16109084 -0.06252799 -0.10651739 -0.0590175
000350 bf 67 15 3e 1a 87 04 be 24 e9 16 3e b6 e4 1e 3e
       0.14590357 -0.12942162 0.14737374 0.15516934
000360 13 1e a2 bd 27 b3 0a 3e 46 59 a3 ba 28 4b 01 3d
       -0.079158925 0.13544904 -0.0012462519 0.031565815
000370 cf 85 9c bb ab 3e 09 3d 19 f8 29 3e a9 9e f2 3c
       -0.0047766934 0.03350703 0.16598548 0.02961667
000380 f8 fe 87 3c d9 5a d3 bd 19 d2 f9 3d 47 54 77 bd
       0.01660107 -0.10320062 0.12198276 -0.060383108
000390 87 2c 0f be 6b 32 2d be ae 5a 28 3e 72 37 8e 3d
       -0.1398183 -0.16913764 0.16440842 0.06944169
0003a0 16 2d 99 bd 12 26 de bd 49 a5 c6 3b 4e 59 f3 bc
       -0.074793026 -0.10847105 0.006062184 -0.02970567
0003b0 ba 64 9c ba 70 b1 0f 3e a6 67 b4 bd d9 da f1 3c
       -0.0011931874 0.14032531 -0.08808832 0.0295233
0003c0 27 a2 c3 3d 71 a7 0a 3e 52 a0 05 3d b1 b0 ef bd
       0.095524125 0.13540436 0.032623596 -0.11703623
0003d0 eb 7d 0b bd 54 73 ce bc 01 5b 4b bd f2 13 2a be
       -0.03405563 -0.025201477 -0.049647335 -0.16609171
0003e0 51 c4 11 bc ba e4 1c 3e 0d ac a5 bd 0e 0c 94 bd
       -0.008896903 0.15321627 -0.08089457 -0.07228862
0003f0 e4 86 f1 bd bc e4 1c 3d 50 cd d8 bd 5d b5 a0 3c
       -0.117933065 0.038304076 -0.10586035 0.01961773

egnn.layers.0.hidden_mlp.2.bias f4 [16]
000000 67 0e 9c 3a 79 26 bc bd f0 49 c6 3d 54 a7 34 b7
       0.0011906148 -0.091870256 0.09682071 -1.0767795e-05
000010 d9 76 90 bd 3b 8e 28 3d ef 17 a7 bd 61 41 3e b7
       -0.070539184 0.041151267 -0.08158862 -1.1340105e-05
000020 f9 4f 88 bd da 6d d4 38 42 9f 8c 3a 37 40 b2 3d
       -0.066558786 0.00010129409 0.0010728615 0.08703654
000030 38 8d b9 bc a1 38 50 3d cc e8 a5 b6 34 07 67 3d
       -0.022650346 0.050835256 -4.9444843e-06 0.056403354
