2-egnca-rework/logs/line4-2024-10-05@23-20-03/best@172.pt (torch, 26116 bytes, 11 tensors)

egnn.layers.0.message_mlp.0.weight f4 [32, 33]
00000000: f656 7c3d a2e4 c73d d011 2fbc bd43 bb3d
00000010: d6f0 4fbd 1647 d33c 278f 2cbd 6aec 73bc
00000020: f691 1abd 0c76 e73c d3a0 053e 9e50 0e3e
00000030: f279 00bd 8017 81bd c98b d2bc ac3c 163e
00000040: 4c9d 0f3e a281 40bd 326a 7dbd b607 39bd
00000050: 4ddb fb3d 016c 0e3e bc43 f9bd 8ba6 7ebd
00000060: 3b93 1ebe d305 2b3e 4e0e d33c a9d2 5c3d
00000070: 9c9f bd3d 3b54 203d 5c2e 0ebd 6a3b 2ebe
00000080: dee5 2b3d 7df5 03bd 9e9b 32be e3d4 b8bc
00000090: 7964 c1bd ef1b c9bd e610 01be d4ec 19be
000000a0: 623e 43bc e6df 933c 483d 21be 6612 24be
000000b0: 6496 823a f709 26be 0100 af3d 7186 36bd
000000c0: 1c4b c2bc b618 23be 9119 04be c4cb 873d
000000d0: 2c06 c2bd 6299 93bd fb85 1ebe 618d 2cbc
000000e0: 1e89 dcbd 8eb4 393d 33c8 623d dcf9 213d
000000f0: 89a3 743d 4c35 febd 30fd 9b3c abae 1ebe
00000100: 0974 f6bd f472 153e 3d29 003e 75ee f9bd
00000110: 62d3 c23d 4e4b 15be 1228 d73c 16ea 1f3e
00000120: a727 7d3c dfae 8a3d 8bd3 223e d05e 86bd
00000130: efda 023e 2ee4 d53c 737b 25bd 03b4 21be
00000140: 8900 2c3e 4674 2f3e 9610 9dbd 251d 2c3d
00000150: 8e10 3abe 983b f73c 4346 cb3d 979e 8f3c
00000160: c07f babd 85cb 213e 2be6 c5bd 2d38 a43c
00000170: 27bc 27be f243 993d 971a f53d 279a 073d
00000180: a189 0a3e b624 34be 4369 d4bd 22a5 423d
00000190: ba25 b53d b5ca 34bd cfcf 463d f02d 2dbe
000001a0: 72c5 2c3e f05b 0cbe 621c 26be 710c 04be
000001b0: 24b5 303e 5478 2d3d a089 67bc 28b3 0d3d
000001c0: 5c1d 1cbb d879 fabd 0fa0 de3d f6bb 16be
000001d0: 55dd 2fbd c05f 8e3c 1e67 debd af3c 2a3d
000001e0: 8b41 22be 2a0d a8bd ea4a 1a3e 8a05 523d
000001f0: 92d6 11be 2230 273e 304c 40bd 7814 fc3c
00000200: 27c2 20bd 8743 cfbd ede8 fc3c a62e 21bd
00000210: 9f42 bebd 98ed c23d ffbf aa3d 6050 e93d
00000220: 8eae dcbc 7597 efbc 6438 143c e30f 1c3e
00000230: 9e9d 1ebe f81b 2bbc a5ed 753c 1770 ab3d
00000240: cabe 2ebe 03cb 3fbe f87a dfbb b7b6 5d3d
00000250: 2123 97bd 052c 093e 4c7a 093d dcde 78bd
00000260: 9988 7fbd 4a4c 11be 028e bd3d 36ef 07bd
00000270: 2dc4 b53d a70f 3cbe 281c 023e 2278 603d
00000280: 450f e3bd 4e38 c2bd 128d fc3d 3dbc a43d
00000290: 7391 ac3d 9cc2 1f3d 17ae afbd 432f ebbd
000002a0: 121c 4dbd c44a 46bd ee9d e0bc fb3a 21bd
000002b0: 638d 10be a7f4 20be 324c fbbd 075e b63d
000002c0: ad94 e2bd 4500 0abe 01bf 9bbd 542c 633d
000002d0: d3e0 5dbd e7de 4e39 64d4 bb3c f21f 00be
000002e0: b5bc 4dbd 5c28 49bd 1d5a 39bc 81c3 dbbd
000002f0: 9d35 11bd 56fe 7f3c f7eb 603d 2d40 eabd
00000300: 681b 203e 542b 3f3d 9ad3 0fbe b57b 273e
00000310: 273b e7bd c229 7bbb 0780 083e e690 0fbd
00000320: e515 383d f870 ac3d fd7f 6abd 1e5b a03c
00000330: ef01 0a3e 0074 113a e721 1fbd e7ce 083e
00000340: 1e01 143d 63fb e4bd 08a4 b63d 0994 0f3e
00000350: 8de2 6f3c 9610 153e 1e10 dfbd 25a9 2c3e
00000360: 7c3b cc3d 6765 9d3a e677 21be d30b 2d3e
00000370: 903b 4bbb ac21 ac3d c0d4 bdbd ec40 763d
00000380: 7944 ddbc cb0f 3b3d f994 8d3d 5900 efbd
00000390: f705 02be d4d5 f5bb d97c 39bd 396a f23d
000003a0: 6db8 94bd 8c6e 1f3d d46d 24be dd5b b13d
000003b0: 6986 da3d 6472 da3c df27 b43c 0897 de3c
000003c0: 77b4 ecbb 76d2 1cbd 3deb 053e 1452 5fbd
000003d0: 8642 ccbc d5cf 85bc 9c0d d8bd 0d9d 0dbe
000003e0: 4755 d3bd 2b58 33bd 87a1 0cbe b8d6 6c3d
000003f0: 766a 0abe 8af0 2bbd 6986 9abd 285f adbd
0.06160637 0.09760405 -0.010685399 0.091437794 -0.05076679 0.025790732 -0.04212871 -0.0148879085
-0.037736855 0.028254531 0.13049631 0.1389794 -0.031366296 -0.063033104 -0.02570142 0.14671582
0.14024848 -0.046998627 -0.061868854 -0.04517337 0.12297688 0.13908388 -0.121711224 -0.062170547
-0.15485851 0.1670144 0.025763657 0.05391184 0.09258959 0.03914283 -0.03471218 -0.17014852
0.041967265 -0.032216538 -0.17442176 -0.02256245 -0.09442992 -0.09819781 -0.12604102 -0.15031749
-0.011916729 0.018051099 -0.15746033 -0.16022643 0.0009963033 -0.16214739 0.085449226 -0.044561807
-0.023717456 -0.15927395 -0.12900378 0.06630662 -0.094738334 -0.0720699 -0.15480797 -0.010531754
-0.107683405 0.045338206 0.055366706 0.039544925 0.05972627 -0.12412509 0.019041628 -0.15496318
-0.12033851 0.14594632 0.12515731 -0.12203685 0.09512974 -0.14579508 0.026264224 0.1561664
0.015451348 0.06771635 0.1590101 -0.06561053 0.12778829 0.026109781 -0.040400933 -0.15791325
0.16797079 0.17134199 -0.07669179 0.042019982 -0.18170378 0.030179784 0.09925511 0.017531676
-0.09106398 0.15800293 -0.09663042 0.020046318 -0.16380368 0.07483663 0.11967962 0.033105996
0.13529064 -0.17592129 -0.103716396 0.047520764 0.088450864 -0.04413863 0.048538025 -0.16912055
0.16872194 -0.13706946 -0.16221765 -0.12895371 0.172566 0.042351082 -0.014131933 0.034594685
-0.002382121 -0.12230271 0.108703725 -0.14720139 -0.042935688 0.017379642 -0.10859512 0.04156178
-0.15845315 -0.08205636 0.1506764 0.051274814 -0.14242008 0.16326955 -0.046947658 0.030771479
-0.039247658 -0.10120302 0.030872786 -0.039351128 -0.09290051 0.09517974 0.083374016 0.113922834
-0.026938703 -0.029247025 0.009046648 0.15240435 -0.15489814 -0.01044368 0.015010272 0.08370989
-0.17064968 -0.18729787 -0.006820079 0.05412933 -0.07379747 0.13395698 0.033563897 -0.06075941
-0.06238613 -0.14189258 0.092556015 -0.033187114 0.08875308 -0.18365346 0.12706053 0.054802068
-0.11086897 -0.094833955 0.123315945 0.08043716 0.0842618 0.039003953 -0.08578127 -0.11483624
-0.050075598 -0.048411146 -0.027419057 -0.03936289 -0.14116435 -0.15718327 -0.122703925 0.08904653
-0.11063514 -0.13476665 -0.076047905 0.055462196 -0.054169487 0.00019728729 0.022928424 -0.12512186
-0.050228793 -0.049110755 -0.011312989 -0.10730649 -0.03545152 0.015624603 0.054912534 -0.11438022
0.15635455 0.04667218 -0.14045563 0.16355784 -0.11290579 -0.003832445 0.13330089 -0.035050295
0.044942755 0.084199846 -0.057250965 0.019574698 0.134773 0.00055485964 -0.03885069 0.13360177
0.036133878 -0.11180761 0.08918005 0.14021315 0.014641416 0.14557108 -0.10891746 0.16861399
0.09972283 0.001200837 -0.15768394 0.16899042 -0.0031010844 0.0840486 -0.092690945 0.060120508
-0.02701019 0.04566936 0.0691318 -0.11669988 -0.12697588 -0.007502297 -0.04528508 0.118366666
-0.07261739 0.038923785 -0.16057521 0.086601 0.10670168 0.026665874 0.021991668 0.027171627
-0.0072236615 -0.03828665 0.13078018 -0.054521635 -0.024934065 -0.016334454 -0.10549471 -0.13829441
-0.10319 -0.043785255 -0.13733493 0.05782196 -0.13517174 -0.041977443 -0.07545168 -0.08465415

egnn.layers.0.message_mlp.0.bias f4 [32]
00000000: 9714 0bbd f305 8dbc 50e0 4e3d 2e0a 1fbe
00000010: 441e 6f3d 1ae9 19be bc90 13bd a084 12be
00000020: 414b 19be 30c0 bebd dd05 013e 85b6 23be
00000030: d70a 9d3d 10e6 6ebc 8d14 12be c76c 403d
00000040: d7cc c1bd 224c d1bd c620 123d 3870 00be
00000050: 9fdd 1d3c 9b49 763d 152a 4f3d 023f c03d
00000060: 266b 13be 77a7 6b3d 04df d93d 2eeb 24be
00000070: 7d13 853d 16e8 4c3c ae82 7e3d 0662 2bbe
-0.033955183 -0.01721475 0.05050689 -0.15531227 0.058378473 -0.15030327 -0.0360267 -0.14308405
-0.14970113 -0.093140006 0.12599893 -0.15987594 0.07668083 -0.014581218 -0.14265652 0.04697874
-0.09462898 -0.10219599 0.035675786 -0.12542808 0.009635358 0.06012879 0.050577242 0.09387018
-0.14396343 0.057532754 0.1063824 -0.16105339 0.06497858 0.0125065055 0.062136345 -0.16736612

egnn.layers.0.message_mlp.2.weight f4 [32, 32]
00000000: 0a04 e63d fbe2 21be 5569 ac3d 51da 223e
00000010: 2f13 07bd 6cfb aa3d 74b7 d6bc 49ee ce3d
00000020: 48cb 24be 311d 4b3b d8e4 403e 6ae2 2bbd
00000030: 06da 0ebe 79ec 0dbe 5f15 1c3d fd68 203e
00000040: c8f8 30be 5de6 e83d eee6 09be 36a0 973d
00000050: b41f 1e3d e2fb 703d 8f1e 1bbe c451 2a3e
00000060: 6450 1c3d 712b 2ebc 533b 08be b04e dd3d
00000070: 92a0 293e e527 883d 0d73 b9bc 2a35 1ebd
00000080: 43a4 37be ecaa eb3d 6332 cdbc 92d8 21be
00000090: 88c2 0c3a cd2b 063d bb23 e83d 4a5d 623d
000000a0: f7b3 f2bd 0ce9 4abd 7924 2ebe efb4 a23d
000000b0: 2987 a43d 090f dbbd 9c2b 313d 1418 f13d
000000c0: f941 233e 871e f53d 05f1 8a3d 7dc4 313d
000000d0: a144 743d e037 263e f8ac da3d cff9 023d
000000e0: 2f64 b03c 1c07 f13d d1b3 333e a7ee f1bd
000000f0: bf93 b2bd 2d4a 483e ae33 95bd e14b 5ebd
00000100: 80a0 0e3e b389 8bbd 1de0 383e d933 d2bd
00000110: d822 9fbd 313f 243c 7442 f03b 5f6a 293e
00000120: 2eed 96bd 398e 8e3d a314 b7bc 80a5 dfbc
00000130: 4c11 1bbe 285f 283e 2ad5 c5bd 15e7 16bd
00000140: 0143 a8bd 93c5 273e baa8 93bd 5709 2cbd
00000150: 0a47 d93d 0cb3 313e d55f 2b3e 0d00 d9bd
00000160: c9d4 84bd 118b 153e ebf6 933d 854c 0c3e
00000170: 3634 7b3d bdbd 00be 13c0 e2bc 27d1 97bd
00000180: 031b 14be 3fc6 443d 471b bf3d 14a0 843d
00000190: 5fd4 0f3e 50f7 94bd 4a61 733d dc40 69bd
000001a0: b9ae 193e 797e 5bbc 961d 013e b0bf 063e
000001b0: d6dc fabd e478 2dbd 0dc8 1b3e 7e34 b0bd
000001c0: e80d 2fbd 35b0 143e 69af 143e 90f5 f33d
000001d0: d144 853c 9cf0 e13d 624f 29be e23c ab3d
000001e0: f663 f2bc 108c 06be e434 203d b0d2 6139
000001f0: 0624 823d 4dc3 6dbd 1cfa 363e 77f7 3ebe
00000200: 319c 2f3e 963c 9dbd 7a0d d93d 48bb cfbc
00000210: 55fc 42bd e08b 06be 344a 14be 1f85 d03c
00000220: 9f44 d2bd 6990 f7bd bcd7 17be 45f0 1c3e
00000230: fe6d 2c3d 62c8 833c 1bc8 57bd fccd 1cbe
00000240: 3900 cc3d ef9e 123e e97e 063d e57b 3f3d
00000250: ae75 4c3b 0e14 8f3d fa69 183c 1326 e8bd
00000260: a752 cfbc 150d 253e 16b0 dcbd f248 203e
00000270: 22c1 cbbd 8821 1abd e451 e43d 7fa5 dbbd
00000280: c5f4 2ebd 813a 0abe 87df cebc e497 e33d
00000290: 7477 b3bd 0c6c 28bd 97a7 c43b aae2 cc3d
000002a0: fc4e ec3c f2f6 c3bc 2a30 e0bd efea 0cbe
000002b0: 6a64 2e3e 4bff 3cbd 8db8 e13d 4471 88bc
000002c0: 74a5 aebd 36f3 8dbd a6da 0ebe 227f 0cbd
000002d0: 0a39 243c bea4 b1bd 092d 423d 73b2 a23d
000002e0: 21c1 e6bd a576 9cbc 7267 023e 17f8 28be
000002f0: 9a99 be3d d78d 26bd 603c 35bd fd05 e1bd
00000300: 1b77 4abc be2b 753d 478c abbd 233d 67bd
00000310: 0994 b83d 7bd1 adbd 6515 5b3c 9a14 c73d
00000320: a9e1 7abb 5620 4fbd f2db e9bd be36 2abd
00000330: d15c 0fbd c616 e63d a1c5 7e3c 7116 13be
00000340: 3291 47bc 59cd dbbd 51fe 3f3e dd02 28bd
00000350: c551 2dbe 7911 c9bd 78be cc3d 06af 2c3e
00000360: c1b7 e6bd 9b1e 32be 70f2 26bd 5a1d 4bbd
00000370: cb5a b5bd d68f e23d 1d1b 823c 78f9 053e
00000380: e295 013e 675b 443c 1d18 123e ad3d 3fbd
00000390: aa87 783d 87cc e2bd bda0 1c3d e104 953d
000003a0: 002c 36be 3025 1a3e 4e73 fd3d a8d2 dcbd
000003b0: 6fb7 583d 4828 2b3e e539 76bd 5e95 af3b
000003c0: 7b35 9bbc dde4 d0bd 1308 b43d 4125 a4bd
000003d0: c82a 593d 8cae 0f3d 2978 b13d ae91 2c3e
000003e0: 8136 723d abeb d9bc 2f1b 65bd f174 153e
000003f0: 02a2 ea3d ad0f 1b3e d142 a1bd 4925 e43d
0.11231239 -0.15809242 0.08418528 0.15903594 -0.03297728 0.08348736 -0.026210524 0.10104043
-0.1609317 0.0030992741 0.18837297 -0.041963972 -0.13950357 -0.13859738 0.03810632 0.1566505
-0.17282403 0.11372063 -0.13466999 0.07403605 0.038604453 0.058833964 -0.15148376 0.16632754
0.038162604 -0.010630474 -0.1330388 0.10806024 0.16565159 0.06648234 -0.022637868 -0.03862492
-0.17933755 0.1150721 -0.02504844 -0.15805271 0.00053695636 0.032756615 0.1133494 0.05526475
-0.11850732 -0.049538657 -0.170061 0.079446666 0.08033592 -0.10696227 0.04325448 0.11772171
0.15943135 0.11968713 0.06784252 0.043400276 0.059635762 0.16232252 0.106775224 0.031976517
0.021532146 0.11768934 0.17549063 -0.118130974 -0.087195866 0.19559546 -0.07285248 -0.054271583
0.13928413 -0.068133734 0.18054242 -0.102637954 -0.07770318 0.010024832 0.0073321406 0.16544484
-0.07369457 0.069607206 -0.022348708 -0.027300596 -0.15143317 0.16442549 -0.096597984 -0.03684147
-0.08215905 0.16383962 -0.072099164 -0.042001095 0.10609253 0.17353457 0.16735776 -0.10595713
-0.06485898 0.14603831 0.0722483 0.13701065 0.06132909 -0.1257238 -0.027679479 -0.074129395
-0.14463429 0.048040625 0.093313746 0.06475845 0.14045857 -0.072737336 0.059418954 -0.05694662
0.15008058 -0.013396853 0.12608942 0.1315906 -0.12249152 -0.04235162 0.15213032 -0.08603762
-0.04273787 0.14520343 0.14520039 0.11912072 0.016268166 0.11032221 -0.16534188 0.08361222
-0.02958868 -0.13139367 0.03911294 0.0002153616 0.06354527 -0.05804758 0.17868847 -0.18649088
0.17149426 -0.076775715 0.105982736 -0.025357857 -0.047603924 -0.13139296 -0.14481431 0.025454102
-0.10266995 -0.12088091 -0.1482839 0.1532603 0.042097084 0.01608676 -0.05268107 -0.15312952
0.0996098 0.14318441 0.032835875 0.046749014 0.0031198072 0.06986247 0.0093026105 -0.11335387
-0.025307966 0.16118272 -0.10775773 0.15652826 -0.099489465 -0.037629634 0.11148432 -0.10724925
-0.0427139 -0.1349888 -0.02525307 0.11112955 -0.08763018 -0.041118667 0.0060014236 0.1000417
0.028846256 -0.023921464 -0.109466866 -0.13761495 0.17030492 -0.046141904 0.110215284 -0.016655572
-0.085276514 -0.069311544 -0.13950595 -0.03430093 0.010023365 -0.08674 0.04740623 0.07944193
-0.11267305 -0.019099543 0.12734774 -0.16500889 0.09306641 -0.040662613 -0.04424703 -0.1098747
-0.0123574985 0.05985617 -0.08376365 -0.05645479 0.090126105 -0.08487221 0.0133718 0.09720726
-0.0038281477 -0.050567947 -0.11418904 -0.041556112 -0.035000626 0.112348124 0.015550048 -0.1436403
-0.012180613 -0.10732526 0.18749358 -0.041018356 -0.16925724 -0.09817786 0.099972665 0.16863641
-0.11265517 -0.17394488 -0.04075855 -0.04958854 -0.08855208 0.11062591 0.01588207 0.13083446
0.12654832 0.011984683 0.14267011 -0.046689678 0.060676254 -0.11074167 0.03823923 0.07276321
-0.17790222 0.15053248 0.12375508 -0.10782367 0.05290931 0.16714585 -0.060113806 0.005358382
-0.0189464 -0.10199902 0.087906025 -0.08014918 0.053019315 0.03507857 0.08665497 0.16852447
0.05913401 -0.026601633 -0.055934127 0.14595391 0.11456682 0.15142699 -0.07874072 0.11139924

egnn.layers.0.message_mlp.2.bias f4 [32]
00000000: 209e 633b 7883 de3d 65e9 9c3c dc89 273e
00000010: 8f0c bdbc 5c15 27be 6a5d 20be 5ddf 9abd
00000020: 6225 743d daf3 c93d 82cd a23d dbed 1b3e
00000030: eace 2fbe 445a 933d 8940 85bc edb4 08be
00000040: 80ba 2d3d b399 2a3e 9978 463d ac8e da3d
00000050: 4e88 c83d 769c efbd e090 30be 5a7a 26be
00000060: 652d 1a3e 43f0 04be 90cf 6bbd 5476 173e
00000070: 0a88 1f3e caec 01be b4f6 963d 01d2 a3bb
0.00347317 0.108649194 0.01915426 0.16361183 -0.023077277 -0.16316742 -0.15660635 -0.075621344
0.059605964 0.09860964 0.07949354 0.15227453 -0.17168775 0.07194951 -0.016266124 -0.13350268
0.04241419 0.16660194 0.048454855 0.10671744 0.09791623 -0.116997644 -0.17242765 -0.16257611
0.15056379 -0.12982278 -0.057570994 0.14791232 0.15579239 -0.12687984 0.07371274 -0.0049993997

egnn.layers.0.coord_mlp.0.weight f4 [32, 32]
00000000: 0c08 25bd b115 10bb 06d8 ae3b 149d 2bbe
00000010: c86c f7bd 9ab1 ac3d 103f e03d 90f9 383d
00000020: cd22 dfbd 357b 5abc 30ba de3d fc27 dfbd
00000030: 5748 033e 3936 873d 6657 dbbd b3bc 24be
00000040: 49fc 9d3d 8c20 3a3d 8fda c2bd 2f6b 09be
00000050: 5a2e 113d c2c4 a13d 2384 8bbd fa32 153e
00000060: 4072 fe3d 30db e53d c50c 163e 79a2 f3bd
00000070: c1b4 113e 2312 1bbe 7a28 30bd 6888 03be
00000080: 3938 38bd 342a 1dbe 2d6a 1dbe f708 e5bd
00000090: cc56 e33c df08 e4bd 36d5 8d3c 9541 ce3c
000000a0: 093e 1bbe c9b4 113e ead1 50bd 6f9f f73d
000000b0: f73a 39bb 6c17 e33d b857 543c 35ac dfbd
000000c0: 65b5 24be f1bc 02be 604b cebd d22c f5bd
000000d0: b868 2e3e b3ef f4bd a642 663c 2b3d f7bd
000000e0: 1336 063e 3b84 f4bb 22c9 9ebd 6085 663c
000000f0: f29b bfbd bdba b23d abfa b2bb 32fe f7bd
00000100: 4dc5 3dbd d72d 4bbb 000b 90bc 2e8d 91bd
00000110: 4034 0c3d ac41 373e 9231 c3bd 8561 a8bd
00000120: 6916 c93b 4572 fe3d b12e b0bd c058 09be
00000130: 0dcb 2e3e 1918 863d 53d2 983d 7c46 29bd
00000140: 39b9 193e a06f a33a cf08 713d 7718 263e
00000150: 22a2 f3bd 8701 edbd 25e9 eb3d c95c cc3d
00000160: dbef 00ba c1d3 96bd 037c 203e 1e34 1abe
00000170: d039 d3bc 942e 19be d4a6 083e d6d7 0a3d
00000180: 9d4b 59bd 9f4c fabd 67ac 24bd a811 13be
00000190: be2b 233e a905 b5bd 0c65 7cba eff3 513c
000001a0: c1c4 d13d 64cd 97bc be62 dd3c fe8f 60bc
000001b0: 0900 2f3c c44c c33d 0c9f f23d f133 20bc
000001c0: cfe1 433d 51ed 32bd 80da 8f3d 9e41 da3b
000001d0: eb81 77bc 98ae 443c ae5f 0f3e da5f f53d
000001e0: 5eb0 13bd 077a fd3d a724 e93b 9055 98bd
000001f0: 1261 aebd f808 d53d ee4d 85bd 30c9 a9bc
00000200: ded4 abbd b287 dfbd f71c f43d db5a 173e
00000210: 80d9 1ebe 60da 2e3c aace 113e 309b e93d
00000220: 25d4 493d 6f77 793d 1f06 3abd 7ece f73c
00000230: d578 d53d ef8a bdbd 8310 29bc a1b9 383e
00000240: 06fb f43d 6183 ae3d a48e 043d 8a93 143e
00000250: b7b5 05bd 9e04 18bd 4802 9dbd badb b53d
00000260: 9719 0bbe 8ebb 093d 3f0a 0c3d 60d5 e3bd
00000270: 2c2b b23d 2638 22bc 9155 9d3d fd77 8ebd
00000280: 3edd 323d 6f9e 093e 6179 ca3c 3ffa e4bd
00000290: 0b2a 2cbd 110c 4cbd 1d02 23bc e40d 37bd
000002a0: 1281 103d 500a 97bd 02f2 fa3c ef2a 1abe
000002b0: 0714 31bd 89ea a63d 707c c93d 2e63 04be
000002c0: f33d dfbd 5da0 803c 2b31 c63c 90bf 3ebd
000002d0: cd43 ec3d 4761 c2bd 39fa d6bd 69d5 103e
000002e0: f8d4 bdbd 6761 22bd 1b5c 0dbe ca87 b93d
000002f0: c825 3dbd 47fb b53d b0ce aa3d 90a3 14be
00000300: 1cc9 febd ba4f 253e cbd3 27be ed46 f3bd
00000310: 9152 16be fa0f 0c3e 7677 27bc a602 2ebe
00000320: 0ed3 08be 168b 193e 099a b5bd ddac 053e
00000330: 866e 273e ee12 5c3d e949 aabd 032a 383e
00000340: 8797 283e 4299 0b3e e3a7 6bbd 971e 053e
00000350: 7e84 d9bd b8a7 bd3d e2f4 293b 5fbb 163e
00000360: ae39 1d3d b352 aa3d 3996 efbd 86b8 ee3d
00000370: afcd 0fbc f496 42bc e854 da3c 7e83 67bd
00000380: 24dd 29be 6e6f 25be 976e 333d aefd 90bd
00000390: de86 fabd 2770 113e 9f7d 3c3e 3daf 40be
000003a0: 848a f1bd 8158 d9bd 8ad8 683d e732 b83d
000003b0: fbb3 b4bd 389c d3bd 694a ea3d f3d0 d1bd
000003c0: 18e3 aabd e779 2e3e 6ff0 063b 4f4b 93bd
000003d0: 220c bc3d 9c29 1cbe 4673 2c3e 5296 c7bd
000003e0: 5bd7 c03c f7be cebd 4672 023e f1d4 3c3c
000003f0: b300 20be 44e0 d3bd 2cdc e33d 8ce9 75bd
-0.040290877 -0.0021985585 0.0053358106 -0.1675914 -0.12081295 0.08432312 0.10949528 0.045159876
-0.108953096 -0.013335039 0.10875356 -0.10896298 0.12820564 0.06602139 -0.10710029 -0.16087608
0.07714135 0.045441195 -0.09514343 -0.13419794 0.035444595 0.07898857 -0.068123125 0.14570227
0.12424135 0.11223447 0.14653309 -0.118962236 0.14229108 -0.15143637 -0.04300735 -0.12845004
-0.044975493 -0.1534813 -0.15372534 -0.111833505 0.027751349 -0.111345045 0.017313581 0.025177756
-0.15160383 0.1422912 -0.05098144 0.120909564 -0.0028263906 0.11088452 0.012960367 -0.10921518
-0.16084822 -0.12767388 -0.100729704 -0.119714394 0.17032135 -0.119597815 0.014053976 -0.12072214
0.13106565 -0.007462052 -0.07753207 0.014069885 -0.09355916 0.08727024 -0.005462011 -0.12109031
-0.04633074 -0.0031002664 -0.01758337 -0.07107006 0.034229517 0.17896146 -0.09530939 -0.082217254
0.0061367047 0.12424139 -0.08602656 -0.13412762 0.17069645 0.06547565 0.07461991 -0.041326985
0.15012063 0.001246918 0.05884629 0.1622027 -0.11896159 -0.11572557 0.11519078 0.09978635
-0.0004918554 -0.073646076 0.15672307 -0.15058944 -0.025784403 -0.14959174 0.1334489 0.033897243
-0.053050626 -0.122216456 -0.04020348 -0.14362204 0.15934655 -0.0883897 -0.0009628094 0.012814506
0.10242606 -0.018530555 0.027024623 -0.013706205 0.010681161 0.09536126 0.11846742 -0.009778009
0.04782277 -0.043683354 0.070240974 0.006660654 -0.015106658 0.012004517 0.14001343 0.11981173
-0.03605687 0.123767905 0.007114965 -0.07438195 -0.085146084 0.10402101 -0.065090045 -0.020725816
-0.083902106 -0.10914554 0.11919587 0.14780752 -0.15512657 0.010672182 0.14238992 0.11406553
0.049274582 0.060904916 -0.045415994 0.03024983 0.104234375 -0.09255015 -0.010318878 0.18039562
0.119619414 0.08521152 0.032362595 0.14509407 -0.032644 -0.03711378 -0.07666451 0.088798
-0.1358398 0.03362613 0.03418946 -0.111246824 0.08699641 -0.009901082 0.07682336 -0.0695648
0.043668024 0.13439344 0.024716081 -0.11180543 -0.042032283 -0.049816195 -0.009949234 -0.04469098
0.03527934 -0.07375014 0.030632976 -0.1505544 -0.04323199 0.08150203 0.09838188 -0.12928459
-0.10900488 0.015701467 0.024193367 -0.046569407 0.115363695 -0.094912104 -0.10496945 0.1414391
-0.09269136 -0.03964367 -0.13804667 0.09059103 -0.04617861 0.08885818 0.08340204 -0.14515519
-0.12440702 0.16143695 -0.16389386 -0.118787624 -0.14679934 0.1367797 -0.010221353 -0.16993198
-0.13361761 0.14994463 -0.088672705 0.13054223 0.16350755 0.05372899 -0.083148785 0.17984776
0.16464053 0.13632682 -0.057533156 0.1299995 -0.10620974 0.092605054 0.0025933315 0.14719914
0.038385086 0.08316555 -0.116985746 0.11656289 -0.008777066 -0.01187681 0.026651815 -0.056521885
-0.16588265 -0.16155788 0.04380664 -0.070796356 -0.12232755 0.14202939 0.18407296 -0.18816848
-0.11793998 -0.10612584 0.056847133 0.08994084 -0.08823391 -0.10332531 0.11439974 -0.10244932
-0.08344096 0.1703869 0.0020590087 -0.07192098 0.09182002 -0.15250248 0.16840848 -0.09745468
0.02354019 -0.100950174 0.12738904 0.011525379 -0.15625267 -0.1034551 0.11125979 -0.06003718

egnn.layers.0.coord_mlp.0.bias f4 [32]
00000000: 76a2 36bd 63dc a4bd 2d35 27be 8e35 063e
00000010: de18 e6bd 4a53 0f3e 86f6 993c 5468 9dbd
00000020: 05e3 d3bd dd3f 0cbe 15f0 263e fc31 5abd
00000030: 5dcf e13c e856 ffbc 7b9c 2e3e 89fe 303e
00000040: 94ff df3c 29d7 c6bd 6b3d 483d b82b 2bbe
00000050: ac53 26be 95e7 763c 004a cb3b 74e2 fc3d
00000060: b223 a3bd e50b fe3c f78a bf3d 3533 29be
00000070: aa52 803d 8cbb f5bd 4210 ae3d 26e4 d23d
-0.04458853 -0.08049848 -0.16328879 0.13106367 -0.11235212 0.13996616 0.01879431 -0.07685915
-0.10346035 -0.13696237 0.16302522 -0.053270325 0.027564699 -0.03116937 0.1705188 0.17284597
0.027343549 -0.09709007 0.048886698 -0.16715896 -0.16242856 0.015069862 0.00620389 0.1234788
-0.07965793 0.031011531 0.09352677 -0.1652344 0.06265767 -0.11998662 0.08499195 0.10297422

egnn.layers.0.coord_mlp.2.weight f4 [1, 32]
00000000: a5b7 b3bb 7cb6 73bb 2f08 18bc b6fb f0ba
00000010: 2728 20bc bd22 343c b91a 8fbc d13f 27bc
00000020: 9091 3bbc 11af 67bc b786 ec3b 82c0 f63b
00000030: 0837 803c 0997 613c 6131 843b 6636 e03b
00000040: e1d4 63bc 7227 90bc 3e2c 0c3c 43d0 03bc
00000050: 5ba7 90bc 57f5 493c af4d 733c 9e34 553c
00000060: c877 fd3b eaa5 833c 4329 043b 491a 18bc
00000070: 5d61 89bc d52e 2dbc 4848 8f3b c666 793b
-0.0054845386 -0.0037187627 -0.009279295 -0.0018385563 -0.009775198 0.01099461 -0.017468797 -0.010208086
-0.011448279 -0.01414086 0.0072182077 0.007530273 0.015651241 0.01376892 0.0040342067 0.0068424223
-0.013905735 -0.017596934 0.00855547 -0.008045259 -0.017657926 0.01232656 0.014850064 0.013013033
0.0077352263 0.016070325 0.0020166195 -0.009283611 -0.01677006 -0.010570248 0.0043726303 0.0038055643

egnn.layers.0.hidden_mlp.0.weight f4 [32, 48]
00000000: 0f85 723d 7f64 023d 5351 dfbd 3cfe 06bd
00000010: e072 003e 1e2e 0f3d e151 02be c100 94bd
00000020: cfd2 81bd abb9 a53c cdde efbd a627 f63d
00000030: 248d b93d e6d3 be3c 7703 01be f31b 8b3b
00000040: 5c21 0d3a 7f58 91bd ab78 e5bd 181d 1ebe
00000050: b5b5 743d 8035 4c3c 2cef 1f3d e7e7 fe3d
00000060: 54e4 54bd e7fa 00be 4c32 f7bd 6af6 0dbe
00000070: fcfe 8c3d d640 95bd 6129 be3d 68a9 91bd
00000080: ee9d c23a d504 743d d7b8 573d 4b42 093e
00000090: 1046 473c 8133 7fbd 43dd 863c 9b9c 2abd
000000a0: 7bfd de3d 6a98 2bbd 1c9f c9bd 07a2 20bd
000000b0: 2a58 88bd ba76 f63d b854 9bbd faca 50bd
000000c0: 60f3 87bd c88e 0e3e 4f91 e5bd 5c2a e13d
000000d0: 7bfd 60bd e88e c93d 6639 593d 20af b7bd
000000e0: 14cc 07be a9c0 9e3d 2bec adbd d046 cebd
000000f0: 28e2 9fbd c686 e9bc 5ec6 77bd 48cb b83d
00000100: c272 213c 04a8 a7bd 7d6d d7bd 728d 5f3d
00000110: 4eb9 10bd f36f 59bd 43af 173e 2ed4 dfbd
00000120: c9e5 963d f228 76bd 29ff e13b 7940 403d
00000130: 34ef 13bd f615 c83c ecd4 84bd 6ff9 26bd
00000140: ed80 0abc 25ad c73d 0304 d43c 5d5c 3dbd
00000150: e5d0 4abd 4f01 28bc 22b8 76bd 2522 f6bc
00000160: 6cdc b93d 3374 843d 2402 b33d fb8f c5bd
00000170: 1a24 bb3d bff9 943c 0312 e53d d2f2 8339
00000180: 2cc4 d9bd 4667 6f3d f62e bd3c 5f8e c33d
00000190: f37d 5ebd 0685 89bd 2530 fdbd f0d2 d53d
000001a0: feab d7bd 49ef 37bd a223 0c3e 7505 c4bd
000001b0: 20d4 c63d 9c64 233d a633 ffbd f632 ba3d
000001c0: 5b72 9bbd bf90 843d 025b c9bd 48db 0abe
000001d0: 6671 70bd 74e7 8abd 866f dd3d 44b4 c8bc
000001e0: d1eb 103e 4e78 353b 9ebb 5b3d db83 e93d
000001f0: 59b4 973d 3ae8 3c3d 2b27 273d a586 293c
00000200: 52b1 643c 353b 093e 84bb aebd 164c be3d
00000210: 6138 723d 2f70 80bd 8cc6 b9bd a0fc 72bd
00000220: 47f7 e03d 384d 09be 3306 ed3c f141 023e
00000230: 9540 debd fdc6 16be f4ce 0abe 978e acbd
00000240: 551e af3d 4421 d03d 47a7 51bd 942d eabd
00000250: e6a5 863d a974 bbbd 03a4 043e ed41 4ebb
00000260: 796b 853d 1f09 893c 71f7 d9bd 89c7 cbbd
00000270: b372 883d c874 abbd e060 babd b940 943d
00000280: 225e 073e 71c2 a4bd b069 a13d 44cf d0bc
00000290: a8b5 92bd c1b0 0c3e 557d b63d 6156 1a3d
000002a0: 8da0 afbd 19a2 91bd aed2 b03d f817 203c
000002b0: 85e6 0abe a8e1 3cbd 0e31 343c 6686 573d
000002c0: 991e 91bd e7d1 cb3d 46cc efbd ff5e d73d
000002d0: a67d afbd e98f f2bd 2ae4 db3d 6b54 00bd
000002e0: d305 db3d 965c 0cbe b461 693d 4951 833d
000002f0: 274b 933d aaaf 5dbd 866a fe3b d1c1 80bc
00000300: ea9e ddbd 7b66 71bd 17dd d6bd 8655 993d
00000310: ba8d 063d a2b4 403d 164d 0fbe 506d 6b3d
00000320: a49c 9abd 4d90 cdbd d50b e4bd 7df1 f63d
00000330: 6657 a9bd 4816 c13d 24cb a5bd 7dde 7f3d
00000340: f996 173d 4c40 ebbd 5d86 bfbd afeb 8e3b
00000350: c3f9 ecbc a746 ee3d 1d8d febd c06e 323d
00000360: ecfb 9fbc 600d a3bd 1bcc ffbd cb6e adbb
00000370: 82b6 d23c c2fc 93bd faa3 e73d ea8c ec3d
00000380: 7f97 fcbd a093 aabd b20d 733d 0508 bd3d
00000390: 686f babd e014 c23d 3cb9 e5bd 6d4e 9abd
000003a0: c8af 043d f54d 873d 0e3c ab3c b650 92bc
000003b0: 3174 513d b82f c8bd 6ffe 6b3d 970f 163e
000003c0: 1cc0 c8bc 9b73 74bb ece7 ca3d a6d0 7b3c
000003d0: 41d7 e4bc fb06 eb3d a2d0 9fbd 0c75 b63d
000003e0: 1f1e a93d 8c7e e1bd fb28 07bd db40 463d
000003f0: 790f 803c 5511 943c 223a ef3d 8da3 d23d
0.059208926 0.03183412 -0.10904183 -0.0329573 0.12543821 0.03495609 -0.12726547 -0.07226706
-0.06339037 0.020230135 -0.11712418 0.12019281 0.090601236 0.0232944 -0.12598978 0.004245275
0.0005383694 -0.070969574 -0.11204656 -0.15440786 0.0597436 0.012463927 0.03904645 0.124465756
-0.051975563 -0.12595712 -0.1207014 -0.13863531 0.06884572 -0.07287757 0.09285236 -0.0711239
0.0014848092 0.05957492 0.05266651 0.13404195 0.0121627 -0.062304977 0.016462928 -0.041653257
0.10888191 -0.0418934 -0.09844801 -0.03921702 -0.06657441 0.12034364 -0.07584518 -0.050974824
-0.06638217 0.13921654 -0.11209356 0.109944075 -0.054929238 0.0984171 0.053033255 -0.08968949
-0.13261443 0.07751591 -0.08492311 -0.100721 -0.07806808 -0.028506648 -0.060491912 0.09023148
0.009854021 -0.08186343 -0.1051893 0.054578252 -0.03533297 -0.05308528 0.14812951 -0.10929142
0.07368047 -0.060097642 0.0068968725 0.046936486 -0.036116794 0.024424534 -0.06485924 -0.040765222
-0.00845359 0.097498216 0.02588082 -0.046230663 -0.049515624 -0.010254218 -0.060234196 -0.030045578
0.09075245 0.06467476 0.08740643 -0.09646603 0.09137745 0.018185494 0.11185076 0.00025167182
-0.1063312 0.0584481 0.023093682 0.095486395 -0.054319333 -0.06714825 -0.123626985 0.10440624
-0.10530852 -0.044905934 0.13685468 -0.09571353 0.097084284 0.03989087 -0.12461023 0.09091751
-0.07590171 0.064729206 -0.098318115 -0.13560212 -0.058701895 -0.067824274 0.10812287 -0.02450002
0.14152457 0.0027690115 0.053645723 0.114021026 0.074074455 0.046119906 0.040808838 0.010347043
0.013958292 0.13401492 -0.085318595 0.09291856 0.0591358 -0.06271397 -0.09071073 -0.059322953
0.109846644 -0.13408363 0.02893362 0.12720467 -0.10852162 -0.14724346 -0.13555509 -0.08425634
0.08550707 0.10162595 -0.05118492 -0.114344746 0.06574611 -0.091531105 0.1295319 -0.00314724
0.065146394 0.016727982 -0.10642899 -0.09950168 0.06662502 -0.08371884 -0.09100509 0.07238907
0.13219503 -0.08044899 0.078814864 -0.025489457 -0.071635544 0.13739301 0.08910624 0.037680034
-0.085755445 -0.07110996 0.08633934 0.00977134 -0.13564499 -0.04611364 0.010998024 0.052618407
-0.07085914 0.09952145 -0.11708884 0.10516166 -0.085688874 -0.11843855 0.10736878 -0.031330507
0.1069447 -0.13707194 0.056977943 0.06411988 0.071920685 -0.054122604 0.0077641634 -0.015717419
-0.10821326 -0.058935624 -0.10491388 0.074870154 0.032850005 0.047047265 -0.1399425 0.057477295
-0.07549408 -0.10037289 -0.11135069 0.12057779 -0.08268623 0.09428078 -0.080953866 0.06246804
0.037009213 -0.11486873 -0.093518 0.004361592 -0.02892769 0.116345696 -0.12429259 0.04356265
-0.019529305 -0.079615355 -0.12490102 -0.0052927486 0.025721792 -0.07225944 0.11310573 0.11550315
-0.12333583 -0.083289385 0.059339233 0.09230045 -0.0910328 0.09476638 -0.11216971 -0.0753449
0.0323942 0.06606666 0.02090266 -0.017860752 0.0511362 -0.09774727 0.057615694 0.14654385
-0.024505667 -0.0037300352 0.09907517 0.01536957 -0.027934672 0.11475941 -0.078034654 0.08909044
0.08257698 -0.11010465 -0.032998066 0.048401695 0.015632378 0.01807467 0.1168101 0.10285101

egnn.layers.0.hidden_mlp.0.bias f4 [32]
00000000: 5b2e 783d 7f8f f3bb 9aa7 f63c 9746 babd
00000010: 6bfa 333d 456a c0bb 38d4 8abd 0960 e0bd
00000020: d93f 093d 4bbd acbd 6338 e03c f289 0bbe
00000030: eeae 933d 0d17 bc3d c517 2f3c 2365 97bb
00000040: 7114 093e 58d7 353d 1f31 c1bd ecfd 69bd
00000050: 05f3 57bd 8aeb b2bd c40b cdbd f91b bfbb
00000060: 8d1c e5bd 80b7 87bc a6a2 133d d756 91bd
00000070: 34fb 6abd 8069 08be 8a04 463d 10dc 113d
0.060591083 -0.0074328776 0.030109216 -0.09095495 0.04393999 -0.0058720433 -0.06778759 -0.10955817
0.033508155 -0.08434542 0.027370637 -0.1362684 0.072110996 0.09184084 0.010686819 -0.0046202107
0.13386704 0.04439482 -0.09433197 -0.057126924 -0.052721996 -0.08736332 -0.1001201 -0.005832192
-0.11187086 -0.016566992 0.036043786 -0.070966415 -0.057368472 -0.13321495 0.048344173 0.03561026

egnn.layers.0.hidden_mlp.2.weight f4 [16, 32]
00000000: 1cce 0abe b40a dcbd 017c f2bc f636 1f3b
00000010: 4789 2e3c f247 1d3e 3f58 24be 5c38 963d
00000020: 8eae 0a3e 0951 253e e8b6 063d 84cf 213e
00000030: eade bebd ada6 fabd 455b 24bd 2cba bbbd
00000040: 3226 ab3d 8d58 44bd a34e b23d d5ca 85bd
00000050: 40eb 94bd a45b 59bd f2d4 a0bc d118 abbd
00000060: 9265 c73d e2b1 e43d 1099 073d f9ef 2ebe
00000070: a0aa 123e d10e 05be 22b9 f6bd 65de b73d
00000080: 920a d1bd d332 0bbe 3e51 09be 343e 193e
00000090: 59a7 4d3d 66f1 b03d f151 0e3d 2119 a43d
000000a0: 5838 363e 4376 e2bc 0dfe e7bd 4cc8 1bbd
000000b0: 5b68 83bd df16 2ebe 6380 0cbe ba77 76bd
000000c0: 0725 053d a728 b93d 66f2 ee3d 02b2 32be
000000d0: 227a 73bc e222 06bd adc5 1a3e 781c 3cbd
000000e0: 6912 3c3e 3aac 2f3d 02ef cc3c 917f a03d
000000f0: 5ec5 0a3e d7b6 bcbd beff 963d 0b47 8abd
00000100: 9e5f 3b3d 1a6d d93d 2e25 a3bd 7574 3bbd
00000110: 6cb9 243e cd46 2abe f1b5 f8bc 63ef 143e
00000120: 2197 1f3d 0ac3 14be 7e2c e93b fb40 13be
00000130: 2a93 82bd a390 0f3d 7a2f c53d 4edc c8bd
00000140: 616b 193e d86e febd 59d0 10bd d9bb 1abe
00000150: 2763 dabb fc46 54bb 08b8 9a3d 1419 f0bd
00000160: 041f 1b3c 3b37 683d baf5 e6bd c950 1f3e
00000170: 6dcf 17bd f342 37be 0297 febc 8a1e 2c3d
00000180: ed4a b7bd 86ff 89bd c940 9d3d 8191 06bd
00000190: 486c 833d a668 453c 0b2f a5bb f6ec 153e
000001a0: e1fb ebbc 0a41 113e a26d 7cbd 3d90 e73d
000001b0: 10a5 bc3d 8131 e7bd 884c 2ebd 27dc f0bd
000001c0: 5b9d 103d bc12 da3b b44b 6ebd 40a8 1b3e
000001d0: 6eb6 2c3e 3492 00be c873 c4bd 82fc 8f3c
000001e0: 1e19 e23d 4b76 dabd d117 44bc e7b5 febc
000001f0: a6b0 0ebe e37d 3bbc 00f6 d7bb 08f0 343d
00000200: 5937 003e 8fef 20bc 7d6f 033e 81a2 80bd
00000210: fb00 ecbd a3c7 8b3d 103f f63d e571 c6bb
00000220: 11ba f9bd c390 aabd 7966 bbbd dc7c 2f3d
00000230: 9d37 443d 9eae 1ebe 666d dcbc f51d 213d
00000240: fd2b 97bd d204 313e 4fe9 113e d78d b0bd
00000250: 98cc a23c a37e eebc c092 1dbe b04d 693c
00000260: aa27 fc3d bbe7 c93d 59f2 af3d 70db 72bd
00000270: 8fb9 cbbd 392a 1cbe 2d0e 1fbe 2895 f93b
00000280: 1456 043e 44ae 243d 2098 13bd ee24 be3c
00000290: 26ba 183d 134b a2bd a055 e13d 4e65 9b3d
000002a0: 3fda 58bd 4e7b 36bc 67e9 21be 77d0 b33d
000002b0: 8d85 b53c 279c 0a3e ae4b 6d3d 501f 1cbe
000002c0: 1f29 2abd 0f78 cc3d 3d87 1b3e 58a7 393d
000002d0: 84c1 1f3e dcd0 323e 2580 73bd 0338 013d
000002e0: f9bd 1a3e 235a 9fbc 3d8f c9bd 5fc1 04be
000002f0: 128c 8dbd 0c95 3fbe 0329 a2bd 47e7 b23d
00000300: 4de6 0a3e f54f b03c 6fc5 85bd 73e0 d8bd
00000310: f5d9 0abe 6c40 f83c 88d3 283e 7bac e2bd
00000320: 2f42 2d3e ca80 99bd 82e5 eabd 7315 ce3d
00000330: df3c e3bd 4e94 273e e101 1ebe 6046 d63d
00000340: fdd7 243e 8302 81bd 85be dbbd 5098 70bd
00000350: 6861 143e faf3 03be 85e3 163e 00b1 1e3e
00000360: 20b0 a2bd 7122 0a3e a5ec 08b9 26e3 013d
00000370: 1cc6 8ebb 5a6d 093d 4140 2a3e 3d9f ef3c
00000380: e1a1 873c 9086 d3bd 71aa f93d 049d 75bd
00000390: b462 0fbe 658f 2dbe e21e 283e fd03 8e3d
000003a0: 0e35 99bd b1ea ddbd 6d12 c03b aba1 f3bc
000003b0: 214b a8ba 9bd5 0f3e c7ae b4bd 0e39 f33c
000003c0: f98a c33d cca4 0a3e 3a4d 053d 8752 f0bd
000003d0: 8ade 0abd 6976 cabc 8043 4bbd c8fb 29be
000003e0: 8d4f 15bc 5ed0 1c3e 289d a3bd 4107 94bd
000003f0: 7f47 f0bd 56eb 1c3d 29bd d8bd c076 a03c
-0.13555187 -0.10744229 -0.029600145 0.0024294234 0.010652847 0.15359476 -0.16049288 0.073349684
0.1354315 0.16144194 0.032889277 0.15801817 -0.09319861 -0.12238822 -0.040126104 -0.09166369
0.083568946 -0.04793601 0.08706405 -0.06532828 -0.07271433 -0.05306591 -0.01963279 -0.08354343
0.0973617 0.11166741 0.033104956 -0.1708373 0.14322901 -0.12993933 -0.1204703 0.08977965
-0.10207094 -0.13593607 -0.13409898 0.14965135 0.050208423 0.08639793 0.034746114 0.080126055
0.17794931 -0.027644282 -0.11327753 -0.038032815 -0.064163886 -0.17000912 -0.1372085 -0.060172774
0.032506015 0.09040957 0.116673276 -0.17450717 -0.014860662 -0.03274811 0.1511447 -0.045925587
0.18366398 0.042888857 0.025016312 0.07836831 0.13551852 -0.092145614 0.07372998 -0.067518316
0.045745485 0.106165126 -0.07966076 -0.04576536 0.16086358 -0.16628571 -0.030360194 0.14544444
0.038962487 -0.14527526 0.0071158996 -0.14380257 -0.063757256 0.035050046 0.09628196 -0.09807645
0.14982368 -0.124234855 -0.035354946 -0.1511072 -0.006664652 -0.0032390943 0.075546324 -0.11723533
0.009467844 0.056693297 -0.11277337 0.15558161 -0.03706305 -0.17896633 -0.031077866 0.04202131
-0.08949838 -0.0673819 0.076783724 -0.032853607 0.064171374 0.012048876 -0.0050410083 0.14641175
-0.028806629 0.14184967 -0.06162799 0.11306808 0.09211171 -0.11288739 -0.042553455 -0.11760741
0.035306316 0.0066550653 -0.058177665 0.15200901 0.16866466 -0.12555772 -0.09592396 0.01757646
0.11039947 -0.10667094 -0.011968569 -0.031092597 -0.13934574 -0.011443588 -0.006590605 0.044174224
0.12521113 -0.00982274 0.12835498 -0.06280995 -0.115236245 0.06825187 0.12023747 -0.0060560578
-0.121936925 -0.08328392 -0.091504045 0.042843685 0.0479046 -0.15496299 -0.026907634 0.03933521
-0.07381437 0.17286995 0.14249156 -0.08620804 0.019872949 -0.02911312 -0.15388012 0.014239714
0.12312253 0.09858652 0.08591146 -0.059291303 -0.09947502 -0.15250482 -0.15532751 0.0076166578
0.12923461 0.040205255 -0.03603375 0.023210969 0.0372869 -0.079244755 0.1100266 0.07587682
-0.05294251 -0.011137797 -0.15811692 0.08779996 0.022158409 0.1353613 0.057933502 -0.1524632
-0.041543122 0.09983837 0.15188308 0.045325607 0.15601164 0.17462486 -0.05944838 0.031547558
0.15111531 -0.01945216 -0.09841774 -0.1296439 -0.06911482 -0.187092 -0.079179786 0.08735519
0.13564415 0.021522501 -0.06531798 -0.10589685 -0.13559707 0.030304156 0.16486943 -0.11068054
0.16919778 -0.07495268 -0.114695564 0.10062685 -0.110955946 0.16365167 -0.15430404 0.10462642
0.16098018 -0.06299307 -0.10729698 -0.058739007 0.14490283 -0.12886038 0.1473523 0.15497208
-0.079437494 0.13489701 -0.00013058128 0.031710766 -0.0043571126 0.03355155 0.16626073 0.029250735
0.016556682 -0.103284 0.12190712 -0.059964195 -0.14002496 -0.16949232 0.16418031 0.069343545
-0.074808225 -0.108357795 0.0058615715 -0.029740175 -0.0012839773 0.14046328 -0.08822399 0.029690292
0.09547991 0.13539428 0.032544352 -0.11734491 -0.033903636 -0.024714665 -0.04962492 -0.16599953
-0.009113205 0.15313861 -0.079889596 -0.07227946 -0.11732387 0.03831037 -0.105829544 0.019587874

egnn.layers.0.hidden_mlp.2.bias f4 [16]
00000000: b0a3 493a c116 b3bd 051e bd3d b002 e735
00000010: 9c00 88bd da54 1a3d f74b 9ebd 8369 36b7
00000020: 55fb 7fbd 479b 0f38 3845 313a 7d4f a93d
00000030: 1f53 a3bc e0e9 403d 5ed2 5736 0433 573d
0.0007691933 -0.08744574 0.092342414 1.7211623e-06 -0.06640741 0.037678577 -0.07729333 -1.0872612e-05
-0.06249555 3.423847e-05 0.00067623286 0.08267114 -0.019937096 0.04709804 3.2159946e-06 0.052538887
