2-egnca-rework/logs/line4-2024-10-05@23-20-03/best@13.pt (torch, 25525 bytes, 11 tensors)

egnn.layers.0.message_mlp.0.weight f4 [32, 33]
0	0x3d547c0d	0.051876117
1	0x3db418fb	0.08793827
2	0xbc1702bf	-0.009216963
3	0x3dc7d244	0.09756902
4	0xbd3b2abb	-0.045695048
5	0x3ce07f15	0.027404347
6	0xbd664778	-0.0562205
7	0xbc92b486	-0.017908346
8	0xbd3d8098	-0.046265215
9	0x3d02d3fe	0.031940453
10	0x3e060032	0.13086012
11	0x3e13a76f	0.1441934
12	0xbcc54a72	-0.02408335
13	0xbd83c5b1	-0.06434191
14	0xbca8c7e5	-0.02060313
15	0x3e142997	0.1446899
16	0x3e0fe80c	0.14053363
17	0xbd43d3da	-0.04780946
18	0xbd5081ea	-0.050905146
19	0xbd15643d	-0.036472548
20	0x3de4faf7	0.1118068
21	0x3e1718ff	0.14755629
22	0xbdf5f640	-0.12009859
23	0xbd5ae784	-0.053443447
24	0xbe1a28d9	-0.15054645
25	0x3e2925ab	0.16518275
26	0x3d1502a8	0.036379486
27	0x3d33b8fa	0.04387758
28	0x3db63863	0.08897474
29	0x3d4c92f9	0.04994485
30	0xbd2f1c4b	-0.04275159
31	0xbe262ea7	-0.16228734
32	0x3d5d0b4e	0.05396586
33	0xbcc2842d	-0.023744667
34	0xbe25548e	-0.16145536
35	0xbc90db22	-0.017682616
36	0xbdb6e9f7	-0.08931344
37	0xbdd3d1ea	-0.10342772
38	0xbdf857bf	-0.12126111
39	0xbe06e3aa	-0.13172784
40	0xbba56369	-0.005047251
41	0x3cf1d2ee	0.029519524
42	0xbe24f128	-0.16107619
43	0xbe1dd20b	-0.15412156
44	0xbb9d2e55	-0.004796783
45	0xbe2baeec	-0.16765946
46	0x3dbb4890	0.091446996
47	0xbd4ecdd7	-0.050489273
48	0xbc972482	-0.018450025
49	0xbe1c6be2	-0.15275529
50	0xbe053f3a	-0.130124
51	0x3d624485	0.055241127
52	0xbdd3ed13	-0.10347953
53	0xbd7fcf3f	-0.062453505
54	0xbe272f33	-0.16326599
55	0xbaec08d3	-0.0018008001
56	0xbdec86ca	-0.115491465
57	0x3d1e21ed	0.038606573
58	0x3d757917	0.059929933
59	0x3cefaf2d	0.029258335
60	0x3d8ea293	0.06964602
61	0xbdea7241	-0.114475735
62	0x3c095beb	0.008383731
63	0xbe139384	-0.14411741
64	0xbe026826	-0.12735042
65	0x3e091bd2	0.13389519
66	0x3df19462	0.1179588
67	0xbe09c60c	-0.13454455
68	0x3dbc7c7f	0.09203433
69	0xbe150200	-0.14551544
70	0x3cfc7a08	0.030819908
71	0x3e1c7185	0.1527768
72	0xbaa4517e	-0.0012536494
73	0x3d7cd091	0.061722342
74	0x3e18891a	0.1489605
75	0xbd8c890e	-0.068620786
76	0x3dfba904	0.122880965
77	0x3cfb9ebd	0.03071534
78	0xbd0f2955	-0.034951527
79	0xbe265da1	-0.16246654
80	0x3e315a40	0.17319584
81	0x3e2ac216	0.166756
82	0xbda7bd00	-0.08190346
83	0x3d2d4e47	0.04231098
84	0xbe3073f5	-0.17231734
85	0x3d197cbb	0.037472468
86	0x3db63808	0.08897406
87	0x3cc6dd39	0.024275409
88	0xbdc024cb	-0.09382018
89	0x3e2961cf	0.16541217
90	0xbdbbacc1	-0.091638096
91	0x3c55300e	0.013011945
92	0xbe1e70f1	-0.15472771
93	0x3d84aeb8	0.064786375
94	0x3de43503	0.11142924
95	0x3d2ead26	0.042645596
96	0x3e010b91	0.12602068
97	0xbe2e578a	-0.17025581
98	0xbdbec2f3	-0.09314527
99	0x3d1fa892	0.03897912
100	0x3d9df54f	0.077128045
101	0xbd446b53	-0.047953915
102	0x3d3a3f9f	0.04547083
103	0xbe277b7b	-0.16355698
104	0x3e29289b	0.16519396
105	0xbe16da34	-0.14731675
106	0xbe2a6bd7	-0.166427
107	0xbe0d17e8	-0.13778651
108	0x3e3288c6	0.17434987
109	0x3d1c909f	0.03822386
110	0xbc0447f6	-0.008073797
111	0x3d3126aa	0.043249764
112	0xbbf06eac	-0.007337412
113	0xbdeb5fe7	-0.11492901
114	0x3dd87996	0.10570066
115	0xbe1a9aa9	-0.1509806
116	0xbd101b17	-0.035182085
117	0x3cf2dc4d	0.029646063
118	0xbdc5c3bb	-0.09656473
119	0x3d110b96	0.03541144
120	0xbe1954d3	-0.14973764
121	0xbda80059	-0.08203191
122	0x3e20c99c	0.15701908
123	0x3d7f27e8	0.062293917
124	0xbe15f4be	-0.14644143
125	0x3e313c2a	0.17308107
126	0xbd5e7e38	-0.05431959
127	0x3cb76f28	0.02239187
128	0xbcec056e	-0.028811183
129	0xbde20b6e	-0.11037336
130	0x3d127732	0.035758205
131	0xbcead31a	-0.028665114
132	0xbdafca89	-0.085835524
133	0x3dcf8db9	0.10134453
134	0x3dc07ed5	0.09399191
135	0x3dff0708	0.12452513
136	0xbd0b89a5	-0.034066815
137	0xbc964147	-0.018341674
138	0x3cef7b97	0.029233737
139	0x3e28730d	0.16450138
140	0xbe169abd	-0.14707465
141	0xbc12420a	-0.008926878
142	0x3ce13517	0.027491136
143	0x3d9e934d	0.07742939
144	0xbe2b0adb	-0.1670336
145	0xbe3513b3	-0.17683296
146	0xbc4b24a9	-0.012398877
147	0x3d866a22	0.06563212
148	0xbd79cf32	-0.060988612
149	0x3e0e01ca	0.1386787
150	0x3ceab219	0.028649377
151	0xbd849000	-0.06472778
152	0xbd59111c	-0.052994832
153	0xbe164358	-0.14674127
154	0x3dcc6a2a	0.09981187
155	0xbd24648f	-0.040134963
156	0x3db2ef77	0.087370805
157	0xbe32b566	-0.1745201
158	0x3df501a0	0.119632006
159	0x3d85a0ad	0.06524787
160	0xbddb02fb	-0.10693928
161	0xbdd290e7	-0.10281544
162	0x3e08452a	0.13307634
163	0x3d9aa150	0.07550299
164	0x3d9bc0da	0.07605143
165	0x3cf98129	0.030457096
166	0xbdc9f1c4	-0.09860566
167	0xbdf59307	-0.11990934
168	0xbd5cd68e	-0.053915553
169	0xbd304c05	-0.043041248
170	0xbd044d67	-0.03230038
171	0xbd700904	-0.058602348
172	0xbe17b9aa	-0.14816919
173	0xbe2c8d75	-0.16850837
174	0xbdf7556e	-0.12076841
175	0x3da9c021	0.08288599
176	0xbdd675f9	-0.1047172
177	0xbe0387e6	-0.1284481
178	0xbda7978c	-0.08183202
179	0x3d7ce0e6	0.061737917
180	0xbd74246a	-0.05960504
181	0xbbc518ca	-0.006014918
182	0x3cc09e53	0.023512995
183	0xbde86e6f	-0.113491885
184	0xbd2dc8ed	-0.042427946
185	0xbd77f7b6	-0.06053897
186	0xbab39d3a	-0.0013703473
187	0xbde221b0	-0.11041582
188	0xbcd5cb71	-0.026097985
189	0x3cb8eeeb	0.022574862
190	0x3d48dd4b	0.049039166
191	0xbdd2fda1	-0.10302282
192	0x3e14ae31	0.14519574
193	0x3d18ce03	0.037305843
194	0xbe0400e0	-0.12890959
195	0x3e1c94f0	0.1529119
196	0xbdd479d4	-0.10374799
197	0x3c16744a	0.009182999
198	0x3e017670	0.12642837
199	0xbd5366e8	-0.05161181
200	0x3d1beb56	0.03806623
201	0x3d964a46	0.07338385
202	0xbd80d18b	-0.06289967
203	0x3c507705	0.012723689
204	0x3deb01b8	0.11474937
205	0xbbf434a6	-0.0074525652
206	0xbd63cbf4	-0.055614427
207	0x3df36e58	0.11886281
208	0x3ce1c583	0.027560001
209	0xbdefedae	-0.11715256
210	0x3d9ea4e1	0.07746292
211	0x3e089a45	0.13340099
212	0x3c55c29f	0.01304689
213	0x3e0ee095	0.13952859
214	0xbdf149cc	-0.11781654
215	0x3e270b2c	0.16312855
216	0x3dd34f9f	0.10317921
217	0xbc900c13	-0.017583882
218	0xbe2b2180	-0.16711998
219	0x3e29e5fe	0.16591641
220	0xbcad4e23	-0.021155423
221	0x3db07b0d	0.0861722
222	0xbdbf3b72	-0.0933751
223	0x3d4d6399	0.05014381
224	0xbccdcd49	-0.025122302
225	0x3d118d65	0.035535235
226	0x3d5f49eb	0.054513853
227	0xbde4b836	-0.11167948
228	0xbe0c08f4	-0.1367529
229	0xbc3c21db	-0.011482681
230	0xbd2ce44b	-0.042209905
231	0x3de2b247	0.1106916
232	0xbda9e758	-0.082960784
233	0x3d330486	0.043705486
234	0xbe25da4a	-0.16196552
235	0x3da09fc1	0.07842971
236	0x3ddf9c8f	0.10918533
237	0x3cb18714	0.021670856
238	0x3ccc9916	0.02497534
239	0x3cb9150a	0.02259304
240	0xbc524395	-0.012833496
241	0xbd145959	-0.03621802
242	0x3e00c57a	0.12575331
243	0xbd5e9cee	-0.05434888
244	0xbc9fd15c	-0.01950901
245	0xbca19c07	-0.01972772
246	0xbdce79b5	-0.100818075
247	0xbe0a2ec5	-0.13494404
248	0xbdcf7adf	-0.10130858
249	0xbccb5971	-0.024822922
250	0xbe09ed56	-0.13469443
251	0x3d65dab5	0.05611678
252	0xbe0052bf	-0.12531565
253	0xbd4f2012	-0.050567694
254	0xbd9c435e	-0.07630037
255	0xbda84593	-0.08216395

egnn.layers.0.message_mlp.0.bias f4 [32]
0	0xbd1af955	-0.037835438
1	0xbc693411	-0.014233605
2	0x3d439995	0.04775389
3	0xbe218126	-0.15771922
4	0x3d8888fc	0.06666753
5	0xbe1de3e5	-0.15418966
6	0xbd31fab8	-0.043451995
7	0xbe13fee7	-0.14452706
8	0xbe15ca78	-0.14628017
9	0xbdb87c20	-0.0900805
10	0x3e006580	0.12538719
11	0xbe2397da	-0.15975896
12	0x3d962e4a	0.07333048
13	0x38b555b7	8.646718e-05
14	0xbe0db4b4	-0.13838464
15	0x3d3134cf	0.043263253
16	0xbdbb0c7a	-0.09133239
17	0xbdd8c9ce	-0.10585366
18	0x3d1aed7b	0.037824135
19	0xbe066114	-0.1312297
20	0x3c1b4ffc	0.009479519
21	0x3d62579d	0.055259336
22	0x3d594fdb	0.05305467
23	0x3dbf7dd9	0.093501754
24	0xbe1656be	-0.14681527
25	0x3d5e5dd1	0.05428869
26	0x3deb1275	0.1147813
27	0xbe1e1ec7	-0.15441428
28	0x3d9ab9c8	0.07554966
29	0x3c769b7f	0.015051722
30	0x3d6ca41a	0.057773687
31	0xbe2752f3	-0.16340236

egnn.layers.0.message_mlp.2.weight f4 [32, 32]
0	0x3dd58183	0.10425093
1	0xbe155433	-0.145829
2	0x3d8bef53	0.06832757
3	0x3e2d52b8	0.16926086
4	0xbd0d4580	-0.03449011
5	0x3da3d695	0.07999913
6	0xbcd0dd15	-0.025496045
7	0x3dbac864	0.09120253
8	0xbe196acb	-0.14982145
9	0x3bc84fc7	0.006113026
10	0x3e332e7d	0.17498203
11	0xbd02d641	-0.03194261
12	0xbe0c4a2c	-0.1370017
13	0xbe07cc65	-0.13261564
14	0x3d4cfab6	0.050043784
15	0x3e210196	0.15723261
16	0xbe2d6a2d	-0.16935034
17	0x3dda3190	0.106539845
18	0xbe00dcdd	-0.12584253
19	0x3d917403	0.071022056
20	0x3ccac152	0.024750385
21	0x3d3acf37	0.04560777
22	0xbe23b1ff	-0.15985869
23	0x3e287ba2	0.16453412
24	0x3d3ae1e1	0.04562557
25	0xbcb64a8f	-0.02225235
26	0xbdf8f3e4	-0.121558934
27	0x3dea070f	0.114271276
28	0x3e25d8b3	0.16195945
29	0x3db08755	0.086195625
30	0xbcb90a55	-0.022587935
31	0xbd1bfe82	-0.038084514
32	0xbe3551ac	-0.17706937
33	0x3dea7af5	0.114492334
34	0xbc924727	-0.017856194
35	0xbe2762e5	-0.16346319
36	0xba97e9be	-0.0011590046
37	0x3d13a444	0.036045328
38	0x3deadf7d	0.11468408
39	0x3d831af5	0.06401626
40	0xbe00281a	-0.12515298
41	0xbd4e5720	-0.050376058
42	0xbe25bf37	-0.16186224
43	0x3d947438	0.072487295
44	0x3da44aec	0.08022103
45	0xbdd53be4	-0.10411814
46	0x3d0d66b4	0.034521773
47	0x3df41919	0.119188495
48	0x3e224551	0.15846755
49	0x3e008994	0.12552482
50	0x3d761c18	0.060085386
51	0x3d2e7827	0.042595055
52	0x3d95e032	0.073181525
53	0x3e2ab0dd	0.1666903
54	0x3dfec6fd	0.12440298
55	0x3cd04df4	0.025427796
56	0x3c8ee182	0.017441515
57	0x3e018094	0.12646705
58	0x3e2abe8a	0.16674247
59	0xbdf02ff2	-0.11727895
60	0xbda2d085	-0.07949928
61	0x3e38cb56	0.18046317
62	0xbd9f16d2	-0.077680245
63	0xbd3a26e5	-0.04544725
64	0x3e0c1141	0.13678457
65	0xbd6f33af	-0.0583989
66	0x3e2aed27	0.16692029
67	0xbdc2df50	-0.0951525
68	0xbd97b34a	-0.074072435
69	0x3c137ea0	0.009002358
70	0x3c138be3	0.00900552
71	0x3e1ed5d5	0.15511258
72	0xbd856c0e	-0.065147504
73	0x3d966204	0.07342914
74	0xbd0bf6a3	-0.034170758
75	0xbc8fce81	-0.017554523
76	0xbe150b7b	-0.1455516
77	0x3e2abf09	0.16674437
78	0xbdad3e8b	-0.08459195
79	0xbd1d431d	-0.038394082
80	0xbda62cf8	-0.08114046
81	0x3e220c7e	0.15825078
82	0xbd838778	-0.06422323
83	0xbd2fc2a4	-0.042910233
84	0x3db85360	0.090002775
85	0x3e220213	0.15821104
86	0x3e21f622	0.15816548
87	0xbdcb3566	-0.09922294
88	0xbd72f1c1	-0.059312586
89	0x3e0b2fca	0.13592449
90	0x3daa9a74	0.08330241
91	0x3e0e2c50	0.13884091
92	0x3d67f2cb	0.05662803
93	0xbdc72b95	-0.097251095
94	0xbcc822d8	-0.024430677
95	0xbda0ad1a	-0.078455165
96	0xbe1a642b	-0.15077274
97	0x3d407a9c	0.04699193
98	0x3db5cd71	0.088770755
99	0x3d87f4e3	0.06638505
100	0x3e11af6d	0.14227076
101	0xbd9659ba	-0.07341333
102	0x3d80aff2	0.06283559
103	0xbd7486b1	-0.059698764
104	0x3e22d487	0.15901385
105	0xbc5477c9	-0.012968012
106	0x3df4ac02	0.119468704
107	0x3e14f860	0.14547873
108	0xbe00cafc	-0.12577432
109	0xbd132a94	-0.035929278
110	0x3e21dd3a	0.15807047
111	0xbda65faf	-0.08123719
112	0xbd17660c	-0.036962554
113	0x3e0f5502	0.13997272
114	0x3e1af370	0.15131927
115	0x3de10ab5	0.1098837
116	0x3c3ab429	0.011395493
117	0x3dea689c	0.11445734
118	0xbe20a6de	-0.15688655
119	0x3da83277	0.082127504
120	0xbcc99a09	-0.024609582
121	0xbe0d60df	-0.13806485
122	0x3d3c7072	0.046005674
123	0x3bd36623	0.0064513846
124	0x3d8f926e	0.07010351
125	0xbd5ec166	-0.054383658
126	0x3e2affe5	0.16699179
127	0xbe30a49c	-0.17250293
128	0x3e29c9cc	0.16580886
129	0xbd8cd87d	-0.06877229
130	0x3dbbf9d1	0.09178508
131	0xbc84e208	-0.016221061
132	0xbd4285a2	-0.047490723
133	0xbe0ab81f	-0.13546799
134	0xbe112743	-0.14175133
135	0x3c8250e1	0.015907707
136	0xbdbd0334	-0.092291266
137	0xbdf3e95b	-0.119097434
138	0xbe259538	-0.16170204
139	0x3e286c2a	0.16447511
140	0x3d2c77ec	0.042106554
141	0x3cbc813d	0.023010844
142	0xbd2578e3	-0.04039849
143	0xbe1b6415	-0.15174897
144	0x3dd55cdd	0.10418103
145	0x3e0b0fd6	0.1358026
146	0x3d2b5e98	0.04183826
147	0x3d3b7dfe	0.045774452
148	0xbc261718	-0.010137342
149	0x3d6da11c	0.058014974
150	0x3a978c3e	0.0011562181
151	0xbdeb9a83	-0.1150408
152	0xbc88d77d	-0.016704315
153	0x3e18f699	0.1493782
154	0xbdc690ca	-0.09695585
155	0x3e25e4c7	0.16200553
156	0xbdd1dd50	-0.1024729
157	0xbca3dd11	-0.020002874
158	0x3de60a63	0.1123245
159	0xbdd9f8b7	-0.10643142
160	0xbcf0a59c	-0.029375844
161	0xbe0dd026	-0.13848934
162	0xbc465c3b	-0.01210695
163	0x3dcfc0d9	0.10144205
164	0xbdaaeecf	-0.083463304
165	0xbd17b896	-0.03704127
166	0x3bfd561a	0.0077312114
167	0x3ddd5db5	0.10808889
168	0x3cbc256f	0.022967068
169	0xbccf10e1	-0.025276603
170	0xbdd172bb	-0.10226961
171	0xbe03354c	-0.128133
172	0x3e2ac37b	0.16676132
173	0xbd61d17f	-0.05513143
174	0x3de143b0	0.109992385
175	0xbca2b658	-0.019862339
176	0xbda51712	-0.08061041
177	0xbd829852	-0.06376709
178	0xbe10fa5d	-0.14158006
179	0xbd0dddca	-0.034635343
180	0x3c89b4b7	0.016809804
181	0xbd9fc6ef	-0.078016154
182	0x3d4e02f2	0.050295778
183	0x3db50713	0.0883924
184	0xbde1c47b	-0.11023804
185	0xbc90df0d	-0.017684484
186	0x3df3156b	0.118693195
187	0xbe29c275	-0.16578086
188	0x3dd1f585	0.10251907
189	0xbd3b5030	-0.04573077
190	0xbd876355	-0.06610743
191	0xbdd11779	-0.10209555
192	0xbb751c57	-0.0037400925
193	0x3d37d89e	0.044884317
194	0xbd8aa966	-0.067705914
195	0xbd8b8191	-0.06811822
196	0x3dbe5ae9	0.092946835
197	0xbda8285e	-0.082108244
198	0x3c7be3e2	0.015374156
199	0x3ddc23eb	0.10749038
200	0xbc784f9f	-0.015155702
201	0xbd679ab3	-0.056544017
202	0xbdcebf99	-0.10095138
203	0xbd4ee20f	-0.050508555
204	0xbd31698a	-0.04331354
205	0x3de19f3b	0.11016699
206	0x3b8360e7	0.0040093544
207	0xbe12b714	-0.14327651
208	0xbc72a801	-0.014810563
209	0xbdccfd7d	-0.100092866
210	0x3e36b8e5	0.17843969
211	0xbd11e4d6	-0.035618626
212	0xbe1e44a6	-0.15455875
213	0xbda54b19	-0.08070964
214	0x3dddeec4	0.108365566
215	0x3e2f3f73	0.17114048
216	0xbdf28250	-0.118412614
217	0xbe26a743	-0.16274743
218	0xbd595b66	-0.05306568
219	0xbd63f440	-0.055652857
220	0xbdab58d1	-0.0836655
221	0x3db62dd8	0.08895463
222	0x3c899908	0.016796604
223	0x3e04a53e	0.1295366
224	0x3df450c5	0.11929468
225	0x3d05e788	0.03269151
226	0x3e09110c	0.13385409
227	0xbd04f008	-0.032455474
228	0x3d7958e7	0.0608758
229	0xbde2c0e9	-0.11071951
230	0x3cf420e2	0.029800836
231	0x3d8ab8fc	0.06773564
232	0xbe2d3ae8	-0.16917002
233	0x3e2020a3	0.1563745
234	0x3debdc1e	0.115165934
235	0xbdc86b00	-0.09786034
236	0x3d7eca59	0.062204693
237	0x3e32d3d1	0.17463614
238	0xbd5b0792	-0.053474016
239	0x3bf67a94	0.0075219367
240	0xbcc640a4	-0.024200745
241	0xbdddbde1	-0.10827232
242	0x3dc0ea8d	0.09419737
243	0xbda0c7ea	-0.078506306
244	0x3d35bf88	0.04437211
245	0x3cf78151	0.03021303
246	0x3da7a037	0.081848554
247	0x3e277ffc	0.16357416
248	0x3d74d530	0.059773624
249	0xbd0fa473	-0.03506894
250	0xbd4160b7	-0.047211375
251	0x3e162793	0.14663534
252	0x3ddec03d	0.1087651
253	0x3e24a7d6	0.1607965
254	0xbd934c99	-0.07192344
255	0x3dda0aaa	0.10646565

egnn.layers.0.message_mlp.2.bias f4 [32]
0	0x39b90362	0.0003528847
1	0x3de8e58e	0.11371909
2	0x3c871958	0.016491577
3	0x3e292916	0.1651958
4	0xbcd75088	-0.026283517
5	0xbe25801f	-0.16162156
6	0xbe1cc8fe	-0.15311047
7	0xbda77bf7	-0.08177941
8	0x3d70de0b	0.058805507
9	0x3dcce947	0.100054316
10	0x3d9862b9	0.07440705
11	0x3e1c3e99	0.15258254
12	0xbe2ece94	-0.17070991
13	0x3da0bd15	0.078485645
14	0xbca0913b	-0.019600501
15	0xbe0990d7	-0.13434158
16	0x3d298594	0.041387156
17	0x3e270c8d	0.16313381
18	0x3d5446db	0.051825386
19	0x3de87921	0.113512285
20	0x3dc85364	0.097815305
21	0xbdd7d262	-0.10538174
22	0xbe2f875e	-0.17141482
23	0xbe2a0d0f	-0.16606544
24	0x3e1588dc	0.14602989
25	0xbdfbe8c6	-0.123002574
26	0xbd601dba	-0.05471585
27	0x3e114006	0.14184579
28	0x3e1ad908	0.15121853
29	0xbdea57cd	-0.11442528
30	0x3da14847	0.07875114
31	0xbbbd9a19	-0.005786192

egnn.layers.0.coord_mlp.0.weight f4 [32, 32]
0	0xbcdf4de7	-0.027258826
1	0xbbae86e1	-0.0053261374
2	0x3cb66ac2	0.022267703
3	0xbe31e8f3	-0.1737402
4	0xbde9900a	-0.114044264
5	0x3da7b9da	0.08189745
6	0x3dc111b5	0.094272055
7	0x3d86c528	0.06580573
8	0xbddf1ca8	-0.108941376
9	0xbcc04961	-0.02347249
10	0x3dffe114	0.12494102
11	0xbde6bf8c	-0.112670034
12	0x3dfeafb7	0.12435859
13	0x3d76476f	0.060126718
14	0xbdcf7335	-0.10129396
15	0xbe2acb68	-0.16679156
16	0x3d9445c3	0.072398685
17	0x3d25f40c	0.040515944
18	0xbdd2825f	-0.102787726
19	0xbe027bc2	-0.12742522
20	0x3d2922ea	0.041293062
21	0x3d82fa07	0.06395345
22	0xbd9144ef	-0.07093226
23	0x3e1b9229	0.15192474
24	0x3e021295	0.12702401
25	0x3dc7744d	0.097389795
26	0x3e0919b0	0.13388705
27	0xbdce99d8	-0.10087937
28	0x3e1ebcbe	0.15501687
29	0xbe27ca67	-0.16385804
30	0xbd520747	-0.05127647
31	0xbe09e1cc	-0.13465041
32	0xbd01b06d	-0.031662393
33	0xbe20e4a5	-0.15712221
34	0xbe0cf219	-0.13764228
35	0xbdf1be95	-0.11803929
36	0x3d106487	0.03525212
37	0xbde7700e	-0.113006696
38	0x3b63dcc5	0.003476904
39	0x3d2fcce9	0.042920027
40	0xbe1becd4	-0.15227062
41	0x3e06f91d	0.13180967
42	0xbd119d4f	-0.03555041
43	0x3def1716	0.11674325
44	0xbbbccf31	-0.005762004
45	0x3dd5bb4e	0.10436116
46	0x3c9fc07e	0.019500967
47	0xbde9d99f	-0.11418461
48	0xbe2a2245	-0.16614635
49	0xbe087af7	-0.13328157
50	0xbddedea7	-0.10882311
51	0xbde8544e	-0.11344205
52	0x3e3344d7	0.17506729
53	0xbe085960	-0.13315344
54	0x3c413a50	0.011793688
55	0xbde99cb5	-0.114068426
56	0x3e0898a0	0.13339472
57	0xbcb0f4cd	-0.021601105
58	0xbdb952ca	-0.09048994
59	0x3cfa72ae	0.030572262
60	0xbda636fe	-0.08115958
61	0x3d9be7e0	0.07612586
62	0xbc66a37b	-0.014077063
63	0xbe032389	-0.12806524
64	0xbd0a41c6	-0.033754133
65	0xbbb821c4	-0.0056192596
66	0xba520058	-0.00080109155
67	0xbd9d4c54	-0.07680574
68	0x3d254c37	0.040355887
69	0x3e3428c9	0.17593683
70	0xbde2432f	-0.110479705
71	0xbd7c77f4	-0.061637834
72	0x3be17fa5	0.0068816715
73	0x3deb1eef	0.114805095
74	0xbd90612c	-0.07049784
75	0xbe0c5db4	-0.1370762
76	0x3e2a49fa	0.16629782
77	0x3d76cf0a	0.06025604
78	0x3da34bbd	0.0797343
79	0xbd42c719	-0.047553156
80	0x3e1570fc	0.14593881
81	0xbb494737	-0.0030712613
82	0x3d54120a	0.051775016
83	0x3e2d6061	0.16931297
84	0xbde6c31a	-0.112676814
85	0xbe05fbb4	-0.13084298
86	0x3de5b5ab	0.11216291
87	0x3dd7890f	0.10524189
88	0x3b242e42	0.0025051986
89	0xbdb467b6	-0.08808844
90	0x3e13f9e0	0.14450788
91	0xbe07b7e1	-0.13253738
92	0xbc5ff762	-0.0136698205
93	0xbe257eda	-0.16161671
94	0x3e00c25a	0.12574139
95	0x3ceaf0a6	0.028679203
96	0xbd7500f6	-0.05981537
97	0xbdeabc54	-0.11461702
98	0xbd25ef66	-0.04051151
99	0xbe0d932a	-0.1382567
100	0x3e1980c4	0.14990526
101	0xbdc90dc7	-0.09817081
102	0xbbc01067	-0.0058613303
103	0x3cce2592	0.0251644
104	0x3de4249c	0.11139795
105	0xbc78719b	-0.015163804
106	0x3cf0de72	0.029402945
107	0xbbeb2bfe	-0.007176875
108	0x37aa0d5b	2.0271798e-05
109	0x3dd5a739	0.10432286
110	0x3ddf1d7e	0.10894297
111	0xbc99b728	-0.018764094
112	0x3d60e3ef	0.054904874
113	0xbd0f28c4	-0.034950987
114	0x3d9f67d2	0.07783474
115	0x3c319829	0.0108395
116	0xbba8ad3d	-0.0051476047
117	0x3bb19601	0.005419493
118	0x3e093cf7	0.13402162
119	0x3de51b2b	0.111868225
120	0xbd00e111	-0.03146464
121	0x3dfc4d60	0.123194456
122	0x3c550e69	0.013003924
123	0xbd8da282	-0.069157615
124	0xbdb61422	-0.08890559
125	0x3dcb14ae	0.09916054
126	0xbd6c4b37	-0.057688918
127	0xbc40591d	-0.011739996
128	0xbd922d16	-0.07137506
129	0xbde49774	-0.111617
130	0x3e0b98fc	0.13632578
131	0x3e119328	0.14216292
132	0xbe18c08f	-0.14917205
133	0x3bf0f785	0.0073537254
134	0x3e01b407	0.12666331
135	0x3e0b326a	0.1359345
136	0x3d4d5bef	0.050136503
137	0x3d52afb0	0.05143708
138	0xbcf20659	-0.029544042
139	0x3ce042e8	0.027375653
140	0x3dcbd507	0.09952741
141	0xbdc811fe	-0.09769057
142	0xbbae82fe	-0.005325674
143	0x3e32275f	0.17397831
144	0x3dec8eb5	0.11550657
145	0x3da5f7f2	0.081039324
146	0x3ccfbf4a	0.025359768
147	0x3e1c1d7a	0.1524562
148	0xbcd48dd9	-0.025946544
149	0xbd588edb	-0.052870613
150	0xbda3c16f	-0.07995879
151	0x3dc0eb27	0.09419852
152	0xbe07e7ee	-0.13272068
153	0x3c99742c	0.018732153
154	0x3cb3e570	0.02195999
155	0xbdbd7e2b	-0.0925258
156	0x3dcb8bbe	0.09938763
157	0xbcb83e1f	-0.02249056
158	0x3d8da83e	0.06916855
159	0xbd991534	-0.07474747
160	0x3d00f64c	0.031484887
161	0x3e0be1b9	0.13660325
162	0x3c02ce08	0.007983692
163	0xbdd9e566	-0.106394574
164	0xbd4344d3	-0.047673058
165	0xbd3e25ba	-0.046422698
166	0x3baf1196	0.0053426726
167	0xbd86d5c1	-0.06583739
168	0x3d0c085d	0.034187663
169	0xbd847afa	-0.064687684
170	0x3c79ff9e	0.015258698
171	0xbe17a0b8	-0.14807403
172	0xbd1d651d	-0.038426507
173	0x3db0b3f6	0.08628075
174	0x3dc01542	0.093790546
175	0xbdfba2e9	-0.12286932
176	0xbdd76638	-0.105175436
177	0x3ca06202	0.019577984
178	0x3cfcec1b	0.030874303
179	0xbd5cccce	-0.053906254
180	0x3ddeb9e2	0.10875298
181	0xbda34ab2	-0.079732314
182	0xbdd055af	-0.10172593
183	0x3e0bc27a	0.13648406
184	0xbdc46f6f	-0.09591567
185	0xbccf6388	-0.025316015
186	0xbe013cfd	-0.12620921
187	0x3d93f717	0.07224863
188	0xbd6e02b3	-0.058108043
189	0x3dcebef4	0.10095015
190	0x3db9dedd	0.09075711
191	0xbe0fe83a	-0.14053431
192	0xbde71912	-0.11284079
193	0x3e246843	0.16055398
194	0xbe169d45	-0.14708431
195	0xbdfc8e99	-0.12331886
196	0xbe119dee	-0.14220402
197	0x3e06d210	0.1316607
198	0xbcdad68c	-0.026713632
199	0xbe1664fa	-0.14686957
200	0xbe0660e3	-0.13122897
201	0x3e1130c5	0.1417876
202	0xbd95ff00	-0.07324028
203	0x3e045537	0.12923132
204	0x3e20c32f	0.15699457
205	0x3d4ca201	0.049959186
206	0xbda2ee77	-0.0795564
207	0x3e2fe4f4	0.17177182
208	0x3e25cf7d	0.16192432
209	0x3e08c5ca	0.133567
210	0xbd81bc87	-0.06334787
211	0x3e0dc8a6	0.13846073
212	0xbdc7da19	-0.09758396
213	0x3d9bb314	0.07602516
214	0xbb142c9a	-0.0022609592
215	0x3e1acefe	0.15118024
216	0x3d305772	0.043052144
217	0x3d8be9b0	0.06831682
218	0xbe036c4c	-0.1283428
219	0x3e0aed87	0.13567172
220	0x3b5aed1e	0.0033405493
221	0xbcd1ea71	-0.025624486
222	0x3ca4bfff	0.020111082
223	0xbd76b8b2	-0.060234733
224	0xbe1d46ba	-0.15359011
225	0xbe276770	-0.16348052
226	0x3d78e2a7	0.060763028
227	0xbd9bb939	-0.07603688
228	0xbdef0249	-0.11670358
229	0x3e0d8b5e	0.13822696
230	0x3e2c4dd5	0.16826566
231	0xbe2b5dcf	-0.16735004
232	0xbdeefb2b	-0.11669
233	0xbdebdb98	-0.115164936
234	0x3d94ac4b	0.07259425
235	0x3db366dc	0.08759853
236	0xbdbf4dc1	-0.09341002
237	0xbddd797c	-0.10814187
238	0x3df3e6e5	0.11909274
239	0xbddfbdbb	-0.1092486
240	0xbdb27601	-0.08713914
241	0x3e2a9915	0.16659959
242	0xbb97865a	-0.0046241703
243	0xbd839ef9	-0.06426806
244	0x3dcaae82	0.09896566
245	0xbe2c85c2	-0.168479
246	0x3e28a08b	0.16467492
247	0xbdbd82a4	-0.09253433
248	0x3cde34c2	0.027124766
249	0xbdeda30c	-0.11603364
250	0x3dec39f2	0.1153449
251	0x3cf7c491	0.030245097
252	0xbe133ac2	-0.14377883
253	0xbdeec4ba	-0.11658616
254	0x3dd4ce6a	0.10390933
255	0xbd84c5d3	-0.064830445

egnn.layers.0.coord_mlp.0.bias f4 [32]
0	0xbd30e828	-0.04319015
1	0xbda3313d	-0.07968376
2	0xbe253bd3	-0.16136102
3	0x3e0e1a41	0.13877203
4	0xbde1d5a6	-0.11027078
5	0x3e0d0909	0.13772978
6	0x3cb8ccdc	0.022558622
7	0xbd980df7	-0.074245386
8	0xbdcf38c7	-0.10118251
9	0xbe095d61	-0.13414527
10	0x3e24cd6b	0.16093986
11	0xbd7012b0	-0.05861157
12	0x3cc88cf6	0.024481278
13	0xbd0e4905	-0.034737606
14	0x3e2dd2bd	0.16974922
15	0x3e2ea45c	0.17054886
16	0x3cfaed92	0.03063086
17	0xbdc16b48	-0.094442904
18	0x3d35fa49	0.044428144
19	0xbe296951	-0.16544081
20	0xbe22e616	-0.15908083
21	0x3c33ee78	0.010982148
22	0x3b405d9e	0.0029352675
23	0x3df731c2	0.120700374
24	0xbda8ffd5	-0.08251921
25	0x3cdfefaa	0.02733596
26	0x3dbfc882	0.09364416
27	0xbe2787c2	-0.16360381
28	0x3d87fbc8	0.0663982
29	0xbdf11298	-0.117711246
30	0x3dabac3e	0.08382462
31	0x3dd2be53	0.10290208

egnn.layers.0.coord_mlp.2.weight f4 [1, 32]
0	0xbb23a806	-0.0024971976
1	0xbb2756f8	-0.0025534015
2	0xbb5e8751	-0.0033955167
3	0x39ee0efb	0.0004540606
4	0xbb52144e	-0.003205556
5	0x3b66fe96	0.003524696
6	0xbb84988e	-0.0040465062
7	0xbb701e88	-0.0036639292
8	0xbb7935c1	-0.0038026425
9	0xbb99a050	-0.0046883
10	0x3b57fcda	0.0032957108
11	0x3ab29f4d	0.0013627798
12	0x3b71c053	0.0036888316
13	0x3aca6738	0.0015442139
14	0x3b02e6f0	0.0019974075
15	0x3b7e57ec	0.003880973
16	0xbb441f35	-0.0029925827
17	0xbbd82f2e	-0.006597421
18	0x3b10cc08	0.0022094268
19	0xbb32e749	-0.0027298501
20	0xbbce79cd	-0.006301141
21	0x3b5e908e	0.0033960673
22	0x3b87a10f	0.0041390727
23	0x3b86ea79	0.004117307
24	0x3b2ff69b	0.002684987
25	0x3bb964b3	0.0056577562
26	0x3af6190c	0.0018775775
27	0xbb5193c3	-0.0031978942
28	0xbba4142f	-0.005007289
29	0xbb3416f7	-0.0027479508
30	0x3b28570d	0.0025686652
31	0x3ad14df0	0.0015968662

egnn.layers.0.hidden_mlp.0.weight f4 [32, 48]
0	0x3d33046f	0.0437054
1	0x3cf117ee	0.029430356
2	0xbddfc153	-0.109255455
3	0xbd06f962	-0.032952674
4	0x3df7a6f6	0.12092392
5	0x3c35478c	0.011064421
6	0xbe08505b	-0.13311903
7	0xbda17b26	-0.07884817
8	0xbd9a6c83	-0.07540228
9	0x3c85d246	0.016335618
10	0xbdeb0657	-0.114758186
11	0x3dff80fc	0.12475774
12	0x3db68523	0.089121126
13	0x3cc611c9	0.024178402
14	0xbe06f83c	-0.13180631
15	0x3acd2aaf	0.001565298
16	0x3b66a6a7	0.0035194547
17	0xbd835771	-0.064131625
18	0xbde7b394	-0.11313549
19	0xbe14cb42	-0.14530662
20	0x3d8465e2	0.06464745
21	0x3c1a4ef7	0.009418241
22	0x3d1832f7	0.03715798
23	0x3e011847	0.12606917
24	0xbd3dd52b	-0.04634587
25	0xbdec740a	-0.1154557
26	0xbdf85e42	-0.12127353
27	0xbe03a64c	-0.12856406
28	0x3d8857c9	0.06657369
29	0xbda42385	-0.08014587
30	0x3dcc8c26	0.09987669
31	0xbd95e23c	-0.073185414
32	0x3c2a8f56	0.0104101505
33	0x3d8ef480	0.069802284
34	0x3d47acef	0.048748907
35	0x3e05face	0.13083956
36	0x3c703e62	0.014663311
37	0xbd8507c9	-0.064956255
38	0x3c2d8b20	0.010592252
39	0xbd64b6dd	-0.055838455
40	0x3dee7074	0.116425425
41	0xbd442dc4	-0.047895208
42	0xbdbe6c6a	-0.09298022
43	0xbd1d163b	-0.03835128
44	0xbd90695a	-0.07051344
45	0x3dee1e3e	0.11626862
46	0xbd75c221	-0.05999959
47	0xbd2a89b7	-0.04163524
48	0xbd9d7628	-0.07688552
49	0x3e08d435	0.133622
50	0xbde4e1fe	-0.11175917
51	0x3de96b1d	0.11397383
52	0xbd7de50f	-0.061986025
53	0x3da1fa83	0.079091094
54	0x3d414869	0.047188196
55	0xbdd02279	-0.10162825
56	0xbe0cdb82	-0.1375561
57	0x3d93bc1f	0.072136156
58	0xbda0d363	-0.07852819
59	0xbdb1228f	-0.0864917
60	0xbda84874	-0.08216944
61	0xbcbff872	-0.023433898
62	0xbd864a47	-0.06557136
63	0x3daf6a29	0.0856517
64	0x3c87cce6	0.016577195
65	0xbd9d083a	-0.07667585
66	0xbdce0d3f	-0.1006112
67	0x3d7dec98	0.06199321
68	0xbce19e09	-0.027541177
69	0xbd728f7b	-0.059218865
70	0x3e111b1a	0.14170495
71	0xbdd48982	-0.1037779
72	0x3da997fe	0.08280943
73	0xbd7afe23	-0.06127752
74	0x3c424ec5	0.0118596
75	0x3d58b953	0.052911114
76	0xbd2bb7a9	-0.0419232
77	0x3c83f9d0	0.01611033
78	0xbd693d94	-0.05694349
79	0xbd3f19f9	-0.04665563
80	0xba2d6ffe	-0.00066161144
81	0x3dd72006	0.10504155
82	0x3ca0275f	0.019550024
83	0xbd54e437	-0.051975455
84	0xbd31646e	-0.043308668
85	0xbc880656	-0.016604584
86	0xbd897705	-0.06712154
87	0xbd12e681	-0.035864357
88	0x3dcac5c1	0.09901
89	0x3d6a8431	0.057254974
90	0x3db53460	0.0884788
91	0xbdbacc04	-0.09120944
92	0x3db7e32c	0.089788765
93	0x3c328586	0.010896092
94	0x3df6c415	0.120491184
95	0x3bf544c1	0.0074850027
96	0xbdeeaa21	-0.11653543
97	0x3d882d60	0.066492796
98	0x3cdbbac9	0.026822465
99	0x3daabb76	0.083365366
100	0xbd3777f4	-0.04479213
101	0xbd93cb8e	-0.07216559
102	0xbdf0e5c1	-0.11762572
103	0x3dd76994	0.10518184
104	0xbde9430c	-0.11389741
105	0xbd16dbca	-0.0368307
106	0x3e01d620	0.12679338
107	0xbddc3a3f	-0.10753297
108	0x3dd9d8c6	0.106370494
109	0x3d002888	0.031288654
110	0xbded0cab	-0.11574682
111	0x3dcba5da	0.09943743
112	0xbdad0018	-0.084472835
113	0x3d7666bd	0.060156573
114	0xbddf0106	-0.10888867
115	0xbe0f6b40	-0.14005756
116	0xbd8492c6	-0.06473307
117	0xbd741a04	-0.059595123
118	0x3df31dce	0.11870919
119	0xbd0b98e4	-0.034081355
120	0x3e09cf41	0.13457967
121	0x3c820879	0.01587318
122	0x3d29f107	0.041489627
123	0x3dea2c6d	0.11434255
124	0x3dafae82	0.085782066
125	0x3d4d3490	0.050098956
126	0x3d13799d	0.03600465
127	0x3c899c9c	0.01679831
128	0x3c42062c	0.011842292
129	0x3e064952	0.13113907
130	0xbda1a9ad	-0.07893691
131	0x3dc9f278	0.098607
132	0x3d4a193e	0.04934048
133	0xbd5accb6	-0.053417884
134	0xbdadc109	-0.08484084
135	0xbd76f275	-0.06028982
136	0x3dd587ac	0.10426268
137	0xbe01a6dc	-0.12661308
138	0x3d0afc4d	0.03393202
139	0x3df0ef18	0.117643535
140	0xbde21365	-0.110388555
141	0xbe0ef288	-0.13959706
142	0xbe0c624e	-0.13709375
143	0xbdad6450	-0.08466399
144	0x3dc403b1	0.095710166
145	0x3dd3cb83	0.10341551
146	0xbd54a1a8	-0.05191198
147	0xbdef834f	-0.11694967
148	0x3d8f2e2f	0.06991231
149	0xbd8bcade	-0.06825803
150	0x3e08562f	0.13314126
151	0x3bd27da7	0.0064236703
152	0x3d8c7a66	0.06859283
153	0x3c9c30e6	0.019066285
154	0xbdde7a65	-0.10863189
155	0xbddc753f	-0.107645504
156	0x3d8ce097	0.068787746
157	0xbdae1f13	-0.08502021
158	0xbdb01e4e	-0.0859953
159	0x3d96f6e9	0.07371313
160	0x3e052cd3	0.1300538
161	0xbdaa61d4	-0.083194405
162	0x3d9efcf1	0.077630885
163	0xbcf0d002	-0.02939606
164	0xbd9bb49a	-0.076028064
165	0x3e0dcd6c	0.13847893
166	0x3dbac502	0.091196075
167	0x3d15f698	0.036612123
168	0xbdb6d160	-0.08926654
169	0xbd97cfe8	-0.07412702
170	0x3dadf598	0.08494109
171	0x3c0b6735	0.008508493
172	0xbe085232	-0.13312605
173	0xbd285afc	-0.041102394
174	0x3bd5bcde	0.006522759
175	0x3d5b84eb	0.053593557
176	0xbd8cdb28	-0.06877738
177	0x3dc9fb63	0.09862401
178	0xbde9076a	-0.11378367
179	0x3dc2d959	0.09514112
180	0xbdb393fc	-0.0876846
181	0xbdeec267	-0.11658173
182	0x3de24289	0.11047847
183	0xbccc4a35	-0.024937728
184	0x3dd3324d	0.103123285
185	0xbe087957	-0.13327537
186	0x3d6ff8aa	0.058586754
187	0x3d806f3e	0.06271218
188	0x3d8dc4c8	0.06922299
189	0xbd5169b9	-0.051126216
190	0x3a8f3dc2	0.001092844
191	0xbca29ecd	-0.019851113
192	0xbdd7495b	-0.10512038
193	0xbd702fc0	-0.058639288
194	0xbdcc723c	-0.09982726
195	0x3d93e84b	0.07222041
196	0x3d0dee81	0.034651283
197	0x3d5ea8ca	0.05436019
198	0xbe0cb4b4	-0.13740808
199	0x3d7ccc04	0.061718002
200	0xbd9ab776	-0.07554524
201	0xbdc825f7	-0.09772866
202	0xbde81527	-0.113321595
203	0x3e02e147	0.12781249
204	0xbda33c25	-0.07970456
205	0x3dbe9e44	0.093075305
206	0xbda17388	-0.07883364
207	0x3d863d2f	0.065546386
208	0x3d10072d	0.035163093
209	0xbded5cfb	-0.1159
210	0xbdc3c69b	-0.09559365
211	0x3b832d0e	0.0040031737
212	0xbcf3179c	-0.029674344
213	0x3def7564	0.11692312
214	0xbdfaedd5	-0.12252394
215	0x3d2c767e	0.04210519
216	0xbc9d5e89	-0.019210117
217	0xbd9eb473	-0.07749262
218	0xbe02cc5c	-0.1277327
219	0xbc60d313	-0.013722199
220	0x3ce64eed	0.028113807
221	0xbd8fc684	-0.07020286
222	0x3de31971	0.11088837
223	0x3defd49f	0.11710476
224	0xbe0250d4	-0.12726146
225	0xbdb9fd65	-0.09081534
226	0x3d7c0724	0.061530247
227	0x3dba7846	0.091049716
228	0xbdbe36b3	-0.09287777
229	0x3dc60558	0.09668988
230	0xbde18220	-0.110111475
231	0xbd918d58	-0.07107037
232	0x3cfb4513	0.030672586
233	0x3d8c74f8	0.068582475
234	0x3cbe1c37	0.023206813
235	0xbca85dff	-0.020552633
236	0x3d4edfa6	0.050506257
237	0xbdc254d1	-0.09488834
238	0x3d6c9f19	0.057768915
239	0x3e0f4ae1	0.13993408
240	0xbcfdbbaa	-0.030973274
241	0xbc755f6b	-0.014976363
242	0x3dbfac7c	0.09359071
243	0x3cad106a	0.02112599
244	0xbd1b2371	-0.037875596
245	0x3de7dbe5	0.113212384
246	0xbdac4f28	-0.08413535
247	0x3da55535	0.080728926
248	0x3daaa3da	0.083320335
249	0xbdf1356e	-0.11777769
250	0xbcd4b4dd	-0.025965149
251	0x3d733216	0.059373938
252	0x3bfb2f7a	0.0076655718
253	0x3cdf776a	0.02727862
254	0x3de04866	0.10951309
255	0x3dc65ca7	0.09685641

egnn.layers.0.hidden_mlp.0.bias f4 [32]
0	0x3d646507	0.05576041
1	0x3ba4f7f9	0.0050344435
2	0x3d12dabe	0.03585314
3	0xbdb9a7c0	-0.09065199
4	0x3d464d2c	0.04841344
5	0xbc2b1f31	-0.010444448
6	0xbd9d304e	-0.07675229
7	0xbde8dac8	-0.11369854
8	0x3d50a7b0	0.05094117
9	0xbda2f03d	-0.07955978
10	0x3cde01a4	0.027100392
11	0xbe0aa457	-0.13539253
12	0x3d6b522f	0.057451423
13	0x3d3f1fcf	0.046661194
14	0xbb6693eb	-0.003518338
15	0xbb6665f9	-0.0035155995
16	0x3e04dba2	0.12974408
17	0x3d5c5021	0.053787354
18	0xbdbd9b77	-0.09258168
19	0xbd5d35bd	-0.054006327
20	0xbd5b9e36	-0.05361768
21	0xbdc4354b	-0.09580477
22	0xbdd57d7e	-0.10424326
23	0xbc2a99e3	-0.010412666
24	0xbd9da2de	-0.0769708
25	0xbc2c09ad	-0.010500354
26	0x3cf0da94	0.029401101
27	0xbd9614e6	-0.07328205
28	0xbd649d03	-0.0558138
29	0xbe099c08	-0.13438427
30	0x3d1541b3	0.03643961
31	0x3d22ce67	0.039747622

egnn.layers.0.hidden_mlp.2.weight f4 [16, 32]
0	0xbe01da44	-0.12680918
1	0xbddf3253	-0.108982705
2	0xbd160e86	-0.036634944
3	0x3c0adef6	0.00847601
4	0x3beb5dfd	0.007182835
5	0x3e16ce27	0.14727078
6	0xbe1f6f7d	-0.15569873
7	0x3d90aa13	0.07063689
8	0x3e0f889e	0.14016959
9	0x3e23a2cd	0.15980072
10	0x3c8382f8	0.016053662
11	0x3e224957	0.1584829
12	0xbdcd2dce	-0.10018502
13	0xbe02c3ce	-0.12770006
14	0xbd492cb7	-0.04911491
15	0xbdb99da6	-0.09063272
16	0x3db323ae	0.0874704
17	0xbd38931e	-0.045062177
18	0x3dc028b6	0.09382765
19	0xbd9223c6	-0.071357295
20	0xbd99ef6f	-0.075163715
21	0xbd83a71f	-0.0642836
22	0xbc7cc64f	-0.01542814
23	0xbdb5ffce	-0.088866815
24	0x3dd03e84	0.10168174
25	0x3df9565a	0.121746734
26	0x3ceacdef	0.02866265
27	0xbe2e6840	-0.17031956
28	0x3e0dd02d	0.13848944
29	0xbdff4ba1	-0.12465597
30	0xbe0554ea	-0.13020673
31	0x3dc36d5b	0.09542342
32	0xbde2e2e3	-0.110784315
33	0xbe0ef447	-0.13960372
34	0xbe02c2a8	-0.12769568
35	0x3e147cab	0.14500682
36	0x3d3d4288	0.046206027
37	0x3db52768	0.08845407
38	0x3d0b2d08	0.033978492
39	0x3db3f082	0.087861076
40	0x3e2f6b7a	0.17130843
41	0xbcb21566	-0.02173872
42	0xbddda717	-0.108228855
43	0xbcfd616d	-0.030930245
44	0xbd827278	-0.063694894
45	0xbe25b30c	-0.16181582
46	0xbdfc31f3	-0.123142146
47	0xbd8ff45e	-0.07029031
48	0x3d18169c	0.037130937
49	0x3dac628c	0.08417234
50	0x3ddca62d	0.10773883
51	0xbe2e896b	-0.17044608
52	0xbc77036f	-0.015076502
53	0xbcec4909	-0.02884342
54	0x3e118179	0.14209546
55	0xbd25bf1e	-0.040465467
56	0x3e369e1c	0.17833751
57	0x3d13d00f	0.036087092
58	0x3cb3d423	0.02195174
59	0x3d9022d1	0.07037891
60	0x3e04cdef	0.12969182
61	0xbdd0a65e	-0.10187982
62	0x3daaa074	0.08331385
63	0xbd99c5dd	-0.075084426
64	0x3d579632	0.05263347
65	0x3dde31f0	0.108493686
66	0xbdb277df	-0.0871427
67	0xbd3e85db	-0.046514373
68	0x3e225715	0.15853532
69	0xbe2e9b87	-0.17051516
70	0xbd0ed4d2	-0.03487093
71	0x3e0df014	0.13861114
72	0x3d39a954	0.0453275
73	0xbe1c603b	-0.15271084
74	0x3b87a5c0	0.004139632
75	0xbe1b1d0c	-0.15147799
76	0xbd895d61	-0.06707264
77	0x3cedabb2	0.029012535
78	0x3db4abb8	0.08821815
79	0xbdb8eefc	-0.09029958
80	0x3e19471e	0.14968535
81	0xbdf181a8	-0.11792308
82	0xbce9df78	-0.028548941
83	0xbe229637	-0.15877615
84	0xba8bec3e	-0.0010675264
85	0xbc64d5b5	-0.013966967
86	0x3da8e1d9	0.08246202
87	0xbdf08790	-0.117446065
88	0x3c676da5	0.014125262
89	0x3d827f8a	0.063719824
90	0xbde9adaa	-0.11410077
91	0x3e25f539	0.16206826
92	0xbd14186d	-0.036156107
93	0xbe314d1d	-0.17314573
94	0xbd22f3d2	-0.039783306
95	0x3d49ed52	0.049298592
96	0xbda44541	-0.08021022
97	0xbd7cf525	-0.061757226
98	0x3d8bef09	0.06832702
99	0xbcca7202	-0.024712566
100	0x3d618833	0.05506153
101	0x3b67129d	0.0035258897
102	0xbc4cc592	-0.012498276
103	0x3e0ce282	0.13758281
104	0xbc91e700	-0.017810345
105	0x3e076d0f	0.13225196
106	0xbd90a64c	-0.070629686
107	0x3dd6c357	0.10486477
108	0x3daf503b	0.085602246
109	0xbdffdfc4	-0.12493852
110	0xbd52c9e4	-0.05146207
111	0xbddf3fd1	-0.10900844
112	0x3cdbac65	0.026815603
113	0x3c7d6c8b	0.015467773
114	0xbd45f0cb	-0.04832534
115	0x3e14b5df	0.14522503
116	0x3e2c7c52	0.168443
117	0xbe07f6d4	-0.13277751
118	0xbdb14fdf	-0.08657812
119	0x3c780558	0.015137993
120	0x3dfc2e1c	0.12313482
121	0xbdc65504	-0.09684184
122	0xbcd7637d	-0.026292557
123	0xbcb350f6	-0.021889191
124	0xbe159ffb	-0.14611809
125	0xba820e6a	-0.0009922509
126	0xbc80a5da	-0.015704084
127	0x3d603716	0.054740034
128	0x3df1ae6e	0.11800848
129	0xbc77827a	-0.015106792
130	0x3e0afeb3	0.13573723
131	0xbd85cb0d	-0.065328695
132	0xbde4d903	-0.11174204
133	0x3d91f427	0.071266465
134	0x3e04d186	0.12970552
135	0x3a05be4d	0.00051019044
136	0xbe02cd9c	-0.12773746
137	0xbda0333c	-0.07822272
138	0xbdc778f1	-0.097398646
139	0x3d48b801	0.049003605
140	0x3d49aa54	0.049234703
141	0xbe1c69a3	-0.15274672
142	0xbcbff2c4	-0.02343119
143	0x3d07d8d6	0.033165775
144	0xbd86e5d3	-0.06586804
145	0x3e297b6e	0.16550991
146	0x3e0a8f76	0.13531289
147	0xbdabb744	-0.083845645
148	0x3ca252f5	0.019814948
149	0xbd03f1a6	-0.032212876
150	0xbe232581	-0.15932275
151	0x3bdcf358	0.006742876
152	0x3df8a0cf	0.12140047
153	0x3dc6030d	0.09668551
154	0x3dba5d85	0.09099869
155	0xbd859d03	-0.06524088
156	0xbdcf3a22	-0.1011851
157	0xbe1fd26f	-0.15607618
158	0xbe1a2e2f	-0.1505668
159	0xb9eadb0e	-0.00044795166
160	0x3e10b9e3	0.1413341
161	0x3d5e68d9	0.05429921
162	0xbd388d67	-0.045056727
163	0x3cb57cb2	0.022154186
164	0x3d046e5b	0.032331806
165	0xbdaace31	-0.08340109
166	0x3dd1a7af	0.10237061
167	0x3d81c586	0.06336503
168	0xbd1d04e6	-0.03833475
169	0xbcee1e9c	-0.02906733
170	0xbe2dbb99	-0.16966094
171	0x3d951bd3	0.07280698
172	0x3cb9806e	0.022644248
173	0x3dee05f2	0.11622228
174	0x3d477101	0.048691753
175	0xbe0bb56b	-0.13643424
176	0xbd66f892	-0.0563894
177	0x3de1a117	0.110170536
178	0x3e25d586	0.16194734
179	0x3d36759d	0.04454576
180	0x3e12ad61	0.14323951
181	0x3e2a7844	0.1664744
182	0xbd3c9046	-0.046036027
183	0x3d1fcc1e	0.03901302
184	0x3e2cf084	0.16888624
185	0xbc06594a	-0.008199999
186	0xbdd88f59	-0.105742164
187	0xbdeb159f	-0.11478733
188	0xbd9c57f2	-0.07633962
189	0xbe301f3c	-0.17199415
190	0xbdbb0fe4	-0.0913389
191	0x3dc9cffb	0.09854122
192	0x3e09491f	0.134068
193	0x3cc3b152	0.023888264
194	0xbd8e2896	-0.06941335
195	0xbde615a2	-0.11234595
196	0xbe0f3686	-0.13985643
197	0x3d0a11b4	0.03370829
198	0x3e25fc69	0.16209568
199	0xbde7651d	-0.11298583
200	0x3e2ea86f	0.1705644
201	0xbd9a0372	-0.075201884
202	0xbde7482a	-0.11293061
203	0x3dd04601	0.10169602
204	0xbdd6dba3	-0.10491111
205	0x3e286c57	0.16447578
206	0xbe1eb533	-0.1549881
207	0x3dced447	0.100990824
208	0x3e26f128	0.16302931
209	0xbd709b60	-0.058741927
210	0xbdd76672	-0.10517587
211	0xbd6b7bb0	-0.057491004
212	0x3e1fd38f	0.15608047
213	0xbdfa8880	-0.122330666
214	0x3e18525d	0.14875169
215	0x3e2b05c4	0.16701418
216	0xbd9bb91f	-0.076036684
217	0x3e0d91a7	0.13825093
218	0x3b8517ec	0.0040616896
219	0x3cf9671e	0.030444678
220	0xbbb038c3	-0.0053778603
221	0x3d11e69d	0.03562032
222	0x3e285c2b	0.1644141
223	0x3cf0df14	0.029403247
224	0x3cb185f4	0.02167032
225	0xbdd9b300	-0.10629845
226	0x3df15f1b	0.11785718
227	0xbd6b56cd	-0.057455827
228	0xbe135406	-0.14387521
229	0xbe30f282	-0.1728001
230	0x3e2cb1b7	0.16864668
231	0x3d8aa558	0.06769818
232	0xbd941748	-0.07231003
233	0xbddfc554	-0.10926309
234	0xbc1bb071	-0.009502516
235	0xbcf39629	-0.029734688
236	0xbb953fcf	-0.0045547257
237	0x3e0b7da9	0.13622154
238	0xbdc30027	-0.095215134
239	0x3d0017e4	0.031272784
240	0x3dcd0a7c	0.10011765
241	0x3e0bcae1	0.13651611
242	0x3d158ecc	0.036513135
243	0xbdf57067	-0.1198433
244	0xbd17e1bf	-0.037080523
245	0xbd0883c5	-0.03332879
246	0xbd3e33a0	-0.046435952
247	0xbe2ffee6	-0.1718708
248	0xbbb34adf	-0.005471572
249	0x3e239e49	0.1597835
250	0xbdae8ebe	-0.0852332
251	0xbd937e12	-0.072017804
252	0xbdf95d48	-0.12175995
253	0x3d2c654c	0.04208879
254	0xbde780d2	-0.113038674
255	0x3cb9a2ef	0.0226607

egnn.layers.0.hidden_mlp.2.bias f4 [16]
0	0x3d161639	0.036642287
1	0xbe2008a7	-0.156283
2	0x3e256c7a	0.16154662
3	0xbc6b35c2	-0.014356079
4	0xbe087e71	-0.13329484
5	0x3dcd0904	0.10011485
6	0xbe14c2ad	-0.14527388
7	0xbc318249	-0.010834285
8	0xbe0404ba	-0.12892428
9	0x3ce7f703	0.028316027
10	0x3d13fd61	0.036130313
11	0x3e1abfd8	0.15112245
12	0xbd9dcb85	-0.07704834
13	0x3de4049c	0.11133692
14	0xbb4347ae	-0.0029797363
15	0x3df0ed10	0.11763966
