2-egnca-rework/logs/line4-2024-10-05@23-20-03/best@137.pt (torch, 26116 bytes, 11 tensors)

egnn.layers.0.message_mlp.0.weight f4 [32, 33]
0.060291667 0.09688683 -0.008055016 0.09547349 -0.051401153 0.028274 -0.043064363 -0.01345487
-0.0383811 0.028492616 0.1331492 0.13866313 -0.030072609 -0.06068098 -0.026002675 0.14866312
0.14427163 -0.047851223 -0.059951957 -0.0437578 0.12208285 0.14010137 -0.12340974 -0.061370242
-0.15483971 0.1711036 0.027126173 0.053697716 0.09363092 0.040312186 -0.035110787 -0.16945745
0.043738984 -0.031313397 -0.17219515 -0.023342853 -0.09490452 -0.097177595 -0.12677296 -0.14755182
-0.01211818 0.02010155 -0.15637481 -0.1608222 0.001701107 -0.16198196 0.084533125 -0.04396853
-0.024610132 -0.16044672 -0.12604827 0.06493771 -0.09529328 -0.07056093 -0.15535013 -0.0037927134
-0.10804689 0.04629005 0.055001255 0.038681902 0.06066694 -0.12296134 0.01816584 -0.15390792
-0.12060548 0.14449704 0.12427307 -0.1234144 0.09636517 -0.14291577 0.02544994 0.1574139
0.013657437 0.06825645 0.15757897 -0.06604873 0.12889014 0.02559912 -0.039763764 -0.1565479
0.16754529 0.17258735 -0.07483706 0.04090359 -0.18033485 0.031073436 0.0982825 0.018125512
-0.09471018 0.15852919 -0.09670175 0.022162104 -0.16283326 0.074281156 0.11960822 0.03387492
0.1345219 -0.17563546 -0.102403626 0.046850286 0.087975375 -0.042936627 0.049513973 -0.16962142
0.16984949 -0.13706991 -0.16148444 -0.12928952 0.1727736 0.043522377 -0.014397339 0.03514159
-0.0013382877 -0.12248939 0.109939426 -0.1454248 -0.043297607 0.018328996 -0.107075475 0.04136109
-0.15776168 -0.08323138 0.15109858 0.051270403 -0.14189634 0.16397537 -0.04693054 0.031510532
-0.038432162 -0.10131546 0.031294156 -0.038280863 -0.09272713 0.09540868 0.08395962 0.11379595
-0.027018337 -0.029026346 0.009793509 0.15274379 -0.15453827 -0.010251084 0.01543241 0.08358176
-0.17082027 -0.18726169 -0.0070215007 0.054330006 -0.07355783 0.13400702 0.03275667 -0.06054108
-0.062078103 -0.14217062 0.09327064 -0.033513755 0.08872883 -0.18369035 0.1265538 0.05516492
-0.11039799 -0.09509192 0.12387953 0.080240406 0.08378529 0.03811188 -0.08797871 -0.11397436
-0.04933493 -0.04955629 -0.02660957 -0.04248502 -0.14094415 -0.15905108 -0.123719096 0.08972295
-0.11139618 -0.1348619 -0.07499225 0.054873582 -0.053193603 0.0015852844 0.020076245 -0.123618096
-0.049781118 -0.050959937 -0.010471988 -0.112453535 -0.03479332 0.015018409 0.055155978 -0.113272324
0.15511605 0.04579356 -0.13939543 0.16249107 -0.11221336 -0.0021830515 0.13312228 -0.038743533
0.04465483 0.08270757 -0.05851708 0.01934188 0.13136661 8.768208e-05 -0.043103117 0.13081494
0.03569558 -0.11273833 0.08721724 0.14035845 0.013774344 0.14570121 -0.10901813 0.1676586
0.10013081 -0.0029562768 -0.1586956 0.16889773 -0.0066962535 0.08399915 -0.09371747 0.059220918
-0.026907686 0.044734836 0.06650455 -0.116661 -0.12808311 -0.0076541696 -0.045187183 0.1166961
-0.07422616 0.040845945 -0.15981513 0.08540041 0.10832292 0.026008148 0.022845307 0.026000781
-0.0072722873 -0.036769625 0.13012856 -0.054131586 -0.023019968 -0.016963117 -0.103662245 -0.13603565
-0.10406254 -0.03740311 -0.13461998 0.056893993 -0.13142714 -0.04486901 -0.074049525 -0.085392766
00000000: 65f4 763d 9a6c c63d 30f9 03bc 9b87 c33d
00000010: 048a 52bd e09e e73c 4264 30bd d171 5cbc
00000020: 8035 1dbd 5969 e93c 4458 083e b5fd 0d3e
00000030: d55a f6bc 9f8c 78bd 9003 d5bc 253b 183e
00000040: f1bb 133e a5ff 43bd 2f90 75bd 613b 33bd
00000050: 9306 fa3d bc76 0f3e 3fbe fcbd 5d5f 7bbd
00000060: 4d8e 1ebe c835 2f3e b537 de3c 23f2 5b3d
00000070: 91c1 bf3d 641e 253d 54d0 0fbd 4186 2dbe
00000080: a627 333d 7a42 00bd ed53 30be 8339 bfbc
00000090: 4d5d c2bd 0c05 c7bd c5d0 01be d317 17be
000000a0: 558b 46bc 01ac a43c b820 20be 93ae 24be
000000b0: aef7 de3a 99de 25be b41f ad3d 5818 34bd
000000c0: 309b c9bc 254c 24be cc12 01be 10fe 843d
000000d0: 2029 c3bd 4082 90bd 1b14 1fbe 2c8f 78bb
000000e0: b047 ddbd a39a 3d3d ff48 613d ea70 1e3d
000000f0: e67d 783d 28d3 fbbd 87d0 943c 0a9a 1dbe
00000100: 0200 f7bd 08f7 133e e182 fe3d b0c0 fcbd
00000110: 1a5b c53d 8358 12be 647c d03c 1c31 213e
00000120: 71c3 5f3c 0aca 8b3d 625c 213e 8e44 87bd
00000130: c7fb 033e 3fb5 d13c 54df 22bd 184e 20be
00000140: fe90 2b3e bdba 303e 2c44 99bd 868a 273d
00000150: b3a9 38be b88d fe3c 5648 c93d f47b 943c
00000160: 69f7 c1bd 7a55 223e 910b c6bd 4d8d b53c
00000170: c3bd 26be b820 983d 28f5 f43d 6ec0 0a3d
00000180: 1cc0 093e c8d9 33be feb8 d1bd 16e6 3f3d
00000190: 6f2c b43d 51de 2fbd 2acf 4a3d 3db1 2dbe
000001a0: 06ed 2d3e 0e5c 0cbe 2d5c 25be 7964 04be
000001b0: 90eb 303e 8544 323d d1e2 6bbc a1f0 0f3d
000001c0: 7c69 afba b8db fabd ec27 e13d 3dea 14be
000001d0: d558 31bd b126 963c 634a dbbd 3f6a 293d
000001e0: 478c 21be 3775 aabd 96b9 1a3e ea00 523d
000001f0: 464d 11be 29e9 273e 3d3a 40bd 3011 013d
00000200: 0b6b 1dbd 7b7e cfbd 4d2e 003d 65cc 1cbd
00000210: b9e7 bdbd a065 c33d 05f3 ab3d da0d e93d
00000220: 8f55 ddbc a9c8 edbc f474 203c de68 1c3e
00000230: 483f 1ebe 2af4 27bc 38d8 7c3c ea2c ab3d
00000240: 82eb 2ebe 87c1 3fbe 9e14 e6bb 2489 5e3d
00000250: 7da5 96bd 2339 093e dc2b 063d ecf9 77bd
00000260: 9c45 7ebd 2d95 11be ad04 bf3d b845 09bd
00000270: 76b7 b53d 5319 3cbe 5297 013e 9cf4 613d
00000280: 5718 e2bd 8dbf c2bd 8db4 fd3d 1555 a43d
00000290: 9f97 ab3d 341b 1c3d 2f2e b4bd 646b e9bd
000002a0: 6c13 4abd 89fb 4abd 50fc d9bc c604 2ebd
000002b0: aa53 10be 49de 22be 7060 fdbd aac0 b73d
000002c0: ae23 e4bd 3d19 0abe 8995 99bd 1fc3 603d
000002d0: 89e1 59bd 51c9 cf3a f076 a43c 7c2b fdbd
000002e0: 49e7 4bbd 5ebb 50bd b392 2bbc 0a4e e6bd
000002f0: 7183 0ebd c60f 763c 3ceb 613d 52fb e7bd
00000300: bed6 1e3e 0792 3b3d adbd 0ebe 0f64 263e
00000310: 1ed0 e5bd 8711 0fbb 3551 083e 8ab1 1ebd
00000320: fce7 363d 9662 a93d 9baf 6fbd dd72 9e3c
00000330: f884 063e f5e1 b738 e58c 30bd 5af4 053e
00000340: 8735 123d 5be3 e6bd f49e b23d 20ba 0f3e
00000350: c9ad 613c b332 153e e644 dfbd b2ae 2b3e
00000360: 6211 cd3d 18be 41bb 1981 22be 87f3 2c3e
00000370: 3f6c dbbb bf07 ac3d f2ee bfbd a291 723d
00000380: 826d dcbc e03b 373d 8a33 883d f6eb eebd
00000390: 3828 03be d4cf fabb 3216 39bd 5dfe ee3d
000003a0: e303 98bd 144e 273d 94a6 23be 69e6 ae3d
000003b0: 68d8 dd3d 0a0f d53c 1526 bb3c 97ff d43c
000003c0: 5e4c eebb bf9b 16bd 6c40 053e 15b9 5dbd
000003d0: 5f94 bcbc 3cf6 8abc df4c d4bd ee4c 0bbe
000003e0: be1e d5bd 0134 19bd d2d9 09be ad09 693d
000003f0: d694 06be 91c8 37bd 47a7 97bd 67e2 aebd

egnn.layers.0.message_mlp.0.bias f4 [32]
-0.033822592 -0.017231913 0.05063788 -0.15518141 0.058736578 -0.15041144 -0.03636547 -0.14314835
-0.1496537 -0.09292293 0.12606326 -0.1603868 0.07677306 -0.014436488 -0.14273646 0.047530428
-0.09459755 -0.10228529 0.035773333 -0.1254867 0.009616952 0.060020365 0.05037113 0.09395436
-0.14339308 0.05750203 0.10629865 -0.16124257 0.06662914 0.012324378 0.062120695 -0.1673407
00000000: 8f89 0abd f129 8dbc aa69 4f3d e0e7 1ebe
00000010: c495 703d 7505 1abe f6f3 14bd 7b95 12be
00000020: d23e 19be 614e bebd ba16 013e 703c 24be
00000030: 323b 9d3d 0587 6cbc 8229 12be 44af 423d
00000040: 5cbc c1bd f37a d1bd 0f87 123d 967f 00be
00000050: 6c90 1d3c ead7 753d f551 4e3d 256b c03d
00000060: a3d5 12be 4087 6b3d 1bb3 d93d c61c 25be
00000070: dc74 883d 30ec 493c 4572 7e3d 5c5b 2bbe

egnn.layers.0.message_mlp.2.weight f4 [32, 32]
0.112948395 -0.15708958 0.08278789 0.15972708 -0.03463581 0.08301976 -0.022713847 0.09951416
-0.16132423 0.0005090556 0.18779798 -0.042915303 -0.13972192 -0.13944 0.038327392 0.15630607
-0.17240207 0.113645054 -0.13457164 0.07466345 0.03732378 0.05730155 -0.15243001 0.16774948
0.038455367 -0.011129998 -0.13232942 0.10709676 0.16463788 0.069318816 -0.021180052 -0.040970474
-0.18100794 0.11650397 -0.02604863 -0.15692705 0.00016274927 0.033503443 0.11157949 0.05670513
-0.11688876 -0.04703766 -0.17077646 0.08133367 0.08194204 -0.105421476 0.043637075 0.11802654
0.15892965 0.119459905 0.06793698 0.04166964 0.060998276 0.16177495 0.108550385 0.029905032
0.021222664 0.11735201 0.17571418 -0.115772195 -0.08628779 0.19441624 -0.075097725 -0.049045082
0.13979305 -0.066843376 0.17774962 -0.101769276 -0.08139279 0.009268956 0.011893303 0.16280991
-0.073679015 0.0679059 -0.023948314 -0.028455403 -0.15134709 0.16335881 -0.09581636 -0.03734066
-0.08159259 0.16347277 -0.071698345 -0.04109571 0.10345539 0.1690444 0.16528744 -0.10414934
-0.06432122 0.14473969 0.074008495 0.1366366 0.059905235 -0.118109725 -0.02554316 -0.07717115
-0.14495507 0.049257886 0.09370272 0.06602971 0.13921492 -0.071339704 0.059841316 -0.055654425
0.15005574 -0.013058069 0.12664278 0.1338323 -0.12205157 -0.04216861 0.15124424 -0.08600063
-0.0427063 0.14588618 0.14442743 0.11850088 0.017888498 0.110932834 -0.16149281 0.082901545
-0.029882072 -0.13074125 0.038683236 0.001242786 0.06470182 -0.05973788 0.17638054 -0.18416986
0.17238629 -0.07652692 0.104794756 -0.024958545 -0.048671074 -0.13190052 -0.1413616 0.023986042
-0.10318489 -0.12307486 -0.14882782 0.1520901 0.041728586 0.015235914 -0.052410014 -0.15343106
0.100109234 0.14310321 0.032973625 0.047471907 0.0017762815 0.06884883 0.008302629 -0.11160021
-0.024953175 0.16073146 -0.10714869 0.15512908 -0.10047818 -0.035166007 0.11322826 -0.10940212
-0.044600096 -0.13341582 -0.024107786 0.11291691 -0.08955804 -0.038115192 0.0048120287 0.105525084
0.029525043 -0.021511547 -0.108472966 -0.13245554 0.17117704 -0.045500305 0.10891617 -0.016359666
-0.08554523 -0.06832945 -0.14095975 -0.03517801 0.015196688 -0.086339004 0.049385477 0.07747201
-0.113113016 -0.018268123 0.12640935 -0.1618626 0.096030466 -0.04353547 -0.05380529 -0.105138935
-0.013056231 0.058383033 -0.08270019 -0.057007316 0.092115395 -0.08436989 0.0105998805 0.09879085
-0.0033177473 -0.047643892 -0.113760225 -0.040527944 -0.034873642 0.11336805 0.015485448 -0.14327012
-0.012463971 -0.10723316 0.18740642 -0.04158888 -0.16799457 -0.0960685 0.10111272 0.16700678
-0.1127571 -0.17351778 -0.041535895 -0.04839577 -0.08748933 0.10761607 0.014470531 0.13347584
0.12718879 0.014088014 0.14192317 -0.045817498 0.060398366 -0.1112579 0.041724835 0.07104577
-0.17836872 0.14731686 0.12339183 -0.10999823 0.052540693 0.16656496 -0.060008757 0.0049193134
-0.018558268 -0.10201949 0.0879547 -0.07929451 0.05156633 0.034707636 0.08594714 0.1694638
0.05930635 -0.02687946 -0.055451013 0.14505738 0.112719655 0.15308255 -0.07593878 0.10789095
00000000: 7d51 e73d 17dc 20be b38c a93d 7f8f 233e
00000010: 47de 0dbd 4406 aa3d 6412 babc 14ce cb3d
00000020: 2e32 25be 2572 053a 1d4e 403e f5c7 2fbd
00000030: 4313 0fbe 5cc9 0ebe 2ffd 1c3d b30e 203e
00000040: 2b8a 30be bdbe e83d 26cd 09be 27e9 983d
00000050: d2e0 183d 08b5 6a3d 9d16 1cbe 85c6 2b3e
00000060: 6083 1d3d 985a 36bc 5d81 07be 8c55 db3d
00000070: d596 283e 06f7 8d3d ca81 adbc a8d0 27bd
00000080: 255a 39be a299 ee3d f063 d5bc 7cb1 20be
00000090: ada7 2a39 e83a 093d ca83 e43d a343 683d
000000a0: 6063 efbd 90aa 40bd 06e0 2ebe 4492 a63d
000000b0: 3ad1 a73d 37e7 d7bd cabc 323d e6b7 f13d
000000c0: 74be 223e 65a7 f43d 8b22 8b3d c9ad 2a3d
000000d0: 54d9 793d 55a8 253e aa4f de3d 66fb f43c
000000e0: 27db ad3c 4056 f03d 6bee 333e f919 edbd
000000f0: a7b7 b0bd 0d15 473e d6cc 99bd 7fe3 48bd
00000100: e925 0f3e 2ee5 88bd ff03 363e 696c d0bd
00000110: 43b1 a6bd d2dc 173c 21dc 423c a4b7 263e
00000120: 06e5 96bd 4012 8b3d 412f c4bc 4e1b e9bc
00000130: bbfa 1abe 8847 273e 5e3b c4bd 85f2 18bd
00000140: 041a a7bd 6865 273e 95d6 92bd fa53 28bd
00000150: 6be0 d33d fa19 2d3e 1c41 293e 404c d5bd
00000160: d8ba 83bd a436 143e c491 973d 77ea 0b3e
00000170: 315f 753d 83e3 f1bd e43f d1bc e80b 9ebd
00000180: 1a6f 14be a3c2 493d 36e7 bf3d 963a 873d
00000190: 5b8e 0e3e 8d1a 92bd 2b1c 753d e5f5 63bd
000001a0: 36a8 193e 83f1 55bc a5ae 013e 560b 093e
000001b0: 2cf6 f9bd feb8 2cbd c5df 1a3e 1921 b0bd
000001c0: cdec 2ebd 3063 153e c9e4 133e 97b0 f23d
000001d0: e68a 923c c130 e33d 5f5e 25be 49c8 a93d
000001e0: 3fcb f4bc 09e1 05be 5072 1e3d fae4 a23a
000001f0: 6382 843d b5af 74bd 1a9d 343e 0697 3cbe
00000200: 0886 303e 25ba 9cbd a29e d63d dd75 ccbc
00000210: 525b 47bd ee10 07be 18c1 10be 607e c43c
00000220: 9952 d3bd ac0e fcbd 5266 18be 82bd 1b3e
00000230: 98eb 2a3d 0ea0 793c e2ab 56bd 081d 1dbe
00000240: 1206 cd3d a689 123e 5a0f 073d e771 423d
00000250: 1ed2 e83a 9e00 8d3d c007 083c a78e e4bd
00000260: 9a6a ccbc ca96 243e c670 dbbd 28da 1e3e
00000270: 81c7 cdbd 3b0a 10bd 38e4 e73d 380e e0bd
00000280: 97ae 36bd 289e 08be b17d c5bc fb40 e73d
00000290: 356a b7bd ad1e 1cbd 39ae 9d3b 891d d83d
000002a0: 81de f13c fc38 b0bc 1327 debd 6da2 07be
000002b0: 0949 2f3e 875e 3abd 710f df3d b504 86bc
000002c0: 5632 afbd 50f0 8bbd c157 10be d116 10bd
000002d0: 87fb 783c 81d2 b0bd 6d48 4a3d a5a9 9e3d
000002e0: cca7 e7bd 08a7 95bc 7471 013e 4fbf 25be
000002f0: 9fab c43d 4052 32bd f062 5cbd 1553 d7bd
00000300: cde9 55bc 0c23 6f3d b85e a9bd 8180 69bd
00000310: ffa6 bc3d 1fca acbd 1fab 2d3c db52 ca3d
00000320: 906e 59bb 3e26 43bd 1ffb e8bd a100 26bd
00000330: aad7 0ebd 822d e83d adb6 7d3c 67b5 12be
00000340: af35 4cbc 0f9d dbbd 78e7 3f3e 1a59 2abd
00000350: c506 2cbe 90bf c4bd 3014 cf3d d303 2b3e
00000360: 32ed e6bd a5ae 31be 8b21 2abd a53a 46bd
00000370: 9b2d b3bd d065 dc3d ce15 6d3c e4ad 083e
00000380: c73d 023e 6ad1 663c 4f54 113e 21ab 3bbd
00000390: 4764 773d 2fdb e3bd a9e7 2a3d 7280 913d
000003a0: 4aa6 36be 3bda 163e dbb4 fc3d c146 e1bd
000003b0: e934 573d 0190 2a3e becb 75bd 3132 a13b
000003c0: 8207 98bc 98ef d0bd 9821 b43d 2965 a2bd
000003d0: 3737 533d 9829 0e3d 0e05 b03d eb87 2d3e
000003e0: 37eb 723d 5032 dcbc 9a20 63bd ec89 143e
000003f0: 90d9 e63d acc1 1c3e cb85 9bbd eef5 dc3d

egnn.layers.0.message_mlp.2.bias f4 [32]
0.0035481644 0.10792159 0.019075416 0.16352953 -0.022939939 -0.16400225 -0.15677597 -0.07531483
0.059883796 0.098573305 0.07956545 0.15234801 -0.17198384 0.07203184 -0.016318133 -0.13366064
0.042306926 0.16698118 0.04841841 0.10680121 0.097869 -0.11719665 -0.17257744 -0.16266014
0.15083228 -0.13034669 -0.057551347 0.14798282 0.15581617 -0.12750576 0.07355902 -0.0047905627
00000000: 5288 683b ff05 dd3d 0c44 9c3c 4974 273e
00000010: 8aec bbbc 35f0 27be e189 20be a93e 9abd
00000020: b648 753d cde0 c93d 36f3 a23d 1e01 1c3e
00000030: 881c 30be 6e85 933d 9bad 85bc 56de 08be
00000040: 074a 2d3d 1dfd 2a3e 6252 463d 98ba da3d
00000050: 8b6f c83d cc04 f0bd 24b8 30be 6190 26be
00000060: c773 1a3e 9a79 05be f6ba 6bbd cf88 173e
00000070: 468e 1f3e df90 02be 1da6 963d 27fa 9cbb

egnn.layers.0.coord_mlp.0.weight f4 [32, 32]
-0.039614514 -0.0026935034 0.0068167564 -0.16827515 -0.1206841 0.08411362 0.10839631 0.048788283
-0.10880986 -0.014859341 0.11020664 -0.10947575 0.12734711 0.066079006 -0.107086025 -0.16182542
0.076590955 0.045432333 -0.095525205 -0.13471326 0.03630641 0.07831197 -0.067830525 0.14614207
0.12396806 0.11176704 0.14606643 -0.11737065 0.14198315 -0.15138303 -0.04336707 -0.12846917
-0.04433948 -0.15397523 -0.15250513 -0.112451516 0.027943118 -0.11148293 0.016470885 0.028011104
-0.15155478 0.14083491 -0.049676515 0.120388016 -0.0035231994 0.11088251 0.0130480165 -0.10996674
-0.16142242 -0.12776819 -0.10111798 -0.12022263 0.17098705 -0.120139465 0.014383349 -0.120285295
0.13074632 -0.007863156 -0.07801513 0.015353959 -0.09380481 0.087366946 -0.005834213 -0.12121111
-0.04567603 -0.0035947617 -0.016057042 -0.07175199 0.03433789 0.1787449 -0.0964843 -0.07857143
0.006305112 0.12276876 -0.084634595 -0.13460824 0.16983558 0.06557054 0.07459868 -0.042263944
0.1495829 0.0012587358 0.058501624 0.16175202 -0.11808837 -0.11644536 0.11551262 0.10019041
-0.00077695947 -0.07406974 0.15629213 -0.1489251 -0.026247462 -0.14941004 0.13312821 0.03393837
-0.05271103 -0.12243727 -0.03881632 -0.14404076 0.15915798 -0.08894292 -0.0022359602 0.016456729
0.10292991 -0.019485727 0.027957259 -0.013819962 0.009560196 0.095737554 0.118142225 -0.01086442
0.047665637 -0.043330718 0.07021739 0.006542386 -0.01402254 0.011160745 0.14002553 0.11988372
-0.03594497 0.12336344 0.006988357 -0.07284091 -0.08572175 0.104148984 -0.065073386 -0.020312242
-0.083245285 -0.109643966 0.120817766 0.14713359 -0.15506609 0.010386222 0.14113544 0.118120916
0.049504794 0.05939901 -0.043989815 0.029790966 0.10325796 -0.092426 -0.010379477 0.17938867
0.11908887 0.08527475 0.03202426 0.14465268 -0.031661056 -0.037895784 -0.076387726 0.0891847
-0.13609861 0.033137817 0.033754326 -0.10946576 0.086526506 -0.00972063 0.076520965 -0.06948041
0.04303172 0.13486856 0.023109365 -0.11115296 -0.04208398 -0.049532525 -0.008666258 -0.048581414
0.035048947 -0.07228438 0.02919841 -0.15012619 -0.042262465 0.08135991 0.09846912 -0.12829256
-0.10849359 0.01563139 0.024511708 -0.04614903 0.11440043 -0.0941619 -0.10524544 0.14108679
-0.09246294 -0.039177567 -0.13763371 0.0887779 -0.04568285 0.08867882 0.08369889 -0.14525996
-0.12382125 0.16101511 -0.16220516 -0.11945223 -0.14686918 0.13635547 -0.011642617 -0.1654455
-0.1332556 0.14850965 -0.08733737 0.13018698 0.16232637 0.05398795 -0.08335764 0.1786539
0.16419862 0.13653763 -0.057781134 0.12963367 -0.10501785 0.09174023 0.0027812014 0.14747952
0.038271815 0.08265421 -0.11732971 0.11846604 -0.009389615 -0.011664798 0.02646448 -0.056262814
-0.1652646 -0.16199884 0.045360774 -0.07142527 -0.12228118 0.14174086 0.18283191 -0.18452373
-0.11770887 -0.10751792 0.058222506 0.08953633 -0.08919648 -0.1032017 0.11434214 -0.10342654
-0.083925426 0.1704689 0.0017466997 -0.07231578 0.09277879 -0.15331607 0.16864246 -0.09711454
0.023349179 -0.101534635 0.12697233 0.013250079 -0.15664361 -0.10340483 0.11098385 -0.059954528
00000000: d442 22bd 7d85 30bb 195f df3b 5250 2cbe
00000010: 3a29 f7bd c343 ac3d e2fe dd3d 39d6 473d
00000020: b4d7 debd 9874 73bc 05b4 e13d d234 e0bd
00000030: 4867 023e 6e54 873d eb4f dbbd 90b5 25be
00000040: b8db 9c3d 4117 3a3d b8a2 c3bd 46f2 09be
00000050: 08b6 143d 0762 a03d bbea 8abd 44a6 153e
00000060: f7e2 fd3d 1ee6 e43d 7092 153e 0660 f0bd
00000070: 0864 113e 2704 1bbe aba1 31bd 6c8d 03be
00000080: 519d 35bd afab 1dbe 4e2a 1cbe fb4c e6bd
00000090: f7e8 e43c 2a51 e4bd f3ed 863c 8b77 e53c
000000a0: 2d31 1bbe 0737 103e 9a79 4bbd fe8d f63d
000000b0: 7ae5 66bb 5f16 e33d 59c7 553c 3e36 e1bd
000000c0: eb4b 25be aad5 02be f216 cfbd 4837 f6bd
000000d0: 3b17 2f3e ae0b f6bd 23a8 6b3c 2358 f6bd
000000e0: 5de2 053e 77d4 00bc 65c6 9fbd 2c8f 7b3c
000000f0: bc1c c0bd 71ed b23d ed2c bfbb 883d f8bd
00000100: ca16 3bbd 1896 6bbb 0f8a 83bc b5f2 92bd
00000110: e3a5 0c3d e708 373e 9099 c5bd 0fea a0bd
00000120: 1d9b ce3b 306e fb3d e754 adbd bed6 09be
00000130: 61e9 2d3e d949 863d 31c7 983d f51c 2dbd
00000140: 422c 193e 2afc a43a 669f 6f3d 52a2 253e
00000150: 51d8 f1bd e87a eebd e191 ec3d a130 cd3d
00000160: deac 4bba e0b1 97bd 0b0b 203e d27f 18be
00000170: eb04 d7bc f2fe 18be c352 083e f602 0b3d
00000180: 85e7 57bd 64c0 fabd ddfd 1ebd 6c7f 13be
00000190: 4ffa 223e b527 b6bd 3089 12bb 43d0 863c
000001a0: ebcc d23d 88a0 9fbc 9f06 e53c 1f6d 62bc
000001b0: 5ea2 1c3c 0d12 c43d 8df4 f13d ae00 32bc
000001c0: 0b3d 433d 8d7b 31bd 23ce 8f3d 8361 d63b
000001d0: ccbe 65bc 8fdb 363c da62 0f3e 9985 f53d
000001e0: 083b 13bd f9a5 fc3d 96fe e43b 9d2d 95bd
000001f0: e38e afbd 104c d53d 3245 85bd dc65 a6bc
00000200: 817c aabd 048d e0bd 4e6f f73d 30aa 163e
00000210: a5c9 1ebe f92a 2a3c cf85 103e 61e9 f13d
00000220: 8ac5 4a3d 604c 733d aa2e 34bd 2f0c f43c
00000230: e978 d33d d849 bdbd af0e 2abc aab1 373e
00000240: dee4 f33d 87a4 ae3d df2b 033d d51f 143e
00000250: 06af 01bd 9c38 1bbd 2b71 9cbd 78a6 b63d
00000260: 6f5d 0bbe 85bb 073d fa41 0a3d 962f e0bd
00000270: cf34 b13d 4743 1fbc 06b7 9c3d bf4b 8ebd
00000280: 0742 303d fc1a 0a3e da4f bd3c 2aa4 e3bd
00000290: 4060 2cbd 9ee2 4abd ecfc 0dbc 4efd 46bd
000002a0: 7c8f 0f3d d509 94bd 8131 ef3c aeba 19be
000002b0: 681b 2dbd 06a0 a63d 2eaa c93d 205f 03be
000002c0: e331 debd 670d 803c c7cc c83c c406 3dbd
000002d0: c64a ea3d f4d7 c0bd ec8a d7bd 0e79 103e
000002e0: 365d bdbd a878 20bd daef 0cbe 30d1 b53d
000002f0: f11d 3bbd 3e9d b53d 536a ab3d 07bf 14be
00000300: ff95 fdbd 25e1 243e 1c19 26be 5fa3 f4bd
00000310: e064 16be c5a0 0b3e adc0 3ebc 8c6a 29be
00000320: 2874 08be ea12 183e efdd b2bd bc4f 053e
00000330: e238 263e 7822 5d3d 69b7 aabd 0cf1 363e
00000340: af23 283e 85d0 0b3e e9ab 6cbd b0be 043e
00000350: 9913 d7bd 4de2 bb3d d144 363b df04 173e
00000360: e8c2 1c3d 9c46 a93d 8f4a f0bd 539e f23d
00000370: e6d6 19bc b51d 3fbc 0acc d83c d673 66bd
00000380: 203b 29be 06e3 25be 38cc 393d 6947 92bd
00000390: 8e6e fabd 8424 113e 4a38 3b3e caf3 3cbe
000003a0: 5911 f1bd 5b32 dcbd b97a 6e3d d35e b73d
000003b0: a5ac b6bd 6a5b d3bd 362c ea3d 4bd1 d3bd
000003c0: 18e1 abbd 668f 2e3e 84f1 e43a 4c1a 94bd
000003d0: ce02 be3d e3fe 1cbe 9cb0 2c3e fde3 c6bd
000003e0: c746 bf3c 64f1 cfbd 0905 023e dc16 593c
000003f0: 2f67 20be e9c5 d3bd 804b e33d e192 75bd

egnn.layers.0.coord_mlp.0.bias f4 [32]
-0.044738654 -0.080701835 -0.16343182 0.13128795 -0.11245493 0.14005308 0.01881931 -0.07691907
-0.103564076 -0.1369948 0.16313398 -0.053383876 0.02758473 -0.03124576 0.170672 0.17294888
0.02738476 -0.09714347 0.048850868 -0.16726707 -0.16242976 0.01503075 0.006204055 0.12352855
-0.079694055 0.03100389 0.09377895 -0.16536444 0.06268095 -0.12005255 0.08517457 0.10316463
00000000: e13f 37bd 0147 a5bd ac5a 27be 5970 063e
00000010: c54e e6bd 136a 0f3e f42a 9a3c bf87 9dbd
00000020: 6719 d4bd 5d48 0cbe 980c 273e 0da9 5abd
00000030: 5ff9 e13c 1cf7 ffbc a4c4 2e3e 8319 313e
00000040: 0156 e03c 28f3 c6bd d917 483d 0f48 2bbe
00000050: fd53 26be 8943 763c 634b cb3b 89fc fc3d
00000060: a336 a3bd dffb fd3c 2e0f c03d 4c55 29be
00000070: df5e 803d 1dde f5bd 0170 ae3d fa47 d33d

egnn.layers.0.coord_mlp.2.weight f4 [1, 32]
-0.0054274458 -0.0038063687 -0.008946278 -0.0019115885 -0.0093234815 0.010500218 -0.016076995 -0.010372623
-0.011125174 -0.013874898 0.0073318062 0.0073161614 0.014616452 0.011411213 0.0041176365 0.0073974626
-0.013236125 -0.017164608 0.008329903 -0.007924593 -0.017113809 0.012156342 0.014472664 0.012419406
0.008502366 0.01581889 0.0022649658 -0.009016971 -0.016687192 -0.010260495 0.0044073137 0.0039851493
00000000: b7d8 b1bb 4574 79bb 6993 12bc 448e faba
00000010: 84c1 18bc 1b09 2c3c e7b3 83bc eff1 29bc
00000020: 5d46 36bc 8a53 63bc a63f f03b 69bc ef3b
00000030: d879 6f3c 19f6 3a3c 3ded 863b 6a66 f23b
00000040: 55dc 58bc cb9c 8cbc 257a 083c 27d6 01bc
00000050: 4232 8cbc 652b 473c c11e 6d3c c47a 4b3c
00000060: 824d 0b3c 9e96 813c d26f 143b ebbb 13bc
00000070: 94b3 88bc a31b 28bc 3a6b 903b db95 823b

egnn.layers.0.hidden_mlp.0.weight f4 [32, 48]
0.05510257 0.032357987 -0.10900398 -0.034873147 0.1260242 0.0310174 -0.12732491 -0.07393378
-0.06640975 0.02048157 -0.11818237 0.11941334 0.091644876 0.022620125 -0.12512214 0.0052751875
-0.00015690834 -0.070925325 -0.1134537 -0.15374148 0.05934265 0.013052633 0.039999884 0.1236325
-0.051559635 -0.12272917 -0.122406244 -0.13713624 0.06991264 -0.072631806 0.09287473 -0.07041896
0.0025497414 0.06120393 0.053130444 0.1342528 0.011228492 -0.061595306 0.01663059 -0.04345935
0.109485716 -0.04159028 -0.096855804 -0.040433854 -0.067260444 0.121133916 -0.07352885 -0.049036305
-0.066604726 0.13919309 -0.11218079 0.10988646 -0.055130962 0.09554186 0.05288433 -0.090408415
-0.13240667 0.07746128 -0.08486623 -0.10105166 -0.078162275 -0.028454348 -0.06074568 0.09030122
0.00997583 -0.081751145 -0.10510353 0.054702822 -0.035220053 -0.05321583 0.14801621 -0.10916026
0.07405217 -0.060024537 0.006937595 0.04704504 -0.036239434 0.02422966 -0.06471952 -0.04081517
-0.008065549 0.09784717 0.025732564 -0.046408024 -0.049458902 -0.010399579 -0.06037679 -0.029939473
0.091031194 0.06451493 0.08731278 -0.09641402 0.09155967 0.018038247 0.11191765 0.00034614495
-0.10924438 0.058852695 0.022900132 0.0947895 -0.054051276 -0.06954263 -0.123647176 0.10345106
-0.10650394 -0.044793043 0.1364279 -0.09582101 0.097455606 0.03936832 -0.124064386 0.09138522
-0.07618131 0.065726735 -0.099007145 -0.13479343 -0.058557045 -0.06763964 0.10859642 -0.02515585
0.14162195 0.0036648777 0.053137943 0.115318544 0.0748757 0.04621082 0.041258566 0.010373728
0.014930666 0.13451096 -0.085303724 0.09262108 0.05867225 -0.06232493 -0.09083105 -0.060071956
0.110132754 -0.13395734 0.029602118 0.1269284 -0.10876138 -0.14732082 -0.13498522 -0.08351015
0.086720176 0.10046602 -0.051390152 -0.11339307 0.065152206 -0.085283116 0.12924758 -0.0013979813
0.065352924 0.015999975 -0.10571185 -0.09776897 0.065815255 -0.08292361 -0.091467954 0.07109672
0.13309847 -0.07965086 0.07972994 -0.024692893 -0.07072047 0.13613142 0.08814127 0.038701613
-0.08545994 -0.07256016 0.087463036 0.010094632 -0.13645557 -0.04658489 0.011652611 0.05146274
-0.06974062 0.09873106 -0.11758763 0.10282466 -0.084630564 -0.11931994 0.106581606 -0.030201888
0.10740888 -0.13763116 0.056215975 0.065047115 0.07244058 -0.054982778 0.0066991267 -0.016281527
-0.10650291 -0.06035863 -0.105035916 0.07609299 0.03177492 0.049151942 -0.1405197 0.060369328
-0.07424601 -0.10125154 -0.11018094 0.12137023 -0.0838417 0.09555788 -0.08212673 0.061288305
0.038048144 -0.11459218 -0.09214994 0.004311099 -0.02811042 0.11542555 -0.12550466 0.044629358
-0.01881325 -0.08131291 -0.12359445 -0.0073041753 0.024434231 -0.07312473 0.11370308 0.11457665
-0.12535495 -0.08642726 0.058347072 0.09340073 -0.08995426 0.093822315 -0.11287301 -0.07346403
0.032605723 0.06524059 0.019410446 -0.016753554 0.05258432 -0.09875698 0.055492014 0.14370367
-0.024076397 -0.0046006492 0.09847995 0.015935086 -0.02896488 0.11529332 -0.07849071 0.08978779
0.08331032 -0.110862374 -0.032301605 0.04866378 0.014664972 0.018793032 0.11594136 0.10193522
00000000: 3cb3 613d cf89 043d 7b3d dfbd 25d7 0ebd
00000010: 7d0c 013e 3418 fe3c 7661 02be 986a 97bd
00000020: d601 88bd f7c8 a73c 9909 f2bd fb8e f43d
00000030: 4fb0 bb3d d74d b93c 0520 00be 7bdb ac3b
00000040: c387 24b9 4c41 91bd 6a5a e8bd 686e 1dbe
00000050: 4711 733d b6da 553c ebd6 233d 0933 fd3d
00000060: 3230 53bd 6e59 fbbd 20b0 fabd 716d 0cbe
00000070: 5c2e 8f3d fcbf 94bd 1b35 be3d d137 90bd
00000080: 9019 273b f9b0 7a3d 4f9f 593d 9179 093e
00000090: b5f7 373c 5c4b 7cbd e03c 883c 6e02 32bd
000000a0: 0c3a e03d 925a 2abd 565c c6bd f89d 25bd
000000b0: d8bf 89bd 0f15 f83d 4b96 96bd 4bda 48bd
000000c0: 0f68 88bd a288 0e3e 0bbf e5bd 270c e13d
000000d0: 01d1 61bd 73ab c33d 3d9d 583d 0c28 b9bd
000000e0: 9d95 07be 05a4 9e3d 59ce adbd 2cf4 cebd
000000f0: 8b13 a0bd 1819 e9bc 76d0 78bd d9ef b83d
00000100: aa71 233c 256d a7bd 8540 d7bd 1110 603d
00000110: e742 10bd d8f8 59bd 9091 173e 6a8f dfbd
00000120: aaa8 973d 4adc 75bd c454 e33b 4db2 403d
00000130: cd6f 14bd 487d c63c ab8b 84bd cf2d 27bd
00000140: 5d25 04bc 1964 c83d 19cd d23c 5716 3ebd
00000150: 6b95 4abd ff62 2abc a74d 77bd a043 f5bc
00000160: 906e ba3d 6720 843d 0bd1 b23d b774 c5bd
00000170: a383 bb3d f2c4 933c 1535 e53d ca7a b539
00000180: 84bb dfbd 860f 713d 0f99 bb3c ff20 c23d
00000190: df64 5dbd 5e6c 8ebd bb3a fdbd 26de d33d
000001a0: bd1e dabd e978 37bd c1b3 0b3e ce3d c4bd
000001b0: ce96 c73d ad40 213d 7815 febd 2d28 bb3d
000001c0: f204 9cbd bd9b 863d 42c4 cabd 4a07 0abe
000001d0: 83d9 6fbd a786 8abd cd67 de3d a413 cebc
000001e0: 5805 113e 722e 703b 2ca7 593d 212c ec3d
000001f0: 6e58 993d 8f47 3d3d befe 283d 92f6 293c
00000200: c19f 743c 3ebd 093e b8b3 aebd 1fb0 bd3d
00000210: 5052 703d 6d48 7fbd a105 babd 030e 76bd
00000220: 488d e13d 1d2c 09be 2480 f23c 85f9 013e
00000230: 49be debd 45db 16be 9139 0abe 5f07 abbd
00000240: 599a b13d 21c1 cd3d 7b7e 52bd a03a e8bd
00000250: 856e 853d eaa8 aebd 7a59 043e 783c b7ba
00000260: c1d7 853d 6112 833c 747f d8bd 193b c8bd
00000270: 26ca 863d dbd3 a9bd 8d53 bbbd 289b 913d
00000280: f74a 083e fd1f a3bd 7349 a33d c048 cabc
00000290: e5d5 90bd 0966 0b3e 6983 b43d 9585 1e3d
000002a0: 9f05 afbd 6c9a 94bd d21f b33d f563 253c
000002b0: 02bb 0bbe cccf 3ebd 98ea 3e3c 98ca 523d
000002c0: 2cd4 8ebd 8333 ca3d c9d1 f0bd bc95 d23d
000002d0: ca52 adbd 035e f4bd 7547 da3d f369 f7bc
000002e0: 30f9 db3d 2fef 0cbe b942 663d 6c37 853d
000002f0: ba5b 943d 9f35 61bd 5984 db3b d660 85bc
00000300: 331e dabd 9c3a 77bd 121d d7bd a4d6 9b3d
00000310: 6b26 023d 8c53 493d 65e4 0fbe d445 773d
00000320: 4b0e 98bd f85c cfbd 8ba6 e1bd f590 f83d
00000330: 32b5 abbd dab3 c33d 0f32 a8bd 7209 7b3d
00000340: 5fd8 1b3d 4eaf eabd 1cb9 bcbd 1f44 8d3b
00000350: d347 e6bc 3b64 ec3d 4b84 00be 46cd 363d
00000360: 3f1e 9abc 6287 a6bd 161f fdbd dd57 efbb
00000370: 4c2a c83c 6bc2 95bd 29dd e83d 2aa7 ea3d
00000380: 0c5d 00be c600 b1bd 57fd 6e3d e248 bf3d
00000390: f039 b8bd ea25 c03d f729 e7bd 4f74 96bd
000003a0: 948d 053d dc9c 853d a802 9f3c c03e 89bc
000003b0: a862 573d 1941 cabd 984b 633d 0e27 133e
000003c0: dd3b c5bc 0bc1 96bb dbaf c93d 4c8a 823c
000003d0: c247 edbc e71e ec3d bdbf a0bd a9e2 b73d
000003e0: 9a9e aa3d d00b e3bd b04e 04bd ac53 473d
000003f0: 5a45 703c d8f3 993c aa72 ed3d 6ac3 d03d

egnn.layers.0.hidden_mlp.0.bias f4 [32]
0.060843732 -0.0072245286 0.03051663 -0.09183659 0.044057272 -0.0050693047 -0.06829184 -0.108738676
0.03739552 -0.0834924 0.027289193 -0.13819975 0.069267 0.082704455 0.0072341436 -0.0052282712
0.13447875 0.043553833 -0.09404112 -0.05956473 -0.050529752 -0.08784606 -0.100161515 -0.0055003916
-0.107048675 -0.014735613 0.03554212 -0.07170975 -0.056649264 -0.13353191 0.046289455 0.03291135
00000000: 4737 793d bdbb ecbb 03fe f93c d214 bcbd
00000010: 6675 343d 691c a6bb 98dc 8bbd 62b2 debd
00000020: 0b2c 193d 10fe aabd 968d df3c 3c84 0dbe
00000030: dbdb 8d3d f460 a93d 650c ed3b eb51 abbb
00000040: ccb4 093e 8165 323d a198 c0bd 25fa 73bd
00000050: 49f8 4ebd a3e8 b3bd 7b21 cdbd a13c b4bb
00000060: 563c dbbd a46d 71bc 9d94 113d 90dc 92bd
00000070: 0f09 68bd 97bc 08be 039a 3d3d 0dce 063d

egnn.layers.0.hidden_mlp.2.weight f4 [16, 32]
-0.13514303 -0.10669254 -0.02984467 0.0018198706 0.010936865 0.15481469 -0.1605033 0.072929084
0.13616842 0.16047348 0.032546405 0.15734893 -0.092688285 -0.12364358 -0.040323254 -0.091112
0.082988314 -0.04763592 0.08733744 -0.06322841 -0.074930094 -0.05278832 -0.019053409 -0.083369166
0.09871102 0.11226765 0.033269845 -0.17019281 0.14350261 -0.1291368 -0.12105723 0.09012448
-0.10224123 -0.13634443 -0.13406348 0.14928533 0.04980251 0.086304694 0.034784354 0.08058548
0.17754388 -0.027144378 -0.1125048 -0.03735252 -0.06454897 -0.16887495 -0.13585769 -0.060871307
0.033220235 0.09027802 0.11677122 -0.17508726 -0.01378366 -0.0334169 0.1503442 -0.04585332
0.18315776 0.04267274 0.024121435 0.07769396 0.13456447 -0.093368545 0.07414172 -0.06761254
0.045900002 0.105259314 -0.07968462 -0.045545675 0.16144618 -0.1665041 -0.02968413 0.14597443
0.03818434 -0.14414799 0.006920362 -0.14306901 -0.06536325 0.03641953 0.09593422 -0.098572105
0.15211605 -0.1243867 -0.035129417 -0.15240785 -0.0048640687 -0.0045626373 0.07502233 -0.11809074
0.00797673 0.05679326 -0.11236446 0.15485005 -0.03614431 -0.17976967 -0.031169018 0.041798525
-0.090837054 -0.06825109 0.078115515 -0.033655543 0.06505537 0.011990543 -0.0032574858 0.14759806
-0.029946992 0.14245999 -0.060341492 0.11416245 0.09185597 -0.11231787 -0.041867 -0.11878441
0.036370046 0.005644336 -0.059046745 0.1522704 0.16781573 -0.12592539 -0.0967 0.016520657
0.10990125 -0.107567646 -0.014842397 -0.031736493 -0.14292194 -0.012044705 -0.005760804 0.043216012
0.12602612 -0.008916992 0.12775764 -0.06306194 -0.11548389 0.06884861 0.120086305 -0.0067681046
-0.12089278 -0.08430032 -0.09291983 0.042042334 0.04813775 -0.15665177 -0.028698832 0.040053252
-0.07431028 0.17363866 0.14346668 -0.085886136 0.019182969 -0.029582476 -0.15284933 0.01448771
0.12478286 0.10074065 0.087047026 -0.058496844 -0.09835913 -0.15109271 -0.15671523 0.008175691
0.12877628 0.040911265 -0.03497799 0.020683998 0.039677624 -0.07766335 0.11178711 0.07598554
-0.05261237 -0.012574877 -0.15664713 0.08696305 0.024070064 0.13372709 0.05923332 -0.15147215
-0.042371407 0.0987991 0.15058066 0.048662066 0.15160932 0.17554766 -0.059478074 0.030160638
0.15251186 -0.020485194 -0.09857306 -0.12914172 -0.06948866 -0.18687654 -0.07870425 0.086948946
0.13812077 0.023896096 -0.06761944 -0.10824199 -0.13667087 0.031418543 0.16302443 -0.11268223
0.1714344 -0.07711773 -0.115602925 0.098767236 -0.109537855 0.1615021 -0.1554521 0.10563445
0.15924492 -0.0605789 -0.10488128 -0.05818904 0.14586076 -0.12853876 0.14912784 0.1571795
-0.07710883 0.13690984 -0.00019361795 0.033333775 -0.002800262 0.035044402 0.16433755 0.03155331
0.017115124 -0.10250211 0.12159753 -0.06066026 -0.13980179 -0.16807729 0.1641647 0.06888823
-0.07406649 -0.109310865 0.005156526 -0.03049017 -0.0006787403 0.13922407 -0.08866728 0.030232947
0.0948338 0.13581759 0.03298414 -0.115247615 -0.035721127 -0.024518067 -0.048977263 -0.16584285
-0.007909644 0.15384473 -0.08002607 -0.071612634 -0.11687368 0.03910992 -0.106512785 0.020055503
00000000: ef62 0abe 9e81 dabd cf7c f4bc b988 ee3a
00000010: 8930 333c be87 1e3e fa5a 24be d85b 953d
00000020: bc6f 0b3e 2953 243e 614f 053d 1420 213e
00000030: 5bd3 bdbd d838 fdbd ff29 25bd ee98 babd
00000040: c7f5 a93d e21d 43bd f9dd b23d e67d 81bd
00000050: f374 99bd 9138 58bd e515 9cbc 74bd aabd
00000060: 0129 ca3d 95ec e53d f645 083d 0647 2ebe
00000070: 59f2 123e 703c 04be daec f7bd 2f93 b83d
00000080: da63 d1bd e09d 0bbe f047 09be 41de 183e
00000090: b7fd 4b3d 84c0 b03d 0a7a 0e3d 000a a53d
000000a0: 10ce 353e e35d debc eb68 e6bd f5fe 18bd
000000b0: 4032 84bd 8eed 2cbe 471e 0bbe 3154 79bd
000000c0: f111 083d afe3 b83d c025 ef3d 134a 33be
000000d0: dcd4 61bc 29e0 08bd d4f3 193e b1d0 3bbd
000000e0: b58d 3b3e 9cc9 2e3d 519a c53c 031e 9f3d
000000f0: 45cb 093e 0238 bfbd 9dd7 973d 7278 8abd
00000100: a401 3c3d 3292 d73d b131 a3bd 1a8e 3abd
00000110: 2652 253e 0d80 2abe 222c f3bc 527a 153e
00000120: 2f67 1c3d 889b 13be 34c4 e23b af80 12be
00000130: 2bdd 85bd a52c 153d 2979 c43d 2ce0 c9bd
00000140: 4fc4 1b3e 74be febd dde3 0fbd ce10 1cbe
00000150: c462 9fbb 2d82 95bb 4fa5 993d 8fd9 f1bd
00000160: d5b0 023c 0da0 683d 571f e6bd 0391 1e3e
00000170: 0e0c 14bd 8a15 38be 2b56 ffbc ee34 2b3d
00000180: c708 babd 3ac7 8bbd 07fb 9f3d 65da 09bd
00000190: c03b 853d fc73 443c 8b7b 55bb f223 173e
000001a0: 6553 f5bc 08e1 113e a428 77bd 01ce e93d
000001b0: fc1e bc3d e906 e6bd bb7c 2bbd 3e45 f3bd
000001c0: c2f8 143d 1ff4 b83b 00db 71bd c6ec 1b3e
000001d0: e3d7 2b3e 96f2 00be a60a c6bd 5456 873c
000001e0: e813 e13d 6d4c dcbd 862d 73bc 20fe 01bd
000001f0: 215a 12be 2857 45bc 20c5 bcbb 4603 313d
00000200: fe0c 013e 9318 12bc e6d2 023e 9e26 81bd
00000210: d182 ecbd 8000 8d3d cfef f53d fac6 ddbb
00000220: a296 f7bd a5a5 acbd c04c bebd 9534 2c3d
00000230: 172c 453d 5269 20be d019 ebbc e10e 243d
00000240: fd2f 98bd 55ce 313e eee8 123e 12e5 afbd
00000250: 9a25 9d3c f356 f2bc 8984 1cbe dc5d 6d3c
00000260: 288e ff3d 1d51 ce3d b645 b23d 639a 6fbd
00000270: 8370 c9bd 0cb8 1abe f579 20be 55f3 053c
00000280: eedd 033e 9292 273d 1545 0fbd 7d71 a93c
00000290: 0185 223d f60d 9fbd a4f0 e43d 4f9e 9b3d
000002a0: 1280 57bd db06 4ebc 1b68 20be af19 b23d
000002b0: 952e c53c c1ef 083e a39e 723d 841b 1bbe
000002c0: a48d 2dbd 2f57 ca3d d131 1a3e e051 473d
000002d0: 793f 1b3e c4c2 333e 489f 73bd 7113 f73c
000002e0: 122c 1c3e 91d0 a7bc ace0 c9bd ba3d 04be
000002f0: 1250 8ebd 905c 3fbe b22f a1bd 4a12 b23d
00000300: 886f 0d3e bfc1 c33c 107c 8abd faad ddbd
00000310: 73f3 0bbe bbb0 003d e0ef 263e f1c5 e6bd
00000320: 808c 2f3e e7ef 9dbd 3ac1 ecbd 7a46 ca3d
00000330: 6255 e0bd ce60 253e d62e 1fbe e056 d83d
00000340: 1a11 233e 9521 78bd ffcb d6bd a157 6ebd
00000350: 865c 153e aa9f 03be f8b4 183e aaf3 203e
00000360: 3ceb 9dbd 1832 0c3e ec05 4bb9 ff88 083d
00000370: 9a84 37bb b88a 0f3d 1a48 283e 0b3e 013d
00000380: 0435 8c3c a0ec d1bd 2008 f93d e576 78bd
00000390: 3328 0fbe 741c 2cbe cb1a 283e 4615 8d3d
000003a0: 2cb0 97bd 60de dfbd 13f8 a83b 85c6 f9bc
000003b0: 7eed 31ba c190 0e3e 3197 b5bd 16ab f73c
000003c0: 3938 c23d c413 0b3e 611a 073d f106 ecbd
000003d0: 5150 12bd 1dda c8bc 629c 48bd b5d2 29be
000003e0: 7497 01bc 7989 1d3e b5e4 a3bd a5a9 92bd
000003f0: 785b efbd b931 203d 6023 dabd 704b a43c

egnn.layers.0.hidden_mlp.2.bias f4 [16]
0.0025587257 -0.100714326 0.10575704 -1.4847999e-05 -0.07889121 0.048384886 -0.09021666 2.1365422e-06
-0.07479581 0.00045844403 0.0023721291 0.095783696 -0.028562129 0.058520313 5.848115e-06 0.06430343
00000000: 4bb0 273b 5043 cebd 2697 d83d ac1b 79b7
00000010: b791 a1bd 3b2f 463d 83c3 b8bd 8461 0f36
00000020: 8c2e 99bd 515b f039 b975 1b3b 3e2a c43d
00000030: 20fb e9bc ffb2 6f3d ed3a c436 84b1 833d
