2-egnca-rework/logs/line4-2024-10-05@23-20-03/best@92.pt (torch, 25525 bytes, 11 tensors)

egnn.layers.0.message_mlp.0.weight f4 [32, 33]
00000000: d67e 703d c4cd c43d 95fb d3bb 90b7 cb3d
00000010: 54e5 54bd acf7 f43c c96f 36bd 4722 51bc
00000020: 97d2 20bd 3ec6 e83c 7beb 093e 11b6 0d3e
00000030: 2179 e9bc 660f 71bd 758e d6bc 0cbb 193e
00000040: 5cbb 163e 5256 44bd e653 6cbd 83e4 2fbd
00000050: e9c1 f73d 86fd 103e 6b81 fdbd ddbe 75bd
00000060: 36a9 1dbe c469 313e 0ab2 ec3c f9e0 553d
00000070: 701e c03d 79e2 2a3d b040 16bd 025c 2cbe
00000080: e4f5 393d bfbb f5bc 4b39 2ebe b958 c1bc
00000090: 2ae2 c3bd a955 c5bd 682a 02be 5e0c 14be
000000a0: b658 44bc 17ad b53c cb18 1fbe 33db 24be
000000b0: e393 093b bb88 26be 68e0 ab3d 0b33 33bd
000000c0: a7c1 cebc 8a0f 25be e685 febd f7a2 803d
000000d0: 318c c4bd f6f7 8cbd 9fa7 20be 0203 613a
000000e0: 9a1e e0bd 0a64 3c3d cba4 623d d44a 173d
000000f0: cceb 7f3d 351e f8bd d1bb 873c 75c5 1bbe
00000100: d95b f9bd 4115 123e 7925 fc3d d2ac ffbd
00000110: 1f8d c63d 9ec3 0fbe 3d28 ca3c b6ea 213e
00000120: e639 353c 3ee9 8b3d 86ac 1f3e 358e 88bd
00000130: e876 043e c77b ce3c 8b3b 1ebd 7943 1fbe
00000140: 5b54 2b3e 2bac 313e b8b2 96bd 997b 263d
00000150: fac2 36be 24f4 003d eb09 c73d f683 9e3c
00000160: 7342 c5bd e38f 233e e534 c4bd 1e4e bb3c
00000170: 9134 25be 2548 953d e536 f33d 1488 0f3d
00000180: ee32 083e f7fb 32be 4dde cebd e265 3a3d
00000190: ca2e b33d 941a 2dbd 1ad7 4e3d ddfb 2dbe
000001a0: 15ae 2e3e c74d 0cbe 3702 25be dbe0 04be
000001b0: 0716 313e f440 353d 74be 6bbc 1884 133d
000001c0: b55d 27ba 3ca9 fabd 5816 e33d cda7 13be
000001d0: 3583 33bd 0149 a63c ea65 d7bd c2ec 253d
000001e0: c7d8 1fbe 702e aebd 1f18 1c3e 44f9 523d
000001f0: 7016 11be e691 293e 571d 44bd c001 023d
00000200: 8143 16bd 7a83 d1bd 76a9 053d 7d47 15bd
00000210: 7145 bebd 893d c43d 638b ab3d 0b96 e73d
00000220: 2cc6 dbbc 8ab9 f0bc 431b 353c dc76 1c3e
00000230: 94ab 1dbe 494f 25bc 3def 7a3c bc51 ab3d
00000240: db8b 2fbe db48 40be afe9 e6bb f060 5d3d
00000250: 7b76 97bd ca08 093e c14b 033d 5463 77bd
00000260: 6022 7ebd 0cfa 11be 2c44 bc3d 2519 0bbd
00000270: ed02 b53d 6249 3cbe f002 013e 5896 623d
00000280: 9fd8 e1bd 231b c3bd 6225 fe3d 99e6 a33d
00000290: ebe7 aa3d b418 173d fc6e b8bd d6af e8bd
000002a0: 02ae 45bd 2d0b 4fbd be0d d6bc 93ef 3bbd
000002b0: 7d6a 10be e1ca 24be 5c9d ffbd 9549 b83d
000002c0: e340 e5bd 7d6b 09be b5e7 97bd 9c82 5f3d
000002d0: b2a6 56bd 55a4 243b 47b9 993c fbd3 f8bd
000002e0: e102 4bbd 993e 59bd 5ff1 0dbc ceba ebbd
000002f0: 5545 07bd b37a 7c3c 36b5 5f3d 00f5 e3bd
00000300: 1598 1c3e 169e 353d af08 0dbe 7eb6 243e
00000310: fb82 e2bd 1ad5 6ab9 1fa1 073e 5c9e 2fbd
00000320: 1000 353d 6895 a73d 489b 75bd 6945 9c3c
00000330: 8452 023e d967 0bba 486d 44bd baea 023e
00000340: 0ddb 0f3d b3b8 e8bd 367b b03d e6fa 0f3e
00000350: 7303 553c 7368 153e 208b dfbd 8b0e 2b3e
00000360: 2fb5 cf3d 4d5a f5bb e9c0 23be 84b2 2d3e
00000370: a12f 23bc 3abe ad3d 58b3 bfbd 320c 6f3d
00000380: 1c5c d4bc 991b 313d ce22 813d 2697 edbd
00000390: afe4 04be e46f ebbb 0173 36bd fdbc ea3d
000003a0: 368c 9abd 954f 2a3d df34 23be d55c ad3d
000003b0: cb37 df3d dcfa d13c ebc4 bc3c 4d2a cc3c
000003c0: 5a9e f2bb 3825 14bd bf14 053e c77d 5bbd
000003d0: f81b b5bc b337 8bbc d13c d2bd 312e 0abe
000003e0: 854f d6bd 7797 f9bc d817 07be d561 653d
000003f0: 8e7d 01be 1d1b 41bd 5e0d 93bd ed51 afbd
0.05871471 0.09609559 -0.0064692 0.09947121 -0.051976517 0.029903255 -0.0445402 -0.01276452
-0.039263334 0.028414842 0.13468735 0.13838984 -0.028500142 -0.058852576 -0.026190976 0.15012759
0.1471991 -0.047933884 -0.0576972 -0.042942535 0.12097532 0.14159212 -0.123782 -0.059996475
-0.1539658 0.17325503 0.02889349 0.052216504 0.093808055 0.041719887 -0.036682785 -0.16831973
0.045400515 -0.02999675 -0.17014043 -0.023601877 -0.09564622 -0.09635479 -0.12711489 -0.14457843
-0.011984041 0.022177262 -0.15536802 -0.16099243 0.0020992688 -0.16263096 0.083924115 -0.04374985
-0.025238825 -0.16119209 -0.12427883 0.06281083 -0.09597052 -0.06883232 -0.15688942 0.0008583517
-0.10943337 0.045993842 0.05533294 0.036936596 0.062480733 -0.121151365 0.01656905 -0.15212043
-0.12175722 0.1426592 0.12311835 -0.12484135 0.096948855 -0.14039466 0.02467739 0.15812191
0.011061167 0.06831597 0.15593156 -0.06667749 0.12935984 0.025205506 -0.038631003 -0.15553083
0.16731398 0.17350833 -0.07358307 0.040645216 -0.17847815 0.03148283 0.097186886 0.019350033
-0.09631815 0.15972857 -0.09580401 0.022864398 -0.16133334 0.07289151 0.11875705 0.035041884
0.13300678 -0.1747893 -0.10100994 0.04550732 0.08749159 -0.042261675 0.050498106 -0.1699061
0.17058595 -0.13701545 -0.16114126 -0.129764 0.17293559 0.044251397 -0.014388669 0.036014646
-0.0006384508 -0.1223931 0.11088246 -0.1441948 -0.0438263 0.020298483 -0.105174854 0.040508993
-0.15610038 -0.08504951 0.15243576 0.05150725 -0.14168715 0.16559562 -0.047879543 0.03173995
-0.03668547 -0.10230155 0.032632314 -0.03644513 -0.09290589 0.095820494 0.08376195 0.11307915
-0.026827894 -0.029385347 0.011053863 0.15279716 -0.15397483 -0.010089704 0.015315828 0.08365199
-0.17143194 -0.18777792 -0.0070469 0.054047525 -0.07395645 0.13382259 0.032054666 -0.06039746
-0.0620445 -0.14255542 0.0919269 -0.033959527 0.08838449 -0.18387368 0.12598777 0.05531916
-0.11027645 -0.0952666 0.12409474 0.080029674 0.08345016 0.036888793 -0.090055436 -0.11361663
-0.04826165 -0.050547767 -0.0261296 -0.045882773 -0.14103122 -0.16093017 -0.12481186 0.0899841
-0.11194017 -0.1341991 -0.074172415 0.05456792 -0.052405067 0.0025122364 0.018765105 -0.12149807
-0.049563292 -0.053038213 -0.008663504 -0.115102395 -0.033025105 0.015410113 0.054616176 -0.111307144
0.1529239 0.044340216 -0.13772844 0.1608524 -0.11060139 -0.00022395366 0.13245057 -0.042875633
0.044189513 0.08182794 -0.05996254 0.019076066 0.1272679 -0.00053179037 -0.04795578 0.12784854
0.035121012 -0.113633536 0.086172506 0.14060554 0.013001311 0.14590625 -0.10915208 0.16704766
0.1014198 -0.0074875713 -0.15991558 0.1696263 -0.009960086 0.084835485 -0.09360379 0.05836124
-0.025922827 0.04323921 0.063054666 -0.11601095 -0.12977861 -0.0071849693 -0.04454327 0.11461828
-0.07546274 0.0415798 -0.15938137 0.08464972 0.108993135 0.025632314 0.023043117 0.024922514
-0.007404131 -0.036168307 0.12996195 -0.053586747 -0.022108063 -0.016994333 -0.10265506 -0.13494183
-0.10464386 -0.030467732 -0.1319269 0.056001503 -0.12645552 -0.047144998 -0.07180284 -0.08560548

egnn.layers.0.message_mlp.0.bias f4 [32]
00000000: c313 0bbd 055e 8cbc 2c2b 4f3d ade0 1ebe
00000010: fdfc 703d 5948 1abe d041 17bd d8b3 12be
00000020: af00 19be ac3b bdbd 7405 013e dacf 24be
00000030: 0814 9e3d 0d71 5fbc 540c 12be ebee 443d
00000040: c8cc c1bd dbb6 d1bd 0369 133d 8d56 00be
00000050: 0a16 1a3c 83ce 743d 8aff 4d3d 757f c03d
00000060: 2964 12be e0f1 6a3d 1787 da3d 6f46 26be
00000070: e39c 8c3d 3c0d 483c 8ffb 7e3d 984d 2bbe
-0.033954393 -0.017134676 0.05057828 -0.15515395 0.05883502 -0.15066661 -0.036927998 -0.14326417
-0.14941667 -0.09239897 0.12599736 -0.16094914 0.077186644 -0.013637793 -0.14262515 0.048079412
-0.09462887 -0.10239955 0.03598882 -0.12533017 0.009404669 0.059767257 0.05029253 0.093993105
-0.1429602 0.057359576 0.106702976 -0.16237806 0.06865861 0.012210187 0.062251624 -0.16728818

egnn.layers.0.message_mlp.2.weight f4 [32, 32]
00000000: ccf3 e63d ccf4 1fbe 954b a43d ffe8 243e
00000010: cd0d 11bd 8d73 a83d f24c 9ebc 9759 c73d
00000020: aeef 24be 848e ceba 0521 3f3e 3631 32bd
00000030: 119c 0ebe ea9e 0fbe a4de 203d 7e8a 1f3e
00000040: fbe0 2fbe df2f e83d be60 09be 1180 993d
00000050: 65d9 103d 0502 623d 5e94 1cbe 6f37 2d3e
00000060: 7227 203d d477 46bc c75c 06be 7e03 dc3d
00000070: ae59 273e 5595 943d 9c6b a3bc 4931 2fbd
00000080: 7299 3abe 83f7 f13d af1b d7bc 2a73 1fbe
00000090: 86fb 23ba 5390 0e3d deb9 e13d a66e 713d
000000a0: 055d edbd 8def 37bd 10fe 2ebe 8662 ab3d
000000b0: 1e94 aa3d c0dc d4bd ee12 313d 34c6 f23d
000000c0: 5f3c 223e 3f0b f53d 4c2f 8a3d c84c 243d
000000d0: fa5c 823d aecd 253e 2bb0 e43d aecb e33c
000000e0: e109 a93c b3d6 f03d 6c84 333e 12ad e8bd
000000f0: 8ac9 adbd b1ae 443e 56fc 9ebd 4569 31bd
00000100: 6ba1 0e3e ce3e 87bd 6470 323e 831e cebd
00000110: f889 a9bd 32ee 063c 87df 823c 864d 233e
00000120: 478a 95bd 1a49 883d b5fa d5bc 49f7 eebc
00000130: 2b6c 1abe 5832 263e 2cb4 c0bd 25ab 1bbd
00000140: 6479 a5bd b1d7 263e ba48 91bd ad2d 27bd
00000150: 84e9 cc3d c713 283e e940 283e 15ed d0bd
00000160: 3ab9 81bd 2265 123e 73fa 9b3d 4c91 0c3e
00000170: 2c89 6f3d d725 e3bd 4dec c3bc b586 a2bd
00000180: 6942 14be 3791 4a3d 8df5 c03d 66fe 873d
00000190: 97a3 0d3e 0444 91bd 2606 7a3d 6715 63bd
000001a0: df68 193e f2c8 5ebc 5339 023e 928d 0a3e
000001b0: 96d3 fabd c849 2fbd fc76 1a3e 46b9 afbd
000001c0: 9d20 2bbd d3d3 153e 3e94 133e 3f26 f23d
000001d0: dc61 983c 07f4 e43d 608a 21be d3ed a93d
000001e0: e1d4 f1bc 2c78 05be 62f0 1c3d b3a9 e03a
000001f0: 5278 863d 8ce9 79bd 4403 333e f575 3bbe
00000200: 9f62 303e 4ced 9bbd 1ff8 d13d 87b9 c2bc
00000210: c754 49bd afaf 07be 1d16 0dbe 85b1 b53c
00000220: 9802 d3bd fb5a ffbd 146e 19be 4345 1b3e
00000230: 6d87 2b3d 36c2 6d3c a571 53bd 9194 1dbe
00000240: 0954 ce3d 495f 123e 4744 083d 54e2 433d
00000250: a429 2039 0d41 8a3d 74c4 063c 4bca e1bd
00000260: 62c8 c7bc e7cd 233e 86a9 d9bd 8e2e 1f3e
00000270: 8e15 d0bd 1b6c 06bd 9491 ea3d 5697 e2bd
00000280: 21e3 31bd bb99 08be 7fd5 adbc 8b71 e43d
00000290: 07c8 b9bd 3e96 15bd b588 7b3b 8349 df3d
000002a0: 194c ec3c 0f8f a9bc d0ec dabd 8644 05be
000002b0: 0fcd 2e3e 749a 3bbd d33c dc3d 4d05 82bc
000002c0: a8dc adbd 3c9a 8abd c613 11be d4ff 11bd
000002d0: 8504 963c f925 afbd f5b1 4c3d 4f4e 9e3d
000002e0: b75a e8bd 37f2 8dbc 6058 003e 204f 25be
000002f0: 0851 cc3d cc32 3abd e095 75bd 0cc0 d3bd
00000300: 27df 52bc 0b93 693d 59ee a3bd b478 6ebd
00000310: 3505 bf3d 25a4 aabd a675 063c 3f8a cf3d
00000320: 7e0b 74bb df1d 3bbd 1a23 e6bd ed91 22bd
00000330: 62c8 12bd cb0d ea3d 2928 6b3c a424 12be
00000340: 362c 56bc 6393 dabd 593c 3f3e 1467 2bbd
00000350: df8d 29be 22d0 bcbd 34b3 d13d ed59 293e
00000360: e43f e8bd b05a 30be 9d51 30bd f1d2 46bd
00000370: 3347 b0bd fc80 d33d 699b 573c 660c 0b3e
00000380: 3c0e 023e ec1f 8c3c 7d0c 103e 713a 31bd
00000390: 6949 773d 0bef e4bd 3690 373d f8c0 8d3d
000003a0: be95 36be c4b1 143e 3880 fb3d 8b61 e3bd
000003b0: 5d35 5c3d f52c 2a3e 34ba 73bd fb3b 8f3b
000003c0: 9619 94bc 660c d1bd 2e66 b43d 28ed a1bd
000003d0: 2c6c 4d3d 6ea8 0c3d 06b5 b03d ba0a 2e3e
000003e0: c754 743d eda6 dfbc 5de3 60bd 33a1 143e
000003f0: acad e23d 5ef4 1d3e 62aa 97bd e600 da3d
0.11276969 -0.15620726 0.08022229 0.16104506 -0.035413552 0.082251646 -0.0193238 0.09733885
-0.16107056 -0.0015759026 0.1866494 -0.043503962 -0.13926722 -0.14025465 0.039274827 0.15580174
-0.17175667 0.11337256 -0.1341581 0.0749513 0.035363574 0.055177707 -0.15290973 0.16915677
0.039100118 -0.01211353 -0.13121329 0.107428536 0.16342804 0.07255045 -0.019948773 -0.04277161
-0.18222597 0.11814787 -0.026258318 -0.15571275 -0.00062554365 0.034805607 0.110217795 0.058943413
-0.11590008 -0.044906188 -0.17089105 0.08368401 0.08329032 -0.10393667 0.043230943 0.118542105
0.15843342 0.11965036 0.067473024 0.040112287 0.0636539 0.16191742 0.11166414 0.027807083
0.020634593 0.117597006 0.17530984 -0.113611355 -0.08485706 0.19207264 -0.07762973 -0.043313283
0.13928764 -0.06603776 0.17425686 -0.100644134 -0.082782686 0.008235501 0.015975727 0.15947542
-0.07301765 0.06654568 -0.026120523 -0.02917065 -0.15080325 0.16230142 -0.09409365 -0.038005013
-0.08079794 0.16293217 -0.070939496 -0.040815044 0.10005477 0.16413794 0.16431011 -0.1020147
-0.06334157 0.14296392 0.07616129 0.13727301 0.058480427 -0.11091202 -0.023916388 -0.079358496
-0.14478458 0.049454894 0.09421835 0.066403195 0.13831936 -0.07093051 0.06104102 -0.055440333
0.14981411 -0.013597714 0.1271718 0.13530567 -0.12247388 -0.042794973 0.15084451 -0.0858026
-0.04177915 0.14631586 0.14412019 0.11823701 0.01860135 0.11179357 -0.15775442 0.082973145
-0.029520454 -0.13034123 0.038315184 0.0017140418 0.06565918 -0.061013743 0.17481714 -0.18306716
0.17225121 -0.0761362 0.102524035 -0.023770107 -0.049153116 -0.13250612 -0.13777967 0.022179374
-0.10303229 -0.12468525 -0.14983398 0.1516314 0.0418772 0.0145116355 -0.05162205 -0.15388705
0.10074622 0.14294161 0.03326824 0.047823265 0.00015274301 0.06750689 0.008225549 -0.110249124
-0.024387542 0.15996514 -0.10628037 0.15545103 -0.10160361 -0.03281794 0.11453548 -0.11064021
-0.043429498 -0.13339894 -0.021219967 0.11154469 -0.09071355 -0.036520235 0.0038381044 0.10902693
0.02884488 -0.020698098 -0.106897 -0.13014421 0.17070411 -0.045801595 0.10753789 -0.015871668
-0.084893525 -0.06767699 -0.14167699 -0.035644367 0.018312702 -0.085521646 0.0499744 0.0772978
-0.113454275 -0.017327411 0.12533712 -0.16143465 0.09976393 -0.0454586 -0.059957385 -0.103393644
-0.0128705865 0.057024997 -0.080044456 -0.05822058 0.09327165 -0.08332089 0.0082067605 0.1013379
-0.0037238295 -0.045682784 -0.11237164 -0.039689947 -0.03583563 0.11428412 0.014352837 -0.1427179
-0.013072064 -0.10672643 0.18675365 -0.04184635 -0.16558026 -0.09219386 0.102392584 0.1653821
-0.11340311 -0.17222095 -0.043046582 -0.048541013 -0.0860733 0.10327336 0.013159611 0.13578948
0.12700742 0.017105065 0.14067264 -0.043268625 0.060372744 -0.11178406 0.044815265 0.069215715
-0.1783056 0.14520937 0.12280315 -0.11102589 0.05376183 0.16618712 -0.05950375 0.004371164
-0.018078607 -0.10207443 0.08808552 -0.07906562 0.05015199 0.034340315 0.086282775 0.1699628
0.059651162 -0.027301276 -0.05490433 0.14514618 0.110682815 0.1542525 -0.07405545 0.106447026

egnn.layers.0.message_mlp.2.bias f4 [32]
00000000: 642a 643b a6c5 db3d b163 9b3c a605 283e
00000010: 39d7 bcbc 5b74 27be 6c81 20be fb7f 9abd
00000020: 0fc6 763d 0d8a c93d 2784 a23d c21b 1c3e
00000030: 537e 30be 0c0e 943d f5e7 85bc 00db 08be
00000040: 7140 2d3d f3b1 2b3e 608d 463d 02e3 da3d
00000050: c9d7 c73d 49e0 efbd 91a7 30be 43aa 26be
00000060: 90a4 1a3e 55b3 05be 746a 6bbd ee1c 173e
00000070: 0f8d 1f3e 3b02 03be 5757 973d 0f9b 96bb
0.0034815306 0.10731058 0.018968435 0.16408405 -0.023051845 -0.1635298 -0.1567437 -0.075439416
0.060247477 0.09840784 0.07935362 0.15244964 -0.17235689 0.07229242 -0.016345957 -0.13364792
0.042297784 0.16767101 0.04847467 0.106878296 0.097579546 -0.11712701 -0.17251422 -0.16275887
0.15101838 -0.13056691 -0.05747457 0.1475713 0.15581153 -0.1279382 0.07389706 -0.004596121

egnn.layers.0.coord_mlp.0.weight f4 [32, 32]
00000000: aa20 1dbd f16a 59bb f786 163c fd5b 2dbe
00000010: f88f f6bd d05c ab3d 9499 d93d 8be5 5a3d
00000020: aad4 ddbd 1165 88bc 771d e63d 20da e1bd
00000030: 0130 013e a20d 873d 49ff dabd 2ee8 26be
00000040: 8e87 9b3d b0d2 393d 541b c5bd f377 0abe
00000050: 0199 193d cf92 9c3d aa61 8abd 4462 163e
00000060: 53ae fd3d 7dac e13d 7683 143e 195e ebbd
00000070: ec0b 123e 3ac4 1bbe d434 34bd 5edd 03be
00000080: c1f0 30bd 2f50 1ebe 292d 1abe 7d2a e8bd
00000090: 21bb e73c c7f6 e4bd cccf 723c daa3 013d
000000a0: 52d4 1abe d776 0e3e 97cb 43bd 79e6 f43d
000000b0: 9470 93bb 2db7 e23d e34f 593c fb1b e3bd
000000c0: a1fd 25be 36fe 02be b87f d0bd db49 f7bd
000000d0: 110a 303e 7ffe f8bd 99fe 703c c2ec f4bd
000000e0: 26b4 053e 23b1 15bc cac6 a1bd b1c1 8d3c
000000f0: f922 bfbd 38fc b13d 51e3 d2bb f30c f9bd
00000100: 4afb 35bd 02df 8abb ddb6 5ebc bb20 95bd
00000110: efcd 0d3d b49a 363e 553a cabd 4d5e 97bd
00000120: ed03 df3b 0ae2 f73d d815 a9bd 8fa3 0abe
00000130: 49b8 2c3e 3610 863d 220a 993d 1fb0 31bd
00000140: d480 183e 0c30 9d3a 18c4 6c3d f02b 253e
00000150: f671 efbd 0e7d f2bd a03c ed3d 819a ce3d
00000160: be67 71ba a6f7 9abd 1f00 1f3e a4e8 15be
00000170: d36d d2bc 2c9e 19be acb3 073e 1a02 0a3d
00000180: 7987 54bd 703b fbbd a445 15bd 0035 14be
00000190: c6dc 223e f6e4 b7bd 16fb 97bb ae45 ac3c
000001a0: e392 d43d f6b0 a8bc 0700 f23c 0f90 66bc
000001b0: ab37 043c 52af c43d 0f68 f13d 9582 48bc
000001c0: ac8c 423d d9f7 2fbd 2148 8f3d d216 d73b
000001d0: 4e8e 4dbc 0df5 133c 8b49 0f3e d4fd f53d
000001e0: 77fe 11bd 6765 f93d 35a6 d03b e903 90bd
000001f0: c061 aebd 3f66 d33d a9ae 85bd 358d a4bc
00000200: 08ea a7bd a4db e1bd 8cb7 fc3d 9b96 153e
00000210: bd8b 1ebe 0cf1 213c ea15 0e3e cf4d fc3d
00000220: 381a 4d3d 751d 6c3d 6772 2bbd 64e1 ed3c
00000230: 94da d03d 6e77 bdbd cf7c 28bc 147c 363e
00000240: 5594 f23d 5b9e ae3d c650 003d e8af 133e
00000250: cbce f8bc 7cbf 23bd e4e4 9bbd 4f07 b83d
00000260: 767b 0bbe b8bb 003d 2602 063d deb0 dabd
00000270: 7f78 b23d 9e88 2abc 297d 9b3d 80bd 8ebd
00000280: 4348 2b3d 6dbe 0a3e cd76 a83c c67f e1bd
00000290: 2142 2dbd ecf5 48bd 8196 cebb 7af9 5abd
000002a0: ca45 0d3d ab8c 90bd c504 de3c b7fe 18be
000002b0: c1f4 27bd 98be a63d f58e c93d 1533 02be
000002c0: f2e8 dcbd b310 803c 5646 ce3c ad52 3bbd
000002d0: 16c2 e73d cabc bcbd 9925 d8bd fed4 0f3e
000002e0: 3a2a bdbd 75af 19bd 89eb 0bbe ca58 b03d
000002f0: 7d6e 3dbd 40dc b63d a89c ac3d 8291 14be
00000300: b737 fbbd 605d 243e 3265 23be 6eb8 f6bd
00000310: ca4e 16be 17f2 0a3e 68fd 68bc 16e6 23be
00000320: 1eba 07be c26f 163e 53bc aebd 68b4 043e
00000330: 0cb5 243e b868 5d3d ccd9 aabd e48b 353e
00000340: 809e 273e b1f8 0b3e 4a0e 6fbd cb74 043e
00000350: e8fd d3bd 1e50 b73d aab8 3e3b fc8e 173e
00000360: 5307 1d3d 0e9c a53d 6436 f2bd d25e f83d
00000370: 8be4 0fbc b096 4cbc d6e6 d43c db93 66bd
00000380: 7600 28be e077 26be 1f30 443d c452 94bd
00000390: 7809 fabd 6899 103e 24c5 383e 7f1e 38be
000003a0: 2adf efbd 2793 dfbd 7d08 773d 1fff b53d
000003b0: 3f5d b9bd 3175 d3bd c44e ea3d ad4b d6bd
000003c0: 3115 adbd 1d99 2e3e 79fd 8f3a 9dda 94bd
000003d0: 46b5 c03d 8927 1fbe 2de8 2c3e 7aa9 c5bd
000003e0: b900 bf3c 9299 d3bd d400 013e 6973 823c
000003f0: 8bbc 1fbe ff6c d5bd 842a e23d 7c4d 76bd
-0.03836123 -0.0033175314 0.009187452 -0.16929622 -0.120391786 0.08367312 0.10624996 0.053441565
-0.10831578 -0.016649755 0.11236089 -0.11027932 0.12615968 0.06594397 -0.10693223 -0.16299507
0.075942144 0.045366943 -0.09624353 -0.1352232 0.03749943 0.07645189 -0.06756909 0.14685923
0.12386765 0.11019228 0.14503273 -0.11492557 0.1426236 -0.15211573 -0.043995693 -0.12877414
-0.04319835 -0.15460275 -0.1505629 -0.11336229 0.028287472 -0.111798815 0.01482005 0.0316504
-0.15120056 0.13912521 -0.04780158 0.11958022 -0.0044995043 0.11070094 0.013263675 -0.11089321
-0.16210033 -0.12792286 -0.101806104 -0.12074634 0.1719134 -0.12157916 0.014709138 -0.119592205
0.13057002 -0.009136471 -0.07899244 0.017304273 -0.093328424 0.08690685 -0.0064357896 -0.12160673
-0.0444291 -0.0042380104 -0.013593403 -0.072816335 0.03462022 0.17832452 -0.09874407 -0.07391033
0.006805888 0.121036604 -0.082561195 -0.13538955 0.16867174 0.06546061 0.07472636 -0.043380853
0.14892894 0.0011992468 0.057804197 0.16130042 -0.11691658 -0.118402585 0.11583829 0.10088063
-0.0009208879 -0.075667664 0.1552739 -0.14639527 -0.025687134 -0.15001744 0.13252133 0.03369341
-0.05188701 -0.12267196 -0.036443368 -0.14473343 0.15904531 -0.08979218 -0.004638086 0.02102932
0.10379579 -0.020592194 0.029541029 -0.014072432 0.008069913 0.09603752 0.11787426 -0.012238164
0.047497436 -0.042960975 0.06996179 0.0065639997 -0.012546135 0.009030593 0.13992898 0.120113045
-0.035643067 0.12177544 0.0063674697 -0.07031996 -0.08514738 0.10322236 -0.065274544 -0.020086864
-0.08198935 -0.11028221 0.12339696 0.14608233 -0.15482993 0.00988413 0.13875547 0.12319528
0.050073832 0.05764528 -0.04185715 0.029038139 0.101979405 -0.09251295 -0.010283663 0.1782077
0.11844698 0.08526298 0.03132703 0.14422572 -0.030372044 -0.039977536 -0.07612017 0.08985769
-0.13621315 0.031429023 0.032716893 -0.10678266 0.08714389 -0.010408549 0.07592232 -0.06969738
0.04181696 0.13549204 0.020564461 -0.11010699 -0.042299394 -0.049062654 -0.0063045626 -0.053460576
0.034490384 -0.0705808 0.027101884 -0.14940916 -0.0410049 0.081418216 0.0984172 -0.12714799
-0.10786618 0.015632963 0.025180023 -0.045733143 0.11316316 -0.09215696 -0.10554046 0.14046094
-0.0923657 -0.037520844 -0.13664068 0.08610685 -0.046247948 0.08928728 0.08428317 -0.14508632
-0.12266486 0.16051245 -0.15956572 -0.12046896 -0.14678493 0.13568912 -0.014220573 -0.1600574
-0.13254592 0.1469107 -0.08532014 0.12959445 0.16084689 0.054054946 -0.08342323 0.17729145
0.16369057 0.13669087 -0.058363236 0.12935178 -0.10351163 0.08950828 0.0029101768 0.14800638
0.038337063 0.08086406 -0.118267804 0.121274605 -0.008782516 -0.012487099 0.025988977 -0.05629335
-0.16406426 -0.16256666 0.047897454 -0.07242349 -0.12208837 0.1412102 0.18043953 -0.17980383
-0.11712487 -0.10916739 0.06031083 0.08886551 -0.090509884 -0.10325087 0.114408046 -0.10463653
-0.084513076 0.17050596 0.0010985575 -0.0726826 0.09409575 -0.15542425 0.16885443 -0.09651466
0.023315774 -0.103320256 0.12597972 0.015924172 -0.15599267 -0.1042118 0.110432655 -0.06013249

egnn.layers.0.coord_mlp.0.bias f4 [32]
00000000: 72af 37bd 4da6 a5bd d17b 27be 50cd 063e
00000010: 1d78 e6bd 577e 0f3e b1e5 9a3c 578d 9dbd
00000020: 8442 d4bd 064a 0cbe f11e 273e 7672 5bbd
00000030: 33ce e13c c176 00bd 31e6 2e3e df25 313e
00000040: 30f2 e03c 8b0b c7bd 00bd 473d 4c5d 2bbe
00000050: 1a4c 26be 74a4 743c b798 c93b 9107 fd3d
00000060: ca5d a3bd dc92 fd3c 5282 c03d db7a 29be
00000070: 6786 803d 9fe5 f5bd 20c1 ae3d 398e d33d
-0.044845052 -0.0808836 -0.16355826 0.13164258 -0.112533785 0.14013039 0.018908354 -0.07692974
-0.10364249 -0.13700113 0.16320397 -0.053575955 0.027564144 -0.031363253 0.17079999 0.17299603
0.027459234 -0.097189985 0.04876423 -0.16734809 -0.16239968 0.014931787 0.006152238 0.12354959
-0.07976873 0.030953817 0.093998566 -0.16550772 0.06275635 -0.120066874 0.085329294 0.10329861

egnn.layers.0.coord_mlp.2.weight f4 [1, 32]
00000000: e588 aebb cefe 78bb 040f 0bbc 7e94 f3ba
00000010: ea77 0ebc b053 1f3c 272c 67bc 7638 28bc
00000020: f6e7 2bbc ab77 58bc 42e9 f03b 9001 e13b
00000030: 71b8 543c b5e5 023c d295 873b a6f6 003c
00000040: 0986 45bc 8ba9 85bc b3ef ff3b 2dd4 f9bb
00000050: 6592 84bc 2406 3f3c 3e6f 603c b4eb 3d3c
00000060: d0de 113c 845d 783c 781b 263b 882c 0cbc
00000070: cd31 84bc 62d6 1cbc cffc 903b 631d 843b
-0.0053263777 -0.0037993672 -0.008487467 -0.0018583683 -0.008695582 0.0097245425 -0.014109648 -0.010267368
-0.0104923155 -0.013212125 0.0073520252 0.0068666413 0.012983427 0.007989337 0.004137733 0.007871306
-0.012055882 -0.016316196 0.007810557 -0.0076241703 -0.016183088 0.011659179 0.013698397 0.011591841
0.00890322 0.015159015 0.0025345962 -0.008555539 -0.016137028 -0.009572597 0.0044246684 0.0040318235

egnn.layers.0.hidden_mlp.0.weight f4 [32, 48]
00000000: 976f 4d3d d0b2 073d cb8b debd a24f 1abd
00000010: 5ecb 013e 9627 c83c 4347 02be 507d 9abd
00000020: 5283 8fbd fa16 ab3c 8656 f5bd 1fe2 f23d
00000030: bd97 be3d 4b0c b03c 2446 febd 1a1b d13b
00000040: 2c61 92ba 7e51 8fbd b1d3 ecbd 9800 1cbe
00000050: 12b7 703d bb13 623c d2cd 293d 561e fb3d
00000060: 4c7c 52bd 6885 f0bd a8c3 ffbd e8f0 09be
00000070: 66d6 913d 60b1 94bd a4be be3d 12af 8dbd
00000080: b870 903b b873 823d dd50 5c3d 815d 093e
00000090: 1ff3 233c 0923 78bd a966 873c b56f 3ebd
000000a0: 07e2 e13d e982 29bd 8c97 c1bd 05f0 2cbd
000000b0: 09dc 8bbd 580a fa3d ea11 8fbd 32e0 3dbd
000000c0: 4df8 88bd c26a 0e3e eb83 e5bd 212f e13d
000000d0: 35b1 62bd bfad bc3d 83c2 573d 808c babd
000000e0: e176 07be 1d50 9e3d 7482 adbd bc38 cebd
000000f0: df44 a0bd 804b e8bc 05e4 79bd d2c9 b83d
00000100: 2193 273c aa0c a6bd a958 d7bd 9313 643d
00000110: e3d8 0ebd 20e6 5bbd 2663 173e 7d24 dfbd
00000120: e0e4 983d dd18 74bd 817a e53b 67f4 453d
00000130: 2b32 15bd 08e8 c23c d57c 83bd e3a8 27bd
00000140: 8f5a d6bb dfd6 ca3d ecf9 d03c 06e8 41bd
00000150: 53ce 49bd b3c1 2ebc 865a 79bd 7462 f6bc
00000160: b602 bc3d 195e 833d 0bd7 b23d 9944 c5bd
00000170: 17e4 bb3d 93c6 903c 9b5d e63d 4515 863a
00000180: 00ff e3bd caa5 733d f549 b93c 2803 c03d
00000190: df6c 5bbd cae2 8fbd 6aa2 fcbd 927e d23d
000001a0: 8f5f dcbd e590 35bd 5008 0b3e b756 c5bd
000001b0: 5aa3 c83d 60fa 1e3d 115c fcbd 97cd bc3d
000001c0: 0abf 9cbd 3980 863d 20a6 cbbd 632b 0abe
000001d0: 3fbb 6fbd 165a 89bd 875e df3d e72b d4bc
000001e0: 4fbf 103e 1589 753b 9c95 573d e299 ec3d
000001f0: 4171 9b3d 7e19 3e3d 4a68 293d fca6 2a3c
00000200: 5bc7 723c 98f9 083e baa1 aebd dea1 be3d
00000210: 88ac 6d3d 3b59 7dbd 308d b9bd b935 77bd
00000220: f32e e13d 41c7 08be 805c f53c 4ab5 013e
00000230: 96b5 debd 43bd 16be 8fde 0abe 5e50 abbd
00000240: 5c2a b33d 6c9c ca3d f349 53bd 2b36 e6bd
00000250: 0133 833d f40f a6bd f890 033e 6505 6dba
00000260: 1499 863d 1159 733c b841 d6bd 65b3 c3bd
00000270: 4f69 843d c778 a7bd 5b1b bdbd 3cda 8e3d
00000280: be82 093e f2cb a1bd 23c8 a53d 0c5e c3bc
00000290: 3b9c 8ebd 2df1 093e 0bf2 b13d a228 233d
000002a0: dfd2 acbd 85cd 97bd 16b7 b53d c934 263c
000002b0: c4d9 0cbe 4b4f 42bd 2563 4d3c 8f31 4d3d
000002c0: bc31 8cbd 6344 c93d d3c1 f2bd 921f ce3d
000002d0: dbd8 aabd 3db6 f6bd 4681 d83d 4586 eabc
000002e0: ff8c dd3d abcd 0dbe f3aa 613d 279a 873d
000002f0: 8b89 963d 57d7 65bd 2edb ad3b f725 8dbc
00000300: 7c51 d8bd 93da 7cbd 4716 d7bd 3103 9e3d
00000310: 338f fb3c 1845 4c3d b3aa 10be bf6e 7c3d
00000320: 5f6c 96bd 305c d1bd c83c dfbd 096b fa3d
00000330: e8d6 adbd 2a2b c63d cf68 aabd 2df1 763d
00000340: 3ebd 1f3d 23e3 e9bd f88f babd db2f 9d3b
00000350: 89f3 dfbc 0d77 ea3d 039c 01be 6f36 3a3d
00000360: d994 90bc 0d91 a8bd a302 fbbd f282 01bc
00000370: 5bf3 be3c 00a6 97bd 654e ea3d b812 e93d
00000380: bb82 00be d69f b3bd a4fe 6a3d cc73 bf3d
00000390: b94f b6bd ea65 be3d 0096 e8bd 2766 93bd
000003a0: 1af6 073d 65e2 833d 8d42 953c 2f99 81bc
000003b0: c615 5d3d 2632 ccbd 7683 5d3d 7818 113e
000003c0: 19a3 c0bc 7199 b1bb 0f09 c83d 1df8 873c
000003d0: 6368 f4bc cdae f23d 4979 a1bd 6a94 b93d
000003e0: afe5 ab3d fd49 e4bd 9d45 01bd c0c9 463d
000003f0: a2f2 5f3c d55b a03c 48e8 eb3d 8507 cf3d
0.05015525 0.033129513 -0.10866507 -0.0376736 0.12675235 0.024432939 -0.12722497 -0.07543433
-0.07007469 0.02088498 -0.11979394 0.118595354 0.093062855 0.021490237 -0.12415722 0.0063814046
-0.0011167875 -0.06997965 -0.115638144 -0.15234601 0.05876834 0.013798649 0.04145605 0.122616455
-0.05138807 -0.11744195 -0.1248849 -0.13470805 0.071209714 -0.07260394 0.093137056 -0.06918158
0.0044079684 0.06369728 0.053788055 0.13414575 0.010006695 -0.060580287 0.016528444 -0.04649325
0.110294394 -0.04138461 -0.094527334 -0.042221088 -0.06829078 0.12209004 -0.06985839 -0.046356387
-0.066879846 0.13907912 -0.11206802 0.10995317 -0.05534478 0.09212827 0.052675735 -0.091088295
-0.13228942 0.07730124 -0.084721476 -0.10069415 -0.07825636 -0.028356314 -0.061008472 0.09022869
0.010227949 -0.08107884 -0.105149575 0.05568273 -0.034874808 -0.05368626 0.14783916 -0.108956315
0.074655294 -0.059594024 0.007003129 0.048328783 -0.036424797 0.023792282 -0.06420294 -0.040932547
-0.006541557 0.09904265 0.025509797 -0.047340415 -0.04926903 -0.010666299 -0.060877346 -0.030076243
0.091802046 0.06414432 0.087324224 -0.096322246 0.09174364 0.017672813 0.112483226 0.0010229727
-0.11132622 0.05948428 0.022618273 0.09375602 -0.053570624 -0.070256785 -0.123356655 0.102780476
-0.10760414 -0.044327635 0.1357739 -0.0963568 0.09796782 0.038812995 -0.12322248 0.09218901
-0.07653625 0.06567425 -0.09943795 -0.13493113 -0.05852818 -0.06706636 0.109067015 -0.02589984
0.14135478 0.003746574 0.052632913 0.11552788 0.07589961 0.04641103 0.041359223 0.010415789
0.014818038 0.13376462 -0.08526941 0.093082175 0.058025867 -0.061852675 -0.090601325 -0.06035397
0.10995283 -0.1335726 0.029951334 0.12666813 -0.108744785 -0.14720635 -0.13561462 -0.08364938
0.08748314 0.09893116 -0.051584195 -0.112408005 0.064062126 -0.081085116 0.1284827 -0.00090416364
0.06572166 0.014852778 -0.104617536 -0.09555701 0.064653985 -0.08177333 -0.09233733 0.06975219
0.1342878 -0.079002276 0.08094814 -0.023848556 -0.06963392 0.13470908 0.08688744 0.039833672
-0.08438658 -0.074122466 0.088728115 0.010144421 -0.13754946 -0.0474389 0.012535845 0.05009609
-0.068454236 0.09827497 -0.11853375 0.10064615 -0.08342143 -0.12046478 0.10571532 -0.028628478
0.108179085 -0.13847987 0.05509467 0.06621199 0.07350453 -0.056113567 0.0053056693 -0.017230017
-0.10562417 -0.061731886 -0.10502296 0.077154525 0.030707931 0.04987058 -0.14127617 0.061629053
-0.07344889 -0.102226615 -0.10900265 0.122274466 -0.08488256 0.09676202 -0.08320772 0.060288597
0.038998835 -0.11420276 -0.09109491 0.0047969646 -0.027337806 0.114484884 -0.1265717 0.04546207
-0.017649101 -0.08230791 -0.12256362 -0.007904755 0.0233094 -0.07404709 0.11440734 0.113805234
-0.1254987 -0.08770721 0.05737175 0.093482584 -0.08901925 0.09296782 -0.11356735 -0.071972184
0.033193685 0.06439666 0.01822021 -0.015820114 0.053975843 -0.099705026 0.05408045 0.1416949
-0.023515271 -0.005419903 0.09767353 0.016597802 -0.029834932 0.11849747 -0.078844614 0.09061511
0.08393418 -0.11146925 -0.03156053 0.048532248 0.013668688 0.019575039 0.115189135 0.10108856

egnn.layers.0.hidden_mlp.0.bias f4 [32]
00000000: b376 793d 37a3 cbbb bad3 ff3c 3684 bebd
00000010: 5a0a 353d 05af 83bb 608a 8dbd f205 debd
00000020: 3f56 303d 30e1 a9bd 037f dc3c 1cbd 0fbe
00000030: 35d7 893d 8be5 8d3d 175e 083b 13b8 ddbb
00000040: f46d 0a3e 1fd3 313d b76a c0bd 0996 78bd
00000050: 48ff 61bd 02bc b3bd 7dd7 cdbd 3d00 b7bb
00000060: a3b7 c5bd 90c4 45bc b36d 173d 3fd0 94bd
00000070: 3075 68bd 4fda 0abe c7f1 303d d6c0 fe3c
0.060904216 -0.006214525 0.031228889 -0.09302561 0.044199325 -0.0040186667 -0.069111586 -0.10840978
0.043051 -0.08294904 0.026916033 -0.14036983 0.067305006 0.069285475 0.0020808035 -0.006766328
0.13518506 0.04341423 -0.09395354 -0.06068996 -0.055175096 -0.08776094 -0.10050867 -0.005584745
-0.096541665 -0.01207079 0.03696985 -0.07266282 -0.056752384 -0.1355984 0.043199327 0.03109781

egnn.layers.0.hidden_mlp.2.weight f4 [16, 32]
00000000: ddc6 09be 5ac8 d8bd ab18 f8bc 6016 af3a
00000010: 7870 343c 199e 1f3e 9688 24be 0026 943d
00000020: 9e62 0c3e f540 233e 4f31 013d e552 203e
00000030: 0301 bdbd 791f 00be 5b1f 28bd 8504 b9bd
00000040: 5ec2 a83d dc32 41bd 68c3 b33d 3340 7cbd
00000050: a2d8 9dbd 4496 58bd 7fb7 95bc 4425 aabd
00000060: 343f cd3d e0f5 e73d e35a 0c3d f679 2dbe
00000070: fb5e 133e 9f17 03be 91bb f9bd 3879 b93d
00000080: 6f2a d2bd ede0 0bbe 80fe 08be b981 183e
00000090: f576 4e3d ea0b b13d ab63 0f3d 09cb a53d
000000a0: 2e7b 353e ab9c ddbc 5c7d e4bd 14d8 17bd
000000b0: 10dd 84bd 0764 2cbe 211d 09be 3cb3 7abd
000000c0: 8d4c 0a3d 180f b83d d800 ee3d 2ffb 32be
000000d0: 85a4 67bc 8649 0abd 5363 193e 47d9 3cbd
000000e0: f047 3b3e 236b 2b3d 360a c83c 4f53 9e3d
000000f0: 9737 093e 7625 c1bd 76b1 983d 210c 8bbd
00000100: b450 3b3d dedc d63d dd9c a2bd e482 3dbd
00000110: e39f 263e 90fd 29be dcd4 ebbc 39e7 153e
00000120: 29b8 1a3d d094 13be 12f4 003c be6a 12be
00000130: 285c 87bd 7782 163d 0bed c43d 7f37 cabd
00000140: 8360 1d3e 579e ffbd eb88 11bd 24d3 1bbe
00000150: 572a a0bb 5a8a abbb accf 983d fefa f3bd
00000160: a0ea f73b 496c 673d e8c7 e4bd ee30 1e3e
00000170: 092a 12bd 65c7 38be feec febc b946 2a3d
00000180: d4d6 b8bd 0f82 8bbd 924f 9f3d 444d 09bd
00000190: b05a 853d 499a 443c 915b 33bb 23ef 163e
000001a0: 718a f3bc 19e1 113e 14ac 7cbd 4231 e93d
000001b0: ea59 bc3d 3031 e7bd 1ee3 2ebd 0d84 f2bd
000001c0: daa7 143d 6267 c43b 5490 6fbd 4314 1b3e
000001d0: 1fe2 2c3e abc8 01be 1c3c c5bd d5f0 853c
000001e0: 4d26 e13d 3c20 dbbd e353 81bc f961 00bd
000001f0: 4766 12be 184a 3bbc 8aae cdbb 4676 313d
00000200: fbd6 013e 966b 00bc ae3e 023e ccdd 81bd
00000210: e98c ecbd d81f 8e3d 75ec f53d 6098 f8bb
00000220: 3310 f5bd e061 afbd bd97 c1bd 249c 283d
00000230: 8aef 453d 1fb0 22be 50cb fabc d33c 283d
00000240: 9220 99bd f584 323e 53b3 133e 34b0 aebd
00000250: 96ec 8c3c 93d9 f8bc 2535 1bbe 5ae5 713c
00000260: 3d28 023e 90f1 d23d 4d28 b63d 6868 6bbd
00000270: 25ca c8bd 53a5 18be fd1e 22be 4ae8 0c3c
00000280: 6256 043e 6dd4 2f3d b1c9 0ebd df8d 9a3c
00000290: 807f 293d a444 9abd f936 e63d 88be 993d
000002a0: 261b 51bd a5af 7dbc 4e1b 20be d378 ad3d
000002b0: 4607 dd3c 9863 053e 079c 743d d2b8 18be
000002c0: b891 37bd 65dd c93d 86a4 193e 13fe 543d
000002d0: 0807 163e 13ca 343e d48e 6fbd 317a f43c
000002e0: 992e 1f3e ee5c a8bc abd7 c7bd 717c 02be
000002f0: b326 90bd f9f3 3dbe 761d a2bd a86a b23d
00000300: 17cd 113e 1f0b e93c 1950 94bd 4eec dfbd
00000310: 711a 0ebe d1a1 013d d15e 233e c33d f0bd
00000320: 851d 343e 634c a6bd 4be4 f0bd 529b c33d
00000330: 0777 ddbd ffd4 203e 99c4 21be 060c de3d
00000340: 9459 203e af28 67bd fd80 cfbd 7fbc 6ebd
00000350: fcd8 163e ba66 03be 096a 1c3e ba9d 253e
00000360: 40d6 95bd f25f 0f3e 1b72 fa3a 6e2c 163d
00000370: 7107 45b9 dcb5 1d3d ae9c 243e 0636 0f3d
00000380: 87fc 913c 813f d0bd 56fe f73d f0b3 7abd
00000390: 062c 0fbe b6e6 2abe eacf 273e 7ecf 8b3d
000003a0: 98d7 95bd c2df e1bd 06d3 853b ab4f 00bd
000003b0: 5140 18b9 ae36 0d3e e005 b7bd 808e fd3c
000003c0: 64d5 c03d f6a6 0b3e 3e42 093d 0afd e7bd
000003d0: 381d 19bd 889a c6bc 949b 45bd 8981 29be
000003e0: ee37 dabb cb76 1e3e 6bbb a2bd dc2e 91bd
000003f0: 1060 edbd c914 243d 72d6 dbbd 1a59 a93c
-0.13454767 -0.10585089 -0.0302852 0.0013358109 0.011013143 0.15587653 -0.16067728 0.072338104
0.13709494 0.15942748 0.031541165 0.15656622 -0.092287086 -0.12512006 -0.041045528 -0.09034065
0.082401976 -0.047167644 0.08777505 -0.061584663 -0.07707335 -0.05287768 -0.018275974 -0.08307889
0.10021821 0.11326194 0.034266364 -0.16941056 0.14391701 -0.1280198 -0.121939786 0.09056324
-0.10262 -0.13660021 -0.13378334 0.14893235 0.050406415 0.086448506 0.03500716 0.080953665
0.1772277 -0.027052244 -0.11156723 -0.037071303 -0.06487477 -0.16835032 -0.13390018 -0.061206087
0.03376441 0.08987254 0.11621255 -0.17478631 -0.014138346 -0.033761524 0.14979295 -0.04610565
0.1828916 0.04185022 0.024418931 0.077307336 0.13400112 -0.09430973 0.07455723 -0.06789423
0.04573126 0.10491346 -0.079400755 -0.046267405 0.1627193 -0.16600633 -0.028788023 0.14638986
0.037773285 -0.14412236 0.007870691 -0.14298531 -0.06609374 0.036745515 0.09615525 -0.09873866
0.15368848 -0.12481373 -0.035530966 -0.15217263 -0.00488786 -0.0052349987 0.07461485 -0.11913107
0.0075658113 0.056499753 -0.111709416 0.15448353 -0.03568462 -0.18044813 -0.031118866 0.041571353
-0.0902535 -0.06811916 0.07778849 -0.033520952 0.06511438 0.011999675 -0.002736781 0.14739661
-0.0297291 0.14246024 -0.061687544 0.11386348 0.09196837 -0.11288679 -0.042697065 -0.11841593
0.03629289 0.0059937695 -0.05848725 0.15144448 0.16883133 -0.12674205 -0.096306056 0.01635019
0.109936334 -0.106995076 -0.01578707 -0.031343434 -0.14296828 -0.01143124 -0.00627691 0.043325685
0.12679665 -0.0078381505 0.12719223 -0.063411325 -0.11550314 0.069396675 0.12007991 -0.007586524
-0.119659804 -0.0856359 -0.0945277 0.041164532 0.048324145 -0.15887497 -0.030614525 0.04107363
-0.074769154 0.17433532 0.14423876 -0.08529702 0.017202657 -0.030377185 -0.15156992 0.014764154
0.12710662 0.10299981 0.088944055 -0.057472616 -0.09804181 -0.14906816 -0.15832134 0.008600304
0.12923577 0.042927194 -0.034860317 0.018866478 0.04138136 -0.075326234 0.11240954 0.07507044
-0.05105128 -0.015483771 -0.15635416 0.08470311 0.026981007 0.13026273 0.05971911 -0.14914253
-0.044816703 0.09856681 0.15004167 0.052000117 0.1465112 0.1765521 -0.05848582 0.029843422
0.1554512 -0.020552125 -0.09757932 -0.12742783 -0.07038631 -0.185501 -0.079157755 0.08711749
0.14238392 0.028447686 -0.0724184 -0.109337434 -0.13877274 0.03164846 0.15954138 -0.1173053
0.17589386 -0.08120038 -0.117622934 0.095511094 -0.10813718 0.15706252 -0.15797652 0.10842137
0.15659171 -0.056435283 -0.101320244 -0.058285233 0.1473121 -0.12832156 0.15274824 0.16173449
-0.073162556 0.14001444 0.0019107492 0.036663465 -0.00018790156 0.038503513 0.16075394 0.03496363
0.01782061 -0.101683624 0.121090576 -0.061206758 -0.13981637 -0.16689572 0.16387907 0.06826685
-0.07316512 -0.110290065 0.004083994 -0.031325977 -0.0001451981 0.1379039 -0.089366674 0.030951738
0.09415701 0.1363791 0.03351044 -0.1132756 -0.03738138 -0.024243608 -0.048244074 -0.1655332
-0.0066594994 0.15475003 -0.079459034 -0.07089016 -0.11590588 0.040058885 -0.107342616 0.02067237

egnn.layers.0.hidden_mlp.2.bias f4 [16]
00000000: e450 0f3c 817f f4bd d819 ff3d b30b 8339
00000010: 235e c6bd 1795 843d ad5e debd bb49 0539
00000020: 52a4 bdbd 21e3 6f3b 58a0 093c 541d ea3d
00000030: 24f9 2fbd 42af 9a3d 56b2 cc37 ea2c a73d
0.008747313 -0.11938382 0.12456101 0.00024994984 -0.09685924 0.06473749 -0.10857902 0.00012711335
-0.09259857 0.0036603885 0.008400045 0.11431375 -0.04296221 0.07552959 2.440174e-05 0.081628636
