2-egnca-rework/logs/line4-2024-10-05@23-20-03/best@55.pt (torch, 25525 bytes, 11 tensors)

egnn.layers.0.message_mlp.0.weight f4 [32, 33]
0	0x3d6bb04a	0.05754117
1	0x3dc4e6cb	0.09614333
2	0xbbac0c23	-0.0052504702
3	0x3dd2a65d	0.102856375
4	0xbd555bb3	-0.052089404
5	0x3cfe0e97	0.031012816
6	0xbd3b78d2	-0.04576952
7	0xbc4daa3f	-0.012552797
8	0xbd1fa397	-0.03897437
9	0x3cea5dfe	0.028609272
10	0x3e0ab80c	0.13546771
11	0x3e0dbe3e	0.13842103
12	0xbce5916d	-0.028023446
13	0xbd6d6de8	-0.057966143
14	0xbcd8c477	-0.02646087
15	0x3e1a614b	0.15076177
16	0x3e1791de	0.14801738
17	0xbd47d2c0	-0.04878497
18	0xbd673ffa	-0.056457497
19	0xbd2ef39e	-0.0427128
20	0x3df57405	0.119850196
21	0x3e1235ce	0.14278337
22	0xbdfb09b3	-0.12257709
23	0xbd701ff2	-0.058624215
24	0xbe1e3186	-0.15448579
25	0x3e2fdc52	0.1717389
26	0x3cf7f354	0.030267395
27	0x3d4e5fa2	0.05038417
28	0x3dc15310	0.09439671
29	0x3d2feb97	0.042949285
30	0xbd19fb36	-0.03759309
31	0xbe2b0e0e	-0.1670458
32	0x3d3f7db0	0.046750724
33	0xbced3173	-0.028954243
34	0xbe2da75c	-0.16958374
35	0xbcc2a14f	-0.023758559
36	0xbdc5ab8c	-0.096518606
37	0xbdc4d70c	-0.096113294
38	0xbe023a0d	-0.12717457
39	0xbe11519a	-0.14191285
40	0xbc3dbdfa	-0.0115809385
41	0x3cb8f32c	0.02257689
42	0xbe1f119e	-0.15534064
43	0xbe24b100	-0.16083145
44	0x3afd1417	0.0019308355
45	0xbe267d79	-0.16258802
46	0x3dabd749	0.08390672
47	0xbd32fea4	-0.043699875
48	0xbccf04d5	-0.025270859
49	0xbe24e9ff	-0.16104887
50	0xbdfcca3f	-0.12343263
51	0x3d7b7b15	0.061396677
52	0xbdc504b5	-0.096200384
53	0xbd8aee1d	-0.06783698
54	0xbe222ab3	-0.15836601
55	0x3a887e53	0.0010413624
56	0xbde33602	-0.110942855
57	0x3d3c77e9	0.046012793
58	0x3d687dfb	0.05676077
59	0x3d110a9e	0.035410516
60	0x3d838d38	0.0642342
61	0xbdf74dd5	-0.12075392
62	0x3c76865b	0.015046681
63	0xbe1a6ffb	-0.1508178
64	0xbdfc572a	-0.12321313
65	0x3e107794	0.14108115
66	0x3dfa6ee8	0.12228185
67	0xbe000d64	-0.12505108
68	0x3dc782ca	0.09741743
69	0xbe0d7105	-0.13812645
70	0x3cc8b53d	0.024500484
71	0x3e224e9c	0.158503
72	0x3c13e2e0	0.009026259
73	0x3d8b691a	0.06807156
74	0x3e1f9d14	0.15587264
75	0xbd8871d2	-0.066623345
76	0x3e0488fe	0.12942883
77	0x3ccf4585	0.025301704
78	0xbd1d94b2	-0.038471885
79	0xbe1ef5e4	-0.15523487
80	0x3e2b2dd5	0.16716702
81	0x3e31e701	0.17373277
82	0xbd969e24	-0.07354382
83	0x3d23471c	0.039862737
84	0xbe35a7b0	-0.17739749
85	0x3d011f28	0.031523854
86	0x3dc52963	0.096270345
87	0x3ca7781d	0.020443017
88	0xbdc36166	-0.09540062
89	0x3e24dda6	0.16100177
90	0xbdc4e9f8	-0.096149385
91	0x3cb0196f	0.021496503
92	0xbe23ec2a	-0.16008058
93	0x3d922901	0.07136727
94	0x3df3b26d	0.118992664
95	0x3d144676	0.03620001
96	0x3e073d0a	0.13206878
97	0xbe31cfe5	-0.17364462
98	0xbdcc3e0f	-0.09972774
99	0x3d34fea3	0.044188153
100	0x3db2fb40	0.087393284
101	0xbd2abab3	-0.041681956
102	0x3d5446cf	0.05182534
103	0xbe2e0f64	-0.16998059
104	0x3e2f3bbd	0.17112632
105	0xbe0c872a	-0.13723436
106	0xbe24d812	-0.1609805
107	0xbe04d135	-0.12970431
108	0x3e3190a6	0.17340335
109	0x3d373a9f	0.04473364
110	0xbc65be96	-0.01402249
111	0x3d16bcaf	0.036801036
112	0xb9b0629c	-0.00033642806
113	0xbdfa2eb9	-0.12215943
114	0x3de41c50	0.11138213
115	0xbe130fe9	-0.14361538
116	0xbd313c46	-0.04327037
117	0x3cb4d9c1	0.02207649
118	0xbdd47b17	-0.1037504
119	0x3d263714	0.04057987
120	0xbe1e0259	-0.15430583
121	0xbdae8fe0	-0.08523536
122	0x3e1d831e	0.15382048
123	0x3d56794b	0.052361768
124	0xbe10c4d1	-0.1413758
125	0x3e2b3413	0.16719083
126	0xbd46dccf	-0.048550423
127	0x3d02f722	0.031973965
128	0xbd0f9992	-0.035058565
129	0xbdd32ee7	-0.1031168
130	0x3d0b866b	0.034063738
131	0xbd0f0142	-0.03491331
132	0xbdbebf76	-0.09313862
133	0x3dc33546	0.095316455
134	0x3dac2562	0.08405568
135	0x3de7854a	0.1130472
136	0xbce02838	-0.027362928
137	0xbcedbc02	-0.029020313
138	0x3c569218	0.013096355
139	0x3e1d5770	0.15365386
140	0xbe1e1b07	-0.15439998
141	0xbc2dca08	-0.01060725
142	0x3c83433f	0.016023276
143	0x3daa1d6a	0.083063915
144	0xbe2f2d4a	-0.1710712
145	0xbe3fe8b1	-0.18741108
146	0xbbece03f	-0.0072288807
147	0x3d5fb0e4	0.054612055
148	0xbd960796	-0.07325666
149	0x3e09d98a	0.13461891
150	0x3d01991d	0.03164016
151	0xbd7878ce	-0.060662083
152	0xbd7acf40	-0.061232805
153	0xbe12b604	-0.14327246
154	0x3db97b00	0.090566635
155	0xbd0f4c18	-0.034984678
156	0x3db6b83f	0.08921861
157	0xbe3b776d	-0.18307276
158	0x3e0005c6	0.12502202
159	0x3d665774	0.056235746
160	0xbde3c11b	-0.11120816
161	0xbdc4bdaa	-0.09606488
162	0x3dff53c3	0.12467148
163	0x3da211bb	0.07913538
164	0x3da8c831	0.082413085
165	0x3d136344	0.03598334
166	0xbdb986e3	-0.09058931
167	0xbde81aec	-0.1133326
168	0xbd40201a	-0.046905614
169	0xbd503f6d	-0.050841738
170	0xbcd3bbce	-0.025846388
171	0xbd45d668	-0.048300177
172	0xbe10ac75	-0.14128287
173	0xbe252539	-0.1612748
174	0xbdffd284	-0.124913245
175	0x3db851c8	0.089999735
176	0xbde52bd2	-0.11189999
177	0xbe092e88	-0.13396657
178	0xbd9766bc	-0.07392642
179	0x3d5f11ab	0.05446021
180	0xbd55aa57	-0.0521644
181	0x3b276284	0.0025540898
182	0x3c953489	0.018213527
183	0xbdf63f79	-0.12023825
184	0xbd4b187d	-0.0495839
185	0xbd5dff6f	-0.05419868
186	0xbbe970ab	-0.007124027
187	0xbde9c03e	-0.114136204
188	0xbd008118	-0.031373113
189	0x3c7c8dcc	0.015414666
190	0x3d58dcef	0.052945074
191	0xbde0d504	-0.109781295
192	0x3e1acb8b	0.15116708
193	0x3d350a34	0.044199184
194	0xbe0b9340	-0.1363039
195	0x3e23c362	0.15992501
196	0xbddef4f7	-0.10886567
197	0x3ab1b398	0.0013557551
198	0x3e06eacd	0.13175507
199	0xbd372604	-0.04471399
200	0x3d33ddf6	0.04391285
201	0x3da72346	0.08161025
202	0xbd790515	-0.060795862
203	0x3c9a501d	0.01883703
204	0x3dfda2ab	0.12384542
205	0xba9f159a	-0.0012137175
206	0xbd4be723	-0.049780976
207	0x3e017672	0.1264284
208	0x3d0d665c	0.034521446
209	0xbde96be8	-0.113975346
210	0x3dad94e3	0.084756635
211	0x3e0ff13f	0.14056872
212	0x3c493f6e	0.012283189
213	0x3e154df7	0.14580522
214	0xbde0bcaa	-0.10973485
215	0x3e2a14b3	0.16609459
216	0x3dd16513	0.102243565
217	0xbc3490eb	-0.011020879
218	0xbe24d77f	-0.1609783
219	0x3e2e908b	0.17047326
220	0xbc23b109	-0.009990939
221	0x3db03550	0.086039186
222	0xbdc1f54a	-0.09470613
223	0x3d698712	0.05701358
224	0xbccba96f	-0.024861066
225	0x3d2ab486	0.041676067
226	0x3d7ba403	0.06143571
227	0xbdebac95	-0.11507527
228	0xbe063975	-0.13107856
229	0xbbcb0d75	-0.0061966726
230	0xbd3244d2	-0.043522663
231	0x3de7bfd9	0.11315889
232	0xbd9ad5cf	-0.07560312
233	0x3d306339	0.043063376
234	0xbe221be2	-0.15830949
235	0x3daba073	0.08380213
236	0x3de21fa1	0.11041189
237	0x3cd6b9da	0.026211668
238	0x3cc73174	0.024315573
239	0x3ccf5aa4	0.025311776
240	0xbbe86f50	-0.0070933476
241	0xbd0e929d	-0.03480779
242	0x3e04ca12	0.12967709
243	0xbd581fee	-0.052764826
244	0xbca8df50	-0.020614296
245	0xbc8cf8e6	-0.017208528
246	0xbdcede41	-0.10100985
247	0xbe08b47e	-0.13350102
248	0xbdd4f08d	-0.10397444
249	0xbcdd84c2	-0.027040843
250	0xbe050a78	-0.12992275
251	0x3d67cc60	0.05659139
252	0xbdfee24a	-0.12445505
253	0xbd41f210	-0.04734999
254	0xbd930d7e	-0.07180308
255	0xbdad9121	-0.08474947

egnn.layers.0.message_mlp.0.bias f4 [32]
0	0xbd0c8042	-0.034302004
1	0xbc8cff0d	-0.017211461
2	0x3d4f0aaf	0.050547298
3	0xbe1ea964	-0.15494305
4	0x3d739078	0.059463948
5	0xbe1a4acd	-0.15067597
6	0xbd18a759	-0.03726897
7	0xbe127391	-0.14301898
8	0xbe18b130	-0.14911342
9	0xbdbdb97d	-0.09263895
10	0x3e012a10	0.12613702
11	0xbe2492eb	-0.1607167
12	0x3da00d4a	0.07815035
13	0xbc38e8b9	-0.011285954
14	0xbe11b86a	-0.14230505
15	0x3d433504	0.04765798
16	0xbdc1fbed	-0.09471879
17	0xbdd1c894	-0.10243335
18	0x3d12f833	0.035881232
19	0xbe00ac4b	-0.12565725
20	0x3c1db7a8	0.009626307
21	0x3d738a49	0.05945805
22	0x3d530aba	0.0515239
23	0x3dc1b524	0.09458378
24	0xbe130e56	-0.14360937
25	0x3d6aef18	0.057356924
26	0x3ddd58c0	0.10807943
27	0xbe277b55	-0.16355641
28	0x3d8f187d	0.06987093
29	0x3c448fc6	0.011997169
30	0x3d7babed	0.061443258
31	0xbe2b5094	-0.16729957

egnn.layers.0.message_mlp.2.weight f4 [32, 32]
0	0x3de5beb8	0.11218017
1	0xbe202091	-0.15637423
2	0x3d9fb735	0.07798616
3	0x3e265f3b	0.16247265
4	0xbd1252a0	-0.03572333
5	0x3da68c44	0.08132222
6	0xbc939846	-0.018016946
7	0x3dc40862	0.095719114
8	0xbe244a0a	-0.16043869
9	0xbb160560	-0.0022891387
10	0x3e3db240	0.18525028
11	0xbd33e42b	-0.04391877
12	0xbe0dc270	-0.13843703
13	0xbe0fa50f	-0.14027809
14	0x3d25aac9	0.040446077
15	0x3e1f89ec	0.15579957
16	0xbe2fba62	-0.17160943
17	0x3de70147	0.112795405
18	0xbe08bf7b	-0.13354294
19	0x3d99d31b	0.07510968
20	0x3d0c7021	0.034286622
21	0x3d592919	0.05301771
22	0xbe1cefd1	-0.15325858
23	0x3e2d1875	0.16903861
24	0x3d2394f6	0.039936982
25	0xbc57a414	-0.013161678
26	0xbe053d71	-0.1301172
27	0x3dde1c3d	0.1084523
28	0x3e26c76e	0.16287014
29	0x3d991cb0	0.07476175
30	0xbc9e45d1	-0.0193204
31	0xbd3655b6	-0.044515334
32	0xbe3a5830	-0.18197703
33	0x3df1388c	0.117783636
34	0xbcce9d27	-0.02522142
35	0xbe20c79b	-0.15701143
36	0xba17eeeb	-0.00057957944
37	0x3d10ee2c	0.03538339
38	0x3de3332c	0.11093745
39	0x3d767cfd	0.060177792
40	0xbdee5965	-0.116381444
41	0xbd39b70e	-0.04534059
42	0xbe2e3a3a	-0.17014399
43	0x3dacc0fa	0.08435245
44	0x3da80d5a	0.082056716
45	0xbdd45205	-0.103672065
46	0x3d2e91b1	0.04261941
47	0x3df3eea4	0.119107515
48	0x3e22fe19	0.15917243
49	0x3df5dc49	0.12004907
50	0x3d892c34	0.06697884
51	0x3d21fe4c	0.039549157
52	0x3d857b8b	0.065177046
53	0x3e270df4	0.16313916
54	0x3deacc11	0.11464704
55	0x3ce1b006	0.027549755
56	0x3caa8363	0.020814603
57	0x3df22255	0.118229546
58	0x3e327f7b	0.17431442
59	0xbde84333	-0.11340942
60	0xbdaa1711	-0.08305181
61	0x3e426aa8	0.18985999
62	0xbda259bf	-0.07927274
63	0xbd24f90e	-0.04027658
64	0x3e0f1755	0.13973744
65	0xbd8876df	-0.06663298
66	0x3e3167fb	0.17324822
67	0xbdcd492d	-0.10023723
68	0xbda5ddda	-0.080989555
69	0x3bf083d9	0.007339936
70	0x3c96418f	0.018341808
71	0x3e215490	0.15754914
72	0xbd963a29	-0.07335312
73	0x3d85b9d4	0.065295845
74	0xbcdddb78	-0.02708219
75	0xbcf4ef0b	-0.02989914
76	0xbe1a4aa9	-0.15067543
77	0x3e255b8d	0.16148205
78	0xbdbe9694	-0.09306064
79	0xbd1c9b38	-0.038233966
80	0xbda54d2e	-0.080713615
81	0x3e2687b8	0.1626271
82	0xbd907829	-0.07054169
83	0xbd2579b2	-0.04039926
84	0x3dca4b75	0.098776735
85	0x3e2697f3	0.16268902
86	0x3e27d855	0.16391118
87	0xbdcd4cee	-0.10024439
88	0xbd7ff49d	-0.06248914
89	0x3e11c536	0.14235386
90	0x3d9db044	0.076996356
91	0x3e0bdd08	0.13658535
92	0x3d6d5db9	0.05795071
93	0xbddd2e93	-0.10799899
94	0xbcbb9e0c	-0.022902511
95	0xbda7d9dc	-0.0819585
96	0xbe148e8f	-0.14507507
97	0x3d4bf2f5	0.04979225
98	0x3dc0c5e2	0.09412743
99	0x3d88f294	0.06686893
100	0x3e0cf76d	0.1376626
101	0xbd9191a4	-0.07107857
102	0x3d79e69c	0.061010942
103	0xbd641e59	-0.055693004
104	0x3e19c5ac	0.15016812
105	0xbc5bd666	-0.013417816
106	0x3e0210c7	0.12701713
107	0x3e0a9392	0.13532856
108	0xbdf9fa51	-0.12205947
109	0xbd2f9bb6	-0.042873107
110	0x3e1a9206	0.15094766
111	0xbdaea6b6	-0.08527891
112	0xbd29e3bf	-0.04147696
113	0x3e158157	0.1460012
114	0x3e13f138	0.14447486
115	0x3df04357	0.11731594
116	0x3c992c0d	0.018697763
117	0x3de543a5	0.11194543
118	0xbe1fbfa7	-0.15600453
119	0x3da920cc	0.08258209
120	0xbcf13caa	-0.029447872
121	0xbe05a667	-0.13051759
122	0x3d1e8f6e	0.038711004
123	0x3b068875	0.0020528112
124	0x3d882524	0.06647709
125	0xbd7ad92c	-0.061242267
126	0x3e320622	0.17385152
127	0xbe3b11bd	-0.18268485
128	0x3e2fee35	0.17180713
129	0xbd9ccd15	-0.07656304
130	0x3dcde088	0.100525916
131	0xbcb84644	-0.022494443
132	0xbd4c0ea7	-0.04981866
133	0xbe0892ac	-0.13337201
134	0xbe0aa309	-0.13538755
135	0x3caa9842	0.020824555
136	0xbdd1f6fd	-0.102521874
137	0xbe007b83	-0.12547116
138	0xbe1ad798	-0.15121305
139	0x3e1b41a8	0.15161765
140	0x3d2bc67d	0.04193734
141	0x3c714f6a	0.014728406
142	0xbd4eaf4f	-0.050460156
143	0xbe1d68e1	-0.1537204
144	0x3dcf3f35	0.10119478
145	0x3e11d074	0.14239675
146	0x3d0a8ee0	0.033827662
147	0x3d461965	0.04836406
148	0xba28282d	-0.0006414678
149	0x3d86d479	0.06583495
150	0x3c062a94	0.008188862
151	0xbde2e3e8	-0.11078626
152	0xbcbf26e1	-0.023333969
153	0x3e22c67a	0.15896025
154	0xbdd7eb7c	-0.10542962
155	0x3e2097a4	0.15682846
156	0xbdd0d9c8	-0.101977885
157	0xbd0031c1	-0.03129745
158	0x3debca1d	0.115131594
159	0xbde52c9c	-0.11190149
160	0xbd1e6f13	-0.038680147
161	0xbe08f60d	-0.13375111
162	0xbc8c1a59	-0.017102407
163	0x3dd917b5	0.10600225
164	0xbdb6edaf	-0.08932053
165	0xbd0fb9b8	-0.035089225
166	0x3b09f35a	0.002104959
167	0x3de35195	0.11099545
168	0x3cd39317	0.025826974
169	0xbcb92077	-0.022598488
170	0xbdd5a77b	-0.10432335
171	0xbe072018	-0.13195837
172	0x3e2ea533	0.17055206
173	0xbd430923	-0.047616135
174	0x3dd7c2c1	0.10535193
175	0xbc8b1d51	-0.016981753
176	0xbdafeafd	-0.08589742
177	0xbd87901a	-0.06619282
178	0xbe126d2b	-0.14299457
179	0xbd15e938	-0.036599368
180	0x3c9ee099	0.019394206
181	0xbdab8d0e	-0.083765134
182	0x3d4d0021	0.05004895
183	0x3da34244	0.079716235
184	0xbdeb823d	-0.1149945
185	0xbc7d3127	-0.015453613
186	0x3dfce8c4	0.12349084
187	0xbe293b96	-0.16526636
188	0x3dcfb865	0.10142592
189	0xbd3f6dac	-0.04673545
190	0xbd7af536	-0.061269008
191	0xbdd57473	-0.104226016
192	0xbc4456c6	-0.011983579
193	0x3d674a45	0.056467313
194	0xbd9eb290	-0.07748902
195	0xbd75457b	-0.059880715
196	0x3dbf8dd4	0.093532234
197	0xbda8594a	-0.082201555
198	0x3c02b84e	0.007978512
199	0x3dd3a18c	0.10333547
200	0xbb99e82e	-0.0046968674
201	0xbd3ae62c	-0.045629665
202	0xbde2b2ba	-0.11069246
203	0xbd200819	-0.039070223
204	0xbd1c898f	-0.038217124
205	0x3dea6bc3	0.11446335
206	0x3c54a11c	0.012977865
207	0xbe11fc1d	-0.1425633
208	0xbc568a88	-0.013094552
209	0xbdd8ff1f	-0.105955355
210	0x3e3e5d31	0.18590237
211	0xbd2a47ff	-0.041572567
212	0xbe2807e9	-0.16409267
213	0xbdb57e47	-0.08861976
214	0x3dd2fd4b	0.10302218
215	0x3e2953c3	0.16535859
216	0xbde97544	-0.1139932
217	0xbe2f0062	-0.1708999
218	0xbd369dee	-0.044584207
219	0xbd4b3a5c	-0.049616203
220	0xbdaeacbd	-0.08529041
221	0x3dcd163b	0.10014006
222	0x3c4e7717	0.012601635
223	0x3e0cb6e4	0.13741642
224	0x3e012ea8	0.12615454
225	0x3c9cba12	0.019131694
226	0x3e0e987c	0.13925356
227	0xbd1eddcd	-0.038785744
228	0x3d73c83c	0.05951713
229	0xbde61ee7	-0.11236363
230	0x3d3aefc8	0.04563883
231	0x3d8c0cd3	0.068383835
232	0xbe35ccd4	-0.17753917
233	0x3e159c55	0.14610417
234	0x3df95669	0.121746846
235	0xbde150cc	-0.11001739
236	0x3d63fbcd	0.055660058
237	0x3e2adbe2	0.16685441
238	0xbd703b04	-0.05865003
239	0x3b990845	0.0046701753
240	0xbc94cd6f	-0.018164365
241	0xbdd219d7	-0.10258835
242	0x3db53a2d	0.08848987
243	0xbda01dbc	-0.078181714
244	0x3d4c87c3	0.04993416
245	0x3d08d063	0.033401858
246	0x3db07c92	0.0861751
247	0x3e2d07d5	0.16897519
248	0x3d77ccdd	0.060498107
249	0xbce66716	-0.028125327
250	0xbd5df98a	-0.054193057
251	0x3e15f1d8	0.14643037
252	0x3de0a58c	0.109690756
253	0x3e1ebbdd	0.15501352
254	0xbd95e5d5	-0.073192276
255	0x3dd8912f	0.105745666

egnn.layers.0.message_mlp.2.bias f4 [32]
0	0x3b6013c1	0.0034191462
1	0x3ddd3bdf	0.10802435
2	0x3c9c3dbf	0.019072412
3	0x3e28d8aa	0.16488901
4	0xbcbe632d	-0.02324065
5	0xbe255879	-0.16147031
6	0xbe207e2e	-0.15673134
7	0xbd9d7989	-0.076891966
8	0x3d765dee	0.060148172
9	0x3dc8e982	0.09810163
10	0x3da1fa4f	0.07909071
11	0x3e1bc704	0.15212637
12	0xbe31467d	-0.17312045
13	0x3d94fd9b	0.07274934
14	0xbc841a4d	-0.016125822
15	0xbe08f9ac	-0.13376492
16	0x3d2a109c	0.041519746
17	0x3e2b94b0	0.16755939
18	0x3d47090a	0.048592605
19	0x3ddd034c	0.107916445
20	0x3dc83419	0.09775562
21	0xbdee427f	-0.11633777
22	0xbe30e215	-0.17273743
23	0xbe269c45	-0.1627055
24	0x3e1a03ac	0.15040463
25	0xbe061f00	-0.13097763
26	0xbd6c27ee	-0.057655267
27	0x3e16d2bf	0.14728831
28	0x3e1f6df1	0.15569283
29	0xbe0219f6	-0.12705216
30	0x3d98412c	0.074343055
31	0xbba91f7b	-0.0051612235

egnn.layers.0.coord_mlp.0.weight f4 [32, 32]
0	0xbd178f1a	-0.037001707
1	0xbb802ff6	-0.0039119674
2	0x3c381947	0.011236495
3	0xbe2e8b45	-0.17045315
4	0xbdf58079	-0.11987395
5	0x3daa96c8	0.083295405
6	0x3dd676ec	0.10471901
7	0x3d665f02	0.05624295
8	0xbdddd283	-0.108311675
9	0xbc959db6	-0.018263679
10	0x3dea31bd	0.11435268
11	0xbde404e8	-0.11133748
12	0x3e00ae9b	0.12566607
13	0x3d85d8bc	0.065354794
14	0xbdda2951	-0.10652412
15	0xbe272c8e	-0.1632559
16	0x3d99f53e	0.07517479
17	0x3d37c80d	0.044868518
18	0xbdc6fdc4	-0.09716371
19	0xbe0b3660	-0.13594961
20	0x3d1be44d	0.03805952
21	0x3d9899b3	0.07451191
22	0xbd891ca4	-0.06694916
23	0x3e174658	0.14772928
24	0x3dfc2bdb	0.12313052
25	0x3dde586f	0.10856711
26	0x3e13200b	0.14367692
27	0xbde6b19d	-0.11264346
28	0x3e12b87e	0.1432819
29	0xbe1c7628	-0.15279448
30	0xbd377e58	-0.044798225
31	0xbe04b4a8	-0.1295954
32	0xbd2b5d90	-0.041837275
33	0xbe1f06a8	-0.15529883
34	0xbe18542b	-0.14875858
35	0xbdea711e	-0.11447357
36	0x3ced212f	0.028946487
37	0xbde55e92	-0.111996785
38	0x3c5e2b4f	0.01356013
39	0x3d0a88d9	0.033821914
40	0xbe1b0207	-0.15137492
41	0x3e0cbf6b	0.13744895
42	0xbd3c416b	-0.045960825
43	0x3df281f6	0.11841194
44	0xbb9ca960	-0.0047809333
45	0x3de144c7	0.10999446
46	0x3c625c45	0.013815944
47	0xbde34403	-0.110969566
48	0xbe26e209	-0.16297163
49	0xbe03a5bf	-0.12856196
50	0xbdd27e7c	-0.10278031
51	0xbdf8dee6	-0.121518895
52	0x3e3064ba	0.17225924
53	0xbdfc3c8b	-0.12316235
54	0x3c7c60ae	0.01540391
55	0xbdf2f857	-0.11863773
56	0x3e04dfe2	0.1297603
57	0xbc2d089c	-0.010561135
58	0xbda4958e	-0.08036338
59	0x3c9d8117	0.019226594
60	0xbdbde6f2	-0.09272565
61	0x3db1019b	0.08642884
62	0xbbeeec41	-0.0072913473
63	0xbdfb1982	-0.122607246
64	0xbd30c265	-0.04315414
65	0xbb9c36cc	-0.0047672745
66	0xbc3d43eb	-0.011551837
67	0xbd97770f	-0.073957555
68	0x3d0f8bb2	0.035045333
69	0x3e36298e	0.1778929
70	0xbdcd56de	-0.10026334
71	0xbd91ab80	-0.07112789
72	0x3be1571c	0.0068768393
73	0x3df4d8dd	0.11955426
74	0xbda5483d	-0.08070419
75	0xbe0b9d4e	-0.13634226
76	0x3e2c2ca1	0.168139
77	0x3d850d25	0.06496648
78	0x3d99a9e6	0.07503109
79	0xbd32c845	-0.043648023
80	0x3e17c9fb	0.14823143
81	0x3a4b7fd4	0.00077628833
82	0x3d695ce9	0.05697337
83	0x3e248563	0.16066508
84	0xbdee4064	-0.11633375
85	0xbdf68ca4	-0.12038544
86	0x3dee8122	0.11645724
87	0x3dd02b97	0.10164564
88	0xbad74aba	-0.0016425468
89	0xbd9e32aa	-0.07724507
90	0x3e1db1a7	0.153998
91	0xbe138f6d	-0.14410181
92	0xbcce205e	-0.025161918
93	0xbe1a32d4	-0.15058452
94	0x3e06f786	0.1318036
95	0x3d073636	0.033010684
96	0xbd542870	-0.051796377
97	0xbdf9fef6	-0.12206833
98	0xbd101753	-0.035178494
99	0xbe144e49	-0.14482988
100	0x3e221b82	0.15830806
101	0xbdbae617	-0.091259174
102	0xbbc50f85	-0.006013813
103	0x3cc59dc9	0.02412309
104	0x3dd6bcb5	0.10485212
105	0xbcaba4f7	-0.020952685
106	0x3cfa5dcd	0.030562306
107	0xbc62ba48	-0.013838358
108	0x3bd5b6e3	0.006522046
109	0x3dc60fa6	0.096709535
110	0x3defac3c	0.11702773
111	0xbc5c10ed	-0.01343177
112	0x3d44580f	0.04793554
113	0xbd2d185a	-0.04225955
114	0x3d8ffd81	0.07030774
115	0x3be2c31b	0.006920231
116	0xbc346985	-0.011011486
117	0x3be893f1	0.007097714
118	0x3e0ee91b	0.1395611
119	0x3df526cf	0.11970293
120	0xbd112212	-0.035432883
121	0x3df75ac6	0.120778605
122	0x3bcb9964	0.006213354
123	0xbd8c10d7	-0.068391494
124	0xbdae8a99	-0.08522529
125	0x3dd13cd1	0.10216678
126	0xbd84dd19	-0.064874835
127	0xbca0d2b7	-0.019631727
128	0xbda553bc	-0.08072612
129	0xbde2df58	-0.11077756
130	0x3e0084f8	0.12550724
131	0x3e1473a2	0.14497235
132	0xbe1e29e1	-0.15445663
133	0x3c197d50	0.009368256
134	0x3e0c702d	0.13714667
135	0x3e01421a	0.12622872
136	0x3d4da7ad	0.050208736
137	0x3d661b28	0.056178242
138	0xbd23a9d9	-0.0399569
139	0x3ce6768d	0.028132701
140	0x3dcf929b	0.10135385
141	0xbdbe68c8	-0.09297329
142	0xbc242575	-0.010018696
143	0x3e362854	0.17788821
144	0x3df137ea	0.11778243
145	0x3daddadd	0.084890105
146	0x3cf9fd48	0.030516282
147	0x3e1313da	0.14363042
148	0xbcf34048	-0.029693738
149	0xbd2c5fee	-0.042083673
150	0xbd9ac126	-0.075563714
151	0x3db985da	0.09058733
152	0xbe0c2fca	-0.13690105
153	0x3cf3d043	0.029762393
154	0x3d00c762	0.031440146
155	0xbdd5be15	-0.10436646
156	0x3db3a6da	0.08772059
157	0xbc356b70	-0.011072978
158	0x3d9a103e	0.07522629
159	0xbd9010d1	-0.070344575
160	0x3d267e2a	0.040647663
161	0x3e0b3314	0.13593704
162	0x3c97fb9a	0.01855259
163	0xbddf4fa3	-0.109038614
164	0xbd2e8136	-0.042603694
165	0xbd46dbfc	-0.048549637
166	0xbb9d4d30	-0.004800461
167	0xbd66e185	-0.056367416
168	0x3d0c9bb2	0.03432817
169	0xbd8dbb2b	-0.06920465
170	0x3ccf5461	0.02530879
171	0xbe1826c8	-0.14858544
172	0xbd2557f9	-0.0403671
173	0x3da78929	0.08180458
174	0x3dc930fd	0.09823797
175	0xbe01ddf6	-0.12682328
176	0xbddba9c6	-0.10725741
177	0x3c82acfe	0.01595163
178	0x3cd44f44	0.025916703
179	0xbd3907dc	-0.04517351
180	0x3de66915	0.112505116
181	0xbdb8ae62	-0.09017636
182	0xbdd94634	-0.10609093
183	0x3e0f2d16	0.13982043
184	0xbdbbd959	-0.09172315
185	0xbd136046	-0.035980485
186	0xbe0ab688	-0.13546193
187	0x3dab9476	0.08377926
188	0xbd3f50b1	-0.046707813
189	0x3db7fc93	0.089837216
190	0x3dade8de	0.084916815
191	0xbe140184	-0.14453703
192	0xbdf943cb	-0.121711336
193	0x3e24385c	0.16037124
194	0xbe216703	-0.15761952
195	0xbdf87902	-0.121324554
196	0xbe16458a	-0.14674965
197	0x3e0a14c5	0.13484485
198	0xbc822bd7	-0.015890045
199	0xbe209a78	-0.15683925
200	0xbe074b35	-0.13212283
201	0x3e154c7f	0.14579962
202	0xbdab52c1	-0.083653934
203	0x3e042aa8	0.12906897
204	0x3e23b9c7	0.15988837
205	0x3d5ce944	0.053933397
206	0xbdaaff89	-0.08349521
207	0x3e34e584	0.17665678
208	0x3e274786	0.16335878
209	0x3e0bed9f	0.13664864
210	0xbd7112bc	-0.058855757
211	0x3e043280	0.12909889
212	0xbdd1e772	-0.10249223
213	0x3db2d7e4	0.08732584
214	0x3b4df26a	0.0031425008
215	0x3e17f1f1	0.14838387
216	0x3d1b89a1	0.03797305
217	0x3da25bad	0.07927642
218	0xbdf43aec	-0.11925301
219	0x3dfd47f4	0.123672396
220	0xbc080604	-0.0083022155
221	0xbc5b513a	-0.013386065
222	0x3cd1a560	0.025591552
223	0xbd67bae0	-0.056574702
224	0xbe26c288	-0.16285145
225	0xbe26e475	-0.16298087
226	0x3d4ce062	0.050018676
227	0xbd968247	-0.07349067
228	0xbdf96c3b	-0.121788464
229	0x3e0ffe57	0.14061867
230	0x3e371036	0.17877278
231	0xbe351f56	-0.17687735
232	0xbdef75eb	-0.11692413
233	0xbde26f5d	-0.11056397
234	0x3d7ecce2	0.06220711
235	0x3db45444	0.08805135
236	0xbdbadaf7	-0.091237955
237	0xbdd44059	-0.10363836
238	0x3deab5f4	0.11460486
239	0xbdd7254e	-0.10505162
240	0xbdae5052	-0.08511414
241	0x3e2e4b9a	0.17021027
242	0x39b6d780	0.00034874305
243	0xbd95ea43	-0.073200725
244	0x3dc24b49	0.09487016
245	0xbe21628b	-0.15760247
246	0x3e2d6709	0.16933836
247	0xbdc4572a	-0.09586938
248	0x3cba2129	0.02272089
249	0xbdd72839	-0.10505719
250	0x3dff7bb4	0.124747664
251	0x3c96b822	0.018398348
252	0xbe1f218c	-0.15540141
253	0xbdd7052b	-0.104990326
254	0x3de0db52	0.10979332
255	0xbd78a64b	-0.060705464

egnn.layers.0.coord_mlp.0.bias f4 [32]
0	0xbd394328	-0.04523006
1	0xbda6b01b	-0.08139058
2	0xbe27d3fc	-0.1638946
3	0x3e0794ec	0.13240403
4	0xbde70ad6	-0.11281364
5	0x3e0fbeac	0.1403758
6	0x3c9b7b2c	0.018979631
7	0xbd9df00a	-0.077117994
8	0xbdd4c167	-0.10388451
9	0xbe0c6db4	-0.13713723
10	0x3e276b8f	0.16349624
11	0xbd5c3808	-0.053764373
12	0x3ce23f57	0.027618093
13	0xbd0159de	-0.031579845
14	0x3e2f611f	0.17126893
15	0x3e3171e8	0.17328608
16	0x3ce10274	0.02746699
17	0xbdc76326	-0.09735708
18	0x3d4780ba	0.048706748
19	0xbe2ba699	-0.1676277
20	0xbe26608d	-0.16247769
21	0x3c7409d7	0.014894924
22	0x3bcaf7f6	0.00619411
23	0x3dfd629e	0.12372325
24	0xbda33b86	-0.079703376
25	0x3cfde952	0.030995045
26	0x3dc1da3d	0.09465454
27	0xbe29d57a	-0.16585341
28	0x3d808cf3	0.06276884
29	0xbdf62e6e	-0.120205745
30	0x3dafcd51	0.08584083
31	0x3dd45dfa	0.10369487

egnn.layers.0.coord_mlp.2.weight f4 [1, 32]
0	0xbbac6a17	-0.0052616703
1	0xbb8295b1	-0.0039851298
2	0xbc055d89	-0.008139976
3	0xbae70dd3	-0.0017628021
4	0xbc0829d3	-0.008310753
5	0x3c14be82	0.009078624
6	0xbc4fbd68	-0.012679435
7	0xbc26da51	-0.010183887
8	0xbc24e01a	-0.010063196
9	0xbc4eeb5a	-0.012629354
10	0x3bf4cfa4	0.0074710418
11	0x3bd0d44f	0.0063729654
12	0x3c41c15a	0.011825884
13	0x3ba91ede	0.0051611504
14	0x3b891448	0.004183326
15	0x3c076837	0.008264593
16	0xbc39bf97	-0.0113371825
17	0xbc7f2605	-0.015573029
18	0x3bf950e9	0.007608522
19	0xbbf30c24	-0.0074172188
20	0xbc7a64bf	-0.015282809
21	0x3c36b35a	0.011151159
22	0x3c5394fc	0.012913939
23	0x3c364d48	0.011126824
24	0x3c199098	0.009372853
25	0x3c6f08ad	0.014589471
26	0x3b3b0e1e	0.002854235
27	0xbc062853	-0.008188325
28	0xbc809041	-0.015693786
29	0xbc166181	-0.00917852
30	0x3b94a334	0.004536057
31	0x3b8bea2c	0.004269859

egnn.layers.0.hidden_mlp.0.weight f4 [32, 48]
0	0x3d484fdd	0.04890429
1	0x3d0cb1e1	0.034349326
2	0xbddc2c3c	-0.107506245
3	0xbd1fa809	-0.03897861
4	0x3e030f40	0.12798786
5	0x3cb0280a	0.021503467
6	0xbe015af6	-0.12632355
7	0xbd99e4b1	-0.075143225
8	0xbd9330ae	-0.07187019
9	0x3cb3db30	0.021955103
10	0xbdf88e51	-0.1213652
11	0x3df23518	0.11826533
12	0x3dc1bda7	0.094600014
13	0x3ca4b071	0.020103665
14	0xbdfbd2cd	-0.122960664
15	0x3bf714e6	0.007540333
16	0xbb256e01	-0.002524257
17	0xbd8f4d3c	-0.06997153
18	0xbdf106ae	-0.11768852
19	0xbe1ba90b	-0.15201204
20	0x3d6c409b	0.0576788
21	0x3c79031e	0.015198497
22	0x3d306a27	0.043069985
23	0x3df7fbaa	0.12108548
24	0xbd562a7a	-0.052286603
25	0xbde88f8c	-0.113555044
26	0xbe020529	-0.12697281
27	0xbe091688	-0.13387501
28	0x3d949963	0.07255819
29	0xbd934f74	-0.07192889
30	0x3dbdb5f2	0.09263219
31	0xbd8a829d	-0.06763194
32	0x3b976c5f	0.004621073
33	0x3d83ee6b	0.06441959
34	0x3d60776e	0.054801397
35	0x3e0a79c6	0.13523015
36	0x3c0c2517	0.008553765
37	0xbd71e90d	-0.059060145
38	0x3c8bb946	0.017056119
39	0xbd48fb07	-0.049067523
40	0x3de16f97	0.11007612
41	0xbd2645f6	-0.040594064
42	0xbdbddc9d	-0.09270594
43	0xbd343a43	-0.044000875
44	0xbd8d8ce6	-0.0691164
45	0x3dfc999f	0.123339884
46	0xbd8a2fb7	-0.06747382
47	0xbd3b3883	-0.04570819
48	0xbd8ac9ad	-0.06776748
49	0x3e0ebec5	0.1393996
50	0xbde418ed	-0.11137567
51	0x3de053fb	0.10953518
52	0xbd6160bc	-0.055023894
53	0x3db99189	0.09060962
54	0x3d59ac31	0.05314273
55	0xbdbd1943	-0.09233334
56	0xbe081668	-0.13289797
57	0x3d9f50f7	0.07779115
58	0xbdae90bb	-0.08523699
59	0xbdcb38cb	-0.09922942
60	0xbd9f3cbc	-0.07775256
61	0xbceb678e	-0.028735902
62	0xbd78503a	-0.060623385
63	0x3dba07ba	0.09083505
64	0x3c200d8c	0.009768855
65	0xbda746a7	-0.08167773
66	0xbdd87955	-0.10570017
67	0x3d64000e	0.055664115
68	0xbd106cab	-0.035259884
69	0xbd59900b	-0.053115886
70	0x3e17d11e	0.14825866
71	0xbde0542d	-0.10953555
72	0x3d98e0e3	0.07464769
73	0xbd709ca2	-0.058743127
74	0x3bd2896e	0.0064250743
75	0x3d46c3e8	0.048526675
76	0xbd1380df	-0.036011573
77	0x3cc53290	0.024071962
78	0xbd8414ae	-0.06449257
79	0xbd255620	-0.04036534
80	0xbbcd78ae	-0.0062704897
81	0x3dcbbf58	0.09948605
82	0x3cd3503b	0.025795093
83	0xbd410dad	-0.047132183
84	0xbd4c0982	-0.049813755
85	0xbc2634ec	-0.0101444535
86	0xbd780db2	-0.060559936
87	0xbcfaaea6	-0.030600857
88	0x3dbc3021	0.09188867
89	0x3d841e56	0.064510986
90	0x3db3d1aa	0.087802246
91	0xbdc66cde	-0.096887335
92	0x3dbbb97b	0.09166237
93	0x3c93f737	0.018062217
94	0x3de7e69b	0.113232814
95	0x3ac869c3	0.0015290309
96	0xbde8353a	-0.11338277
97	0x3d757711	0.059928004
98	0x3cb434ce	0.021997835
99	0x3dbccc25	0.09218625
100	0xbd5969df	-0.053079482
101	0xbd90709e	-0.0705273
102	0xbdfc156b	-0.12308773
103	0x3dd0c456	0.10193698
104	0xbddfa4c5	-0.10920099
105	0xbd344953	-0.04401524
106	0x3e0a4df8	0.13506305
107	0xbdc79955	-0.09746043
108	0x3dc9a10b	0.0984517
109	0x3d1d3db8	0.038388938
110	0xbdfa8bd0	-0.12233698
111	0x3dbdd9fc	0.09270093
112	0xbd9ca4d5	-0.07648627
113	0x3d878950	0.06617987
114	0xbdcc2510	-0.099680066
115	0xbe09e873	-0.13467579
116	0xbd6e05e4	-0.058111086
117	0xbd89a453	-0.067207955
118	0x3ddfe180	0.109316826
119	0xbcd444f8	-0.025911793
120	0x3e10b339	0.14130868
121	0x3b704661	0.0036663043
122	0x3d5636cf	0.052298363
123	0x3dee33a5	0.11630944
124	0x3d9d4349	0.07678849
125	0x3d3e5a60	0.046472907
126	0x3d2acfd6	0.041702114
127	0x3c2389b2	0.00998156
128	0x3c7fe3e6	0.0156183
129	0x3e090e3d	0.13384338
130	0xbdae412d	-0.08508525
131	0x3dbd4412	0.09241499
132	0x3d6cf3a6	0.05784955
133	0xbd7d853c	-0.06189464
134	0xbdb9e90c	-0.09077653
135	0xbd782ad2	-0.06058771
136	0x3de183ba	0.11011453
137	0xbe089759	-0.13338985
138	0x3cf9fbcb	0.030515572
139	0x3e019765	0.12655409
140	0xbde06233	-0.1095623
141	0xbe16bb59	-0.14719905
142	0xbe0af8c8	-0.13571465
143	0xbda9b283	-0.082860015
144	0x3db4ee25	0.08834485
145	0x3dc7bf24	0.09753254
146	0xbd558e7e	-0.052137844
147	0xbde41ac2	-0.11137916
148	0x3d804900	0.06263924
149	0xbda77761	-0.081770666
150	0x3e021d33	0.12706451
151	0xba398be6	-0.00070780364
152	0x3d88efb0	0.06686342
153	0x3c5b1720	0.013372213
154	0xbdd31d07	-0.10308271
155	0xbdc3a396	-0.09552686
156	0x3d816fa4	0.06320122
157	0xbda4c45a	-0.080452636
158	0xbdbff41d	-0.09372733
159	0x3d8bdb6c	0.06828961
160	0x3e0b0489	0.13575949
161	0xbd9e8d5c	-0.07741806
162	0x3da87dd4	0.08227125
163	0xbcb6ba4c	-0.02230563
164	0xbd8bd248	-0.06827217
165	0x3e081374	0.13288671
166	0x3daf1cf5	0.08550445
167	0x3d28a69d	0.04117452
168	0xbda978e5	-0.08275012
169	0xbd9a7ec6	-0.07543711
170	0x3db88468	0.090096295
171	0x3c3ba904	0.011453871
172	0xbe0e3a13	-0.13889341
173	0xbd483dd8	-0.048887104
174	0x3c649104	0.01395059
175	0x3d46ec1b	0.04856501
176	0xbd865f20	-0.065611124
177	0x3dccbd95	0.099970974
178	0xbdf56b7d	-0.119833924
179	0x3dc87af1	0.09789074
180	0xbda7ea72	-0.08199014
181	0xbdf9c9f6	-0.12196724
182	0x3dd5d6f6	0.10441391
183	0xbcde5e0a	-0.02714445
184	0x3de0113e	0.10940789
185	0xbe0f34f8	-0.1398505
186	0x3d5c1d7c	0.053739056
187	0x3d8a7fb4	0.06762639
188	0x3d991943	0.074755214
189	0xbd6bf39b	-0.057605367
190	0x3b89453e	0.0041891625
191	0xbc9282bc	-0.017884605
192	0xbdd95f02	-0.106138244
193	0xbd7e4de1	-0.06208599
194	0xbdd5be3c	-0.10436675
195	0x3d9e1775	0.07719318
196	0x3cf9a267	0.030472947
197	0x3d4c3272	0.049852796
198	0xbe10a798	-0.14126432
199	0x3d7a42a6	0.061098717
200	0xbd96b425	-0.073585786
201	0xbdd170a0	-0.1022656
202	0xbddef8ae	-0.10887276
203	0x3dfda9be	0.123858914
204	0xbdade36f	-0.08490645
205	0x3dc6d275	0.0970811
206	0xbdaab49a	-0.08335228
207	0x3d77a85e	0.0604633
208	0x3d1f92a9	0.038958225
209	0xbdeb4640	-0.114880085
210	0xbdba8494	-0.091073185
211	0x3b946115	0.0045281746
212	0xbce148d9	-0.027500557
213	0x3deb02e1	0.114751585
214	0xbe01ac5d	-0.12663408
215	0x3d3962c5	0.04526021
216	0xbc8c3864	-0.017116733
217	0xbda8015c	-0.08203384
218	0xbdfb3ba0	-0.12267232
219	0xbc107c20	-0.008818656
220	0x3cbdfa4f	0.023190646
221	0xbd97d6e6	-0.074140355
222	0x3dea03e1	0.11426521
223	0x3de9b420	0.11411309
224	0xbe018c99	-0.1265129
225	0xbdb54a8c	-0.08852109
226	0x3d6a3a89	0.05718473
227	0x3dc1c07a	0.0946054
228	0xbdb69ab2	-0.089162245
229	0x3dbeb553	0.093119286
230	0xbde82607	-0.11335378
231	0xbd92c16c	-0.071657985
232	0x3d083869	0.033256922
233	0x3d83f098	0.06442374
234	0x3c941531	0.018076511
235	0xbc8289e5	-0.015934894
236	0x3d5f716c	0.054551527
237	0xbdcc1257	-0.099644355
238	0x3d5d134e	0.05397349
239	0x3e1076e9	0.1410786
240	0xbcc59120	-0.024117053
241	0xbbad832a	-0.005295177
242	0x3dc735fb	0.09727093
243	0x3c83d6d9	0.016093658
244	0xbcf1c1c8	-0.029511347
245	0x3df9a4f4	0.121896654
246	0xbd9fb306	-0.07797818
247	0x3db866dd	0.090039946
248	0x3daab7dc	0.0833585
249	0xbde2c5b1	-0.11072863
250	0xbd03e488	-0.032200366
251	0x3d49aa46	0.04923465
252	0x3c656d7c	0.014003154
253	0x3c9f7365	0.019464204
254	0x3ded0696	0.11573522
255	0x3dd09ef4	0.10186568

egnn.layers.0.hidden_mlp.0.bias f4 [32]
0	0x3d7e5a99	0.06209812
1	0xbb928e87	-0.004472557
2	0x3d00a34c	0.031405732
3	0xbdc31756	-0.09525935
4	0x3d39a578	0.04532382
5	0xbb7fa3f3	-0.0039007633
6	0xbd8d4133	-0.068972014
7	0xbddcd3ae	-0.10782562
8	0x3d45850b	0.048222583
9	0xbda96a4f	-0.0827223
10	0x3cd1ff8c	0.02563455
11	0xbe107620	-0.14107561
12	0x3d860858	0.0654456
13	0x3d751d9b	0.059842687
14	0xb9243235	-0.00015658962
15	0xbbf4bb1e	-0.007468595
16	0x3e09fc71	0.13475205
17	0x3d376638	0.044775218
18	0xbdc1def5	-0.09466354
19	0xbd74cfb3	-0.05976839
20	0xbd6ffc08	-0.058589965
21	0xbdb2a988	-0.08723742
22	0xbdcd9775	-0.10038654
23	0xbb9f021c	-0.0048525464
24	0xbdb18ec3	-0.08669808
25	0xbc23d822	-0.010000261
26	0x3d18a1fb	0.03726385
27	0xbd94c255	-0.072636284
28	0xbd6d0aa8	-0.05787149
29	0xbe0eabf7	-0.13932787
30	0x3d29f0ca	0.0414894
31	0x3d037365	0.03209247

egnn.layers.0.hidden_mlp.2.weight f4 [16, 32]
0	0xbe0a0982	-0.1348019
1	0xbdd8cab9	-0.10585541
2	0xbcf53d9c	-0.029936604
3	0x3ad09fdb	0.0015916781
4	0x3c26bebc	0.010177311
5	0x3e1f2311	0.1554072
6	0xbe240e38	-0.16021049
7	0x3d948c46	0.072533175
8	0x3e0c8fb9	0.13726701
9	0x3e231149	0.15924563
10	0x3cf4081b	0.029789021
11	0x3e208e89	0.15679373
12	0xbdbe5580	-0.092936516
13	0xbe00cc39	-0.12577905
14	0xbd28a504	-0.041172996
15	0xbdb9c364	-0.09070471
16	0x3da992e1	0.08279968
17	0xbd419625	-0.04726233
18	0x3db396d5	0.08769003
19	0xbd7c9d05	-0.061673183
20	0xbda0a4b2	-0.07843913
21	0xbd5d8fa0	-0.05409205
22	0xbc951a1e	-0.01820093
23	0xbdaabe9b	-0.08337136
24	0x3dcefd33	0.10106888
25	0x3de966fd	0.113965966
26	0x3d0823b7	0.033237185
27	0xbe2d8daf	-0.16948579
28	0x3e1154ab	0.14192455
29	0xbe02ac24	-0.12760979
30	0xbdfa144c	-0.122109026
31	0x3db92b8b	0.09041508
32	0xbdd4eff2	-0.103973284
33	0xbe0ce9dd	-0.13761087
34	0xbe079a9f	-0.13242577
35	0x3e191bfb	0.1495208
36	0x3d502317	0.050814714
37	0x3daf6148	0.08563477
38	0x3d146b5e	0.036235206
39	0x3da8208e	0.08209334
40	0x3e346021	0.17614795
41	0xbcd7c972	-0.026341174
42	0xbde4f117	-0.11178797
43	0xbd141b6f	-0.036158975
44	0xbd876b23	-0.066122316
45	0xbe2ba22d	-0.16761084
46	0xbe06a4e6	-0.13148841
47	0xbd7f7740	-0.062369585
48	0x3d0f98d4	0.035057858
49	0x3db58122	0.08862521
50	0x3dead093	0.114655636
51	0xbe334c8b	-0.17509668
52	0xbc6fda74	-0.014639486
53	0xbd0ed6b4	-0.034872726
54	0x3e18584b	0.14877431
55	0xbd422e59	-0.04740748
56	0x3e3a6360	0.18201971
57	0x3d265cb2	0.040615745
58	0x3cc27331	0.023736568
59	0x3d9c53c8	0.076331675
60	0x3e07931a	0.13239709
61	0xbdc3b293	-0.09555545
62	0x3d9af4ae	0.075662
63	0xbd8d8294	-0.069096714
64	0x3d3be536	0.04587289
65	0x3dd7b714	0.10532966
66	0xbda2e5aa	-0.07953961
67	0xbd42eed4	-0.047591045
68	0x3e278548	0.16359437
69	0xbe29cc7c	-0.16581911
70	0xbce85183	-0.02835918
71	0x3e15871d	0.14602323
72	0x3d1b561a	0.03792391
73	0xbe14a131	-0.14514615
74	0x3c0e006d	0.008667094
75	0xbe136395	-0.14393456
76	0xbd87ad54	-0.066248566
77	0x3d1366fc	0.035986885
78	0x3dc48196	0.09595029
79	0xbdc9110e	-0.09817706
80	0x3e1e2d2f	0.15446924
81	0xbdff6b68	-0.12471658
82	0xbd11fca0	-0.035641313
83	0xbe1ba7f8	-0.15200794
84	0xbbb06241	-0.0053828065
85	0xbbca0992	-0.0061656917
86	0x3d99c808	0.07508856
87	0xbdf53667	-0.11973267
88	0x3bf7e63f	0.0075652893
89	0x3d680fad	0.056655575
90	0xbde32340	-0.11090708
91	0x3e1ece0f	0.15508293
92	0xbd0ff31b	-0.035143953
93	0xbe389b3a	-0.18027964
94	0xbd01ad31	-0.03165931
95	0x3d2abd97	0.041684713
96	0xbdb50c68	-0.08840257
97	0xbd88ed0c	-0.06685838
98	0x3d9c4560	0.0763042
99	0xbd09dc06	-0.033657096
100	0x3d82dbff	0.06389617
101	0x3c450766	0.01202569
102	0xbb818456	-0.0039525433
103	0x3e15cb5a	0.14628354
104	0xbce4bab7	-0.027921064
105	0x3e10ef0f	0.14153694
106	0xbd8235f8	-0.0635795
107	0x3de7e422	0.1132281
108	0x3dbe10ed	0.09280572
109	0xbdea3f54	-0.1143786
110	0xbd33a9ab	-0.04386298
111	0xbdf047d5	-0.11732451
112	0x3d0e14b7	0.034687724
113	0x3bf06281	0.0073359613
114	0xbd69729a	-0.05699406
115	0x3e1a7547	0.150838
116	0x3e2e05be	0.16994378
117	0xbe0231bc	-0.12714285
118	0xbdc3479a	-0.09535141
119	0x3c91cc24	0.017797537
120	0x3de4ff4b	0.11181506
121	0xbdd844d7	-0.10560005
122	0xbc83b160	-0.01607579
123	0xbcfa84b4	-0.030580856
124	0xbe12e1c0	-0.1434393
125	0xbc255373	-0.010090697
126	0xbbf2611e	-0.007396831
127	0x3d3755cb	0.044759553
128	0x3e0151a0	0.12628794
129	0xbc039dd8	-0.008033238
130	0x3e02eca4	0.12785584
131	0xbd8106e6	-0.06300144
132	0xbdecbdeb	-0.115596615
133	0x3d8d6190	0.06903374
134	0x3df80497	0.121102504
135	0xbbe9418d	-0.00711841
136	0xbdf55b9d	-0.119803645
137	0xbdaf6e20	-0.085659266
138	0xbdc54ebc	-0.09634158
139	0x3d2a75b1	0.041616146
140	0x3d426a3f	0.047464605
141	0xbe235f1b	-0.15954249
142	0xbcfd6be8	-0.030935243
143	0x3d26b170	0.04069656
144	0xbd978ac0	-0.07399511
145	0x3e31fe4a	0.1738216
146	0x3e13362a	0.1437613
147	0xbdaf881d	-0.085708834
148	0x3c85e4af	0.016344396
149	0xbd03be30	-0.0321638
150	0xbe1b41ed	-0.15161867
151	0x3c660da2	0.014041336
152	0x3e033514	0.12813216
153	0x3dd48be0	0.103782415
154	0x3db641ad	0.088992454
155	0xbd6c660d	-0.05771451
156	0xbdcca6f8	-0.09992784
157	0xbe181aa0	-0.14853907
158	0xbe22496f	-0.15848325
159	0x3c024d72	0.007953035
160	0x3e06cef7	0.13164888
161	0x3d3cbda9	0.04607931
162	0xbd171b47	-0.036891248
163	0x3c89f325	0.016839573
164	0x3d267618	0.040639967
165	0xbd98a9f3	-0.0745429
166	0x3de29730	0.11063993
167	0x3d951631	0.07279623
168	0xbd448a92	-0.047983713
169	0xbc998d60	-0.01874417
170	0xbe2251a7	-0.1585146
171	0x3da85451	0.08219207
172	0x3cf2f8bb	0.02965962
173	0x3e016a5a	0.12638226
174	0x3d6e7091	0.05821282
175	0xbe15bb03	-0.1462212
176	0xbd446dca	-0.047956266
177	0x3dcd9447	0.10038047
178	0x3e1b7976	0.15183052
179	0x3d54fda1	0.051999692
180	0x3e154f63	0.14581065
181	0x3e33acc2	0.1754637
182	0xbd667a73	-0.05626912
183	0x3d046133	0.03231926
184	0x3e2353a5	0.15949877
185	0xbc982241	-0.018571021
186	0xbdc72770	-0.09724319
187	0xbe00021b	-0.12500803
188	0xbd9357d0	-0.07194483
189	0xbe3b16bd	-0.18270393
190	0xbda66677	-0.08125012
191	0x3db61af3	0.08891859
192	0x3e14f1da	0.14545384
193	0x3d010bfe	0.031505577
194	0xbd9cfe69	-0.076657124
195	0xbde14656	-0.10999744
196	0xbe10bf7d	-0.14135547
197	0x3cfdf8df	0.03100246
198	0x3e210138	0.15723121
199	0xbdf6e8e6	-0.120561406
200	0x3e373237	0.17890249
201	0xbdaabf8b	-0.08337315
202	0xbdf5c813	-0.12001052
203	0x3dc21672	0.09476937
204	0xbddd3e09	-0.10802848
205	0x3e1e3b58	0.15452325
206	0xbe24ddc1	-0.16100217
207	0x3de0269b	0.109448634
208	0x3e1facaf	0.15593217
209	0xbd580b85	-0.05274536
210	0xbdc85fe8	-0.09783918
211	0xbd761284	-0.06007625
212	0x3e1a823a	0.1508874
213	0xbe04d26b	-0.12970893
214	0x3e1f5f43	0.15563683
215	0x3e2a9518	0.16658437
216	0xbd8f9514	-0.07010856
217	0x3e12a0f4	0.14319211
218	0x3b2fbca5	0.0026815322
219	0x3d1d9739	0.038474295
220	0xba2ade10	-0.0006518075
221	0x3d2a8775	0.04163309
222	0x3e211531	0.1573074
223	0x3d18cb48	0.03730324
224	0x3c8f910b	0.017525217
225	0xbdd06521	-0.10175539
226	0x3df8c55a	0.12147017
227	0xbd79c933	-0.060982894
228	0xbe1017be	-0.14071557
229	0xbe2b82fe	-0.16749188
230	0x3e282325	0.16419657
231	0x3d8c25e0	0.068431616
232	0xbd95a2aa	-0.07306416
233	0xbde22348	-0.110418856
234	0x3b3fb49b	0.0029251936
235	0xbcff42b1	-0.03115973
236	0xba425506	-0.0007413182
237	0x3e0cb622	0.13741353
238	0xbdb6751a	-0.08909054
239	0x3cf982e1	0.030457916
240	0x3dc17efe	0.0944805
241	0x3e0b93a0	0.13630533
242	0x3d08a6b9	0.033362124
243	0xbde720e0	-0.11285567
244	0xbd211dbe	-0.039335005
245	0xbcc9c4b2	-0.024629924
246	0xbd459eff	-0.048247334
247	0xbe29cdee	-0.16582462
248	0xbbcb2d8a	-0.006200497
249	0x3e1ede68	0.15514529
250	0xbda5c8d4	-0.080949455
251	0xbd917132	-0.071016684
252	0xbdefa738	-0.11701816
253	0x3d24acfc	0.040204033
254	0xbddbbfc8	-0.10729939
255	0x3ca8d41f	0.02060896

egnn.layers.0.hidden_mlp.2.bias f4 [16]
0	0x3c9b7021	0.018974366
1	0xbe0b525e	-0.1360564
2	0x3e10af64	0.14129406
3	0xbab8d21a	-0.0014100701
4	0xbde7d6d4	-0.11320272
5	0x3da481b5	0.08032552
6	0xbe001bb3	-0.12510566
7	0x3920ad24	0.00015323289
8	0xbddef2f7	-0.108861856
9	0x3c3e4cff	0.011615037
10	0x3c979ae9	0.018506484
11	0x3e060fe7	0.13092004
12	0xbd6c0d24	-0.05762972
13	0x3dbb3cac	0.091424316
14	0x38ca1fd3	9.638038e-05
15	0x3dc80656	0.097668335
