1-init-experiments/logs/test-grid12-2024-09-22@20-15-05/best-1725.pt (torch, 20943 bytes, 12 tensors)

egnn.layers.0.message_mlp.0.weight f4 [16, 17]
-0.13250013 -0.35877985 -0.5018158 0.45704162 0.29260448 -0.5703802 -0.2836535 -0.21289493
-0.36091125 -0.62079096 -0.028199796 -0.07817994 0.6024663 -0.32975018 -0.651281 -0.17048483
-0.37556076 0.1488818 -0.15679766 -0.25060794 0.24234125 -0.12514912 -0.14076872 -0.10983706
-0.05370653 -0.20593043 -0.19561589 -0.13531585 -0.0974401 0.09896946 0.026714118 -0.31429777
-0.15709701 -0.48222008 0.16890147 -0.10361867 -0.3134323 0.03352268 0.17699139 0.067220025
-0.23581219 -0.15795635 -0.39039797 -0.061818995 -0.00023885272 -0.10561657 0.179907 -0.2846679
-0.06216997 0.03078791 -0.39566094 -0.13503136 -0.27027807 -0.14476018 0.045667343 0.26188052
0.047703605 0.04457115 -0.055616107 -0.47090432 -0.64126587 0.21035181 -0.10026688 0.47069922
-0.5381908 -0.33220324 -0.36919418 -0.5299391 -0.058269445 -0.0037060196 0.013153379 -0.25560832
-0.30290303 0.07973165 0.08771208 0.017958092 0.29066792 -0.12573881 -0.25054914 -0.096635826
-0.3914192 -0.030637572 -0.032374274 0.12293993 0.08776761 -0.0302249 -0.27672818 -0.0069981925
0.18739511 0.43605736 -0.069134586 -0.24076237 -0.12416451 -0.1564412 0.037353285 -0.11588773
-0.1386521 0.0073182005 0.15530448 -0.14249313 -0.24886362 -0.25899425 -0.12029985 0.2770405
0.102925636 -0.38212132 -0.41592002 0.07749127 -0.1702869 0.048213594 0.054822467 0.18098903
0.02947868 -0.11061233 -0.004026334 -0.05131686 0.060893532 0.111163884 0.25458595 0.14972767
0.27194253 0.48123434 -0.021914031 -0.2036279 0.024442617 -0.14301945 -0.015022834 0.10916844
0.020838482 -0.010052071 -0.14136834 0.021730606 0.018373854 0.3029757 0.32365334 0.23449104
-0.22016272 0.11042007 0.013046291 0.020069832 -0.36662158 -0.21710086 0.3118203 0.17331359
0.4363156 -0.007640952 -0.08507332 0.2549832 -0.07775956 -0.22765678 0.23367964 0.31838053
0.106698275 -0.26935342 -0.45968845 -0.064448796 0.35214534 0.6457872 -0.5839103 -0.27343765
-0.18356769 -0.34086043 -0.20935343 -0.065513626 -0.0733427 0.4386233 -0.09155246 -0.29842332
-0.17142539 -0.27072507 -0.41554296 -0.04569477 -0.39402983 -0.23870528 -0.11417523 -0.13956222
-0.20228717 0.0076795095 -0.30248538 -0.25788546 0.03134969 0.26535073 0.4951349 -0.5232263
-0.45014355 -0.3652518 0.13843024 -0.3416733 0.063159525 0.14584547 -0.3021298 -0.28605366
-0.080560334 0.008556221 -0.2227854 -0.19029143 -0.30916968 0.28767443 0.19024459 0.34495932
-0.040664297 -0.24532597 -0.340671 0.31149083 -0.10057152 -0.2937391 0.2357759 0.18969533
-0.13068402 -0.15560031 -0.32376546 0.18388951 -0.008705554 0.42611897 0.3218123 -0.16346905
-0.22993925 0.33559102 0.5858205 0.16781524 0.058030892 0.16086105 0.07488824 -0.014612171
-0.1288184 -0.04278487 0.37292352 0.092525594 0.24661347 -0.004365571 0.21463251 0.34923923
-0.21011391 0.07983641 0.13389722 0.5182804 0.18405558 -0.13167222 0.060108986 -0.034759052
0.091555215 -0.18715133 -0.02254244 -0.10076224 0.24529226 0.19362085 0.26125905 -0.1296276
-0.029667288 0.20908517 0.1233063 -0.060558222 0.08544165 0.46502826 0.27264833 -0.08480185
00000000: 1dae 07be feb1 b7be 0077 00bf 5c01 ea3e
00000010: 41d0 953e 7004 12bf 083b 91be 2101 5abe
00000020: 5cc9 b8be 28ec 1ebf 4203 e7bc ce1c a0bd
00000030: 3b3b 1a3f 04d5 a8be 5aba 26bf 9393 2ebe
00000040: 8049 c0be 7874 183e 918f 20be af4f 80be
00000050: 4e28 783e 1727 00be ad25 10be 41f2 e0bd
00000060: 61fb 5bbd 6ddf 52be 884f 48be 3d90 0abe
00000070: ad8e c7bd 80b0 ca3d 91d7 da3c a3eb a0be
00000080: 0ade 20be 8de5 f6be 82f4 2c3e 0636 d4bd
00000090: 337a a0be 144f 093d 3b3d 353e a7aa 893d
000000a0: c078 71be 4fbf 21be 3ee2 c7be ea35 7dbd
000000b0: 8a74 7ab9 804d d8bd 8a39 383e febf 91be
000000c0: f0a5 7ebd ed36 fc3c 1294 cabe a945 0abe
000000d0: e361 8abe 033c 14be ae0d 3b3d 3415 863e
000000e0: db64 433d 3d90 363d b7cd 63bd 5f1a f1be
000000f0: 002a 24bf 7766 573e b958 cdbd 7dff f03e
00000100: dfc6 09bf 8b16 aabe 0507 bdbe 17aa 07bf
00000110: f1ab 6ebd b1e0 72bb 4581 573c 18df 82be
00000120: 1b16 9bbe 594a a33d 64a2 b33d d91c 933c
00000130: 6dd2 943e adc1 00be fa47 80be 01e9 c5bd
00000140: 1968 c8be a5fb fabc e39a 04bd eec7 fb3d
00000150: 81bf b33d 369a f7bc 51af 8dbe 1851 e5bb
00000160: 81e4 3f3e e942 df3e 6f96 8dbd 698a 76be
00000170: f649 febd 1f32 20be c2ff 183d 8c56 edbd
00000180: d1fa 0dbe 84cd ef3b 2308 1f3e b8e9 11be
00000190: 1bd6 7ebe e59a 84be c55f f6bd 41d8 8d3e
000001a0: adca d23d 68a5 c3be 78f3 d4be beb3 9e3d
000001b0: b05f 2ebe 9e7b 453d 868d 603d 3055 393e
000001c0: 467d f13c b888 e2bd 56ef 83bb a131 52bd
000001d0: 7f6b 793d e4a9 e33d 1759 823e 3652 193e
000001e0: 0d3c 8b3e 5964 f63e 0e85 b3bc d583 50be
000001f0: e23b c83c b173 12be 5522 76bc b493 df3d
00000200: 77b5 aa3c 71b1 24bc ddc2 10be 6204 b23c
00000210: c484 963c a21f 9b3e e4b5 a53e 6b1e 703e
00000220: 5672 61be eb23 e23d 1cc0 553c 7d69 a43c
00000230: d3b5 bbbe b04f 5ebe e9a6 9f3e 1e79 313e
00000240: c264 df3e f360 fabb ec3a aebd 288d 823e
00000250: 6740 9fbd dc1e 69be b749 6f3e c602 a33e
00000260: a084 da3d b1e8 89be 495c ebbe bbfd 83bd
00000270: 654c b43e 4f52 253f 257b 15bf 0500 8cbe
00000280: 2bf9 3bbe 4285 aebe bf60 56be 022c 86bd
00000290: b334 96bd 3c93 e03e db7f bbbd f1ca 98be
000002a0: 238a 2fbe 7a9c 8abe 0cc2 d4be 702a 3bbd
000002b0: 47be c9be 286f 74be b4d4 e9bd 66e9 0ebe
000002c0: 5e24 4fbe 65a4 fb3b 5ddf 9abe 9009 84be
000002d0: 8868 003d 0ddc 873e 5282 fd3e 29f2 05bf
000002e0: 3779 e6be 4902 bbbe a8c0 0d3e ceef aebe
000002f0: c859 813d 8458 153e c2b0 9abe a075 92be
00000300: d1fc a4bd 642f 0c3c db21 64be c2db 42be
00000310: 7d4b 9ebe 104a 933e 7acf 423e 829e b03e
00000320: 9b8f 26bd bb36 7bbe 6e6c aebe ba7b 9f3e
00000330: 71f8 cdbd f964 96be 3d6f 713e 7e3f 423e
00000340: 08d2 05be b055 1fbe 96c4 a5be 884d 3c3e
00000350: bda1 0ebc 442c da3e 95c4 a43e 6e64 27be
00000360: 3275 6bbe 96d2 ab3e 55f8 153f c2d7 2b3e
00000370: cdb1 6d3d c2b8 243e 015f 993d e367 6fbc
00000380: f8e8 03be 303f 2fbd d5ef be3e 0f7e bd3d
00000390: 3e88 7c3e 100d 8fbb a0c8 5b3e 7ccf b23e
000003a0: 1a28 57be 4681 a33d 5a1c 093e 06ae 043f
000003b0: 1179 3c3e 15d5 06be d734 763d 825f 0ebd
000003c0: 4d81 bb3d 99a4 3fbe ecaa b8bc 6f5c cebd
000003d0: e52d 7b3e 8b44 463e bfc3 853e 19bd 04be
000003e0: d008 f3bc 6c1a 563e 0388 fc3d e60b 78bd
000003f0: 08fc ae3d 2f18 ee3e 9098 8b3e 98ac adbd

egnn.layers.0.message_mlp.0.bias f4 [16]
-0.26562098 -0.33563843 -0.061360538 -0.085154526 0.32569003 -0.019000791 0.15141694 0.27289292
0.38081366 -0.1553666 0.0028212755 0.07622625 0.44230458 0.32589206 0.17011806 0.6805102
00000000: 79ff 87be cdd8 abbe 3055 7bbd 7f65 aebd
00000010: d8c0 a63e 8ca7 9bbc 0b0d 1b3e 9fb8 8b3e
00000020: 02fa c23e 6c18 1fbe 26e5 383b 821c 9c3d
00000030: bf75 e23e 53db a63e 6e33 2e3e eb35 2e3f

egnn.layers.0.message_mlp.2.weight f4 [16, 16]
0.49561784 0.50431335 0.1931299 0.5813513 -0.13824132 0.16898635 -0.5254127 -0.5109883
-0.5344643 0.08935971 0.54320085 0.34436005 -0.7489267 -0.5053544 -0.4982162 -0.5371823
-0.47000962 -0.31340972 -0.31068277 -0.33641788 0.38337728 0.0438093 0.3063343 -0.07550239
0.21294007 -0.36091366 -0.10734872 0.17168294 -0.13444375 -0.20537299 -0.06567819 0.17098968
0.09381462 0.32891187 -0.0114657665 0.18471837 -0.25893456 0.288748 0.045175824 -0.45753986
-0.50637394 0.2675288 -0.15641585 -0.30370998 -0.42323995 -0.28743163 -0.3783027 -0.40298975
-0.44933453 -0.10246756 -0.21337421 -0.41072226 0.16454507 0.13568708 0.12132492 -0.07379572
-0.062135875 -0.061346516 -0.12540509 0.12964728 0.2925386 0.17614023 0.012470581 0.4524641
0.20965995 -0.28094187 -0.124189965 0.28527954 -0.09435274 -0.301261 -0.21581148 -0.29816407
0.16024825 0.056233037 0.38017496 0.45503196 -0.5056139 -0.22515139 -0.042901497 -0.30530345
0.43613607 0.224196 -0.04174176 -0.091538146 -0.37345806 0.32752723 -0.33568695 -0.08643606
-0.4835441 0.24057673 0.17122608 -0.1507272 0.26313812 -0.282559 -0.38134858 -0.072097145
0.29203808 -0.20795391 -0.093631 0.15237845 -0.07048906 -0.113704264 0.14228523 -0.018038057
0.10324438 -0.037147753 0.15355372 0.2475798 0.042451717 0.14082727 0.21143907 0.45686284
-0.35329604 -0.112156086 -0.31858388 -0.32569525 0.12434285 -0.26478475 -0.066204526 0.05914159
-0.103074126 -0.08325458 0.09248987 -0.0021768203 -0.30281186 -0.20614639 0.20101635 0.16352402
0.34980303 0.1561632 0.115533665 0.2222541 -0.13376062 0.022174347 -0.31151506 -0.044133265
-0.19289012 0.29070666 -0.011221968 -0.15162307 -0.26359522 -0.24561742 -0.35940817 -0.3632355
-0.33480185 0.019093359 -0.024451891 -0.33421022 0.316917 -0.308621 0.30407083 0.06268864
0.28369802 -0.45827132 0.33687347 0.06352178 0.03414116 0.039641224 0.14557062 -0.15022065
0.3093809 0.20051524 0.37081033 0.38779983 -0.22470896 0.2244707 -0.29219735 -0.4767386
-0.07379697 0.26807815 -0.010981977 0.015145985 -0.17467551 -0.21361977 -0.07515327 -0.30037594
0.31141266 0.23569207 0.27609676 0.44822648 -0.14168341 0.23037973 -0.12137793 0.031383067
0.027471136 0.21114798 -0.20880222 -0.20207758 -0.045954835 0.13520867 -0.17521693 -0.17344017
-0.3273619 -0.40635163 -0.08407994 -0.14564815 0.32938704 -0.1593659 0.09442318 0.22950637
0.06461185 -0.35553202 -0.19144979 0.13619728 0.20610714 0.2532035 -0.01815967 0.4915403
-0.18661986 -0.30674836 -0.36808723 -0.25615677 0.30678135 -0.29671147 0.21011199 0.20623598
0.13222072 -0.28450334 -0.04627112 0.2984372 0.06807642 -0.13662647 -0.078373395 0.1445069
-0.32924917 -0.1431574 -0.098693885 0.02674877 0.07487816 -0.32557654 0.22124949 0.1854844
0.2799559 -0.2825201 -0.07024156 -0.03661116 0.2581712 -0.103942014 0.32621005 0.19629464
0.29771444 0.4955897 0.122677766 0.4986095 -0.33426765 0.14688765 -0.15151627 -0.34315866
-0.23888062 0.50456065 0.19906075 -0.11151186 -0.08136262 -0.45559615 -0.38736427 -0.022778768
00000000: 9fc1 fd3e ae1a 013f d8c3 453e 70d3 143f
00000010: 228f 0dbe c20a 2d3e 7281 06bf 21d0 02bf
00000020: a7d2 08bf 3902 b73d 360f 0b3f f64f b03e
00000030: a9b9 3fbf e85e 01bf 3216 ffbe c784 09bf
00000040: 1aa5 f0be 3d77 a0be d011 9fbe f73e acbe
00000050: 074a c43e 6171 333d d9d7 9c3e ffa0 9abd
00000060: f60c 5a3e adc9 b8be a5d9 dbbd a7cd 2f3e
00000070: 9fab 09be 4c4d 52be 4982 86bd eb17 2f3e
00000080: e121 c03d 2367 a83e e9da 3bbc d026 3d3e
00000090: 1293 84be c7d6 933e 490a 393d aa42 eabe
000000a0: b9a1 01bf 89f9 883e 7a2b 20be e07f 9bbe
000000b0: e8b2 d8be 3d2a 93be e4b0 c1be ac54 cebe
000000c0: 2d0f e6be 83da d1bd c57e 5abe 304a d2be
000000d0: 817e 283e 8ef1 0a3e 3379 f83d 3622 97bd
000000e0: 3082 7ebd 7c46 7bbd 316a 00be 42c2 043e
000000f0: 9fc7 953e 1b5e 343e 6851 4c3c 60a9 e73e
00000100: 19b1 563e 9dd7 8fbe 4f57 febd 2910 923e
00000110: 023c c1bd e23e 9abe affd 5cbe f6a8 98be
00000120: 1e18 243e 9d54 663d 4ba6 c23e f3f9 e83e
00000130: ea6f 01bf 168e 66be 7bb9 2fbd bc50 9cbe
00000140: 3a4d df3e a393 653e 68f9 2abd 5a78 bbbd
00000150: e535 bfbe a6b1 a73e 29df abbe 6405 b1bd
00000160: 1893 f7be bf59 763e e455 2f3e 3b58 1abe
00000170: 0aba 863e 93ab 90be 1f40 c3be aba7 93bd
00000180: 0486 953e dff1 54be 9cc1 bfbd 1909 1c3e
00000190: 915c 90bd c8dd e8bd 38b3 113e 8cc4 93bc
000001a0: ca71 d33d 3e28 18bd 303d 1d3e 8f85 7d3e
000001b0: dae1 2d3d 0635 103e 7c83 583e ede9 e93e
000001c0: 38e3 b4be 17b2 e5bd 6d1d a3be 87c1 a6be
000001d0: 77a7 fe3d de91 87be 3d96 87bd 743e 723d
000001e0: 8718 d3bd 6181 aabd 546b bd3d fca8 0ebb
000001f0: 280a 9bbe 0a18 53be 3bd7 4d3e d772 273e
00000200: 6219 b33e 3fe9 1f3e ea9c ec3d 9496 633e
00000210: 8bf8 08be faa6 b53c e77e 9fbe 15c5 34bd
00000220: fd84 45be 81d7 943e 58dc 37bc 1443 1bbe
00000230: f4f5 86be 2283 7bbe 5904 b8be 01fa b9be
00000240: 266b abbe ad69 9c3c 554f c8bc 9a1d abbe
00000250: f242 a23e 9203 9ebe 2caf 9b3e e762 803d
00000260: de40 913e 8aa2 eabe ae7a ac3e b517 823d
00000270: 9ad7 0b3d d65e 223d 7710 153e 71d3 19be
00000280: 2c67 9e3e de53 4d3e dada bd3e b38d c63e
00000290: 1b1a 66be a6db 653e e49a 95be 1517 f4be
000002a0: de22 97bd 8a41 893e c0ed 33bc de26 783c
000002b0: 23de 32be 24bf 5abe f5e9 99bd e0ca 99be
000002c0: 7b71 9f3e 4359 713e 8e5c 8d3e f17d e53e
000002d0: 7515 11be aae8 6b3e fe94 f8bd 888b 003d
000002e0: 260b e13c 2d37 583e 40d0 55be 6ded 4ebe
000002f0: 233b 3cbd 2474 0a3e 116c 33be 4d9a 31be
00000300: fb9b a7be 520d d0be 1b32 acbd ca24 15be
00000310: 6ba5 a83e d130 23be f160 c13d b803 6b3e
00000320: 3853 843d 4b08 b6be 6a0b 44be 4d77 0b3e
00000330: c00d 533e e4a3 813e 97c3 94bc 2cab fb3e
00000340: 4719 3fbe 1f0e 9dbe ee75 bcbe fb26 83be
00000350: 7212 9d3e 91ea 97be 9927 573e 862f 533e
00000360: de64 073e 6caa 91be c986 3dbd c3cc 983e
00000370: a66b 8b3d cfe7 0bbe 3b82 a0bd 9ef9 133e
00000380: 5993 a8be da97 12be 0520 cabd 3d20 db3c
00000390: b959 993d f8b1 a6be 3a8f 623e 9fef 3d3e
000003a0: 6156 8f3e 79a6 90be cfda 8fbd 95f5 15bd
000003b0: 042f 843e 8ddf d4bd 0105 a73e 7601 493e
000003c0: 076e 983e efbd fd3e 7b3e fb3d bf49 ff3e
000003d0: 2125 abbe b769 163e 1527 1bbe 7eb2 afbe
000003e0: 1f9d 74be e32a 013f 95d6 4b3e 5460 e4bd
000003f0: 72a1 a6bd e643 e9be 9c54 c6be 8a9a babc

egnn.layers.0.message_mlp.2.bias f4 [16]
0.06950842 0.3017804 -0.13975017 0.53950095 0.0019403509 -0.16807221 0.5150362 -0.058683947
-0.20627499 0.13742287 -0.08958756 -0.2941516 0.23490448 0.09332434 0.31913963 -0.29706228
00000000: 6e5a 8e3d f682 9a3e ab1a 0fbe bc1c 0a3f
00000010: 5f53 fe3a 1f1b 2cbe 6ad9 033f 945e 70bd
00000020: c039 53be 95b8 0c3e af79 b7bd 0a9b 96be
00000030: cd8a 703e d520 bf3d 4566 a33e 8c18 98be

egnn.layers.0.coords_mlp.0.weight f4 [3, 16]
-0.2731897 0.47393963 -0.43499485 0.35024163 0.02089094 -0.33759156 0.25523013 0.020603051
-0.4588697 0.04001377 -0.60435426 -0.056486588 0.41613176 0.44282937 0.30836728 -0.39654878
-0.8000391 0.30724406 -0.5136841 0.46617708 -0.5279523 -0.072950535 0.024181798 0.4613655
-0.31557894 0.067256585 -0.45793176 -0.37839398 0.061623722 0.097278945 -0.08770763 -0.2588117
0.67808646 -0.05389976 0.31530717 -0.1597599 0.41685987 0.4807756 0.1518137 -0.6525527
0.568608 -0.45361573 0.6929944 0.5403039 -0.59808594 -0.28905696 -0.4183322 0.6434008
00000000: 85df 8bbe 37a8 f23e a5b7 debe df52 b33e
00000010: 7a23 ab3c cdd8 acbe 86ad 823e bbc7 a83c
00000020: f8f0 eabe 7be5 233d f6b6 1abf 7b5e 67bd
00000030: 390f d53e 88ba e23e 51e2 9d3e 7108 cbbe
00000040: 5dcf 4cbf 184f 9d3e cd80 03bf c3ae ee3e
00000050: e227 07bf 1767 95bd e818 c63c 1938 ec3e
00000060: 9093 a1be d2bd 893d 0876 eabe dbbc c1be
00000070: 2869 7c3d 2f3a c73d 0fa0 b3bd f882 84be
00000080: 1397 2d3f ffc5 5cbd f16f a13e 1998 23be
00000090: a86e d53e 3828 f63e 0d75 1b3e b20d 27bf
000000a0: 4b90 113f 5240 e8be 1568 313f 5b51 0a3f
000000b0: 291c 19bf 46ff 93be a32f d6be eab5 243f

egnn.layers.0.coords_mlp.0.bias f4 [3]
0.32823634 0.24701571 -0.19578853
00000000: 980e a83e b0f1 7c3e ca7c 48be

egnn.layers.0.coords_mlp.2.weight f4 [1, 3]
-0.11283993 -0.3233301 0.17492612
00000000: 9f18 e7bd 868b a5be d51f 333e

egnn.layers.0.hidden_mlp.0.weight f4 [16, 24]
-0.23386483 0.071008354 -0.102212526 -0.12178615 0.00697083 0.042107604 0.079065576 -0.1776801
0.06337026 -0.10723652 -0.104326315 -0.118031606 0.33321077 -0.24940363 0.056337252 0.30710623
-0.15348922 0.18542121 -0.07322805 -0.08734129 -0.013347884 0.18806675 -0.16629708 -0.20169891
-0.09269212 0.0048985495 0.001718307 -0.057009473 -0.074739754 -0.17303637 -0.1000526 0.16835779
-0.17914477 0.12568018 0.076415084 -0.022095576 -0.22173367 0.1835303 -0.12877968 0.12091215
-0.01231663 -0.23967256 -0.04000595 0.04569562 -0.052301873 -0.029341696 -0.16742872 0.031249892
-0.08990339 -0.083832495 0.39688972 -0.04794548 0.1872272 -0.1938704 0.038765345 -0.10689665
0.020758566 -0.1095367 0.05590769 -0.14911604 -0.26648203 0.01230822 -0.012900035 -0.18950722
0.004225427 -0.28210363 0.054266363 -0.16619049 -0.1306983 -0.2142363 -0.02005485 0.081229806
-0.10088913 -0.23038194 -0.21619928 -0.06703248 0.00066994876 -0.056832377 -0.01951653 0.13369413
-0.067123644 -0.12982778 -0.013725459 -0.018166153 0.13650715 -0.1932165 0.08984839 -0.18487792
0.11178403 -0.26367822 0.15650547 -0.2039 0.01708608 -0.19090223 -0.21360385 -0.06494932
-0.18471986 0.18662147 -0.07247408 0.007163592 -0.083712764 -0.017045561 0.09765715 0.15085661
-0.051601816 -0.05905532 -0.013682193 0.16378511 0.02438043 -0.13432868 0.20051128 -0.222822
-0.054406144 0.066587925 -0.07691378 0.15057857 0.16685101 -0.12525766 -0.0036843435 0.14084035
-0.21209759 0.17427605 -0.1906279 -0.05991038 0.0021461085 -0.09043315 -0.04006332 0.11525319
-0.07242631 0.10801516 -0.13463925 0.13793227 0.08014273 0.04101185 -0.089349546 0.017699443
0.007940315 -0.03480128 0.07920844 -0.09826551 -0.21563132 0.0960664 -0.13673243 0.053363796
-0.07788078 -0.021042055 0.19200058 0.04887384 0.2693887 0.08018476 0.07421268 -0.04717565
0.18336065 -0.0763804 0.20856161 0.19987181 -0.031064834 -0.14941677 -0.06318606 0.0063994564
-0.020893304 0.16316785 -0.006322312 -0.07867055 0.08870451 0.061767183 -0.053627044 -0.072917394
0.1581105 -0.12542544 -0.23559314 -0.15211548 -0.17498362 0.083010994 0.07407717 -0.18017367
-0.13453673 -0.0020873297 -0.03398039 0.09866468 0.11509618 -0.097185895 0.045538228 -0.00138297
-0.14123885 0.07588295 0.04952947 -0.3133293 -0.22140442 -0.08740415 -0.041431777 0.06325026
0.16609523 0.1424367 -0.143269 0.014904872 0.1004361 -0.1779733 -0.16999985 -0.067819856
0.07984569 -0.32938737 -0.12459043 0.10073915 -0.11956788 0.23869635 0.08567062 -0.043268908
0.10406625 -0.2693906 -0.056975313 -0.096784025 0.14269537 0.046632558 -0.120497055 -0.13673031
-0.13664696 0.11512618 -0.028605172 -0.10367842 -0.06288813 -0.13410032 -0.1484686 -0.028964622
0.029339507 0.16653742 0.19450289 -0.02310234 0.16763563 0.16772707 -0.00048214037 0.3033459
0.0079775145 -0.10976886 0.052258313 0.1771663 -0.0063914848 0.15037873 -0.17852522 0.032554824
0.003130049 0.035732947 0.010686316 0.064945385 -0.15908347 0.12626544 -0.04111449 -0.043539234
-0.14219265 -0.10078355 0.2764108 -0.023642253 -0.22164482 0.03372023 -0.020015016 -0.011382416
00000000: 437a 6fbe d46c 913d cd54 d1bd 046b f9bd
00000010: 8f6b e43b 0679 2c3d 22ed a13d c6f1 35be
00000020: 44c8 813d d29e dbbd 09a9 d5bd 8eba f1bd
00000030: 9a9a aa3e aa63 7fbe e4c1 663d 073d 9d3e
00000040: 472c 1dbe 0fdf 3d3e 96f8 95bd fedf b2bd
00000050: 15b1 5abc 9294 403e c849 2abe 298a 4ebe
00000060: 5ed5 bdbd 0384 a03b d138 e13a c482 69bd
00000070: 2811 99bd 7230 31be 61e8 ccbd fc65 2c3e
00000080: ba71 37be 4eb2 003e 837f 9c3d c801 b5bc
00000090: 270e 63be 5eef 3b3e d2de 03be caa0 f73d
000000a0: b1cb 49bc b96c 75be 47dd 23bd 552b 3b3d
000000b0: 7d3a 56bd ff5d f0bc 6f72 2bbe c6ff ff3c
000000c0: 451f b8bd 5fb0 abbd 2135 cb3e 7b62 44bd
000000d0: 7db8 3f3e f685 46be 69c8 1e3d a1ec dabd
000000e0: de0d aa3c c754 e0bd 76ff 643d e0b1 18be
000000f0: 5570 88be 6ba8 493c ab5a 53bc 2e0e 42be
00000100: 7375 8a3b e36f 90be 6846 5e3d d72d 2abe
00000110: c6d5 05be c360 5bbe 124a a4bc d05b a63d
00000120: f69e cebd 3ee9 6bbe 5863 5dbe 5348 89bd
00000130: 809f 2f3a 11c9 68bd 21e1 9fbc 1de7 083e
00000140: 1f78 89bd 93f1 04be bfe0 60bc 2fd1 94bc
00000150: 88c8 0b3e 8cda 45be 6f02 b83d a350 3dbe
00000160: 07ef e43d d500 87be f842 203e 29cb 50be
00000170: 1bf8 8b3c e07b 43be f8ba 5abe 2604 85bd
00000180: 3427 3dbe b319 3f3e 4a6d 94bd 91bc ea3b
00000190: 9971 abbd 22a3 8bbc 7900 c83d 287a 1a3e
000001a0: 6d5c 53bd fee3 71bd 472b 60bc 49b7 273e
000001b0: 78b9 c73c 758d 09be d452 4d3e 732b 64be
000001c0: fad8 5ebd 405f 883d f984 9dbd 4531 1a3e
000001d0: feda 2a3e 8b43 00be 0775 71bb 7438 103e
000001e0: 1c30 59be 6c75 323e f633 43be 9664 75bd
000001f0: baa5 0c3b 0435 b9bd 7019 24bd dd09 ec3d
00000200: 3f54 94bd 0d37 dd3d dfde 09be 1e3e 0d3e
00000210: df21 a43d 0bfc 273d e5fc b6bd 6cfe 903c
00000220: 1818 023c c98b 0ebd 0938 a23d 6d3f c9bd
00000230: 75ce 5cbe 76be c43d 9603 0cbe ff93 5a3d
00000240: f57f 9fbd 6360 acbc cd9b 443e f02f 483d
00000250: 51ed 893e e837 a43d d1fc 973d 413b 41bd
00000260: e5c2 3b3e 546d 9cbd 2d91 553e 32ab 4c3e
00000270: ae7b febc b600 19be b167 81bd 88b2 d13b
00000280: 6f28 abbc 7915 273e 662b cfbb 061e a1bd
00000290: b6aa b53d 96ff 7c3d 08a8 5bbd b755 95bd
000002a0: b8e7 213e 876f 00be 543f 71be 29c4 1bbe
000002b0: e82e 33be ab01 aa3d c5b5 973d 727f 38be
000002c0: ffc3 09be 95cb 08bb 052f 0bbd b510 ca3d
000002d0: 8cb7 eb3d 6609 c7bd 4b86 3a3d c644 b5ba
000002e0: eba0 10be 8568 9b3d 6adf 4a3d b36c a0be
000002f0: d7b7 62be f200 b3bd 5eb4 29bd 5a89 813d
00000300: de14 2a3e edda 113e 1cb5 12be 9033 743c
00000310: 71b1 cd3d a23e 36be 7114 2ebe 23e5 8abd
00000320: 2386 a33d 76a5 a8be 4429 ffbd 5450 ce3d
00000330: 01e0 f4bd d16c 743e 1474 af3d bd3a 31bd
00000340: b020 d53d 91ed 89be f25e 69bd b436 c6bd
00000350: bc1e 123e c801 3f3d 29c7 f6bd 0803 0cbe
00000360: 2eed 0bbe 46c7 eb3d 6555 eabc 5a55 d4bd
00000370: 7ecb 80bd 9851 09be 2708 18be 3747 edbc
00000380: 6859 f03c c988 2a3e c42b 473e 1e41 bdbc
00000390: ada8 2b3e a5c0 2b3e c9c7 fcb9 2750 9b3e
000003a0: 1fb4 023c 7fce e0bd d00c 563d 156b 353e
000003b0: a96f d1bb e2fc 193e 51cf 36be 3558 053d
000003c0: 8221 4d3b b65c 123d a815 2f3c 1602 853d
000003d0: c7e6 22be ba4b 013e ab67 28bd 3256 32bd
000003e0: f39a 11be 9b67 cebd b785 8d3e 66ad c1bc
000003f0: dcf6 62be 391e 0a3d 88f6 a3bc 507d 3abc

egnn.layers.0.hidden_mlp.0.bias f4 [16]
-0.0042038835 -0.0014419828 -0.21647972 -0.10878627 -0.021960799 -0.25317767 -0.07038917 -0.18752125
0.09781667 -0.06642775 -0.031589348 -0.09542849 0.18471992 -0.165674 0.08617592 0.41214707
00000000: bbc0 89bb ea00 bdba dcac 5dbe 56cb debd
00000010: 22e7 b3bc 81a0 81be 3228 90bd 9205 40be
00000020: 1b54 c83d 460b 88bd d563 01bd 0370 c3bd
00000030: 3827 3d3e 72a6 29be 007d b03d f104 d33e

egnn.layers.0.hidden_mlp.2.weight f4 [8, 16]
-0.16182238 0.087694906 0.016570391 0.12183151 0.17316687 -0.13396172 0.11733518 -0.0056678085
0.21211399 -0.185084 -0.26848108 0.18484814 -0.11351989 0.16256276 0.22469635 0.011411537
0.20421477 -0.2043106 -0.032907672 0.00900456 0.003371614 0.10504322 -0.19162299 0.09309635
-0.29133534 0.06895872 -0.0038493345 0.11380133 -0.09204928 -0.04591264 0.020739743 0.19384651
-0.016691951 -0.37452272 0.022596154 0.06992519 -0.15714505 -0.05511764 -0.17453577 0.016921425
0.14281811 0.09687091 -0.21631841 -0.0850601 -0.22145884 0.10200893 -0.15426448 -0.10368995
-0.1486597 0.1518758 0.2197128 0.29579955 0.18251678 -0.06659516 0.09464024 -0.01676807
0.18469247 -0.13246548 0.27281293 0.03902048 -0.05242341 0.09210257 0.15847601 -0.104193814
-0.31856894 -0.03871403 0.041415453 0.03704774 0.089487985 0.08177309 -0.09169802 -0.14924334
0.27912396 -0.10967154 0.17154889 -0.20893082 0.32471448 -0.00858577 -0.0959807 -0.11802362
-0.08403404 0.11190603 -0.25425354 0.07486058 -0.106798775 0.14824197 0.19445185 0.11924041
0.10353942 0.13681135 -0.012479421 0.10085201 -0.27753434 0.07215434 -0.14204337 0.3492025
0.13529995 0.050556168 -0.26675293 0.14180389 -0.023012778 0.16546823 -0.12056501 0.1663888
-0.010624826 -0.09794063 -0.29004663 0.088573396 -0.07279195 -0.05098962 0.038395837 0.23935734
-0.26034087 0.06821853 -0.12542315 -0.10574381 0.03205619 -0.09207141 0.163797 -0.16359448
-0.13576296 0.028836753 -0.35032806 0.13807039 0.12738127 -0.10738447 0.07334859 0.23173636
00000000: c4b4 25be 6399 b33d a1be 873c cc82 f93d
00000010: a852 313e 432d 09be 6d4d f03d 06b9 b9bb
00000020: 6934 593e a986 3dbe 5a76 89be d548 3d3e
00000030: 1e7d e8bd da76 263e cd16 663e 75f7 3a3c
00000040: ad1d 513e cc36 51be 32ca 06bd dd87 133c
00000050: 4cf6 5c3b e620 d73d d138 44be 4da9 be3d
00000060: e829 95be 3b3a 8d3d 1e45 7cbb ac10 e93d
00000070: 5584 bcbd e40e 3cbd 65e6 a93c b37f 463e
00000080: 8fbd 88bc 71c1 bfbe 921b b93c f034 8f3d
00000090: a2ea 20be 09c3 61bd 81b9 32be cd9e 8a3c
000000a0: e93e 123e 4164 c63d 9382 5dbe fd33 aebd
000000b0: 1bc6 62be 0fea d03d 82f7 1dbe 665b d4bd
000000c0: 403a 18be 5485 1b3e 64fc 603e 0a73 973e
000000d0: aee5 3a3e 0b63 88bd bed2 c13d 315d 89bc
000000e0: 0620 3d3e 08a5 07be 23ae 8b3e f0d3 1f3d
000000f0: eeb9 56bd 46a0 bc3d 8947 223e 9163 d5bd
00000100: 781b a3be 9a92 1ebd 40a3 293d 5fbf 173d
00000110: 7a45 b73d a678 a73d 2ccc bbbd 3fd3 18be
00000120: 56e9 8e3e 799b e0bd 83aa 2f3e f6f1 55be
00000130: fa40 a63e 54ab 0cbc 8791 c4bd 5eb6 f1bd
00000140: 0a1a acbd fd2e e53d 852d 82be 8150 993d
00000150: 51b9 dabd becc 173e 631e 473e 5134 f43d
00000160: 7a0c d43d 4618 0c3e 7c76 4cbc 808b ce3d
00000170: fb18 8ebe a8c5 933d d173 11be acca b23e
00000180: 128c 0a3e fc13 4f3d d793 88be 0a35 113e
00000190: 4b85 bcbc 8170 293e caea f6bd d361 2a3e
000001a0: c013 2ebc 1995 c8bd fe80 94be f865 b53d
000001b0: f213 95bd 7eda 50bd f444 1d3d 171a 753e
000001c0: 664b 85be 28b6 8b3d ed6e 00be 3690 d8bd
000001d0: 5a4d 033d ef8f bcbd 67ba 273e 5085 27be
000001e0: 7205 0bbe 0e3b ec3c 335e b3be 5362 0d3e
000001f0: 3c70 023e 64ec dbbd c937 963d 4c4c 6d3e

egnn.layers.0.hidden_mlp.2.bias f4 [8]
0.00024910178 -0.00090357126 0.0004534624 0.00018928666 -0.0032754794 -8.2333594e-05 -0.00023624951 0.00033668758
00000000: e099 8239 a4dd 6cba b1be ed39 407b 4639
00000010: 6da9 56bb 83aa acb8 bfb9 77b9 7185 b039

egnn.layers.0.attention_mlp.0.weight f4 [1, 16]
0.19670215 0.19846441 -0.13217054 -0.046625253 0.38621524 -0.23655702 0.47550935 -0.30656156
-0.17165844 -0.019528843 -0.0019189486 -0.27275592 0.21274164 -0.1661054 -0.044584695 -0.032007467
00000000: 4a6c 493e 413a 4b3e b757 07be 1ffa 3ebd
00000010: 01be c53e 013c 72be f675 f33e a3f5 9cbe
00000020: 3bc7 2fbe f4fa 9fbc 3b85 fbba aaa6 8bbe
00000030: f2d8 593e 8917 2abe 719e 36bd 431a 03bd
