2-egnca-rework/keep/cube4-2024-10-06@17-32-32/final@9999.pt (torch, 26146 bytes, 11 tensors)

egnn.layers.0.message_mlp.0.weight f4 [32, 33]
0	0x3dd196aa	0.10233815
1	0x3c6b28e4	0.014353011
2	0xbe4b6f7a	-0.19866744
3	0x3e2482d4	0.16065532
4	0xbd2ea532	-0.04263801
5	0xbdd666c3	-0.10468819
6	0xbe27649a	-0.1634697
7	0xbda40f48	-0.08010727
8	0x3ccc079c	0.024905972
9	0x3cc2f335	0.02379761
10	0x3e0b2e74	0.13591939
11	0xbddc695c	-0.10762283
12	0xbe0d8b63	-0.13822703
13	0x3b11a6fa	0.002222477
14	0xbd59b7b6	-0.053153716
15	0xbe47f415	-0.19526704
16	0x3e03b9b6	0.12863812
17	0xbdb842c6	-0.08997111
18	0xbe1b1c72	-0.1514757
19	0xbd7e09ac	-0.062020943
20	0xbe301029	-0.17193665
21	0xbd8c59cd	-0.06853066
22	0xbdf192b8	-0.117955625
23	0x3d0c7fec	0.034301683
24	0xbc87309b	-0.01650267
25	0x3d52d472	0.051472135
26	0x3dc305bd	0.09522579
27	0xbe2cde01	-0.16881563
28	0xbd325169	-0.04353467
29	0xbe31af01	-0.17351915
30	0xbe1fdfc8	-0.1561271
31	0xbda49da7	-0.08037882
32	0xbd1c2d44	-0.038129106
33	0xbd257f34	-0.040404513
34	0xbb41978d	-0.0029539794
35	0x3e103c82	0.14085582
36	0xbd8cb920	-0.06871247
37	0xbde115bc	-0.10990474
38	0xbcbf3f79	-0.023345696
39	0x3e3310ac	0.17486829
40	0x3d815bbc	0.06316325
41	0x3d356dfe	0.04429435
42	0xbe849170	-0.2589221
43	0xbe04b81b	-0.12960856
44	0xbe19ee9b	-0.15032427
45	0x3ddbbff4	0.107299715
46	0x3e25fb43	0.1620913
47	0xbcabcd87	-0.020972027
48	0x3d8a28e0	0.067460775
49	0xbd57760a	-0.052602805
50	0xbddf4e3d	-0.10903595
51	0x3d97f78f	0.07420265
52	0x3defc1ef	0.11706912
53	0x3d71813f	0.05896115
54	0x3dae290c	0.08503923
55	0x3dee14b6	0.11625044
56	0x3e13125f	0.14362477
57	0x3e1408d5	0.14456494
58	0xbe4af4d6	-0.1981996
59	0xbcca17a0	-0.024669468
60	0xbd511283	-0.051043045
61	0x3dd9b2c3	0.10629799
62	0x3e33c791	0.17556597
63	0xbd99ac2b	-0.075035416
64	0xbb993b0d	-0.004676229
65	0xbd8dfac1	-0.06932593
66	0x3e22856b	0.15871207
67	0xbe36ee29	-0.17864288
68	0x3c70819d	0.01467934
69	0x3df574e0	0.11985183
70	0xbdee4e66	-0.11636047
71	0xbd4fdcd8	-0.050747722
72	0xbe5f18e6	-0.21786842
73	0x3cd3a2fd	0.025834555
74	0x3e1dd0e3	0.15411715
75	0x3e4d20c4	0.2003203
76	0xbe201260	-0.1563201
77	0xbe1b0134	-0.15137178
78	0xbd656a3f	-0.056009527
79	0xbe15defc	-0.14635843
80	0x3d73ba7c	0.059504017
81	0xbd8a119d	-0.06741641
82	0x3e3a1a3a	0.18174067
83	0x3e141ca5	0.14464052
84	0x3d25e8f9	0.040505383
85	0x3dcd0313	0.10010352
86	0x3dbe59c4	0.09294465
87	0x3e144423	0.14479117
88	0x3d48f8fd	0.04906558
89	0xbd3b21b8	-0.045686454
90	0x3d88b7a4	0.06675652
91	0x3df50803	0.11964419
92	0xbe4bcb17	-0.19901691
93	0xbda2345e	-0.079201445
94	0x3c990272	0.018677924
95	0xbc0be3bd	-0.008538184
96	0xbe04ed92	-0.12981251
97	0xbda8378c	-0.0821372
98	0x3db1b202	0.086765304
99	0x3cb3b9ff	0.021939276
100	0xbdf24718	-0.11829966
101	0xbd83aaf0	-0.06429088
102	0xbe5cfa4c	-0.21579856
103	0xbd96d013	-0.07363906
104	0x3ea2f576	0.31827897
105	0xbe386899	-0.18008651
106	0xbda1ce70	-0.07900703
107	0x3e0d5e62	0.13805535
108	0x3e2d1bed	0.16905184
109	0x3dd77af3	0.105214976
110	0xbddb40ba	-0.10705705
111	0x3dc9eea7	0.098599724
112	0xbe5d7c6e	-0.21629497
113	0xbd80ff84	-0.06298736
114	0xbd6b5684	-0.057455555
115	0xbde885ad	-0.11353622
116	0x3dc013d3	0.09378781
117	0x3e1a91cd	0.15094681
118	0xbd4d6e00	-0.050153732
119	0x3dd6c685	0.10487083
120	0xbe6da9d9	-0.23209323
121	0xbd8d9a3b	-0.06914183
122	0x3da3e111	0.080019124
123	0x3d3a22c7	0.045443323
124	0x3df724cf	0.120675676
125	0x3a3e7e8a	0.00072667806
126	0xbd884785	-0.06654266
127	0xbe22df0e	-0.15905401
128	0xbd9c188e	-0.07621871
129	0xbdaad6c9	-0.08341748
130	0xbdf396e6	-0.11894016
131	0x3d742cbd	0.05961298
132	0xbcd14fe8	-0.025550798
133	0x3d768208	0.0601826
134	0x3e03aa3a	0.12857905
135	0xbdd71476	-0.105019495
136	0x3d2eccee	0.042675905
137	0xbe092fec	-0.13397187
138	0x3e5a1e14	0.21300536
139	0x3d84d641	0.06486178
140	0xbca17360	-0.019708335
141	0xbc1b2222	-0.009468587
142	0x3da3860c	0.07984552
143	0x3ca0e267	0.019639207
144	0x3dddef7f	0.10836696
145	0x3e6d5b02	0.23179248
146	0x3e2dad10	0.1696055
147	0xbc1b4b78	-0.009478442
148	0x3e06cb14	0.13163406
149	0xbdc64982	-0.09681989
150	0x3b7ec7f2	0.00388765
151	0xbd1bafb0	-0.038009346
152	0x3e3d9ac0	0.18516064
153	0x3ccd30a5	0.02504761
154	0xbd44ec39	-0.048076842
155	0xbe3a68dc	-0.18204063
156	0xbdf5bc18	-0.11998767
157	0x3d7442f3	0.05963416
158	0x3e0efce6	0.1396366
159	0xbda7f268	-0.08200532
160	0x3e58345b	0.21113722
161	0x3dad6301	0.08466149
162	0x3e3ae30a	0.18250671
163	0x3e1797aa	0.14803949
164	0x3c1c60a1	0.0095445225
165	0x3db23160	0.08700824
166	0xbe3ef54c	-0.18648261
167	0xbc8152b6	-0.01578651
168	0x3e6f0068	0.23339999
169	0x3e176f62	0.14788583
170	0x3d906541	0.07050563
171	0xbe035ac7	-0.12827598
172	0x3bfd10f4	0.0077229682
173	0x3df38b28	0.11891776
174	0xbd942584	-0.07233718
175	0x3dd36c33	0.10323372
176	0xbdac6a84	-0.08418754
177	0xbe38e18b	-0.18054788
178	0x3d96b6f9	0.07359118
179	0xbc0dc324	-0.008652482
180	0xbc854eae	-0.016272869
181	0xbdbaa888	-0.09114176
182	0x3df40d64	0.119166166
183	0x3e1433ef	0.14472936
184	0xbd5ba79e	-0.05362665
185	0x3e2c07ba	0.16799822
186	0x3de2be84	0.11071494
187	0x3d90d375	0.07071582
188	0xbe101485	-0.14070328
189	0xbdc94787	-0.09828096
190	0xbd139cd4	-0.036038235
191	0xbe00d904	-0.12582785
192	0x3d96ad22	0.07357241
193	0x3e21707e	0.15765569
194	0xbd16c649	-0.036810193
195	0x3dba1527	0.09086066
196	0xbda2d6d5	-0.07951132
197	0xbdf4bb54	-0.119497925
198	0xbd45f5f4	-0.048330262
199	0x3e0ec476	0.13942131
200	0xbe223995	-0.15842278
201	0x3da1f0d2	0.07907261
202	0x3e2b030e	0.16700384
203	0x3d8d1fc9	0.06890828
204	0xbd01c6c2	-0.03168369
205	0xbdb1608b	-0.08660992
206	0x3dc2ae64	0.095059186
207	0xbe47fe51	-0.19530608
208	0xbbec480b	-0.0072107366
209	0x3e294d13	0.16533308
210	0xbca5eb6f	-0.020253865
211	0x3e01b1c8	0.12665474
212	0x3dd66ae6	0.10469608
213	0x3d0cb833	0.034355354
214	0xbe1bd2c5	-0.15217121
215	0x3e153892	0.14572361
216	0xbd98b1a8	-0.0745576
217	0x3e131ff3	0.14367656
218	0x3d982c92	0.07430376
219	0xbcfd447b	-0.030916443
220	0xbde7904c	-0.11306819
221	0xbe0988ea	-0.13431135
222	0x3d1c6f76	0.038192235
223	0xbe052bd8	-0.13005006
224	0x3c9ce6f4	0.019153096
225	0x3e2b7015	0.16741975
226	0xbc8e3d97	-0.017363353
227	0x3dfefe77	0.12450879
228	0x3df7bd06	0.120966
229	0x3d13ac34	0.036052898
230	0xbdc2e1ae	-0.09515701
231	0xbd866e1e	-0.06563972
232	0xbe7d31d9	-0.24726047
233	0xbe07aa34	-0.13248521
234	0xbc8b80c0	-0.017029166
235	0x3ca52f7a	0.02016424
236	0x3e833acc	0.25630796
237	0xbe7d13fb	-0.24714653
238	0xbda03fd0	-0.07824671
239	0x3c82f66d	0.015986646
240	0x3d021013	0.03175361
241	0x3e0c0c66	0.13676605
242	0x3d2ec952	0.042672463
243	0x3e04590a	0.1292459
244	0xbe94f304	-0.29091656
245	0x3d1b2328	0.037875324
246	0x3cfeed02	0.031118874
247	0x3ca1c769	0.019748406
248	0x3de03ebf	0.10949468
249	0xbdb8aebb	-0.09017702
250	0x3df42aac	0.119222015
251	0xbe2c0524	-0.16798836
252	0xbe32c924	-0.17459542
253	0xbdd0d415	-0.101967014
254	0x3e2ce651	0.16884734
255	0x3de9d470	0.11417472

egnn.layers.0.message_mlp.0.bias f4 [32]
0	0xbd7e3cdd	-0.062069762
1	0x3d5002f0	0.05078405
2	0xbd09372f	-0.033499893
3	0xbbe4f42f	-0.0069871168
4	0xbd501599	-0.050801847
5	0x3e2b75ae	0.1674411
6	0x3dc9f164	0.09860495
7	0xbe0755ba	-0.13216296
8	0xbe2957ce	-0.16537401
9	0xbc0a000a	-0.008422861
10	0xbda373f9	-0.079811044
11	0xbda2e1e5	-0.07953242
12	0xbe35333d	-0.17695327
13	0xbd9f7a61	-0.07787014
14	0x3d9af049	0.07565362
15	0xbcc6f35c	-0.024285965
16	0x3d746a94	0.059671953
17	0xbc95cf28	-0.018287256
18	0xbd97eb1e	-0.07417892
19	0xbe070544	-0.13185602
20	0x3e1a92b0	0.1509502
21	0xbd99e1fe	-0.07513808
22	0x3df9c1a8	0.1219514
23	0x3e05b939	0.13058938
24	0xbd8effdc	-0.06982395
25	0xbdb71829	-0.08940155
26	0xbdc618cc	-0.096726984
27	0x3da98a0a	0.08278282
28	0x3dd87b9d	0.10570452
29	0xbb9f3cce	-0.0048595434
30	0x3da1e257	0.07904499
31	0xbae6b0bf	-0.0017600282

egnn.layers.0.message_mlp.2.weight f4 [32, 32]
0	0x3e1fa7b3	0.15591316
1	0xbe229bb8	-0.15879714
2	0x3c75e99f	0.015009313
3	0xbdf03a0b	-0.11729821
4	0xbe13ebd3	-0.14445429
5	0xbe130696	-0.14357981
6	0x3d2136af	0.03935879
7	0x3ddb114d	0.10696659
8	0x3dc121b1	0.09430254
9	0x3c835596	0.016032021
10	0xbd2c0f73	-0.04200692
11	0x3e626f35	0.22112735
12	0xbd9d828f	-0.07690918
13	0xbe7e7622	-0.24849752
14	0x3d8ad48d	0.06778822
15	0xbda70766	-0.08155708
16	0xbc7fe8f4	-0.015619505
17	0x3cb6df19	0.022323178
18	0xbe37e2f1	-0.17957665
19	0xbc503782	-0.012708547
20	0x3e1b4264	0.15162045
21	0xbe3665a1	-0.17812206
22	0x3e3a31be	0.18183038
23	0xbcfce355	-0.03087012
24	0x3ce14eff	0.027503489
25	0xbe7dc6c5	-0.24782856
26	0x3ddc3595	0.107524075
27	0x3e7f7781	0.24947931
28	0xbe818774	-0.25298655
29	0x3d8d4835	0.06898538
30	0xbe747237	-0.23871695
31	0x3d9941b3	0.07483234
32	0xbd2ecdaf	-0.042676624
33	0x3e065438	0.13118064
34	0xbdf13e05	-0.117794074
35	0xbc1cc023	-0.009567293
36	0x3e46d0a9	0.19415535
37	0x3e1af33b	0.15131848
38	0x3dc7a565	0.097483434
39	0xbdf908f1	-0.121599086
40	0x3d088b8c	0.033336207
41	0xbdfcf854	-0.12352052
42	0x3e0ed8ad	0.13949843
43	0xbe102aa5	-0.14078768
44	0xba8787b0	-0.0010340121
45	0x3d61644b	0.055027287
46	0xbe118d4c	-0.14214057
47	0x3c9a6b48	0.018849984
48	0xbdf346a7	-0.1187871
49	0x3e04fe04	0.12987524
50	0xbd6c16f3	-0.057639074
51	0xbd192fb5	-0.037399013
52	0xbd0ddf76	-0.034636937
53	0xbe09f4d6	-0.13472304
54	0x3d6658a8	0.056236893
55	0xbd63f485	-0.055653114
56	0x3da25c1f	0.07927727
57	0xbdecd85d	-0.115647055
58	0xbe752b01	-0.23942186
59	0xbd66efe7	-0.056381132
60	0x3e099222	0.13434651
61	0xbe0c4889	-0.13699545
62	0xbcbf5891	-0.023357661
63	0x3dcf8774	0.101332575
64	0x3cc25f02	0.023726944
65	0x3d432510	0.047642767
66	0xbd34d575	-0.04414888
67	0xbdf3d7c5	-0.11906389
68	0xbd6f0355	-0.058352787
69	0x3d9ea14b	0.07745608
70	0x3cf03dbf	0.029326318
71	0xbe415d10	-0.18883157
72	0xbe4db3cb	-0.20088117
73	0x3e116ddf	0.14202069
74	0xbe80bbd9	-0.25143316
75	0xbbeb9840	-0.0071897805
76	0x3e2dafaa	0.16961542
77	0xbde2340d	-0.11045084
78	0xbd7d0b94	-0.06177862
79	0xbd588cae	-0.052868538
80	0xbdc57c97	-0.09642904
81	0xbcad1755	-0.02112929
82	0x3c1ac7ce	0.009447051
83	0x3df78094	0.12085071
84	0xbe08b8c2	-0.1335173
85	0xbda377cc	-0.07981834
86	0xbd036a12	-0.03208358
87	0x3e34fab1	0.17673756
88	0x3d8bf32f	0.06833493
89	0xbe5d4af0	-0.21610618
90	0xbdd5d9a8	-0.10441905
91	0x3e181f69	0.14855732
92	0xbdf856fb	-0.12125965
93	0x3b246491	0.0025084356
94	0xbd961293	-0.073277615
95	0xbdf9e4af	-0.12201821
96	0xbe07d0ed	-0.13263293
97	0xbd2b0efc	-0.041762337
98	0xbe5cf32b	-0.21577136
99	0xbcbd7c21	-0.023130478
100	0x3d5c5de6	0.053800486
101	0xbd64afa4	-0.055831566
102	0x3dd86ae8	0.10567266
103	0xbdc5a7f6	-0.09651177
104	0x3d1f36f6	0.038870774
105	0xbe27ec53	-0.16398744
106	0x3df83002	0.12118532
107	0xbe88bfd7	-0.26708862
108	0xbc4a9d0b	-0.0123665435
109	0xbdc00fb1	-0.09377993
110	0x3d5af0ce	0.053452305
111	0xbd6e67ea	-0.05820457
112	0xbe17e4a6	-0.14833316
113	0xbdcbc6f7	-0.09950059
114	0x3c9d007f	0.019165276
115	0x3c9a1f53	0.018813765
116	0xbe444488	-0.19166768
117	0x3dbe05fa	0.09278484
118	0xbe679992	-0.22617176
119	0xbd88cae0	-0.0667932
120	0x3dd4e12d	0.10394511
121	0x3e4a8d03	0.19780354
122	0xbe04a3bc	-0.12953085
123	0xbd967fa7	-0.073485665
124	0x3e6be8bc	0.23038
125	0xbdabf8a8	-0.08397037
126	0x3e0b2dbc	0.13591665
127	0xbe065ba2	-0.13120893
128	0xbc581b21	-0.013190062
129	0x3d840516	0.064462826
130	0xbdb90b24	-0.09035328
131	0x3e057e10	0.1303637
132	0xbdb2549a	-0.08707543
133	0xbdb39d2f	-0.08770215
134	0xbdc2cbf4	-0.09511557
135	0x3de9126d	0.113804676
136	0xbd8ec9af	-0.06972062
137	0xbd17cefa	-0.037062623
138	0x3e29abe0	0.16569471
139	0xb9404ab2	-0.00018338373
140	0xbdc25d25	-0.09490422
141	0x3c54e9e9	0.012995222
142	0x3e43c6b0	0.19118762
143	0xbc4a3c2b	-0.012343447
144	0x3d3a465e	0.045477264
145	0x3d2d1f0d	0.04226594
146	0xbd9310bc	-0.07180926
147	0x3e141660	0.1446166
148	0xbda05110	-0.078279614
149	0x3c683725	0.014173304
150	0xbde50dbd	-0.11184261
151	0x3db78ab7	0.08962005
152	0x3e373264	0.17890316
153	0x3d0952fe	0.033526413
154	0x3e1146c6	0.14187154
155	0xbe01da57	-0.12680946
156	0xbe47d18a	-0.19513527
157	0xbe237e3f	-0.15966128
158	0xbd55ad63	-0.052167308
159	0x3e737f35	0.23778994
160	0xbdc35c17	-0.09539049
161	0xbdad1681	-0.08451558
162	0x3de19e9a	0.11016579
163	0x3a31355c	0.00067599653
164	0x3dd709a2	0.10499884
165	0xbe058e10	-0.13042474
166	0x3e000495	0.12501748
167	0x3e07ebb1	0.13273503
168	0xbdf4e598	-0.11957854
169	0xbe452866	-0.19253692
170	0xbd77dae9	-0.060511503
171	0x3cdb8648	0.026797429
172	0x3e28c1b0	0.16480136
173	0x3cb0f0cc	0.021599196
174	0xbe3efe57	-0.1865171
175	0x3d3ff951	0.046868626
176	0xbcae3df9	-0.021269785
177	0x3da0231e	0.07819198
178	0x3de95a81	0.113942154
179	0xbc0ffd47	-0.008788413
180	0xbe4f5d03	-0.20250325
181	0xbdbb626d	-0.091496326
182	0x3ba3bdaa	0.004996975
183	0xbe055228	-0.13019621
184	0x3bf104cc	0.007355308
185	0x3c136146	0.00899536
186	0x3df0fab0	0.11766565
187	0xbe3ff6e1	-0.1874652
188	0x3dd8080f	0.10548412
189	0xbe3da7ac	-0.18520993
190	0x3b833b72	0.004004889
191	0x3e2205a1	0.1582246
192	0x3dae2f33	0.08505096
193	0x3e53d5fb	0.20687096
194	0xbcacd39f	-0.021097003
195	0xbe630ced	-0.221729
196	0x3e61589b	0.22006457
197	0x3ddcb8eb	0.10777458
198	0x3da7177b	0.081587754
199	0xbe504bcc	-0.20341414
200	0x3c6ff29c	0.014645245
201	0xbc1da79d	-0.009622482
202	0xbdef776e	-0.11692701
203	0xbca3a829	-0.019977646
204	0xbd2a6a65	-0.041605372
205	0x3e0105ad	0.12599821
206	0xbe32d62c	-0.17464513
207	0x3df34a93	0.11879458
208	0x3d23fad1	0.04003412
209	0x3d112b54	0.03544171
210	0xbdad9536	-0.08475725
211	0x3c4d163d	0.012517509
212	0x3cc31b83	0.02381683
213	0xbe00c782	-0.12576106
214	0xbd6cb753	-0.05779202
215	0xbdcfeb2e	-0.10152279
216	0x3d9357f7	0.07194512
217	0x3dbed8d3	0.093187
218	0x3df4adee	0.11947237
219	0xbe4f8994	-0.20267326
220	0xbe026c1e	-0.12736556
221	0x3d23a042	0.039947756
222	0x3e0bc6d8	0.13650072
223	0x3da356ee	0.07975565
224	0xbe15ae5e	-0.14617297
225	0x3d0cdeae	0.03439205
226	0x3c9f1a3f	0.019421695
227	0x3db46c09	0.088096686
228	0x3e10e3ff	0.14149474
229	0x3e23671c	0.15957302
230	0x3d965b3c	0.0734162
231	0x3e037e24	0.12841088
232	0x3ddb10e7	0.10696583
233	0x3d31c00a	0.043396033
234	0xbdafc4bc	-0.08582446
235	0xbe177a7a	-0.14792815
236	0x3df472fc	0.11935994
237	0xbde1364a	-0.10996683
238	0x3d9a3934	0.07530442
239	0x3cba53a4	0.022744961
240	0xbd9a9a05	-0.07548908
241	0xbdf699df	-0.12041067
242	0x3db590e2	0.08865525
243	0xbe11a13e	-0.14221665
244	0xbde0db89	-0.10979373
245	0xbe107573	-0.14107303
246	0xbe22a0cd	-0.15881653
247	0x3ca9f2cd	0.02074566
248	0x3e0e5fa0	0.13903666
249	0x3d01450f	0.03156
250	0xbddca779	-0.107741304
251	0x3c2d907a	0.010593528
252	0x3e0dd51e	0.13850829
253	0x3e12197e	0.14267537
254	0x3e22a82a	0.15884462
255	0x3e1c4590	0.15260911

egnn.layers.0.message_mlp.2.bias f4 [32]
0	0x3e1189bb	0.14212696
1	0x3d1b5077	0.037918534
2	0x3a3a154c	0.00070985104
3	0xbd980183	-0.07422163
4	0x3b5f0cac	0.0034034653
5	0xbe294185	-0.165289
6	0xbd6d7f32	-0.05798263
7	0x3c8bf159	0.017082857
8	0xbdd012b5	-0.10159818
9	0x3e204a6b	0.15653388
10	0x3e037e7c	0.12841219
11	0xbd060a30	-0.03272456
12	0x3db32d38	0.08748859
13	0x3d3ad915	0.04561718
14	0x3ded59d9	0.11589403
15	0xbdf4d910	-0.11955464
16	0xbd9d1bfa	-0.07671352
17	0xbda6815f	-0.08130144
18	0x3e1d22b9	0.15345277
19	0xbb38da07	-0.0028206126
20	0x3cbc135b	0.022958448
21	0x3d4596c1	0.048239473
22	0x3df80c28	0.121116936
23	0x3e0588f4	0.13040525
24	0xbe0d688d	-0.13809414
25	0x3e4ae562	0.19814065
26	0x3e13124d	0.1436245
27	0x3d8d7909	0.06907851
28	0xbe1abc4f	-0.15110897
29	0xbd9f7fd9	-0.07788057
30	0xbcc51673	-0.024058556
31	0xbe0863ec	-0.13319367

egnn.layers.0.coord_mlp.0.weight f4 [32, 32]
0	0xbe211e85	-0.15734299
1	0x3ca73907	0.020412935
2	0xbcf82635	-0.030291656
3	0x3e530992	0.2060912
4	0xbbb1772e	-0.0054158187
5	0x3d2fe9e5	0.04294767
6	0x3d9e9082	0.077424064
7	0xbdcd5b60	-0.10027194
8	0xbe6a918c	-0.22907084
9	0xbd4756c8	-0.048666745
10	0x3dab2d72	0.083582774
11	0xbe260d32	-0.16215971
12	0x3dd27e81	0.10278035
13	0x3da4ac93	0.080407284
14	0xbd490620	-0.049078107
15	0xbd9d6b4e	-0.07686482
16	0x3c0b2a9c	0.008494046
17	0xbbc5feee	-0.006042353
18	0xbbbc8093	-0.005752632
19	0xbe206cf4	-0.15666562
20	0x3da8310e	0.082124814
21	0x3df735ec	0.12070832
22	0xbe52fe38	-0.2060479
23	0x3e03ebb3	0.12882881
24	0x3e3bf609	0.18355574
25	0xbe011866	-0.12606964
26	0xbd427312	-0.04747302
27	0xbe16d2b7	-0.14728819
28	0x3e194a00	0.14969635
29	0xbd4478c7	-0.047966745
30	0xbc32756e	-0.010892255
31	0x3d9be378	0.076117456
32	0x3e564da3	0.20928054
33	0xbe0becdc	-0.13664573
34	0x3d8fa593	0.07014003
35	0x3aa24177	0.0012379129
36	0x3e042a0a	0.12906662
37	0x3bc11879	0.00589281
38	0x3d47fe43	0.048826467
39	0xbe163436	-0.14668354
40	0x3e1aeaeb	0.15128677
41	0x3e378b8d	0.17924328
42	0xbe078ede	-0.13238093
43	0xbd8762e6	-0.0661066
44	0xbe871023	-0.263795
45	0x3e0bd558	0.13655603
46	0x3da32887	0.07966714
47	0x3de83f64	0.11340216
48	0x3d86cf41	0.06582499
49	0x3d3e80b0	0.046509445
50	0x3e671ea4	0.22570282
51	0x3e71b19b	0.23602907
52	0x3d1420da	0.036164142
53	0x3daa30e1	0.08310104
54	0x3ddd52d1	0.108068116
55	0xbe015cee	-0.12633106
56	0xbe27cc38	-0.16386497
57	0x3dec4865	0.11537246
58	0x3ce218b9	0.02759968
59	0x3e165d17	0.14683948
60	0xbe7df75a	-0.24801388
61	0x3cd307f5	0.02576063
62	0x3d132e68	0.03593293
63	0x3c4ee38d	0.0126274945
64	0x3e2dafc1	0.16961576
65	0xbe14730a	-0.14497009
66	0x3e95f75e	0.2929029
67	0xbe91d137	-0.2847993
68	0xbd9eb780	-0.077498436
69	0x3d89877a	0.06715293
70	0xbd7f786f	-0.062370714
71	0x3c986993	0.01860503
72	0x3e55a09f	0.20862053
73	0x3e16cee4	0.1472736
74	0x3e0fd49b	0.14045946
75	0x3e3bc347	0.18336211
76	0xbe9aa996	-0.3020751
77	0x3d691fa0	0.056914926
78	0x3de091a7	0.10965281
79	0x3e847903	0.25873575
80	0xbd832db1	-0.06405199
81	0x3c955613	0.01822952
82	0x3eb104c7	0.34573957
83	0x3e8f3d8d	0.27976647
84	0x3d66f2e0	0.056383967
85	0x3d5416a5	0.051779408
86	0x3c2807b8	0.010255747
87	0xbe0575f2	-0.13033274
88	0xbeab0b38	-0.33406997
89	0x3e8ad479	0.2711523
90	0xbe1f4612	-0.15554073
91	0x3e773380	0.2414074
92	0xbe5ce3eb	-0.21571319
93	0xbc972571	-0.01845047
94	0x3e2b6639	0.16738214
95	0xbe8363e8	-0.2566216
96	0x3e067cfa	0.13133612
97	0x3dc5b8df	0.09654402
98	0x3e914ba8	0.28378034
99	0xbe9e2eac	-0.30894983
100	0xbc6a63bc	-0.014306005
101	0xbd2a7869	-0.04161874
102	0xbdfe7170	-0.1242398
103	0x3ca71447	0.020395411
104	0x3e640eef	0.22271322
105	0x3d3111ec	0.043229982
106	0xbe31df03	-0.17370228
107	0x3cfe24d5	0.031023422
108	0xbd30fc9f	-0.04320967
109	0x3e3db7c1	0.18527128
110	0x3d80e9a9	0.06294567
111	0x3e8b82db	0.27248272
112	0xbd061b2c	-0.032740757
113	0xbd0fcec3	-0.035109293
114	0x3e8f2c37	0.2796342
115	0x3e4ce328	0.20008528
116	0x3d61b5fa	0.055105187
117	0x3c9713e1	0.018442096
118	0x3d248fb8	0.040176123
119	0xbdd37896	-0.10325734
120	0xbe47f066	-0.19525298
121	0x3e254117	0.16138111
122	0xbe389cce	-0.18028566
123	0x3eaa6937	0.33283398
124	0xbdff22dd	-0.124578215
125	0x3dd272a7	0.102757744
126	0x3dd01bfc	0.101615876
127	0xbdb36a17	-0.087604694
128	0xbd9cdaf0	-0.076589465
129	0x3e4861ac	0.19568509
130	0xbe29441b	-0.16529886
131	0x3e9e5fde	0.30932516
132	0xbcf0ee6d	-0.029410565
133	0x3e65ebb4	0.22453195
134	0x3d03d215	0.03218277
135	0x3e33fb6a	0.17576376
136	0xbe503f5a	-0.20336667
137	0xbe5003ac	-0.203139
138	0x3df15786	0.11784272
139	0xbe628ad2	-0.22123268
140	0x3e33bd3e	0.17552659
141	0xbd18ca2f	-0.037302192
142	0xbe286c0f	-0.16447471
143	0xbe4bf118	-0.19916189
144	0xbd4fdda4	-0.050748482
145	0xbd1104f2	-0.035405107
146	0xbe91e03b	-0.28491387
147	0xbdce3f98	-0.10070723
148	0x3c49baa2	0.012312563
149	0xbdfc1c10	-0.1231004
150	0xbd51b731	-0.051200096
151	0x3daac9df	0.08339285
152	0x3e1588e0	0.14602995
153	0xbdd52348	-0.1040712
154	0x3e140f53	0.1445897
155	0xbe9c8636	-0.30571145
156	0x3d91dde3	0.071224
157	0x3d0a638e	0.03378635
158	0x3dc019c0	0.093799114
159	0x3d978495	0.07398335
160	0xbc68123d	-0.014164505
161	0x3d8b0363	0.06787755
162	0x3e5b60f4	0.21423703
163	0xbe1bb8fa	-0.15207282
164	0x3d966404	0.07343295
165	0xbe533d4a	-0.20628849
166	0xbdd0f8c2	-0.10203697
167	0xbdd14705	-0.10218624
168	0x3e4fcca5	0.2029291
169	0x3df4dd94	0.11956325
170	0xbe13be23	-0.14428
171	0x3c495716	0.012288829
172	0xbe29ef7e	-0.16595265
173	0xbd5a358b	-0.05327372
174	0x3d98b704	0.074567825
175	0xb9ea8a5d	-0.00044735047
176	0x3c723ef0	0.014785513
177	0x3d8b14a0	0.06791043
178	0x3d5d795e	0.054070823
179	0x3da26031	0.07928503
180	0xbdf70702	-0.120618835
181	0x3d8ea85a	0.06965704
182	0x3e1764ad	0.14784499
183	0x3e0e517c	0.13898271
184	0xbe24fb3a	-0.1611146
185	0x3de4b20b	0.111667715
186	0xbdab9c19	-0.08379383
187	0x3dc64267	0.09680634
188	0xbdae5be4	-0.085136205
189	0x3e573378	0.21015728
190	0xbcd93077	-0.026512368
191	0xbe369b59	-0.17832698
192	0xbe4cef62	-0.20013192
193	0x3d3b1c1e	0.04568111
194	0xbe503eaa	-0.20336404
195	0x3e680ee0	0.22661924
196	0xbca19966	-0.019726466
197	0xbd9093ba	-0.070594266
198	0x3cb10aff	0.021611689
199	0xbd2c62cf	-0.04208642
200	0x3d6b9c3d	0.057522047
201	0xbd4626f0	-0.048376977
202	0x3c901900	0.017590046
203	0xbe5b2730	-0.21401668
204	0x3e14f2cb	0.14545743
205	0x3dc8a496	0.09797017
206	0xbdaddfc4	-0.084899455
207	0xbe17ee0d	-0.14836903
208	0x3dc4117f	0.095736496
209	0x3d56bb0b	0.05242447
210	0xbe05aeea	-0.13055006
211	0xbe449e34	-0.19200975
212	0xbc3f5edd	-0.011680332
213	0xbdb9c80a	-0.090713575
214	0xbd968328	-0.07349235
215	0xbd4327b5	-0.04764529
216	0x3e0266eb	0.12734573
217	0xbdd79445	-0.10526327
218	0x3cadd5e3	0.021220153
219	0xbe2ef928	-0.17087233
220	0xbd079dee	-0.033109598
221	0xbd8bdf0f	-0.068296544
222	0xbdfd53c7	-0.12369495
223	0x3e0abe6a	0.135492
224	0x3b0c5cc1	0.002141759
225	0xbda70dde	-0.08156942
226	0xbe5465fe	-0.20742032
227	0x3e69f943	0.22848992
228	0x3de7f962	0.11326863
229	0x3e4da2a3	0.20081572
230	0xbd856c27	-0.06514769
231	0x3dd02573	0.10163393
232	0x3d2df186	0.042466663
233	0xbe32c94a	-0.17459598
234	0x3dad0d70	0.084498286
235	0x3c1b709d	0.009487298
236	0x3e5c5e09	0.21520247
237	0x3bda1654	0.0066554938
238	0xbe33d0f0	-0.17560172
239	0xbdf79063	-0.120880865
240	0x3dccf44f	0.10007536
241	0xbd14abae	-0.03629654
242	0xbe897c9c	-0.26852882
243	0xbd361a55	-0.044458706
244	0x3b097347	0.0020973252
245	0xbd0b9c5d	-0.034084667
246	0xbb816fc3	-0.0039500906
247	0x3d51411c	0.051087484
248	0x3d09b0d9	0.03361592
249	0x3d03de8a	0.03219465
250	0xbda4904b	-0.08035334
251	0xbe0bcf70	-0.1365335
252	0x3d998472	0.07495965
253	0xbe4ced22	-0.20012334
254	0xbd825bf9	-0.06365199
255	0x3d4b4182	0.04962302

egnn.layers.0.coord_mlp.0.bias f4 [32]
0	0xbe19940c	-0.14997882
1	0x3e238903	0.15970235
2	0xbdea2acd	-0.11433945
3	0x3e06e28e	0.13172361
4	0xbd46a18d	-0.04849391
5	0x3de62299	0.11237068
6	0xbe33a8a3	-0.17544799
7	0xbde0982a	-0.10966523
8	0xbe14ecfd	-0.14543529
9	0xbe2bbe41	-0.16771795
10	0x3d41d0eb	0.04731838
11	0xbdfdf5e7	-0.12400418
12	0x3dbed8ae	0.09318672
13	0xbe09e0db	-0.13464682
14	0x3cfc8410	0.030824691
15	0xbd65cdab	-0.056104343
16	0x3d6b0647	0.057379033
17	0xbddaa6cb	-0.106763445
18	0xbde8a07c	-0.11358735
19	0xbe1ab8d9	-0.15109576
20	0x3d94e607	0.07270437
21	0xbd341627	-0.04396644
22	0xbc0a7ff5	-0.008453359
23	0x3ce532b0	0.027978271
24	0x3dd9c8fe	0.10634039
25	0xbdb28a37	-0.08717769
26	0xbd609024	-0.054824963
27	0x3e12dc6b	0.14341895
28	0x3d345534	0.04402657
29	0xbddbae40	-0.10726595
30	0x3d441f6b	0.047881525
31	0xbd5449db	-0.051828247

egnn.layers.0.coord_mlp.2.weight f4 [1, 32]
0	0xbd5251b9	-0.051347468
1	0x3dc576f9	0.09641833
2	0x3e40b86e	0.18820354
3	0x3dcb3366	0.09921913
4	0xbdca6155	-0.09881846
5	0x3d22c0d3	0.039734673
6	0xbd36f6e2	-0.04466904
7	0xbd1aefa5	-0.0378262
8	0xbd05629e	-0.03256475
9	0xbd899e2a	-0.067196205
10	0xbe0f8db5	-0.140189
11	0xbd11d151	-0.03560001
12	0xbdbdb4dc	-0.09263012
13	0xbd5c7ca2	-0.053829797
14	0x3db4812a	0.088136986
15	0xbd556889	-0.052101646
16	0x3d87b847	0.06626945
17	0xbdd6a001	-0.10479737
18	0x3dd6daf8	0.10490984
19	0xbd0c834a	-0.034304895
20	0x3d852312	0.0650083
21	0x3cbddd68	0.023176864
22	0xbe260ca3	-0.16215758
23	0xbdf22d7c	-0.11825082
24	0x3d8ba760	0.068190336
25	0xbd827372	-0.06369676
26	0xbdea6b6d	-0.11446271
27	0x3d4a7789	0.049430404
28	0xbdb057cf	-0.08610498
29	0xbd1d8124	-0.038453236
30	0xbdd92a44	-0.10603765
31	0xbdaa0aab	-0.08302816

egnn.layers.0.hidden_mlp.0.weight f4 [32, 48]
0	0x3a143aff	0.0005654543
1	0xbd0761ff	-0.03305244
2	0xbd7aa268	-0.06119004
3	0xbd19c60a	-0.03754238
4	0x3e001d75	0.12511237
5	0x3e0f06a4	0.13967377
6	0xbd299826	-0.041404866
7	0xbce79dee	-0.028273549
8	0xbaafbb14	-0.0013407194
9	0x3e0f10a4	0.13971192
10	0x3d5d9f20	0.05410683
11	0x3b9b2a66	0.004735279
12	0xbd80ff37	-0.06298678
13	0x3ccc5b37	0.024945838
14	0x3df3535c	0.11881134
15	0x3d97441d	0.073860385
16	0x3dbcce41	0.09219027
17	0x3c85778a	0.016292352
18	0x3e21bd39	0.15794839
19	0xbd134b35	-0.035960395
20	0xbd4ce6b9	-0.05002472
21	0xbc20cde9	-0.009814718
22	0x3c85d52a	0.016336996
23	0x3ca89f90	0.020583898
24	0x3c535244	0.012898032
25	0x3e268495	0.16261514
26	0x3de5e6a5	0.112256326
27	0x3d6703cf	0.056400117
28	0xbe1eb2e1	-0.15497924
29	0xbc00a853	-0.007852632
30	0x3e24477a	0.16042891
31	0x3da50432	0.08057441
32	0xbd7d417a	-0.06183002
33	0xbdad952e	-0.084757194
34	0x3de1e019	0.11029071
35	0xbbc32809	-0.0059557003
36	0xbd448ae5	-0.047984023
37	0x3e01f8bd	0.12692542
38	0xbce44d90	-0.027869016
39	0xbcc25341	-0.02372134
40	0x3d8355b5	0.06412832
41	0x3e16c9f9	0.14725484
42	0x3d985b9d	0.07439349
43	0x3dc766f9	0.09736437
44	0xbe35d746	-0.17757902
45	0xbe0a65a1	-0.13515331
46	0x3d2e0b09	0.042490993
47	0xbe32fa5d	-0.17478319
48	0xbda25f16	-0.079282925
49	0x3e29045d	0.1650557
50	0xbde1cf7a	-0.11025901
51	0x3de688a2	0.112565294
52	0xbccba85a	-0.02486055
53	0x3caf8a9c	0.021428399
54	0x3cd7be5f	0.026335893
55	0xbdbb75d4	-0.09153333
56	0x3d78efde	0.06077563
57	0x3d98318a	0.07431324
58	0x3df43ef0	0.11926067
59	0x3e13c025	0.14428766
60	0xbe19f081	-0.15033151
61	0x3dd39ec6	0.10333018
62	0x3de925f5	0.11384193
63	0x3df35c97	0.118828945
64	0x3d807151	0.062716134
65	0xbc5b380f	-0.013380065
66	0xbe1be3d1	-0.15223624
67	0xbdefeb8f	-0.11714851
68	0xbd26b17e	-0.040696613
69	0x3d9c4ab9	0.0763144
70	0x3dafea5d	0.08589623
71	0xbd39c2df	-0.04535186
72	0x3d651f75	0.055938203
73	0x3dfc8786	0.123305365
74	0xbe324c77	-0.17411982
75	0x3ddaec70	0.10689628
76	0x3def925a	0.11697836
77	0xbdbf0149	-0.09326417
78	0xbd8eca2f	-0.06972157
79	0x3d971adc	0.0737817
80	0x3d8fc79b	0.070204936
81	0xbe0156c7	-0.12630759
82	0x3db29ad1	0.08720935
83	0xbcd078d9	-0.02544825
84	0xbcebe9e4	-0.028798051
85	0xbdcebc7a	-0.10094543
86	0xbca95fa6	-0.020675492
87	0xbde7f835	-0.113266386
88	0x3c67eec5	0.014156048
89	0xbd8b6c7b	-0.068078004
90	0xbc8425c0	-0.016131282
91	0xbd887ae3	-0.06664064
92	0x3d47157b	0.04860447
93	0x3dca92d8	0.098912895
94	0x3baf42fe	0.0053485623
95	0x3df45c5d	0.119316794
96	0xbdcde7b7	-0.10053962
97	0xbdfd0e53	-0.12356248
98	0xbd59adc5	-0.053144235
99	0xbd5fc9a2	-0.05463565
100	0xbe42d6f6	-0.19027314
101	0x3c1e78bf	0.009672343
102	0xbe232f0c	-0.15935916
103	0x3d1ee59b	0.038793188
104	0x3df78f05	0.12087826
105	0xbdceb76f	-0.10093581
106	0x3d76afe1	0.060226325
107	0xbd8ae036	-0.06781046
108	0x3b1d89a4	0.002403834
109	0x3da25751	0.079268105
110	0x3df0ce85	0.117581405
111	0x3d481b51	0.048854176
112	0x3d16a4f9	0.036778424
113	0xbd7d38e7	-0.061821844
114	0xbda9bd77	-0.08288091
115	0x3de83363	0.11337926
116	0xbd7ebd09	-0.062191997
117	0xbe17a701	-0.148098
118	0xbda0f545	-0.078592815
119	0xbdc38645	-0.09547094
120	0xbc90d30c	-0.01767876
121	0xbd51aa27	-0.05118766
122	0xbe25ac5c	-0.16179031
123	0x3c9847ac	0.018588863
124	0xbda052c3	-0.078282855
125	0xbd8a32df	-0.06747984
126	0xbdb562b9	-0.088567205
127	0xbe3ced58	-0.18449914
128	0xbce7a2ae	-0.028275814
129	0x3d82ad5d	0.06380723
130	0x3d6b4182	0.05743552
131	0x3d8ebd46	0.06969695
132	0x3cdca2e4	0.026933141
133	0x3d5b774f	0.05358058
134	0x3c2a6467	0.010399914
135	0xbbb2ef0c	-0.0054606255
136	0xbe1f300c	-0.15545672
137	0xbbafb474	-0.005362088
138	0xbe09fcb9	-0.13475312
139	0xbd9fc20a	-0.07800682
140	0xbd6b856f	-0.0575003
141	0x3ddd5497	0.1080715
142	0x3be7bfeb	0.007072439
143	0x3dfd7713	0.12376227
144	0x3cd38082	0.025818113
145	0x3d3ad722	0.045615323
146	0x3dc8ae54	0.097988755
147	0x3e0b4308	0.13599789
148	0xbd88b930	-0.06675947
149	0xba42f4be	-0.0007436982
150	0x3c923f37	0.017852409
151	0x3c86d72f	0.01646003
152	0x3df09426	0.11747007
153	0x3ded2a73	0.11580362
154	0x3e139239	0.14411248
155	0xbe184f2a	-0.14873949
156	0x3ce6d30b	0.028176805
157	0x3d8e3706	0.06944089
158	0x3d8e4de0	0.06948447
159	0x3e0bc35d	0.13648744
160	0x3e034b7a	0.12821761
161	0x3c2fd54f	0.010732009
162	0x3e0232b1	0.1271465
163	0x3d1c09d2	0.038095303
164	0x3e181768	0.14852679
165	0xbd707f1a	-0.058714963
166	0x3e0ce7c8	0.13760293
167	0x3da2a389	0.07941348
168	0x3e0f9107	0.14020167
169	0x3da0ecd6	0.07857673
170	0xbe00c3e1	-0.12574722
171	0xbbeef303	-0.007292153
172	0x3d81dfc1	0.06341506
173	0xbe07a821	-0.1324773
174	0x3d9aaae6	0.075521275
175	0xbd3f9b9d	-0.046779264
176	0xbd9e47df	-0.07728552
177	0x3cf21ce8	0.0295548
178	0x3d0dba32	0.034601398
179	0x3d9df9ca	0.07713659
180	0x3cc40888	0.02392985
181	0xbe06d1a7	-0.13165914
182	0x3e05bf88	0.13061345
183	0x3e3ed028	0.18634093
184	0xbc966bad	-0.01836189
185	0x3d6480bd	0.055786837
186	0x3ddb3a0d	0.10704432
187	0x3e09f854	0.13473636
188	0x3dc9c173	0.09851351
189	0x3e09023c	0.13379759
190	0xbc3818df	-0.0112363985
191	0x3d740595	0.059575636
192	0x3d74b40c	0.05974202
193	0x3e03eb56	0.12882742
194	0xbd30c65f	-0.04315793
195	0x3cbc9022	0.023017947
196	0x3e20de3b	0.15709774
197	0xbc8dc62e	-0.017306414
198	0xbd6667eb	-0.056251448
199	0x3e18061a	0.14846078
200	0x3dcb4e10	0.099269986
201	0x3d7a8921	0.061165933
202	0xbd949e5b	-0.072567664
203	0xbd52707e	-0.051376812
204	0xbd5c44e8	-0.05377665
205	0x3d83c995	0.06434933
206	0x3df1ae3a	0.11800809
207	0x3debb380	0.11508846
208	0xbcf43391	-0.029809745
209	0x3c684f99	0.014179134
210	0x3c159b9f	0.009131341
211	0x3dcf8379	0.10132498
212	0x3de0eb95	0.10982434
213	0xbdd1cb61	-0.102438696
214	0xbd16e0b1	-0.036835376
215	0xbd8d8f80	-0.06912136
216	0xbb726a73	-0.0036989718
217	0xbd035445	-0.032062788
218	0x3e1bca16	0.15213808
219	0x3cb9085d	0.022586996
220	0x3d4f5b39	0.050624106
221	0x3dd75491	0.10514177
222	0x3d6c7729	0.057730827
223	0x3df0616a	0.1173733
224	0xbb387363	-0.0028144948
225	0xbd7afa21	-0.061273698
226	0xbd199932	-0.037499614
227	0xbdfff486	-0.12497811
228	0x3d8734b1	0.06601847
229	0x3e1d0774	0.15334874
230	0xbdb6812c	-0.08911356
231	0x3dc7b0eb	0.09750541
232	0x3cd796f7	0.026317103
233	0xbd644b81	-0.05573607
234	0x3e344cba	0.17607394
235	0x3dc37d1c	0.09545347
236	0x3e233638	0.15938652
237	0xbe0ef297	-0.13959728
238	0xbd9a25c6	-0.07526736
239	0xbd73da1d	-0.05953418
240	0xbc9e79a0	-0.019345105
241	0xbd21200b	-0.0393372
242	0xbda6f34b	-0.08151873
243	0xbce25a74	-0.027631022
244	0x3de3f478	0.11130613
245	0x3de47503	0.11155131
246	0x3bf6ad3b	0.007527975
247	0xbd51cf73	-0.05122323
248	0x3dd3144e	0.10306607
249	0x3d90c0f1	0.07068051
250	0x3d898e54	0.067166
251	0xbcf6a4d3	-0.030107891
252	0xbdd33c58	-0.10314244
253	0xbdf38e89	-0.11892421
254	0xbe009d59	-0.12560023
255	0xbdff10fb	-0.12454411

egnn.layers.0.hidden_mlp.0.bias f4 [32]
0	0xba6edbfe	-0.0009111761
1	0xbda0bb65	-0.07848243
2	0x3c74eaf3	0.014948594
3	0x3dd270af	0.10275399
4	0xbdc3a86a	-0.09553607
5	0xba32e3bb	-0.00068240956
6	0x3d6282d5	0.055300552
7	0x3e0166ed	0.1263692
8	0x3dae75e2	0.08518578
9	0x3e002c72	0.12516955
10	0x3d5291fa	0.051408745
11	0xbe1a0642	-0.1504145
12	0xbddf9731	-0.10917509
13	0xbe26523a	-0.16242304
14	0x3de10b6c	0.10988507
15	0xbe2ba426	-0.16761836
16	0xbda637c7	-0.081161074
17	0x3de5fe6c	0.11230168
18	0xbd8c69f6	-0.06856148
19	0xbb989788	-0.004656736
20	0xbd58d1db	-0.05293451
21	0x3e2cd301	0.16877367
22	0xbcfbb85d	-0.03072756
23	0x3e1407e2	0.14456132
24	0xbe1b1f76	-0.1514872
25	0xbe2d2581	-0.16908838
26	0x3e0ae7e7	0.13565026
27	0xbe007132	-0.1254318
28	0x3db08584	0.08619216
29	0xbc442deb	-0.011973838
30	0xbd31084d	-0.043220807
31	0xbca14b42	-0.019689206

egnn.layers.0.hidden_mlp.2.weight f4 [16, 32]
0	0xbe1ad46e	-0.15120098
1	0x3e352196	0.17688593
2	0x3e5dab1a	0.21647301
3	0xbdd34b47	-0.103170924
4	0x3de3356c	0.11094174
5	0x3d9c5b41	0.07634593
6	0x3e1ab3f6	0.15107712
7	0x3e356ee6	0.17718086
8	0x3b548f37	0.0032433996
9	0x3dad2a9f	0.08455395
10	0x3d51d237	0.051225867
11	0xbe0cbaa7	-0.13743077
12	0xbe2be161	-0.16785194
13	0xbc747a90	-0.014921799
14	0xbd77ae92	-0.060469218
15	0xbd216b18	-0.039408773
16	0xba628ca3	-0.00086421723
17	0xbdccf7b8	-0.10008186
18	0x3d564382	0.052310474
19	0xbe05fbf3	-0.13084392
20	0xbd8303b2	-0.06397189
21	0x3e3d2671	0.18471695
22	0xbe0c8281	-0.13721658
23	0x3d3ef9cd	0.046624947
24	0x3d909d17	0.070612125
25	0x3d8ed59e	0.06974338
26	0x3daac948	0.083391726
27	0x3e06afbd	0.13152976
28	0xbbf6378b	-0.0075139455
29	0xbe351185	-0.17682464
30	0x3cfc313f	0.030785201
31	0xbd9d77dc	-0.07688877
32	0x3debaa3a	0.115070775
33	0x3ddd8851	0.10817016
34	0x3dc0d958	0.09416455
35	0xbe1ff4ec	-0.15620774
36	0xbd3e7269	-0.04649583
37	0xbd97c8b5	-0.07411329
38	0xbce28159	-0.027649568
39	0xbdd45c78	-0.103691995
40	0x3ded49b5	0.11586324
41	0x3e6dc8e1	0.2322116
42	0xbe2f4828	-0.17117369
43	0x3db82ff4	0.08993521
44	0x3c07bd7a	0.008284921
45	0xbe40e01c	-0.18835491
46	0xbc91c610	-0.017794639
47	0xbdc6ff2c	-0.09716639
48	0x3e0bb971	0.13644959
49	0xbdeea07f	-0.11651706
50	0x3d98c2f0	0.074590564
51	0x3d0dd60d	0.034627963
52	0xbd3f04c0	-0.04663539
53	0x3e3cf546	0.1845294
54	0x3d3745a7	0.04474416
55	0x3e116595	0.14198907
56	0xbe3a2b4f	-0.18180583
57	0xbd565633	-0.0523283
58	0x3ca84cdd	0.020544464
59	0xbe0f0ac1	-0.13968946
60	0xbe4bedcf	-0.19914936
61	0x3d606687	0.054785278
62	0x3d25676b	0.04038183
63	0x3dae53f3	0.08512106
64	0xbdd6103f	-0.104523174
65	0xbddcf266	-0.10788421
66	0x39c25e58	0.00037072855
67	0x3e11bfd0	0.14233327
68	0xbdb3b8fb	-0.087755166
69	0xbe245188	-0.16046727
70	0xbe2ba8e8	-0.16763651
71	0xbe0818b4	-0.13290673
72	0x3d2186db	0.03943525
73	0x3e127118	0.14300954
74	0xbe258b6b	-0.16166465
75	0xbca9c342	-0.020722989
76	0xbe378c8b	-0.17924707
77	0xbd8b37c7	-0.06797748
78	0x3e402722	0.18764928
79	0x3e0db52e	0.13838646
80	0xbdf3234b	-0.11871966
81	0x3d3f5460	0.046711326
82	0x3e128619	0.14308967
83	0x3d18fcbb	0.037350398
84	0xbe150e8c	-0.1455633
85	0x3d55e7ec	0.05222313
86	0xbdefe3c5	-0.117133655
87	0xbe20f11c	-0.15716976
88	0xbd8e4a72	-0.06947793
89	0x3e1a7329	0.15082993
90	0xbe1db806	-0.1540223
91	0xbce2cf0c	-0.027686618
92	0xbdf79647	-0.1208921
93	0x3da05b2c	0.0782989
94	0xbd7f2983	-0.062295448
95	0xbdbf4081	-0.09338475
96	0x3c93c307	0.018037332
97	0xbd66bdda	-0.0563334
98	0x3e1eeb5a	0.15519467
99	0xbdfcb13a	-0.12338491
100	0x3d3ac1b6	0.045594893
101	0xbdd98277	-0.10620587
102	0xbe46449f	-0.19362114
103	0xbd9cc7f3	-0.07655325
104	0xbdf57392	-0.11984934
105	0x3e338f9d	0.17535253
106	0xbd50b748	-0.05095604
107	0xbd79b7b6	-0.060966216
108	0xbe52ffa9	-0.20605339
109	0x3dbdbc67	0.092644505
110	0x3d1398ab	0.036034267
111	0x3d08c9da	0.033395626
112	0x3dd111ec	0.102084965
113	0x3dd9b0a1	0.106293924
114	0xbdf05b2a	-0.11736138
115	0xbd6e7cf9	-0.058224652
116	0x3d82d010	0.06387341
117	0x3c9e05b1	0.019289823
118	0x3e1f0eea	0.15533033
119	0xbd03e12e	-0.03219717
120	0xbe0651e4	-0.13117176
121	0x3df4325b	0.11923667
122	0xbceedb25	-0.02915723
123	0xbdbe8701	-0.09303094
124	0xbda9b0e2	-0.08285691
125	0x3d1f5b7d	0.03890561
126	0x3a1951fe	0.00058487046
127	0xbe1b4e14	-0.15166503
128	0x3c961673	0.018321251
129	0x3dcdc18c	0.10046682
130	0xbe05c9d4	-0.13065273
131	0xbdeb6cac	-0.11495337
132	0x3d947d26	0.07250433
133	0x3d71e69b	0.059057813
134	0x3da9fc13	0.083000325
135	0x3e01ca5f	0.12674855
136	0xbe13a5ac	-0.14418668
137	0xbe124a5e	-0.14286181
138	0xbc915e91	-0.017745288
139	0xbe0fafcd	-0.14031906
140	0x3c61448e	0.013749255
141	0x3d3a401f	0.045471307
142	0xbd9f2182	-0.07770063
143	0xbdf9c3f8	-0.12195581
144	0x3c4e0ace	0.012575818
145	0x3c8a71bd	0.016899938
146	0xbe0f5d1f	-0.14000367
147	0x3db4ee74	0.08834544
148	0x3db7e221	0.089786775
149	0xbe54d915	-0.20785935
150	0x3dbf7464	0.093483716
151	0x3c9f0386	0.01941086
152	0x3dd258df	0.10270857
153	0x3d617c6b	0.055050295
154	0xbd521b10	-0.05129534
155	0xbc801638	-0.015635595
156	0xbca84aa1	-0.020543398
157	0xbdbdb115	-0.09262291
158	0xbde772b3	-0.11301174
159	0x3d1f24fa	0.038853623
160	0x3ded3013	0.11581435
161	0x3c70cf08	0.014697798
162	0x3da9a4e5	0.08283404
163	0x3de4ab3f	0.11165475
164	0xbd998a12	-0.07497038
165	0xbdec282a	-0.11531098
166	0x3bcbacf3	0.0062156855
167	0x3e130814	0.1435855
168	0xbdadd268	-0.084873974
169	0xbe3ebe01	-0.18627168
170	0x3cddea6b	0.027089318
171	0x3e0764b2	0.13222006
172	0xbdbe4dc8	-0.09292179
173	0xbe1f89c6	-0.155799
174	0xbd73aee0	-0.059492946
175	0xbe09d7bb	-0.13461201
176	0x3e06bad2	0.13157204
177	0xbd945946	-0.0724359
178	0xbcb05b4a	-0.021527905
179	0xbc827f99	-0.015929984
180	0xbdde571a	-0.10856457
181	0x3e3a3604	0.18184668
182	0x3dbd20ce	0.092347726
183	0xbcca96a8	-0.024730042
184	0x3d9c4887	0.07631021
185	0xbce47352	-0.02788702
186	0x3ca8bdd8	0.020598337
187	0xbe1e3ac9	-0.15452112
188	0x3e34e2ec	0.17664689
189	0xbe686a2d	-0.22696753
190	0xbd6e00e4	-0.058106318
191	0xbd7e3454	-0.062061623
192	0xbd0c9d51	-0.034329716
193	0x3e41f5d1	0.18941428
194	0xbdd59955	-0.104296364
195	0x3d82b16f	0.06381499
196	0xbd38476f	-0.04499
197	0x3d21d2ca	0.039507665
198	0xbdf6aa74	-0.1204423
199	0x3e49f2fd	0.19721599
200	0x3e39011b	0.18066828
201	0x3d1bdb1a	0.03805075
202	0x3ce684a3	0.028139418
203	0x3d80df11	0.062925465
204	0xbddbe39c	-0.107367724
205	0xbe1c0e6c	-0.15239877
206	0x3e31851c	0.17335933
207	0x3df3d20b	0.11905297
208	0x3db37d4d	0.087641336
209	0x3d05daa1	0.032679204
210	0x3ddf2bfd	0.10897062
211	0x3cb11090	0.021614343
212	0x3d71d9a3	0.059045445
213	0x3d9d9ed8	0.07696313
214	0xbdab3919	-0.083605
215	0x3dd2d83a	0.10295148
216	0xbe178efc	-0.14800638
217	0xbc58b8ee	-0.013227684
218	0xbdabdae9	-0.08391363
219	0xbe2273d4	-0.15864497
220	0x3d67809a	0.05651913
221	0x3d31cdf9	0.04340932
222	0xbd42ef00	-0.04759121
223	0xbe214261	-0.15747978
224	0x3b908cb1	0.004411303
225	0x3ca3de0b	0.02000334
226	0xbdaad025	-0.08340482
227	0x3e22f345	0.15913112
228	0xbe22b898	-0.1589073
229	0xbd0425c8	-0.032262594
230	0xbdc87f3f	-0.09789895
231	0x3b9bb961	0.0047523235
232	0x3de2ebaa	0.110801056
233	0xbddde623	-0.10834911
234	0xbe6a02db	-0.22852652
235	0xbd96ead3	-0.07369008
236	0x3e0d66cf	0.1380875
237	0x3ce27a68	0.027646258
238	0x3e34689c	0.1761803
239	0x3d0d7f2f	0.03454512
240	0xbc81ae81	-0.01583028
241	0x3dc64a3a	0.09682126
242	0xbd898a9a	-0.06715889
243	0xbb418a89	-0.0029532036
244	0xbd0e73ea	-0.034778513
245	0xbaaddbd9	-0.0013264372
246	0xbe01916c	-0.1265313
247	0x3de4ae78	0.1116609
248	0x3d8c695e	0.06856035
249	0x3dc5a921	0.096513994
250	0xbdc06048	-0.09393364
251	0x3e10e3c6	0.14149389
252	0xbb84c4fc	-0.0040518027
253	0x3e3f7e2e	0.18700477
254	0x3dac44f0	0.08411586
255	0x3dc38b80	0.09548092

egnn.layers.0.hidden_mlp.2.bias f4 [16]
0	0x38c6ad1c	9.47362e-05
1	0xb7759d47	-1.4639757e-05
2	0x38ec2e8d	0.00011262028
3	0xb73b7acd	-1.117466e-05
4	0xb81513aa	-3.5542682e-05
5	0x37ba429f	2.220395e-05
6	0x37d4aabe	2.5351877e-05
7	0x37620bd6	1.34734055e-05
8	0x3703a069	7.845557e-06
9	0xb8803d3d	-6.114922e-05
10	0x36de9771	6.6337457e-06
11	0xb806b507	-3.2116684e-05
12	0x37755b73	1.462443e-05
13	0x3670d7a5	3.5888309e-06
14	0x3754c9bf	1.2683157e-05
15	0xb8b8232e	-8.7803564e-05
