2-egnca-rework/keep/poly4-2024-10-08@19-21-53/best@7973.pt (torch, 48465 bytes, 13 tensors)

egnn.layers.0.message_mlp.0.weight f8 [32, 33]
0	0xbfca9a9dda6d404c	-0.2078435246025968
1	0xbfcc08d4bb9b6c0d	-0.2190195003557566
2	0xbfc8102f520e33da	-0.18799392229666873
3	0xbfb941e319e7924f	-0.09866160757480567
4	0xbf9f4881e39a9d23	-0.030550031201213145
5	0x3f88f9b3d3c4284e	0.012195019626705907
6	0x3fc8080b67134bd2	0.18774549992539719
7	0x3fc83e4d90aaee8a	0.1894013363251939
8	0xbfcaf59e499df6a7	-0.2106206759889819
9	0xbfc2f33c40246437	-0.14804795391026612
10	0xbfc01d0e323c8219	-0.12588670208880684
11	0xbfb5c635f8ef08f0	-0.08505570723994871
12	0x3fc7de0e5a1121ff	0.18646411321448395
13	0x3fc1320de71fa0e8	0.1343400362523035
14	0xbfba9c81ec720f3f	-0.10395061514469449
15	0x3f81f3bb3615cbd3	0.008765661800429847
16	0xbfb0b1ce7c80710d	-0.065213113208703
17	0x3fbbfbcb9a5113a6	0.1093108417272349
18	0x3fb88cfe536797fc	0.09590138946768428
19	0xbf8c993bf85a8378	-0.013964146153115684
20	0xbfc0a9a3089f0cc8	-0.1301769058319222
21	0x3fbc39dd34442108	0.11025793577221432
22	0xbfb4e1b49df5707b	-0.08156899315275894
23	0xbfbb572d520b9a3f	-0.1067989659601176
24	0xbfcec0b88c7c94d0	-0.24025637492846963
25	0xbfca215f10de9ffb	-0.2041434128161653
26	0x3fca74dd5ad2ab2a	0.20669142660821055
27	0xbfbc731669296371	-0.11113109652923271
28	0xbfbc421204ec4ad6	-0.11038315410796015
29	0xbfc66f3d4b5687b5	-0.1752697580205315
30	0xbfb4cecccd52c384	-0.0812805176999643
31	0xbfc09ea617ed523e	-0.1298415772277099
32	0xbfb0af305b845af0	-0.06517317041685167
33	0xbfabd62967cf21db	-0.054368299409876385
34	0x3fa7ca4df703b8d2	0.04646533623041339
35	0x3f82f98de37c5c90	0.009265049462142266
36	0x3fb89544c750ada1	0.09602765909283174
37	0xbfc4a515a6f5f73c	-0.16128798153288837
38	0xbfc4681ed5cc073a	-0.1594275039606659
39	0xbf90796dcdcfa97a	-0.016088214575498118
40	0x3fcb0d078e2c85b6	0.21133512918554026
41	0xbfbe401056637fc4	-0.11816503628824565
42	0x3f6ae3f99f6efcd8	0.003282535118585988
43	0xbfbe1b6867e143e0	-0.11760571037417789
44	0x3fc08be8dbbc57cf	0.12926970223696663
45	0x3fb6c7be06ea59b0	0.08898532551606908
46	0xbf63b31c4bdaa52c	-0.0024047424947936293
47	0xbfc37344cc929c7a	-0.15195522297765135
48	0x3fb007eac568384e	0.06262080497273922
49	0x3fa72d13c662a383	0.045265787093121033
50	0x3fb4d572a7cf69d5	0.08138195607117578
51	0xbf91274cd2d85c09	-0.016751480454413357
52	0xbfc23c7a334e5641	-0.1424706221120449
53	0x3fa6238b9f8cfb93	0.043239939905553325
54	0x3f6478a4ad19e85c	0.002498933442265856
55	0x3fcc027326c48245	0.2188247622771248
56	0xbfb17780a1483654	-0.06822971284437901
57	0xbfab5c8049152435	-0.05344010250207313
58	0x3fa2e80e82e7f1fe	0.03692670200323177
59	0xbfb756a7bbb9b552	-0.09116600354328355
60	0xbfcd44a0970332f0	-0.2286568391195014
61	0x3fae2a20d87ca0fe	0.05891516344701307
62	0xbfb834fee25f7bf6	-0.09455864931759081
63	0x3fa3d22bc3effe60	0.038712852161549405
64	0xbfab8b037fceb6e8	-0.053794965125559646
65	0xbf9eed387015a0d1	-0.030201799241155684
66	0x3fb0bec84f7fa142	0.06541110936052966
67	0x3fc5f9690ffa856e	0.17167390136914257
68	0x3fbbaa7918445aae	0.10806996195274607
69	0xbfab02f5f193cf3d	-0.052756963481356035
70	0x3faf2f4beeb11dd4	0.06090771950453769
71	0x3fd03fa5a248f596	0.2538847050489833
72	0xbfbd3a158338a3b4	-0.1141675420154929
73	0xbfd060a4492121d8	-0.25589854375405485
74	0x3fb313159aa21162	0.0745099546930468
75	0xbfce4bbd6d87be68	-0.2366863999190969
76	0x3fba1255c4a388ae	0.10184227038147028
77	0x3fb80c5a89225c65	0.09393850181582904
78	0xbfbd5c86d18bcb85	-0.11469309440489724
79	0xbfbf9ccb88973c19	-0.12348625263915415
80	0x3fb4509fa140d3a7	0.07935521780821252
81	0x3fa94ae92e62f18b	0.049399649536527944
82	0x3fa090afedd883b6	0.03235387590780851
83	0xbfc016633aa042b7	-0.12568321573828253
84	0x3fbf73b795076d27	0.12285945309070155
85	0x3fcad1b3c0beb4c5	0.20952460204481418
86	0xbfb316d842538bf3	-0.07456733340545423
87	0x3fb47f3c594fb98d	0.0800664632840606
88	0xbfc6ec564b75d713	-0.17908743557534787
89	0xbfc197b9ce1de826	-0.1374428039960673
90	0x3fca63b612d8441e	0.20616794510036213
91	0x3fbb32564ddbb601	0.10623683358036119
92	0xbfbed672a4c91166	-0.1204597141559752
93	0x3fa674801ae6bccd	0.04385757759461626
94	0x3fc95a6c18281025	0.19807196788326667
95	0xbfa832c8440f53f2	-0.04726243811425225
96	0x3fa7c44e6deee905	0.046419573707185115
97	0x3fb3a40f942059c7	0.07672211996427968
98	0xbfc574b67a35c268	-0.16762429206166307
99	0x3fc107631372071e	0.13303793382152035
100	0xbfbe670c61499c2c	-0.11875989318069519
101	0xbfb7b60fdf34e009	-0.09262179564836982
102	0x3fbfbc0ddbd3338a	0.12396322838612953
103	0xbf980f147d3e36c5	-0.02349502577231168
104	0x3fb54edcaec96ce8	0.08323458926445293
105	0x3fac1eacff3cce79	0.05492153754894686
106	0xbf968dab31d10239	-0.02202479831271573
107	0xbfba4cba51684e8f	-0.1027332733868269
108	0x3f8aa5be11fbc7dc	0.013011441158116747
109	0x3f95e42fb47f1178	0.021378274337409547
110	0xbfa9b6f6648e1667	-0.050224017882140974
111	0xbfb272fd15b16c52	-0.07206708697906208
112	0xbfc49125e8971309	-0.1606795678800597
113	0xbfcc1183e2982517	-0.219284520761257
114	0xbfbfb6e54eb014bb	-0.12388451739396349
115	0x3fb5718f3fa37016	0.08376403144524178
116	0x3fc1587bbc0d1423	0.1355127971857267
117	0xbfc191b3edbdd057	-0.13725899799794902
118	0x3fc4a06de2675000	0.1611459117399363
119	0x3f9a1898ccf34456	0.02548445464055179
120	0x3fa9729db6dea12b	0.049702576230006144
121	0xbfc0460ad2a4647c	-0.1271375206495441
122	0xbfb5973d6bb102f4	-0.08433898810563872
123	0xbfa9a7041676cfa9	-0.05010235571117445
124	0x3fbaa241f5afcb05	0.10403835533342594
125	0x3fb3081f86b4efd4	0.07434269942035537
126	0xbfb1f869b0cab123	-0.07019672933774194
127	0x3fb91843b5740b4b	0.09802649669658796
128	0xbfb2d50246345943	-0.07356275762535795
129	0xbfc7e5c24d8813c9	-0.18669918809624012
130	0x3fb957826bbf6eb5	0.09899153833924397
131	0x3fc3624762fb1d44	0.15143673260738855
132	0x3f89dbe081c02218	0.01262641330687679
133	0xbf9e7c23a3f49c18	-0.02977042854504583
134	0xbfc4e1235fba45b5	-0.1631206719799089
135	0x3fc8b860767cba31	0.19312673364170643
136	0xbf8dd8cbd63cbc1a	-0.014573662257673137
137	0x3fc08702e8e237ac	0.12912021991035993
138	0x3fb1d2b0fb047496	0.0696211445651492
139	0xbfbc2232d21904ff	-0.10989682797755405
140	0xbfc31fedeb614e51	-0.1494119071308995
141	0x3f97f4a0eec66102	0.02339412171713296
142	0xbfa30b472ad587ba	-0.03719541929127908
143	0xbfbe10a5960f6816	-0.1174415103299967
144	0xbfaa2c2133d84716	-0.05111793287154691
145	0x3f9004662e4b2ad2	0.015641781402147732
146	0xbfabd23084ee29ca	-0.05433799383816369
147	0x3f7becbcc9325870	0.006817567296044755
148	0xbfa3b37cf32a6927	-0.038478760417279205
149	0x3fa4217927ed68c2	0.03931788074869892
150	0xbfc14352c133ca3e	-0.1348670428629521
151	0x3fa08167e1b2ba38	0.03223728780846041
152	0x3fb542f641b88cff	0.08305300812257953
153	0xbfa0865510d9740f	-0.03227487402612194
154	0x3faf713190c68d57	0.061410473749925636
155	0x3fb41786459a13af	0.07848395537628393
156	0x3f7789938ae768a4	0.005746437395339896
157	0x3fbf9dc00d9c8c61	0.12350082714378764
158	0x3fad811a50e139c1	0.05762560117055982
159	0xbfa5f17bbce97e80	-0.04285799675994628
160	0xbfb4a20e8b860523	-0.08059779077850186
161	0x3fc8995b348c60a6	0.1921800619682063
162	0xbf85ee6ca6738d9e	-0.010708664731686576
163	0xbfb70cbdd261c599	-0.09003816972997071
164	0x3fc3233b3a29e0e1	0.1495126756669896
165	0x3fa5d5089c30912a	0.04264094263661129
166	0x3fb814e0df0c74eb	0.09406857915424253
167	0x3fbb51c86e882295	0.10671665857820252
168	0xbfb38523a1d1c908	-0.07625029278441187
169	0xbfd014e70e3af3b3	-0.25127579106975445
170	0xbfa68f56373fc2f7	-0.0440623228495322
171	0x3fd234698a8dcb5b	0.28444899111416583
172	0x3fbda328bd308815	0.11577086085210937
173	0x3fb30d93d91df424	0.07442592669208686
174	0xbf8a83c5f9527d72	-0.012946650191507845
175	0xbfcba7cd9480f94b	-0.2160584426037054
176	0xbfd024dc7f60a420	-0.25224983634194764
177	0xbfc706867976b580	-0.17988663607449595
178	0x3f9d59f02d2265bb	0.02866339946249295
179	0x3f7480d2da64b2b7	0.005005668301504221
180	0xbfa9ed6a2ba615f7	-0.05063945563146526
181	0xbf9e88b6abc31329	-0.02981839583732718
182	0x3fbc4556bfeb217e	0.11043302712926636
183	0x3fc184414b82ae99	0.13684860407862656
184	0xbfbc820c15131ac5	-0.11135936274068133
185	0x3f8f63f7ef3c1f58	0.015327393520706487
186	0x3fb4ff12b831ec9b	0.08201710698078772
187	0xbfc4dfd6ab231ba6	-0.16308101040178008
188	0x3fa2cb54abf960e3	0.036707540505348545
189	0xbfa32f224a2c53ee	-0.03746897845682172
190	0x3f9bffabf01db733	0.027342497377893692
191	0x3f89c7ed87700d5f	0.012588363357287134
192	0xbfc82550ecc5c342	-0.18863879738958117
193	0xbfa007e104c6c682	-0.031310111840309865
194	0xbfb896ca0b307aad	-0.09605086110284829
195	0xbfc0d0df5e9e6f2a	-0.13137428398192103
196	0x3fbc3703877a9aa5	0.11021444375601648
197	0xbfb0efba65843cb6	-0.06615796068602972
198	0x3f99a7206c3dc7b8	0.025051600080992137
199	0xbfc45c222ae006d3	-0.1590616902686209
200	0x3fb788b477e8e0f0	0.09192970206720807
201	0xbfc373e7e424f8c2	-0.15197466506828589
202	0xbfce3009d6c99d2c	-0.23584101665185508
203	0xbfc440a6504b2891	-0.15822295113168086
204	0x3fca72e14cbd1c98	0.20663086173064893
205	0x3fbd73f58398b90f	0.11505064451987244
206	0x3fab81a3120807a7	0.05372342677220781
207	0x3fcb3a600220b903	0.2127189646138917
208	0xbfbf3a8c81cd6498	-0.12198713463785038
209	0xbfb59ce792ebfcc9	-0.08442542397459642
210	0x3fc01bed1fc6e69f	0.125852242008297
211	0xbfc998ec07629f7c	-0.19997930870635716
212	0xbfc2720a825b23cb	-0.14410525670089522
213	0xbfc43af92e39dcda	-0.158049724170019
214	0x3fa01daaabeeb35c	0.031476338851780666
215	0x3fc9fe0574795ae9	0.20306461512765075
216	0x3fa3375382bfbaa9	0.037531480513157085
217	0x3fb15974b9fe28f9	0.06777123967018274
218	0xbf80be3db65b44a1	-0.00817535603292391
219	0xbfbdee62e6025d65	-0.11691873660526182
220	0x3fa3cc921eab32f5	0.03867012619375557
221	0x3fc112720fd6cc63	0.13337541364089409
222	0x3fb23fe2ed4d8d19	0.07128732961205166
223	0xbfc7b10e9850ea88	-0.18509085118587998
224	0xbfc4249fc8cc3e2d	-0.15736768059331166
225	0x3f9e9a20995b9d69	0.029884824142667386
226	0x3f729189ce9f5b41	0.004533327397402699
227	0xbfc7ec7d10c40895	-0.18690455740585735
228	0x3fbdd2c533c636f6	0.11649734987278379
229	0xbfa00ddd3405a0aa	-0.0313557744983098
230	0x3fbda151ff17775b	0.11574280240844585
231	0xbfb40f222ccf7579	-0.07835591882709093
232	0xbfb3d9c63fa6857b	-0.07754172376600892
233	0xbf9b4aa8fd2a7c51	-0.026651993228935137
234	0x3fb4aebac78bc041	0.0807911622212041
235	0xbfaf4085ef0f2eb0	-0.061039147789043624
236	0xbfccc84ae7add8ea	-0.22486244499641056
237	0x3fc4f8e626858ef6	0.163845795449667
238	0x3fc40af1373e67fe	0.1565839309449188
239	0x3f9c21ccd2980c7f	0.02747268710482986
240	0xbfc40d34ed7fe644	-0.15665303799305452
241	0xbfa133f509fa8250	-0.03359952685173495
242	0xbfb0e7707ec5932c	-0.06603148551000676
243	0xbfc190bb7439a286	-0.13722937750869252
244	0x3fb48fc0714a2875	0.08031847730504345
245	0xbfc789d8a16a3c60	-0.1838942325743771
246	0x3fb2ddb5ffb89956	0.07369554036322276
247	0x3fb1d3826e34bd57	0.0696336287553455
248	0xbf8fcb435869a7dc	-0.015524412284509674
249	0x3fc58ebf7b352cc1	0.16841882244111697
250	0xbfc668140a491f63	-0.17505121710041313
251	0x3f9095e43e5b8fce	0.016196790987024028
252	0xbfbda3895b922306	-0.11577661977402096
253	0xbfc2deafecc3abea	-0.14742087422140965
254	0xbfc39b6e5682fc43	-0.15318087791635734
255	0xbfb54d6cd991197f	-0.08321266471566523

egnn.layers.0.message_mlp.0.bias f8 [32]
0	0xbfae6f956c3da532	-0.05944506593989231
1	0xbfba00f42e0b45f9	-0.10157705425378784
2	0x3fb90ccc6a369034	0.09785153954595743
3	0xbfc78611f455cc55	-0.18377899580409243
4	0xbfbaecd938dbaa12	-0.10517652166496586
5	0xbfa8de63e48b51b3	-0.04857170262190227
6	0xbf98f6f87f3d5b18	-0.024379618421643462
7	0x3f8d78435933932b	0.014389539870941789
8	0x3fc2b6c72118b9e4	0.14620293727916966
9	0x3f9a72a346032131	0.025827933452803712
10	0xbfc8f811b81621da	-0.19507047165485752
11	0xbfacfbdff1bd6dc8	-0.056609152087471026
12	0xbfbf21f2703845c2	-0.12161174049130977
13	0xbfc2e14d2866ed7a	-0.1475006530070962
14	0x3fbc76d13c1c6a36	0.11118800847581486
15	0xbfa8328aa4ac3e17	-0.04726060161749162
16	0xbfb74f11eacb6acd	-0.09105026228227615
17	0x3fa4d24e8ef9f5d8	0.040667014077353236
18	0x3fc580ebbae2e84f	0.16799685120878613
19	0xbfc489c3094ccf2d	-0.16045415834525426
20	0xbfc2188b54a6d96a	-0.14137403138529275
21	0x3fc2f9100a1188df	0.14822578899026603
22	0x3fc73a20a06c7a67	0.18146140893164217
23	0x3f65d88d1142839f	0.0026667361472196417
24	0xbf99029f00a5c1ed	-0.02442406121684997
25	0xbfcd34d63eb06797	-0.22817495404234187
26	0xbfb4aa8417c4d675	-0.08072686748786302
27	0xbfa0e3375fe0c1a4	-0.03298352284798803
28	0x3fbe2fd8843753a2	0.11791756847317328
29	0xbfb7c09648ac7d86	-0.09278239511740169
30	0xbfb4dca6201ff3d4	-0.0814918354444239
31	0xbfbf49574db6ca54	-0.12221284529986437

egnn.layers.0.message_mlp.2.weight f8 [32, 32]
0	0x3fc05f36d014fc26	0.1279057041192299
1	0xbfabc49894f1b7ef	-0.0542342836205164
2	0x3fbfef56db240c64	0.12474577760808497
3	0x3f9df52cfbce4bb8	0.029255583638199772
4	0x3fbdcab63e29d52c	0.11637438790952065
5	0x3fc2ba2265cf0f3d	0.14630537005552383
6	0xbfb0e30192f9c904	-0.06596383894228458
7	0xbfa062ff69cd36bc	-0.03200529257320059
8	0x3fa5d5be1559fa3d	0.0426463509620487
9	0x3fc0a1c5cb6a3a5c	0.12993690903063537
10	0x3fb14059312cf5eb	0.06738812876297799
11	0xbfc139330d910596	-0.13455808794428198
12	0xbf87b5c9fae72737	-0.011577203721475733
13	0x3fb8a56bb70effe8	0.09627412051395334
14	0x3fd023b56678b01f	0.2521794796655303
15	0xbfc195ec65092cb9	-0.13738779958143768
16	0x3f9dc3a2f7bd20a9	0.029066606875205157
17	0xbfc30ab9d479f04e	-0.148764828441815
18	0xbf61206bf74eaa93	-0.0020906552039908293
19	0x3fc268e065eae95f	0.14382557846495111
20	0xbf7391ef592a7397	-0.004777846292793784
21	0xbfc93d9ec0128fc0	-0.1971929967741044
22	0x3fb5b99f9a483486	0.08486363903667113
23	0x3fc0dc8d9cff29e8	0.13173074880462754
24	0xbfbbaac19e1953c8	-0.10807428464734337
25	0x3fbb4831a457ae2d	0.10657034170406439
26	0xbf95c1aaf72926d8	-0.021246596656317646
27	0xbfc75c52e531b918	-0.1825049990761236
28	0xbfafd7b261e04c70	-0.062192511031889164
29	0xbfbacadcf0040650	-0.10465794429549047
30	0x3fc53dd0606cb76d	0.16594891269908932
31	0xbfa3e03dd6d62d10	-0.0388202023269405
32	0xbfc2b1c29e6fd988	-0.14604981170823472
33	0xbfb5de2acb81a40d	-0.08542125194948387
34	0x3faf74664ce74378	0.06143493355523949
35	0x3fc5c20c3752a0f0	0.16998436642939607
36	0x3fd01c2918534297	0.2517187821913835
37	0xbfc31886e90c86a6	-0.14918600444166435
38	0xbfc2acf16b06addf	-0.14590280271418885
39	0xbfadb655fc557bef	-0.05803173737762523
40	0xbfb1540be0548ad1	-0.06768869616329744
41	0x3fc95edee6b8c824	0.1982077242442425
42	0x3fac0613e2797d8b	0.05473386897642304
43	0x3fa62e8a37f399a0	0.0433238213825462
44	0x3fc9713630866831	0.19876744622598744
45	0x3fc4c568ad865af2	0.16227444146053177
46	0x3f77885f57f01875	0.00574528926427408
47	0x3fca2327831ac95b	0.20419782544702056
48	0xbfb3bf4c7f907f01	-0.07713773836485062
49	0xbfca896057938fcc	-0.20731739307586705
50	0xbfc1386f27ddc20d	-0.1345347351703058
51	0xbfb5336550147031	-0.08281548695634978
52	0x3fca4368857a4d83	0.20518213765590695
53	0xbfc6c65c4f0a82d5	-0.17792848452974988
54	0xbf845bb19197b14a	-0.009940516715652454
55	0x3fc5610bd1068457	0.16702411371537337
56	0x3fbb47337aeb9b33	0.1065551924799422
57	0xbf99f7d0d01b5308	-0.025359404279544
58	0xbfbe544f5252eb4c	-0.11847396621571454
59	0x3f88ff084ced287c	0.012205185744864837
60	0x3fc2599da2a7b13b	0.14335985605374355
61	0xbfa8f20089f1f20e	-0.04872132953548568
62	0x3fb62d8a8c7cb81f	0.08663240365851309
63	0xbfb6c15203cec72a	-0.0888873347564895
64	0xbfadd04bd861c5c8	-0.058229799426850415
65	0x3fbca28bafe048bf	0.11185524982309668
66	0x3fc7b49d5c58318d	0.18519942292222105
67	0xbf7d903da886fca7	-0.007217636921665583
68	0x3fb0d34202bd3ee9	0.06572353903652196
69	0xbfc64212986ac274	-0.17389137689817213
70	0x3f9198ea19c090cd	0.017184884855070238
71	0x3fc0d45063d33259	0.131479309790296
72	0xbfb3a744c77e4ac9	-0.07677106733744234
73	0x3fc4d15c94248e97	0.16263921006713097
74	0xbfb6c9fbf1ee2685	-0.08901953369618283
75	0x3fae51fd407a1ccf	0.059219278450706285
76	0xbfbe6aa1a8ffd750	-0.11881456733666806
77	0xbfc3d9d50b1ba220	-0.15508521120433816
78	0xbfbe3c22bd61f91c	-0.11810509799577001
79	0xbfb604f6ebc82b78	-0.08601325279611938
80	0xbfc43c366ad78365	-0.15808754174124853
81	0x3fbcd381dca0ec20	0.11260234486046317
82	0xbf72b887c17d706c	-0.0045705130540590715
83	0xbf536c729c05e65a	-0.0011855239136750102
84	0x3fbc22857f43fa00	0.1099017558771962
85	0xbfc0e6b249a8523e	-0.1320402965217386
86	0x3fab552c0fb5ba01	0.053384186666210816
87	0x3fc39295a3ba9f07	0.15291090483264488
88	0xbfc30280cf869dff	-0.14851389058206618
89	0xbfc40d4d903c01f8	-0.15665597479529914
90	0x3f43ecfc1c42d04b	0.0006080847747598287
91	0xbf90d16a36608cb1	-0.016423854416768694
92	0xbfb7c989e367201d	-0.09291898538424488
93	0xbfbd0204a8cd6326	-0.1133120452990509
94	0x3f9429631142f2cc	0.01968912880760136
95	0x3fba325ba78a2cba	0.10233090248418622
96	0x3fc779e4382e6ea8	0.18340733283263444
97	0xbfa00ef5fdf8908b	-0.03136414265853301
98	0x3fa37d3c6bb967b3	0.038064849996501414
99	0x3fc881954042e7c6	0.1914545596862906
100	0x3f9ad983fb497057	0.026220380985577964
101	0xbfb35242148b1bdc	-0.07547390939281179
102	0x3fc8eae3748e6c57	0.19466822806575365
103	0xbfb24b9f3120ffb4	-0.0714663977569206
104	0xbf9902501ddf7fe8	-0.024422885726266857
105	0x3fa3c0eca87500af	0.03858127170906422
106	0x3fbb8ae9f7bfb9d4	0.10758840845640033
107	0x3fc0551bf53be91a	0.12759732698743492
108	0x3fb8b6f2148ab266	0.09654152871616759
109	0xbfb26b72ed414f86	-0.07195204059945412
110	0xbfb0f60a3f5f8e83	-0.0662542729110616
111	0x3fab3bf1c64016c3	0.05319171471641717
112	0x3fc98941e5ef1d21	0.19950126387832604
113	0xbf904c7f92fd88dc	-0.015916817995624707
114	0xbfaff9ed96893d56	-0.06245367491339475
115	0x3fbd9107121a3393	0.1154941958613576
116	0x3fc03c91035dd9d0	0.1268483416021824
117	0x3fb8c4aa3c16acb9	0.09675086943632295
118	0xbfabea6596019dd7	-0.05452268081790706
119	0xbfbfcec0e8bbbd95	-0.12424855882613024
120	0x3f78273cec866031	0.005896795257648122
121	0xbfbff72b14a53f05	-0.12486523870506623
122	0x3fb4c8555a05db10	0.08118184516738958
123	0xbf9202c0b201b2b0	-0.01758862577883019
124	0xbfbd21e9c657e11d	-0.11379872410168841
125	0x3fbf9832f929c3c4	0.12341612418255382
126	0x3fa9673ea9ef9b85	0.04961582016385705
127	0xbfbe1ca44dc10da8	-0.11762453935903372
128	0x3fb35197a155f9cb	0.0754637497793517
129	0xbf61187b1685a60a	-0.0020868686735198193
130	0x3f8daee946859daa	0.014493772949846957
131	0x3f97a8f9f6ba84c8	0.02310553139125629
132	0xbfc224f0c522087a	-0.14175233483917166
133	0xbfa6eb714b60e197	-0.04476503415247917
134	0xbf9b0e6715a07a1b	-0.026422129340170835
135	0x3f9b1b647ff547fe	0.026471681890434688
136	0x3f987a34ffa6ca10	0.02390368280766536
137	0x3fb1f7d6524c0ef9	0.070187945453707
138	0xbfbc7a16b00b1b0e	-0.1112379245561039
139	0x3f9be7d07b2246cc	0.027251489177223573
140	0xbfc1b53ca6c7bf31	-0.13834341186110913
141	0xbfc111f7d86892a8	-0.13336084429569905
142	0xbfc391bd55b9d4cb	-0.15288511930308454
143	0x3fc21ba00400cbaa	0.1414680499597954
144	0xbfa0bd498dabff58	-0.03269414762871631
145	0x3fb7b1a354b54fc0	0.09255429094383683
146	0x3fb5c7ac47cfcd15	0.08507801774230857
147	0x3fb2a2fc5b823646	0.0727994655046241
148	0xbfc44a325acc96fa	-0.15851430352739
149	0xbfb6e390a9422d00	-0.08940986759460046
150	0x3fc94f19ad3e330b	0.1977264495766565
151	0x3fc40d2ab54502de	0.15665181971600978
152	0x3fc378133c8b5b55	0.15210190254466718
153	0xbf963dc6fe0779dd	-0.02172003674956523
154	0x3fbf305a5bee8c95	0.12183155769757754
155	0xbfc1fa8bcb00d51d	-0.14045855915325314
156	0x3fa2c3dbf817237f	0.03665053752371871
157	0x3f9307aadb3648d5	0.018583936338082935
158	0x3fb8a3641eb68a0d	0.09624315023260284
159	0x3fa5f639b2234af1	0.042894175525040164
160	0x3fc080137f5f78a5	0.12890857428914618
161	0x3fc06a949728fed1	0.12825257664552805
162	0xbfa12c3f234b8ec5	-0.03354070001458135
163	0xbfc187f6b9fd4db5	-0.1369617851401991
164	0xbfb8d8641aba4295	-0.09705186512497684
165	0xbfa6b4a83829d202	-0.044347054344061845
166	0xbfc80eb0b36d862c	-0.18794831048130456
167	0xbfbaabd19956a1b9	-0.10418424600232513
168	0x3faa4e4c04e31e21	0.05137860831888142
169	0x3fb78a25c1525b2c	0.09195171327369839
170	0x3f32453b551c5006	0.0002787847380301137
171	0x3fc0575850f98145	0.12766555742110533
172	0x3fbfac28581a6458	0.12372066641764101
173	0xbfab8ff1c84aeb23	-0.05383258409479754
174	0x3fb0cd279e0e4a70	0.06563041313919782
175	0xbfb0ba0563fb50b7	-0.06533845606765253
176	0x3fb85bd577eba78c	0.09515127351519775
177	0xbfb3a3a42348e3ea	-0.07671571599429652
178	0x3fc15a12143117b3	0.13556123720098653
179	0x3fc1775f09fb0db4	0.13645542132699762
180	0x3fb5e0316fe7f232	0.08545216543274917
181	0xbface3045e34e044	-0.05641950273496879
182	0xbfb50eb028e376be	-0.08225537298445837
183	0x3f9502d01913566a	0.020518542795647944
184	0xbfc799cf2ec96781	-0.18438138756283354
185	0xbfc11debe837e0a4	-0.13372563208372867
186	0xbfbbe4ba500153c8	-0.10895885899783686
187	0x3fc21b4dac68c2f6	0.141458234008972
188	0x3faf8f6ab1eb0a64	0.061641058176537894
189	0x3fadd7b5610465e5	0.05828635033885713
190	0x3fc0987a4d3e6c26	0.1296532513777901
191	0x3fb91b56bffc9277	0.09807340800450413
192	0x3fc11b35fab40fab	0.13364290944457244
193	0x3fbcfdc68f092ca4	0.11324730865560412
194	0xbfbd2b3143cacef8	-0.11394031434138785
195	0xbfc6b9a436a9b5f8	-0.17754032773102302
196	0x3f860c97400ae0b4	0.010766202585145691
197	0xbfc1168f2ab09b36	-0.1335009535261748
198	0x3fc2ccf38b66ffc8	0.14687961870913413
199	0xbfc92cd8a13b5ec9	-0.1966810977235041
200	0x3fc447e930da7e92	0.15844454656052115
201	0x3fc548ef16347db5	0.1662882669852316
202	0x3fc0717210474878	0.12846208376737756
203	0x3fbcddce251413bb	0.11275947957263004
204	0xbfb1c5a6478ac582	-0.06942214247353287
205	0xbfc68930d0f37a45	-0.1760617275494544
206	0x3fa64f0d92b83694	0.04357187667856724
207	0x3fc7313921d7a002	0.18118967201667152
208	0xbfc836167d175bbd	-0.18915063007326963
209	0xbfc54ac158c21f1b	-0.16634384950543155
210	0xbf9353705aba64fc	-0.018872981584171264
211	0x3fc26f136ac9cf36	0.1440147658755621
212	0x3fb6b9d257d2031f	0.0887729133992363
213	0xbfb8058e21383928	-0.09383476553941661
214	0xbf95a9cbfd36ae08	-0.021155536012583936
215	0x3fb686b66423f3a8	0.08799304909548644
216	0xbfc30e734d33cfc0	-0.14887849111221207
217	0x3fb6ae72e8a26fbf	0.08859937839082387
218	0x3f92ac929ead60ca	0.018236437735453838
219	0x3fc47f255ab4528f	0.16013018540310894
220	0xbfc741c0ff14f556	-0.18169414954347002
221	0x3fbe2cc73b215777	0.11787076181039234
222	0xbfc3b57a9ab9aaf5	-0.1539757972235162
223	0x3fa9ce4dc47b8545	0.05040209792583509
224	0xbfab8171066485e6	-0.05372193530116558
225	0x3fb30b64ce525890	0.07439260518217083
226	0x3fa2eed2920cd5c0	0.03697832138861257
227	0xbfc85ba0d1b52092	-0.19029627074838068
228	0xbfc83729ed176458	-0.18918346478202142
229	0xbfb44a78fbb82a4c	-0.0792613615559869
230	0xbfc3cfdb2286c557	-0.15478076158391715
231	0xbf937e2e5a8dfb97	-0.019036030079856294
232	0xbfc58cf7777c8fea	-0.1683644612722895
233	0x3fbbcc4204d4e847	0.10858547800026584
234	0xbfae483e2af52f6f	-0.059144919151178914
235	0x3fc7834efd3545b1	0.18369471896816728
236	0x3f73d0b0651d8263	0.004837693255325878
237	0x3fc7a40fc7957104	0.18469426389027188
238	0x3fc4c63f1b872523	0.1623000034726739
239	0xbfb619f31107c62c	-0.08633345762043437
240	0xbfc89eb0fbf2f2ab	-0.19234287550161375
241	0xbfbcafe7e1666578	-0.11205910923890439
242	0xbf8105730b540d5a	-0.008311175139630467
243	0x3fc7af76e15ab925	0.1850422478068562
244	0x3fc05cba4d659372	0.12782982615604116
245	0xbf9b0aa606e63625	-0.02640780846700443
246	0xbf59778793318a4f	-0.0015543769811975532
247	0x3fc89bb3c6e269b2	0.1922516556849821
248	0x3f91dd6ac307de2d	0.0174462014710725
249	0xbfc188e4f519cf89	-0.13699018447698233
250	0x3fc872e36ef95e0f	0.19100611609131632
251	0x3fb84ac664b8395c	0.0948909755609057
252	0xbf742d1dceda8eae	-0.00492583888777502
253	0x3fa4031cfead7d1f	0.0390862522970059
254	0xbfbbdfa079402319	-0.1088810249349418
255	0xbfb46bfc44b8e52e	-0.0797727268008159

egnn.layers.0.message_mlp.2.bias f8 [32]
0	0xbfb5e4b2812e4e8d	-0.08552089361028888
1	0x3fbb8effb5a8bc1c	0.10765073952710263
2	0x3fd04cd33f86637f	0.2546890373574157
3	0xbf9ab5ddf9f6befc	-0.026084392911513085
4	0x3fc339592c49c934	0.15018763220320752
5	0xbfba9d18f5e42eb6	-0.10395961764532555
6	0x3fc20fbdd8f868e4	0.14110539526229282
7	0xbfb964499ee7c934	-0.0991865170433684
8	0x3fc4c0d1fd81c2c8	0.16213440778985544
9	0x3fc0ab493285a30e	0.13022723166366074
10	0x3fc1caa189a5ef29	0.13899630757429662
11	0x3f8ba247f87c2837	0.013493120451602987
12	0x3fa5b71267777352	0.04241235268611966
13	0x3fc1251022852007	0.13394357381389474
14	0x3fbce3803593fc50	0.11284638698633498
15	0x3fc58f4164b80b68	0.16843430917659963
16	0xbfb2999098763c0e	-0.07265571329320172
17	0xbfa63fb47ca18617	-0.04345478078245096
18	0xbfae68bc73a1c527	-0.05939282332918543
19	0x3fbb6ffc73d7866e	0.10717752292796387
20	0xbfa4455d06079efb	-0.039591700540595874
21	0xbfc2609586bbd767	-0.1435725124244371
22	0xbfbf8c5594cc7c0a	-0.12323508150846876
23	0xbfbd0827ecb2c7f3	-0.11340570000427856
24	0x3f678aad02a5fbcf	0.002873742972212302
25	0xbfc1c67a44659e23	-0.1388695558518843
26	0x3fbf811697bb281b	0.12306348041889274
27	0x3f7ac39798de6341	0.006534187485066679
28	0xbf9caaee2e2201b0	-0.02799579769680499
29	0x3fa1ef521f85cb69	0.035028997753122244
30	0x3fb6a2c45955abb4	0.08842112713834532
31	0x3fb770a6a2f197da	0.0915626666843247

egnn.layers.0.coord_mlp.0.weight f8 [32, 32]
0	0x3fa6ddb1c829f617	0.04466014450461502
1	0x3f81fc47ed43e06d	0.008781969002015633
2	0xbf96d98192f4afa1	-0.02231409511038829
3	0x3fc5d7320b43fa62	0.17062974500727807
4	0xbfb4c1e9040708c5	-0.08108383510901536
5	0xbf9f1f89f1ab1e41	-0.03039374864127198
6	0x3fb76ba2bd118296	0.09148614040305811
7	0xbfac3c5fc8a36e0b	-0.05514811824988549
8	0x3f991d82b976c433	0.024526636667079948
9	0x3fb094c9d3698b92	0.06477033053810846
10	0xbfb364885cafc76c	-0.07575275671822873
11	0x3fd23f20bd8f61d9	0.2851030207798693
12	0x3fc00cb8ddd3ed2c	0.1253882487434138
13	0x3fca07d4d71c23eb	0.20336399558462345
14	0xbfa627a4f62fa65d	-0.04327121262742815
15	0x3fcb83c1575b0b13	0.21495835080539702
16	0xbfb5759e401d3c4c	-0.08382596078193777
17	0x3f84ae7d8ff101d8	0.010098439173931092
18	0xbfbc40b99dc9d685	-0.11036262609726506
19	0x3fc68eae6116696f	0.17622928372004362
20	0x3fcec76e71420605	0.24046116380854712
21	0xbf93ede654fb2f87	-0.019462202965584232
22	0x3fc55f23a07533f7	0.16696591696600624
23	0xbfb97df89e0e964f	-0.09957841738522542
24	0x3fb055233e749866	0.06379909777442236
25	0x3fc5d2a6233c3241	0.17049099655595693
26	0xbfc8b111792defb4	-0.19290369431462084
27	0xbfcd568cdc979954	-0.22920380374052718
28	0xbfc125f4e5255f78	-0.13397084416169114
29	0xbfcccd33e778fdee	-0.22501229097723247
30	0xbf837acac8c60cf5	-0.009511551143765543
31	0x3fcd09b23142588e	0.22685840039475064
32	0xbfc1c1fe766b1940	-0.13873272688051408
33	0xbfba2867ae19e277	-0.1021790313769858
34	0xbfc7797e669ff094	-0.18339519511198843
35	0x3f8896efe70d64a2	0.012006639708191994
36	0x3fc12c7d2cda2654	0.13417019548460252
37	0x3fb636526278882f	0.08676638511727285
38	0xbfc45bb59dca4b27	-0.15904874996757565
39	0xbfc8108db8c47b70	-0.18800517579890252
40	0x3f8b3a963d91162e	0.013295339349620763
41	0x3fa48927b4608942	0.040108910340011864
42	0xbf8a5c004850ab90	-0.012870790678865679
43	0x3fcb4866a980028d	0.2131470039021405
44	0xbfb6973c76abfdaa	-0.08824518105756476
45	0x3f9929b79de61ac2	0.024573201191311574
46	0x3fc764ceeb311c62	0.18276392444588213
47	0x3f9737fba6317065	0.02267449571478188
48	0xbfcdde02c2def4b8	-0.23333773150617332
49	0xbfcfe8c931389b85	-0.24929156211257122
50	0x3fbd004c0bdf3aac	0.11328578271716577
51	0x3fc64b1efa8904b8	0.17416751130261843
52	0x3fcc72ae94d76d1d	0.22224981563236038
53	0xbfc3d68947fb10a6	-0.1549846269100545
54	0x3f9ef4a180af4301	0.03023006771019521
55	0x3fb27cde70659433	0.0722178482443077
56	0xbf9976518c69efab	-0.024865411944560083
57	0x3faa46eb8746ac37	0.051322326911155285
58	0xbfc13f3e4eb2510a	-0.1347425350437635
59	0x3fac74984f13108d	0.055577048924107954
60	0xbfb6cae1d25b553c	-0.08903323541320146
61	0xbfbc796f592d9819	-0.11122795035552747
62	0x3fb2d07fad54ead1	0.07349393827181962
63	0x3fba906da59f4d77	0.10376630109322159
64	0xbf9aa93d8a0a5d7c	-0.026036225843737423
65	0xbfbc5f23da0cddb0	-0.11082672189228648
66	0x3fb0c66c26b296e1	0.06552768654600129
67	0xbf7f286c93d833ea	-0.007606910830429728
68	0x3f9d77cf0fdf004e	0.028777346938796015
69	0x3fb9af7e120edec5	0.10033405247565515
70	0xbf63dd5bcc2780e4	-0.0024248879355895803
71	0x3fa35e577f449567	0.03782914570391931
72	0x3fb951eee81b5ae7	0.09890645186110768
73	0xbf774f34349d2ba2	-0.005690769126725311
74	0xbfa95c7873ef5656	-0.049533619072161514
75	0x3f9fd7d00171763c	0.031096696937643595
76	0x3fa245ade4bfd790	0.03568786065436236
77	0xbf9fafe7347f1541	-0.030944454745413855
78	0xbfbba106fab47bb4	-0.1079258310387406
79	0x3fc4f07322625209	0.16358794382962596
80	0x3fa32e1ecb26d4d5	0.03746124486807793
81	0x3f61e7c77d029c5b	0.002185716271998523
82	0xbfb38083a48c655c	-0.0761797215203805
83	0xbfc1d18a55a47e95	-0.1392071645905061
84	0x3fa0c56e97cbd7e7	0.032756286649529724
85	0x3fae4e05fbc02680	0.0591890210926751
86	0xbf533abd6e44b9e0	-0.001173672667458818
87	0xbfc3bc07f078aa28	-0.15417575113072357
88	0xbfa34ab903b9e2e8	-0.037679464058731515
89	0x3fb12b5bd2f36ba6	0.06706785106818688
90	0x3fbc01ce85ad23ad	0.10940256846983117
91	0x3fbc40e73b48a713	0.11036534497602828
92	0xbf97d4af8959314a	-0.023272269018251003
93	0x3f78b3685152efa7	0.006030471316247266
94	0x3f97102fb62ec5e3	0.022522683615255345
95	0xbf87d59e381bf63a	-0.011637912833516773
96	0x3fc8bc69dca7e5c9	0.19324992441379
97	0x3fbdcc7afdc9172d	0.11640137382445621
98	0x3fbf5cb43c32db83	0.12250830144590279
99	0xbfc29039ec111828	-0.14502643610666266
100	0x3fc0c7e142d440c7	0.1310998512567549
101	0x3fc29be2ae38d997	0.14538224703728694
102	0x3fbd22d9b05f3286	0.11381302410081603
103	0xbfa0ead7e5c25429	-0.03304171256710504
104	0x3fc9fb239e43b6a4	0.2029766581321627
105	0xbfc4fc23d0f7b5a3	-0.16394469932076303
106	0x3fa2ad6ee0cd3527	0.03647943967971861
107	0xbfbdf28ea65ce732	-0.11698237954706484
108	0x3faa6cdf828dc764	0.05161188572573286
109	0x3fb43121290a3e6b	0.07887465717271318
110	0xbfa0bcc01a2950ab	-0.03269005126335974
111	0xbf9aec8317591420	-0.026292846965834227
112	0x3f7113e5e7a44e35	0.00416936689932217
113	0x3fbd4dc263656a1e	0.11446776320136862
114	0x3fc523db10be8425	0.16515672986591415
115	0xbf8722c3c2384c99	-0.011296777119275613
116	0x3f8d40ab7d41bafe	0.014283504257233567
117	0x3fcb3447aa8643b5	0.21253295732870262
118	0xbfc9517f0d14921b	-0.19779956949891261
119	0x3f92f36fc6e863fd	0.018506762042395753
120	0xbf62bac04343505c	-0.00228631545369677
121	0xbfc6a13e280b0068	-0.1767957397005404
122	0x3fa0c54d63c4d4e5	0.03275529711610562
123	0x3fccf1317742854e	0.22611063311800667
124	0x3fbf6a11531f0dff	0.12271221427277366
125	0x3fc14ed26afa4311	0.135217954859876
126	0x3fc4e2adb46b995c	0.16316767987809555
127	0xbfcd547b05b25b35	-0.22914064195784936
128	0x3f8b5e66ede61e64	0.013363651404474548
129	0xbfba23a51eb3e99e	-0.10210639953212428
130	0x3f932205df4d63d5	0.018684474710742045
131	0x3fa640a916035b17	0.04346207040514665
132	0xbfbbe714674ee2be	-0.10899474641963544
133	0xbfc3857d8fba63e7	-0.1525113059804248
134	0xbfa2799f5e7529ca	-0.03608415630386082
135	0x3f8876a910a80acb	0.011945076771558224
136	0x3fc228d427727108	0.1418709938633429
137	0xbfb8cc0df2058227	-0.09686362417915771
138	0xbfb410fcdd809b20	-0.07838421256802208
139	0xbfd00ac002bda406	-0.25065613048224156
140	0x3f9c662ea5ebe5d3	0.027733544232409656
141	0xbfc9fc1a7c1295f3	-0.2030060869048352
142	0x3f92be746818a969	0.018304652074371406
143	0x3fa4d518ba6536f3	0.040688297990170506
144	0x3fcf465e315d0b3e	0.24433495912861675
145	0x3fa580c3b07c8a7a	0.0419980194985969
146	0x3fc86d45079026f2	0.1908346449784442
147	0xbfc1d089e5b067fd	-0.13917659487998427
148	0xbfd01e9e94e0910a	-0.25186886347570747
149	0x3fcb7a594659b9d6	0.21467128691752063
150	0xbfa8c2d3d76f8bad	-0.048361415909105566
151	0xbfc40227ecdd4aee	-0.15631579461713535
152	0xbfbfa62f5fc36bc3	-0.1236295326993249
153	0xbf887f55984aaa56	-0.011961621007988626
154	0x3fcb537edae7c2a4	0.2134855812905886
155	0x3fccf33cf0fcabe6	0.22617303626006374
156	0x3fbacd3656c5f9fb	0.10469379061212429
157	0x3f79c8a36bb84167	0.00629485927812854
158	0x3f93ea34845612fd	0.01944810922352057
159	0xbfccfdacade480f3	-0.22649153223847626
160	0xbfc4f598d326cd70	-0.16374502477774966
161	0x3fb4f53d0344b9ef	0.08186703996464194
162	0x3fb06ed1c8f7016a	0.064190970958412
163	0xbfc31816c03c8f61	-0.1491726339964954
164	0xbf961cfabb61fec6	-0.021594922720850084
165	0xbfb14152a01b9338	-0.06740299614791645
166	0xbfc6cafe16fe7e97	-0.178069840648267
167	0xbfa58e73c8d6c0d7	-0.042102449671234936
168	0x3f989295705d4bd5	0.02399667261427026
169	0xbfb0bd153f1b4662	-0.06538517752348974
170	0x3fc668ed452c9a46	0.17507711293838407
171	0x3fb68de785f8708f	0.0881027891231858
172	0x3fc4a37fe30a46b8	0.16123961053795255
173	0x3fc55b646d30ba02	0.16685157138404355
174	0x3fc924eecfe72343	0.19643960143573666
175	0x3fa44575aa0d09bc	0.03959243489090933
176	0xbfc6f817a04d0481	-0.17944617583455982
177	0xbfc337684d0c1e53	-0.15012840044095074
178	0x3f6e99b19dde0c24	0.003735396297032805
179	0x3fd50c061cedb8b1	0.3288588793283323
180	0x3fab76b57ab88f33	0.05364005206163682
181	0xbfcc77990c1f74ae	-0.22239983646332945
182	0x3fca478b099db910	0.20530832261597043
183	0xbfb4b8d1bc74431b	-0.08094511843615886
184	0x3fd0a64af069e5d7	0.2601497028150254
185	0x3f9661da910d6f58	0.021857657531071467
186	0xbfd14a38a9c59a13	-0.27015511111531615
187	0xbfc303445b1bfb0e	-0.14853720139213816
188	0xbfca68a8ca78c660	-0.20631894956891283
189	0xbfbd29aa70070141	-0.11391701922457732
190	0x3fc1c6c1536931d4	0.13887802670286808
191	0xbf9dbf4f30e72e76	-0.029050099716000997
192	0x3fcb9dd8767c6e3c	0.21575456414653782
193	0xbf96947004e8d219	-0.02205061941113415
194	0x3fc98e8dc0d6f4cc	0.19966289440154694
195	0x3fb491df80d90eba	0.08035084624958247
196	0xbfb7e7865d729f3e	-0.0933765390533354
197	0x3f9caab9596c1329	0.027995010455032308
198	0xbf9688037fec8efc	-0.0220032259777687
199	0x3fcb841122cd09f5	0.2149678630758697
200	0xbf97f7d9d3d51c78	-0.02340641360686077
201	0x3fbb53e277c97fdb	0.106748728032016
202	0xbfb9d92ead0f1787	-0.10097018933364953
203	0xbfd1afb1b024025f	-0.27634851647602504
204	0xbfba37e2ae6c85f5	-0.10241524465939007
205	0xbfc1b01a7e488b01	-0.13818675199680544
206	0xbfc69f3a872f5fd1	-0.17673427201111605
207	0xbf741f499c254c2a	-0.004912650622219275
208	0xbfa170448f148166	-0.03405966040213819
209	0x3f9d01a0650bb257	0.0283265172646899
210	0xbfb3c84c561efe78	-0.07727505781712718
211	0x3fa1771ce8472623	0.034111884454955076
212	0xbfd227a0a493a862	-0.28366867134048424
213	0x3fc79ca1c77ad91d	0.18446752777317324
214	0xbfd254ecc28b5acc	-0.2864334010932168
215	0x3f9e1fd26ca96208	0.029418266184025682
216	0x3f918035ef6064af	0.01709064744509153
217	0xbfcec5bd1b5b04a1	-0.24040950618476578
218	0x3fd24649a0520b15	0.2855400148038581
219	0x3f9943b960eff5c3	0.024672409574113773
220	0x3f883ffe1a9783f6	0.011840806185263713
221	0xbf830756a8334a3e	-0.009291340835635539
222	0x3fb060da8c8b87f4	0.06397787028575391
223	0xbfc09a1e6d787772	-0.12970333428614428
224	0x3fc086a562cea910	0.1291090710122451
225	0x3fc40c6e6261d0ed	0.15662936977208322
226	0x3fca4778d9fb7224	0.2053061546674978
227	0xbfb03e900445b8ae	-0.06345462898545648
228	0x3fb61e01e56b5b95	0.08639537669237847
229	0x3fb2f164a1db32af	0.07399586631363307
230	0x3fc087878b174d17	0.1291360310702678
231	0xbfa7f3e2418d9df1	-0.046782560827349225
232	0x3fa102b4fd21e70a	0.03322377767558578
233	0x3fb714bd22c5b196	0.0901601991551558
234	0x3f854a5da14bc5d5	0.01039574764715471
235	0x3f78a4d79e4b0b40	0.006016580828773155
236	0xbfa63d2f3756d93e	-0.043435550217895344
237	0xbfb8d0673ec27343	-0.09692998201576324
238	0xbfca0d16813ed588	-0.20352441130459575
239	0xbfc01684eb5994ac	-0.12568723193831965
240	0x3fca20ef5e537b41	0.20413009744421554
241	0x3fca6b08fa2ad1d5	0.20639145102690173
242	0x3f720d2532645652	0.004407067585153595
243	0xbfb80d492a8fb366	-0.09395272530646323
244	0xbfa664bbf2328d03	-0.043737290682907236
245	0x3fc5f2a0b2d704cf	0.17146691067140415
246	0xbfad9723f00b3ffb	-0.05779373460029543
247	0xbfc99659b61fb819	-0.19990083115357107
248	0xbfb77a87924a4007	-0.09171340295347373
249	0xbfbe50961440c7f1	-0.11841714853724718
250	0x3fcf5d32cfd4923d	0.24503169200865385
251	0x3fc227ab89fdc264	0.1418356345925701
252	0xbfb9401f9e3e4546	-0.09863469708786451
253	0x3fb91ae76a340e0b	0.09806677191595996
254	0x3fc0307e5ee857e6	0.1264799083152745
255	0xbfcc401c998b321b	-0.22070653435947993

egnn.layers.0.coord_mlp.0.bias f8 [32]
0	0xbfb0cf53327fbb37	-0.06566352827915699
1	0xbf965fed83af858f	-0.021850310480549914
2	0xbfbf3af37f149ad5	-0.12199327328253713
3	0x3fbe80049ca196cc	0.1191408998871239
4	0xbfa0bf637f14feb3	-0.03271017957967839
5	0xbfc300c5a46aa788	-0.14846106079249588
6	0x3fb5a24180c846a2	0.08450707811450767
7	0x3fa5df84237b8982	0.04272091801773838
8	0xbf363a718ff4e454	-0.0003391768695624787
9	0xbfa1ccc3d2d4597a	-0.034765357481023565
10	0xbf9686e88eca307b	-0.021999009814451114
11	0x3fa4ee5e1f15668e	0.04088110093534879
12	0xbfbd75ebca2a8edb	-0.11508058248233104
13	0xbfb8c70f9c0ecd55	-0.09678742942815195
14	0xbfb704be9e925cb4	-0.0899161469591146
15	0x3fb50515d51a2ce2	0.0821088452595862
16	0xbf77b0db74233349	-0.005783898583285937
17	0xbfbf9b6b7852e3fb	-0.12346526801674422
18	0x3fc413d8e6f8b8d3	0.15685569074543668
19	0x3fc28d78d3d2b203	0.14494238226815534
20	0x3f9a8c2ca981102c	0.02592534813472029
21	0xbf9109e65a77d8d0	-0.016639327308404728
22	0xbfbe7647c55df144	-0.11899231499223101
23	0xbfbbb121efae88e6	-0.10817157842260236
24	0xbf910cc04078db67	-0.016650203642906727
25	0xbf86c981be407594	-0.011126531237148275
26	0x3fad8913f616664f	0.057686446943261964
27	0x3f969df09d2655af	0.022086867896708714
28	0x3fb4f30163601cd5	0.08183296848447992
29	0xbf9f5a924b711ec2	-0.030618940214735664
30	0xbfa6607bd7da35a3	-0.04370486268917808
31	0x3faf5217df2c1ddb	0.0611731967856561

egnn.layers.0.coord_mlp.2.weight f8 [1, 32]
0	0x3fbf50883caa777d	0.12232257348156668
1	0x3fc07ecc691d0c29	0.12886958248609062
2	0xbf680f92167576fe	-0.002937112166974453
3	0xbfa14a4b493947f1	-0.03376994389385846
4	0xbfa34dcfce5539ab	-0.03770303147995276
5	0x3fb108a173e461c1	0.06653794364354494
6	0xbfb99c87f6bacfad	-0.10004472516703684
7	0xbfb21082e97a22fe	-0.07056444358944344
8	0xbfc15f22cce043fb	-0.135715818440559
9	0x3fc175cd0f790216	0.13640750175001476
10	0xbfc2d167461ccec6	-0.14701548503363976
11	0x3fc171eae1ad1150	0.1362889863904777
12	0x3f95ec8cea0e7cb6	0.02141018084114129
13	0x3fadedd85eba38b3	0.05845523983326597
14	0xbfb88d8edc69f7b3	-0.09591000443648916
15	0xbfb00f25b75598fe	-0.06273112989365257
16	0xbfbb7b3f68772253	-0.1073493604700471
17	0x3fa4edcc57a12c55	0.04087675637909941
18	0x3fa1e3e628e430be	0.03494185685312477
19	0xbf92c8c8b89620a8	-0.018344055429708434
20	0xbfb72ffc60c3395a	-0.09057595598571791
21	0x3fb5e1b91f31f95c	0.08547551166154704
22	0x3f9d59610b26ff05	0.0286612666184274
23	0x3fa90d2d3b0df3ed	0.0489286551082627
24	0xbfc054c230a83b63	-0.12758662582242683
25	0xbfc3eb0695e0cc65	-0.15560991590755005
26	0xbfc1cd8c95d543d5	-0.13908536258762064
27	0xbfbbaa71cd0192c9	-0.10806952719719755
28	0xbfa8d7d2f02ec152	-0.04852160627285919
29	0xbfb7887d9788a047	-0.09192643117478481
30	0x3fbd89dfdb2df007	0.11538504696903838
31	0xbfc3ce7988fb9d02	-0.15473860920540267

egnn.layers.0.attention_mlp.0.weight f8 [1, 32]
0	0xbf93cc3937a14519	-0.019333738346465432
1	0xbf8f9f4a7afb4da5	-0.015440542104818553
2	0x3fccf6ea596818db	0.22628526082571096
3	0xbfae5e9ac562abfe	-0.059315525622274365
4	0x3fc92afc63dcc1a1	0.19662432552423773
5	0x3f8520861fed75d2	0.010315940713264835
6	0xbfa71d2312ef61a1	-0.04514417272702365
7	0xbfa4887af60707d0	-0.04010376218094758
8	0x3fbbd0442f73bb34	0.10864664228914195
9	0x3fc2dcd38eaf3e80	0.14736408679026525
10	0x3fd0670e577873e1	0.2562900404171256
11	0xbfb34f9568f15427	-0.07543309986188317
12	0x3fd29eebbd5e919e	0.2909497594175948
13	0x3fb7c87b43b52c2f	0.09290285494823601
14	0xbfbe41130e953db7	-0.11818045717267621
15	0x3fc2baddea734175	0.14632772395863083
16	0x3fbc98679eff7034	0.11170051223547334
17	0xbfc37cb35873e1c9	-0.15224305933931095
18	0xbf95b2d7a0bfea49	-0.021190041719800132
19	0xbfac5d32b2abad12	-0.05539854460752215
20	0xbfb573fe684c550d	-0.08380117460577115
21	0xbfcac534cddf7218	-0.20914325764069086
22	0x3f957d80bbbb2487	0.02098656793421985
23	0xbfa4ef3e32262073	-0.04088777887506092
24	0xbfa0d0e5825e2860	-0.03284375397113659
25	0xbfb57068e6306985	-0.08374648685313531
26	0x3f8ea0ad6a3c0a7e	0.014954905323525166
27	0xbf95aa7890409802	-0.02115810757108961
28	0x3f79361417ba77d4	0.00615508888918544
29	0x3fca69e2fa929a62	0.2063564036845547
30	0x3fc66f35130e6953	0.17526877813799988
31	0xbfbeb854fe1cece1	-0.12000018314295204

egnn.layers.0.attention_mlp.0.bias f8 [1]
0	0x3fc8352a1861456f	0.18912244978359236
