1-init-experiments/logs/test-grid12-2024-09-22@20-11-23/best-1517.pt (torch, 20943 bytes, 12 tensors)

egnn.layers.0.message_mlp.0.weight f4 [16, 17]
00000000: 4f6b 923e 7f3a d7be fa66 643d 104a 9e3d
00000010: 7f03 803e 1c20 1c3e d2c8 813e cc7e 0ebe
00000020: eca0 4cbe 8789 a83e b96e 3ebe c9ca 033e
00000030: bc08 8e3e 7689 063f d494 553d 06a6 8b3d
00000040: 56d0 a0bc 7849 d3be c298 e33c 84e7 dabe
00000050: 729d aabe 6ea5 c7bd 423f da3e 45f9 dfbd
00000060: 6e3b a8bd da55 cebe 91d6 7a3b e60f d1be
00000070: 4713 4e3c 4679 c53e 1f61 a53e 9cda 893e
00000080: e0f2 09bf 7707 f3be 1401 d0bd 8404 463e
00000090: a310 143e d5f2 b03e 25d3 6cbe ab84 c0be
000000a0: 564e 89be bc24 3c3e 1969 e03e e321 f0be
000000b0: 5b79 bb3d 16be 3bbe 95ef 83be 34bb b1be
000000c0: 37ac 60be 235b 8b3e 0cba 453e 1b1e 3abd
000000d0: d692 a63e ff5d 423e dff9 78bd 94b9 74be
000000e0: 5c87 9e3d 7a6f 72be bf02 76bd be46 643c
000000f0: 85e2 77be 6acf d13c 284f 683d 37e5 99be
00000100: 5aa5 adbe 5e38 57bd 2cd6 cb3c e46a ab3e
00000110: f996 e7bd e7d7 cc3e 2701 3bbd 7a10 443e
00000120: 9654 d6be c028 9b3c fcd7 30be 30ec 86be
00000130: 501e ee3d b300 5bbe df07 c03e 3755 8bbe
00000140: 9439 123e a3fd f1be f623 37be 0fb8 9d3d
00000150: 416b 8f3e 244f 25bc fc4b f6bd f3b7 6f3e
00000160: e648 033a 69ce 423d db44 ee3c d772 6b3e
00000170: 7ecb 50be be4d 2fbe e54e 883e a1f4 80be
00000180: 0b03 44bd 881a ec3c ceeb c83e 8a8a 903e
00000190: f71f 31be a199 74be 5690 b43d 7efc d9be
000001a0: 1269 723e 3822 0ebf adc4 be3e af7a 873e
000001b0: e982 833e e269 0fbe 0304 b6be e7b7 af3e
000001c0: ba7f c9be 1610 033d b553 3e3d f705 4b3e
000001d0: b509 09be 4637 87be 6b89 d9bc 71d7 663e
000001e0: 9af5 3c3d aaa4 bf3d 245f 963e 55c7 d93c
000001f0: fa32 d2bd 7749 e4bd 0c56 c43c 6b6a 89bd
00000200: e062 3c3e 41f9 aebd 4dc2 313e 019b 13be
00000210: 59b6 66be b144 12be f367 a83e f34c 7c3e
00000220: 6f50 f6bc 5d2b 3fbe 08b3 a4be 6402 e0bd
00000230: c4cc 203d 421a b03e f818 443e 23cb f33c
00000240: cbfe 5bbd 0895 8c3e 5351 18be 4ff4 61be
00000250: cd5e c2bc 98e6 663e 6de1 4abe da78 0a3c
00000260: 51b3 51be 9814 3c3c 5c65 30be acfa 093e
00000270: 2d32 91be 3e0c 3a3e 9d2d eb3c c566 08bd
00000280: ec10 bbbd 6ccf e1be 4b79 833e e728 88be
00000290: 4b71 0fbe 4147 afbd 2a71 983e fa40 37be
000002a0: 2779 f9be 21fc 49be a58f b3be ce04 9dbe
000002b0: f829 5cbd 9e83 81bd bca1 483e 4482 d03e
000002c0: 2d00 da3d 8da6 89be 179b 8fbe dff6 e13e
000002d0: ef7a e5be 5305 8e3c 7341 9b3d 8159 2f3d
000002e0: 1d19 bc3d 0a31 23bf 39dd 62bd 5e8c b7be
000002f0: a33a 83bd 9bde 9abe 2109 9dbe 2168 15be
00000300: fa46 6f3e ca53 b83d 9e1c 42bd 591d 87be
00000310: 6da8 9c3e 2322 57be 1975 b2be a3ed 643e
00000320: 97cf 413e 69db f2bd fa77 fcbe e946 79be
00000330: 3fed fabb b61c a63e 82b6 0cbe fc71 aa3e
00000340: f06f acbe f3be 48be 4edd dabc c165 6bbd
00000350: 83ec af3e 514e 123e 1215 c33e c9bb 25be
00000360: a000 323b f3e1 4fbe 04aa 9ebe b8ac 513e
00000370: f8a6 0b3d 2aaf fb3d 13d7 9f3e 956c 6d3d
00000380: faea 2a3d d84a 32bd d79e 51be 0a8d d3bd
00000390: 367a 1ebe 2dc5 e43e b152 24bd bfbc bc3e
000003a0: 2407 3dbe 820f 89be 06d7 cdbd 28bf e5be
000003b0: fc93 b83e b8fa 873d 2b8e adbd 613c 953e
000003c0: f505 933e c515 743e 575e aabd ef0f 78be
000003d0: ba49 77bc 6968 a23e 5cca 643e 3fd6 643c
000003e0: eac4 d43e 0602 edbc ce63 883d 4e34 89bd
000003f0: 88b6 643d dc92 313e 7fb7 a13e 0206 dabd
0.28597495 -0.42036816 0.05576227 0.0772897 0.25002667 0.15246624 0.25348526 -0.13915557
-0.19983262 0.32917425 -0.18596925 0.12870325 0.2774104 0.525535 0.052143887 0.06818776
-0.019630592 -0.4126699 0.027782802 -0.42754757 -0.33323246 -0.0974835 0.42626387 -0.10936216
-0.0821446 -0.40299875 0.0038274864 -0.40832442 0.012577838 0.38569087 0.3230066 0.26924598
-0.5388622 -0.47466633 -0.10156456 0.1933766 0.14459471 0.34560266 -0.2312742 -0.37601218
-0.26817578 0.18373388 0.43830183 -0.46900854 0.09154006 -0.18334231 -0.25768724 -0.34713137
-0.21940695 0.2721797 0.19309253 -0.045438867 0.32533902 0.18981169 -0.06078517 -0.23898917
0.077406615 -0.23675337 -0.060061213 0.013932882 -0.24207504 0.025611598 0.056716114 -0.3005769
-0.33915216 -0.05254399 0.024882399 0.3347999 -0.113080926 0.4000847 -0.045655396 0.1914691
-0.4186141 0.01894033 -0.17269892 -0.26352072 0.116268754 -0.21386985 0.37506005 -0.2721345
0.14279777 -0.47263822 -0.17884812 0.07701122 0.28011516 -0.010089669 -0.120262116 0.23410015
0.0005008116 0.04756013 0.029085567 0.22993027 -0.20390126 -0.171195 0.26622692 -0.25186637
-0.047854465 0.028821245 0.39242405 0.28230697 -0.1729735 -0.2388673 0.088165924 -0.4257545
0.23672894 -0.55520964 0.37259427 0.26460788 0.25685814 -0.14005235 -0.35549936 0.34319994
-0.3935526 0.031997763 0.046466548 0.19826494 -0.13382609 -0.26409358 -0.026554784 0.22543122
0.04613266 0.09357579 0.29369462 0.026584307 -0.10263629 -0.11146825 0.023966812 -0.06709751
0.18397093 -0.08543635 0.17359276 -0.14414598 -0.22530498 -0.14284016 0.32891807 0.24638729
-0.03006765 -0.18668886 -0.3216784 -0.10937956 0.03925778 0.34395033 0.1915015 0.02975995
-0.053709786 0.27457452 -0.14874773 -0.22065853 -0.023726845 0.22548902 -0.19812556 0.008451665
-0.2047856 0.011479519 -0.17226166 0.1347453 -0.28358594 0.18168733 0.028708274 -0.033301134
-0.09134087 -0.44103563 0.25678477 -0.26593706 -0.14008062 -0.085585125 0.29773837 -0.1789588
-0.48725244 -0.19725086 -0.3507053 -0.30667728 -0.053750962 -0.06323932 0.19592947 0.40724385
0.10644565 -0.2688488 -0.28048012 0.4413366 -0.44820353 0.017336523 0.07580843 0.042809967
0.091844775 -0.637467 -0.055386756 -0.3584928 -0.064076684 -0.3024796 -0.30671027 -0.14590503
0.23366919 0.090003565 -0.047390573 -0.26389578 0.3059725 -0.21009116 -0.34854963 0.22356276
0.18926845 -0.118582554 -0.49310285 -0.24343456 -0.0076576765 0.3244378 -0.13741496 0.33290088
-0.33679152 -0.19604091 -0.026716854 -0.057470087 0.34360132 0.14287688 0.38102013 -0.16184916
0.0027161017 -0.20301037 -0.30989087 0.20476043 0.03409478 0.12289269 0.31218776 0.05796488
0.041727997 -0.043528408 -0.20470749 -0.103296354 -0.15476307 0.44681683 -0.040117923 0.36862752
-0.18459755 -0.26769644 -0.10050778 -0.44872403 0.36050403 0.06639618 -0.08474382 0.29147628
0.28715482 0.2383643 -0.08318775 -0.24224828 -0.015093261 0.31720284 0.22342819 0.013967096
0.41556484 -0.028931629 0.06659661 -0.066994295 0.055838138 0.17341179 0.3158531 -0.10645677

egnn.layers.0.message_mlp.0.bias f4 [16]
00000000: 490f fbbc f996 57be 250e 963e bdb8 9a3c
00000010: 5bb9 e23e 00e6 3f3d f18d 6e3e f84b 763d
00000020: f753 21be aa67 babc 74be 91be b0ea 97be
00000030: 2f46 a53e 010b 393e 16d5 e73d 8521 133e
-0.030646937 -0.21053685 0.29307666 0.018886918 0.4428204 0.046850204 0.23296334 0.060131043
-0.15754686 -0.022754509 -0.28465617 -0.2967124 0.32280108 0.18070604 0.1131994 0.14368255

egnn.layers.0.message_mlp.2.weight f4 [16, 16]
00000000: 20fa 31be 59e4 c03d 41c5 2d3d 93ef a03e
00000010: 98f6 273e df38 5bbe 1bee 2dbe 6a6a c5bd
00000020: af6f 903d bced 68bd 582a dabc ea31 b1be
00000030: 2f19 e53e 81e3 973e 8e00 473d 8125 16be
00000040: f7b6 173c ef6b 203f 5000 4abd 808e bebe
00000050: 5b18 28be 41a6 963e aad4 303c aa04 85be
00000060: 78c3 b33e bf98 c13d 3944 023f 1036 303f
00000070: e4e0 81be 9eff 79be a47f 86be a6a1 423e
00000080: 1d39 303d 918e 5cbe b8cf 383e 9371 91bc
00000090: d63c d13e e9b2 92be 9cb2 81bd cc25 a3bd
000000a0: 8396 dbbd 6daa a0be 7ee2 b5be 7d7f 043d
000000b0: c180 04bc 65b6 953e 6679 febd 6282 2c3e
000000c0: ca3d 4abe 71ae ddbd 8b3f a83e 9c81 c73e
000000d0: a71e 153e dd0e 48be b295 90bd bd51 463e
000000e0: 2eac 71be 3f32 bfbe 85f7 7b3c 7da1 41be
000000f0: a1cb f5bd 4384 06bd cc84 c4bd c11e 75be
00000100: c690 13bc dc5a 803d bdde 973e e1b1 233e
00000110: d6d2 433e 4cc7 2e3d 8557 98be bffd 01be
00000120: 91d6 00be 44d1 dabe cbc0 13be 5f34 eabd
00000130: cfc5 ea3e dc99 c43e 2c34 0cbb 589b 123c
00000140: f0c3 b43b 592c b03e 3544 6abe 4aec 503e
00000150: 4194 313e 5882 81bd 7bca 823b 90f0 edbd
00000160: a80d 2f3e 0b1b 683e 8c02 853e 5bb9 0e3e
00000170: b7f0 8cbd 2e4b 0bbe 0887 263e 7a39 5b3e
00000180: 5948 613e 53e9 643e ff17 b03d 55e9 bf3d
00000190: b793 bebe 0f37 fa3d 6dcd a83e 7307 a7be
000001a0: 7ca8 8ebd 82d3 823e 6dea 913d ade8 d33d
000001b0: dca6 6abe 616d cabd 3842 56be 3867 aa3e
000001c0: eb49 a03e 7b13 9cbd b788 0bbe 80ee 43bd
000001d0: cbdb a7bd fe55 aa3e 5803 a83e 09b4 383e
000001e0: 9069 c13d f6e4 3d3e 33dc 133e 8735 80be
000001f0: ce1d 09be a50a 33bd d7e2 40be 2d60 b53e
00000200: 5a94 173e 59fc db3e f35a 0dbd 369d 083e
00000210: d2e6 95be a5ef 523e 918e 2c3e 62fb a9bc
00000220: 0264 453e 8b66 e43e 0760 3f3d 89b0 dd3e
00000230: 3b42 033d 1c70 8cbe bf90 483d c164 933e
00000240: f638 03bf a8b7 84bc 43cf d33e d545 8e3e
00000250: d149 3a3e a7a2 36be c034 f9be ea68 7f3e
00000260: c27e 9bbe 4c6b c1be 64db d7be 4c49 77be
00000270: 7fde eb3e f4b9 c53e bb05 af3e 05fa edbe
00000280: d284 083e 6329 d43d 388a 27bd e5d0 46bd
00000290: 9bd0 c5bd 21ac 7c3e 3587 72be 4966 ba3d
000002a0: ce20 b2bd 81b0 363e 9a76 51be 1250 24be
000002b0: f2f9 aa3d 649a cebd 7855 073e 08df f9bd
000002c0: c668 9b3d b834 143e 7900 df3d a948 063c
000002d0: b140 eabd c89b 8b3e 8f09 033e 6974 5cbe
000002e0: 343a 02be 9bf4 43bd cf90 503e 7a38 d9bd
000002f0: 3ddd 8a3e cf84 863d 9e59 76bd bddb 45bd
00000300: fadf c13e 39a5 84bd 401a 71be 4d72 8ebe
00000310: 0169 23be 8fd9 873e 1fab fa3e 04c1 32bd
00000320: 3b04 bc3c 481a fb3e 8b30 913e 3964 943e
00000330: 4e22 8abe 748e 09bf 422c afbe cb1b 8e3e
00000340: 12c6 c7be 08e3 4dbc 7b8f ab3e 6853 de3e
00000350: 710d e83e 14ff 9bbe 7d1e dabe ea5d 11be
00000360: b202 cf3d 43d5 3abe 289f 97be e8c9 4bbe
00000370: 9fef 8c3e 8d41 243e 9d03 373d e5fe 343d
00000380: 1bd7 9b3e ea6f 803d 1eeb 9dbc 4914 a03d
00000390: ea30 b8be f849 d03e 5e83 103e 915d 6fba
000003a0: ec0e aa3d e381 78bd a72e a53e e106 453e
000003b0: 5fbd e6bd 7ad7 92bd 6e2d 9d3d 2961 f33c
000003c0: 9044 73bd c584 babe 228c b93e 5606 8d3d
000003d0: 263a 553d aac0 aebe d6f0 47be 84f3 8b3e
000003e0: 5091 b0be 2361 d2bd 2028 54bd 5848 da3d
000003f0: e985 64bd ac31 2a3d 527b 333e b8df d4be
-0.17380571 0.09418554 0.042424444 0.3143278 0.16402662 -0.21408413 -0.16985361 -0.096394375
0.07052552 -0.056867346 -0.02663152 -0.34608394 0.44745776 0.2966576 0.048584513 -0.14662744
0.009259931 0.62664694 -0.049316704 -0.37218094 -0.16415541 0.29423717 0.010792891 -0.2598012
0.35110068 0.09452962 0.5088535 0.6883249 -0.2536689 -0.24413916 -0.26269257 0.19006976
0.043023217 -0.2153876 0.18047988 -0.017754352 0.40866727 -0.28652123 -0.06332895 -0.079661936
-0.10722067 -0.31380025 -0.35524362 0.032348145 -0.008087338 0.29240718 -0.12425499 0.16846612
-0.19750133 -0.10824288 0.3286098 0.38966072 0.14562474 -0.1953692 -0.07059802 0.19367118
-0.23600838 -0.37343022 0.0153788375 -0.18909259 -0.1200173 -0.03284098 -0.095956415 -0.23937513
-0.009006685 0.0626733 0.29662123 0.15985824 0.19123396 0.042670533 -0.29754272 -0.12694453
-0.1258185 -0.42737782 -0.14429013 -0.1143577 0.4585404 0.38398635 -0.0021393402 0.00894817
0.0055165216 0.34408835 -0.22877581 0.20402637 0.1734171 -0.06323689 0.0039914227 -0.11618149
0.17095053 0.22666566 0.25978506 0.13937895 -0.0688185 -0.13602898 0.16262448 0.21408644
0.22000255 0.22354631 0.08598327 0.093706764 -0.37222072 0.12217533 0.32969227 -0.3262287
-0.069657296 0.25551993 0.07124791 0.10347114 -0.22915214 -0.098841436 -0.20923698 0.33281875
0.31306395 -0.07620903 -0.13626371 -0.047834873 -0.08196219 0.33268732 0.3281505 0.18037428
0.094439626 0.18544373 0.14439468 -0.25040838 -0.13390276 -0.043711323 -0.18836533 0.3542494
0.14802685 0.42965963 -0.034510564 0.13341221 -0.29277664 0.2059923 0.1685126 -0.020749751
0.19276431 0.44609484 0.04672244 0.43298748 0.032045584 -0.27429283 0.048966166 0.28787807
-0.5125879 -0.016200855 0.41369066 0.27787653 0.18192221 -0.17835484 -0.48673058 0.24942365
-0.30370146 -0.37777174 -0.4215957 -0.24149054 0.4606819 0.38618433 0.3418406 -0.46479812
0.13331917 0.103594564 -0.0409033 -0.04853906 -0.09658929 0.24675037 -0.2368439 0.091015406
-0.08697663 0.17840768 -0.20455399 -0.1604617 0.083484545 -0.100880414 0.13216197 -0.12200743
0.07588343 0.14473236 0.10888762 0.0081960345 -0.1143812 0.2726729 0.12796615 -0.21528782
-0.12717515 -0.047840696 0.2036774 -0.10606475 0.27121916 0.065683 -0.06014406 -0.048305262
0.37866193 -0.06476826 -0.2354517 -0.2782158 -0.15958025 0.26533172 0.4895868 -0.043641105
0.022951236 0.49043489 0.28357348 0.28982714 -0.26979297 -0.5373299 -0.34213454 0.2775558
-0.39018303 -0.0125663355 0.33507904 0.4342301 0.45322755 -0.30468047 -0.42601386 -0.14195982
0.10107936 -0.18245415 -0.29613614 -0.1990124 0.27526566 0.1604063 0.04468118 0.0441884
0.3043755 0.06271346 -0.019277152 0.07816369 -0.35974818 0.40681434 0.14112613 -0.0009131069
0.08303627 -0.060670745 0.32262155 0.19240905 -0.112665884 -0.07170005 0.07674681 0.029709416
-0.05939156 -0.3642942 0.36239725 0.06885974 0.052057408 -0.34131366 -0.19525465 0.27334225
-0.34485865 -0.102724336 -0.05179608 0.1065833 -0.05579177 0.041551277 0.17527512 -0.41576934

egnn.layers.0.message_mlp.2.bias f4 [16]
00000000: fde0 9c3e d1c2 51be 1675 1b3e ee8b 533e
00000010: c4eb 533e 8156 51be bed1 26be eab9 ff3c
00000020: 48e5 9d3d af94 5bbd a0bb a3bd 6b8e b83e
00000030: 69a1 d03d 7d3d 1a3e ffbc 073e e3f2 d03d
0.30640402 -0.20484473 0.15181383 0.20658848 0.20695406 -0.20443155 -0.16290948 0.03121658
0.077097476 -0.053608593 -0.07994771 0.36046156 0.101870365 0.15062518 0.1325569 0.10202577

egnn.layers.0.coords_mlp.0.weight f4 [3, 16]
00000000: dc66 4cbe dc93 6e3e 24de e1bd 75a6 82be
00000010: cd21 24be 891d 233e f16e 883d b6e0 093e
00000020: 3a0f e33e 394f 75be 98c8 09be 05a8 e33e
00000030: cd97 f43e 7222 16be 66a1 c03e 4631 0fbe
00000040: 9a02 033f b852 103d 5498 5b3e cd63 d43e
00000050: b515 bf3e 21ec b5be ef93 bdbe 3c71 bebb
00000060: bda4 f4be d157 ce3e a3ff 33be 7c0f eebd
00000070: 9401 15bf 9f7c 153f c94b 1cbf d9ba 6a3e
00000080: 4953 c63e a3a6 80be 852f 2c3f 64e7 783d
00000090: 6c10 243f c787 2fbd 20eb d4be 730a bcbe
000000a0: aad8 b0be dd67 f13e e86e 473d f2dd 6b3e
000000b0: 3079 08bf 7aa8 f93e 1aaf c5be ef92 4d3e
-0.19961113 0.23298591 -0.11028698 -0.25517622 -0.16028519 0.15929236 0.066617854 0.13464627
0.44347554 -0.23956002 -0.13455427 0.44464126 0.47772065 -0.14661577 0.37623137 -0.1398364
0.51175845 0.035235137 0.21444827 0.41482392 0.3732125 -0.35531715 -0.37026927 -0.0058118384
-0.47781935 0.40301374 -0.17577986 -0.11624047 -0.58205533 0.5839328 -0.6105314 0.22922839
0.38735417 -0.25127134 0.6726001 0.060767546 0.6408756 -0.042854097 -0.41585636 -0.36726722
-0.34540302 0.47149554 0.048689753 0.23033884 -0.5330992 0.4876135 -0.38610154 0.20075582

egnn.layers.0.coords_mlp.0.bias f4 [3]
00000000: eeda 1abe b36c 983e 282f 783e
-0.15122578 0.2977043 0.24236739

egnn.layers.0.coords_mlp.2.weight f4 [1, 3]
00000000: eb86 ac3d abfc edbd 636a 02be
0.08424171 -0.11620458 -0.12735896

egnn.layers.0.hidden_mlp.0.weight f4 [16, 24]
00000000: 1ce7 7ebe 0744 80bd 4285 52bd 057f 103d
00000010: 1105 1cbc 9c8a b5bb 5244 1abd dd7e 8ebd
00000020: 5ad5 f13d dcc1 163d a797 053e 6bfa debd
00000030: 9ab5 323e acf8 1dbe 7362 e23d 4621 bb3d
00000040: 19c2 1b3e 1da3 c23d 6ef0 593e 822a eb3d
00000050: 43a8 fdbd d74e 1dbd e578 a3bc 5076 72bc
00000060: 8885 ce3c 926c 6c3e a41d f93d c8eb f53c
00000070: 2e7a f63d d46f 88bd cc08 0dbe 64d6 40be
00000080: 55db 58be cf8f 72bd 7bc7 b23d 75b4 253e
00000090: 96e8 17be de05 253e 4e73 92be b189 73bd
000000a0: 21df 913d f91d 1bbe 5bc3 373d c751 7cbe
000000b0: a5d4 6bbe dc6f e43d e3d1 a1bd 5e08 03bd
000000c0: d143 9dbd c654 0fbe e8d8 63bd 2905 8e3b
000000d0: 3ff0 373e 0680 fb3d 5a18 ac3d 3b38 d0bd
000000e0: 10f7 903d b01d 62be 373c 3dbd 8ce1 5bbe
000000f0: 60e0 0a3e 77e9 e3bd a93f c5bd eb4f 2b3e
00000100: 4c45 233e bac9 a13c cb00 303e ddc3 203e
00000110: 345d ddbd ced5 813c 9158 323c 6330 1b3d
00000120: 3f30 033e 2783 863d 0671 283e 4b20 053e
00000130: 8cf6 c13b d460 3ebe 0356 823d 0e76 c5bd
00000140: 97a8 b6bc 028a c43d f4de 1bbd e9dc 3a3e
00000150: d522 2fbd c7a6 423e e511 2cbe e243 53be
00000160: a3a8 f73d 9f1c bdbd cfe3 673c 174e ef3c
00000170: 8224 c9bd 23f9 893d 6069 d93d fad3 25bd
00000180: a0f0 e9bd 61b9 69bd b741 263d ad27 1c3e
00000190: 0ecf 253e e898 733e 3b69 d93d ad57 ccb9
000001a0: 51ef 69be 7fcb 883b 36c6 2cbe e1c2 38be
000001b0: 98a9 9fbc 064c 1bbd 0882 a4bd e460 90bb
000001c0: 2b50 1a3e 10d1 cd3d c8c0 5b3e d6f8 aabc
000001d0: aa2c 873d 060f 1cbd 49e6 9b3c b1fb 16be
000001e0: 016f 9abd 0cb3 0f3e 42aa 083e 2b78 883d
000001f0: e013 17bd 56eb 82bc 0ad7 4cbe 52ae 46bd
00000200: e53f d53d 8446 4f3d 27f9 a53d fa87 393e
00000210: 90ba 42be 1589 5f3e ea11 c53d fbe8 3bbe
00000220: c521 f73d 8a18 473d 603e 31be c249 8dbe
00000230: d057 c1bd 4b09 5bba 81c5 3abe 142f 67bd
00000240: 5d48 f73d e4ad 13be ec18 8c3c fa84 35bc
00000250: 72c1 57bd 1914 b73d 7a4f 57be 36cc cf3d
00000260: d15a 28be 8eac 3dbe 7ce4 7a3c cc43 0dbe
00000270: c483 e13d 0eac 0b3e a71a d4bd a706 4cbe
00000280: caf9 c13d 4fcd f33c 986a d63d 82bb a8bd
00000290: 2631 dc3d fe60 1abe 9355 f03d def0 093e
000002a0: 1470 7c3d 94be b93d db85 8cbd 98bb 21bd
000002b0: 71f8 64bd 9147 07bd aaca ddbd 385d 1c3e
000002c0: f05e 0b3e 30e3 f9bc 8a05 473c c90f 313e
000002d0: af5b 70be 2450 3a3e 31fc f43d fac5 a43c
000002e0: 1cc4 c83c 0876 18be 1369 80bb 1667 90be
000002f0: 0b36 bfbd 941c 553e 6f37 083e 0b57 593e
00000300: f440 7a3d 9ace 62be c365 6d3e 6eb0 6cbe
00000310: a854 323d ad6f 69bd c99e 71be ce83 05ba
00000320: e06a 1cbd 1a61 92bd 02bc 283e 83be b33d
00000330: 3b69 85bd d539 dfbc 730a aebd 77a2 523e
00000340: ff91 2fba 5fd4 12be 6272 01be 5a90 683e
00000350: 4286 0e3d 6d6f 733d d7a2 3dbd 3f6b adbe
00000360: d169 b53d 89ed 24be bf6f 223e 5432 4e3d
00000370: 6b16 803d f927 283e 0f17 113d 28f7 c13d
00000380: 9733 0c3b caa2 a13d 2e0d 9a3d 4403 8bbd
00000390: 3863 babd 4d62 b8bd 8b91 5c3e 721a e03d
000003a0: 3bc0 783e 65a7 a03c 46b1 83bd c4f1 28be
000003b0: 0840 3b3d 9abc d03d dbab 02bc 9a3a 093e
000003c0: 90ba 0cbe 7ec8 60be c484 603e efd6 1f3e
000003d0: ddf6 2cbe e6c1 d13d abbb ff3c 1c75 01be
000003e0: 448e bcbd 51f5 73bd 781b 8ebd 33dd 663e
000003f0: e8ca 1cbe 549e 0cbe 1dff 14be e310 aabd
-0.24892849 -0.06262975 -0.051396616 0.035277385 -0.009522692 -0.005540205 -0.03766281 -0.06957791
0.11808272 0.036805972 0.13046132 -0.10887607 0.17452088 -0.15426892 0.11053934 0.09137206
0.15210761 0.09503768 0.21283123 0.11482717 -0.12385609 -0.038405266 -0.019955108 -0.014798716
0.025210157 0.23088291 0.121638566 0.030019656 0.12035023 -0.066619545 -0.13772887 -0.18831784
-0.21177419 -0.059219178 0.08729454 0.1618212 -0.14834818 0.1611552 -0.28603595 -0.059457485
0.071226366 -0.15148152 0.04486404 -0.2464057 -0.23030336 0.11154148 -0.07901361 -0.0319904
-0.076789506 -0.13997182 -0.05562678 0.004334111 0.1796274 0.12280278 0.08403082 -0.10166975
0.070783734 -0.22081637 -0.046200003 -0.21472758 0.13562155 -0.11128514 -0.09631283 0.16729705
0.15944403 0.019749511 0.17187802 0.15699716 -0.10808793 0.01584902 0.010885374 0.037887942
0.12811373 0.06567984 0.16449365 0.130006 0.0059192833 -0.18591624 0.06364062 -0.09641658
-0.022297187 0.095966354 -0.03805442 0.18248333 -0.042757828 0.19008933 -0.16803701 -0.20631364
0.12092712 -0.09233975 0.014153435 0.02921204 -0.098214164 0.06736972 0.10615802 -0.04048536
-0.11422849 -0.057061557 0.040590014 0.1524951 0.16192266 0.23788798 0.10615774 -0.00038975236
-0.22845198 0.0041746492 -0.16872486 -0.1804309 -0.019490048 -0.0379143 -0.08032614 -0.0044060815
0.15069644 0.10049641 0.21460259 -0.020870607 0.06600316 -0.038100265 0.019030707 -0.1474445
-0.075407036 0.14033145 0.13346198 0.06663545 -0.03688419 -0.015981358 -0.20003906 -0.04850609
0.104125775 0.05060436 0.08104163 0.18118277 -0.1901648 0.21829636 0.096225575 -0.18350594
0.12066988 0.048607387 -0.1730895 -0.27595335 -0.09440577 -0.0008355572 -0.18239404 -0.05644138
0.12074349 -0.14421803 0.017101727 -0.011079067 -0.05267472 0.0893938 -0.21026412 0.10146372
-0.16440894 -0.18522856 0.015313264 -0.13795394 0.110114604 0.13639852 -0.10356646 -0.19924413
0.094714716 0.029760985 0.1046955 -0.08238889 0.10751562 -0.15076062 0.11735072 0.1347079
0.061630324 0.09069553 -0.068614684 -0.039485544 -0.055900995 -0.033027235 -0.10829671 0.15269935
0.13610435 -0.03050384 0.012147317 0.17291178 -0.23472475 0.18194634 0.11962164 0.020113934
0.024507575 -0.14888775 -0.003918776 -0.28203648 -0.0933648 0.20811683 0.13302396 0.2122461
0.0610971 -0.22149125 0.2318335 -0.23114178 0.043537766 -0.056991268 -0.23595728 -0.0005093188
-0.03818786 -0.07147427 0.1647797 0.087765716 -0.06514212 -0.027249256 -0.08498087 0.20569788
-0.00066974753 -0.14338826 -0.1264129 0.22711316 0.034796007 0.059432436 -0.046297874 -0.33870885
0.088580735 -0.16106237 0.1586294 0.050340965 0.06254276 0.16421498 0.03542238 0.094709694
0.0021393055 0.07892378 0.07522045 -0.06787732 -0.09100956 -0.090031244 0.21539895 0.10942544
0.2429208 0.01961107 -0.064302966 -0.16498476 0.04571536 0.10192223 -0.007975544 0.13401261
-0.13743043 -0.21951482 0.21925646 0.15609334 -0.16891046 0.10242061 0.031217417 -0.1264233
-0.092068225 -0.059560124 -0.06938833 0.22545318 -0.15311778 -0.13732272 -0.14550443 -0.08304002

egnn.layers.0.hidden_mlp.0.bias f4 [16]
00000000: 507c 223d 3456 0d3d 6465 283e d0ce 0ebe
00000010: d2ab 163e c69f 2a3d 9233 f0bd 2c62 f6bd
00000020: 2fb0 7d3e 15a2 813b 6745 853d 1709 72bd
00000030: 9268 80be 9eb1 2b3d 4008 3d3c a320 493c
0.039669335 0.034506038 0.16444927 -0.1394608 0.14713982 0.041656278 -0.11728586 -0.120304435
0.2477424 0.0039560893 0.06507378 -0.0590907 -0.2507978 0.041917436 0.0115376115 0.012275848

egnn.layers.0.hidden_mlp.2.weight f4 [8, 16]
00000000: 73b0 b83d 952b 47bd f0ff 7d3e 1d27 44bd
00000010: ece4 84bd bd3d 273e 253c ce3b 6c35 1d3e
00000020: 9546 113e 062a fcbc f783 903e 743b c43d
00000030: 3d84 463e 0efb 85be f703 8f3e b39b 283e
00000040: 9fef 67be f4fe 8b3e d0c3 81be 7e0f a03c
00000050: 3e40 093e 6c83 8f3e 6f04 8bbd 7bce 763e
00000060: 2475 58be ad3e b13d e6d8 2d3e 3f45 d93c
00000070: 08e2 a63d 82ca f9bc 7b8b 7ebe 3ac4 943c
00000080: 23e2 d8bd d8c9 193e eefc f63d b122 ccbd
00000090: 1563 ddbd a945 5e3e fc7d 303e 9fb9 8b3d
000000a0: f42d 0f3e 8764 68bd 5ff1 39bc 8bc9 7e3e
000000b0: c7ce 113e 721c 4a3d 7e8d 833e 1d72 ff3d
000000c0: d7f9 71be b1d1 083e bc65 de3d 0b75 2f3e
000000d0: 0448 2fbe 4507 bb3d ebfa 383d 98cb bcbc
000000e0: f42a ddbd b0f2 8ebd a4c6 8f3d e3db fb3c
000000f0: 7539 0dbe 3cda 4f3e 3bec 41be 7954 65be
00000100: 24ba 11be 8798 b2bd 3325 8b3d 2455 28bd
00000110: 8ad5 533e 6e4e 783d 342c eb3b fc62 d03d
00000120: 5c1f 85bd f221 223c af93 91be 8f9e ac3d
00000130: 91e2 513e 68c4 70bd 77ef 423e 56f5 333d
00000140: 1eab 25be a364 f9bd dcea 01bc 9dfe 0abe
00000150: 0b46 ea3c 8811 22bc 2082 bf3d a3da b7bd
00000160: f0e3 81be 3fe7 c33d f0e8 67be 1a75 363e
00000170: 31b2 b63d 53ac 41be 18e8 0dbe 2072 78bd
00000180: cf85 fa3c 7a6d 023e 1645 533e 0277 5cbe
00000190: 078d 053e a3c3 a0bd e856 6c3e b357 aabc
000001a0: 632d 5b3d b9de 5dbd b820 28be 8488 3cbe
000001b0: 6579 dfbd d2fa a4bd 345a 3ebe 96b7 493e
000001c0: a9eb acbc c605 823e ca26 433e 3129 b13c
000001d0: 0bbc 76bd fc59 3abd 03a9 8e3e e665 e3bd
000001e0: cf7c d03b 6e34 8abe ca14 643e d444 4a3e
000001f0: b887 603e a633 c0bd c040 a93e c9cc 1ebe
0.0901803 -0.048625547 0.24804664 -0.047888864 -0.06488976 0.16332145 0.006293791 0.1535241
0.14187081 -0.030781757 0.2822568 0.09581652 0.19386382 -0.26168102 0.27932712 0.16465645
-0.22650002 0.2734295 -0.25344706 0.019538637 0.13403413 0.28029954 -0.06787955 0.24102204
-0.21138436 0.086545326 0.16977271 0.026522277 0.08148581 -0.030492071 -0.24857895 0.018159974
-0.10590007 0.15018404 0.12059961 -0.09967554 -0.10809914 0.2170626 0.17235559 0.06822514
0.13982373 -0.056736495 -0.011349051 0.2488157 0.14239036 0.049343534 0.25693887 0.12472937
-0.23630463 0.13361241 0.10859248 0.17134492 -0.17117316 0.09132246 0.04516117 -0.0230463
-0.10799208 -0.06979883 0.070203096 0.030744499 -0.1379145 0.20298094 -0.18937771 -0.22395505
-0.14231163 -0.087204985 0.067942046 -0.04109682 0.20686927 0.06062167 0.0071769003 0.1017513
-0.06500122 0.0098957885 -0.28432986 0.0842868 0.20496584 -0.058781058 0.19036661 0.043935142
-0.16178557 -0.12177398 -0.00792953 -0.1357369 0.028597852 -0.009891875 0.09350991 -0.089772485
-0.25369215 0.09565591 -0.22647452 0.17818108 0.08920706 -0.18913393 -0.13858068 -0.060655713
0.030581383 0.12737074 0.20631823 -0.21529773 0.13042079 -0.07849815 0.23080027 -0.020793771
0.05351008 -0.054167483 -0.16418731 -0.18411452 -0.10911826 -0.08055653 -0.18589097 0.19698939
-0.021108465 0.2539503 0.19057766 0.021626087 -0.060237925 -0.045495972 0.2786332 -0.1110342
0.0063625346 -0.26993126 0.22273555 0.19752818 0.21926773 -0.09384851 0.33057213 -0.15507807

egnn.layers.0.hidden_mlp.2.bias f4 [8]
00000000: 6f5b 5739 deec 073a a250 493a aeba a3b7
00000010: f77a f3b9 805d d1b9 7e6b 973a 0aed 983b
0.0002053806 0.0005185137 0.0007679557 -1.9518044e-05 -0.00046440188 -0.0003993325 0.0011552421 0.004666929

egnn.layers.0.attention_mlp.0.weight f4 [1, 16]
00000000: 4e5d cc3d 174e 94be a78f 883e b1df d93e
00000010: 69ac f23d 3693 06bf 1e8f 03bc d15f 25be
00000020: edb4 a9be a274 94bd 57e9 d7be abbe cf3d
00000030: 7e07 30be bccc d73e 447d 63be 6278 cd3d
0.09978734 -0.28965828 0.26672098 0.42553475 0.11849291 -0.52568376 -0.008029727 -0.16149832
-0.33145848 -0.072488084 -0.42170212 0.10143789 -0.17190358 0.42148387 -0.22215754 0.10032727
